weights/numdreg_id/nyse/mse/high/numdreg_id_pretrain.pt (torch, 263099 bytes, 14 tensors)

fc1.weight f8 [100, 200]
0	0xbfb614f2f7ffe073	-0.08625715784717318
1	0xbfb4a832070ecfde	-0.0806914584380247
2	0x3f88350ebf446f4a	0.011819949352279164
3	0x3fabe6eea26471ef	0.05449624759987503
4	0x3faaa60eee571bd8	0.05204817447116
5	0xbfb28dc9d2754e25	-0.07247601879253603
6	0x3fa18155b454cadf	0.03418987108525128
7	0xbfc02d0c7ee4142d	-0.12637478061529475
8	0x3fbf630d78fc5a80	0.122605173146761
9	0xbfac22a907602887	-0.05495193686518101
10	0x3faa703e647ccdf7	0.05163760162977476
11	0xbfb4976175c8c103	-0.08043488622275068
12	0xbf7b20ccb9ba33b9	-0.006623077115034564
13	0xbfbeb61a3e477361	-0.1199661638306231
14	0x3fc37d8714c07408	0.15226830018301052
15	0xbf8ae0f04a54a248	-0.013124348896398477
16	0x3f96988642d33827	0.022066209629706315
17	0x3f7208c1a9dfcc1a	0.004402882097553929
18	0x3fa7ac3a2dbd608b	0.04623586471888171
19	0x3fb202fc7ba04c47	0.07035806673256771
20	0x3f9b6fe5beac1cd7	0.026794042360987227
21	0xbfb49bc92a35ce7a	-0.08050210266611116
22	0xbfbb4bafc9a6d94e	-0.10662363694323071
23	0x3f8ee0d904f482c3	0.015077300513952513
24	0x3fa3e4a79b7dd60f	0.03885387204256229
25	0x3fb0ebc1dc3ccda8	0.06609737040417107
26	0xbf954860a3a94b7b	-0.02078391074094153
27	0x3fa9d4ee81a0185f	0.050452664683732655
28	0x3fb2a27afd3cfd14	0.07279175455640924
29	0xbfa494c3bfd874a6	-0.04019748417724971
30	0x3fb56d56f9f00b0b	0.08369964220041141
31	0x3f974d26e056b0e6	0.02275524849180579
32	0x3fb63f965e844d2e	0.08690776641406181
33	0xbfa024c25efcfae9	-0.0315304509117505
34	0x3fb5c226123492ac	0.08499372429339286
35	0x3fb25c48fb0c8a3b	0.07172065858007041
36	0xbf8f693f6b2335b0	-0.015337462861135659
37	0xbfa71fe864dd85cb	-0.04516531211153171
38	0xbf82d4fe4ae67ffc	-0.009195315037516132
39	0x3fc1d5f40a21860c	0.13934183592486737
40	0xbf755c0c8beac9be	-0.005214737901655329
41	0x3fb16b57ccf9002a	0.06804417375769903
42	0xbf96c31fc15a2024	-0.022228714157364618
43	0xbfab8411839895dd	-0.05374197703740056
44	0x3faf840aa119848b	0.06155427185581982
45	0x3f827b214a57e0fa	0.009023914414669754
46	0x3fac98e7470e47c1	0.05585406057720333
47	0x3fa9c75e91a6f65c	0.05034919288617054
48	0xbf936a3a68512ccf	-0.018959915749559294
49	0x3f9e07103166c496	0.02932381917498058
50	0xbf8cfdf8837e4ae0	-0.014156285775049182
51	0x3f8084368b8f2e08	0.008064676412593577
52	0x3fbb2a3c3619d22b	0.10611320801565031
53	0xbf9f92b7de16c3bb	-0.03083312314055651
54	0xbfae19f6f1c7436b	-0.058791844381295665
55	0xbf93225d39c6b961	-0.018685776378043587
56	0xbfb5d36ac2812455	-0.08525721787113245
57	0xbfad7a6fda450022	-0.057574744600515496
58	0xbf9e36f93e5e0e3a	-0.029506582671741756
59	0x3f7d35f09026489d	0.007131519031093128
60	0xbfab33a90d14c4a4	-0.053128512236420705
61	0x3fb5f3e6be37c492	0.0857528890990287
62	0xbf9f8870db478de8	-0.03079391802192602
63	0x3fb5f5cdb88eb059	0.08578191524310465
64	0x3fa3dd7b94423d4e	0.03879915413664979
65	0xbf96c676b2f5e1ab	-0.02224145381248525
66	0x3faa267bb7c8706e	0.051074854072994266
67	0xbfb338476745feb1	-0.07507749816249533
68	0xbfa0c6e18c88dd8b	-0.032767342000108966
69	0x3f718487ca7a8e98	0.004276781495409353
70	0xbf95a452d6792a4e	-0.02113465723076962
71	0xbf9ad2849c1e5bd8	-0.026193687466356724
72	0x3f961d185dba3c18	0.02159536430422912
73	0xbf65d749254dcfc1	-0.0026661327960315344
74	0xbf530fac9df03fd9	-0.0011634050094961794
75	0xbfa292cc42a09a69	-0.036276229031774694
76	0x3fa252f383099847	0.035789117570673094
77	0xbfa1e61d27cc1bc8	-0.0349587546425521
78	0xbfab797dfd359e38	-0.0536612865060388
79	0xbf7f7f35a1b657c9	-0.0076896758067927585
80	0x3fc18c7e52e1d630	0.13710001990300347
81	0xbfb51a2e9d828d39	-0.08243075700243176
82	0xbfa0f3691153d24f	-0.03310707413212254
83	0x3f96a288a5398f04	0.022104392132304987
84	0x3f95024988e3b335	0.020516537647313277
85	0x3facfc0bfa30a279	0.056610464373368204
86	0x3f810171e36beee4	0.008303537133080359
87	0xbf946f515766d3ad	-0.019955893477987697
88	0xbf8fedf3b35345eb	-0.015590576086114324
89	0x3fb574e01867ba00	0.0838146266539539
90	0x3f9805259b3b1a20	0.02345713386491799
91	0xbfa3de3eb8c87e8e	-0.03880496984151903
92	0xbf9d0992f516d91f	-0.028356834610996914
93	0x3fa3c6e51ca2b931	0.03862682318264133
94	0x3fa1c365806a2daa	0.034693881917600436
95	0xbfc4316a6d2e73aa	-0.15775804835439305
96	0x3fa586f8b146f919	0.04204537548092641
97	0x3f905d5988cefe88	0.015981101012356308
98	0xbf891ce0db9b227e	-0.012262112333148108
99	0xbf7bb376caf3f332	-0.006762947115245764
100	0x3fa252d1f7eec79a	0.03578811790011045
101	0xbf66cdc25d1112ca	-0.0027836605227399046
102	0x3fc401a2e8e81334	0.15629993793859287
103	0xbfbac82c414db2af	-0.10461689562152786
104	0x3fb0a353a4535553	0.06499216806272061
105	0x3f9ce8a25f913bb7	0.02823117931648841
106	0x3fa2f88d548b699f	0.0370525518134912
107	0x3f885d97bd6a87d7	0.011897263973256784
108	0x3fb173bff89381b5	0.06817245310549576
109	0xbfb13d8b85827af4	-0.06734535226358301
110	0x3fa6414eda00cc0d	0.043467010604580116
111	0x3f89aec5772df41d	0.012540381145067109
112	0x3f71dbc984db8655	0.004359996016974306
113	0x3fad2cafec40d4ed	0.05698156126929086
114	0x3f91fc59cd8fd438	0.017564204379557163
115	0xbfa8b8f21199e0f5	-0.04828602280480424
116	0xbf732bc2c3373dd0	-0.004680405417686953
117	0xbfb33d5200ec78f6	-0.07515442392875457
118	0x3fb241d00ce76ec5	0.07131672205963031
119	0xbfa73c91ae2a0e00	-0.04538398028401147
120	0x3fab7b7a42112e69	0.053676434101899435
121	0x3fc0d59396dccc6c	0.13151783815701223
122	0xbf92ecb102eb6591	-0.018481031230157156
123	0x3f8b435998cfcf39	0.013312053657478994
124	0xbfa3e1e70e880d16	-0.0388328747976862
125	0x3fa8dc9e1b9526bc	0.04855817877485211
126	0xbfb8d60c79768d3c	-0.09701612439544233
127	0x3faf0c6224670de4	0.06064135259978423
128	0x3fb18a62548a5bbc	0.06851782382942323
129	0xbf9c712aa8ff0818	-0.027775446476660276
130	0xbfbbc8fbcd7c6f96	-0.10853551642179435
131	0x3fa7b6ca5b7721e6	0.04631645552177925
132	0x3fb445c860765ee8	0.07918979983366692
133	0xbfbcaf01b7afa570	-0.11204539045833939
134	0x3f9204d077b4cb17	0.01759649019841011
135	0xbfa81e3bdf7c5b70	-0.04710566619012624
136	0xbfa7111cb3e2051d	-0.0450524301131827
137	0xbf96a944f5147f08	-0.02213008638238903
138	0xbfab022be0673057	-0.052750941412882106
139	0xbfb65d0d52854941	-0.0873573614565304
140	0x3f9e102edada6353	0.029358608348590675
141	0xbfb2c6d8f45df9c2	-0.07334667173379386
142	0x3f87516b4a519c3a	0.01138576336434315
143	0xbfb74da037faa65a	-0.09102822653462664
144	0xbf5c4d7db46bf4a0	-0.0017274596772829734
145	0x3fbedc3e4fc6553d	0.1205481476557297
146	0x3fa1d24a735e4443	0.03480751665404871
147	0xbfb28fa9d9b9ace0	-0.07250463071402491
148	0x3fb029b1217058a6	0.06313616815927733
149	0xbfbcb0c2735ee4c3	-0.11207213703791567
150	0xbfbc50352276c4c8	-0.11059887019543446
151	0x3f90257926261e6b	0.01576794905989091
152	0xbf689c40b9f190de	-0.0030041946588871124
153	0xbf9861a05f63fc54	-0.023809915373018534
154	0xbfab6833993210a1	-0.05352936978400292
155	0x3fa27ce023e7543c	0.036108974821822376
156	0x3fc1251815b19536	0.13394452151548258
157	0x3fa2f9235982a0a6	0.037057022739930986
158	0x3fab17fef60b52a2	0.0529174495074234
159	0xbfb93ba05a3d6201	-0.09856607630843685
160	0x3fb48009b59459f5	0.08007870371907429
161	0xbfa1d5116252e632	-0.03482870412103657
162	0xbf8b7c6d89f7dadb	-0.013420921109156428
163	0x3f853075fad3f1d2	0.010346338002357767
164	0xbf77eb9aa085c636	-0.005839923869972055
165	0xbfaac52a708aad86	-0.05228550552177595
166	0xbfc455b3e0ae1979	-0.1588654372282681
167	0x3fa2136fe0b66180	0.035304542713848086
168	0xbfa3ba65ffd31029	-0.03853148219926112
169	0x3fa98a026a76a20c	0.04988105344392943
170	0x3facfc3fbf8e51c2	0.05661200726823125
171	0xbfa87b9c980e64dd	-0.04781808239131078
172	0xbfa637f086c38608	-0.04339553494515874
173	0xbfa724ea56b7c03d	-0.04520351704184165
174	0xbfbfefa88b7976f3	-0.12475064664019068
175	0xbf912332cc5e768a	-0.016735833858197803
176	0xbfb46d529722471d	-0.07979313077728674
177	0xbf8ac346edb4b8e8	-0.013067773942193786
178	0x3fb47be5ebba11f2	0.08001553540277209
179	0xbfac488b7336b4b3	-0.05524097234170124
180	0x3fc19961c46d710c	0.13749334422289683
181	0xbf92427c63c65c23	-0.01783174857117954
182	0x3fb76e53cab7cb00	0.0915272111813401
183	0xbfb4ff8d82d93eeb	-0.08202442593141838
184	0x3f85f86fe5e0a66b	0.01072776241570069
185	0xbfcd32a9efa12c05	-0.22810863686240182
186	0x3fb01b953d1565fd	0.06292088261889002
187	0xbfb61f90ff504984	-0.08641916497462004
188	0xbfa90ff63a7ba8fb	-0.04894990409759888
189	0x3fb9dcdb97771b1e	0.10102627227670921
190	0x3f861b8da3c2ba11	0.010794741211012345
191	0xbfb0b6492bd7812a	-0.06528146095616152
192	0xbfb0178788a0b6f2	-0.06285903058661882
193	0xbfb51c8cd75e83e7	-0.08246689088856805
194	0xbfb0799091a8bc7b	-0.06435493045931821
195	0x3fb06816bc9057be	0.06408826926812503
196	0x3f8529ca0dee5a7a	0.010333612966673334
197	0x3f8bee2360db4b3b	0.013637806313828818
198	0xbfba7af7264ec68e	-0.10343880353209498
199	0xbfc006fb6703b52d	-0.12521307497028414
200	0x3f8883202cc5fb91	0.011968852392554104
201	0xbf8314790c60d6ed	-0.009316392603163826
202	0xbf90aee34da3f2eb	-0.016292144407077307
203	0x3fb91f5f9f1230ca	0.09813497193880774
204	0xbfc435dc15234328	-0.157893667527355
205	0xbf96fe80ddafec11	-0.022455228357994687
206	0xbfa7bd394e2f9d05	-0.0463655384008295
207	0xbfa84447a8c11e8d	-0.0473959344386091
208	0x3f5aed10ebf9bb3c	0.0016434350253821802
209	0xbf97262f14e18b65	-0.022606597566105963
210	0x3fb0195f8d81693f	0.06288716511463564
211	0x3fa929a49317d15e	0.04914583488053624
212	0x3fa984a942b1c326	0.049840249434856695
213	0x3fa4a298a99d58f0	0.04030301161280814
214	0x3f81b18780fc50c5	0.008639391540363648
215	0x3fa5e2c7a53fc528	0.042745818063745056
216	0x3f9b4ca399b842b0	0.026659542329130204
217	0xbfcbbcd36426b481	-0.2167000044841281
218	0xbfa5af2430292755	-0.042351847533224664
219	0xbfbf06f1e57cf224	-0.12119972088562087
220	0x3f985f8a39f176b6	0.02380195597321829
221	0xbfa4a1ba816dae21	-0.04029639081894865
222	0x3f9c96d9687d209c	0.027919194223870222
223	0xbf8756830861305b	-0.011395477002359813
224	0xbfaa667d88953692	-0.05156318943282402
225	0x3fb4fa753f0ed2de	0.08194668569087635
226	0xbfb732bd52a1900d	-0.09061797397004075
227	0x3f847e7cabceb502	0.010006879799983274
228	0xbf998a806b3dd8fc	-0.024942404313571295
229	0xbf980c138102b0cf	-0.023483566998650226
230	0xbf94741c068b8f31	-0.019974172496304014
231	0xbf9dfa248fc60bee	-0.029274531626935323
232	0xbf9003b967ea7e10	-0.015639206855324217
233	0xbfaf616bf9555778	-0.06129014414425077
234	0x3fbb6c4da56dce8b	0.10712132729332262
235	0x3faf3ac0874d0ad2	0.06099511767981415
236	0x3fb0f1c0a678b134	0.06618885101551514
237	0xbfaffc27db676227	-0.06247067025441693
238	0xbf806e26c75c075b	-0.008022597273796775
239	0x3fae58c09a507ca5	0.0592708767292092
240	0x3f924b0c48ce422b	0.017864410346705533
241	0xbfa472821168ab95	-0.03993612730513189
242	0xbfa6e4b1689d9663	-0.04471353914304357
243	0xbfbb916e7cab9b94	-0.10768785995206392
244	0xbfc4932bc153a08b	-0.16074130000857098
245	0x3f8a75b33ab877b0	0.012919807652959608
246	0xbf7e74245f96bfe1	-0.007434980472154935
247	0xbf951fdd346070b6	-0.020629364320584563
248	0xbfa285dde9ea2187	-0.03617757301714435
249	0xbfaa48ac00e653a5	-0.05133569251044116
250	0x3f9a7fc1270b94fb	0.025877969749576995
251	0x3fa384fee0b06791	0.03812405102526307
252	0xbfc3e774a63ebef1	-0.15550096623837065
253	0x3f980051094b6494	0.023438707535068007
254	0x3fa414257355438e	0.03921620400308888
255	0x3f648d4ed30ce40b	0.0025087871112217156

fc1.bias f8 [100]
0	0x3fb27969c118c0e4	0.0721651169230913
1	0x3fdb41b06522c30e	0.4258843410162151
2	0x3fe11ab53bcb1e71	0.5345102470245832
3	0x3fdb7d206043bc1d	0.42951211357916624
4	0x3fe0d71b99c03c84	0.5262582781741831
5	0x3fe0561ade16ed0b	0.5105108583151446
6	0x3fe3a2e0e4d04d58	0.613632628347129
7	0x3fdfdd6e382b0b59	0.4978900478856097
8	0xbfb5d708b2c7b5cf	-0.08531240811108563
9	0x3fe3ad03d2d51e66	0.6148699872800989
10	0x3fc33e51a2a45727	0.15033932153226567
11	0x3fe69200cba51e71	0.7053226449433635
12	0x3fe0b4c5bee36d48	0.5220669487274927
13	0x3fe45c46a2218e4d	0.6362641493437394
14	0x3fe3d94b89cd9535	0.6202752772775627
15	0x3fdbe6c6afcf77a6	0.4359604565523746
16	0x3fdef0ab85da2a70	0.48343933173661124
17	0x3fe5251a563ebbe9	0.6607791599725462
18	0x3fde7b40d5c9d844	0.47627278211382795
19	0x3fe10cf4ccf5ddae	0.5328315737851221
20	0x3fcf403c8f97f8b7	0.24414784442337176
21	0x3fe172f86c5c241d	0.545284473076325
22	0x3fe3dc2568accc21	0.6206233066972154
23	0x3fe50b597936f230	0.6576354377244282
24	0x3fea65465636473f	0.8248626407459837
25	0x3fe2b024dbc05852	0.5840019504564771
26	0x3fddb285aebe1177	0.46402113022511265
27	0x3fdef4ae37c487a7	0.48368411489547686
28	0x3fe105cd27712e19	0.5319581766465858
29	0x3fe548f08fbb4bfe	0.665153771138989
30	0x3fdd83b52a5c7238	0.4611637986834327
31	0x3fe2f7948bd9a076	0.5927221995780332
32	0x3fdde3d6843f4ff6	0.46703112520958656
33	0x3fe1dcf096b01a68	0.5582201903460602
34	0x3fe267ec273d8658	0.5751858488476485
35	0x3fe3689491da16e8	0.6065161560697705
36	0x3fd6899e110f5d41	0.3521495024301267
37	0x3fe2ead380f7239e	0.5911653059821338
38	0x3fe730f62d1098b9	0.7247267608807056
39	0x3fe19cf22f8db371	0.5504084519176172
40	0x3fe4eac93d005fc3	0.6536604110178746
41	0x3fe242669fda0464	0.570605575761999
42	0x3fda1ba5d2ae6966	0.40793748449654854
43	0x3fdb6b43a27f55c5	0.42842188710104906
44	0x3fe1d42e1e66c8f3	0.5571508973864908
45	0x3fdeaba05c210b8e	0.4792252444933006
46	0x3fdd079fa7c53d77	0.4535903108962524
47	0x3fe576c5b26ec094	0.6707485661518313
48	0x3fe1cacde131689c	0.5560063741970853
49	0x3fded53253e9b760	0.48176248736023375
50	0x3fe5b48b69a89cce	0.6782891334195484
51	0x3fe21a1dd55e88bc	0.5656880538338309
52	0x3fd8547fa91adc44	0.3801573897757786
53	0x3fbacfeed6fe30f5	0.10473530529833737
54	0x3fe5a7a17c0129a0	0.6767127439464282
55	0x3fe128976f5f1ce9	0.5362050223565379
56	0xbfb62f11325c33a7	-0.08665568809028788
57	0x3fe0061164147e04	0.5007407145203051
58	0x3fe0a45a5636e59f	0.520062607181149
59	0x3fded34540b50c44	0.48164492911400125
60	0x3f93ea07f3bd3888	0.019447445155770043
61	0xbfcb070f75066e4d	-0.21115296568028655
62	0x3fe45c9146a70524	0.6362997417383309
63	0x3fe197196b506e61	0.5496947380046998
64	0x3fe3bf14629297f2	0.617075150036497
65	0x3fe6f7cb7cff5add	0.7177483979565654
66	0x3fd88da6f1e4f86b	0.38364575979711074
67	0x3fdb3d8e1a5c760d	0.425632024520241
68	0x3fe4eb36b812bfa7	0.6537126155071648
69	0x3fe4fa9fdf5a0578	0.6555938112580142
70	0x3fe2525ceeef6eb3	0.5725540796952003
71	0x3fe3006def90f7aa	0.5938024214772117
72	0x3fdd934acf30609e	0.46211500390337246
73	0x3fe440dbb411d31a	0.6329172627434645
74	0x3fde5a06bbb24bfe	0.4742447693799362
75	0x3fdcf6777627fdf0	0.45254313028996673
76	0x3fe4d57e5200a69d	0.6510612107860713
77	0x3fe4972b74ce4be6	0.6434533387531445
78	0x3fce73a0195af98b	0.23790360677771746
79	0x3fe44c8b1310b8e9	0.6343436596269189
80	0x3fdfced227ca1ff5	0.4969983471460176
81	0x3fe1b3f319ad61c8	0.5532165051945919
82	0x3fe2f12a66dad207	0.5919391640550778
83	0x3fdbd7310bc96368	0.4350092520813207
84	0x3fe1327f336c4c5c	0.5374141697269681
85	0xbf88c9d5ca2f37b7	-0.012103719933204233
86	0x3fe3a5c7caea9a72	0.6139868701182662
87	0x3fe45b52377d4021	0.6361476024412732
88	0x3fd8802e9ffb8a37	0.38282361625002487
89	0x3fe3500fb68307dc	0.603523117512164
90	0x3fc7ee12ff4e400e	0.1869529482469265
91	0x3fe690c1863d53ca	0.705170404612198
92	0x3fe2d3b63ff6e055	0.5883437394431988
93	0x3fe33a904b107283	0.6008988824938374
94	0x3fd2bb5b5c8060b3	0.2926853564581606
95	0x3fd1fa21a108cf99	0.28089180685059884
96	0x3fdbbaef27bf0a8b	0.43328455811948946
97	0x3fe4e5d1f726457b	0.6530542208803775
98	0x3fdf4d0c1f48c417	0.4890775971899201
99	0x3fd9e1923015bda6	0.40439276405137503

fc2_act.weight f8 [50, 100]
0	0x3fa947c5fd8040af	0.04937571258062811
1	0xbfc11f0cff2b8a4c	-0.13376009425617708
2	0x3f57b45809a3a48a	0.0014468059294421597
3	0x3fa3be5bec447d93	0.038561699477436616
4	0xbf758e6eb44e3047	-0.005262787283651766
5	0xbfb7f0d62851e537	-0.09351862415669109
6	0x3fb2cbbbe5b8dd76	0.07342123373461171
7	0xbfa7204ee4065741	-0.045168366751723095
8	0x3fc4a4cf6b2b2cac	0.1612796090397287
9	0xbfb458e46efba53c	-0.07948138913674979
10	0x3fbe3c1835d2bd41	0.11810447038691498
11	0x3fa4cc4f306cf6e4	0.040621256505330355
12	0xbf915493e3d0db3b	-0.016924200801635463
13	0x3fa234c9082481fa	0.03555896973034929
14	0x3fa9aa10b4736b81	0.05012561991471554
15	0xbfc16baaa946e2ef	-0.1360982252642979
16	0x3f93df3e4f61a1d3	0.01940629348283258
17	0x3fb9c1e2f1ecb872	0.10061472326626289
18	0x3f865e11eec49f7e	0.01092161188041962
19	0x3f76dcdad6bde5dd	0.005581717337798745
20	0xbfa19fbb69b11830	-0.03442178406889729
21	0xbf9862560f56ffac	-0.023812622724790053
22	0xbfb6acffe27715d4	-0.08857726363120061
23	0x3f7cd0b0d647bc4a	0.0070349605270925795
24	0xbfa059a75dcb6671	-0.03193400402024061
25	0x3fa67626a3f3c67d	0.04387017012949188
26	0xbfb1d799cf0b0de8	-0.06969605736508522
27	0xbfa8e3ea9a09ad05	-0.0486138642343921
28	0xbfb6565625e25551	-0.0872548906794084
29	0x3fa13405a677a669	0.0336000219065909
30	0x3f95ead2933473a9	0.02140358947245927
31	0xbf9a05e875ef412e	-0.025413162420421624
32	0x3f9d9608d62a77e3	0.02889264876522891
33	0x3fa1948b1a56a9c9	0.03433642097964513
34	0xbfb201e407e04494	-0.07034135048185625
35	0xbfaf94d3d9e4905b	-0.06168233904671246
36	0x3fa3d51b04bb8b12	0.0387352412488068
37	0xbfb53b06efed2b68	-0.08293193204478444
38	0xbfa0650526323c94	-0.032020722305895394
39	0x3f376cdb637c5c32	0.0003574405304659938
40	0xbfa093aec3320b44	-0.032376729323934345
41	0xbfb4e052b3f1a899	-0.081547898227344
42	0xbfc247572eff3784	-0.1428021411397219
43	0xbf64cd5a0be5e242	-0.0025393255920642963
44	0xbfa50d5f4a65479a	-0.04111764701032357
45	0xbfb56a22c941896c	-0.08365075505711211
46	0xbf99e5d0553f2639	-0.025290732577366113
47	0xbfa4d64c175ac6fe	-0.04069745812502211
48	0xbf959913d588f503	-0.021091756733075517
49	0x3fb7afd125856568	0.09252650419275243
50	0xbfa6e0912b6f5825	-0.044682060768238586
51	0xbf60138e5f088e2a	-0.0019624500930761806
52	0xbfb962df4d6f6143	-0.09916492119316893
53	0xbfad2772f94df3f3	-0.05694159787433497
54	0xbfab77e6ff298a5e	-0.05364915718816542
55	0xbfbd0f44cc034e91	-0.11351423245224114
56	0x3f81707ed9e1eefe	0.008515349411247094
57	0x3faee9a70e8fdf99	0.06037637760886056
58	0x3f6f6798fdc502d1	0.003833578883274271
59	0x3f9e69d4b1a90d1e	0.029700587600257504
60	0xbfa6a92157be4458	-0.04425911136707644
61	0x3fbb0ece3dc0441b	0.10569466598123294
62	0xbf9a658d9cb48faf	-0.02577801960900644
63	0x3fb3abb0a2e9e9e3	0.07683853127847544
64	0xbf6019b15ce94616	-0.001965376293164632
65	0x3fae92f45442d337	0.05971492317750065
66	0xbfad098fce9dbbb1	-0.05671357533616773
67	0xbfc0bdc3699607b7	-0.1307911172444258
68	0x3fb495fb2604b962	0.08041352918801217
69	0xbfc321898a210ee3	-0.14946097607218353
70	0xbf8bdb5e9fcfc388	-0.0136020081062911
71	0x3fb5f147654110cb	0.08571287366891338
72	0xbf81399c1fe1f82b	-0.008410663340551924
73	0xbfabfb230d906870	-0.05465039768769564
74	0xbf933afc9d197cab	-0.018779704178424932
75	0xbfc2c1ef4bb09f5b	-0.1465434188441986
76	0xbfb3512ee547bb9b	-0.0754575071111802
77	0x3fb2efb9acb536dc	0.0739704176569051
78	0xbf65ee468b6e9f6c	-0.0026770952058149857
79	0xbf8fd403e007b57a	-0.015541105532032463
80	0xbfbbf4e1da108136	-0.10920535634841574
81	0xbfb0d46afe85d81c	-0.06574124063431025
82	0x3f8b73115e670495	0.013403068250115427
83	0x3fb40d2dcf581b15	0.07832609474290238
84	0x3fa8b76d00e54784	0.04827442775662319
85	0xbfb260b52e0fbfab	-0.07178814291523732
86	0xbfaa075393fad6e6	-0.05083714658159781
87	0x3f8b4620f46780ff	0.013317353685977638
88	0x3fa049af6a120bd2	0.03181217355542966
89	0x3f9934508683b643	0.024613626680482403
90	0xbfad7c15e1b04dcd	-0.05758732204426629
91	0xbf9cfff301cf8289	-0.02832011889029443
92	0xbfb95e58c957cec4	-0.09909586825943523
93	0xbfa17ea472296529	-0.03416932958198011
94	0xbfa6064916bfe955	-0.04301670458513011
95	0xbfb3f61c25e62be6	-0.07797408986350227
96	0xbfb71f4480d5029d	-0.09032085557283627
97	0xbf9a9c79431ddb0d	-0.02598752472064363
98	0xbfbb610331fa2af6	-0.10694904298922467
99	0x3fb3660dfbc224bb	0.0757759799618211
100	0xbfab890d7ae1169e	-0.05378000378599988
101	0x3fc1422ec12c7dbb	0.1348322337371267
102	0x3f8385f486f061ec	0.00953284298707132
103	0xbfbd660579df43e4	-0.11483797288316527
104	0xbfa8caf5dca10d23	-0.048423464948905946
105	0xbf7b4f4482b8ab66	-0.006667392367982616
106	0xbfbf90ff808043e1	-0.12330624472839659
107	0x3fbea73b130f076a	0.11973923888493024
108	0xbfb98cd936e41d10	-0.09980542745698906
109	0x3f9441d90a9cee8f	0.019782439492003475
110	0x3f6678a98a2dbc20	0.002743083126396609
111	0xbf9a5b52ae17b588	-0.025738994479913596
112	0x3fb4527b30f0d99a	0.07938356346935507
113	0x3fb75335f6c4f454	0.09111344599382792
114	0xbfaf44c9f7767573	-0.06107169290337824
115	0xbf8267d213932102	-0.008987084600804444
116	0xbf863d4933988792	-0.010859081160621096
117	0x3fb33cd7e29e428b	0.07514714510603875
118	0xbfc94d997620e8c7	-0.19768064754481982
119	0x3fabe2fbe9161946	0.054466125681801134
120	0xbfbef9ae531432ad	-0.12099732902806677
121	0x3f97f7a80b0427ea	0.023405671760919157
122	0xbf32b5eafff7b512	-0.0002855013590011428
123	0xbfa43cb7fd2fe183	-0.039525746971722085
124	0x3f86de8d99ff96e0	0.011166673910291747
125	0x3fb192abb9655c66	0.0686442687632379
126	0x3fb41de54983ca0d	0.07858117146296469
127	0x3fbc14a8c6b64a3e	0.1096902356278315
128	0xbf98f6dd9c48acac	-0.02437921778088696
129	0x3f9f8eb71048a6ea	0.030817852372058953
130	0x3fc0779eedfa995a	0.1286505376821861
131	0x3fad3d11d77801af	0.057106549789753706
132	0x3f64acfc447f2fdc	0.002523892126168532
133	0xbfbf9d1fb2bbd4e5	-0.12349126924148697
134	0xbfb838785371f6a3	-0.0946116641734656
135	0x3fbb68213372c0c4	0.10705764299450765
136	0x3fb48986ecbd8816	0.08022349624437228
137	0xbf9d10d780899d94	-0.028384558887777425
138	0xbf96792555eeb15e	-0.021946509714028443
139	0xbfa46b4c120b5eb6	-0.03988111229199147
140	0x3f6f3173782a4998	0.0038077597867609107
141	0xbfb2d614033035cb	-0.0735790736946093
142	0xbf842a4eb8716de1	-0.009846320155864898
143	0xbf89d2c4da60e15b	-0.012609041132336676
144	0x3fab79b626072ad2	0.053662960187997336
145	0x3f757734ee7232b8	0.0052406375535951
146	0x3fbca58a7d34524b	0.11190095478770805
147	0x3fc69d0b016fa33b	0.176667571736539
148	0xbfb8e708836b1ca9	-0.09727528770882778
149	0xbfc01df40118301a	-0.1259140973419342
150	0xbfbe95abc0a57aa4	-0.119471296818555
151	0x3fa2c70e8fe7d600	0.03667493349704998
152	0xbfc6ed2ac1375240	-0.17911276277904342
153	0xbf8827c237d8745b	-0.011794583634634195
154	0x3fb3c4c25a3cc265	0.07722105696735466
155	0x3f68ae1b41f32d82	0.0030127079367951457
156	0x3fb44108af4b6a2c	0.07911733894017264
157	0x3faf87fdb008e76e	0.06158440374242856
158	0x3fbc73d64628f8e8	0.11114253247157857
159	0x3fbe9fdde833b468	0.11962687415116735
160	0xbfb3c7a8a99e849a	-0.0772653020963098
161	0xbf955a6d60cc4220	-0.020852765114854788
162	0x3fb230ac3fe7ff1a	0.0710551887532315
163	0xbfb9ed8d659a3ee8	-0.10128101091890651
164	0xbfc1dc3a1fe77efb	-0.13953329618288265
165	0xbfcaab540de9085b	-0.2083535259171779
166	0xbfc0384bb381f0f3	-0.12671800866144842
167	0x3fbf8aaabc192eb3	0.1232096394753011
168	0xbfaa40273d728b4f	-0.05127070069399641
169	0xbfc3a05140fb6091	-0.1533299987120285
170	0x3f59be030c9ced90	0.0015711812761328471
171	0x3f9b81cda406269d	0.02686234773276529
172	0xbf97f259973c777f	-0.023385429244732855
173	0xbfb0139cd26e5fe2	-0.06279926431159269
174	0xbfb713d50866f014	-0.0901463647377912
175	0xbfaba703620dc32a	-0.05400858470864585
176	0x3fb551a4bf8771a9	0.08327703166964419
177	0x3fb33b4fb60b477e	0.07512376970706033
178	0x3f4749498479c1c3	0.0007106408092579164
179	0x3fbc954f76624252	0.1116532959006318
180	0xbf2d6aa374791621	-0.00022443051624258892
181	0xbfb6bda587abea38	-0.08883127748769304
182	0xbfc18f1cfe745ceb	-0.1371799700216124
183	0xbfa6619f06029586	-0.043713540538457926
184	0x3fa37d1cca016743	0.03806390729796629
185	0xbfa48601ee0b187c	-0.040084896381402196
186	0x3f8460c391b3576b	0.009950187572410582
187	0x3fa65526f11570f0	0.043618409089249854
188	0xbf842d15528fc6b7	-0.00985161455352866
189	0x3fa776ecdf633381	0.04582920290849924
190	0xbf9f33309531a7bd	-0.030468711000515947
191	0x3f952a47e901f28f	0.020669101330428815
192	0x3f8b605926946a5c	0.013367363443241569
193	0x3fa9a5af4bf9b635	0.05009219934877899
194	0x3fb50fa4a943a129	0.08226994640756814
195	0xbf90dd3a8933a1f0	-0.0164689203492418
196	0x3fc2ffa32c4dbeba	0.1484264341665858
197	0x3f8c7dec80af4296	0.013912055661337502
198	0x3fa0cd84a83f27f7	0.03281797937195557
199	0xbfbbb93bbc9f38e6	-0.10829518656757706
200	0xbfa7963a80c8c3ef	-0.0460680277068447
201	0xbfb523edb8d5f345	-0.08257947695342434
202	0xbf90545429828f1f	-0.015946688684052576
203	0x3fb2bf848c46ab7e	0.07323482918461185
204	0xbf6662675fb9cb28	-0.0027324694654508215
205	0xbfa74e84490870a2	-0.045520910182149224
206	0x3f91c537d06b9a68	0.01735388955685338
207	0x3f90f0c93dbacaaf	0.016543526070288802
208	0xbfb2c3a5f157e961	-0.07329785482571573
209	0x3fac1e3098a8fb4d	0.05491783011938498
210	0xbfb977c6d024c319	-0.09948389608031184
211	0xbfb93db2739ee4b0	-0.09859767267961916
212	0x3f9461152b2b5f5d	0.019901591071941883
213	0x3f9ec205922879a8	0.030037009282858712
214	0xbfb9947ab5f87b38	-0.09992186491625155
215	0x3f858d2db13aba13	0.010523182841407885
216	0xbf9e711411f16b91	-0.02972823485866233
217	0x3fb1c8c48c5211a9	0.0694697229938074
218	0x3fb489eff07576f3	0.08022975559785177
219	0x3fb5f0aa2685a6ba	0.0857035011337314
220	0xbfa062a9667a76f4	-0.03200272918659933
221	0xbfab44d63a91357e	-0.05325955834323802
222	0xbfa8944b26a6409c	-0.048006390064189136
223	0x3faa6ea2b2ecba18	0.051625332204242536
224	0xbfad89c18b9932ff	-0.05769162015039874
225	0x3f8cf6c97aec44f5	0.01414258390789989
226	0xbf96bd5452c32259	-0.022206609298139977
227	0xbfb52ce044886b28	-0.08271600411573543
228	0xbfb9a36dd1ec0f64	-0.10014997839976797
229	0x3f907bab43c24c5b	0.016096759806327614
230	0xbfb6ab923a562497	-0.08855546879034858
231	0xbfb439892b6b1754	-0.07900292692201322
232	0x3fa7a82234a5c4e5	0.046204632689190984
233	0x3fab8b323529f5fe	0.0537963571450568
234	0x3fa93bcc402d86cc	0.049284346422394515
235	0xbfb75baaf1eed249	-0.09124248892369126
236	0x3f8ddd826684a4eb	0.01458265185699977
237	0xbfaa7e1e5e35802e	-0.051743458747978685
238	0xbfb0296ae91579c0	-0.0631319827129806
239	0xbfb6dd4c7077b814	-0.08931424852173137
240	0xbf90f1f835316cbb	-0.01654804062523561
241	0x3fb569a4b8666aa1	0.08364324094729138
242	0x3fa47942e8b3e036	0.039987650781711556
243	0xbfb57b01587884d1	-0.08390816125804014
244	0xbf9ae0c28033df82	-0.026248015475146776
245	0x3fa5f0e5739ba066	0.04285351787785956
246	0x3fb7e7fbfabfedca	0.09338354942149532
247	0x3f9f39a318e75dc5	0.030493305583005687
248	0xbfb240c051112708	-0.07130052546667909
249	0x3f713603940e5636	0.004201902368455237
250	0xbfb0f8bbeb56a0e8	-0.06629538055006245
251	0x3f48851cd9578e36	0.0007482901443691184
252	0x3fa751cdf4ef224b	0.04554599394720479
253	0x3fb0491caba21c68	0.06361560049309534
254	0x3f9e3f4de91809aa	0.029538361884996846
255	0x3fb7a7897869c3c2	0.09240016164564138

fc2_act.bias f8 [50]
0	0x3fd290fdde6c84ec	0.2900995895489149
1	0xbfcd193935f25c38	-0.2273322595035283
2	0x3fe0228e0fcf9636	0.5042181309515346
3	0x3fe623b0d2617e32	0.6918567761421797
4	0x3fe8b62eef4966aa	0.7722391770905308
5	0x3fe7856bacb1f0ca	0.7350366948080815
6	0x3fcb9574cd9c5ea3	0.21549854316321157
7	0x3fea7215405c83d4	0.8264261490877467
8	0x3fe33173114a41dd	0.5997863137909537
9	0x3fe968b76e3d92b6	0.7940327790389208
10	0x3fe9bea6e804b954	0.8045229465113075
11	0xbfb4f57453357a22	-0.08187033683268699
12	0x3fb31b9ffecbe158	0.07464027376761828
13	0x3febd69929f61603	0.8699460811191674
14	0x3fe8fd34e6d678cc	0.7809090145635991
15	0x3fe5cd77e397eaf4	0.6813315816101224
16	0x3fe71b849088cd18	0.7221091101586437
17	0xbfb6da9257261367	-0.08927263858465793
18	0x3fe47cabe6e8ef55	0.6402186880072614
19	0xbfa1107572970e36	-0.03332869552425814
20	0x3fe6f53403350bb8	0.7174320280686208
21	0x3fe64255289f5f85	0.6955972474488453
22	0xbfb22fcbc02d2087	-0.07104180757335331
23	0x3fac9f07e64159f8	0.05590080915196788
24	0x3fe6e9c77c50aab5	0.7160375049619093
25	0xbfc5e0e9050bb8fe	-0.1709262156140951
26	0x3fe464ce0d5a36b5	0.6373052845753678
27	0x3fecf924e39cdfbd	0.9054130979120526
28	0x3fe768aa7c4cdc67	0.73152660634413
29	0x3fe8b11e8a8e59ff	0.7716210085080205
30	0xbf50714ee56c5370	-0.0010035772772358474
31	0x3fe3fa47693c138f	0.6243016295780864
32	0x3fe96aaae69376ae	0.7942709449232177
33	0x3fe9b69f9a98a434	0.8035429019411198
34	0xbfe40dcf91a27045	-0.6266858906196907
35	0x3fea32596564c077	0.8186461429923061
36	0x3fe76e0b15e3aa02	0.7321830203557627
37	0x3fe144b4e30be34f	0.5396370348454215
38	0x3fe7bc8c38f4ac64	0.7417660820405101
39	0x3fe986048e58e434	0.7976095943660142
40	0x3fe9b26c2879e208	0.803030089430707
41	0x3fe1ce8918654ea4	0.5564618565062642
42	0x3fc313effe9d7454	0.1490459435689525
43	0x3fe604f0d5dc6a51	0.6881031205151179
44	0xbfbaab3af7e80fda	-0.10417526771931254
45	0x3fe53182c9ef41e8	0.6622938102755684
46	0x3fe7825d7aca535f	0.7346637151955341
47	0x3fa61abdd050c86f	0.043172771147866544
48	0xbfe75a846ca50b86	-0.7297994729964195
49	0x3fe5e29fb9458d5b	0.6839140528285655

fc3_act.weight f8 [20, 50]
0	0x3fb50a598b284328	0.08218917510408785
1	0x3fbdbdb7fea4fb37	0.11617612807183951
2	0xbfb1549316c155ed	-0.06769675546214389
3	0xbfb6f6f7daa35e87	-0.0897059353622983
4	0x3f7913959b7eff44	0.006122192768032001
5	0x3fbab9b9bb855ce8	0.10439644649646918
6	0x3fa0642f7afadbfd	0.0320143544790241
7	0xbfb91c3f6d9ffc8d	-0.0980872767104179
8	0x3f9d53b7fda676ca	0.028639674049933096
9	0xbfa7be31f101215c	-0.04637294833134106
10	0xbfb8faf39f04c37d	-0.09757921821871025
11	0xbfabab09dcf39880	-0.05403929540789054
12	0x3f9ffdbba1372867	0.031241351809321218
13	0x3fa0b141bd15e76c	0.03260236199544306
14	0xbfc20341dc222cc3	-0.1407244038458427
15	0xbfacfda32ba2b318	-0.05662259967480149
16	0x3f8dd40e6857eeab	0.01456462150507972
17	0xbfb72eee84d17092	-0.09055987112646083
18	0xbf9392e28e4cac5c	-0.019115009246132394
19	0x3fc26c8559819b60	0.14393679495261846
20	0x3f8fee8da3beefa1	0.015591723022104821
21	0xbf9efcae52495f03	-0.03026077630269609
22	0xbf94d395969fd94f	-0.02033838016355932
23	0xbfb6601f8c4bc179	-0.0874042241591776
24	0xbfa650bc7d11f971	-0.04358471895919792
25	0x3f601f1f41a35f64	0.001967965171484497
26	0xbf91fccc90d67671	-0.01756591447848738
27	0xbf90bb4ee8ab14e9	-0.016339524222321797
28	0xbf90210524ee7004	-0.015750961665261812
29	0x3fb4e0d5b1ca0990	0.08155570593411299
30	0xbfb811ccb76a957a	-0.09402160146654195
31	0xbf97b13fabc165c7	-0.02313708768665437
32	0xbfb3d6c8f4a02040	-0.07749610874464086
33	0x3fb943317bb89b19	0.0986815383008487
34	0xbfaed5118b320853	-0.06021933387911873
35	0x3fa9e9c3e70bbb21	0.05061161227592082
36	0xbfb2c96716462ad2	-0.07338566106606528
37	0x3f96220496128e8f	0.021614143047044506
38	0xbfc419f1f0fa3746	-0.15704178110575578
39	0x3fa2d1e9ee7bb8fd	0.03675776516125671
40	0xbfb9a264734c6159	-0.100134161137594
41	0x3f9d979baa6ce3e2	0.028898651387155534
42	0xbfaefaf379bef189	-0.0605083547702377
43	0xbfc49b61d979269e	-0.16099188917933288
44	0xbfba2dd5aa2f83ae	-0.10226188092157315
45	0xbfb5e79ce93cb7ca	-0.08556538290278506
46	0x3fb8a0f5db1faa61	0.09620606040668057
47	0xbfba3d658d9470fe	-0.10249933916606221
48	0x3f992bbba284a203	0.024580890459363413
49	0x3fb80ea536554a2f	0.0939734704636883
50	0xbfb7bfb8e1bea185	-0.09276919852584882
51	0xbfca2acba474569e	-0.20443101434709815
52	0x3fc8e73e615a4ec2	0.19455699685624067
53	0x3fc982fb30bee3ab	0.1993097293868947
54	0x3fbde9343d5daefc	0.11683966158096476
55	0x3fca84fd37a0c4dd	0.20718350616656425
56	0x3fc4053881faa4ed	0.15640932413706513
57	0x3fc4a9ed459a498a	0.16143575571602425
58	0x3fc7724e2697f93a	0.18317582020240214
59	0x3fcb25c13c74c4b1	0.2120896859355859
60	0x3fcecc40659b9ba3	0.2406082626468705
61	0xbfc5beaf2a6b1e68	-0.16988172122204337
62	0x3fabb1c0f6fd2572	0.05409052863121645
63	0x3fc01dbf40966811	0.12590780881583943
64	0x3fcc9d0e8d805131	0.22354299458732776
65	0x3fb81fd4f99d4617	0.09423571676349983
66	0xbf89e7052d87002b	-0.01264766736210284
67	0xbfb71ec60ed27433	-0.09031331884257625
68	0x3f97469a4ed12bd5	0.022730265675175183
69	0x3fc286fa7f47744e	0.14474421706009583
70	0x3fb5040a00a9b957	0.08209288135706082
71	0x3fc787ce0873d6da	0.18383193409652315
72	0x3fa9a0fb8b3af302	0.05005632471645606
73	0x3f909d246f83e4c8	0.016224450403545615
74	0x3fc46cb91e733e0e	0.15956796633553022
75	0xbfc45cb5a8d033f6	-0.15907927267872396
76	0x3fbf2ab43fb893e4	0.12174536281288756
77	0x3fb34602b77922f6	0.0752870271618454
78	0x3fc860819f791373	0.19044513975873265
79	0xbfa443532690f4cd	-0.03957614751605263
80	0xbf7d61ffa2d8d9bf	-0.007173536852454309
81	0x3fafbf3f38b640c4	0.06200597350391626
82	0x3fa7bb319003e2d3	0.04635004885671425
83	0x3fbb26e6474f2660	0.10606230965563546
84	0xbfa243230013ec0f	-0.03566846252393684
85	0x3fc0c0f974b7220f	0.13088911246292453
86	0x3fb7a4c5493c7d95	0.09235795057292358
87	0x3fc0915f0c43bc41	0.1294363794217777
88	0x3fc9c682ce32f54c	0.2013705736953092
89	0x3fb4c8d073b7632e	0.08118918252092719
90	0x3fc79c3bff4521d0	0.18445539440496228
91	0x3fb0bf06ee8d5a1d	0.06541484188105824
92	0x3fd210ad3209d083	0.28226785551601824
93	0x3fc3fce1883ae6c5	0.1561548152147251
94	0xbfa494f171d77de0	-0.04019884600324608
95	0x3fc544cbdd7df47e	0.1661619979385342
96	0x3fcf1cd0754377c7	0.24306684232482054
97	0xbfc0835b575ad755	-0.1290086914574952
98	0xbf7ad1f8a0be9047	-0.006547900393261647
99	0x3fb8a1bdc02fbb36	0.09621797506381999
100	0x3fb86259a19f2f07	0.09525070377202037
101	0x3fad6aacde1e0680	0.057454492677618596
102	0x3fbc3710951a27fc	0.11021522178830873
103	0x3f83549884d0307a	0.009438697388780993
104	0xbfc02a695e17eb7f	-0.1262942990723239
105	0xbfc4d5fd86ec09dc	-0.1627804669188454
106	0xbfbf439baf607ed7	-0.12212536842025244
107	0xbfbfc22e14304b11	-0.12405670159231998
108	0x3facc5930cfa5360	0.056194873174866045
109	0x3fc012563f417a12	0.12555959786091414
110	0xbfbbf44e70629754	-0.10919656986024268
111	0x3f8b41b2027abf0a	0.013308897686641358
112	0x3f9f55fa39cb3c49	0.03060141542192366
113	0x3f74aa005d3375e5	0.005044938490042371
114	0xbfbf84d9ee6ae9c0	-0.12312089987509633
115	0xbfc24a234d608ca5	-0.14288750913792572
116	0xbfb72e77374ba393	-0.09055276012408191
117	0x3fa501ad09727b9f	0.04102841129610301
118	0x3f991c1a4170e7cb	0.024521265262798225
119	0x3fbcc53eca18c8b2	0.11238472398761948
120	0xbfa8a416a462a968	-0.048126895491196475
121	0x3fb7616c348e1f11	0.09133030207715033
122	0x3fad2e4dbadcb651	0.05699389368087949
123	0x3fae00fbd7e7a03e	0.05860125551754479
124	0x3fb74078a17463ea	0.09082750264896303
125	0xbf81ff4ca66f8db1	-0.008787726239410572
126	0x3f86d1abaf71d977	0.011142102519653403
127	0x3fa755dc1c62a9e8	0.04557693335057761
128	0x3fbce124fb6e5068	0.11281043184709605
129	0xbfaf2e24dea2286c	-0.06089892594998578
130	0xbfb2810e971e2516	-0.07228175343893314
131	0xbf91c2e3fd635940	-0.01734501108224973
132	0x3fb4ed38b299ed56	0.08174471245177037
133	0xbfc228792e830674	-0.14186014910778832
134	0xbfa596cee05d2497	-0.042166199577487955
135	0xbfb53ef180166bb8	-0.08299168946397983
136	0x3fb85f0291050a7b	0.09519973793525509
137	0xbfc06c5739890a39	-0.12830629643765848
138	0x3fb4574e2e60e6d9	0.07945717460907122
139	0xbfc2f8a5805f30f7	-0.14821308868557256
140	0x3f360c0c77a3ae78	0.0003364115178914116
141	0x3fa8ce6cbbacd396	0.04844989577251295
142	0x3faec7ff6ab0debb	0.06011961152438291
143	0xbfb88be63a2a07d7	-0.0958846942903898
144	0x3fa3da6459cd1f24	0.038775573694293436
145	0xbfba0ecbe2a1d28f	-0.10178827555666657
146	0xbf5b86a90516c485	-0.0016800547203781613
147	0x3fb5574311f37086	0.08336276233916537
148	0x3fbc730d4bccd84d	0.11113055325117323
149	0xbf9ecbbb33b4e203	-0.03007404807178383
150	0xbfaaaa01ff9bfd44	-0.05207830662947768
151	0xbfbb82d39eb27347	-0.10746500610771391
152	0x3fc0eeb559ab1933	0.1322848022302395
153	0x3fc8d2876ecca411	0.19392483625532056
154	0x3fafe9d3a582fff5	0.06233083148390498
155	0x3fb2a900ec603d83	0.07289129038712443
156	0x3fd315aa2e446d68	0.298197312529473
157	0x3fc32adb48586038	0.14974537880402905
158	0x3f7663a19694fe14	0.005466109470318798
159	0x3fc0cc7bfa5088ca	0.13124036524192767
160	0x3fb3fe8642dcc6fd	0.07810248501189317
161	0xbfaaeb8137993d57	-0.05257800868695977
162	0xbfb9ee6ae64cec0c	-0.10129421351022944
163	0x3fcbad408d276f02	0.2162247361401271
164	0x3fc56ee9b1f78709	0.16744729223051305
165	0xbf6a66c5633c0381	-0.0032228331782566126
166	0x3fb6b84ede6498e8	0.08874981812968807
167	0x3fb1c8c54e9f6012	0.06946976823326192
168	0x3fa72b51712be88a	0.04525236612785573
169	0x3fc24633c90e7c2f	0.14276740376678407
170	0x3fcb6bd36735502f	0.21422808207955898
171	0x3fa26ad190aa588e	0.035971211346962226
172	0xbf9b874aa38839d6	-0.026883283835610637
173	0xbfbfb1ba06d0512c	-0.12380564371443786
174	0x3f747d9b6036fb9d	0.005002600609656319
175	0x3f98ddad6f1c88a2	0.02428313246412784
176	0xbf819f2cc0246add	-0.008604383100239083
177	0x3fca9fc940c6209e	0.20800128615178876
178	0x3fc56480118b1d06	0.16712952477085014
179	0x3fc388204ad1900f	0.15259174016239327
180	0x3fd0e231ea099956	0.2638058457872793
181	0x3fb4ac30c4bfb5cc	0.08075241855086474
182	0x3fc8a31cbfb2d15e	0.19247779236105605
183	0x3fcd9cbb56c30b96	0.23134557472630196
184	0xbfc6c4ac3514a27d	-0.1778769740278853
185	0x3fc06f0988bd52c9	0.12838858772979325
186	0x3fb8908a36fe91dd	0.09595550387036363
187	0xbfa260b1098df0b4	-0.03589394799834747
188	0x3fa3ec272dbbaba8	0.03891107972398028
189	0x3fb5b62fddbfeed8	0.08481120265781372
190	0xbf74f53c25738121	-0.005116686769923968
191	0x3fc13b2ecf6ebf99	0.13461861733003103
192	0x3fd353c077af9d11	0.3019868058022022
193	0x3fa7fc0605aee3f8	0.04684466189741693
194	0xbfc9a12e27fec308	-0.20023133232964363
195	0x3fb2fe22378915ff	0.07419027191016168
196	0x3fbe52b043beeaea	0.11844922689389717
197	0x3fb5c7ff83943872	0.0850829788434753
198	0xbfc59772d5819aef	-0.1686843435774885
199	0x3fc05f2ef30b0969	0.1279047667249629
200	0xbfade74179cc0afb	-0.058404966466715856
201	0xbfa777881c322842	-0.04583382934750137
202	0x3f981b0019bfab8f	0.023540498324944144
203	0x3fabf3e0a3afca9c	0.054595012646946744
204	0xbfbefdb9eed43a23	-0.12105905609880856
205	0xbfa0614020faf3d5	-0.03199196245757433
206	0xbfbac5ff8f44a8d4	-0.1045837139869577
207	0x3f950ad540199a6d	0.020549137151102338
208	0xbfbfb4311cb4ce39	-0.12384325934254371
209	0x3f9f77839ef862ea	0.030729347780012718
210	0xbfbde1ae37ce0ddd	-0.11672486174034398
211	0x3fb35d5750d04d5b	0.07564302180280917
212	0x3fa92c52b56713c7	0.04916628326785815
213	0x3f8369836cdc7f74	0.009478594550784904
214	0xbfbb70a8af438094	-0.10718778876207785
215	0xbfb5cd8978dd67e3	-0.08516749573519138
216	0x3fa4af1aad8a8ee3	0.04039843910621046
217	0x3fb33f6c81aa0745	0.0751865212023662
218	0xbf544b1536ef745a	-0.0012386042760603928
219	0x3fa86d88cd432fa4	0.04771068101544465
220	0xbf8b36a9677dd8da	-0.013287852736294448
221	0xbfbcc7c468f9a0d8	-0.11242320597523603
222	0x3f95bae2c34bc246	0.021220725221555513
223	0x3fb3e1ff07dc58ce	0.07766717855369906
224	0xbfb446e0c4ab0abb	-0.07920651246517256
225	0x3faf45a1c90cf8dd	0.061078124801939394
226	0x3fb76f1f9a5e7bf4	0.09153935927177753
227	0x3fba8c5d3b33dfc8	0.10370428748490135
228	0x3fac68a3db37fefd	0.05548584033021873
229	0xbfbdb1cb94251f0a	-0.11599418989964874
230	0x3faee46301b93beb	0.0603362025836914
231	0xbfb031bc79ed56ad	-0.06325891472564633
232	0x3fb7c505ddfad873	0.09285008115225128
233	0xbf9d93650ec879de	-0.02888257887581768
234	0xbf9b7cec0f31a538	-0.026843727519382216
235	0xbfc31e45139fa603	-0.14936126192269236
236	0xbfb9a2a3e942ca72	-0.10013794369550924
237	0xbf8c59e549b020e8	-0.013843337355880128
238	0xbfb382a8da7000c8	-0.07621245701739376
239	0x3f9dab794f3b79ad	0.02897443338485466
240	0xbf999650751e1099	-0.024987465999871537
241	0xbfb1a46fcffabeec	-0.06891535594581527
242	0x3fba36b367a3e517	0.10239716797140762
243	0xbfb82b66adbd5e11	-0.09441224805538463
244	0x3facc2bf389dc0b0	0.05617330137363419
245	0xbf98402664183771	-0.023682212695397668
246	0x3f911b212ab0159e	0.016705053549249997
247	0xbfb60893f5d706e6	-0.08606838943435555
248	0x3fa12421b6751279	0.03347878792059062
249	0x3f87e12fd451ed1c	0.011659978548996856
250	0xbf7b1696236328c4	-0.00661333701845929
251	0xbfc184568f35c954	-0.1368511389988024
252	0x3fa8e53de27be358	0.0486239756555224
253	0x3faf24ff0db886e8	0.0608291343926462
254	0x3f801a63168fed7c	0.007862829328579173
255	0x3fb87d845b782cd7	0.09566523774281009

fc3_act.bias f8 [20]
0	0xbf8e8d66ac6a04aa	-0.014918138634359163
1	0x3fe9b1cc033943cb	0.8029537260973653
2	0xbfb601c8caef74c5	-0.08596472696759168
3	0x3fec23edf48e3dbd	0.8793859268643512
4	0xbfa614292ec046cf	-0.04312256522838497
5	0x3febc0b480e0757b	0.8672735707402092
6	0x3fe5aeee9b33627a	0.6776040107025232
7	0x3fe622d11bdebd9a	0.6917501015031349
8	0x3fe7fc1eb31e2140	0.7495263574974516
9	0x3fe78a78faced7ed	0.7356533907502559
10	0x3fb4a02ab8de21b7	0.0805689526879466
11	0x3fe88f20f0b57ffb	0.7674717618319841
12	0x3fe6075532773081	0.6883951173454222
13	0xbfbf4d6e80f2fff6	-0.12227526329206725
14	0xbfbbcc2f735c619e	-0.10858437124659878
15	0x3fe55173d6cba01b	0.6661929316733252
16	0x3fe4ab7fe5e788cf	0.6459350099869655
17	0xbfbde7e0949f3a5e	-0.11681941631761947
18	0x3fb46e7a449e3915	0.07981075453992433
19	0xbf972f8085364db8	-0.022642143374083296

fc_q.weight f8 [3, 20]
0	0xbfaaf85ff469280a	-0.05267619951753495
1	0x3fd496482fe8cdaa	0.32167248419429006
2	0xbfc3bfc216d2a535	-0.1542894946517578
3	0x3fd16032251ebe05	0.27149633049973004
4	0xbfaee881b41421b8	-0.060367634994750785
5	0xbf8ace7b3034938a	-0.013089144142733895
6	0x3fcd99bae8edc490	0.23125397084689725
7	0x3fbb732f27dfb7ca	0.10722632144435731
8	0x3fd68f327e0c9bf5	0.3524900656652215
9	0xbf89603fb33a228e	-0.01239061132152244
10	0xbfc2a3fe827c0b8c	-0.14562970515552498
11	0x3fca9baf5bbb07b8	0.2078761289504294
12	0x3fcfdba1a8004285	0.2488901205365616
13	0xbfc020c876bcfc97	-0.12600045964970683
14	0xbfbf8e2e9a274026	-0.12326327575215199
15	0x3fd1e8844d2fb2e8	0.27981669938780707
16	0x3fd4915a9f3ba4aa	0.32137170362563927
17	0x3fb52f3792f648d8	0.08275172555866861
18	0xbfc165383199a040	-0.13590147420768695
19	0xbfb60315e798a4bb	-0.0859845819874349
20	0xbfb9aaea1a0a6be1	-0.10026419769057739
21	0x3fd2eb9b340d6383	0.2956302650759925
22	0xbfc932079006cd68	-0.19683928043887566
23	0x3fcf77e88e6a2e54	0.24584681466909564
24	0xbfa0cdce3fb5c9e7	-0.03282017257415131
25	0x3fcaa771abc5741d	0.20823498618384031
26	0x3fd59a32d5e51ece	0.3375365341966984
27	0x3fcf0d00e25fe850	0.2425843339295306
28	0xbfac58a8592dbdf6	-0.055363903890675845
29	0x3fd6c56793b371a1	0.3557986204521289
30	0xbfc26be8a1abd3f6	-0.1439181126985713
31	0x3fd255a04e42d153	0.28647620814014835
32	0x3fc668a50e9dac23	0.17506850446383834
33	0xbfc023cdfb19ec3a	-0.12609267006686925
34	0xbf90fb0ecf319a5b	-0.016582709690192803
35	0x3fcd7cfd42e5b033	0.23037687078920185
36	0x3fc47e8b8c49f4cb	0.16011185026210337
37	0xbf99424d9af5b5fe	-0.02466698892879115
38	0xbfb13575bfc46673	-0.06722198421302909
39	0x3f8a7e8dcc945c08	0.012936694913646477
40	0x3fc57b89e0e0ef30	0.16783259849932497
41	0x3fbf5fd7caef1994	0.12255619720881433
42	0xbfc789a9870e381a	-0.18388861746319735
43	0x3fae23b5084923d4	0.0588661739935287
44	0xbf97659fbf001231	-0.02284860232613734
45	0x3fd62df9a2c1d0bf	0.34655609983679975
46	0x3fd5fece7a5e3b43	0.3436771578789612
47	0x3fcd90e692d12428	0.23098451775357032
48	0x3fd3fb0d596bab71	0.3121980069396875
49	0x3fd4e5c59c15b673	0.32652416460664496
50	0x3f913e08f8c4b067	0.016838207419980124
51	0x3fd3960f170c6ecd	0.30603387118183606
52	0x3fd16be785abe354	0.2722109609017498
53	0xbfb58a2daaa15aeb	-0.08413968482760097
54	0x3f8091ef247c8e79	0.008090847302418812
55	0x3fb59b935bcb29f2	0.0844051455598345
56	0x3fb30dd60b5afd18	0.0744298722956852
57	0xbfc3f642e32d1953	-0.15595279781900703
58	0xbfb06f0d418e7aba	-0.06419451570989568
59	0x3fa1ee760bee1c1a	0.035022438961327576

fc_q.bias f8 [3]
0	0x3fe97343297313f7	0.7953201112328533
1	0x3fe9a37442e864eb	0.8012028986733218
2	0x3fec819baff3f472	0.8908213078099279
