weights/numq/gspc/mse/highlow/numq_pretrain.pt (torch, 526847 bytes, 8 tensors)

fc1.weight f8 [200, 200]
000000 12 5a bd 5c 0a 1f b0 bf aa 76 15 26 f6 41 b7 bf
       -0.06297364010001896 -0.09085024289876267
000010 ee 17 dd 4a 6d 6b 95 3f 7f bd 3e 3b 48 46 9e bf
       0.020917613691629748 -0.029564980140717175
000020 87 34 d7 66 a0 84 bb 3f 14 bd c2 98 10 f7 4c 3f
       0.10749247084386769 0.0008839446104697301
000030 79 20 a7 04 c6 e6 a2 bf cc df 7a 88 89 4e b0 bf
       -0.03691691214368204 -0.0636983831599302
000040 8c 24 e2 93 c3 c7 7f 3f 18 bf e8 81 7f 3f be 3f
       0.00775886914755931 0.11815640374765868
000050 62 65 67 b1 46 7c c4 3f f8 2e 27 25 2d 88 b6 3f
       0.16004260694789268 0.08801538617188587
000060 72 95 e2 3b 11 04 b5 3f 27 54 5f a1 aa 14 a3 3f
       0.0820933123782959 0.037267048071648205
000070 5e 97 d3 49 bc 95 88 3f da 69 ca f3 e1 d4 c3 3f
       0.01200434780407605 0.15493416217652972
000080 a2 07 4c 29 65 68 c7 3f 4c 78 41 3c 74 e7 a5 3f
       0.18287338749365484 0.0427814792208073
000090 aa 09 e3 b9 52 01 c1 3f 60 43 13 5e 55 73 bd bf
       0.13285287930018558 -0.11504109904059368
0000a0 cf 7d f1 95 f1 21 cb bf a6 73 5f f5 63 8d 81 bf
       -0.21197337933970892 -0.008570462155995728
0000b0 c2 b0 c9 67 ad 23 ac 3f fa c4 f1 eb 37 8b 86 bf
       0.05495969669286317 -0.011007725608779929
0000c0 54 35 22 3d f5 70 9e 3f 1c ad eb 01 6d 90 c2 3f
       0.029727775436687878 0.14503252595691485
0000d0 24 76 1c bf a6 5b b9 3f 59 00 45 9b 34 50 c5 bf
       0.09905473867225872 -0.1665101774360689
0000e0 1b 7e 8b 2a d4 01 b4 3f 38 5d a3 b5 53 1f bb 3f
       0.0781529048795097 0.10594676193737917
0000f0 17 91 2e 5b 40 74 c7 3f 25 32 98 02 c2 f0 a9 bf
       0.18323521091691283 -0.05066496164008453
000100 61 97 0b 60 68 20 a2 3f ec b5 6e ad a2 3c c2 bf
       0.03540350124767034 -0.1424754473531914
000110 ad cc 94 aa da 8c b5 bf 7d 6e 98 b9 3d a4 a7 bf
       -0.08418051399785283 -0.04617493525094305
000120 8f 32 8b af b8 1e c1 bf 3d da c8 73 c4 06 c1 bf
       -0.1337500435969514 -0.13301902440589855
000130 7a 2b 53 1e 0f d2 81 bf e3 24 62 9b 2d d6 d4 bf
       -0.008701437104169808 -0.32557239698560475
000140 56 65 6e 69 e4 bd a6 bf f3 7d c0 0f d0 d5 b6 bf
       -0.044417512769721654 -0.08920002350395588
000150 53 8d e7 db fc fb a7 3f 8b d4 d8 19 c0 f6 b5 3f
       0.04684438881283861 0.08579636221914393
000160 ef 92 76 c2 89 23 91 3f ad 5f 22 b5 cc 6d a7 bf
       0.016737129682627246 -0.045759579764477955
000170 ea 9c c1 5f 56 40 9f 3f bd b3 0e 43 ba 5b 91 3f
       0.030518865198612945 0.016951475470410083
000180 96 61 df b0 73 eb ba bf 12 70 ae b5 8b 44 d0 bf
       -0.10515521114519397 -0.25418370001148205
000190 4d 8e e5 84 f0 08 ba 3f c8 09 fd 30 8d 4f be 3f
       0.1016989063696709 0.11840135999685863
0001a0 23 28 2a 53 ea ae 9a bf 02 f8 5c bf 04 13 a2 3f
       -0.02605787403675931 0.035301349982987076
0001b0 7d 6e 2c 57 0f 3b 9d bf 65 a0 e2 5f 70 87 bf bf
       -0.028545608230258857 -0.12316038456867913
0001c0 a5 a5 e8 5c 66 69 b6 3f f9 84 28 9f 31 24 93 3f
       0.08754577415734006 0.018692756022692134
0001d0 e7 f8 96 5e 34 7f 94 bf a8 52 8a d1 16 76 a2 bf
       -0.020016496918963702 -0.03605719859948425
0001e0 2d f0 5f 86 57 34 b0 bf fa a4 18 46 9d 2c c0 3f
       -0.06329867392190698 0.12636152193707756
0001f0 ac 21 b9 fe 6b 2a cf bf 5f e5 99 f2 97 0e b6 3f
       -0.2434821122899512 0.08616017983321943
000200 37 f4 ef e9 32 6f c9 bf 31 bc 12 a5 7f 63 a3 bf
       -0.1987060205719062 -0.037868489170584836
000210 79 32 a7 43 83 d5 ba 3f c1 57 b0 e1 fd d7 c2 3f
       0.10482044603049613 0.14721654434168666
000220 83 ac 99 9f 89 9c b2 bf a2 7f 11 ae 34 7b b7 3f
       -0.07270107408992214 0.09172372102466267
000230 26 b4 1b 1d d6 2e b1 3f 68 21 cb 45 b1 9b b7 bf
       0.06712091646814197 -0.09221942857687326
000240 0e ef 2d b4 56 0e 6b 3f ca 90 05 7a 8d b6 bb 3f
       0.0033027356561755655 0.10825428227468872
000250 45 c3 de 2f 1b 45 c1 bf 71 a9 26 cb 6e 86 ae 3f
       -0.1349214538327265 0.059619390772541865
000260 58 2f 97 3d a0 a1 bd 3f 6c 54 36 a3 4c ca b0 3f
       0.11574746612239772 0.06558684334443549
000270 95 2e 8d 65 84 99 62 bf 57 8b 2b 77 b9 d6 b7 3f
       -0.0022704683182491283 0.09312018546510835
000280 b9 42 a5 36 f1 da b4 bf d5 67 3a 38 a1 bf bb 3f
       -0.0814657934581743 0.10839278815038196
000290 39 74 f3 79 ae 57 c3 bf b8 74 2e df ed 20 9c 3f
       -0.15111332850111284 0.027469364878574182
0002a0 5f fc af e5 2b 9a c3 bf e4 1e fb fb bf 1b 97 3f
       -0.15314243998725183 0.022566795115181018
0002b0 ed 93 b5 2c b7 b5 74 bf b8 4b ba 64 c3 ba c0 3f
       -0.005056109929999925 0.13069956224771118
0002c0 2d d7 a7 11 6f a4 cc bf 2f 32 4d f2 e2 75 99 bf
       -0.22376812326518217 -0.02486376384631422
0002d0 76 42 50 6a ca b0 a7 bf 5f d4 e9 14 bd 27 54 3f
       -0.046270680883144275 0.0012301775456340575
0002e0 d0 be 0e 60 5b c5 69 bf 6d 3a 01 05 8a a5 b7 bf
       -0.003145864932285615 -0.09236967680156179
0002f0 d5 68 27 94 db c9 74 3f dd bb 6c 7a 48 41 d1 bf
       0.005075319032096644 -0.2696095653108708
000300 1f 3a ef c9 90 b5 8d 3f fe f0 b0 50 fb ff bf 3f
       0.014506465113211907 0.12499972076415486
000310 ef 64 c3 33 e1 c1 a9 bf d7 42 b3 8b c8 23 b1 3f
       -0.05030730969310492 0.06695226107263906
000320 32 06 0b 85 78 f8 ca bf 93 ba 31 64 6e 07 c7 3f
       -0.2107077264427502 0.1799142827253105
000330 89 6c 92 65 74 ff a6 3f 70 2e ec 3b 1d b7 88 3f
       0.04491771449939914 0.012068012610618711
000340 66 21 8f 37 89 ff a6 bf b9 9d 4b 41 fb 07 b3 bf
       -0.04491833499156676 -0.0743405374920404
000350 ab 5c 3d 87 ca 38 b3 3f 18 65 be cd 9a 92 a3 3f
       0.07508531381368992 0.038227880110932755
000360 4f ac 77 b1 3b 86 cb bf 24 31 13 e9 2e 4a b1 3f
       -0.21503397145656541 0.06753819647127962
000370 5e 73 48 cc 1a 30 b3 3f 3d c2 5a e1 ba 01 b4 3f
       0.07495276915910895 0.07815139772243014
000380 99 4e e9 17 29 64 c8 3f c6 d6 e8 a6 7d a9 c1 3f
       0.1905566565279642 0.13798494958762414
000390 35 97 79 f8 52 41 c2 3f 93 d2 63 46 d0 33 c0 3f
       0.14261853344503952 0.12658122479446784
0003a0 34 07 3f fa 4b a4 91 bf 35 13 8f 21 0b 30 cb 3f
       -0.017228305004898206 0.2124036706792595
0003b0 9d d5 02 14 41 a6 a0 3f 24 25 c5 a2 91 d8 ac bf
       0.032518418972738085 -0.056339789504429555
0003c0 9a e9 50 7b 92 6b b5 3f e3 08 96 28 17 fa 77 3f
       0.08367267141958337 0.005853739226383522
0003d0 15 bd 6a ee 75 e6 b2 3f 1a 0b 4b 86 90 f6 c3 bf
       0.0738290507385851 -0.1559620528915609
0003e0 eb e9 ba 6f bc 72 c1 3f 62 dc 05 b7 78 0e b2 3f
       0.13631396728108255 0.07053331821758627
0003f0 b0 3a 25 b9 49 71 ba 3f ee 60 2a 32 b2 ee c0 3f
       0.10329113741065998 0.1322844262074407
000400 c8 a2 d1 0d d1 f2 ab bf 3a 29 77 b8 fb f9 bc 3f
       -0.054586918770672066 0.11318944219161589
000410 5c b6 4f 52 ae 15 ce 3f 59 20 42 14 9c f7 bf 3f
       0.2350366498862283 0.1248719739397769
000420 a9 b8 16 60 61 0c cb 3f ad c8 e1 22 32 94 92 bf
       0.21131531898339986 -0.018143447283769976
000430 8d 1e a4 f2 ab 89 c5 bf e2 cb 57 3b e6 ad cd 3f
       -0.16826390598020105 0.23186948678593838
000440 40 44 ee 5a fa f5 ac bf 41 de 89 f4 72 8b b5 bf
       -0.056564162826483244 -0.08415907354525932
000450 15 6d fa 7e 4f a8 ca 3f 0b 1f 35 3f a2 30 c4 3f
       0.20826142978771914 0.15773418508819534
000460 57 e9 d1 06 fb 0a b5 3f d6 2e 31 a6 da 49 bd bf
       0.08219880024436087 -0.11440817410874202
000470 ea 2c 5f ee a4 1b a6 3f 21 a2 f0 4e 06 d6 67 3f
       0.04317965898334271 0.0029096720895902682
000480 c9 8c 2a 76 e6 0a b0 3f 88 3a 19 fd 3b 17 7f bf
       0.06266632447163824 -0.007590517359473588
000490 67 52 a7 45 cc 3e 9d 3f d8 f2 bb 12 67 b4 bd 3f
       0.02855986762172549 0.11603397567155171
0004a0 99 d3 b4 81 5c 61 a8 bf 8b dc 23 4a 44 b4 c9 bf
       -0.04761780818299783 -0.2008138048183564
0004b0 0d fb 4f 03 cc bd b8 3f 2e 5e c8 29 2a ed c7 3f
       0.0966460712515806 0.18692519226236598
0004c0 f2 64 cd 3b 60 0c b1 3f a4 fa 40 34 c9 3b 64 3f
       0.06659509143846146 0.002469914414205592
0004d0 22 37 bf 5a 22 01 b6 bf 59 99 f2 75 e2 8a ae bf
       -0.08595480647565215 -0.05965335550108603
0004e0 8f cf 4b 10 98 dd bd bf e5 5b a6 b9 ba 04 c6 bf
       -0.11666250608305816 -0.1720193296902998
0004f0 75 2f 1d 77 40 10 c5 3f a9 43 39 9a 0f 10 b9 bf
       0.16455846611131233 -0.09790132060267233
000500 bd cd fe 53 f4 76 b9 bf d6 4d c9 de 96 51 c0 3f
       -0.0994713501993862 0.12748990896453333
000510 28 67 b6 d5 3c 11 ba bf 4f 11 88 82 8b 5c 9b 3f
       -0.10182552545157064 0.026720218507777557
000520 b5 d4 c0 c5 48 c8 c1 3f f6 31 7a b7 5a 46 c0 3f
       0.1389246907798786 0.12714704474309685
000530 a5 8d 0e 10 37 8b 99 bf eb f3 ab ab 04 8d c4 3f
       -0.02494512591841915 0.16055353529364366
000540 e3 78 07 f5 d9 16 a7 bf 5f 4a 1f 3f 8d 9e a6 bf
       -0.04509621730879745 -0.04417840381178872
000550 2e 3d 19 f9 f0 eb 94 3f ef 88 d0 73 33 15 c2 3f
       0.020431294635554646 0.1412720027447629
000560 dd 09 fe 56 b1 06 63 3f 96 fb 2e 53 48 db b3 3f
       0.0023225272815931967 0.07756473570678532
000570 27 2b ee fa 56 0f be bf b7 fb 0d c5 5d 0f b6 bf
       -0.11742156625966214 -0.08617197094825611
000580 6e 85 2b ac d8 29 ce bf 3e 6e bd 60 c1 87 92 3f
       -0.235652050082574 0.018095990685976775
000590 98 25 67 52 d2 1a b4 bf 84 bb f8 5d 99 c3 bf 3f
       -0.07853426467695213 0.12407835525730887
0005a0 e9 50 9f 12 cc c0 b6 3f 21 2c 78 ae 47 6d cb 3f
       0.08887935118338287 0.21427246111883938
0005b0 c0 7b c3 d5 ea c4 c1 bf 19 c3 f4 8b 91 d4 ac bf
       -0.1388219398276913 -0.056309269270405866
0005c0 8e 9e 06 c8 34 f0 9c 3f ec 98 64 87 bf 32 9d 3f
       0.02826006384716933 0.028513901365976688
0005d0 73 8a 56 2b ba 6d a9 3f 94 df b2 7a 66 de c3 3f
       0.04966527728108341 0.15522461882732996
0005e0 d3 b8 79 fa 10 d1 a1 bf c7 ea c3 05 ff be b8 3f
       -0.03479817445337265 0.0966643704486315
0005f0 b2 e5 24 33 ce 24 b8 bf f4 9e 96 8d 54 17 c1 3f
       -0.09431160687099441 0.13352448380941662
000600 64 0e 6f 23 e0 75 99 3f 42 92 04 f2 98 05 b8 3f
       0.024863722002704938 0.09383541020049171
000610 24 cf 9c e0 94 f5 92 bf 2e 85 dc df 78 83 cb 3f
       -0.01851494427610513 0.21494971209271213
000620 3e 0c f6 75 21 48 75 bf d3 25 a8 9e 5b 95 b5 3f
       -0.00519574232692138 0.08431027053315825
000630 9c be 8f 28 78 6a b4 bf 6d 53 f4 bc 25 1a c0 3f
       -0.07974959364195872 0.12579795576371158
000640 14 7e 53 cf 62 a6 91 bf 4a 64 f9 a9 99 40 9a 3f
       -0.01723627462786055 0.025637055396462473
000650 36 26 9a c3 1f 32 8d 3f 8e 09 3c 17 45 9b a2 3f
       0.01425576034241081 0.03634086521744272
000660 d7 3e d3 10 c2 84 c3 bf 76 be 69 80 64 03 c8 3f
       -0.15248895474950672 0.18760353346032205
000670 6e de a7 08 9a 07 cb bf 52 33 72 5b ed a5 b8 bf
       -0.2111694853081078 -0.09628184778757756
000680 0d 68 58 37 4f 69 c5 bf 66 7d c0 02 01 62 a1 bf
       -0.1672762890091807 -0.033950835786749775
000690 22 41 6a e8 26 ea cb bf 53 7d 72 49 bd ca c1 bf
       -0.21808325146094726 -0.13899961553850435
0006a0 f4 60 ea ad aa 55 a2 3f b3 a4 d3 02 c0 53 b0 bf
       0.03580983517639594 -0.06377792424213417
0006b0 b0 93 2a fd 8b e6 be bf ca 68 a1 2d a5 d8 c1 bf
       -0.12070536547487509 -0.13942398765613567
0006c0 f9 ff 0e 06 89 60 a8 bf d7 83 ca 79 ef 5a ac bf
       -0.04761150549848021 -0.05538128244121026
0006d0 0d 48 62 e5 fd 2a d1 bf 8c 7b 0a e8 38 36 ac bf
       -0.2682490100934281 -0.05510118324786281
0006e0 29 21 7b 99 20 a0 c3 bf 80 5b 49 23 3a 91 bc bf
       -0.1533241986674139 -0.11159098969925019
0006f0 57 73 33 3e 2d 64 a1 bf f2 0b be da d1 1e d1 bf
       -0.0339674127987794 -0.2675060878902392
000700 77 c9 06 ab 3d 0c d5 bf b0 24 af 60 6c 06 be bf
       -0.3288721246891763 -0.11728551254704445
000710 e6 ca dd 77 00 cf cb bf 1e 2e 26 f5 c2 59 b6 bf
       -0.21725469448900653 -0.08730715260588126
000720 3f 6d ec 47 72 c5 76 3f 0f fa 0a ae d7 f4 bd 3f
       0.0055593933200513415 0.11701725005239204
000730 18 79 8e fd 9f a9 bb 3f 13 e3 b8 f9 b0 ff b5 3f
       0.10805702152581309 0.085932789771402
000740 9e 18 2e c7 8c fb c0 3f a2 2c 2c aa 79 3a c1 bf
       0.1326766941603567 -0.13459702309805716
000750 5e 8f bc 16 94 b1 b6 3f 5a 3a 1c 3f 6b cf ac bf
       0.08864713244525776 -0.05626998086346609
000760 8a 4c 1b 49 b2 bd b1 bf 0a b8 46 d7 d7 a6 b2 bf
       -0.06930078778104778 -0.07285832410590856
000770 5a e9 07 62 3a 51 a8 bf 9a 9c 70 3b 6d a8 b9 bf
       -0.04749472090402902 -0.10022623730820826
000780 24 22 23 12 70 02 a0 3f 69 37 fa 7f b6 0c b9 3f
       0.03126859876062252 0.0978502333111614
000790 0f dc f1 14 44 83 b2 bf 16 cd 8a 34 2e 44 c2 3f
       -0.07231545935961513 0.14270570340668404
0007a0 f5 cf ca c7 9f e5 99 3f 1e a5 36 a4 e7 4a a5 3f
       0.025290009087896654 0.0415871036487465
0007b0 c2 0f 2e 32 da eb bd bf 74 a8 cf a3 29 38 a8 bf
       -0.11688007092567346 -0.04730348705909729
0007c0 39 b7 7f 1e a1 86 c4 bf ad a7 a1 63 f9 08 a2 3f
       -0.16035856236651982 0.03522471753315357
0007d0 b1 34 e6 af db 73 a3 bf 59 99 19 03 67 89 b2 3f
       -0.037993302557063464 0.07240909410174846
0007e0 c1 17 34 16 50 10 b7 3f d3 8b 56 4d 9d 36 c2 3f
       0.09009266416623431 0.1422917010905552
0007f0 c6 6c 6f b4 45 e5 c1 bf 36 f5 e4 99 35 0f b3 3f
       -0.13980933485331642 0.07445082671343503

fc1.bias f8 [200]
000000 50 87 25 1a cf db bc 3f f0 bd cf a7 67 91 c8 bf
       0.11272901905388477 -0.1919374055282641
000010 bc 08 3f 09 c1 55 dd bf ff 7a 5d 35 ae 04 e1 bf
       -0.45835901167823656 -0.5318213503158801
000020 a3 5a d5 fa de 33 d6 3f ee d6 93 0a 86 15 c8 bf
       0.3469159555001317 -0.1881568481109563
000030 99 34 11 a6 09 57 e1 3f c9 d2 8f 4b 9a e8 d8 bf
       0.5418747180462048 -0.38919694308360114
000040 63 94 75 e5 1c ca c0 3f 16 6d e7 e6 fc af ad bf
       0.13116799549166833 -0.05798330610897488
000050 e9 c0 a7 6c bb dc df bf 7e a0 ec c2 83 51 e4 bf
       -0.49784741984241393 -0.634950524055071
000060 cc 6a d7 d4 da 66 d2 3f 52 46 78 44 fc 2b cb bf
       0.2875277594118131 -0.21227982848408772
000070 98 76 00 24 a4 96 ca bf 3f 5d 91 30 ec 3f e0 bf
       -0.20772220380688533 -0.5078030537214672
000080 0e 5a 4e ea 42 cf da bf 64 b7 fc b0 2d 5f de bf
       -0.41890023118449526 -0.4745592335119595
000090 35 70 ac bd 59 a7 e2 bf 91 88 d9 f4 31 7e cb bf
       -0.5829285339891671 -0.21478867011598315
0000a0 95 02 f5 e1 54 5c cd bf d7 f9 5b 66 b9 8b c0 bf
       -0.22938023598728266 -0.12926404474269645
0000b0 71 aa b7 84 e7 7c c3 bf 51 bb 1e 42 52 a9 d8 bf
       -0.15224927883476227 -0.38533455330882754
0000c0 6a e4 7d 89 13 ba de 3f 9f c5 c6 69 39 89 e2 bf
       0.48010719706468896 -0.5792510095545146
0000d0 ed ed 88 cd a3 04 e3 3f 8d 6e 36 a8 78 6e df bf
       0.5943163885453352 -0.4911176340772066
0000e0 3b f3 49 73 77 7b d1 bf 37 ef 3c 09 a0 9e c2 3f
       -0.27316080340078813 0.1454658551318688
0000f0 3f f1 c2 80 9f a4 e0 3f 69 4f fa f0 55 f9 da bf
       0.5200955881951258 -0.42146824391351473
000100 dd b5 2e b1 cb 3b da bf 1a cb 5a c7 04 f8 dc bf
       -0.4098996382043348 -0.4526378580878131
000110 7e a3 0d 53 8e 8b d6 bf bb 72 1d 82 c4 77 e6 3f
       -0.3522678195063732 0.7021200696286408
000120 02 3e 59 5d d1 d5 d4 bf 58 4f 1b 7a dd 51 94 bf
       -0.32555040470194296 -0.019843540742683657
000130 0b 66 26 41 7f f1 cc bf ec d0 12 13 31 9e 74 3f
       -0.22611990624572828 0.005033675858772773
000140 34 89 50 9e 14 ff c2 3f ce 26 06 e2 68 5e da bf
       0.14840944032864345 -0.41201231072100775
000150 9f 80 3f 60 82 84 d7 bf 95 9d 90 99 0b b6 d1 bf
       -0.36746272467827085 -0.27673616406033236
000160 f2 a6 1e c0 ab ed c9 bf 2b 42 af bd 2d f1 d0 bf
       -0.20256564026686125 -0.26472037814986277
000170 09 1c 90 ab 37 d1 dc bf 89 11 db 45 db 3e d0 bf
       -0.4502696204585282 -0.25383645841454744
000180 d6 b4 ca 03 a6 70 c4 bf c9 ee f2 7d 4d e0 c3 bf
       -0.15968775925777007 -0.15528267526484843
000190 84 91 58 7a 77 01 e0 3f 87 9e cd 4a 43 19 d9 bf
       0.5001790418214545 -0.3921669226169588
0001a0 7c 7c 00 d2 29 72 d6 3f 7e ee a2 aa 66 66 a5 bf
       0.35071797855375286 -0.041796882943768474
0001b0 61 cf e7 de f8 fa d6 bf 7b 03 3f 88 20 9f d8 bf
       -0.3590681244670489 -0.3847123461273935
0001c0 90 df ff d8 4b 7d d6 bf 5b 10 b5 98 d6 35 e2 bf
       -0.35139747802122034 -0.5690720541538313
0001d0 ca ea 1c cd 66 67 c2 bf ca 27 6d 2d b5 24 c0 bf
       -0.14378056540757306 -0.12612023084721918
0001e0 fd e2 23 0a 08 d3 d6 bf 10 5f 6c 91 64 7e e5 bf
       -0.3566303347611635 -0.6716788139628722
0001f0 8a 52 63 9f 7f bf af 3f 69 e6 5e 12 05 ea ba 3f
       0.062007892805614764 0.10513335894111155
000200 b9 0a 72 d1 5b d7 e6 3f 6c 85 82 cc 5d ac d0 bf
       0.7137888994914966 -0.26052041026749495
000210 f1 55 68 c3 ab 99 d3 bf e4 9f 07 75 b7 16 e2 3f
       -0.3062543304707495 0.5652730260599097
000220 b9 03 b5 a6 ac 2f f3 3f fd 23 bc f1 20 cd d8 bf
       1.1991392623897197 -0.3875200615589732
000230 15 c8 d2 09 ef 14 da bf 33 56 d7 70 c0 72 e5 bf
       -0.40752769431412733 -0.6702577785424125
000240 4d 95 14 a6 0f f7 e3 bf 9b 45 4c a3 b7 55 e3 3f
       -0.6239088290937304 0.6042135419285616
000250 25 f7 ec 7d 68 33 c7 bf 0f 35 f0 15 fd f5 e6 bf
       -0.18125635288918676 -0.7175279072268114
000260 fd dd 5c 9b 54 7a e1 bf a5 dd d5 41 31 b2 c3 bf
       -0.5461829218319846 -0.15387550081844129
000270 de f7 08 12 d0 eb ca 3f 5e d6 bb 24 5c c5 d0 bf
       0.21032143478981785 -0.2620458945014884
000280 a2 0f 9f a1 a2 f9 e5 3f d7 c2 6a f3 7d 29 e1 bf
       0.6867230564753195 -0.5363149408568358
000290 74 c3 ca 44 bf f1 f3 3f 9b 0d 5a 42 02 b4 e7 3f
       1.246520298689771 0.7407237335141191
0002a0 ad f8 be 30 0e a0 d5 3f c4 a4 4c 57 9a 9c b1 3f
       0.33789400825834087 0.06879582053501837
0002b0 1b ff 3f 5f 24 d1 91 3f 3d ac ec fe c2 18 c9 bf
       0.01739937621459751 -0.19606816718564515
0002c0 b2 40 5c 12 ac 18 db 3f e0 bd 44 2e 0c e2 ae 3f
       0.42338086884502524 0.06031835617829606
0002d0 f2 ec 5a 27 34 53 e3 bf 52 b8 54 6a a3 58 f3 3f
       -0.603906704774458 1.2091402200271841
0002e0 cd b0 a5 a7 76 a6 d2 bf 45 fb eb 1f ca 0d d3 3f
       -0.29141012546348294 0.2977166473137241
0002f0 e8 7f 0e a5 f6 dc e3 bf 1a b6 e9 07 56 00 d4 bf
       -0.6207230781328663 -0.31252051136729764
000300 e7 4e 0e d3 a1 42 d8 bf 53 7b 62 55 b2 4c c4 3f
       -0.37906690226485157 0.1585905949513867
000310 71 8b d8 9d 7a bd cd bf aa 9f c2 38 b7 15 e4 3f
       -0.2323449393016648 0.6276508434866532
000320 f0 d4 b9 c4 71 38 c6 bf 47 cb 2f 38 c0 c2 d8 bf
       -0.1735975466323576 -0.3868866490076254
000330 8e fc ce 0e 72 76 d2 3f 6b 12 9e 8d 58 a7 e5 bf
       0.2884793419470463 -0.6766779676405127
000340 4c e4 7e 93 a0 aa ee 3f e5 ff 05 d5 a3 dd e1 bf
       0.9583285218024087 -0.5583056603063566
000350 64 e7 82 0a 1b b1 d6 bf 91 d7 75 8e 73 0b bc bf
       -0.354559669747337 -0.1095497343829648
000360 fa 45 11 fd 02 86 c2 bf 8a 95 82 97 0f 1a e9 3f
       -0.14471471173105482 0.7844312628919152
000370 24 97 69 7b c3 25 e1 bf 02 bc 5b 89 b7 97 e9 bf
       -0.5358598146819742 -0.7997701342372923
000380 f1 c3 46 ab 9e 8a cc bf 12 c4 47 3a a8 6c 9d 3f
       -0.22298034060580066 0.028734806592130076
000390 06 92 81 dc 38 e8 ca bf 6d 9e 02 ed 58 7a d8 bf
       -0.21021185652638524 -0.38246749063043844
0003a0 20 89 e8 13 0e 38 d8 3f 53 68 ab a9 5a 24 ca 3f
       0.3784213251511961 0.20423444065710558
0003b0 86 4e 3b 8d fd 6f de bf c8 ef a9 b6 5e 04 d6 bf
       -0.47558535377650235 -0.34401672209037004
0003c0 11 a9 77 67 28 19 a1 3f ae 57 86 6c 91 0d b6 3f
       0.03339506400137016 0.08614453219919824
0003d0 b6 6c 54 8f 6f 8d db bf d7 47 e9 82 a3 90 df bf
       -0.43050755497979354 -0.4932030466489982
0003e0 43 3f 10 6d 06 27 c9 bf fb 4e c3 b4 e6 2d d7 bf
       -0.19650345158924595 -0.36217658665303504
0003f0 ef a6 b6 92 cc 49 cd 3f a5 a0 85 6d 88 f0 e2 bf
       0.2288146702169835 -0.591861928854105
000400 08 3f 6a 96 58 4e d3 bf 40 e7 95 ea 98 68 e2 bf
       -0.3016568631073686 -0.575268228697702
000410 9f 5e cf d9 4c 80 c2 3f b8 09 80 dc 88 e5 c1 bf
       0.14454041133170833 -0.1398173405323868
000420 63 ca fd b5 e7 f6 db bf b9 99 8a 19 14 c5 d1 bf
       -0.4369448926219432 -0.277653717940122
000430 79 e2 58 eb c5 f9 d8 bf 48 d7 5e 5d e6 e2 d6 bf
       -0.39024494155049855 -0.35759886854372214
000440 56 15 19 79 f4 1f d6 bf ba e7 78 ee db 36 cb 3f
       -0.345700376758335 0.21261166710047325
000450 99 ff 1e fd fe 76 cf bf 6f 7f d8 d5 3f 4e e1 bf
       -0.2458189712469874 -0.5408019234346123
000460 2a fd 20 b6 9b 5e d0 bf 95 9f f8 d5 17 19 df bf
       -0.2557744291879823 -0.48590656180976427
000470 23 05 91 55 0e 89 de bf 5c 6f 0f ab 6d 9c e2 bf
       -0.4771152339563562 -0.581595262624869
000480 29 7f 13 fb 01 fe eb 3f 37 f7 94 66 1b ab e9 3f
       0.874756803877948 0.8021370891144447
000490 ae 21 d9 e0 0d 61 d2 bf 7f 9b 87 e8 10 02 d9 bf
       -0.28717371900395505 -0.3907511015699398
0004a0 60 29 d5 31 f6 ca cb bf 59 49 98 99 c7 75 cc bf
       -0.2171313994716213 -0.22234435081243012
0004b0 77 82 31 ab c7 10 f2 3f 65 69 9c 8f fc 13 db bf
       1.1290966689340658 -0.4230948831988342
0004c0 1b 83 a0 f8 c5 aa d9 bf 69 84 c0 21 88 64 df bf
       -0.40104817657452124 -0.49051097198577637
0004d0 c6 87 21 52 5d e8 dd bf 2d 6e 50 83 39 73 db bf
       -0.4673074056682903 -0.42890775512362006
0004e0 0c 87 2d 63 2e ec c2 bf 46 43 70 18 4c 67 d6 bf
       -0.14783267824810087 -0.35005476366591315
0004f0 72 cb 7a 8d 42 8b df 3f 82 79 02 0b 1a 88 a7 bf
       0.49287475410817827 -0.045960248798325956
000500 f0 ff f3 76 51 a7 d3 bf 58 46 7a 2d 99 1e b1 bf
       -0.30708729378238697 -0.06687314377111286
000510 a4 44 90 ce 01 ab a7 3f 48 da c3 8e 4d 81 db bf
       0.04622655531432798 -0.42976702634715425
000520 f1 52 cc 14 74 fc d2 bf 09 b8 6e 0e 4c 35 e7 bf
       -0.2966585352999536 -0.7252559930691415
000530 59 83 0d 9a 66 7c d3 3f 87 10 d9 4b 6b 20 81 bf
       0.30446782154290514 -0.008362615825838539
000540 b1 66 ec cf 58 3a d3 bf d9 09 49 52 e1 c7 d3 bf
       -0.3004362135412562 -0.30907471690821137
000550 b8 48 24 5d 9d e7 d3 bf eb 4b d7 33 b4 9e d4 bf
       -0.311011639555669 -0.3221865183124339
000560 8d 6f 6a b1 e7 58 e0 3f 2f 78 f6 dc e7 2e 92 3f
       0.5108526673461583 0.0177570561041806
000570 31 89 44 4c bf 53 e2 bf ab 7e 54 f8 ea 51 df bf
       -0.5727230538944125 -0.48937486887914855
000580 9c 1c 76 2e 10 01 c9 bf 36 f0 e9 fd ca d6 d7 bf
       -0.19534494656202106 -0.37248492046615256
000590 98 3c 2c 4d 4c 62 df bf 6c 96 93 cd d0 fe be bf
       -0.4903746369972821 -0.12107567805250036
0005a0 67 89 46 53 60 56 d2 bf e6 18 e5 d4 9d 11 e1 bf
       -0.28652198917747856 -0.5334004552940115
0005b0 72 e1 d1 e2 38 48 c1 bf e8 73 2f 68 b8 38 da bf
       -0.13501654696643645 -0.4097119347987346
0005c0 2c 6f 9b 7d 4e df d7 bf 63 e7 10 10 52 90 d8 bf
       -0.3730045534737083 -0.3838086277861434
0005d0 58 3c bd a1 1a 5c c4 bf ca b6 80 61 15 79 d3 3f
       -0.15906079194471334 0.30426535150295975
0005e0 45 f6 51 cd 2a d2 bb bf 30 27 27 1a 10 03 e1 bf
       -0.10867564690303151 -0.5316238890456813
0005f0 54 de 2b 2c 4c 1c c7 bf 53 ea f4 84 28 be a2 3f
       -0.18055107266239878 0.036607042532030086
000600 db ad 52 54 39 33 d8 bf 17 0f 2e 6c fc 02 b6 3f
       -0.37812646135963995 0.08598306313620828
000610 cc 61 5a a4 89 d7 d8 bf 66 9b cd c3 7a b1 d3 bf
       -0.388155375004797 -0.30770749207879644
000620 2e 8e d1 10 1f fd d1 3f 0e 16 ff d5 55 57 dd bf
       0.2810743011707214 -0.45845552347268004
000630 ee 2d 02 ec bb e2 dc bf b0 fd e9 79 0e 2e c1 bf
       -0.45133874938684826 -0.13421803429444656

fc2.weight f8 [100, 200]
000000 75 d5 14 ef ce 75 b3 bf a8 9d fa e2 9f 68 84 3f
       -0.07601636254260831 0.009965180506084817
000010 99 ba 23 17 c7 68 b5 bf 87 64 84 9c 82 30 91 bf
       -0.08363003077441035 -0.016786614230202914
000020 02 ef 4b 11 ac 3e a2 bf 4c ac 12 1b dc 56 a2 3f
       -0.03563440047397927 0.035818937592317995
000030 3a 1b 46 95 f6 57 a4 3f c5 66 3c 44 f1 7f 72 bf
       0.039733606073289754 -0.004516546676109183
000040 7e 94 8b b5 73 04 b0 3f c3 fe bc ed 7a 97 70 bf
       0.06256793195969299 -0.0040507127667407964
000050 8b ca a1 2b f6 09 89 bf 74 e7 ea 71 f4 1f a6 3f
       -0.012226031500380393 0.04321254625888474
000060 2e 43 0b 76 d1 5a 99 bf 3a 06 39 1a 54 3b b3 3f
       -0.02476050646766053 0.07512403145030869
000070 bb c4 9c de 46 20 9b 3f 20 4f 5f c0 ee c0 ac 3f
       0.026490313851529317 0.056159459097811615
000080 98 6a 27 9b 9c cc aa 3f ba f2 f8 e1 04 d2 97 bf
       0.05234231370896686 -0.023262096683753987
000090 e9 95 69 85 0d 21 bd 3f fe e2 91 32 7e 63 9a 3f
       0.11378559596194972 0.025770160519161138
0000a0 67 e1 ba 13 71 e6 9b bf b6 ad e0 4c d6 47 71 3f
       -0.027246252850745913 0.004218899832305769
0000b0 ee 60 ec 87 3a 50 ae 3f 11 1f 9d 98 dc 9a 9c 3f
       0.05920584592075949 0.027934500517658615
0000c0 e3 6c bb 77 e9 50 ab bf 7d f9 b9 9e 4f 28 9a bf
       -0.05335168444227081 -0.02554439932145546
0000d0 f6 8a a1 b4 6b 8f a8 3f 21 04 3a 3c 3d f9 60 3f
       0.04796921329468333 0.0020719715119530556
0000e0 30 5c 0a 0f bd 4a b3 3f 7b 12 bf 1b 99 af ac 3f
       0.07535916917036967 0.05602720702839733
0000f0 62 88 fe 84 fe f9 a9 bf d5 8f 2e 4d 00 72 bf bf
       -0.0507354295107383 -0.12283326992343231
000100 43 b6 53 f7 3c 78 b4 3f 24 86 73 20 b6 82 b2 bf
       0.07995968855149109 -0.07230699817912317
000110 56 6c e2 1f 37 28 8a bf 06 2b 5c d7 74 76 9a 3f
       -0.012772017155205411 0.025842500347645923
000120 3f d9 aa 4c 6e 47 8d bf e4 20 3b d7 a4 74 a6 3f
       -0.014296399798109703 0.043858672402679294
000130 9a b0 52 8c c2 8d bf 3f d4 55 94 08 ff 23 a5 bf
       0.12325683523039502 -0.041290254399580256
000140 36 99 76 23 ef 4f 73 bf 4d 22 b2 f2 cc dd b0 3f
       -0.004714903006436002 0.06588440823737436
000150 0d 87 c6 06 6d d9 a9 3f 15 0f ec b4 5c 97 b2 3f
       0.050486952855193314 0.07262210289996703
000160 0d 54 36 4f 06 73 73 bf 8d eb 82 2e c8 a8 b2 3f
       -0.00474836792581802 0.07288790832073584
000170 3f 2e 21 6c 95 f3 99 3f e4 cb a6 03 7d 9b 90 3f
       0.025343260502536543 0.01621814093386921
000180 5a b6 34 1f 88 09 a2 bf 69 fa 64 4e 92 95 a5 bf
       -0.03522897129947174 -0.04215676505053951
000190 0f 2d 46 eb 3b 81 b1 3f 47 9e 86 e5 b1 37 8d bf
       0.06837820524213022 -0.014266385857651843
0001a0 cc 83 29 52 43 80 bc 3f 4a 88 67 91 4f 13 b7 bf
       0.11133213764107025 -0.09013840961373024
0001b0 92 16 f6 ed 0e 82 8e bf 0a e4 fb 64 c9 0c a3 3f
       -0.014896504055978785 0.03720692975725377
0001c0 b9 58 6e f9 e5 0b aa 3f 6c 22 ed 83 5f bb b9 3f
       0.05087202710926548 0.10051533671242802
0001d0 ec a3 c7 40 30 d7 a5 3f 36 bc f0 67 34 5d a3 bf
       0.04265738287705986 -0.03782047051242225
0001e0 ab 64 a4 1b ee dc b9 3f 54 e5 52 4c ab f1 a5 3f
       0.1010273759351487 0.042859414164420656
0001f0 50 76 8b c1 a6 30 b7 3f ef 3f 6f 37 88 79 7b 3f
       0.09058611130918703 0.0067076989134449
000200 14 fa e3 5e 70 18 94 3f b8 fd 5f 76 03 4b a6 bf
       0.019624477187784775 -0.04354105777747058
000210 e0 4e a2 cd fe ba b0 3f 2f 06 87 07 ac fe b1 bf
       0.06535332222329826 -0.07029223617339463
000220 8c e5 b1 6b 14 a1 88 3f 53 fe 39 40 d8 6d c3 3f
       0.01202598527582912 0.15178969512997983
000230 c9 9a 21 d8 78 9d b3 3f 36 96 72 4f bc 7b 93 bf
       0.07662158276216781 -0.019026701306435544
000240 da a7 71 ed 23 9a c2 3f 23 ca b6 ae 24 ce 9d bf
       0.14532898992484783 -0.02910668674821627
000250 45 03 04 36 bb 50 85 3f d6 18 8a 3f 29 29 9d bf
       0.010407888971259669 -0.028477329733981836
000260 f8 58 3c c6 7b 77 c4 3f cd ae e0 04 18 e6 9b bf
       0.15989634685019616 -0.027244925782880004
000270 93 9e 78 c4 56 07 b0 bf 33 3f 67 a1 fa 52 ad 3f
       -0.06261198326739707 0.05727370472197748
000280 d4 67 56 36 57 ee b1 3f b7 13 8f b8 26 43 83 bf
       0.07004304005241063 -0.009405424601831898
000290 b6 16 09 00 b1 95 9a 3f c1 22 01 7b a3 76 bb 3f
       0.02596165240017597 0.10727903130567552
0002a0 5d 51 02 30 b0 5a a4 3f f5 c5 0e 8b be 97 b3 3f
       0.03975439630554221 0.0765341844078405
0002b0 31 9b b6 2b 77 4a a2 3f 33 f2 cf d7 65 9b b3 3f
       0.03572437676057517 0.07658993262152407
0002c0 06 a3 9f 3a 60 44 68 3f 2b 2c d9 87 84 d2 90 3f
       0.0029622916672348313 0.016428061286472378
0002d0 7a 32 72 ec 70 6a b0 3f 98 5a 1f 10 af 7c 97 3f
       0.06412416241273347 0.022936568602598045
0002e0 f6 5d c0 14 9b fe 81 bf 55 5e 32 e1 39 1d 8b bf
       -0.008786403246673107 -0.013239338097533674
0002f0 d3 48 ed 4a 53 ac 85 bf 77 f7 4d 22 5d 0f 93 3f
       -0.01058259079369287 0.01861329576376344
000300 e1 13 44 38 0f b3 a2 bf 3a 6e 33 f7 de 93 b9 3f
       -0.03652236520614572 0.09991258177927245
000310 76 51 7a 73 80 23 a9 bf af f3 6b f7 3b f5 a9 bf
       -0.049098981949245266 -0.05069911380085245
000320 bb ff 21 3f 64 10 91 bf 11 a9 64 54 e6 e6 a3 bf
       -0.016664091447182488 -0.03887100010099876
000330 96 31 2b fc fb 3f b0 bf e9 4f 50 d1 e4 6f 99 bf
       -0.06347632318938276 -0.02484090354489857
000340 3f ef 4d ed 4c 11 95 bf 28 20 15 83 73 c5 b2 3f
       -0.02057380865470226 0.07332536649948962
000350 86 e3 3c bf e3 2c a8 bf a0 d5 d4 73 63 68 c0 3f
       -0.04721748074957248 0.12818568378285722
000360 ed 01 35 29 de a8 a8 3f b7 8b 7f 46 08 6a 82 3f
       0.048163359193953294 0.008991303111491307
000370 99 aa 6a 79 c3 0f a5 3f cb 3f 92 bf 09 a5 b2 3f
       0.04113589150559455 0.07283078124078128
000380 b6 27 d8 46 55 70 a9 3f 0b fa ff d7 0e 02 b1 3f
       0.04968515863227145 0.06643765233454972
000390 a9 d8 d8 ea 40 8e be 3f 59 d0 c4 18 12 cd b7 3f
       0.11935811742373183 0.09297288040835507
0003a0 66 a0 e8 38 81 16 ae 3f ad 39 22 7a 8f d0 b0 3f
       0.058765447804319845 0.06568238002566913
0003b0 04 65 9c fc 35 73 b2 bf f1 82 b8 f3 22 df b0 3f
       -0.07207047860392285 0.0659047932645185
0003c0 cb 51 1b 94 f8 b4 97 3f b8 4f a0 ab 7b 5e a3 3f
       0.023151287116734125 0.037830223751512404
0003d0 42 d2 2c 18 20 cb 62 3f d6 20 9b 5c ee e9 91 bf
       0.002294123348656891 -0.01749393882963165
0003e0 ee 41 0d 99 dc c2 92 3f 5d 24 f8 2d 67 37 b3 3f
       0.01832146343378043 0.0750641333799122
0003f0 d3 9e f2 f2 04 f8 a1 3f 0b 9e 9e f8 f7 7b ab 3f
       0.03509536233587842 0.053680180644104146
000400 b4 81 83 9e 69 6c bb bf 4b cf 7e 56 e6 c5 ae bf
       -0.10712299461329772 -0.06010360532618949
000410 cd f8 17 f8 63 88 a7 3f 94 c2 b2 12 6d 1c b3 3f
       0.04596245196806734 0.07465249735356344
000420 94 3a 1c 03 54 c5 61 bf e0 f9 f4 a3 e7 1a a7 bf
       -0.002169288717488735 -0.045127142681383736
000430 88 13 54 21 eb 0b af 3f 69 49 aa b0 cd 83 81 3f
       0.06063780576554395 0.00855217643155433
000440 d4 a4 46 e3 1d a1 8f 3f 8d d4 c5 1d f3 cf 64 3f
       0.015444024561320914 0.0025405643811447554
000450 6b 7b a2 49 ca 35 af bf fc dc e3 69 cd 50 a7 3f
       -0.06095726155148536 0.045538348365818465
000460 43 f2 4f 20 91 e8 a3 bf aa 42 38 3e ac 8c a3 bf
       -0.0388837196296419 -0.03818262347715991
000470 5d 8b 14 d8 60 3c c2 3f 54 c5 de 24 d7 e2 c4 3f
       0.14246759939950496 0.1631726198225275
000480 e7 a2 78 3d f3 24 8a 3f 87 5a a2 8d 7e fc b0 3f
       0.012765789330914724 0.06635275800577221
000490 0d a5 70 e6 d4 0f 70 bf fa 6d 4b 85 a5 ad a2 bf
       -0.003921348229632982 -0.03648106815463943
0004a0 82 78 97 db 43 83 b0 bf 01 c9 1d d8 b3 ff a7 3f
       -0.06450294600606024 0.04687273038043039
0004b0 a2 4c 66 70 19 31 bb bf 89 21 bc 58 fe 35 b3 3f
       -0.10621794695025469 0.07504262606028624
0004c0 58 b0 f4 d9 a3 1c b0 bf ab a0 92 6c 08 da 8f bf
       -0.06293701239764127 -0.015552583516481219
0004d0 b8 88 2c 5e 6f 2f 89 3f 71 1f 98 38 e1 52 c0 bf
       0.012297506391011445 -0.1275292898501408
0004e0 25 57 81 b3 15 a8 b1 bf 5d af 91 8d ec 95 83 3f
       -0.06897102005435991 0.0095633011535125
0004f0 ce 7b 74 a8 e3 bc c3 3f 50 6e ea 42 19 dd b0 3f
       0.15420194363920675 0.06587369807896803
000500 2b aa 4b a9 62 2a b1 3f 74 7e 45 42 e4 4f 48 3f
       0.06705299981300843 0.0007419457001951028
000510 b0 90 a1 6a 73 1f aa bf 89 2b ee 0f b9 3e 9d bf
       -0.05102120091103879 -0.028559581372558127
000520 52 fe 0b da 19 4b b1 3f b1 b1 9a b8 72 77 98 bf
       0.06755220006379517 -0.02389315845236845
000530 bd a7 6b 72 40 40 92 3f 7d 67 31 0e 85 28 95 bf
       0.017823225959467715 -0.02066238307120426
000540 81 3f 75 ab b2 08 95 3f 05 de 83 c0 73 e2 b7 3f
       0.020540992464986644 0.09329913568569033
000550 f1 00 be 06 7f 46 bd 3f 99 f1 d7 55 31 91 9d 3f
       0.11435693659405267 0.028874178757165223
000560 a4 24 cb d8 24 c3 92 3f 14 09 ac 9f e0 41 a7 bf
       0.01832254002764401 -0.045424479953014935
000570 b4 e6 e9 1d ca 31 b3 3f 1d b4 30 91 ef db 9e 3f
       0.07497847776712768 0.030135863529881946
000580 e3 12 e5 88 d4 e3 b9 3f 00 d7 90 f1 b6 68 a5 3f
       0.1011326631751888 0.041814534175882656
000590 77 5d c1 cc f1 af c4 3f 1d 89 3b a9 11 68 9d 3f
       0.1616194009572884 0.028717304185996818
0005a0 21 bd 62 c0 62 d7 c3 bf e7 a7 25 46 e2 51 87 3f
       -0.15501055139382294 0.011386649862021826
0005b0 0b 7e be da 1f 7b c4 3f f3 64 98 42 93 c0 b6 3f
       0.16000745945801528 0.0888759648882063
0005c0 83 1c 72 5e 6b cc 84 3f a3 01 a4 b8 02 2d 69 bf
       0.010155524081950645 -0.003073220553346982
0005d0 1d 34 df 6a ad a5 77 3f 67 ec c1 7e 6c 0d 77 3f
       0.005773236667619333 0.005628036317030106
0005e0 67 99 5f 35 ef 43 69 bf bc 66 73 d4 03 91 b0 3f
       -0.0030841514626331226 0.06471275269305016
0005f0 c2 4e 4d 4c 1b 02 71 bf 23 a8 d2 31 bc 63 a6 3f
       -0.004152399666810859 0.04372966869534902
000600 1c 90 2f ec 5b 36 b0 3f 86 15 f3 92 4d ad 9a 3f
       0.0633294536233397 0.026051723569954464
000610 b3 f9 96 8a 75 3f 9f bf 79 72 4c 15 eb c7 b8 3f
       -0.03051551493057909 0.09680051107393152
000620 33 d7 3c 38 89 83 b9 3f ff e9 69 0a 41 ff 7b bf
       0.099663330297372 -0.006835226121092663
000630 e6 1b a0 1a 9b 30 ba 3f 71 32 90 42 07 c0 aa bf
       0.10230416679415519 -0.052246310115241175
000640 ed c3 03 4d ba db 70 3f 27 85 62 26 9a cb b1 bf
       0.00411579869999999 -0.0695129722321509
000650 a1 1c 9b 0e 1e 20 9f 3f 5d 2f fe a2 5d b7 b9 3f
       0.030395955697511415 0.1004541895801458
000660 e2 f6 3b ef f8 27 b6 3f d3 dd 9d 2f dc 0a a4 3f
       0.08654743042640292 0.03914535599954729
000670 55 73 92 d7 78 66 a2 3f f0 79 0b 08 50 9a 8b 3f
       0.0359380496167662 0.013477921720036229
000680 43 e9 ed 18 e4 55 97 bf 3b ba 4f e8 85 bc ac 3f
       -0.022788585683408923 0.05612581692536308
000690 60 16 cb 63 1c a7 96 3f 30 66 a0 2b 12 64 92 3f
       0.022121852484607962 0.017959865486863957
0006a0 32 30 db 49 38 4e b2 3f 0c b4 e5 f6 7d 45 ab 3f
       0.07150604060296997 0.05326455725558085
0006b0 3f 78 d9 2b 73 06 c0 3f 3a 5f 15 db 74 40 b8 3f
       0.1251968349560588 0.09473352764814261
0006c0 52 9e e1 73 bc 04 81 bf ab c3 63 14 45 75 bd 3f
       -0.008309814726273821 0.11507064578815
0006d0 33 f6 9a 8f 11 a3 a5 bf 1f 17 4f 5e 60 cd a9 3f
       -0.04225973966593379 0.05039502288086183
0006e0 a7 67 e2 44 ed 22 90 3f e0 80 e3 47 03 ab b0 3f
       0.015758235291833646 0.06510944848151068
0006f0 79 18 4e 32 92 f8 98 bf 9c e1 c7 f9 1a b0 90 3f
       -0.02438572341954923 0.01629678868809635
000700 d9 99 89 03 b6 4d a5 3f 39 b6 de 13 6d 04 95 3f
       0.04160851281340045 0.02052469667221699
000710 be c5 bf ff 67 12 a3 bf a8 f9 fc ad d0 ae 93 bf
       -0.0372498035138835 -0.019221554393192314
000720 7c da ac bc 14 60 90 3f 72 6b fb 9a 6d f0 b3 bf
       0.015991519943066454 -0.07788739236586453
000730 d6 9c 11 ea f7 dd a3 3f 81 fb 3f 35 64 21 ac 3f
       0.03880285961423062 0.05494225645087792
000740 c8 a4 86 ce 55 93 87 bf 88 aa 09 e4 68 c3 65 3f
       -0.011511488309070464 0.0026566551826381936
000750 de a4 d3 ba bc 64 96 bf e4 2f 1a 04 2b 9a a5 3f
       -0.02186865701961415 0.04219183373524496
000760 13 96 ed 38 09 ac 7c 3f b3 b8 ae 37 6d 32 7a 3f
       0.007000003838447027 0.006395746832749949
000770 3a 37 02 26 cc c0 99 3f da 16 ef e2 dd 7f a0 bf
       0.025149526424278458 -0.03222554583730437
000780 4e bc 0b 57 ca 34 9f bf 0b 78 3d c9 d7 87 6e 3f
       -0.030474816859108515 0.0037268843242790387
000790 31 54 fe 0b 4c 0e 6c 3f 62 e7 be 70 64 8e a0 bf
       0.0034247861185101804 -0.03233636738100533
0007a0 99 e3 3c de e5 f6 71 3f df 87 75 c8 c2 af a0 bf
       0.004385850832300608 -0.032590949030023124
0007b0 e9 bf 63 2d bd 50 bb 3f 03 95 1b b3 4f 4c a2 bf
       0.10670072897096329 -0.03573845921872911
0007c0 2e 21 46 d1 5c 4d a3 3f 8f 79 b0 df f5 70 bb 3f
       0.03769960455525943 0.10719238959470644
0007d0 84 c9 3a b1 5e bb b1 3f 3a 82 fb 46 26 76 a8 3f
       0.06926528765578693 0.047776409306383674
0007e0 e9 f5 96 01 f7 47 b2 3f 8c 4b bc 47 58 75 90 bf
       0.07141059674082552 -0.01607263505782046
0007f0 cf 7e 27 81 f0 51 bf 3f c2 32 f0 f7 4d 88 b2 3f
       0.12234404709988243 0.07239234259777574

fc2.bias f8 [100]
000000 24 ae 41 38 77 01 f4 3f 06 d9 24 75 8e 49 f6 3f
       1.2503578374406823 1.3929581237731
000010 bf b6 18 2d 60 c2 eb 3f d2 77 2a 30 43 b9 f2 3f
       0.8674775009910362 1.170230091236125
000020 76 2a cd ff eb 02 f2 3f 53 a8 58 3f 66 ba f9 3f
       1.1257133476489378 1.608007667013699
000030 ba 49 dc 97 18 87 f9 3f 60 18 ad 83 9c 37 fa 3f
       1.595482438283041 1.6385769981002554
000040 ae c4 40 99 78 c8 ef bf 8f bf 73 27 ad 3f e8 bf
       -0.9932215684149435 -0.7577729960012095
000050 2c 88 52 e9 d0 de f9 3f bc ce fb f8 45 a2 f8 3f
       1.6168984522014496 1.5396175123141083
000060 29 53 89 d3 0f 25 f2 3f df 77 b6 3c 4b 8e f3 3f
       1.1340482962743386 1.2222397204964108
000070 ac 8b 7b 00 44 c6 f8 3f 15 95 89 70 bd ff e0 3f
       1.5484046954013406 0.5312182615277005
000080 94 45 df f4 6a c7 f9 3f 59 41 22 fe 8e 8d f1 3f
       1.611185986072404 1.0970601966001452
000090 e1 30 e5 8f 96 30 f8 3f d7 dd c8 56 08 56 f8 3f
       1.5118623371991406 1.52100404644249
0000a0 a6 c2 6e 66 f0 ff d8 bf 6b 10 6c 4e c5 0e f7 bf
       -0.3906212807005808 -1.4411061347355154
0000b0 66 4c ec c6 05 88 f9 3f 94 f3 a3 39 5f e9 f8 3f
       1.5957086344176559 1.5569755794124136
0000c0 f0 cd 09 32 87 9e fa 3f 59 f2 57 49 15 7a f9 3f
       1.6637031511899032 1.5923054566366288
0000d0 fa 15 3c 7f 16 cf ec 3f cd bc 0d 3a b9 15 f6 3f
       0.9002792820980965 1.3803035991402794
0000e0 f6 f5 ca 66 0e be f8 3f 47 27 cd 59 e7 61 ec 3f
       1.5464004531235083 0.8869511369641508
0000f0 9d 32 00 d7 b0 ce d4 3f d9 33 9a 5a d4 a8 f0 3f
       0.3251154040924947 1.0412181414751471
000100 8f 43 24 f6 45 a8 f8 3f c8 b4 2e 64 c5 f8 f7 3f
       1.5410823454769547 1.4982351220490262
000110 e4 b0 dc dc 4a ae f2 3f cc ea 31 0f bc f7 d6 3f
       1.1675518634247561 0.35887052043805734
000120 69 69 60 80 c7 0d f5 3f 7f cc 8a b5 8e 2f f7 3f
       1.3158640875540988 1.4491107074252623
000130 a2 69 9f 5e 9a 94 f9 3f 69 30 62 28 fd 71 f7 3f
       1.5987800308417737 1.4653293206675022
000140 b4 2e 43 fc 40 eb f7 bf 33 6c 2b 0a a1 cc f2 bf
       -1.4949350217820383 -1.1749582669497272
000150 2b e0 96 7e 5b 10 f6 3f 1a ef e7 80 a5 cb f9 3f
       1.3789935059449003 1.612218383349449
000160 d9 b3 66 c5 5d e1 c0 3f 3a 69 eb 11 e8 8c ea bf
       0.13187763346414164 -0.8297005033485114
000170 bc 28 5a dc b0 2d f7 bf f9 3c 29 e4 38 02 f9 3f
       -1.448654995680541 1.5630425369780012
000180 75 a3 b5 31 20 53 e7 3f 08 c5 c0 d4 9c 2e f9 3f
       0.7288971873177689 1.5738800345100703
000190 ab 7a a0 9e 2b d0 f3 3f 7b 55 18 27 26 93 f7 bf
       1.238322848926752 -1.47342505713945
0001a0 ad 79 38 08 ca 1c f7 bf 73 a2 ae 01 13 d2 f1 3f
       -1.4445286103360602 1.1137876573285694
0001b0 32 d3 ad 0f c1 09 f8 bf 84 91 15 66 4a 9b f8 3f
       -1.5023813831769073 1.5379127490678863
0001c0 ac 54 55 93 fb e8 f6 3f 5c 7e b7 80 76 94 f9 3f
       1.4318805461128177 1.5987458255766773
0001d0 8f c6 a7 61 47 c5 f6 3f 8d ae 73 10 31 31 f2 3f
       1.4231637777960804 1.137009681954541
0001e0 d5 50 58 17 41 aa f9 3f cf b5 7c 44 0e f5 f9 3f
       1.6040659820474066 1.622328059699942
0001f0 c8 69 54 39 33 08 f9 3f 3d f6 f3 f6 41 38 b5 bf
       1.5645019759600576 -0.08288967398763077
000200 72 56 be 6d 49 d1 ec 3f b2 20 fb 71 d2 33 ed 3f
       0.900547708838259 0.9125759340468191
000210 9e 24 d0 89 f2 e6 fa 3f 05 d8 6c 03 c7 4c d1 3f
       1.681383646328221 0.27031112036218047
000220 73 ea 90 15 84 50 d7 bf 91 e0 b9 ff 23 b4 f4 3f
       -0.36428930383741615 1.2939796437549698
000230 90 a8 7b 92 e8 4e f9 3f 4b ce db 67 96 3d f9 3f
       1.581764766883257 1.5775360161759575
000240 44 fd c2 9d 74 74 f9 bf 0f 3f 78 5a f6 dd f3 3f
       -1.590931526428748 1.241690019032777
000250 0b 7b 78 88 64 27 f8 3f af 48 a2 d3 c8 f1 e9 3f
       1.5096173601993452 0.810764706943038
000260 ac b9 6b 1e fe 5c e2 bf f6 67 2b f4 08 d4 f9 3f
       -0.5738516420513426 1.614266351497006
000270 e4 54 be 42 1e 40 f6 bf 07 eb 33 31 be bc f9 3f
       -1.3906538588683413 1.6085798189148492
000280 74 1f b7 24 93 e9 f9 3f 29 9f 1c fd 9c c7 f5 3f
       1.6195250925247509 1.3612337004833057
000290 e0 a1 39 a9 b1 8f f9 3f e6 49 47 f7 35 78 ed bf
       1.597581540141725 -0.9209241704614299
0002a0 47 e0 82 45 06 cd ea 3f d0 c5 fb d7 90 db f9 3f
       0.8375274045602134 1.6161049305777517
0002b0 2b d9 8d 58 96 9b e0 bf 8c 6a de 92 a2 fc e7 3f
       -0.5189925889560859 0.7495892399341115
0002c0 a6 3d 6b 16 84 6a f3 3f 2c 2a 51 aa ee 21 f9 bf
       1.2135048747767114 -1.5707842495927578
0002d0 46 f9 eb 93 99 ce f9 3f ef af 71 d5 58 7e f9 3f
       1.6129394319719537 1.5933464372310444
0002e0 a3 c8 ae 8c ab 00 fa 3f 99 5b 25 94 66 2a f9 3f
       1.6251636023921854 1.5728517329168652
0002f0 95 ca 62 ad 09 7c f3 3f ad 52 7a 84 11 e2 f9 3f
       1.2177826664816724 1.6176924872317315
000300 c1 23 73 06 25 4f f5 3f 8f b9 c9 b4 9c 7a f8 3f
       1.3318224193519514 1.5299346029310958
000310 ad cf 03 bc b3 d4 f8 3f c0 4d 99 aa cf 6d f0 3f
       1.5519292206126736 1.0268093742387094
