weights/numq/gspc/mse/highlow/numq_pretrain.pt (torch, 526847 bytes, 8 tensors)

fc1.weight f8 [200, 200]
000000 6d c4 80 21 59 bb a6 3f 42 3e 1b e0 14 4e 90 3f
       0.04439810308429846 0.015922857454653057
000010 71 5b 06 6d 9f 02 27 3f c6 ab a3 dc 2f ea b1 3f
       0.00017555423847844976 0.06997965943052895
000020 65 a0 91 2e fe e4 b0 3f 6c 47 67 17 65 18 a6 3f
       0.06599415432867912 0.04315486822782941
000030 ef a0 7f 69 bf 00 a2 3f e6 fe da e2 59 6e ba bf
       0.03516195452522363 -0.1032463244291609
000040 6c 84 8e aa 6d f0 bc bf d8 00 c7 a9 7a 20 88 bf
       -0.11304364599210864 -0.011780699068254227
000050 97 92 cc 7d 79 c6 c0 bf 3f 84 ff 06 22 ac 8c 3f
       -0.13105696337256198 0.0140001924882559
000060 12 66 06 5e c9 87 c4 3f b6 c9 5e ef 5d da ae 3f
       0.1603938778978749 0.060259757490161034
000070 a6 0b 3e 58 ae 8f 7c bf d9 91 84 aa c6 7e b1 bf
       -0.006972962411853445 -0.0683406988433214
000080 90 68 95 7a cb 65 a2 bf ae 28 d1 d3 f5 d3 a0 3f
       -0.03593288298971331 0.0328671284738261
000090 e6 53 ce c8 56 3b 9a 3f 52 2d 12 76 6b ac a0 bf
       0.025616985326980223 -0.032565458453144416
0000a0 4b cc 74 c1 9f 0d 8f 3f 15 ca 94 fa 8d a3 c7 bf
       0.015162704554859149 -0.1846787904301698
0000b0 50 44 09 5b 07 6c b8 3f 03 ba be c8 dc 65 8c 3f
       0.09539838764728015 0.013866162182094582
0000c0 05 0d 05 76 ec 98 bd 3f cd 59 49 6e ae 50 a7 bf
       0.11561468011227667 -0.045537425005636935
0000d0 fe cb a0 7e 4f 22 c0 3f 5a af b3 60 e5 3a c2 bf
       0.12604707415593447 -0.14242236348888576
0000e0 f7 9b d9 b3 04 ef 79 3f e8 80 dd 94 a3 7a c2 bf
       0.0063314613049447665 -0.1443676449662299
0000f0 8d ac df 78 24 71 c0 bf 27 b4 64 c6 51 ce af bf
       -0.128452834148764 -0.062120967357579375
000100 66 5d 0a d4 06 38 9a bf 10 cc 57 ec ff d2 97 bf
       -0.025604349796222968 -0.02326583747885641
000110 52 99 60 a0 a8 98 a0 bf 88 1e 1b df cf 34 82 3f
       -0.03241469342929072 0.008889793392327108
000120 09 f5 92 01 27 3d c6 3f e5 ac f8 f6 e0 3d b6 3f
       0.1737412221608923 0.08688169507574946
000130 25 df c0 4f f2 ab c0 bf c8 75 33 0d 00 94 b0 3f
       -0.1302473916455195 0.06475830385485104
000140 bf 6d 28 ea 4e b7 be 3f 23 7f 36 54 92 96 ba bf
       0.11998456207987028 -0.10386004024485067
000150 b1 40 49 7a 42 3c b2 bf 35 6a 89 fb b2 a9 c0 bf
       -0.07123198972226664 -0.13017880708760435
000160 f4 b7 bd 7a df 3b c0 bf 22 0a 91 d4 10 4b c0 bf
       -0.12682717793671794 -0.12729082469202618
000170 9d 51 d9 5f ca b9 d1 bf 1b 85 f5 b4 40 ff aa bf
       -0.2769647537254743 -0.052728674020509035
000180 46 89 71 d4 5f b9 b2 3f d3 44 06 4c a5 40 b6 3f
       0.07314108788117321 0.08692391496721834
000190 98 52 14 44 0f 34 7b bf 9a 4f b4 4f 34 3b 9d 3f
       -0.006641444809493045 0.02854615913845713
0001a0 fd 59 e5 cc d7 63 b6 3f ce 57 93 74 37 59 bf bf
       0.0874609828218595 -0.12245508762438748
0001b0 8d 79 cd fb f1 3c c0 bf 8b ef 41 09 a8 fc a7 3f
       -0.12685990138102135 0.04684949028975812
0001c0 fc 01 f8 21 73 f5 c6 bf 07 89 25 b3 ee bb 7d 3f
       -0.1793655315268693 0.007259304448185461
0001d0 11 fd cb 73 1b 51 bc bf 93 3e bb 81 42 2e ae bf
       -0.11061259820052195 -0.05894668420444051
0001e0 70 6b 38 f8 07 7e a6 bf e0 59 18 ab 4f 29 97 3f
       -0.043930291223850726 0.02261852723867175
0001f0 84 33 6d b6 3d 77 b7 bf 91 e3 6e cc 43 62 c3 bf
       -0.09166322425626389 -0.1514363048752583
000200 e1 d6 a1 81 b9 e2 bc bf ab 3f 1f b3 94 b1 a4 bf
       -0.11283454336975353 -0.0404173344282975
000210 31 d6 ce 5a 63 1e 99 bf d1 0d fa b0 69 ac ab 3f
       -0.02452998391864564 0.05404978070603373
000220 b0 ff d2 6c d2 60 c3 bf f0 f2 8e 97 24 e9 9b bf
       -0.15139227212602924 -0.027256557226553235
000230 b1 ce 51 6b c8 ae b1 bf 28 bf f0 45 ca 70 c0 3f
       -0.06907322521311234 0.12844208159503379
000240 f8 72 19 9d 2c ae b0 bf 3f d3 42 78 ee e7 b4 3f
       -0.06515768847880199 0.08166399417934843
000250 3f d6 5a 09 8a 31 b1 3f 59 26 04 bb 13 d6 8f bf
       0.06716215828313297 -0.015545038361341289
000260 7d b4 1d 89 22 c5 c1 bf ce b7 b4 bf 38 d6 d5 bf
       -0.13882857985609923 -0.34120005341798965
000270 61 66 b8 e8 03 99 a6 3f de 97 03 f6 1a cf 78 bf
       0.04413616386245845 -0.0060568860210192515
000280 79 31 e2 7e a5 cc ba bf 76 0a f4 a5 5e 81 a9 bf
       -0.1046851572775206 -0.04981513763234073
000290 d1 25 ac 0d 27 67 ba bf 5a 10 6b 7d fb 13 ae 3f
       -0.10313648303794955 0.0587462034796153
0002a0 5c b5 36 68 c3 58 a8 bf 9d e2 4f 43 f4 0c b3 bf
       -0.047552210303687587 -0.0744164146743835
0002b0 a0 bb 09 ef bc 13 9a bf 1e d9 5b ce 1e 34 bc bf
       -0.025465919580195284 -0.11017029321724123
0002c0 90 68 94 a7 80 27 99 3f 77 84 39 a6 cd 72 b7 bf
       0.024564752796415734 -0.09159550960750261
0002d0 f8 9e 5b 2f 00 d6 95 3f f9 0d bf 2d bb 33 53 3f
       0.02132416047143601 0.001172001640029728
0002e0 28 76 d5 de 46 0a c1 bf e4 7e e9 f2 d7 c6 bb bf
       -0.13312612419660863 -0.10850286179038054
0002f0 93 a2 df 33 45 86 61 bf 90 64 8c 33 01 e6 92 3f
       -0.0021392203916444446 0.018455523272767282
000300 a8 12 f0 ea b3 d3 b5 3f d3 c5 bf 08 df 9c 38 3f
       0.08526157842431792 0.00037556119127576704
000310 de 13 14 c0 a3 76 a3 bf c0 b6 f4 45 2d 75 ba bf
       -0.03801452369410872 -0.10335047681720777
000320 89 c7 0c 01 87 45 be 3f cb 20 81 e4 db 74 a1 3f
       0.11824840331681065 0.03409468807564194
000330 5b 61 bb f8 ad 6e af 3f 72 90 b0 b2 03 de a7 bf
       0.06139129315642108 -0.04661571079512407
000340 7f a9 39 b1 3b 6f a3 bf a7 8a 3b c5 95 37 9d bf
       -0.03795801676172327 -0.028532352603074653
000350 7f 26 18 7d 1e cd ab bf d2 d9 73 77 b1 93 89 bf
       -0.05429930951147543 -0.012488733728315635
000360 52 e6 4a c4 c7 03 83 bf 53 2a 61 30 c3 5e 91 3f
       -0.009284554174303104 0.016963052585462112
000370 73 e6 62 2d 1b 98 be 3f b7 9d 7b 69 13 b1 c4 3f
       0.1195084558302371 0.16165392542391796
000380 42 74 09 3d fa 6e ba bf 2a 3f db 49 1d 99 b4 3f
       -0.1032558821693366 0.08046134045730172
000390 58 e2 c8 03 07 99 b3 3f 71 a5 27 72 04 40 86 bf
       0.07655376284027093 -0.010864290937166317
0003a0 ad 20 38 a8 8c 2e 89 bf 3e 12 e2 b4 13 6b a2 3f
       -0.012295817264217435 0.03597318251653235
0003b0 3c 82 d6 0e 69 37 b2 bf 9c 9f c9 bf f8 f8 bf 3f
       -0.07115799534086248 0.12489275629343272
0003c0 01 bc 62 71 6e 84 b8 bf f8 ea b3 d1 ba af b5 bf
       -0.09577074306683643 -0.08471267337510457
0003d0 82 77 29 af f0 de a9 3f 76 b6 83 5f 99 f6 bc 3f
       0.050529023534848796 0.11313780385872882
0003e0 3b ed d1 ee d5 0a 94 bf 07 39 49 a1 d1 8d a5 bf
       -0.019572584821145638 -0.04209761709044995
0003f0 bf 18 c8 f8 68 9c c3 3f e2 78 a8 0e e3 55 92 bf
       0.15321075580158625 -0.017905757684382524
000400 19 7f d7 dd 2f 33 ab 3f 6a be 77 9b f7 dc a2 3f
       0.05312490065602855 0.03684209606933282
000410 43 75 50 b9 fe 0f d1 3f 7d 27 e8 b1 7d c2 b4 3f
       0.2666012582502228 0.08109269708088891
000420 86 bd 68 c9 34 2f b5 3f 12 65 76 df b3 5c a2 3f
       0.08275155942168597 0.03586351492703889
000430 6e 6a e4 06 b2 f7 ab 3f ae c0 f4 a9 00 69 a4 3f
       0.054624141064967144 0.03986360621127126
000440 05 39 1e f0 ca 87 b1 3f 0d 8a c2 3e eb ee b3 bf
       0.06847828256852402 -0.07786436350082955
000450 28 fb 4e 7c 9c 4d ab 3f 17 7c a7 e9 fe 45 a9 bf
       0.053326502012615074 -0.049362150213475946
000460 fe f8 2e 54 ae e1 b2 bf f0 8b c2 19 18 f8 b4 3f
       -0.07375611834774884 0.08191061619667983
000470 b6 e7 17 39 d5 ff 95 bf 04 49 45 b9 94 07 d0 3f
       -0.021483737573340732 0.2504627045901915
000480 96 c2 2f 0a a1 42 b5 bf f6 e1 07 44 3f 20 a4 3f
       -0.08304792879767783 0.03930852609113693
000490 27 00 96 04 af 3d ba bf 61 c0 29 bb d9 d6 be bf
       -0.10250371801339551 -0.12046585864459437
0004a0 1e 50 5d 9d dc 26 c2 bf b4 30 88 33 dc 8d 94 3f
       -0.14181096729100856 0.020072403569472555
0004b0 1f 5c ec 8f e4 d9 b2 3f a8 62 41 53 a9 b7 a8 bf
       0.07363728059532136 -0.04827622548390781
0004c0 17 88 5f b4 cf 50 b3 3f 07 75 c9 3b cd 12 9f 3f
       0.07545183328286985 0.030345160268884033
0004d0 fb 98 17 3e 62 d7 b0 bf 57 e6 68 6f 8e 4e b7 3f
       -0.06578649536058727 0.09104242534604033
0004e0 7c c1 da 78 9f 82 7e bf 6d a0 5a 1f da af c6 bf
       -0.007448790490954923 -0.17724157839734592
0004f0 e1 88 d6 6b 01 d2 bb 3f 1a fa 62 cb 5d c6 83 bf
       0.1086731804157668 -0.00965569760262235
000500 ac a4 8b 9e d0 f8 c3 bf 24 0e 6a 66 cf a8 a0 bf
       -0.15603072873571955 -0.03253791928457542
000510 4a 9b 87 68 2c db ca 3f 58 98 b3 9b 43 c4 79 bf
       0.20981364349355608 -0.006290687651221281
000520 53 78 8f bd 5f 5a 9e 3f 66 e8 b5 a2 71 ef 98 3f
       0.029641624398088883 0.024350905948701394
000530 23 8e 67 fe 62 ba 93 bf 00 05 bf 48 65 0d c4 3f
       -0.01926569631349485 0.15665880252894482
000540 ce 75 90 5f 24 60 bd 3f 92 91 b7 24 d0 b5 ae bf
       0.11474826176750882 -0.059980873567641826
000550 bc 47 ac 06 c4 6a b1 3f 57 e6 b8 ce f5 79 b2 3f
       0.06803536570467278 0.07217346474581042
000560 1b 3d 43 71 ed 9b b4 3f ec 7e 33 89 3f b5 a9 3f
       0.08050426497651524 0.05021093892878334
000570 80 80 fe fc 5e f4 b2 3f fb f8 ab a0 4b 6a a4 bf
       0.07404130627264927 -0.039873469699147145
000580 73 d7 5f 0a c2 b9 a0 bf a5 b0 1f 28 1c d8 68 3f
       -0.032667220846561394 0.0030327367721750425
000590 57 bf a9 85 f6 5c 95 3f ee de ce 98 1b a7 c9 3f
       0.020862438114306183 0.20041222535450437
0005a0 97 f2 4f 9a 58 b2 c8 3f ae 23 62 f5 c2 d5 b3 3f
       0.19294269118099258 0.07748049250416386
0005b0 d7 1c 48 6d ac 21 b8 3f d8 02 89 80 93 f1 9f bf
       0.0942638174820901 -0.031194977493444437
0005c0 6b 67 45 6c 73 38 ad 3f 85 3f 60 f4 76 90 94 bf
       0.05707131096524062 -0.020082338967824426
0005d0 2d e1 36 ac a7 cf b6 3f 2d d6 ab 53 02 61 c4 3f
       0.0891060634083984 0.15921048245915995
0005e0 25 1c 73 c6 b7 b0 bf 3f a1 0d cb ee d3 db 9f bf
       0.12379025073015322 -0.031112014245776035
0005f0 3c e3 7d 52 22 c0 b2 3f ae 26 01 cc 03 1c b2 bf
       0.07324423326452928 -0.07073997240618254
000600 0f a3 d8 cc 70 17 b4 3f 18 75 87 f7 bd 86 62 3f
       0.0784826755631338 0.002261515645143885
000610 01 4d 63 7f 0f 69 a5 3f 7c 22 27 55 0f 75 be 3f
       0.04181717329051971 0.11897369221618165
000620 d2 44 86 ea d5 4c a5 bf 63 b2 e0 a5 95 3f b2 bf
       -0.04160183418128728 -0.0712827234244258
000630 bb 7d b6 4e 38 60 c0 3f 1f 76 41 6b 2d cb 9f 3f
       0.1279363998737447 0.031048497840279517
000640 b5 23 24 35 0b 64 b8 bf 72 77 89 79 f9 29 c0 bf
       -0.09527654693023531 -0.12628096041128917
000650 e0 21 56 66 c0 96 b8 bf 2a b2 bf 35 56 33 b0 bf
       -0.09605028627823442 -0.06328333675600875
000660 91 e7 66 0a 54 bb b7 bf 29 9e c0 56 c8 91 c0 bf
       -0.09270215276674622 -0.12944893108327563
000670 d0 57 06 05 69 ae bb 3f ba f2 0c 1d 7a ac be 3f
       0.10813003895449858 0.11981929024927754
000680 18 d1 f7 e2 6e b1 a1 bf b7 ab f1 e7 06 6e a2 3f
       -0.03455683251005065 0.03599568921421031
000690 67 e3 72 d8 05 a0 a3 3f df 15 be 2c 43 dc c3 bf
       0.0383302523345666 -0.15515937504475993
0006a0 d0 af 78 30 e0 fc b5 bf 02 51 95 25 bb 96 b5 3f
       -0.08588982756981456 0.08433122317848432
0006b0 4c 69 21 d2 cd f8 b4 3f 41 b0 f2 2c 70 5b 99 3f
       0.08192144756450154 0.02476287149754364
0006c0 b8 f5 61 5f 00 6e c3 3f 3f 44 6a 65 2f 01 5e 3f
       0.1517944780097602 0.001831337247186107
0006d0 37 04 96 da 0e fd c8 3f cd 1a 66 c5 b8 f1 b6 3f
       0.1952227179827177 0.08962588137920165
0006e0 d8 a7 8c aa a4 57 91 bf 2a dc 3e 7a 69 35 b4 bf
       -0.01693589487982891 -0.0789400027705233
0006f0 28 20 98 00 fd 3f a0 bf fc cd 08 26 84 d0 95 3f
       -0.031738191912211555 0.021303238698420643
000700 7c 2f df 43 05 2e cc 3f 0f 8a 83 7b 67 42 b8 bf
       0.22015443624547604 -0.09476324811434032
000710 89 12 d3 3a a6 d1 8d 3f 86 03 ac a6 41 60 81 3f
       0.014560030622655222 0.008484375857280357
000720 01 aa cc 3b 2d 76 ba 3f 98 a8 3f 4e 9c 46 b8 bf
       0.10336573324153876 -0.0948274317776473
000730 eb f8 17 02 b9 be 9a bf 49 53 bc 91 49 74 a1 3f
       -0.026118174317155612 0.03409032730102141
000740 23 e9 aa 2f f3 28 a4 3f c9 b1 0d 16 ca fe a8 3f
       0.03937492329483152 0.04881888884742442
000750 f4 de e1 cd 54 20 b0 bf af 2f 60 03 d7 76 7b 3f
       -0.06299333597587148 0.006705131430873409
000760 0f 7d 22 f1 6d 3b 60 bf ea 10 5f 60 ce ad 94 bf
       -0.001981463175141258 -0.020194267875710027
000770 c6 5c 14 3b 97 93 aa bf b5 a2 fa eb 21 2d 80 3f
       -0.051907278024538026 0.007898583425530384
000780 7a 9d 0c 1c 71 54 c1 3f a7 26 2d 99 2d b5 96 bf
       0.1353894602736821 -0.022175514673370113
000790 74 40 e4 4c 6c 9f b0 3f 25 6a 9a fb 93 0f c0 bf
       0.06493260266529594 -0.12547540459930065
0007a0 a7 a5 17 2d 4e 6a ab 3f 10 35 74 1f 08 16 8a 3f
       0.05354542065090167 0.012737334689996632
0007b0 e5 2d 33 70 00 6b 97 3f 27 ab 5e 67 1e 48 93 3f
       0.022869116638316717 0.01882979875487503
0007c0 0d 48 c2 b0 0a cb b3 3f 0b c9 21 df bd f9 93 3f
       0.07731692138102648 0.01950737642659654
0007d0 59 33 58 d0 aa 28 7a 3f 18 69 c2 2d 50 b1 a6 3f
       0.006386439553818978 0.04432154234491942
0007e0 01 72 eb 24 e6 e5 c1 bf 17 98 85 10 22 e6 b4 bf
       -0.13982846071930058 -0.08163655188909079
0007f0 fc 33 35 2e 23 b5 c1 bf 82 9f ee 35 66 c9 94 3f
       -0.1383403754829543 0.020299527208095032

fc1.bias f8 [200]
000000 59 e1 bc 9d 42 74 c6 bf 65 45 21 2f fe 94 b7 3f
       -0.17542298032800366 0.09211720133432307
000010 15 0d 1c 8a a2 e8 a0 bf f7 10 80 47 91 c2 c8 bf
       -0.03302486358554738 -0.19343772879813745
000020 55 c3 9e c1 9e de d0 bf 0f 12 3a 5f 94 49 e0 3f
       -0.26358765514583143 0.508981882085722
000030 99 94 47 78 88 ae 83 3f a7 7f 4e 34 9b ed e0 3f
       0.009610239191667968 0.529004671250722
000040 4a df 70 eb b8 17 b7 bf 1c 4f 13 e7 b2 5c b4 bf
       -0.09020572422093412 -0.07953947202196016
000050 50 f8 e5 23 9d 37 bc 3f bd 6f 91 2a 87 22 bf bf
       0.11022359968589623 -0.12162060536633042
000060 39 34 99 2d ba 98 d3 bf 84 14 65 a1 42 39 de 3f
       -0.30619673207258163 0.4722448898431326
000070 a3 8e 45 78 b1 e2 d1 bf f4 d1 39 45 84 2a 83 3f
       -0.27946125741275746 0.009358437883954608
000080 6d d2 af ac c1 ad bf 3f 87 1a 26 46 f3 45 d5 bf
       0.12374506441103401 -0.3323944268271721
000090 8b 95 34 df 24 cd bc 3f 25 d9 2b 0f 17 ea ce bf
       0.11250524949408296 -0.24151886215958843
0000a0 bf 95 5c a3 78 11 e3 3f 32 d9 27 30 2a f4 de bf
       0.5958827200562878 -0.48365263655377355
0000b0 5c 45 df cd c1 f8 c1 bf 38 43 08 fd 1b c0 d5 bf
       -0.14040396263457466 -0.3398504229563062
0000c0 46 79 6d 44 51 e0 ba bf d8 99 93 42 57 0a b3 3f
       -0.10498531265827635 0.07437653899578522
0000d0 45 77 1f 0b c4 15 d6 bf 6f fc 62 83 06 33 d1 bf
       -0.3450784786817745 -0.2687393458435911
0000e0 f2 9e ff 7f db 3d c8 bf bf e0 ee 2c 41 49 c6 bf
       -0.18938773870399178 -0.17411055273055884
0000f0 98 9c da ba ff f3 c6 bf 63 22 47 d7 54 ad c4 bf
       -0.17932125686386224 -0.16153965484251662
000100 ca 63 24 ac e9 25 c6 bf 09 33 d3 49 19 12 c4 3f
       -0.1730320063150244 0.15680233101593213
000110 01 64 e6 68 66 c5 c5 bf 59 cf 30 e0 6e 1a c6 bf
       -0.1700866710860112 -0.17268167445001373
000120 f1 21 42 41 7b 39 ab bf a7 56 6f 5f f7 09 c6 bf
       -0.05317292377100447 -0.17217914733798986
000130 f4 fd 2a 95 d8 50 83 3f 15 20 97 fa a3 b2 c8 bf
       0.009431545307392299 -0.19295167671066396
000140 f9 d6 a4 55 65 ca d4 bf 53 f2 18 cc 71 32 b0 3f
       -0.32485326160109157 0.0632697222981247
000150 1a 10 80 bd 2a 71 c0 bf 78 c7 95 47 2a 95 b9 bf
       -0.12845358136121449 -0.09993232963259213
000160 c1 5c 10 75 e5 98 c5 bf a6 e6 44 80 2c f5 d3 bf
       -0.16872852531444063 -0.3118392231586803
000170 7d cc 0a 78 36 0e d3 bf 02 a1 cf 17 12 68 cb 3f
       -0.2977424785887662 0.21411348498009636
000180 a8 a5 fd 5e 24 3c c3 bf 73 7a 8f c0 b6 6a d7 bf
       -0.1502728904554662 -0.3658882980798019
000190 0e 3f fa 14 88 c5 7c bf e1 bb e5 5b 98 3f c1 bf
       -0.007024318285075782 -0.1347532700269474
0001a0 10 55 fb c9 73 c7 c0 bf d5 2e 63 14 11 bf e1 3f
       -0.13108680117026283 0.5545735738937433
0001b0 4c 20 2f 04 bd 61 d5 bf 30 9d ee d6 7d c4 dc 3f
       -0.33409047516443446 0.4494928931184914
0001c0 af 64 d8 0d b3 5f dd 3f 7a e0 40 51 d1 a0 d4 bf
       0.45896602966383687 -0.3223155301561814
0001d0 ee e3 51 ae d6 61 d5 bf 15 ca a0 35 5e 9f c8 bf
       -0.3340965940802211 -0.19236352556761518
0001e0 4e 2a 21 46 d9 25 da 3f 81 ea 38 a2 87 c4 d0 bf
       0.40856010292614975 -0.2619952282144951
0001f0 76 54 e2 f6 73 4f c0 bf db 96 29 77 7f 21 bd bf
       -0.12742471270454175 -0.1137923875736208
000200 7b 72 f6 77 cc 48 d2 bf 43 a4 ba 52 02 65 af bf
       -0.28569328036409275 -0.06131751308323221
000210 54 fc d4 a1 1b 6f cf bf 71 b5 ab 00 9b 3f c3 bf
       -0.24557824518157878 -0.15037858517409178
000220 fa 2b 9d 0f cc ae b6 3f 6d 75 53 a0 99 2c d7 bf
       0.08860469227981574 -0.36209717423283544
000230 4e 94 33 cb 32 2a c5 bf ae b2 1e f2 cb a8 d1 bf
       -0.1653502933687911 -0.27592753071329923
000240 ef 58 3b 2c 41 8f c8 bf ea f3 2f 06 34 d8 d4 bf
       -0.19187178287274473 -0.32569599727849996
000250 03 c7 2d 00 7a f2 c9 bf 4d 4c 90 ef 18 8c d0 3f
       -0.20271229752284378 0.258550867031947
000260 ca 95 26 93 0f df c9 bf 3e a1 45 13 8a 51 d3 3f
       -0.2021197765836134 0.30185176736860686
000270 43 d9 e7 c8 92 bc d4 3f d2 bf ee 6d 96 cc b6 3f
       0.32400960559552433 0.08905925926114769
000280 cf b8 93 3e 26 cf ad bf 28 7b 56 52 72 19 e4 3f
       -0.05822104944114558 0.6281062706146701
000290 28 7d 5c 6e 94 0c cc bf 52 aa 24 3a 44 7a c8 bf
       -0.21913390530333143 -0.19123127783798793
0002a0 e3 57 20 dd 18 4a d5 3f f8 85 a8 49 5c dd c5 bf
       0.3326475295483517 -0.17081788632007977
0002b0 a5 08 f7 73 77 af ba bf 5d ce 26 4d f6 93 d0 bf
       -0.1042399080388657 -0.259030890792223
0002c0 4a b6 5b 2d 71 63 b0 3f b7 53 0c 13 44 71 b5 bf
       0.06401736600283772 -0.08375955071490081
0002d0 d7 a7 b3 7c 1f ed bd 3f 93 c7 9e ce 77 9a a9 bf
       0.11689945978619619 -0.05000662228793753
0002e0 27 2d 66 b1 46 82 b6 bf 79 4b d1 ad 08 c8 c8 bf
       -0.08792535620721208 -0.19360455023942416
0002f0 0d 14 0f 6c 09 ca c7 bf 71 2a c1 fa 25 96 b8 bf
       -0.1858531739837023 -0.09604108211457586
000300 14 50 64 b3 f3 2c bf bf 87 11 58 d3 0a 80 b4 bf
       -0.1217796624153496 -0.08007877025381137
000310 4b 40 0a eb c9 df d6 3f d0 80 d1 37 2e 5d a8 3f
       0.3574089808762479 0.0475859110963498
000320 36 3f e5 55 96 b3 d5 bf c8 51 e6 c3 25 14 c1 bf
       -0.3390861357520295 -0.13342735352911306
000330 80 f1 77 6e 54 2c ce bf c6 ab f6 eb 35 a1 c8 bf
       -0.23572783845873957 -0.19241975804956563
000340 41 3f e4 4d 65 3d ce bf d8 05 3b 4a b4 56 c2 bf
       -0.23624864867496778 -0.1432710039571663
000350 af 08 4b 9e 79 f9 b8 bf 28 2a c0 4f bc 7e c2 3f
       -0.09755668749406497 0.14449266332697275
000360 e2 82 b3 c2 c4 bf c5 bf a6 cc d5 16 c5 5f d0 bf
       -0.16991481310744577 -0.25584532957072736
000370 41 73 e4 81 d5 7d cc bf 9a de a1 58 c9 dd d0 bf
       -0.2225901493301539 -0.2635367742109139
000380 33 99 46 f5 25 ee ce bf 0e 63 fc 9b 85 d1 c6 bf
       -0.24164270855289657 -0.17826910130022394
000390 a3 5c c7 10 75 f4 c9 bf bf 3b f7 0a bc 31 e1 3f
       -0.20277274436259515 0.5373211111235533
0003a0 89 57 dc 58 e2 09 b4 bf 2d d1 5d 78 5c d6 e6 3f
       -0.0782758204407782 0.7136671400935818
0003b0 0a 14 71 04 75 e3 b1 3f 29 95 fd 0f ab 94 b7 3f
       0.06987696989479289 0.09211224689859833
0003c0 80 5e 6f 01 42 6e e0 3f f0 d1 b9 2c f4 1e b5 3f
       0.5134592083004037 0.08250356761875088
0003d0 f6 10 19 27 28 32 d2 3f ad fd 38 88 09 7d e3 3f
       0.28431133096843497 0.6090133343313276
0003e0 e1 17 50 27 40 aa bc bf 28 09 46 da 55 4d c4 bf
       -0.11197281799113014 -0.15861008794679177
0003f0 71 13 64 ac 28 63 ca bf 2b 72 4a 15 1a 65 cd bf
       -0.20615108888173553 -0.22964788474645678
000400 e3 be 49 f6 b4 3b cc bf e1 e7 90 44 ee 4d d1 3f
       -0.22057210946831338 0.2703815145101754
000410 0d c1 e3 9f 21 16 c9 bf e7 bb 34 29 f9 2e b8 bf
       -0.19598789507973216 -0.09446675544744175
000420 8a 74 dd 39 b2 da ca bf 03 c4 8e bf 32 44 c4 bf
       -0.20979907823030813 -0.15833124497797266
000430 38 c9 07 3d 75 25 de 3f de 99 98 30 82 23 b0 bf
       0.4710362525940073 -0.06304181753566904
000440 3b 07 58 ae 37 3d ca bf cf e2 2c 66 76 ee d3 bf
       -0.20499320996173673 -0.3114295957380308
000450 0f f1 b8 29 96 45 d3 bf 97 ca a0 10 d8 8a e4 3f
       -0.30112222742515454 0.6419487309234054
000460 ca 44 e1 bb 6e 52 b6 bf fa a3 fd 1d d6 ab 0e bf
       -0.08719532095826135 -5.8500739895724034e-05
000470 94 c4 eb ad bc 2f e2 3f 88 73 9f e2 ce 26 ac 3f
       0.5683272740262901 0.05498358265297215
000480 6e 78 41 5a 2c 48 95 3f 76 89 26 31 f9 ad c6 bf
       0.020783131607793263 -0.17718424701622454
000490 79 ba 49 15 ae fb e5 3f 5b 34 93 77 d8 a4 d7 3f
       0.6869726577550203 0.3694363754009992
0004a0 1a d9 f8 6a 94 a2 d4 bf 32 d7 a4 8d 4f 29 ca bf
       -0.3224230808877039 -0.20438570419508434
0004b0 cd 23 f0 34 89 c9 ba 3f 42 8b d2 d4 87 cb e5 3f
       0.10463769476349612 0.6810950428665381
0004c0 42 2e a5 26 e5 f2 a0 3f a3 b4 5b 63 6b 33 d8 bf
       0.033103142707286995 -0.3781383962912718
0004d0 fa a6 d5 76 93 c0 b9 3f aa 35 7e 2b 72 4b cd bf
       0.10059472705111352 -0.22886492847139311
0004e0 c3 e7 43 68 a3 63 a5 bf d5 11 ee f5 3a fe ce 3f
       -0.04177580497521618 0.24213349350260552
0004f0 3e a0 2f a4 94 eb d3 bf b9 af 80 e4 b7 04 8d bf
       -0.31125370057862145 -0.014169155751083783
000500 e4 07 d6 dd 89 ff e5 3f 13 cf b9 ea 42 74 d3 bf
       0.687443669580031 -0.30397103235667194
000510 90 75 95 0e 0a a4 c1 bf d0 cd 79 d0 20 f9 aa bf
       -0.13781858169651828 -0.05268194718237462
000520 68 5a 52 0b 5a 5f ae bf 28 a2 f1 0e 67 0a b0 bf
       -0.05932122600750206 -0.0626587306484302
000530 b6 a4 43 84 f4 7e b7 bf 5b 0c 63 fb 5b 4d c8 bf
       -0.09178093175036647 -0.18986081862212498
000540 45 5b 86 41 7c bc b5 bf 1b 7c c5 cb 8e 63 bd bf
       -0.08490730857589053 -0.11480038142097763
000550 02 00 5f 7b 0c d7 e6 3f 32 b0 71 48 6b e7 de 3f
       0.713751069029968 0.48287469935053473
000560 ec 6d 65 0d b8 09 c7 bf 24 dd 5e db 45 3e d4 3f
       -0.17998409895049805 0.31630083487421445
000570 1f c9 91 13 10 41 d3 bf 56 d6 b7 ba 17 ff ce 3f
       -0.3008461180790096 0.24215981118293212
000580 86 ea a1 53 39 2e d3 bf 5c 37 43 74 37 c5 c1 bf
       -0.29969628493532985 -0.13883107354052526
000590 7d 2e 41 0f 16 28 e6 3f 96 fc b7 7f 9a cc c4 bf
       0.6923933313314162 -0.1624940036417441
0005a0 75 d1 7d af 01 7c c5 3f 45 e9 7e 45 f4 15 ce bf
       0.1678468806163768 -0.23504498856875436
0005b0 9f 70 bf cb ac b3 d0 bf 57 70 38 2e 64 35 d3 bf
       -0.2609664907192925 -0.30013374818532185
0005c0 11 67 0b 07 95 2b d2 bf 3b 68 75 79 26 85 b7 bf
       -0.2839100426477766 -0.09187546220110303
0005d0 fd e9 b8 ea ab e0 d3 bf d7 6c 63 e3 a7 15 d8 bf
       -0.3105878631792221 -0.376321765955891
0005e0 47 18 d3 be 19 2f c3 bf 15 65 15 d2 ca 87 c6 3f
       -0.14987489526373762 0.1760190511511516
0005f0 53 9a 1d 9d c1 d7 c7 bf 7b c2 5b 8b 2f 05 cd 3f
       -0.18627185985242764 0.22672075562106273
000600 5b 7b 18 e6 e1 08 cc bf 3d 78 20 a2 fd 07 d0 3f
       -0.21902106986177725 0.2504877169866438
000610 c8 b7 e3 22 1b 2c c9 bf 15 a0 52 43 5e 47 cd bf
       -0.19665850833501808 -0.2287404850696936
000620 18 ee 02 ad 06 78 d8 3f e6 b1 d9 80 cb 66 d4 bf
       0.3823258103909395 -0.31877410491031666
000630 5c 84 24 cd 94 5a b6 bf 44 85 99 c4 66 f9 d3 bf
       -0.08731966026654575 -0.31209725569904756

fc2.weight f8 [100, 200]
000000 5e ae cb 91 18 87 66 3f 3d 8e 5a 09 39 3c b9 3f
       0.002749965655643823 0.09857517698633785
000010 45 b0 5f 6f aa 83 ba 3f a3 7e 8c f6 48 3a b6 3f
       0.103571560088029 0.08682685870416633
000020 85 08 6b c1 15 f4 a5 3f 63 ce 20 de c4 2c b3 3f
       0.042877845631225354 0.07490187094736593
000030 fa e7 0e f6 43 a9 b3 3f 12 77 82 3f a0 d0 b4 3f
       0.07680153615265786 0.08130837965515195
000040 4d 49 56 a8 a3 83 b3 bf 69 9c a3 d8 0b 71 ac bf
       -0.07622740611831098 -0.05554997462768869
000050 9e 3d 57 48 63 ae b3 3f c5 fb 5b eb 72 a7 92 3f
       0.07687969699985905 0.01821689187545041
000060 56 08 ef 2a 0b f9 75 3f 96 d3 36 1c cd 63 b7 3f
       0.005364459632746307 0.0913665956384889
000070 bf 6f 9b fd 76 af b9 3f a3 bd 30 13 bb a7 a2 3f
       0.10033363048154252 0.0364359341550611
000080 87 d8 c7 87 5a c9 af 3f dc 21 1c 68 80 fc 99 3f
       0.06208308131674394 0.025377279619563584
000090 72 72 d0 74 6f 2b b9 3f 43 80 bb 62 68 03 8c 3f
       0.09831902124319372 0.0136783747797723
0000a0 1c 83 3e 90 d1 6f 9d 3f 65 c0 b6 12 2d e6 a7 3f
       0.028746866635290677 0.04667797902527652
0000b0 12 77 35 b9 e5 f4 b1 3f 27 d4 41 41 3d 34 a2 3f
       0.07014308711719888 0.035554804054222004
0000c0 80 a2 95 ba b1 d3 b7 3f 05 5a d1 45 89 c4 ab 3f
       0.09307394795690449 0.05423382737415142
0000d0 aa 84 6e 98 66 cb 64 bf 80 70 f8 c0 87 3c ae 3f
       -0.00253839529200713 0.05905555945011631
0000e0 39 38 d2 a0 2a 48 a5 bf ad ce e6 23 3a bc b2 3f
       -0.04156621182583859 0.07318461777213754
0000f0 9a 1d 3a 96 72 f9 a1 bf ce 69 5d bf 9b 1c b9 3f
       -0.03510625919175965 0.09809277936930202
000100 9a 94 72 34 eb ed b7 3f 2b 11 01 02 31 42 9e bf
       0.09347410231073852 -0.029549375293087692
000110 67 39 4b 14 61 a0 8c bf 64 4b 95 18 29 6e aa bf
       -0.013977774078196515 -0.051621708155514395
000120 64 2b 48 2f bf ac b9 3f 0c f4 c1 95 f1 6d b7 3f
       0.10029215721458012 0.09152135759536878
000130 2c e9 46 a8 96 7e a9 3f 18 b3 19 ce e6 3d a5 3f
       0.04979391864931623 0.041487896593798534
000140 c4 a6 2c 99 c0 f9 a2 3f 09 c0 e2 b5 54 88 a9 3f
       0.037061709116029046 0.04986824722561784
000150 07 b7 ff db 43 c3 b1 3f 69 33 4e 99 e0 5f b9 3f
       0.0693857586008698 0.0991192220955789
000160 66 9d 02 6c f9 78 b2 3f dc e0 5f e1 4c f3 af 3f
       0.07215842139213677 0.062403109084643055
000170 3b 3d f1 02 50 17 b3 3f 30 6f fc a0 dd 3c 71 3f
       0.07457447120508658 0.004208436715796002
000180 12 1c 8f 87 c7 8a 81 3f 69 43 b9 56 51 9e 68 3f
       0.008565481972153708 0.0030051792762510366
000190 0c 02 2e 37 d4 a5 af 3f 87 a9 2b 4b ff 3d 86 bf
       0.061812049613767156 -0.010860437852404882
0001a0 65 01 87 79 f6 d6 a8 3f d8 64 d7 de 19 10 b0 3f
       0.048515035948642184 0.0627456826254219
0001b0 6c b9 2f 00 f9 31 a2 bf f4 86 db b2 9b 95 9c bf
       -0.03553751113200829 -0.02791445998344151
0001c0 44 d3 9d 77 1b f2 bb 3f c2 90 e4 15 41 bc c0 3f
       0.10916301412892176 0.13074506348596598
0001d0 f9 0d 4d 2a f0 9b 88 3f c4 a2 a8 3a f0 b9 a9 bf
       0.01201617840855017 -0.05024672237442965
0001e0 33 76 29 d4 04 65 a6 bf 86 2b 30 66 a0 b2 ae 3f
       -0.04373946275584863 0.059956562494412544
0001f0 99 b0 81 b6 b6 9c 7f bf b6 6f 63 e6 8b 21 b2 3f
       -0.00771781322701428 0.07082437872617117
000200 1a 9e 51 af d4 0b 79 3f af 45 01 bd 74 56 b3 3f
       0.00611479835524833 0.07553796400431766
000210 23 7a 10 63 b6 77 b0 3f f2 a2 ed ae fb ab 6e bf
       0.06432666700900617 -0.003744117325755852
000220 53 85 e0 69 e2 c2 8e 3f 99 4e 3f ab 64 99 a7 3f
       0.015020150047407787 0.04609217253132875
000230 77 55 17 c0 15 20 b3 3f f5 69 3a 31 7b 9f 95 bf
       0.07470832767224588 -0.021116185073518385
000240 5d 4a e2 f4 34 2c b1 3f 88 16 1a 42 65 aa ab bf
       0.06708079317676537 -0.05403438980014835
000250 e8 69 df f2 26 54 90 bf 27 41 da c3 af f4 ab 3f
       -0.0159460149514902 0.05460118547228126
000260 d3 05 36 1c 73 fd 68 bf 58 a3 5b 78 c1 94 b1 3f
       -0.0030505417104797843 0.06867608250071322
000270 5b 1f 4f 77 22 4e ab 3f 46 e2 04 02 79 23 ab bf
       0.05333049494180272 -0.05300501012465424
000280 d5 ba 3d 05 e7 09 b0 3f b9 73 11 e6 bb 98 a8 3f
       0.06265109899480177 0.04804026778649679
000290 12 35 69 e0 44 d7 a0 bf ae 27 95 d7 65 73 b3 3f
       -0.032892372507015946 0.07597958100555388
0002a0 68 05 28 d0 71 f3 b3 3f e1 08 17 fe 4b 83 aa bf
       0.07793341953222 -0.05178296543773953
0002b0 38 ba 5b b0 80 db b6 3f ae 56 5d 42 10 45 b3 3f
       0.08928684526083763 0.07527257557134234
0002c0 22 c6 bb 89 b7 bf b3 3f a7 f5 46 7b f2 2d a9 3f
       0.077144118429509 0.04917867426727734
0002d0 2a c7 07 35 e6 5c 90 bf 75 8d 32 ab be db ac 3f
       -0.015979382502286622 0.05636401977360609
0002e0 15 e1 d0 d9 af ab b8 3f 1e 7c 58 0c 4b 67 af 3f
       0.09636973445674742 0.06133493924811993
0002f0 70 aa a5 1b 62 5e a5 bf c9 a4 ad 6a 87 e0 ad 3f
       -0.041735711932081254 0.05835364510751046
000300 ad 76 2c 15 f3 3a b3 3f 79 9f d6 ea 5c 1b b3 3f
       0.07511824862418832 0.07463627560957588
000310 bb 9f 26 66 e8 1a b0 3f 86 c0 99 6a a0 51 a6 3f
       0.06291058057706682 0.04359151173855573
000320 ca 0e fa ad 9a 24 a9 3f 6e d1 3c 8f 88 5d b6 3f
       0.04910739301433649 0.08736470696459772
000330 8a ac 45 92 e7 63 80 3f b0 df ef b8 e6 d9 95 3f
       0.008003052855846588 0.0213390398384658
000340 68 d0 0b 42 e0 05 a3 3f e6 44 3a 20 bb 6a ba 3f
       0.03715420538165476 0.10319108521277406
000350 35 6e eb 82 0c 49 a5 3f 03 03 5f 55 b2 3a b7 3f
       0.041572943669703134 0.09073938926941243
000360 df bb 74 88 f9 77 b1 3f a2 f1 fe 89 6d 76 a9 bf
       0.06823691922612295 -0.0497316580726619
000370 95 32 05 e1 68 f0 b8 3f 8e 98 34 30 0b d6 9c 3f
       0.09741836064967864 0.028160261933543533
000380 77 eb 2d 0a 48 53 7b 3f 03 b6 1d 90 97 c1 a3 3f
       0.006671220212292598 0.038586365072529126
000390 a7 83 cd 9a 6c 3f 71 bf c5 25 47 7c e4 b9 85 bf
       -0.004210876690962906 -0.010608468096409926
0003a0 8c 72 5c 86 5c 3b a5 3f cc db 85 2c b7 10 ae 3f
       0.041468516732696775 0.058721279320642944
0003b0 5b 37 b3 55 cf 2f 86 3f 39 94 ea ea 31 9a 96 3f
       0.010833377650125866 0.02207258220973449
0003c0 5c 1e 1d 22 1b b1 82 3f de ca 85 fe 7b 26 9c 3f
       0.009126865366524566 0.027490556154087346
0003d0 d8 3c 09 51 3b b1 90 bf 53 78 37 4d ac e3 aa 3f
       -0.016301085301447 0.05251825754724906
0003e0 e6 d4 b8 07 f7 be 8b bf 92 b0 5e 19 7b 5e 94 3f
       -0.013547830508381552 0.019891665862517068
0003f0 13 44 b3 34 87 92 92 bf d0 88 b7 63 87 6d b0 3f
       -0.018137085525101137 0.06417127785201449
000400 90 6a b2 55 51 73 77 3f 2d 34 c9 e7 c6 41 98 bf
       0.005725209916955479 -0.023688419243900128
000410 57 d2 86 69 27 d9 ae 3f fe 10 14 9d e5 27 bd 3f
       0.060250503188772946 0.11389002880975238
000420 ad 83 84 60 fa 98 90 3f 22 8a 0a 0f 70 a5 b3 3f
       0.016208564892739186 0.07674312941757269
000430 f6 c0 e7 6c da 9a aa 3f 20 40 a8 79 8d 78 4e bf
       0.05196268634233718 -0.0009298983380308136
000440 d9 46 73 4c ea 08 62 bf 79 af 31 71 e8 b5 81 3f
       -0.002201516737479686 0.008647743181618971
000450 0d 8e 7e 77 0b bd 94 bf 2f e0 46 e0 a0 ca a7 3f
       -0.020252398651463156 0.046467807176157165
000460 c6 5a de 95 8c c1 ac 3f 26 a4 8a 12 25 1b a9 bf
       0.05616416291666364 -0.04903522349679461
000470 3b 4b 9a 91 10 9f b4 3f f7 88 a5 0a 62 2b 9a 3f
       0.08055213503602669 0.025556117915933787
000480 6c 13 9c 9c c6 16 88 3f 69 7a b1 9f d2 f7 ab 3f
       0.011762191442821389 0.05462511252766406
000490 f0 b1 f3 c2 a8 bf 9e bf e7 56 61 95 63 ff 61 bf
       -0.030027996920511002 -0.002196974276595809
0004a0 76 b1 de f4 12 ad 7b 3f 25 7e f9 5e 4d 75 93 bf
       0.0067568531502896125 -0.01900215999773826
0004b0 b5 13 2a 8b 34 22 68 3f cf 92 ab 09 b4 05 b1 3f
       0.0029459978334806743 0.06649327503289303
0004c0 2c ce a3 38 fc f8 a7 bf d2 14 9c 20 77 ff a3 3f
       -0.046821481622739775 0.039058420878100755
0004d0 2a a9 f7 1b a6 9e b0 3f 69 59 a5 65 a0 ec 81 3f
       0.06492078955458128 0.008752110578524168
0004e0 85 6d 5e 26 96 6d bc 3f 2c 51 91 47 e0 a9 a7 3f
       0.11104715763797486 0.0462179267275665
0004f0 9e 8a d7 41 69 cc a8 3f 4d 0b 6c b0 e9 3b 98 3f
       0.04843453339323854 0.023666049378344756
000500 37 df e3 2b 6a e7 88 3f 0f a8 e2 19 3d 08 ab bf
       0.01216013857309371 -0.05279723111137013
000510 b3 83 d5 2e 53 15 6b 3f 9c f7 e7 ad 39 83 ac 3f
       0.0033060669581321477 0.055688669661307005
000520 ff 15 a8 a4 d4 18 bb 3f e1 70 67 79 30 5a 77 3f
       0.1058476354592912 0.005701245644072568
000530 44 0c 9f d3 28 23 b1 3f ae e1 09 e8 c2 85 b5 3f
       0.06694274107489756 0.08407228627209548
000540 e5 74 cd 00 64 20 62 bf 6b 4d 79 f2 85 2e 88 bf
       -0.0022127106844168514 -0.011807486021246224
000550 01 57 e8 18 8b 9e 9c 3f a5 7d fc 16 72 82 5b 3f
       0.027948544879186524 0.001679049888430353
000560 3d cb a4 c0 20 94 ac bf 72 35 84 03 bd 34 b0 3f
       -0.055817626491622786 0.06330472312784766
000570 cd ca 92 59 e2 d2 95 bf f4 8d 99 c5 6c 8f 88 3f
       -0.02131227180206956 0.011992311268108381
000580 44 76 f3 9d cc c0 9d 3f 69 d9 27 1c ae 16 b3 3f
       0.029055783405843152 0.07456482112306663
000590 df 3a 2e 78 dd e8 b7 3f 44 ca ae a9 b1 e8 ae 3f
       0.09339698967071851 0.060369064295987346
0005a0 c9 4f 68 c6 e8 9b a8 3f 70 19 29 d4 6d 2f 89 3f
       0.04806449338880687 0.012297494923711766
0005b0 aa e7 06 32 28 ad 6d bf e0 ce 4a 56 0f 57 b2 3f
       -0.0036226067606692407 0.07164092880958206
0005c0 51 c8 5d 56 ff e8 83 bf 5b 36 d1 e5 e4 82 a4 3f
       -0.009721751044455969 0.040061142972814344
0005d0 94 5b 13 3f 02 e9 a1 3f 21 4b 87 d9 e2 51 97 bf
       0.034980840873394176 -0.022773308302770027
0005e0 1c ae 5b d7 04 08 ae 3f 76 62 2e fc 38 42 a4 bf
       0.05865492943652503 -0.03956773832687059
0005f0 40 d7 d5 c4 4b c8 8c 3f fc 1c a2 3c 73 7a 97 3f
       0.014053909248768925 0.022928047729263476
000600 00 de 3c 86 32 06 9a bf a0 5f 68 24 34 37 69 bf
       -0.0254142660553196 -0.0030780809786498803
000610 10 de 82 78 53 21 73 3f 5b 7b 11 1a e6 f9 99 3f
       0.004670454080204958 0.025367350903589308
000620 d7 a1 04 f2 8e 42 9b 3f c0 02 3e 5e f9 48 a7 bf
       0.026621087571727955 -0.04547862315576401
000630 f6 1c f8 1c 5e 85 af 3f f5 f4 06 df 19 63 93 bf
       0.06156438926341849 -0.018932728040216912
000640 9e 8e 80 6a 06 2b 80 3f 6e 1e 18 5c d4 66 b1 3f
       0.007894563794315797 0.06797530411142258
000650 c3 81 33 65 bb 1c a0 bf 00 20 8f a1 d1 79 b8 3f
       -0.03146920786253162 0.09560880846322561
000660 23 e2 66 b8 8d 9a 9e 3f 0c db 3e 34 75 f4 a6 3f
       0.029886450176237155 0.044833815219524537
000670 f7 77 4f 15 a2 ad aa 3f f0 6c 26 51 bc 7e 98 bf
       0.052105965710992956 -0.023920957997330683
000680 d1 33 58 17 0f 8c b1 3f 80 94 92 8a 5f ff ad 3f
       0.06854337997374606 0.058588967958066895
000690 ff a3 9e d4 3f 46 a0 3f 71 c3 1d 9f 56 11 93 3f
       0.03178595991568755 0.018620828115163805
0006a0 b7 35 fd b8 71 c9 b0 3f 58 58 9e 94 46 db b4 3f
       0.06557379499755354 0.08147088173277106
0006b0 ee 0b 01 f5 e9 71 b7 3f 5a 48 1a 83 b8 18 b5 3f
       0.09158193809075474 0.0824084587168569
0006c0 70 16 aa d1 fc a2 a7 3f f9 86 1f 03 13 0f b5 3f
       0.04616537150745337 0.08226126505135402
0006d0 ac af df bf c6 0b a5 bf 6b 4d 19 44 88 7b 82 bf
       -0.0411054715367237 -0.009024681642734142
0006e0 d5 20 57 25 4a 34 63 3f 35 9d ab f4 e9 06 bc 3f
       0.002344269577154371 0.10948049758336682
0006f0 05 17 a8 f2 20 6f 8c bf de 05 a6 5a ec 22 b6 3f
       -0.013883836179057871 0.08647038663004689
000700 6c 97 e9 b6 18 f2 6b bf 22 2c 97 58 af d1 b6 3f
       -0.003411339064132093 0.08913703835348533
000710 9d 7b 03 9c 54 bf b6 3f ed 65 f3 e0 a4 b1 97 bf
       0.08885697182584669 -0.023138595800309792
000720 49 9e a5 60 3b f3 89 3f 7e 95 2c 19 3c 11 a8 3f
       0.012670959364825 0.04700649077703199
000730 ae 27 bf fd aa 3c 9b 3f a7 68 ec 8f 85 fa 6c 3f
       0.02659861730334228 0.00353742681853671
000740 e5 29 a6 b6 aa 4c 9c 3f 54 14 b0 df 6e b0 96 3f
       0.02763621082116598 0.02215741386682553
000750 a8 fe f3 f9 91 79 ab 3f 7c ce 70 41 00 6b ad 3f
       0.05366188217339857 0.05745697783313816
000760 9d 93 96 12 5d 5b 8f 3f 35 fd 6e c2 ae f8 b8 3f
       0.015310980920568979 0.09754459616577978
000770 1c dd 78 d1 6f a1 a5 3f a5 b1 25 33 6b 88 a5 3f
       0.042247289963081 0.04205641745906811
000780 b6 6e 14 60 f7 8f ba 3f cb 49 c2 e2 8b 4d 98 3f
       0.10375925155352203 0.02373331614996647
000790 44 34 c5 c0 78 30 8f 3f 2e fb 5b f7 bf 81 aa 3f
       0.015229171164401596 0.051771162934519985
0007a0 e4 8b 65 dd cf c3 88 bf 64 89 42 b3 d5 79 7c 3f
       -0.012092231697073026 0.006952128187693727
0007b0 3f a4 b6 15 85 b8 69 bf 15 c9 c7 c7 ec 13 9d 3f
       -0.0031397437394003187 0.028396320050839103
0007c0 61 3e 44 fd 84 f1 b4 3f 90 7b 93 eb a4 4a a1 bf
       0.08181029494539295 -0.03377261520085206
0007d0 51 0c 90 b9 9b 3f b4 3f b8 0b 8e 9e af a9 b2 3f
       0.07909558563555776 0.07290170308082977
0007e0 05 5d 83 3b 22 8f 8f 3f 5f fd 18 6c a9 ba a4 bf
       0.015409724656292765 -0.04048661655951479
0007f0 6a d3 28 07 ef 85 91 3f 9f 40 9d 60 59 22 b4 3f
       0.0171124790305898 0.07864912613627205

fc2.bias f8 [100]
000000 53 3c c1 94 2f 98 eb bf a2 d4 e1 34 ff ae ed 3f
       -0.862327375923892 0.9276119263510234
000010 1e be ba ed c6 07 df 3f a8 03 7f c5 69 f5 e5 3f
       0.4848496743752281 0.6862076623293563
000020 ef 2c 3e ff cb c9 e4 bf 2e db fc 0c de 73 c1 3f
       -0.6496334061825147 0.13634849199453342
000030 0f a9 1a b7 f9 33 ef 3f de 4c ff bc 5c d9 ed 3f
       0.9750946594479347 0.9327834788658966
000040 b7 15 0c 0a 35 f4 ea 3f 92 30 2b 75 3b 48 ee 3f
       0.8423104473337649 0.9463174141360631
000050 b1 9a 45 10 81 60 eb 3f 44 16 55 10 55 cb ed 3f
       0.8555302923021683 0.9310708350173589
000060 d3 9e a6 e7 15 ea ed 3f a9 a2 1f 38 7d 85 e7 3f
       0.9348248981886748 0.7350450607455815
000070 b9 f1 8e b9 62 4b ea bf 9c c7 05 92 e0 db e1 3f
       -0.8217023491084127 0.5580904819491823
000080 ed 06 ce df 95 59 e2 bf a8 88 34 10 33 50 e3 3f
       -0.5734357234179847 0.6035399738796245
000090 d6 18 af 9e 3f 6e ea bf e1 fd 92 24 d5 02 b8 3f
       -0.8259580706878988 0.09379322188305352
0000a0 29 43 e0 47 f0 45 ec 3f ab 82 ef 35 11 c1 ee 3f
       0.8835374263599977 0.96106777700705
0000b0 37 6d 3e d2 07 8d e5 3f 87 54 fe 06 2a 37 ef 3f
       0.6734656435323022 0.9754839073745111
0000c0 e3 59 2d 24 5b 3f ee 3f 13 8e 76 8c e4 ad eb 3f
       0.9452338892540947 0.8649771445674922
0000d0 93 9d 96 83 3a 16 ec bf 36 8f 01 95 ba 05 d4 3f
       -0.8777134485325625 0.31284966040969964
0000e0 cf f5 0c a1 d2 64 ef 3f e1 24 4f 16 04 5f eb 3f
       0.9810574670333895 0.8553486285901749
0000f0 92 85 5b a7 0c bd ee 3f f3 05 d6 b1 1c c3 ee 3f
       0.9605773228360468 0.9613173936233451
000100 c7 ab 63 be 98 2e d8 bf 7e ef 17 02 f2 b4 e6 bf
       -0.3778440341254136 -0.7095880547417293
000110 a8 6f 18 d8 9c 4f c7 bf 9e f8 79 e6 8f 3c e0 3f
       -0.1821170859483321 0.5073928357594644
000120 a5 ba 1a c9 75 27 ee 3f 83 b1 df 1f 86 b5 ed 3f
       0.9423169067211644 0.9284086821112826
000130 47 f6 7e 36 f9 17 ee 3f 1f 9e 38 c6 7c f1 e9 bf
       0.9404264511465009 -0.8107284423358044
000140 c4 ff cc 46 4b 2c e7 bf c7 86 85 e5 5c 44 ec 3f
       -0.7241569884135903 0.8833450777858268
000150 94 de 02 db 06 a0 ee 3f cd b5 ad c1 95 49 ed 3f
       0.9570345189631149 0.9152325423034938
000160 fc c6 52 d4 d0 00 ed 3f 1f 58 7e 3f 39 6b e8 bf
       0.9063495776119619 -0.7630888214214372
000170 42 08 dd 77 30 67 e4 bf a3 2e 81 29 b3 59 e1 3f
       -0.6375963536340878 0.5421996889721935
000180 fd 2e 68 7a 82 81 d7 bf b2 70 b7 93 71 f3 e6 3f
       -0.36727964357190485 0.7172172436799171
000190 1a 17 9a 03 8c 64 ec bf a8 6c 2f ce 09 b0 ec 3f
       -0.8872737951612379 0.8964890505843828
0001a0 a0 26 13 20 c3 e9 ed 3f e9 ac 4e cf 4b 46 ef 3f
       0.9347854258023354 0.9773310708018502
0001b0 a6 cb 69 9c 3a 08 e4 bf 49 ba cd bb 29 d5 ee 3f
       -0.6260045103975826 0.9635208766974951
0001c0 ee 3b a1 43 ec 0b eb 3f 9f e1 e4 0f 31 6d ee 3f
       0.8452054329771934 0.9508290586882601
0001d0 2e d3 5d 0c 91 88 d5 3f 94 95 75 00 4c 22 ed 3f
       0.3364603634611737 0.9104366311045617
0001e0 e5 9a 48 61 24 b1 e9 3f 6e e7 2f 16 aa 4c e7 bf
       0.8028737926550461 -0.7281084473936354
0001f0 3e 80 3b 2f 14 a2 ec 3f 28 c7 2b bb 5e c5 e8 bf
       0.8947850153454124 -0.7740930228885405
000200 84 b1 f7 e1 66 91 ee 3f 33 60 14 ee 2a 65 eb 3f
       0.9552492536000021 0.8560995721809433
000210 ac b1 f8 a0 58 57 d1 3f 47 c9 7a e5 db ce eb 3f
       0.2709561893450665 0.8690013391517731
000220 24 ea 58 48 d1 62 e2 bf 5f 78 f0 fa 42 3d e3 3f
       -0.5745626843484541 0.6012282277258797
000230 2e 1f 74 66 50 f7 ed 3f a9 63 2c b3 78 fb e9 bf
       0.9364397049948587 -0.8119472026329407
000240 23 f0 35 f7 c1 4a ee 3f 9f 71 6b 7a 24 7f e7 bf
       0.9466256931623359 -0.7342703238496603
000250 38 22 28 89 ed 96 ea 3f 3e 6a 2e 94 d6 fd ee 3f
       0.8309238127558904 0.9684861082235512
000260 21 1c fd 6d 53 ca ee 3f cf f6 c4 16 d4 62 ed 3f
       0.9621979854790689 0.9183140225138348
000270 7e 07 94 7b 06 94 c6 3f e2 86 8a 8b f8 bb ec 3f
       0.1763923743638393 0.8979456639683259
000280 f3 29 d3 87 52 21 ee 3f e7 83 cb 47 a6 09 ee 3f
       0.9415676739529871 0.9386779215093356
000290 86 c4 c7 40 8d 47 d0 3f a6 5d 42 d0 c6 7a ed 3f
       0.25436717344479864 0.9212373797953901
0002a0 8b e3 60 de f1 68 ea 3f 81 37 43 39 95 c5 e8 bf
       0.8253106444673092 -0.7741190069589124
0002b0 f7 a7 30 49 70 2b cd 3f e8 ac ea 02 41 ba d2 3f
       0.22788814138158361 0.29261803898653094
0002c0 ca 7a 0e cc 3b 92 e8 3f ca 2e be dc 69 4e c3 bf
       0.7678507791022977 -0.15083049086057648
0002d0 cb 5f 9b 55 43 79 ef 3f f0 6c 5b 47 99 a4 ea 3f
       0.9835526153574333 0.832592620248219
0002e0 a8 ec 1f fb 0d 78 ed 3f f5 25 0b be 8e 9b e1 bf
       0.92090510413927 -0.5502389632976575
0002f0 49 81 a9 be bd 06 ed 3f 62 51 98 06 06 a9 ea bf
       0.9070728992337901 -0.8331327561195787
000300 41 4c 81 99 06 99 e5 3f 4c 4f 08 f0 0e 6d ea 3f
       0.6749299047609228 0.8258127868780121
000310 cb 5f 2a 09 19 c9 ed 3f 81 1b db 39 5d f5 eb 3f
       0.9307980708135742 0.8737016801832028
