weights/numdreg_id/djia/correlation/low/numdreg_id_pretrain.pt (torch, 263099 bytes, 14 tensors)

fc1.weight f8 [100, 200]
00000000: 91f2 d9f9 7269 b13f ac66 5ea3 1bc7 a9bf
00000010: 6706 56d7 547a afbf 2907 c64d 28bd aebf
00000020: a7ea 05d1 0f68 a3bf 7186 40ce 8f28 a03f
00000030: a594 fbc2 b1a2 93bf 2cab d37d 6452 8b3f
00000040: a1e0 ed8b ff42 a3bf 9f83 ce64 ec91 91bf
00000050: 36b4 f982 0d3f 98bf ec30 1266 1a4b a1bf
00000060: fb7f 732c 24c5 853f 5a28 f1ea 843d a6bf
00000070: 90d8 b519 50eb 77bf 39af 41bb 67b4 babf
00000080: ded4 7c70 8d85 a6bf bf0b 225b 96f6 a63f
00000090: b7c8 8414 ccf3 b2bf c659 c636 f7ed a93f
000000a0: cadb efa2 8c26 b9bf 16c6 ef35 41f6 993f
000000b0: 6bab bb0f e4d3 b03f 48a3 92c6 9546 bc3f
000000c0: 9387 2960 6fe9 ba3f d12e 582e 85d3 b4bf
000000d0: d547 5a9a ed3c b6bf 5bf8 48cd bf3c 9a3f
000000e0: 08ad 45a2 ab01 973f 0ea5 085d e01e afbf
000000f0: 4678 6069 062e ab3f ee32 3284 73ad b23f
00000100: 744b 307b b3a1 bb3f 158e b6ab f41f a93f
00000110: cff4 6965 b35f c23f e504 0e61 13a8 b4bf
00000120: edec 1a2e a1b1 a4bf 693e 8b11 753f bcbf
00000130: 0558 8957 7206 b9bf 300e 26da 8945 ae3f
00000140: ee1c b881 650f bb3f c498 8ae4 fa18 93bf
00000150: 1609 c713 094c a7bf 136d 227f 78f6 c63f
00000160: 58f5 3723 5c9a 74bf 09c1 d0ed b92d a2bf
00000170: 01a7 ba63 b066 a9bf a168 2642 bd9a a9bf
00000180: 913f 0c93 00f2 b03f 3459 ffe0 a7e1 bb3f
00000190: 144c 0efb 633f b4bf 7588 a76b afab bb3f
000001a0: 4077 de49 25e0 bebf 7660 6814 1778 adbf
000001b0: 5e00 68bb a8ce b3bf e7aa 5608 58c5 abbf
000001c0: a2c2 6fc3 e845 a2bf 6432 e21f 5fef 5a3f
000001d0: efc4 7e5a 06bc adbf a5fa 39f5 4942 9c3f
000001e0: c735 8376 eb4d a0bf 73be 3352 45f3 b2bf
000001f0: 5139 9184 5476 b2bf 262f 1adf c0e6 72bf
00000200: 41c3 3d14 c903 b33f 53cc b081 5d69 aebf
00000210: 945f 6e39 028e 9ebf 8973 d498 d987 823f
00000220: d4fd 4ef6 1371 62bf 7bf3 f19b 28ba b0bf
00000230: b9c4 ab30 7311 96bf 65b8 a61b cdc6 b63f
00000240: e0cf 27ee fcaf b7bf 425b f8e3 9310 95bf
00000250: 3523 edb3 e342 b1bf ed4b b7d5 6ed1 b5bf
00000260: 6018 3be9 b187 adbf e38f 8f65 772f 923f
00000270: 324c 3418 7fb8 b2bf 4996 0798 bb6e ab3f
00000280: f8cb 1898 c0bb bc3f 9f19 ed3b 428c ac3f
00000290: 1776 d600 c1d3 733f 1d9a 3139 6273 c23f
000002a0: b3ff 7d7b 9cb5 733f 2e6d 0e9a e0e0 a63f
000002b0: ef0a 95c1 ab8a b13f 23a7 e7de 955b bd3f
000002c0: cdd6 3f4a 3fae bb3f 8e15 6d48 4da1 a4bf
000002d0: 270f f9f3 405d a5bf ecb9 7838 9507 893f
000002e0: a456 dda5 c81d c43f e2f0 c58a 8332 b33f
000002f0: 7b88 4f7a ca05 a63f 25af 21af 470a 82bf
00000300: 5663 e4fa 4145 ad3f 6a90 ef08 f225 bebf
00000310: e23d bbeb 7694 83bf a6ae f769 a3cf 863f
00000320: a65b e145 6fdb b53f ce4c b4a5 af68 be3f
00000330: 0357 b823 9b53 bebf 8358 8dcd 29e6 91bf
00000340: 218c c043 930d b03f 3f46 3e8e b6d1 7b3f
00000350: 463e 12f0 f143 bbbf 142a 6c41 4a40 aebf
00000360: b002 d0de c22b 8d3f a0a6 468a 2a8d b03f
00000370: 9372 e695 9413 9d3f f106 82c5 020e af3f
00000380: 7d26 c3d1 c7a9 b63f f1d1 0aa7 e6b4 9c3f
00000390: 5c94 bc15 dfa4 933f 51ed 3434 9d12 6fbf
000003a0: cab0 564f 2b34 ac3f bdb0 8789 6273 7dbf
000003b0: 59ac fdbb 1007 bb3f 1376 7eac 9894 b23f
000003c0: 9c6c c8c2 f005 79bf 7f74 b8f9 905e a23f
000003d0: e60f 95a7 95b0 63bf d918 91c4 5b4e 843f
000003e0: 6321 e53f 4459 bfbf 667f d14d 0fb7 b33f
000003f0: 3255 caa0 dde3 c53f 3b14 9015 2d29 b73f
00000400: 1448 6229 64f3 a4bf 1810 4e16 51c1 c33f
00000410: ebac c5ec b971 86bf aabd 7fd3 19c2 b23f
00000420: 0c1b 7884 2bd6 ae3f 7359 dd2c 794c 723f
00000430: 2a06 3eeb 1f37 b53f 5786 12ff 0d3f a73f
00000440: aa2f dafd 3ffc b3bf ad68 3e91 1bdb b33f
00000450: 5e65 b69e a260 bf3f aea2 33ca 440b be3f
00000460: b38d d1d4 88cb 6fbf 967e 5f48 bbbf a4bf
00000470: e778 4ac5 f51a b73f b79f 791b 60a1 c03f
00000480: ed8d 32c4 092e c63f aedc 3077 b388 c03f
00000490: 6f8b cd84 543e 953f e382 26de 8c65 b0bf
000004a0: 70e5 27c6 2240 b03f a938 e9ce fe09 bf3f
000004b0: aedf 4221 e5b3 a53f e773 b16a d20e a1bf
000004c0: 0664 9a94 36ca a8bf 9ca8 c82c 7b75 8bbf
000004d0: 20bf efe3 899b b4bf 3150 aad4 3b84 bd3f
000004e0: 0cc1 2c4e 758f b33f 1a67 c859 e9c9 bf3f
000004f0: e7e3 80be 595e 57bf b6c1 f042 3701 b13f
00000500: aab1 e525 e0cc b4bf 3e9e 70c8 c867 93bf
00000510: 63b1 dad4 dafd 9fbf 12c7 7adc fbdf b43f
00000520: 4cbb 1397 af2a b33f a04e 5985 6d13 b63f
00000530: 4764 40ea d8d1 a23f 020e 623c 3459 773f
00000540: 74c4 8fb2 a698 b43f 1f50 b163 b2e7 9d3f
00000550: 39a8 780c 7c61 b6bf 048d 421f 468d a9bf
00000560: cbcf f202 cbda 993f 4e16 037b dd0e 9abf
00000570: b193 2d0c 414c b0bf 5e2c eb8c 6de0 953f
00000580: e62f 2d55 8805 b8bf 8ee5 15d4 9594 a23f
00000590: 9589 5584 9bb7 bf3f e219 376e 8655 be3f
000005a0: 4acb 1853 7f50 9a3f 9320 52ca ea93 8abf
000005b0: d73d aeba a6bf aebf 543c 96cf b2c3 ba3f
000005c0: 1241 8205 3b4c a9bf 5c76 9875 1912 ba3f
000005d0: 6c39 56ce 02db b23f d7c4 c266 97ae b23f
000005e0: cfdd d33f f6d7 aa3f 5276 0abe c313 96bf
000005f0: a1e3 a902 17b3 af3f 81b1 55ed 34cc af3f
00000600: dd93 2e08 999b b4bf a516 8ee9 a4e6 9dbf
00000610: cbb6 086a c11a be3f 129a 5d1c 6490 983f
00000620: 5284 d13a a3f2 b23f f056 7562 76f8 a0bf
00000630: 58e0 4274 5722 b2bf 538a 38db f0ee a7bf
00000640: 1235 5ef3 c8c6 b4bf 8307 81d2 babf b63f
00000650: c3bc b259 7a27 9b3f 8ac7 d1bd 8be1 b0bf
00000660: a2b8 ccf7 e9d9 b23f 07a1 df2f b502 af3f
00000670: ef78 f440 9905 78bf 704b 398e 5a60 b9bf
00000680: ab83 d485 35c7 a9bf 2ec5 bf3b cd8f a93f
00000690: 2ae5 dffe c830 ba3f f78f a79a a075 b33f
000006a0: 18e5 1458 f91a b1bf fe6c f94a 7791 803f
000006b0: 1979 e37e 4464 c03f e50d 0a8d e983 b73f
000006c0: c6fd b516 3c23 a33f 894a 6ebd 0f44 b13f
000006d0: d06b 8a5f 9982 a13f 4cd2 b4f0 455b aabf
000006e0: 45ef 25d9 9dff c13f c96d 09bd 2d16 bcbf
000006f0: d63f 07fb 9767 c03f 38c2 ddce 885a bebf
00000700: dc5c 5f67 ad20 a2bf dbb7 2f0e b976 b73f
00000710: 329a 27c4 8f33 3f3f 1ac4 99b3 2d5d a0bf
00000720: b6d7 2381 2780 c03f a070 6580 26a3 b93f
00000730: 7fba d586 64e3 ba3f e3f4 fe28 115f a93f
00000740: f5a4 cf15 bbbe af3f 7606 d59a a6e7 b13f
00000750: 02d0 19b7 bc24 c1bf b13f 4812 ec08 bf3f
00000760: 47cf 6e6b 3d4d 903f a764 c23d fe63 c23f
00000770: 5568 6edf 0cfa a43f 5828 ecb4 d7ac a0bf
00000780: e02a 0148 0cbe aa3f 4b8f 6507 07fc aa3f
00000790: 2be2 8bb6 cd44 913f a0f0 f5f7 9d8f ad3f
000007a0: 2299 e72c 4368 afbf 2e62 c54f 257e b63f
000007b0: c466 ed4d aafa 96bf bf36 e565 94a4 b3bf
000007c0: 875c d8b0 f192 babf 6a6d f80a d924 6b3f
000007d0: 7824 f9f3 2bf9 b93f 36ac e68a 0636 ad3f
000007e0: 45aa 95fb 43c8 b73f 2d4a c105 28d6 a43f
000007f0: ca2c 90eb be10 b23f b64b e893 af62 ad3f
0.06801527595411928 -0.05034719819304931 -0.061480189596306904 -0.06003690671333423 -0.03790330339957864 0.03155946152425038 -0.019175317312051594 0.013340745057993063
-0.03762053092117524 -0.017158216145279345 -0.02367802726660192 -0.03377611633286101 0.010629923445264913 -0.043438104323812524 -0.005839646236713972 -0.1043152649087319
-0.04398767469539576 0.044850062012322216 -0.07403254986710094 0.050643659054162835 -0.09824446657135791 0.025353449742345623 0.06573319801434045 0.1104520425602803
0.1051244363566453 -0.0813525427003541 -0.08686718958259061 0.0256223649068875 0.022467309741313307 -0.06078244338670845 0.05308551822985001 0.0729591558212623
0.10793611295257027 0.049071927987167786 0.14354555560922796 -0.08068963164807348 -0.04041770637328477 -0.11034328153913865 -0.09775461804505887 0.059124286536669124
0.10570368210766265 -0.0186499788275334 -0.04550197950767847 0.17939668853510024 -0.005030021583931919 -0.035505113868909595 -0.04961158006092426 -0.05000869209762127
0.06619266119036939 0.10891198390104223 -0.07909226302426503 0.10808845880777247 -0.12060769132082516 -0.05755684017293643 -0.07737211776111638 -0.0542399892977608
-0.035689615113260645 0.0016439846945416553 -0.05807514052083628 0.02759662207835824 -0.031844480721342765 -0.07402451760185062 -0.07211807476526146 -0.004614594845076236
0.07427651161357308 -0.05939762313973831 -0.029838595156973804 0.009048175789354367 -0.0022511854062654355 -0.06534055526021902 -0.021550941320076265 0.08897096562461256
-0.0925291139063229 -0.020571051396554248 -0.06742690222484955 -0.08522694318462216 -0.05767589542442475 0.017759194921282428 -0.07312769261288635 0.05357919913130311
0.11223987305929473 0.05575758916397721 0.004840616148980035 0.14414623062766987 0.004811869868603868 0.04468442802973481 0.06852220035674937 0.11467873279584899
0.10812755167702477 -0.040293135729864024 -0.04172709444222127 0.012221494470478121 0.15715892886025984 0.07498952997224564 0.043012931280615306 -0.008808670074550282
0.05716901958130076 -0.11776650159987559 -0.009560517376853764 0.011138226195689892 0.08537955719053389 0.11878488345637381 -0.11846322652885637 -0.017479565783411487
0.06270714191536843 0.0067917948798750785 -0.10650550948252499 -0.05908424423804007 0.014243624138545158 0.06465402484777849 0.028395005845242748 0.06065376912103016
0.08852814551496553 0.02803383249802666 0.019183622075747628 -0.0037930555714901578 0.05508551925172041 -0.00719011775116146 0.10557655896779873 0.07257990084914238
-0.006109180900718016 0.035877733691656914 -0.0024035380307925068 0.00991508191704009 -0.12245585021913068 0.0770120205866057 0.1710164103612129 0.09047204758106002
-0.04091942792105399 0.15433705891712246 -0.01095910314389533 0.07327424443768984 0.06022773735099038 0.004467461911039516 0.08287238591403737 0.045402943979990944
-0.07806777904096288 0.07756206794730032 0.12256828665558347 0.11735944687428443 -0.003881232498814413 -0.04052529581508428 0.09025512758896391 0.1299247869640092
0.17327997283892618 0.1291717845904023 0.02074558315815572 -0.06404953406900975 0.06347863519467523 0.1212462668565616 0.04238811522503681 -0.033316207431859195
-0.048417764320397835 -0.01340767126483327 -0.08049833121162608 0.1152989763452872 0.07640774878087003 0.12417467538798768 -0.0014263035209423015 0.06642480263031456
-0.08125115323281898 -0.018950593217736726 -0.03124181675109251 0.08154272206118332 0.0748700851288337 0.08623394494616798 0.03675725802913426 0.005700305982944355
0.08045427188314297 0.029204165777926613 -0.08742499641871938 -0.049905959430612185 0.02524869161125291 -0.025447331078586814 -0.06366354510608009 0.021363937116614877
-0.0938344200087041 0.03628986562666646 0.12389537792981849 0.11849250975419737 0.025697698065595 -0.012977442073193656 -0.060055933273470856 0.10454862182653929
-0.04940971796270523 0.10183867569909338 0.07365434205551019 0.07297655352410302 0.0524289086260371 -0.021559771036314075 0.06191322238459596 0.06210484883453927
-0.08049923372034536 -0.029200150256221708 0.11759575690004025 0.023988308173466484 0.07401485620495521 -0.03314561797985316 -0.0708365115013988 -0.04674484897647759
-0.08115821782685753 0.0888630641866524 0.026517783856147014 -0.06594155678047123 0.07363760280415702 0.0605675335826295 -0.005864714286216917 -0.09912649128209039
-0.05034796961468343 0.04992524484976922 0.10230690214657004 0.07601360107179277 -0.06681784058027451 0.008089954352888725 0.1280599231312827 0.09185657208768523
0.037378194591834155 0.0674447858312225 0.03419951716679004 -0.051477609284493825 0.14061329939783654 -0.10971341958195703 0.1281614280437668 -0.11856894541211538
-0.03540555846091717 0.0916553172716869 0.0004760957710047447 -0.031960895704180994 0.1289109592977959 0.10014572748827044 0.10503223697535623 0.04955342889250305
0.06200203553437148 0.06994096069413466 -0.13393362942190384 0.12122989126532847 0.01591964691370087 0.14367654815285855 0.04097023227150546 -0.03256868442083832
0.05223120097124023 0.05270406689922299 0.016864027277707343 0.057736336249008646 -0.06134233401444279 0.0878623313668718 -0.02244058704977793 -0.07673003661804055
-0.10380468909748873 0.003313468849013003 0.101458308280728 0.05705280728883404 0.09289955990031114 0.04069638319255762 0.07056802035383494 0.05739353828916853

fc1.bias f8 [100]
00000000: bdb7 0d32 4776 e73f 5b23 8db5 ebc6 e53f
00000010: 877d 66fc a754 e73f 4733 a58a d4cc e33f
00000020: 440d 5161 e4e5 e53f 5f37 cd77 ac85 e53f
00000030: 275d 6a76 c676 e33f 42a5 27b3 fd1d e43f
00000040: 014e facc 5abe df3f 76a9 b99d dc74 e63f
00000050: 710d 5548 c724 e73f 52af 23f7 e69f e03f
00000060: 19a1 d867 2df2 e23f b98d 0a69 fa3c ea3f
00000070: 9076 9330 9dc7 e13f 6dd7 e7ac 5f15 e53f
00000080: 1c55 e6d6 7623 e53f d795 a63f efc6 e73f
00000090: 92f4 4a2a d5f3 e03f 1397 5791 1d4b dd3f
000000a0: e1f1 9a75 3230 e23f 0988 d8c1 f5f9 e63f
000000b0: a646 f577 77bf e03f a027 1a88 658b e83f
000000c0: 38f1 3cb0 0024 e43f 7e13 8b2f b40f e53f
000000d0: c4e2 87ed 9ec9 e03f 935e 84d9 2a2d e13f
000000e0: 2f5c c344 7d3f de3f 78dc 5192 a41a e93f
000000f0: dacb 2547 80d1 e43f 3447 e9df 6a13 e13f
00000100: a5d2 19ae 9ea9 e73f 88cc fdb5 8fcc e53f
00000110: be6a 420f df46 e63f e6b2 9b74 991b e13f
00000120: 49ea a243 1446 e73f c43f c2b9 2db2 e23f
00000130: 376a d785 48da e53f 8f37 1dee b5e6 e93f
00000140: 30e2 4b15 8f3a e33f 94c6 7848 cc50 e13f
00000150: 0f66 bd2d 9da5 e13f 927a eda3 6a93 e73f
00000160: 53d7 c561 9828 e43f 62f4 e5c9 0800 e13f
00000170: d432 a1b8 9247 e93f cd3e 8217 d358 e83f
00000180: 69df 6614 e8a1 e73f 2823 bd2d 0b60 e23f
00000190: a0a0 9119 1fab e23f ee6e 1ecc 5e24 e33f
000001a0: c36f 907d b77a e83f 1cbb 790d 2108 e33f
000001b0: c8f3 de31 1a73 dd3f 48f8 20af 3da8 e53f
000001c0: 7d89 bbf0 bdda e23f 7932 5ad2 ab04 e73f
000001d0: e983 0e1e c95b e53f 5d29 85c7 aa12 ea3f
000001e0: 3f8a fdec 0b8f e33f a4a3 0959 855a e03f
000001f0: a98d 1276 77e8 e03f cf50 bb05 35d2 e23f
00000200: 0be6 f358 2bf5 df3f 55f9 c1d3 b048 e03f
00000210: 2fec 49d2 1ec3 e53f b0ae 405f 754c e83f
00000220: 960e a860 dea3 e73f 5fda 8ec1 f6d3 e73f
00000230: 5d66 05ef 4768 e33f 4f42 8bd8 ed49 db3f
00000240: 229e a83a f5e2 e53f fbbe c06c ceb7 e43f
00000250: 1f91 00ba c966 e73f f640 a9d4 5464 df3f
00000260: 8b74 9797 a3e9 e13f 6c75 bac8 0f6a e33f
00000270: da3a 5fcd 3140 e63f 8a38 4420 6f38 e13f
00000280: 4150 cb75 f792 e23f 56a0 e9e6 a6ad e53f
00000290: 2022 25d0 5787 e63f f4d9 afc3 4844 e83f
000002a0: 5594 fecb fbd2 e73f 7971 dc0f cfae e33f
000002b0: 05dc d8c7 1c95 dc3f e491 e169 72ec e23f
000002c0: e5bc 9968 bb9f e53f 7d65 e498 03ae e63f
000002d0: a17f a09d 3025 e83f ff8c e536 c215 e63f
000002e0: 71a2 06f7 e29a e43f 71b3 d0a5 433c e73f
000002f0: 6440 4486 2eff e53f be77 29ba 9375 e53f
00000300: af7d 9ad9 43b1 d93f 252f 05ad 68da df3f
00000310: 0aeb ac74 710a e33f 9eea 663c 52e2 dd3f
0.7331882455452995 0.6805323167728646 0.7290840081877129 0.61875369147456 0.6843130017008794 0.6725675907016287 0.6082489311983509 0.6286610125654664
0.49599332826002757 0.7017653542109616 0.7232395565737716 0.51951931256688 0.592062666725755 0.819943623694079 0.5556169461012406 0.6588590981543639
0.6605791280041191 0.7430340045145226 0.5297647310286655 0.4577096862179683 0.5683834359147647 0.7180126939822468 0.5233723967487165 0.7670161875005199
0.6293948595189596 0.6581669739322107 0.5246119155190958 0.5367635963802563 0.47262508120678864 0.7845023019607558 0.6505738629915598 0.5336202977434596
0.7394555473716379 0.6812208704490255 0.6961512849842035 0.5346190717224004 0.727304584600753 0.5842503192998199 0.6828959096995452 0.8094129229227621
0.6008983055062966 0.541113034769483 0.5514665501934263 0.7367451860153145 0.6299554738641099 0.5312541907620807 0.7899869543121789 0.7608428439288787
0.7385139845346035 0.5742240804039271 0.5833888530151121 0.5981897341439131 0.7649800732065092 0.5947423232263165 0.46015028829770843 0.6767872257694387
0.5892018987472479 0.7193202122158048 0.6674542986912658 0.8147786995771572 0.6112117413252419 0.5110499133125939 0.5283772760489472 0.5881600486705113
0.4993389481238359 0.5088733802693165 0.6800684077455851 0.7593333111194251 0.7387534988233309 0.7446244984083242 0.6064796131497122 0.42638727328179454
0.6839548249890337 0.6474372982101778 0.7312973625999212 0.4904987408417719 0.5597703896306866 0.6066969795680683 0.6953362475558962 0.5381389265255774
0.580440263811859 0.6774477491390012 0.704021364720635 0.7583354780206819 0.7445048317209834 0.615088969210361 0.4466011001235873 0.5913631504050127
0.6757485430697697 0.7087419496703401 0.7545397833491628 0.6901560852242311 0.6439070534443784 0.7261064756945484 0.6874001142878226 0.6706026683784712
0.4014443993600833 0.49770562073239183 0.5950248030488592 0.46693855188974875

fc2_act.weight f8 [50, 100]
00000000: 6552 41b9 66e3 96bf b59c e05b d859 963f
00000010: 3184 fa69 11a2 a03f c5ec 98c2 d04e 953f
00000020: e863 211e cb9e 86bf 6cb0 0e3e 2e8a a0bf
00000030: 75f4 82f4 5722 b73f be60 b704 0bd6 913f
00000040: 58b1 b39d 7dac 76bf 2ec8 3b04 2da2 a2bf
00000050: 7992 cdd4 13c2 893f 4dbb 1ad0 4937 7ebf
00000060: 5085 fca0 1f0d a1bf 661d 27e4 795a bc3f
00000070: 98f8 ae5e 09cb 80bf aef0 c50f 87fc b33f
00000080: a8b6 96ec a6ee 603f 6b37 c353 08de ad3f
00000090: 7c87 9d46 8417 9e3f 9850 d6e4 b217 bc3f
000000a0: 7fe7 8ce0 d011 a43f c00d d424 c2c3 b03f
000000b0: feec 5809 f8ac afbf 7656 884b 9b0b 983f
000000c0: 5d90 61d8 3dd3 a3bf 21da 1db8 a7c0 a83f
000000d0: a8fc f076 5b20 b63f b1d4 d28b c46d 91bf
000000e0: 7fc5 2264 eeb5 9d3f 9495 66de 0f79 953f
000000f0: 3e19 d438 63ff bc3f d95d 697a a55c ab3f
00000100: ce08 f3b6 f856 ae3f c432 79be 0298 aa3f
00000110: a27c b372 ef26 8f3f bf92 90fc 9612 ae3f
00000120: ee76 ed8a 538c a5bf 1984 a8f0 6d85 a23f
00000130: f8b5 a450 d17c 983f e549 ca77 41af 69bf
00000140: 00ec 854d 07f2 abbf a73b 512f 192f b3bf
00000150: 1f4f 9b9f f9f4 b63f 2802 aa1e 7e6e a9bf
00000160: fd70 9c1b ff67 b4bf 69f4 caf6 4cc2 abbf
00000170: 1447 3e52 7a02 693f f649 10af f761 813f
00000180: 6861 f3d8 ed34 b53f 2051 f753 581e b6bf
00000190: ae19 9aae d291 513f 02c7 deec 90d2 b33f
000001a0: 99e3 4668 6606 b13f e307 0760 4d08 a33f
000001b0: 7489 726c 856b a8bf 3bfd 8e94 8743 93bf
000001c0: c196 0d9d 40d5 973f 4fcd b527 6afc 863f
000001d0: 0301 5c37 4f61 b0bf 200f 2dc8 7d39 b83f
000001e0: 6284 e979 afbc 9c3f 5865 de6f a14a b1bf
000001f0: 76c8 f049 7f25 a43f da2f f52e c36b 863f
00000200: 4ec7 3bf1 1d71 803f c831 f147 6e78 b53f
00000210: 2c20 ce51 a622 a0bf 316a af3f dce0 a9bf
00000220: b085 dcba 2ebd 883f 6ace 0f28 7c14 a7bf
00000230: 512b 2152 e16b ad3f 28e4 6f66 fd98 b73f
00000240: 68ac 9e37 57fa b93f ebec 3aa3 56d9 abbf
00000250: 285b fe13 d3c5 afbf 5da3 5688 df59 a1bf
00000260: d2ad 773c 166a b23f adca 5bbf e4a3 953f
00000270: 100d c49b b342 a7bf 644c c1a6 2b7a 8a3f
00000280: 8687 97e0 6b33 b23f 17f0 2a75 afde 3fbf
00000290: c1c6 424a 1bf4 b63f cbd7 5255 c9a5 b83f
000002a0: c331 b14c 650b b03f ed77 7026 e6b7 5fbf
000002b0: 3dcd f9f7 1ca0 8dbf db3c c394 d7b6 a9bf
000002c0: e45d 0f06 b9b6 b83f fda3 bf2e 8273 b3bf
000002d0: c5e9 adb8 83db ba3f 036b d1d9 98ff a8bf
000002e0: 8bef 0561 9296 b33f 1824 506b 5366 b53f
000002f0: 57bf 45f8 c9a0 b33f 4ec3 a10f 5cf8 afbf
00000300: 44e8 d3b9 d150 b2bf 6f30 bb11 5dc1 b03f
00000310: c30f 51b6 9f3d a6bf 8ec0 03e9 f7a8 94bf
00000320: 0fb3 9127 1c6e a2bf 43db a22f fa6e 88bf
00000330: dcab 5ff9 b130 ca3f 6740 ed2e d2b7 b7bf
00000340: 537b 254e 31d2 ad3f 99d9 8a80 5aa4 b8bf
00000350: e686 2e4e 09af 803f 15c1 601b 8b3d c5bf
00000360: 0117 2303 c6c1 ac3f 1323 5987 eb06 bbbf
00000370: 4de9 316f f928 cabf 3434 8841 3ee6 d5bf
00000380: c2c8 547c fae2 ab3f ef3e 561f 0420 c03f
00000390: a9f2 0482 68c4 9dbf e92f 0dea 4cba b0bf
000003a0: 8b80 db83 c770 acbf 1a21 91b0 33c9 b0bf
000003b0: d5c3 7364 61f8 c1bf 0f16 d57a 1ffd 90bf
000003c0: 8c7e d96a 87a0 a73f 2f95 61fd 4c72 a4bf
000003d0: 1e1f ae06 2465 8dbf 6281 3a1e a9eb b9bf
000003e0: dccc 8e21 2574 a33f e955 2f2c 39f7 b1bf
000003f0: 56e7 f970 a4d9 933f 59c6 9760 7abe acbf
00000400: 38be 6d8c d0ae c3bf 6ab9 3d9b 4aab 8abf
00000410: 2bd9 99d4 7c8f bf3f e9d7 b52a b87a 93bf
00000420: f29e cc6d 2962 a1bf 8ec7 f8ae 9844 a5bf
00000430: a150 2beb 9ce2 aebf 3866 2c46 7852 c43f
00000440: d50a 88f2 ecbf b2bf 99de 6ad2 a6c0 b7bf
00000450: 9f8d e842 5ba4 a23f 595a 81a7 9fba 86bf
00000460: cddf 034c 9457 a4bf 582d 9c47 b6de 8dbf
00000470: 3d16 9747 cccd cfbf b319 99bb a344 b13f
00000480: 7ef7 56ea a869 b63f 3d91 f4b0 2ef5 73bf
00000490: 0c21 23c0 4839 853f 1cd8 1afc 2fcc 8e3f
000004a0: a535 9c3c bbb2 a6bf 8f7b 124e fe58 a93f
000004b0: c144 d3ed 75c2 a63f fbd5 6cee 4856 c6bf
000004c0: 2ba5 34a3 2cae b3bf 2224 cfe3 f30c b1bf
000004d0: f956 0caa 3087 ba3f 9080 ec77 806e 6b3f
000004e0: a4d0 72b1 8f93 aa3f c457 3638 24e1 a1bf
000004f0: 2401 2130 b829 b0bf 2c9d a2ee b768 bebf
00000500: 21a3 0b4e 1c05 b73f da4a 8bd7 0a44 bf3f
00000510: cc2d 0448 ac83 aa3f 0a6a 32d0 a0c4 af3f
00000520: de2a 0fa0 91a4 c3bf 3697 7cc8 b0ae 883f
00000530: f81d 87b0 74d1 c5bf e6d3 df09 4298 b8bf
00000540: e117 2b6e 6e05 d0bf b6f5 a36b dfbd c9bf
00000550: 115c f4ba 05c8 a2bf 7b75 2266 5928 b3bf
00000560: 3a22 1a88 01b5 cbbf a3d7 7a0a 475a b13f
00000570: 6fa9 b087 d5f0 9f3f c484 416c c0ca a3bf
00000580: 21cb 20fd b384 bbbf cdf4 2e4e 6dde a13f
00000590: 24cb 27f0 9aca c2bf 4ad0 0203 6e1e ab3f
000005a0: 1726 3924 c9d5 b03f d4b5 8a9b d64f 983f
000005b0: 9d4a 0478 8994 a03f 7069 2b6c f486 a13f
000005c0: 88b2 5d5a 1db8 b3bf 2ec8 6039 ee5f d3bf
000005d0: 7415 966f 24b6 9cbf 4d19 8dd1 1a74 a13f
000005e0: 8cf6 e96a 3c55 80bf 2797 8ee1 f400 b0bf
000005f0: 1e64 5706 423d c3bf c6dd 1a27 22fa b33f
00000600: 5858 de3a aabc a0bf 0855 0b10 7ed4 b5bf
00000610: 210a bf87 f474 c6bf 6d65 c738 f6a0 5cbf
00000620: 7967 3745 01f0 c33f 82b3 6468 512c bebf
00000630: 7bae c5c9 0d6e babf 0b32 4054 c9ff b9bf
00000640: d587 4bf7 fb6e a33f f1b1 e1da e729 94bf
00000650: 0263 0e68 64c4 bb3f 3e78 b000 0ce2 a9bf
00000660: fcf4 70bd 7532 bc3f da17 04ab 3488 843f
00000670: 4918 9359 e274 7b3f 5a3d 7ced d238 27bf
00000680: e4ca f7c5 94e9 643f bb6f 3736 e367 bd3f
00000690: 4953 9c0d edf2 b43f 9653 1ba4 5181 bc3f
000006a0: 1b67 c9d5 78bc a53f d607 5b49 ee2e a8bf
000006b0: 5977 0bdb 4258 733f 4f1e e544 cbc3 ba3f
000006c0: eb42 8bae c513 a9bf 5092 88d2 f445 bb3f
000006d0: 5daf 1a1f ca59 993f 5c2e c78a bde3 abbf
000006e0: 3f42 34ce c2ff 98bf 8aea c425 cfad b73f
000006f0: 4c6c 6c50 5a1e 7dbf ef32 f038 2b19 9bbf
00000700: 8337 7b03 7246 96bf 0884 ec4d f099 b83f
00000710: ac66 041d ec78 a3bf 5b8b 49fc c77d a7bf
00000720: f24d 8211 1306 a9bf 93f2 51a1 a26e a9bf
00000730: c7bd c8d4 5e3f afbf 5ce8 393d dc78 c03f
00000740: aff4 d98f 5272 883f b143 a0b1 fc4b b3bf
00000750: 6a6f 01ff a37a a4bf 73d5 247c a6cc bc3f
00000760: e737 2849 ed35 823f 58cb 47e2 6a9e 903f
00000770: 61f4 c91b 135c bb3f b5e8 687e b622 bc3f
00000780: 7870 ca09 b6ee 34bf 2d9f c554 c318 b2bf
00000790: 5ce8 03b4 3931 ae3f 0bdc 194d 9857 ba3f
000007a0: 66a7 94ef 53db bc3f 6ab1 3756 e4ee a1bf
000007b0: 86fe 2d99 9590 af3f 727f 6da0 6edf aa3f
000007c0: 6a7f 1060 1c48 acbf 54ed 9461 9f12 94bf
000007d0: b3d3 d6e9 b0d7 b53f 612e 2694 b23b a53f
000007e0: bcd0 56ed 126d 9cbf be46 ad74 73d8 b93f
000007f0: 2a33 9da1 75fb b23f 883f f3d2 7065 bc3f
-0.022351841981008386 0.021827107055426526 0.03248648089107354 0.02080846965530438 -0.011045061928756497 -0.03230423457657214 0.09036779136200031 0.017418071902142833
-0.005535593688574224 -0.03639355351141692 0.012577204639179872 -0.007376945811912017 -0.033303249742184904 0.11075555629860431 -0.00819976158333828 0.07807201514327985
0.0020669231641566484 0.05833459875576249 0.029386584100741228 0.10973661505551247 0.03919842473119583 0.06548703574303882 -0.061866522923503794 0.023481775746481102
-0.03872102037783585 0.04834484217183311 0.08643123296586686 -0.017020293268349366 0.02901432501011447 0.020969627331984222 0.11327190530218886 0.05344121093065341
0.05925729020374747 0.05194099974742053 0.015210982025051504 0.05873557885232605 -0.042086230000433975 0.036174235942105955 0.02391364149769079 -0.0031353262587085922
-0.05458090611769961 -0.07493741421897814 0.08967552324912419 -0.049671117060828884 -0.07971186088656519 -0.05421677124602626 0.003052939327923174 0.008487639455812417
0.08283888384483407 -0.08640052843049206 0.0010723645631586054 0.0774317339226194 0.06650390668700225 0.03717271611414199 -0.047695321548661435 -0.018812292520803835
0.02327443083358705 0.011223630272729905 -0.06398482419536226 0.09462724816426915 0.02806352788536904 -0.06754502278490315 0.039348581100413435 0.010947728033578064
0.008028253483164296 0.08386887794876607 -0.03151435612295503 -0.05054367329985999 0.01207958705669196 -0.04507816304240182 0.05746368529852098 0.09217818976311831
0.10147614581971853 -0.05439253561550025 -0.06205615634023892 -0.03388880290305594 0.07193125702149608 0.021133016757583323 -0.045430767788298465 0.012928334261380132
0.07109712823105782 -0.00048629554400370214 0.08966227114685933 0.09627970059486228 0.06267388460509608 -0.0019359347877592151 -0.014465547864552003 -0.05022309962225232
0.0965381278796183 -0.075981270230514 0.10491202601216461 -0.0488250509158288 0.07651629322748314 0.08359261865565804 0.07667219458903439 -0.06244170847720075
-0.07154570376215569 0.06545049364939513 -0.043438902860117 -0.020175813290678017 -0.035996322469918345 -0.011930422381153277 0.20461105991793616 -0.09264863629982899
0.05824426726279932 -0.0962578357528855 0.008146355341355837 -0.16594065510572223 0.056165874369567 -0.10557434133910375 -0.20437543801728922 -0.3421779289208786
0.054466083218714725 0.12597705392953837 -0.0290695504529476 -0.06534271921299219 -0.05554793819988032 -0.06557009754863366 -0.1403924694527904 -0.01659058749398495
0.04614661387745142 -0.03993454545051588 -0.014353066877233863 -0.1012521456527842 0.03799549135819699 -0.07017857865078948 0.01938492717315595 -0.05614073208915888
-0.15377241951817822 -0.013022024977286068 0.12328319731191033 -0.01902282486613408 -0.03395204034160128 -0.04153897415052575 -0.06032266970365297 0.15876677919804805
-0.07324105187585002 -0.09278338086266515 0.036410190503626476 -0.011098143863063447 -0.03973067691725838 -0.014584945736280261 -0.24846795554747017 0.06745360689192274
0.0875497409933512 -0.004872496020912384 0.010363167155802454 0.01503789413559891 -0.04433236231680419 0.049507090597436514 0.044452367097286956 -0.1745082058129553
-0.07687643990052055 -0.0666038924383803 0.10362533713881907 0.003348589816042198 0.05190705338591897 -0.03492081819710749 -0.06313658881208944 -0.11878537727408361
0.08992173104674041 0.12213199388797183 0.051785835066847946 0.0620470289370197 -0.15345974269288026 0.012051945799224844 -0.17045458430787597 -0.0960732721431011
-0.2503315044272068 -0.20110695606119372 -0.036682299682233695 -0.07483443015595086 -0.21646136422738654 0.06778377538543494 0.031192146689286767 -0.03865624734386011
-0.10749363832364313 0.03490010814082609 -0.14680802084293376 0.0529665354419256 0.06576211103779205 0.023742058986206363 0.03238324728058226 0.034232748226446286
-0.07702811676217369 -0.3027301369030536 -0.028038567839322195 0.03408893402097366 -0.007975074780229428 -0.06251459604990527 -0.15030694303166653 0.07803548292837723
-0.032689399419880416 -0.08527362720208853 -0.17544418934092312 -0.001747360659570009 0.155761870190698 -0.11786373900095096 -0.10324178863600679 -0.10155924136069687
0.03795611757028864 -0.019691107496713604 0.10846545734819915 -0.05055272587218028 0.11014495730428914 0.010025416821473888 0.006703266314792408 -0.00017716955948586071
0.002552786419749752 0.11486644815107543 0.0818317564229122 0.11134824997436818 0.04245355233861244 -0.04723305364088019 0.004722844271524662 0.10455007965094264
-0.048978974873198876 0.10653619899728395 0.02475658240170674 -0.05447189635341651 -0.0244131506306664 0.09249586746310903 -0.007109024800935403 -0.026463198995815892
-0.021753102743609098 0.09609891798437797 -0.0380319390698792 -0.0458815093486666 -0.04887446964962895 -0.049672205154796555 -0.061030353045108 0.1286883639293731
0.011936802878376033 -0.07537822090695447 -0.03999817359792142 0.11249771624428266 0.008891919894292456 0.0162293148623108 0.10687369755210475 0.10990467630554941
-0.00031940407078834927 -0.07069035358074123 0.05896931002094227 0.10289909250592204 0.11272167777192763 -0.03502572586498583 0.06164996619099576 0.05248590191217674
-0.05523766205465004 -0.019602289515416274 0.08532243451084191 0.041471081337559175 -0.02775983403780978 0.10095903013759774 0.07414946742683229 0.11092286253119543

fc2_act.bias f8 [50]
00000000: 6dbf 163a 41ff f03f 1e22 8dd5 4720 bcbf
00000010: 501c 3bca e097 f03f 94fc 6a1d b4e9 f23f
00000020: 6782 d4db 47ba b43f 7530 fdc0 858d ee3f
00000030: 5730 4a3a 251f f13f 37ff ca03 5134 f23f
00000040: 5e4b e697 a676 f13f 9ef0 9cc7 cde5 ee3f
00000050: 6255 389d 78a3 f23f 712d c851 6cdf f13f
00000060: dbad f948 ec8c f03f a53d b657 1697 b1bf
00000070: 9832 61ed 4cab f23f e852 fc1e 1f1f f03f
00000080: 9c70 19d5 77af f33f b812 01b2 9454 f23f
00000090: 3e96 1c5b fe51 f13f b4b2 9cbf 7c51 f03f
000000a0: 5424 925e 50f3 f13f cc5e c7c1 1587 f03f
000000b0: 1494 be26 1fe9 e8bf cacb f806 5079 f13f
000000c0: 54f0 1aa8 2bc9 ed3f 522c 7ddd ecec f03f
000000d0: 357a 134b ec14 f23f 4174 2c22 388f f03f
000000e0: 33d8 e1a8 70de ee3f 2395 e6c3 a1a9 ec3f
000000f0: f1ff 5e79 fe5d f23f e3cc 9c35 d926 f13f
00000100: 1f94 1ad8 172a e73f 4984 edd7 c568 e93f
00000110: bbe0 5857 e3e9 c63f e840 88c4 57cd f1bf
00000120: 5533 3d6f 0444 f13f b3ea d399 3310 f33f
00000130: aa08 0418 39d7 f13f fa38 073a b8fe f03f
00000140: db97 f809 3636 ef3f ecee 6d3d 6c83 f13f
00000150: 8675 8b79 7ef2 f03f 6269 b847 c7ae ee3f
00000160: fdc8 24e3 a452 f23f cef9 05c7 e494 f03f
00000170: e4a2 9c23 cfb7 f03f deda ba0d c624 f13f
00000180: 827c 4b7e 3117 f13f 4fbf a07f 348e f13f
1.0623180646034271 -0.10986756290106611 1.0370796107906877 1.1820565365922322 0.08096741787859117 0.9547756928746042 1.0701038624711339 1.137772574249494
1.0914674695565831 0.9655522249882045 1.1649099484833063 1.1170466608626521 1.0344050264928828 -0.0687116588726356 1.1668214104312593 1.0075980387093129
1.230338890475685 1.1456496194161172 1.0825179633187783 1.0198943600509383 1.1219028181242452 1.0329797334178918 -0.7784572369315605 1.0921173355425133
0.9308069499306932 1.0578430797493366 1.1301081593188773 1.0349656424434814 0.964653329704339 0.8957070184884838 1.147947763543922 1.0719844907987912
0.7238883229043757 0.7940396516170348 0.1790126968860529 -1.1126325299301758 1.0791057915950735 1.1914554604433476 1.1150446832767025 1.0621874109961582
0.9753675646541028 1.09458564754362 1.05920264700339 0.9588352585590594 1.1451767800140822 1.0363509916638693 1.0448752776230146 1.0714779411625197
1.0681624349015526 1.097218035265502

fc3_act.weight f8 [20, 50]
00000000: c6a4 3fd5 83e2 c53f fc93 82a4 fff3 c13f
00000010: e0e7 a44e 65ce 633f 9daa b774 129f c73f
00000020: fae7 f24a 1d23 c23f 1d36 cb42 8fd1 ca3f
00000030: f43a 4d95 a4db 8cbf c276 9ce5 5b04 97bf
00000040: 3a45 4b6f 7e67 c53f 9a96 be0a 3b6f c63f
00000050: efe8 0dbe 2abf 8abf ae76 5ff4 9ad6 ca3f
00000060: 4899 7621 5901 ab3f 7f62 66ac ea2e c2bf
00000070: 52b4 eebd 12c2 be3f c5bc d0a4 4f48 a6bf
00000080: 5376 9c28 0963 d23f 4e00 1365 b364 c43f
00000090: 5c1b 2525 8e1f 983f 9c3f 6b96 71b0 bd3f
000000a0: 9dc1 d7b5 dac9 90bf 3e62 7385 9c4e 793f
000000b0: 3deb 1c4c 82e3 babf 0b3f b759 d6cb a83f
000000c0: debc 9ca7 86b7 b83f 94e7 1e2c 4525 c03f
000000d0: b7b4 292b 438c c23f 0091 d28b 4ca8 a0bf
000000e0: b6d3 677c 8bfa cb3f c13d dc0e 94df 913f
000000f0: 87ab 2441 672f ce3f 9e45 e30b 45f6 ca3f
00000100: 710f 3bb9 66a5 893f 9784 4f84 9024 d33f
00000110: 5e43 50b5 418d b5bf 4481 a357 04bb d3bf
00000120: 7095 0978 56fc c63f 9a1e a8a4 3625 aa3f
00000130: 4df2 8428 a401 cc3f b0ff 87fc 3cc6 ce3f
00000140: 0ad6 aac6 731e ba3f cdc3 fc49 0fb3 b53f
00000150: d2c3 466b a88b 8e3f cfaa 3c7e e956 c13f
00000160: b87b 9125 06f2 ba3f 50c8 10aa 1a67 aa3f
00000170: 230a 85f3 6388 ca3f ccd0 b6ff 0baa 8c3f
00000180: 3cf6 1269 0913 a83f db67 bf86 bbcf a43f
00000190: 5298 fada 5ed0 9f3f 4897 aee3 542d a6bf
000001a0: ac5f f379 fe46 b43f f767 344b 7ca8 8c3f
000001b0: a999 c9c4 a1c6 963f 2697 b103 48af b1bf
000001c0: 0f62 ec7b 89d9 abbf 2a03 5a1d ebb4 a13f
000001d0: d580 e702 98ef 863f 4c74 1953 10da bbbf
000001e0: a559 1829 a5fc b2bf a196 683a 6592 b5bf
000001f0: d483 804f cb13 a6bf 29b1 c51d 4bab ba3f
00000200: 305d c2c2 7fae bbbf 1dd5 0070 383a b33f
00000210: 6d05 238d 286e b3bf f25d 775a 6ced b3bf
00000220: 239f 833a 0b88 af3f d449 2561 1f9a 79bf
00000230: 1f31 9974 5ce8 b53f 3000 7908 ff48 aebf
00000240: fdad 256b a02d bbbf f188 c306 e518 9abf
00000250: 3c58 4797 c3bd a53f 8e02 40a2 7190 abbf
00000260: aedf 521c 1ea7 7dbf 4579 a34a 11f9 7ebf
00000270: 3d60 c9a5 5c36 a63f 7cf2 30b6 9aab b1bf
00000280: 4596 e7b6 3128 bbbf ffcd f2e3 35e3 afbf
00000290: e691 e526 c186 69bf 674b 7ce2 a01c c0bf
000002a0: dbb6 52d3 53e5 aebf efa3 55a1 870e abbf
000002b0: 0712 adb2 e0bc 9c3f 1f91 cf49 1963 aabf
000002c0: b5e1 75b6 04b8 babf 3e1e 5c3e 9bd0 b9bf
000002d0: 6f05 04fd 0f99 b0bf fa99 3a37 510f c0bf
000002e0: 64ef 4a03 2e9c b63f e26f 6403 bf6d b73f
000002f0: a6df 53bc 87cf b63f 7128 ecc4 11a0 9bbf
00000300: a359 c5ba ef08 90bf 7f0b 34ea 390c b5bf
00000310: 79e4 4ae2 fe61 993f 2777 f607 af77 c0bf
00000320: afa2 027a ede8 c2bf 8b81 45cf f076 8f3f
00000330: 4f54 70a2 44d9 c3bf fd84 242d ee4b a6bf
00000340: 9f89 cd12 d298 c0bf 3085 7c6f c91e b33f
00000350: 62b9 50cb 0d5d 973f 76b9 6a1a 6e7e a4bf
00000360: 0565 03ed 42ba a43f af5c e4cb 8e4d a03f
00000370: d501 c26b 8d82 bbbf b147 2401 b7e1 bc3f
00000380: d1d1 f04e 9e50 98bf 6c32 64cd e680 94bf
00000390: 89a4 ea93 9e96 95bf f184 9b00 18d7 94bf
000003a0: a95e 6c91 05ed 60bf 9267 877b 118b b6bf
000003b0: a68b f640 8bc0 adbf 9355 8791 cd30 c2bf
000003c0: e4d0 4f9e 5dc0 7b3f bfeb f62d cec6 82bf
000003d0: b61c 3486 790b c03f 3a8a d458 43a0 8b3f
000003e0: 2765 bd0f 4f13 a5bf a8a1 262f 3e35 a23f
000003f0: 6f4f 2941 99ba 8cbf d548 dbc4 be56 bcbf
00000400: bd10 dcaf 23be a63f 24d5 528f 0243 a33f
00000410: ffa9 186c e92f bd3f ce32 82ab 3df0 c3bf
00000420: 297c 304e 6586 98bf 9d39 ef7d d1cb ae3f
00000430: 58a9 7939 cc77 be3f 3b60 f1b4 623f bc3f
00000440: 38db 4bfe cf9a b43f 8be8 70c9 111f b13f
00000450: 2c09 fc88 a97e aabf 3f13 068e 2155 c03f
00000460: 942b 59cb ed1b bd3f b959 fc69 9659 b43f
00000470: 7b27 5c7d 4026 b0bf 58b3 26ea d139 a3bf
00000480: 64ab 7b6c c4f2 adbf b941 9d42 1e10 9bbf
00000490: f595 4446 229a b4bf 1a4f e902 2f3b bd3f
000004a0: bd55 5ef4 3559 b33f 0b9e ac5f 5dae b2bf
000004b0: 6cc4 b7fb b2ed c13f c3fa 0b0a f14a 9bbf
000004c0: e9a9 d320 aad4 b0bf 3c6d 809e 5fc6 c13f
000004d0: 8072 f119 e1fb b53f 9d11 1616 8f00 ba3f
000004e0: ea60 728d 0a68 9b3f c163 4aeb 9ffb b43f
000004f0: 116b 046f bb2c adbf 6ac5 451b 5769 6ebf
00000500: 037f 7dbe 5165 be3f d96b d7ec 660c c0bf
00000510: ce07 f58b 99fa a6bf 7b10 d29a bf64 c43f
00000520: c6c1 8d8c 7a1a b73f 33b7 644c 0aff bdbf
00000530: 5419 757c e4e3 a7bf 5bc8 575f c288 b23f
00000540: d35b 6ab9 4cbe adbf 4efa 1e72 2665 b9bf
00000550: 213a d97c b6fb b43f de82 a631 651c c23f
00000560: ae10 1464 db90 aa3f 1db1 6a1e ea36 bbbf
00000570: be4a 5930 157e b5bf 9210 efa0 1a19 bc3f
00000580: 5643 9f95 9447 bfbf 1357 6e82 05ea b43f
00000590: 66ad 5078 6a04 afbf e10f fd9d 670a 793f
000005a0: be21 df8f 1d73 b03f 64b8 0e5d d103 a33f
000005b0: 6dfa 3089 6bbd b03f ddca 0809 a58d bc3f
000005c0: 3b5d b29c 4690 babf 03be c0ff 247a b0bf
000005d0: 6df5 7b4c 9fe7 bcbf ab9f 22a6 a9d1 a4bf
000005e0: bff9 4589 bc5e bb3f a8eb 7eb8 6380 ba3f
000005f0: ce07 e54d 4653 c2bf d904 aa9c 0d13 c0bf
00000600: 35c5 5647 6015 bebf 0d1d 47cb 014a bcbf
00000610: 360d aa2a 601d a1bf 89e0 224f 2e9c 993f
00000620: 6d7a fe7b 32b8 b5bf 15b6 722b 8b95 babf
00000630: 0fec 7291 64d2 c4bf 297f 98c8 0451 bb3f
00000640: 21dd f0be a34d 8abf 36f0 1c8b 727b 81bf
00000650: 1226 2679 61d6 c0bf 5bd2 2775 5d94 603f
00000660: d04e dfc8 4c06 b8bf 40dd 9d13 0f54 a03f
00000670: 7a90 7924 41aa af3f 80af 7304 b95a c2bf
00000680: cde6 c10d 13c9 bebf 6bd1 8744 8ee0 a0bf
00000690: 7146 c78d c5ba 63bf d898 30b3 aac0 91bf
000006a0: 44dd 4e31 b22a c0bf 0350 48af 8773 603f
000006b0: dc82 76c7 62c8 aebf fe50 6213 d8fd 8ebf
000006c0: 2c53 a098 4c62 b2bf 501a 4397 084d b13f
000006d0: 71b3 bb55 4a1e c1bf 9767 7ca2 7774 b73f
000006e0: 779d ac1b 1d3d b43f 1201 1cb0 ee03 b3bf
000006f0: 4d33 1f5a 2bce a23f 53c9 9fb9 3457 babf
00000700: 4b5b ca42 5629 acbf f3c7 ad30 567a a13f
00000710: f7ce ac98 5eae bc3f 7ad1 4192 85bb bb3f
00000720: c5ec a08e 76b7 b83f 8784 afba 292a b7bf
00000730: 1799 1ef5 b834 a83f 4f49 a763 6409 98bf
00000740: 3342 b392 55b1 b63f 10b4 3487 f0ad 7f3f
00000750: 40db 5547 e5de bc3f 9dee f43d 58fe b4bf
00000760: e0e4 28ff 43ed bbbf 8f36 f10c 6a7f a3bf
00000770: 8ceb 1838 b90a b93f 60fb 9547 7afb 57bf
00000780: ad59 c0e3 f115 ad3f 800a 1c03 25eb ba3f
00000790: bba4 e32d 6afd a4bf 63c0 2e67 2fbe bebf
000007a0: d6bb c6b4 fa75 adbf 7067 04d9 87ea babf
000007b0: 8d90 6ed1 237e af3f 531b b0bd 3197 853f
000007c0: f706 a4ef 432e bc3f 9805 96af e0bd b33f
000007d0: d249 8b25 68e5 c0bf 11d7 1205 be73 b6bf
000007e0: 3db6 e78e f735 b1bf d601 6b45 2cbe a43f
000007f0: b9b6 a39c 52b0 c03f 70ca 7e7e e7b3 943f
0.17097518837480247 0.14025874645918168 0.0024177530914615136 0.18454199503988358 0.14169660720455096 0.20952025185981507 -0.014090810591054638 -0.02247756565986126
0.16722088274267738 0.17526948952324944 -0.013059934544561417 0.2096742337443422 0.052744660696861845 -0.14205678384748308 0.12014882218382297 -0.04352043997675418
0.2872946640580711 0.15932314334168257 0.02355787374224448 0.11597356722199809 -0.016395013188174812 0.00617848530892978 -0.1050340114424388 0.04843015523112911
0.09655038444610706 0.1261373963769158 0.14490546805919788 -0.032534019535235714 0.2185835225533574 0.017454446227075374 0.2358216350633848 0.21064055519540842
0.012522509124557964 0.299106721124255 -0.08418665577506831 -0.3082896095129579 0.17957573758318857 0.05106516609162988 0.21880008676989107 0.2404247506201478
0.10202716446186613 0.0847634845383844 0.01491481377965612 0.13546484626689057 0.10525549332804374 0.051567872295337325 0.20728730574235596 0.013996213666225187
0.047020238949226884 0.0406473733889496 0.031068307986651007 -0.04331460265465964 0.07920828320800294 0.013993235631051688 0.022242095600086085 -0.06908083048037081
-0.05439405095802751 0.03458342297836332 0.011199176396019453 -0.10879613903803537 -0.07416755917834068 -0.08426506687154724 -0.04311976762279071 0.10417623020993418
-0.10813139443267938 0.07510712370352164 -0.07589963384363836 -0.0778415413727698 0.06158480729373952 -0.006250498367381192 0.0855767998375012 -0.0591506669848062
-0.10616495719812487 -0.02548559049399385 0.042463409630429244 -0.053836394363320314 -0.007239453906713251 -0.0075617480708543615 0.04338349841845044 -0.06902472446467728
-0.10608206477589828 -0.062280353618373134 -0.003116013765224179 -0.1258736711393695 -0.060343379541661434 -0.05284522861877138 0.028064261346360222 -0.051537313709362424
-0.104370398088469 -0.10083933136422105 -0.06483554770604426 -0.12546744534229487 0.0883206136740547 0.09151834328480349 0.0891041598114258 -0.02697780384463794
-0.015659089827147487 -0.08221780746320738 0.024787886201668805 -0.12865245713049342 -0.1477333875420945 0.015363580060409962 -0.15506799632626886 -0.04354805279786864
-0.12966371458157952 0.07468852016292682 0.022815909895308358 -0.04002708504173118 0.04048356192806505 0.03184171904484267 -0.10746082192236568 0.11281913545488355
-0.023745034759672216 -0.020022970472427223 -0.02108238008319011 -0.020351767575339023 -0.002066145777813795 -0.08805951371996759 -0.0581096188355084 -0.14211434942141618
0.006775251099487376 -0.009168253686643866 0.1253501801768146 0.013489271305450069 -0.04116293971191914 0.03556246114323197 -0.01402778368097987 -0.11069862657612657
0.04441939851497654 0.03762062072329744 0.1140123261363115 -0.15576907038157234 -0.023950179002096093 0.060148760435924965 0.11901546862796886 0.11034218709517145
0.08048725088506792 0.06688033264154762 -0.051747606250517414 0.12759799418213366 0.11370741095121978 0.07949199760000782 -0.06308367786928486 -0.037550506432444564
-0.05849279236084362 -0.026428673568547476 -0.08047689643407081 0.11418432065084652 0.07557999816920975 -0.07297309480474483 0.14006650248441888 -0.026653066862304408
-0.06574500371394944 0.13886637915934752 0.08587462314012306 0.1015710286065485 0.026764073260523803 0.08196448797606505 -0.0569819043177714 -0.003712339525173182
0.11873351002349967 -0.125378480572947 -0.044880674681294516 0.15932459888074732 0.09024778300750488 -0.1171728550441145 -0.04666055697684848 0.07239928081233542
-0.058092496522639835 -0.09919967924268144 0.0819658331686033 0.14149155544602982 0.051886421171759664 -0.10630667917820742 -0.08395512037649674 0.10975805691765775
-0.12218598034747905 0.08169588503218632 -0.06058056563082452 0.006113438372100406 0.06425652277460522 0.037138502702291715 0.06539032077214708 0.1115363261276729
-0.10376397443393597 -0.06436377757994909 -0.11290927521982548 -0.04066209939020323 0.10691431380653336 0.10352156881610475 -0.1431663399071667 -0.12558145665756262
-0.1175136732261038 -0.11050425732456777 -0.0334272434311295 0.02500984533318776 -0.08484187628935454 -0.10384435473198324 -0.16267068006513383 0.10670499703746529
-0.01284339834647469 -0.008536238546746327 -0.1315423814342443 0.0020238709778317827 -0.09384612945660398 0.03189131845914028 0.06184581346750036 -0.14339363782289283
-0.12025565229296405 -0.03296322428278383 -0.002408395621593944 -0.017336528002623947 -0.12630298049564648 0.002008214005636334 -0.06012257275438568 -0.015132606593660555
-0.0718124268172004 0.06758168881342752 -0.1337368887538122 0.09162090031568791 0.07905752111093088 -0.07427875327630698 0.03672919726486743 -0.1028931573089598
-0.055002875950938966 0.03413647979949976 0.1120356676809101 0.10833010502557797 0.09654942495483272 -0.09048710639719292 0.047277240678612546 -0.023473328192104955
0.08864340621517712 0.007734241068914308 0.11277611724459025 -0.08200599205604893 -0.1090891359280195 -0.038081468658316735 0.0978198778110892 -0.001463765538886462
0.05680805115860053 0.10515052152553928 -0.0409959012047891 -0.12008949536425599 -0.05754073578588474 -0.10514115379592481 0.061509246173302314 0.010542286492648911
0.11008095360378066 0.0771160534550489 -0.13200094063956996 -0.08770358680598302 -0.06722972144026414 0.04051340434444099 0.13038094185269758 0.020217530341776813

fc3_act.bias f8 [20]
00000000: fd3e 1cc6 63cc eb3f bb7e 3f6f 3ad1 b0bf
00000010: ed5b 5a6f 4923 bf3f b8b8 c4cc bf10 b13f
00000020: f726 229c 0687 92bf 2250 0ae7 4370 c4bf
00000030: 0e65 e2da e9d5 bd3f 1743 95d5 b865 bd3f
00000040: 3459 a47f b3dc ee3f af7b 6298 05b7 ec3f
00000050: dff6 778d 9a76 a5bf 9d82 286f 5e94 9c3f
00000060: 22ab 004b 8d70 ed3f b707 0751 7889 a03f
00000070: ef5d 8bf9 9e70 eb3f bac4 3a3e a6f3 f03f
00000080: 3293 34c0 17a0 f33f 30bb d391 72ba ed3f
00000090: ceb9 ff21 9fe2 ef3f 175f 9008 5061 f03f
0.8686999196379187 -0.06569256988540932 0.12163218468263866 0.06666182278852062 -0.018093207625986953 -0.15967606335891654 0.1165453109155303 0.11483340467863133
0.9644410603530447 0.8973415352119128 -0.04192049958144905 0.027909732374726038 0.9199892487425567 0.03229881276230578 0.8574976800836661 1.0594847136347156
1.2265851505300813 0.929009709185129 0.9964137710610943 1.023757966473516

fc_q.weight f8 [3, 20]
00000000: e3e2 50c8 64a9 cd3f d65a 1d85 8110 b6bf
00000010: 6e46 9065 dcb9 b93f d157 1fdb 817f ad3f
00000020: e6d4 4653 3513 84bf 5ea3 e396 9d89 a03f
00000030: a33c 5b8a d3e2 bebf 40e9 2ef7 2c37 cabf
00000040: 2ed3 d675 896a af3f 675d e373 b9be ca3f
00000050: 818a a483 190c b5bf cddf b85c a055 993f
00000060: d330 9446 3578 ca3f b1c2 9a06 9a39 b6bf
00000070: 3d3c 2b84 28d2 d23f 3b7c 95dc 21ec cc3f
00000080: 576d 0d11 4a7b 8fbf 8ef0 5bf2 e511 d23f
00000090: b9da ac20 6515 d13f 15da b4fb 76b3 96bf
000000a0: 4906 d6b2 c932 c33f 4326 413d cb44 7d3f
000000b0: 6b5d 6b1c 0cf6 a0bf 31b9 33ad 7ce0 c3bf
000000c0: 849e 3abb febb c0bf aaf2 4354 e4a1 c6bf
000000d0: aa5e 61e4 d9f9 a1bf 866d bb01 f682 c73f
000000e0: 7337 85b1 247d c43f ccff 6f54 4602 a83f
000000f0: 9987 841d 1234 8e3f 52c6 4bbf 91fc 903f
00000100: f3c5 2ea6 1e47 bb3f 4c54 3b20 1943 b9bf
00000110: 7ccc 955a b178 c23f db1d efc1 cab9 ba3f
00000120: f87b 64de 1111 d43f 4e1e 4672 1baf c13f
00000130: d2c8 40fe 4300 b83f 1cad 7c14 951f c03f
00000140: 1131 d0f1 b739 b53f bcb6 1bca 43bd c2bf
00000150: 57df 04e2 60e9 c6bf d88c e941 a06c cc3f
00000160: 7ba9 c6fb 97e2 b4bf 4650 56cd 2031 b23f
00000170: 6927 7958 4de0 95bf a135 b7bf f5e0 b8bf
00000180: d9e2 f528 6271 cc3f 95c4 c8cf d661 d33f
00000190: 6584 12aa 4525 69bf 31b0 77b3 c2b4 c0bf
000001a0: fc93 3b3e db9c c33f d3be 439b df84 c0bf
000001b0: 9543 d4b3 167f aa3f 1e3c d33f 0722 c83f
000001c0: c8f7 5f48 2e49 c73f 5d7a ce8c da89 85bf
000001d0: 64e2 a51f 151a c23f 3290 599e cbaa d43f
0.23173198491146882 -0.08618936061734969 0.10049226264552555 0.057613428114265404 -0.009802261928465627 0.03229992358121224 -0.12064859512178087 -0.20480882710928405
0.06135968745676333 0.2089454475269392 -0.0822158762353329 0.024740701350509476 0.20679346033319365 -0.08681643162959564 0.29407704264753304 0.22595618506145052
-0.015371874471091713 0.2823424212254019 0.26693084898890224 -0.022168978798811596 0.14998742325046724 0.00714568510381636 -0.033127191991009074 -0.15528830010539132
-0.13073715345420933 -0.17681554903528723 -0.03510933792921141 0.18368411144807 0.16006907146441626 0.046892354781448015 0.014747754598434958 0.016588475514203012
0.10655395085520762 -0.09868008648784715 0.14430825160124872 0.10439746126859666 0.3135418578912659 0.1381563480356242 0.09375405270910456 0.12596381664602851
0.08291196492809073 -0.14640090340201606 -0.1789971450432357 0.22206500261663709 -0.08158254525065971 0.071062135821479 -0.021363457226733305 -0.09718261652525097
0.22221018791221672 0.30284662524634004 -0.0030695305473078965 -0.13051637423575493 0.1532243780012833 -0.12905497628479753 0.051750859691430375 0.18853846184217188
0.1819208005326216 -0.010516841337275535 0.14142097516357233 0.32292452300885366

fc_q.bias f8 [3]
00000000: 3589 ebd1 72ea e73f f979 5391 611e f13f
00000010: 6338 bd85 aee2 ec3f
0.747369203567621 1.069917266540527 0.9026711093990908
