weights/numdreg_ad/gspc/correlation/high/numdreg_ad_pretrain.pt (torch, 263419 bytes, 14 tensors)

fc1.weight f8 [100, 200]
000000 0c 32 5f f2 b0 a2 80 bf d5 79 cb 36 a1 2e ac bf
       -0.008122808834650129 -0.05504325670129943
000010 ef 69 94 83 d8 7d 9a bf 84 1b a1 23 57 5a b3 3f
       -0.025870688467969968 0.07559723491531939
000020 a2 08 38 c4 71 1e cf 3f bb 2a b3 d9 27 68 cb bf
       0.2431165893650063 -0.21411607866169455
000030 b2 2f 49 d3 f7 8e 9e bf ae 25 da 8e f1 43 ca bf
       -0.029842254896990723 -0.20519847369386696
000040 86 6f cb b6 95 91 97 3f ad 8b 42 a7 73 13 c7 3f
       0.023016299516583703 0.18028112093915408
000050 03 fd 24 b0 e0 8a b2 3f 56 a9 03 5d a7 55 d7 3f
       0.07243160534288866 0.36460289081027975
000060 de db b0 92 bc da b3 bf 62 22 dd 85 b3 b9 af 3f
       -0.07755640584296894 0.06196366318778669
000070 3a f4 d3 49 00 03 b2 3f 98 ae e1 45 45 5d c3 bf
       0.07035829355659554 -0.151283892747746
000080 70 6e d8 d9 76 df be 3f 9f 32 58 ff 66 c2 9e 3f
       0.12059729403011388 0.0300384610509804
000090 79 0d 34 c6 d4 1c c1 bf 3c 9e 2d 53 e2 a1 a4 bf
       -0.13369235685250283 -0.04029757752760729
0000a0 d4 f4 36 51 c2 a6 c1 bf 53 78 84 65 e0 fb ac 3f
       -0.13790158238945216 0.05660916556574649
0000b0 30 fa 78 e4 bf 54 cb 3f fb 42 f6 a7 dd 9b d2 bf
       0.21352385192763412 -0.29076329615149604
0000c0 b8 92 db 49 02 fc b7 3f 3e ca 8d 1d 00 ed b4 bf
       0.09368910124937713 -0.08174133988885843
0000d0 aa 36 e1 c4 f5 82 b2 3f ac ab 66 2b 30 b9 c8 bf
       0.07231079155573164 -0.1931514942092155
0000e0 16 55 94 83 c5 44 c0 3f 49 55 25 39 ef 3f b6 3f
       0.12709874081398514 0.0869130625263398
0000f0 78 78 f3 ab 4e 1c b5 3f 58 8e 3e 32 e3 43 c2 3f
       0.08246318529151775 0.14269676163995615
000100 59 64 5e a1 79 ab c1 3f b6 cf 5d 4f f4 be b0 3f
       0.13804550532657592 0.06541373193414199
000110 7e c5 8a ea e9 a5 cc bf 67 ee ac 8f 93 f6 c7 3f
       -0.22381328537225537 0.18721241488843818
000120 ed e5 24 ef 37 2a a0 3f c9 15 65 3c 7f 02 6b 3f
       0.031572101538085075 0.0032970891071808267
000130 de 4d f0 45 a0 0f 9c bf 55 b0 ee 6a 9f 73 8f 3f
       -0.027403358715742836 0.015357251597230151
000140 8b e7 35 e1 68 30 85 3f 5e a0 be ab 39 f6 c5 3f
       0.010346240399247161 0.171576699123082
000150 ed 2c e1 23 87 31 ce 3f 82 ae e2 b8 c0 06 a9 3f
       0.23588647128995124 0.04887964493658804
000160 6f 23 e4 30 02 ed b4 bf 3c 87 93 e0 ae 02 a9 bf
       -0.08174146360046362 -0.04884859553727813
000170 7f dc 6b 56 07 6f a5 3f 6f 6e 86 67 33 de bc 3f
       0.04186270646999279 0.11276551511257947
000180 d6 ad 75 c7 dd 8d a2 bf d6 7a 27 32 11 da c0 3f
       -0.03623860416231721 0.13165488194405012
000190 d5 cb 56 e3 44 2b c0 bf 2c ed 9d 8f 53 ec 95 bf
       -0.12632046795405807 -0.021409326210670418
0001a0 fc d7 30 04 f3 10 c0 3f 83 3c 5c f5 c4 f9 a5 3f
       0.12551725105885214 0.04292121405716733
0001b0 b6 61 fb e5 f5 95 cd 3f 85 cd b7 9f d5 a3 ad 3f
       0.23113893251026035 0.05789058279688234
0001c0 f5 a4 44 3e a9 83 ba 3f 51 48 de 65 ea 58 c5 3f
       0.10357148905008613 0.1667759892848744
0001d0 b2 a7 69 28 69 09 c0 bf ba 57 bd a6 96 c9 c6 3f
       -0.12528719399716476 0.17802699224074364
0001e0 da 30 73 34 d0 40 cf 3f 69 86 87 04 8a 6b 9a 3f
       0.2441654449561444 0.025800854231312096
0001f0 4b 1c 02 55 04 4d 99 3f cd 7c db 66 72 ef b6 bf
       0.024707858742228955 -0.08959116946379027
000200 c3 41 df d4 73 63 86 3f bd 85 60 28 37 1c 9d 3f
       0.01093187802681051 0.028427945937556254
000210 51 f5 0a b4 0a b2 b5 bf 74 0f b8 98 a7 33 bb 3f
       -0.0847479524190551 0.10625693777552475
000220 d3 28 d0 89 e9 21 b6 bf c2 72 c8 5a 7d 9b b9 bf
       -0.08645496000841328 -0.100028834022349
000230 f9 98 13 dd a0 33 b1 3f 05 97 88 78 b4 fc a7 3f
       0.06719403645874768 0.04684986087185731
000240 8c f3 fb b7 f7 8a 8f 3f 36 b9 2c 8b fd e0 4e 3f
       0.015401778509380092 0.0009423482900723704
000250 e9 e3 73 79 f8 38 6c 3f 54 2d b2 a1 f3 3d b2 3f
       0.0034451344505410553 0.07125780770927764
000260 58 12 5e 12 b1 4e bd bf e9 10 59 dc c9 81 7d bf
       -0.1144819898455095 -0.007203854101650566
000270 ad b2 40 4c bc 43 c0 bf 16 7a f4 fb 59 34 a8 3f
       -0.12706712458875327 0.047274410253738505
000280 c0 d0 10 0e de 67 bd bf 82 c9 d9 2d 04 58 b0 3f
       -0.11486614077950019 0.06384302253153432
000290 e3 27 05 33 92 f8 c8 bf 5f 14 33 59 87 e9 c7 3f
       -0.19508578768937843 0.18681423049398213
0002a0 9f 66 0a 76 f5 35 a4 bf 2b 63 b8 e7 fd 9d b2 bf
       -0.039474173220878976 -0.0727232638095187
0002b0 3f ca 38 d7 f0 44 c4 3f 8b da ce 25 a0 6f bc bf
       0.1583539057624694 -0.1110782711319677
0002c0 64 6d 6b 97 ba 5e 54 bf fe d3 8c 43 63 d9 c3 bf
       -0.001243288248295859 -0.1550716476282616
0002d0 0c ff a2 30 b6 5b 5f 3f a5 5a f9 7a 10 8c bb 3f
       0.0019139556120961214 0.10760596277519115
0002e0 b0 75 2e 7d 44 b0 c7 bf 53 57 ec 99 f0 dc ba 3f
       -0.1850667582738601 0.10493377454653556
0002f0 06 56 d9 dc af 49 8b 3f 38 4f 83 32 0b 98 c6 bf
       0.01332414047935072 -0.17651500669909992
000300 48 5b 60 2e 5d 30 c2 bf d8 ba 19 ea ec b0 b7 3f
       -0.142100951809619 0.09254341807693878
000310 c0 11 56 54 cb 04 9d 3f f1 31 8e 9b 22 56 bd bf
       0.02833860113379827 -0.1145955686353728
000320 dd 75 a2 07 6a 30 b2 bf 85 8d 35 79 a8 dc bb 3f
       -0.07105124174491757 0.10883572539528615
000330 f9 9c 3f ba ab 76 cd bf 90 1f ae b9 41 a3 a5 3f
       -0.2301840457359743 0.042261175075565593
000340 c2 9f 85 cf c4 c1 c0 3f e1 f5 01 b7 68 70 a6 3f
       0.13091335423382416 0.04382636293392373
000350 3b f4 e9 f1 14 71 ad bf d2 8e e8 1b 6f 9f 8d bf
       -0.05750337079096154 -0.01446425250930564
000360 fc 09 03 6f f9 f4 a2 bf 87 b5 04 83 3d 33 c6 3f
       -0.03702525596738224 0.17343872926123202
000370 a4 2b 6a be 3c 3e bb 3f c0 62 ba 69 30 6c c4 bf
       0.1064184155349453 -0.1595516697168673
000380 aa a1 d2 ab 39 9d d3 3f 45 07 e3 ca 0e 64 93 bf
       0.306471269412692 -0.018936377652387
000390 5c 5b 2f 38 ad f7 b4 3f 87 ca 53 aa 0a 46 a7 3f
       0.08190424558357051 0.04545625046911988
0003a0 94 4b 01 a8 00 02 d2 3f 47 7b 89 4b 63 e0 ad 3f
       0.28137222677940454 0.05835256859858489
0003b0 ca 35 3a 43 67 c4 c3 3f 25 78 02 fd f8 35 af 3f
       0.15443125517451356 0.060958653340307735
0003c0 56 73 ac 20 2f c5 c0 3f b4 57 ad 10 7d 71 a7 3f
       0.13101758094208077 0.045787723813801945
0003d0 fc 78 12 0d 9b df c3 bf 9f b6 4c 0e f5 b6 a9 3f
       -0.15526140344895356 0.05022397803837219
0003e0 1e c6 75 06 92 7e b3 bf 66 b6 e5 1f a7 02 b4 bf
       -0.0761500612041108 -0.07816547898047474
0003f0 12 20 2c ad f6 81 a3 bf 51 88 25 ec 77 24 b0 bf
       -0.03810091842575515 -0.06305646434114577
000400 95 14 3d 24 7b 3d b7 3f 70 93 9e 8b 3c 22 c7 3f
       0.09078187594157534 0.18073231522898991
000410 86 ea 55 63 e9 06 a2 3f ad 30 6b 4a 5f 8b b2 3f
       0.035208981872490816 0.07243915144789766
000420 4a f4 6e 7f e0 12 99 3f 02 aa 9a c9 47 b6 98 bf
       0.024486072328489684 -0.0241328446196949
000430 dc 5f b9 64 63 a6 c7 3f c0 23 45 d4 d9 99 aa 3f
       0.18476526659173842 0.05195503917872868
000440 8d 11 a7 a1 96 f9 ab bf e3 e3 35 38 58 65 b0 bf
       -0.0546385834054802 -0.06404639599158161
000450 b8 0a 5c ad 2e 06 b6 bf 21 8c c8 ae bd 33 88 bf
       -0.08603183491144761 -0.011817438026872353
000460 bf e4 7b d7 93 d6 c5 bf e0 3b e9 92 98 7b c9 bf
       -0.17061088582685177 -0.19908435033218463
000470 31 23 4e 69 80 42 c3 bf b9 00 5c 52 87 8e c8 bf
       -0.1504669679818789 -0.19184962769941707
000480 e5 15 c3 49 81 9f 8f bf 1c 64 ec f6 67 88 85 3f
       -0.01544095045427247 0.010514080260280827
000490 d0 e7 70 c8 5d b0 c5 bf f6 78 64 6f 34 b8 9a 3f
       -0.16944477355155962 0.026093310641152244
0004a0 65 71 8e f7 a1 c5 c3 bf f5 21 a9 f6 c6 4a c8 3f
       -0.15446877086368285 0.18978201908090822
0004b0 70 90 b0 ed 2f 2c b5 bf b6 ab cf 23 72 6a b0 bf
       -0.0827054934785012 -0.06412423490807737
0004c0 50 5f ec 8b 77 0f cc bf 78 f0 48 f9 ff bb a7 bf
       -0.21922201473420921 -0.046356200390136715
0004d0 6e 22 51 38 8e 1c cd bf e4 dc e0 e2 8e d8 7d bf
       -0.22743394613123108 -0.007286604070080947
0004e0 09 9b 5f 8f 2b 81 c0 bf 90 0b 6a 6a d8 15 b3 3f
       -0.12894196034104535 0.07455208395007973
0004f0 58 00 9a b6 7e 59 96 bf 6e 4f 22 9a f4 85 b0 bf
       -0.021825771231761187 -0.06454399836576183
000500 4c d6 b1 d3 38 b7 b4 bf cd c7 50 ca 5a 4f ca bf
       -0.08092074554755263 -0.20554671171845343
000510 36 00 25 be ac f3 99 3f d2 f9 7c df 44 4f 6f bf
       0.025343608003140804 -0.00382197810895877
000520 3e 07 cf 91 55 1f bc bf 1c 70 54 e6 cb 7a cc bf
       -0.10985312280447787 -0.22249745127271658
000530 ae eb 9f ef 9f e7 ac bf 8e a5 8f 2d 80 b7 cb bf
       -0.05645465660196379 -0.21653749680198725
000540 f7 f7 df 52 a1 ce b8 bf 24 cb a1 4f d1 1f c6 bf
       -0.09690292619049488 -0.1728459967449335
000550 89 d0 0a d9 2e 31 97 bf 0b 75 7d 78 78 09 d5 bf
       -0.022648555752951913 -0.3287030388508618
000560 71 2c cb fe 22 21 a7 bf 80 59 43 cc 59 17 88 bf
       -0.04517468796037683 -0.011763288065065991
000570 2b c5 50 15 a0 7a a5 bf ad aa 95 7b d7 70 8b 3f
       -0.04195118198584632 0.013398822268489619
000580 6a 00 23 24 a6 1e bf bf 5b 59 43 fc b6 48 a9 bf
       -0.12156141645664467 -0.04938289479621246
000590 ae 0b e8 43 1e 92 75 3f 5e 7d 23 05 5f 41 a9 bf
       0.005266302322072853 -0.049326867463373544
0005a0 d9 17 d3 62 18 f7 bb bf 67 a3 3d 27 d0 2d c2 bf
       -0.1092391244193033 -0.14202310482076116
0005b0 31 b8 1d 7d 39 2d b6 3f 3e 8e de 19 86 a1 bd bf
       0.08662757210342488 -0.11574590808464166
0005c0 bc 4d d0 1a f8 62 a0 3f c5 9e 50 41 40 51 b8 bf
       0.03200507476153855 -0.0949897918186436
0005d0 77 58 31 cb df 2d bd bf 56 8f 07 6d bf 97 c1 bf
       -0.1139812346530976 -0.1374434740420109
0005e0 16 1b cb fd ea 9f c8 bf 51 1e 5f a3 f7 49 65 bf
       -0.19238030807738288 -0.0025987469370852075
0005f0 b1 da 77 ff e8 02 ce bf 38 bc dc b1 f4 6d c7 3f
       -0.23446381067306768 0.1830430859058383
000600 fe ca c1 2e 8f 57 ca bf 90 d3 00 7c 95 fb cd 3f
       -0.20579709799820728 0.23424023203702093
000610 61 ff a9 a0 b7 1a 90 3f a6 b7 98 37 28 de c6 3f
       0.015726918393283443 0.17865469660449412
000620 75 43 bf 6a dc fc c7 bf b5 c8 bb 1f 3b 62 c3 3f
       -0.1874042054392039 0.15143527078141053
000630 34 20 25 fb 0c 43 81 3f 84 24 25 f2 eb 17 93 bf
       0.00842867032464776 -0.01864594140468913
000640 7b 96 9d 8b 42 23 ca bf 9d ee 52 27 54 09 b7 bf
       -0.20420104806105485 -0.08998609504754503
000650 ba 4d 0d 59 12 15 92 3f 9a d6 aa 8c e1 0a c3 3f
       0.01765850704698633 0.14876956337473218
000660 ac 48 f8 cb cb 09 c6 bf 66 91 04 38 32 ac 9c 3f
       -0.17217395266977087 0.028000626248414838
000670 52 fd a2 c9 4c 59 be 3f 3a 39 b8 b1 c2 a8 aa 3f
       0.11855010912676292 0.052068790621080344
000680 de cc a0 24 53 b2 ab 3f 6c 10 e1 f2 9f 9e a4 3f
       0.05409488508339576 0.04027271118005235
000690 17 36 2e e8 4c cb c5 3f e1 3f 15 3b 5d 04 cc bf
       0.17026673638285736 -0.21888318428909684
0006a0 87 9c 8b 95 01 30 ca 3f f4 01 8c ff fc d9 9c 3f
       0.20459003259677308 0.028175309274049057
0006b0 95 1a ee c4 6f 37 88 bf db 0e fa 3f 0a d3 9d 3f
       -0.011824486920670988 0.029125366358598064
0006c0 e8 fd 7d f7 30 dd bf 3f e8 4c b2 d5 82 07 92 bf
       0.1244688610295196 -0.01760677747058717
0006d0 f9 bb c2 85 74 3e c2 bf 0a 42 10 0e ba 74 8b 3f
       -0.14253098040850867 0.01340623240869922
0006e0 50 2f d0 d3 00 a5 a5 bf 2b 7a c2 75 51 e9 93 3f
       -0.04227449975596065 0.019444725811462654
0006f0 4c d2 b4 54 29 3d b4 3f 17 c2 96 80 ed 4b ae bf
       0.07905824964547853 -0.0591730327099677
000700 93 26 aa a2 be 25 be bf ed e0 59 3e ed 3a cb 3f
       -0.11776343795113524 0.2127358011673616
000710 96 af e0 b7 7e e5 ad 3f 55 55 4e 81 9a 44 bd bf
       0.058391532846456304 -0.11432805687794219
000720 b8 12 c4 93 a0 f7 82 3f 24 e5 86 fe 97 a4 9f bf
       0.009261374005754205 -0.030901312742320233
000730 4f 6a d5 7a 94 d4 b1 bf 0f 4b f5 c7 a7 35 c9 3f
       -0.06964996336811534 0.19694993270476188
000740 6e bb 31 b1 b0 be c7 bf 5f c1 f6 7f 31 fb bb bf
       -0.18550690319122104 -0.10930165647619593
000750 4e 6b 02 e7 32 07 c2 bf 36 04 d7 4c 35 e1 a2 bf
       -0.14084469108351033 -0.03687445223796042
000760 50 cd fa 67 89 5e ca bf 6b f8 31 d4 3d b0 9d bf
       -0.20601003243573723 -0.028992620540968888
000770 11 d6 30 1c 69 f0 cd 3f bb ea 85 3d 38 6d c7 bf
       0.2338992488527514 -0.18302062038477182
000780 50 a7 d8 1f a3 e6 c3 bf e0 13 d7 02 d7 fd cf bf
       -0.15547598891253722 -0.24993407858542493
000790 91 ef 22 02 d0 cb c6 bf 6a 6a 55 e4 57 e3 b0 bf
       -0.178094864886472 -0.06596898388435482
0007a0 99 53 0f de 34 95 a6 3f bd 22 79 2a c6 ec b5 bf
       0.044107105357091565 -0.08564413582747483
0007b0 57 8e eb 3f 14 0c 85 3f c4 d7 06 ad 13 ce a8 bf
       0.010276945305526626 -0.0484472416605253
0007c0 99 84 77 c3 82 4a c9 3f 1c fd 8d d2 47 a2 bf bf
       0.19758638901024453 -0.1235699547814772
0007d0 a3 e5 ec 34 34 65 d1 3f 99 32 fe e9 4f b0 d1 bf
       0.2718019978379635 -0.27638624049067456
0007e0 e4 e0 29 04 67 7c 5b bf bd f3 a4 33 6b 9b b7 3f
       -0.0016776090639308234 0.09221525202606436
0007f0 f4 5f 26 d9 59 f6 be bf 49 e5 b4 1f f6 23 a4 3f
       -0.12094651748191138 0.039336863871037915

fc1.bias f8 [100]
000000 fe fe 37 fd 68 94 7f bf 03 12 9a 03 61 cd b4 bf
       -0.0077098942888367255 -0.08125883424697382
000010 16 dd 30 7b f1 0a cd 3f ab a0 f4 eb fd 48 46 3f
       0.22689646258525248 0.0006800880291040386
000020 a4 bb b0 b9 f8 15 e1 bf 5e 56 42 07 9a 35 ab bf
       -0.5339320780529886 -0.05314332331287795
000030 ce 3f 12 fc 0d f2 bb 3f 2c bd 3a d7 50 d8 ba bf
       0.10916221050342687 -0.10486321692109318
000040 9d 98 76 93 c9 57 c4 bf ac 32 d5 fb d9 ab a4 3f
       -0.15892905903200907 0.040373622885998856
000050 ee c4 c5 c4 91 82 8e 3f c8 06 ca 3e 21 89 d9 3f
       0.01489747888328671 0.39899474269632806
000060 e4 97 df 5e 90 51 c3 bf 05 23 1f 92 03 10 bc bf
       -0.1509266341446952 -0.10961935346052705
000070 56 35 aa 60 b5 17 71 3f ec 48 f3 64 01 4b 79 3f
       0.0041730008184804514 0.006175046393041433
000080 17 a7 38 b7 f9 21 e2 3f fc a4 76 09 3b fc d3 bf
       0.5666473940411575 -0.31226993488469623
000090 20 c6 8c e5 5f 31 9a 3f 1c d0 13 5e 68 e0 64 3f
       0.025578974137891675 0.002548412173036153
0000a0 be 4f c5 1b 9b 55 b7 3f 92 88 b2 36 0f 7a 9b 3f
       0.09114999225613382 0.02683280726763166
0000b0 e7 e4 8b d3 ca ad 9c 3f ae d8 96 87 f9 b5 c5 bf
       0.028006714975138982 -0.16961592789238494
0000c0 6c 8e 16 86 96 5b db 3f 84 8b ed bf af 01 c8 bf
       0.4274650868848997 -0.18755146857719407
0000d0 41 fe 25 fd 6f 1e bc 3f c7 7f 07 fc 21 bf be 3f
       0.10983943872815251 0.12010395434435771
0000e0 d3 3d 88 7e 7f 6d c5 bf 53 22 ff 2d f4 89 c8 bf
       -0.167404114516542 -0.1917100166886195
0000f0 a0 86 e5 1b 0f ea dc 3f d1 75 64 05 53 07 c4 3f
       0.4517858288219063 0.15647351992895023
000100 04 10 c4 99 85 7a c2 3f 82 1b 89 0c 58 0a d3 3f
       0.14436407096957293 0.29750634407212584
000110 88 ca ad 40 77 01 9f bf 0c c3 7c 45 55 72 cd bf
       -0.03027902920025352 -0.23005166905343122
000120 64 89 b9 d3 07 58 b4 3f e9 d9 32 a7 63 6c c1 bf
       0.07946823996602387 -0.13612027801509832
000130 79 de 48 4d 4d be cc bf fa 0e 8b b6 a0 ac d6 3f
       -0.22455755494751253 0.3542863638542567
000140 60 cd ec 6e fd 76 be 3f 55 a1 b7 3a da 24 b5 3f
       0.11900314291124436 0.08259357388999906
000150 23 47 00 0d e4 11 a6 bf e4 96 81 0a 6d e0 ad 3f
       -0.04310524615006119 0.05835285905122392
000160 b1 aa d2 13 d1 1e b8 3f 18 b2 79 ac 65 65 c6 bf
       0.09422022565801559 -0.1749693958439742
000170 3d 3d 2e 83 f1 55 e2 3f 01 12 a0 79 11 1c de bf
       0.572991138660576 -0.4704631507632087
000180 38 0e e7 b7 a4 3a b5 3f 33 0f d8 de e0 5c d6 3f
       0.08292607774551974 0.34941884767634973
000190 52 af d7 51 58 3d d6 bf 57 56 8b aa b9 df db bf
       -0.3474942015879964 -0.4355301061126275
0001a0 38 72 5f c6 68 16 66 bf b2 05 61 8c 23 57 d0 3f
       -0.0026962324509283396 0.2553185339821439
0001b0 9e ee ce 16 bc 8c d8 bf 92 72 80 45 be 6b a1 3f
       -0.3835897658097823 0.0340251407471658
0001c0 fc 49 0c 93 12 69 68 bf b7 43 4e 4c ad 39 cf 3f
       -0.002979789999139058 0.24394766069283744
0001d0 8a f2 13 50 80 aa bc 3f bf b1 d1 55 6a 7d cf 3f
       0.11197664217974981 0.24601487341295855
0001e0 6d 8b a3 ba b7 a7 b2 bf 77 df b9 e4 1e 24 cb bf
       -0.07287166887867409 -0.21203981560006088
0001f0 73 ad a4 8d 18 95 cc 3f 02 b7 6d 3c 8c 10 d1 3f
       0.22330004612136242 0.2666349973795691
000200 fa cc 1a e1 b4 73 ab 3f a8 84 c1 99 95 d1 b0 bf
       0.05361714599475849 -0.06569800380522628
000210 6a d3 bf fe 4b 3a bc 3f 53 95 49 17 7d 23 be bf
       0.11026453942743122 -0.11772901361981285
000220 75 55 c1 e3 a0 94 e5 3f e0 aa 40 61 54 bf cc 3f
       0.67439312442245 0.2245889162889716
000230 1d 45 42 3e a7 64 cd 3f 6e 0a e6 ac 4e 3f d5 3f
       0.22963419475539917 0.3319889725172861
000240 28 2e 4a ca 38 59 c8 3f 00 00 4c 2d 3a a2 cf 3f
       0.19022283437185306 0.24713828288804507
000250 77 d7 fc 7f b2 51 b5 bf b8 14 10 74 17 65 9f bf
       -0.08327785134028241 -0.03065907140628063
000260 ce be c2 66 0b 21 a7 bf fe 67 73 04 f2 eb e6 3f
       -0.045173984808000264 0.7163019263200565
000270 34 69 34 7c 00 c4 d3 bf c6 c2 0c 64 54 5d bf bf
       -0.3088380062996692 -0.12251784746764391
000280 46 bd 27 8a 42 36 97 bf d1 3c c8 8a 9b 4c cb 3f
       -0.022667922670675432 0.21327537800286803
000290 4e f2 7e 5d 79 2e 81 3f bf 3f 98 fb 92 5d d2 bf
       0.008389423528449982 -0.2869613129596437
0002a0 c4 a9 d7 cb 3e ae c7 bf fe c3 b5 00 26 c1 d2 3f
       -0.18500504449123245 0.29303884572351524
0002b0 96 65 88 d5 54 e1 a5 bf 44 0d f7 af cb 3e e2 3f
       -0.04273476702310146 0.5701654850785549
0002c0 c9 db 7f 0c a8 4b ca 3f 80 c9 20 a3 c4 62 d0 bf
       0.2054338513405283 -0.2560283272788624
0002d0 bf 76 f1 84 43 30 c7 3f 2c ee 87 5a 20 fb c2 3f
       0.18116039267891001 0.14828876896341237
0002e0 15 1b 52 e5 f1 05 d0 3f 2a 60 c9 bd ee 55 dc bf
       0.2503628482303822 -0.4427449086556431
0002f0 8b 8b 66 88 aa eb d3 3f ab 7a 01 b1 dc b9 cd 3f
       0.3112589199101243 0.23223456042156462
000300 5a 26 86 0b 63 2f dd 3f 64 d8 c7 d7 2a f0 be 3f
       0.45601726651566354 0.12085216301042717
000310 78 74 dd 0e 76 fa 97 3f 61 7f b3 e4 b7 93 b4 bf
       0.023416371018687404 -0.08037900289082024

fc2_act.weight f8 [50, 100]
000000 b9 ee 64 45 6c 0c 7a 3f c5 d2 7b 38 de a0 99 3f
       0.006359503682968609 0.02502772540806821
000010 d0 f6 d3 54 26 9d b0 3f 7c bf f2 f4 2a 96 b3 3f
       0.06489791460986827 0.07651012878591062
000020 54 4c 25 b9 2f 17 ac 3f 3f a7 52 c0 1f 03 86 bf
       0.05486439833716675 -0.010748146111228983
000030 48 f8 48 0e e8 9b 84 bf a7 14 6c b7 a2 26 a1 3f
       -0.010062992988533762 0.0334978913215676
000040 f9 10 de 48 4b 08 91 3f 83 f2 ca a5 83 99 b3 3f
       0.016633201906658155 0.07656119153666378
000050 b3 21 c0 ed 1f 7d 9b 3f 3d f9 42 17 3f f7 93 3f
       0.026844500433101447 0.01949785785176882
000060 8a 69 8e 43 9e ae bf 3f b9 95 f8 f2 d2 33 84 bf
       0.12375821255992583 -0.009864471473586588
000070 61 8f 93 c5 b9 3a b4 bf 82 f9 db e0 f4 77 ac 3f
       -0.07902108262675035 0.05560269589294632
000080 81 71 9e 96 91 f7 a6 3f e7 c4 5c 3e 74 cf bf 3f
       0.044857549320314945 0.1242592479946044
000090 94 f1 c7 7d b0 0c a9 3f b2 e8 31 b5 e3 aa 97 bf
       0.048924937585954315 -0.023112829145681864
0000a0 1d ec 54 d9 11 7d b3 3f a8 1a bc 95 89 cf a4 3f
       0.07612716251325975 0.04064588501755867
0000b0 01 a2 df af f4 7b ad bf 67 8f 17 06 7b 70 b0 3f
       -0.0575863327683841 0.06421631716471908
0000c0 a6 90 ff a1 2b 9d 93 bf 31 ba 55 94 2e c0 a0 3f
       -0.01915424515017663 0.03271623192528173
0000d0 f0 14 d3 fd 36 de 95 bf b0 4b 8a e4 0c ed b5 3f
       -0.02135549473020587 0.08564835147471572
0000e0 fa ca ac f1 d2 04 a6 bf dd a8 2b 98 79 3d b9 3f
       -0.04300555420049608 0.09859428372479635
0000f0 50 05 e0 34 64 84 b8 3f f4 81 c9 40 c8 82 99 3f
       0.0957701329316667 0.02491295714787785
000100 93 00 d6 d2 f5 b4 b2 bf e5 fa c8 50 97 93 b9 3f
       -0.07307373425828904 0.09990831110279037
000110 d5 8b 32 f7 60 c2 58 3f cb 01 20 c2 7e e2 74 bf
       0.0015111872606119365 -0.0050988151069763605
000120 8c aa 2e f0 ac 29 9a bf 04 65 d9 30 1e 47 ad bf
       -0.02554960456806525 -0.057183211768185443
000130 15 c1 d9 c8 03 3e 90 bf 40 4e 98 77 09 f4 a2 bf
       -0.015861567624996093 -0.037018104409210384
000140 7d fa 72 97 e6 7e ad 3f 2a 52 10 88 84 14 90 3f
       0.05760880087608642 0.015703268818542927
000150 3f 7c 70 51 b1 9c c1 3f 82 ec 7b 51 80 be 97 bf
       0.1375943801549244 -0.02318764207209912
000160 c5 78 ab 54 aa f1 bf 3f a2 58 4c 4b 7a 69 a0 3f
       0.12478127066740104 0.03205473107497993
000170 38 4a d5 2b 12 08 b4 3f f6 0d 3a d1 82 53 92 3f
       0.07824815340180968 0.01789669420260328
000180 93 db bc 46 f8 5a c0 3f 13 93 dc 77 2f e6 b5 3f
       0.12777617887487888 0.08554360081013739
000190 b7 1b 5d 0f 32 14 aa 3f ac 8b 54 91 95 e9 b9 3f
       0.05093532979531495 0.10122046278097113
0001a0 22 08 e9 40 85 bd a2 3f 30 fb c9 7f 1f 42 b9 3f
       0.03660217683183499 0.09866520757530561
0001b0 69 92 86 e9 3e 45 aa bf 84 69 89 f2 b1 27 80 3f
       -0.051309553152610494 0.007888212408194269
0001c0 2e a6 54 00 a1 22 bb 3f 98 f7 41 f1 84 88 a0 3f
       0.10599714525292178 0.03229155964889613
0001d0 10 a2 06 ba b9 0f a1 3f 59 e9 77 bd f2 7f bc 3f
       0.0333231010038767 0.11132733464902368
0001e0 23 25 f3 5a ac 15 a3 3f 4e 71 95 2f 15 28 bf 3f
       0.03727472887255547 0.12170536433899778
0001f0 61 ab 99 ac 9e 00 be 3f 3d 13 61 b6 78 08 c3 3f
       0.11719695772050677 0.14869603066667905
000200 f9 0d 72 ce 2e f0 a6 3f 90 2a b2 5f fa c4 a7 bf
       0.04480119962775215 -0.04642469804919813
000210 58 44 76 0e a4 dc c2 3f 3f ab 5f 74 3c 09 80 3f
       0.1473584242453707 0.007830116559451759
000220 9d f2 6d cd 69 14 c1 3f 1c 8a 00 4b ad 93 b3 3f
       0.13343546419846045 0.07647212105852258
000230 f8 ba d1 ee ee e5 b5 3f bc 5a da 82 4e 81 2c 3f
       0.08553975420521087 0.0002174766863631462
000240 79 e8 e2 61 8a f4 a5 bf dc 95 1c 64 9a 21 ad bf
       -0.042881321381586575 -0.05689699623171027
000250 72 50 4d d2 9b 2f 91 3f c1 eb 34 1a f0 05 b1 3f
       0.016783175192657436 0.06649685516178662
000260 eb 8f 47 88 6f 55 a6 bf ca 1a d5 16 0e 42 b1 bf
       -0.043620572457967764 -0.06741416985924356
000270 fb 2e e5 e7 72 84 96 3f 49 9b 45 c9 81 85 b0 3f
       0.02198962726951857 0.06453715480675472
000280 a7 eb 9c 81 c6 5e 95 3f 94 51 86 d4 a1 bc b2 3f
       0.020869352017352984 0.0731907981738174
000290 19 bc 9a c4 4d 2b ba 3f ad 60 ba b1 4a cb a6 3f
       0.1022232632628718 0.04451974315196714
0002a0 1c 02 cc 34 31 ba ac 3f 39 34 f4 73 fd da 95 bf
       0.05610803384297844 -0.02134319324709486
0002b0 81 9e 12 f0 17 67 b6 3f 23 9b 2c 39 a5 84 82 bf
       0.08751058207655583 -0.009042063529319194
0002c0 63 8d d6 f9 17 82 90 3f 0b c2 14 a9 c6 90 af bf
       0.01612126791372982 -0.06165142835596179
0002d0 2f ad d3 5e 13 f0 85 bf 9a 77 c7 d9 51 aa ab bf
       -0.010711814242731236 -0.05403381141125792
0002e0 44 99 4a 4e 0d d2 bf 3f 47 78 8a 38 d2 8f 94 bf
       0.1242988887921444 -0.02007988424394849
0002f0 9e aa 2a 3b 25 fb 93 3f da 92 a6 57 66 60 9b bf
       0.019512731300589274 -0.026734923457882732
000300 00 e9 ef 19 7c 98 88 3f 65 71 f0 49 a2 ba a2 bf
       0.012009591619051907 -0.03658015396669859
000310 5e 2c 6e f7 75 31 af bf 96 ea 35 d1 af cd a1 3f
       -0.06092423100843612 0.034772390640644676
000320 b2 32 3c 94 0d a9 b0 3f 05 51 8e 89 ec 2c 94 3f
       0.06507954472562963 0.019702621360537815
000330 5a 62 58 74 86 d2 b1 3f 0e 99 d6 ed da 8b a9 3f
       0.06961860981426451 0.04989513543414335
000340 68 f2 60 10 ef 56 9d bf 62 f5 b2 42 d2 4a 66 3f
       -0.028651938795734827 0.0027212244654878795
000350 cf c9 d8 e9 de 81 a2 bf bc 7b 8d e3 59 ab 84 bf
       -0.036147085233455216 -0.01009245134053837
000360 49 a3 48 e8 7b 26 81 bf 37 a8 5a e3 28 4c c8 bf
       -0.008374183679806928 -0.18982421017909853
000370 9c 07 81 aa 85 00 a7 3f 13 ce d9 59 e1 ad c2 bf
       0.0449258585581582 -0.14593140494581344
000380 27 a0 6d 4b ea 57 9a 3f d2 19 cb 8a 13 7e b1 bf
       0.02572599492432928 -0.06833002222547371
000390 13 0b 52 a1 d3 7b aa bf cb 97 76 c6 d4 80 9a bf
       -0.05172597259754332 -0.02588207684825487
0003a0 14 6e fa 50 2c 45 c0 bf ba 8e c8 d4 b1 95 a6 bf
       -0.12711099580779772 -0.0441108295674701
0003b0 02 89 8c cf 12 81 bd 3f 58 a5 79 2a e2 26 b2 bf
       0.1152507549964277 -0.07090581452361755
0003c0 5e 0c 76 11 00 34 c0 bf d0 d0 b3 8b 3d 77 99 bf
       -0.1265869221934705 -0.024868928577192417
0003d0 88 c8 cf 79 ad f8 a6 3f b0 0b b6 a8 34 14 98 bf
       0.04486600982626593 -0.023514578625974003
0003e0 07 fd 31 fd 79 d9 b1 bf b7 35 3a c7 79 6b a6 3f
       -0.06972467834019734 0.04378872448897247
0003f0 39 89 69 aa 1c 11 96 3f 7e 45 25 a9 03 91 a4 3f
       0.021549652005327522 0.0401688713051369
000400 a4 8c f6 0d 16 6e 81 bf 38 04 7d 16 d6 17 c2 bf
       -0.008510753918761722 -0.14135242555679084
000410 09 c8 da 43 2d 58 9c 3f e6 6a 16 6a a8 47 bd bf
       0.027680117861287133 -0.11437466230419666
000420 fb d8 4d 26 32 9e 94 3f 15 62 0a e0 58 d5 9f bf
       0.020134719455620047 -0.03108729236064008
000430 05 22 2a b5 22 03 b1 3f f9 3b e5 13 94 1a c2 3f
       0.066454095105776 0.14143610927064268
000440 dd 28 4a 9e b4 d1 b6 bf b5 cb 4b 3f a9 5b 98 bf
       -0.08913735260481155 -0.023787159431730227
000450 b2 ae 23 fa c8 8d af bf 8e a3 36 5f 1e e4 c2 3f
       -0.061628609213440724 0.14758662842839637
000460 07 d8 38 ed eb aa 87 3f 69 50 6d 84 19 fd b7 3f
       0.011556475808088619 0.09370574458199744
000470 45 ab f9 fe fb 5e 9e bf a8 a6 ec eb 99 bf 97 3f
       -0.02965921157594244 0.023191838288005556
000480 22 5d 6c 53 eb 91 9e bf e5 b6 31 fc 8b d6 b5 3f
       -0.02985351273227111 0.08530497462353599
000490 0c f0 5a 03 81 1d b6 bf a0 14 2b 12 d5 0e 7f 3f
       -0.0863876946631878 0.007582504566646581
0004a0 01 b0 ed 34 ba d9 b7 bf 70 8b bd b7 2b a7 a5 bf
       -0.09316600601385973 -0.042291036776780255
0004b0 c4 7d 1f 1d e6 b3 ae bf 52 cd 3d dd 8e 3a ce bf
       -0.059966269545607825 -0.23616205027392795
0004c0 27 6d 73 2b ad 82 a3 3f cd 8d 14 4c b5 60 c0 bf
       0.03810635714918425 -0.12795129980905387
0004d0 50 d8 6f db 9c de 5a bf b4 e7 0e 17 6a 09 c7 bf
       -0.0016399890716889583 -0.1799748051251392
0004e0 63 6d 42 ce f9 ee a5 3f 19 2f 0f de 66 94 b1 bf
       0.04283886568847597 -0.06867068215722973
0004f0 d7 a7 81 65 bb 3d 93 bf 1a 70 5f a0 ec 10 ba 3f
       -0.018790176458800403 0.10182074466087024
000500 1c ad 28 85 50 d1 ba 3f 7b 93 cc cb 10 72 c3 3f
       0.10475638628911493 0.15191850615624589
000510 a3 3a 82 07 2b 4a bc bf 41 e6 d0 db 4e bc 71 bf
       -0.11050671513860748 -0.004329975167871648
000520 70 e5 a1 0b 7c 49 9a 3f e1 68 cf d3 f0 d9 c6 bf
       0.025670946321473875 -0.17852602331442483
000530 37 d0 b5 73 2a 03 bb 3f 2a 75 62 77 87 06 96 3f
       0.10551705670315036 0.02150928178945325
000540 04 6f c8 7f d3 7e 45 3f 7e 5a 88 79 fe d2 c2 bf
       0.0006559879980758414 -0.1470640271588372
000550 5c 15 9b be 77 24 af bf 97 c6 85 91 ac 6b a6 3f
       -0.060825101868924064 0.04379023815535026
000560 21 a0 2a d9 31 ab bc bf 58 73 00 97 ac 16 95 bf
       -0.11198722412029884 -0.020594307629028336
000570 44 ee 4b f5 c5 26 bd 3f b2 3e b1 9b d5 0c 91 3f
       0.11387288321196204 0.016650521877010056
000580 48 d2 34 3a 41 cd b2 bf 5b 4c 76 57 ea 7d b0 bf
       -0.07344443961194103 -0.06442131648354758
000590 9b 60 9b 9d 05 01 84 bf f4 8c 54 b0 0f fb b5 3f
       -0.00976757418850154 0.08586214117945073
0005a0 02 e5 5b 89 69 81 9c bf d6 79 6f 3c de 2c 33 bf
       -0.02783741856453493 -0.0002925913399262325
0005b0 fc fa f1 0d b4 fb af bf 76 1e fc cd 36 bc c6 3f
       -0.06246721906881267 0.1776188379083014
0005c0 a8 ac 1d 20 db 93 c5 bf 18 f2 3d b6 36 39 b6 3f
       -0.1685747057739253 0.08681051205889678
0005d0 e4 a6 47 bd 59 e7 7b bf 18 b5 4b f5 7d dd bf bf
       -0.006812429947311325 -0.1244734500757726
0005e0 8b af 8a fe 73 9d c1 bf 75 00 54 b6 d1 59 aa bf
       -0.13761758736415816 -0.05146651602444844
0005f0 9b 39 44 72 18 03 80 bf 8c c3 4e 38 f9 f0 a0 bf
       -0.007818404185425723 -0.03308848202085021
000600 cd 5d 97 d7 7a 8d b0 3f 9d 8f 00 86 42 fb 94 bf
       0.06465881122073043 -0.020489730290264786
000610 79 41 5a b5 b8 06 b7 bf 6b 3c d1 c4 17 5e 82 bf
       -0.0899463122134473 -0.008968530362976254
000620 e5 39 b8 db cb a8 9e bf a8 73 71 80 71 79 9c bf
       -0.029940781865713268 -0.027807019676732075
000630 b4 03 63 84 7b 0f c6 bf 6a fa 80 99 46 c4 69 bf
       -0.17234748806188593 -0.003145349397555554
000640 ab 18 37 71 06 6f ae 3f 37 9f df 31 73 4a 6e bf
       0.059440804786889366 -0.0036976098917768335
000650 68 24 5f 29 31 1f bb 3f c2 23 6e 41 7d 26 9b bf
       0.10594470272111922 -0.026514012449783804
000660 26 a9 75 f0 b5 96 a8 bf e4 f1 5e b4 91 0f 90 bf
       -0.04802483139322282 -0.015684391626324415
000670 72 2d 01 04 48 a8 6d bf 6e 83 ed 9f e6 48 a4 3f
       -0.0036202818446661672 0.03961868955844393
000680 06 3f b6 72 d0 b7 ad bf 91 b7 b7 32 27 a5 b2 3f
       -0.05804301643649805 0.07283253658508061
000690 c0 ef ee d7 29 06 b0 bf 33 ab 10 c5 a5 8a b5 3f
       -0.06259404680071068 0.08414684353980988
0006a0 31 41 1d 49 84 fa 7d bf 82 a4 51 c1 cc e9 b1 3f
       -0.007318989506373706 0.06997375220966442
0006b0 b1 01 32 a7 56 94 ba bf b2 be c0 41 08 0d b1 3f
       -0.10382596570889892 0.06660510640426301
0006c0 1f 28 55 8e e6 1b ad bf 94 42 f5 9a c6 d5 89 bf
       -0.056853489756193414 -0.012614776233619986
0006d0 e8 08 b2 5c c9 23 b4 3f a3 07 e0 8a 0e 06 62 bf
       0.07867105973312827 -0.0022001537354307695
0006e0 77 b0 7d 0e 53 77 7c bf c6 ad 48 79 38 40 ab 3f
       -0.00694973415361854 0.053224339299358145
0006f0 d1 7b 24 ab 04 a5 ad 3f 29 e9 65 a3 20 86 92 bf
       0.05789961423055668 -0.01808978078177251
000700 8d 0f 64 aa b9 60 9e 3f ec c4 4e d6 30 e2 ab bf
       0.029665852570374397 -0.05446007362423608
000710 fc a2 87 dd ab e3 c0 3f 3b ca 5f f5 55 db 80 bf
       0.13194797818075432 -0.008230849791265196
000720 1c ee 5e bd 2c fe b2 3f ad 1d c1 71 38 98 bb 3f
       0.0741908991175752 0.10779145028310806
000730 8e 80 a4 18 ab 83 a1 bf 19 e1 39 31 3e 2a 8d bf
       -0.034207674749496694 -0.01424072826124294
000740 4f 4d 8b be 6a ed b2 3f c9 40 27 97 d7 c9 b9 3f
       0.0739351954646754 0.10073611679331686
000750 a6 49 7a 2f 4d d3 ac bf b3 86 75 01 c9 8c 9f 3f
       -0.05629960255204773 0.03081049033551748
000760 c3 1a 42 35 30 b1 bc 3f aa f4 ec fd 0c 1d 86 3f
       0.11207867908715756 0.010797597407526578
000770 db 24 48 9f b8 62 b2 3f 5c 29 90 b2 6d 75 a5 3f
       0.07181886566845057 0.04191153340078088
000780 8a ae 55 6c 8d 5d ab 3f c6 25 fc b7 38 4f 76 bf
       0.05344812343068124 -0.005446645314586223
000790 3a 4b cd 3b 4e c6 a0 bf 90 b5 84 47 f3 2f b5 3f
       -0.032762951660194564 0.08276291366629196
0007a0 68 48 05 24 33 fa a7 bf 6c 2e d2 f4 bf 86 b1 3f
       -0.046830747744608214 0.06846236922336296
0007b0 05 84 41 0c d8 0c 98 bf 48 ef 97 db 99 7a b8 3f
       -0.023486495731393848 0.09562074290437039
0007c0 f4 ad b1 ab 2d c2 aa bf c8 54 fb e8 cb 10 a0 bf
       -0.05226271363138926 -0.03137814730659155
0007d0 dc 48 e3 5b bf ca bd 3f a7 2a 7d e7 5a 76 93 bf
       0.11637493127207982 -0.01900617635628046
0007e0 5f 78 da 49 29 fe be 3f f0 b7 0c ba 48 0c b5 3f
       0.12106569340764527 0.08221869032124096
0007f0 7a b3 b3 30 90 82 b8 bf fc 5b c0 3b 53 f1 a8 3f
       -0.09574223698628073 0.048716164630768305

fc2_act.bias f8 [50]
000000 e3 fc 31 59 98 38 f2 3f 8a 3f 96 e9 02 05 ee bf
       1.138817165774349 -0.9381117403263357
000010 92 d8 bb d7 83 2e f3 3f 57 52 21 cf 5d 69 ee bf
       1.1988562037563821 -0.9503621144782056
000020 4c c9 f6 c4 86 5f f1 3f 68 cd d9 b4 a9 d3 ed 3f
       1.0858218854815105 0.932087758278084
000030 dc ba 6f b6 73 0e f1 3f d6 5c 01 cc ea 82 bf bf
       1.0660283209251054 -0.12309138756369306
000040 09 25 a4 65 21 31 ee 3f 39 18 23 fc f9 39 ee bf
       0.9434973702601904 -0.9445772099068172
000050 41 30 ad a0 b5 92 f2 3f eb 8f 5d 1f e7 0a f1 3f
       1.1608177448679415 1.065161821862598
000060 ee 7b b0 58 d0 ca f1 3f 1f 13 2f 72 2b d9 f0 3f
       1.1120151009015404 1.0530199489887264
000070 0a 35 db 32 49 42 ea bf c3 ba d4 c0 ba d7 e2 3f
       -0.8205915444647485 0.5888341680746055
000080 9c ce 33 c6 e2 ab ec bf c7 76 20 23 79 1c e0 3f
       -0.8959821578159395 0.5034757314749293
000090 03 a6 91 b6 ae a4 e4 bf 9f 10 42 31 ed c6 e6 3f
       -0.6451028409766767 0.711783024031792
0000a0 92 84 56 cd 6a 91 f2 3f a3 2b 31 15 40 9f a2 3f
       1.1605022450460507 0.036371233546183455
0000b0 39 4b c4 61 c5 86 f2 3f 0f 08 13 28 e4 7d f2 3f
       1.1579030817999423 1.155735165157697
0000c0 5b 04 c2 9c 4b 78 f2 3f 22 6c 82 f2 21 68 f1 3f
       1.1543689845423362 1.0879229996705893
0000d0 c5 45 36 99 c8 07 f2 3f f3 49 28 94 76 cd f1 3f
       1.1269002899974663 1.1126619136235802
0000e0 4d 52 9e 55 ad 52 f2 3f a7 ba fc 80 75 ce ee 3f
       1.1451848358602945 0.9627025145799352
0000f0 b0 0c aa 8c fc 7f cd 3f 5e 48 60 f0 b4 ee f2 3f
       0.23046833866474037 1.1832780255977222
000100 9a ba d0 ea 36 39 f2 3f c5 38 91 fd 69 cc f2 3f
       1.1389683887934212 1.1749057679149228
000110 4f 77 ff af 52 07 f3 3f 4a db f0 41 27 d4 f1 3f
       1.1892878413122678 1.114295251447134
000120 74 d3 93 10 6d ca da bf 6d 7f 35 3f 40 e0 ef 3f
       -0.4186051046265711 0.9961243853140168
000130 8d b9 b8 55 89 55 f1 3f 0f d9 0f 78 20 85 e6 bf
       1.0833829258441228 -0.703750833984289
000140 ba 64 99 71 86 b3 ee bf 23 59 1a a9 85 c5 c9 bf
       -0.9594146937116854 -0.2013403964708199
000150 db 4c 5b fd 1b 77 f0 3f f0 e9 a2 d4 24 3a f1 3f
       1.0290794274085815 1.076695280657642
000160 63 aa fc b9 a8 1f e0 3f b7 a6 24 e7 dc 89 f2 3f
       0.5038646347578147 1.158657935050014
000170 1b ac 7e b4 b6 52 d0 bf f6 76 4c 0a 8b 6b f2 3f
       -0.255048443092791 1.1512556459705912
000180 ee c6 43 96 08 5e f1 3f e1 36 89 f7 44 6c f1 3f
       1.0854574079243622 1.0889329594969512

fc3_act.weight f8 [20, 50]
000000 f9 74 e0 4c 80 e4 83 bf 4a b2 e8 76 ea b9 bd bf
       -0.009713175150006569 -0.11611810114909207
000010 60 ca 0c 9a fb 56 c9 3f a1 82 96 90 18 f4 c5 bf
       0.19796700498553133 -0.17151171741445118
000020 b0 75 b6 b6 4e b2 a7 bf 28 05 f5 0b 1f 59 b2 3f
       -0.046282253078270386 0.07167238275453214
000030 a4 ba 59 6f 66 9f ab bf 05 83 15 55 ce 78 9a 3f
       -0.05395050153025707 0.025851463263623326
000040 f5 9b 19 8e 78 4f ba 3f b1 a4 ae c8 d8 c3 d1 bf
       0.10277512997855338 -0.2775785407816996
000050 ba 25 a8 b2 5b 85 b6 3f c6 9d b8 b9 0a b1 86 3f
       0.08797238456477077 0.01107986811901086
000060 e7 1c d9 36 57 d5 cb 3f b9 48 48 fd 65 e6 9b 3f
       0.2174481408894515 0.027246087631348035
000070 0e 2c 6e dc e3 b7 8b 3f 5d f1 1f 41 2c f5 d2 3f
       0.013534336246968006 0.29621416435090514
000080 56 8a 02 f6 20 63 b6 bf e3 fc 3a 1b 3b 09 c2 3f
       -0.08745008474446911 0.1409067042313615
000090 c8 90 16 78 18 39 d2 3f fe b1 d5 fb d6 ad dd 3f
       0.2847348377929504 0.46373533814656287
0000a0 24 cc 47 44 4d 02 a6 3f bc 7f a0 25 cd 6b d1 bf
       0.042986311516777925 -0.2722046725702929
0000b0 65 d3 a5 71 fd 31 cb 3f 13 64 80 63 63 0e c8 3f
       0.2124630741997421 0.18793909414742468
0000c0 7d 12 60 77 ca 8d cd 3f a2 49 34 7b a9 67 bd 3f
       0.2308896143805618 0.11486300714412903
0000d0 07 95 e7 1f bf 0a c5 3f 9e eb c0 76 ce 42 a5 3f
       0.16439045961229956 0.04152531814221237
0000e0 0c 34 01 e2 52 fa 7a 3f 74 e8 5f cc 16 99 b6 3f
       0.006586383591707278 0.0882734536134267
0000f0 2f 68 ed 99 14 c1 d5 3f b9 c4 82 43 29 18 c7 3f
       0.33990969688386746 0.18042484089304425
000100 e9 49 47 b0 81 b3 c2 3f d2 9e 46 92 5e c3 c0 3f
       0.14610310656878703 0.13096220152259846
000110 d4 03 14 19 72 e5 72 3f 09 76 60 ab 1b 9e b4 3f
       0.004613347716486655 0.08053753789905484
000120 31 4d 25 2b f8 09 c1 bf 33 ab 28 46 a1 74 d2 3f
       -0.13311674219822003 0.2883685288567676
000130 10 eb c6 44 62 0a 93 3f 90 4d b9 15 75 5e ad bf
       0.018594298789802954 -0.05736127748664466
000140 ce 21 05 21 7f be c9 bf f4 b3 9f e9 6c 28 ad 3f
       -0.20112599479968057 0.056949046629462347
000150 3c 80 fb cd 05 15 c2 3f 7e 81 20 ef db c8 ba 3f
       0.14126656110511415 0.10462736690579352
000160 8d 53 11 07 33 7d c5 3f 33 dc 45 2e 06 2c c5 3f
       0.16788328023053758 0.1654060102407314
000170 52 c9 1f b3 c6 66 c3 bf 18 97 86 60 dc d0 8f bf
       -0.15157397981927062 -0.015535089202625182
000180 21 ff 35 a5 98 89 af bf dc 0d 41 0e 0e 77 bb 3f
       -0.06159665123686709 0.10728538368225976
000190 c2 04 3f 94 bb a4 c7 3f b6 18 af 04 86 6f d2 bf
       0.18471474398214666 -0.28805685479563736
0001a0 77 37 10 ef d2 84 ca 3f 05 3d 57 3f 00 ee a8 3f
       0.20717846558585126 0.04869080327227419
0001b0 77 e1 06 61 a1 83 c0 3f ad 1d 12 91 71 23 af bf
       0.1290170406116535 -0.06081728835948339
0001c0 f2 d8 31 4f 43 e4 aa 3f c0 10 80 07 0e f2 bd bf
       0.05252275792820339 -0.11697471316444119
0001d0 a4 97 10 53 c5 06 c3 3f 52 94 b3 15 fa 72 da bf
       0.14864412837885965 -0.4132676326683554
0001e0 27 5e b8 3e 49 12 c1 3f b1 40 6f 0b 2a ea c5 3f
       0.13337054789075006 0.17120862539605278
0001f0 82 30 c7 6b d2 9c cb 3f 75 ae df e5 65 9b c2 3f
       0.21572332632638697 0.14536737179092865
000200 c6 91 e8 6b cc 60 c3 bf f3 b0 12 3a e8 c2 dd 3f
       -0.15139155644386743 0.4650211875075591
000210 bb 3f a6 cf aa d8 c3 bf 8e 89 d7 40 2c 94 ae 3f
       -0.15504965914851518 0.05972421924140568
000220 94 2e 9b d4 fd 7a c2 3f 64 50 2e f3 37 75 d4 3f
       0.14437840348397357 0.31965445278297566
000230 3b d4 ed 9d f7 42 ad 3f 14 d7 18 cc 34 6c d2 bf
       0.05715154459804991 -0.28785438472128644
000240 e4 03 70 14 10 d5 ca 3f 39 cd d6 40 9e 1b b7 3f
       0.20962716100623802 0.09026516993508417
000250 90 25 4e 0b 6a 13 a0 3f ff 91 37 10 9b ef c3 3f
       0.031398118858372404 0.15574968616341775
000260 1d da 39 97 1c 2b c9 3f 3b 83 71 33 1b f7 a4 3f
       0.196628164139569 0.040947771100724194
000270 0d 19 f6 b2 75 95 a0 bf 2a d8 0f a7 f3 dd bb bf
       -0.03239028749071524 -0.1088554652086208
000280 67 3d 2b 37 dc 03 d6 3f 3a b7 0c 15 e3 c8 d0 3f
       0.3439856089361996 0.2622611718714897
000290 b5 36 08 99 4f b0 bc 3f b5 df 7d 00 49 d5 c5 3f
       0.11206529127249605 0.17057144664772542
0002a0 d8 4c 78 cd da e6 ca 3f 86 65 cb 2e f0 6c 8b 3f
       0.2101701262732607 0.013391376903586726
0002b0 69 65 ed d1 3f 82 c8 bf c6 b6 6e bc 43 60 c3 3f
       -0.1914748930965218 0.15137526226810943
0002c0 20 94 17 80 fc 93 c0 3f 3a 7f 6d 2f 60 ff cb bf
       0.12951618437287582 -0.21873094859892622
0002d0 9e 70 b6 35 50 a8 c6 bf 3a 47 f5 51 a9 2b a9 bf
       -0.17701151488006855 -0.04916123509850796
0002e0 a2 57 f4 53 c9 aa a2 bf 4e 6b 76 6a 8b 5b b2 3f
       -0.03645924711069816 0.0717093596380611
0002f0 8d 4e e9 2f bd 29 c2 3f d7 34 f2 09 f3 a2 c7 3f
       0.14189877356931327 0.1846603201451333
000300 15 42 29 d9 9c 6a ce bf f3 ef c7 3c 08 b9 b4 3f
       -0.23762856105396737 0.08094836696540124
000310 c9 13 ca 7b 7b bd ba 3f 0b 69 4f b0 9b 49 c3 3f
       0.10445377132607726 0.15068384274383848
000320 9d 67 24 b7 69 ef b1 bf 48 b6 58 80 c0 11 9d 3f
       -0.07005940171475662 0.028388030847216222
000330 55 1f 76 6b 10 ce b0 3f e2 55 f6 89 98 49 bb 3f
       0.06564428924150197 0.10659173362940735
000340 98 18 16 11 41 88 bb bf 48 dc fc 8d 29 09 b4 3f
       -0.1075478235926276 0.07826480595109431
000350 12 4b 55 ba 50 ea a2 3f 45 6d c8 59 b6 b2 a9 bf
       0.03694393419814025 -0.050191591701344275
000360 ef c3 e2 65 e7 49 42 3f 8f fb 6e 25 77 27 b0 bf
       0.0005581264374737697 -0.06310219444183772
000370 0c 92 1d b5 49 ea b5 3f da 97 7e 25 95 0a bb bf
       0.08560619994893431 -0.10563022771256617
000380 a5 21 74 f6 5d 95 bd bf cf 26 1e 53 28 6d 8d bf
       -0.11556041018423586 -0.014368357693246207
000390 4e 99 6c d7 2d e6 8c 3f 6b 76 e1 bf 4b 3e b4 bf
       0.014110906731343544 -0.0790755599459431
0003a0 31 67 79 24 38 b9 a1 3f 5a 1a b1 91 6f ef b2 3f
       0.03461623616449428 0.07396600062302508
0003b0 f9 76 8e 3f fa 7c b2 3f 35 a2 90 ca 34 49 b4 3f
       0.07221950580284532 0.07924203820642435
0003c0 02 64 01 42 65 2b bd bf 40 99 91 01 0d 68 a9 bf
       -0.11394341336689709 -0.049621969644066954
0003d0 88 07 94 4b a6 12 b0 bf dd 68 96 cc fe 6b bc 3f
       -0.06278457017108796 0.11102287764370851
0003e0 e5 cd 6c a1 d7 5f aa bf b3 6e dc 38 93 6d 9e bf
       -0.051512468772127375 -0.02971487078239816
0003f0 bf a3 67 b8 88 f0 c0 bf cc 72 e6 d7 26 bd ba 3f
       -0.13234051708357517 0.10444872637749397
000400 dd ea 39 c2 81 12 57 3f 51 c0 9d 9c 48 ee ba 3f
       0.0014082209753768983 0.10519841979635315
000410 e4 74 a2 0b 39 ac b0 3f a6 40 48 11 3b 8a c3 bf
       0.0651279118923927 -0.15265596717700197
000420 2c 01 ec a0 5b bf a7 bf 84 1a c7 f1 2c 1f b1 bf
       -0.04638182010057998 -0.06688195135857639
000430 78 12 11 b7 7f 89 b1 bf 2c 90 29 e7 f7 35 96 bf
       -0.06850431651498379 -0.021690247997313047
000440 a9 dc af 23 0f dc ab 3f 7a 7e f0 1c cb 0b b8 bf
       0.05441329298621984 -0.09392995316056299
000450 5a fc e4 71 4b 92 c1 bf 93 63 73 b8 b9 f8 72 3f
       -0.13727706013921442 0.0046317343432854706
000460 5b 48 a9 18 53 ea 83 3f 3a 8e b2 20 0b e1 9c bf
       0.009724282446004808 -0.028202222700782743
000470 13 71 9c c5 03 50 b0 bf 88 cb 04 51 a6 90 bc 3f
       -0.06372092794885402 0.11158217885967592
000480 e5 c1 a4 03 16 5f 91 3f 2f 86 03 5c ce 89 a9 3f
       0.016964286777865118 0.04987950204100532
000490 6f ec 3d c0 ea d6 c1 bf 4d 1e 78 59 8f d0 bc 3f
       -0.13937124621211036 0.11255737242037718
0004a0 a0 08 1b 07 66 dd bb bf 9c ef 22 f5 0b b4 b3 3f
       -0.1088470237109811 0.07696604475762431
0004b0 40 79 c4 f3 66 63 c7 3f be 37 e0 9d a6 91 d2 bf
       0.18272101309498545 -0.29013982217372447
0004c0 ae 63 87 b7 55 62 97 3f 6a c9 da cf ca 9f bd bf
       0.022836055113518654 -0.11571948599411078
0004d0 86 d1 ca 0c 0c 3b b8 3f 61 eb 1e 6b 30 36 b5 3f
       0.09465098678885484 0.08285811057332416
0004e0 9b 4d fa 70 36 16 b2 3f 0d 65 49 8f 56 e2 a9 bf
       0.07065143831487435 -0.05055494784455492
0004f0 ed 7f 35 33 51 87 ba 3f 6c 24 b8 d0 2d 07 d9 bf
       0.10362727642268484 -0.3910631693148108
000500 bf a7 b5 96 1f d9 ca 3f e5 08 d6 a1 46 dd 93 3f
       0.20975108012072316 0.019398788097085968
000510 9b 89 0d 93 af 3a be 3f 48 39 73 40 8d 7d bf 3f
       0.11808297481687761 0.12300951789368242
000520 f9 84 b9 ef 7f 65 c3 bf bd f3 c5 1b a5 ae d7 3f
       -0.15153502660090348 0.3700344821189068
000530 a1 cf 15 99 f4 dc bf bf da a7 86 6d c2 a1 c8 3f
       -0.12446526277000071 0.1924365076823154
000540 5d 2c 66 24 a9 59 c9 3f 3e 87 f9 26 41 8c d7 3f
       0.19804872777271756 0.36793545538067807
000550 a5 11 b0 af 0f b9 cb 3f b2 58 2f c4 02 e8 d0 bf
       0.21658512190346105 -0.26416081579862827
000560 73 5f 02 a4 d5 ef c4 3f 06 38 78 35 d9 78 ce 3f
       0.16356916912331662 0.23806300268955755
000570 fd d4 78 bf 6c 84 b5 3f e3 bf 70 c3 af a7 b7 3f
       0.08405189203843473 0.09240244409079383
000580 8d 69 4e 33 0a 90 cc 3f d8 f2 93 ea ef e2 c5 3f
       0.22314574723425232 0.17098807291031082
000590 a4 0e 76 71 43 0a c9 3f d7 a6 85 ec 0a c8 c1 3f
       0.19562571563812015 0.13891731785707037
0005a0 70 a1 7c 8f 4a 10 d1 3f 9d 83 5f 8f 50 c8 cf 3f
       0.2666193391073852 0.2483006191314673
0005b0 39 75 64 a8 17 fd b1 3f b7 bf 14 0f 0b b5 d0 3f
       0.0702681337465564 0.26104999993094274
0005c0 35 c7 2b 36 f2 61 7b 3f ba 13 bb 77 7f 61 aa 3f
       0.006685205592235556 0.05152510010297058
0005d0 80 91 2a 4a 99 00 c0 bf 36 60 2b 4a e7 54 b4 3f
       -0.12501827355766792 0.07942052422311083
0005e0 ed 46 b2 09 5c 29 b8 3f 1e 2d cc 90 dd 5a d0 bf
       0.09438109623649966 -0.255545989421721
0005f0 49 a8 76 a0 41 30 d4 bf 3b c6 3e d0 82 d3 c7 3f
       -0.3154453341509265 0.18614230316375022
000600 af 41 cd a2 c6 c9 c2 3f 39 73 af 94 0d 08 c4 3f
       0.14678271245294414 0.15649575958277653
000610 cd 6c ff b9 3c 08 ca 3f 8c ca be fb a6 5f 8b 3f
       0.20337637979432657 0.01336603599324817
000620 fb b7 f1 0c 98 fa c3 bf 5a 9b f2 42 b9 b2 c8 3f
       -0.15608502037088087 0.19295421379976113
000630 94 37 00 0b 2f 7b bc 3f 8b 0a 26 8b 72 c1 c8 3f
       0.11125463503432648 0.19340354723324923
000640 50 7c 39 ed 84 f9 ab 3f 1f 90 5e 0e 86 89 d4 bf
       0.05463805576140912 -0.32089377787838375
000650 a0 3e 5e 63 fd 1a bd 3f 79 80 99 db e0 b0 aa bf
       0.11369308162670189 -0.05213072472247488
000660 38 51 fe 51 97 fc a9 3f 9e 2b 91 56 78 f3 c2 3f
       0.05075524211784671 0.14805511691005518
000670 45 5d d2 5a c9 24 b0 bf 16 72 7b 10 55 a8 ba bf
       -0.06306131808593303 -0.10413104679486937
000680 87 ce 4d 14 d6 c7 b8 3f fd 39 de 1e 21 05 de bf
       0.09679925914479713 -0.46906307234249295
000690 a7 8b 21 bc f3 32 be 3f 03 5f 6a af c2 04 bd 3f
       0.1179649671844759 0.11335388929944305
0006a0 1c 5d bb 14 5a 53 c0 3f c5 d6 5e ed e0 5b 9a bf
       0.12754369747447292 -0.025741114128058813
0006b0 e1 64 80 73 70 8d a7 3f f3 a8 42 d5 36 cc da 3f
       0.04600097093516254 0.4187142450924874
0006c0 51 78 14 b2 be 16 c6 bf 98 5f bd 34 fd bf 9a 3f
       -0.17256911940870848 0.026123005241373315
0006d0 de e4 28 0e 31 40 d1 3f fe 54 ae 3a 91 b0 df 3f
       0.26954294569766357 0.4951518128448952
0006e0 71 8b 3f a4 3b f3 c6 3f 9d 7f 92 d0 ac 90 c2 bf
       0.17929788131649674 -0.1450401323718297
0006f0 c1 57 01 2c 4d 80 59 bf 3e 7e f6 11 6f fd cb 3f
       -0.001556468356303395 0.21867168786137542
000700 1b 21 81 c3 c9 95 cb 3f 4b 4c 5a 7c a5 33 b5 3f
       0.2155086712466606 0.08281931196170082
000710 37 6d 13 85 aa 58 c3 3f a4 79 8e c5 fe 01 c9 3f
       0.15114337442251166 0.1953733887321053
000720 b7 81 08 b7 eb a1 bd 3f 67 64 ed 2b 65 7b b3 bf
       0.1157519647463293 -0.07610161135143444
000730 19 96 10 e1 23 d5 ce 3f dc 5e ad 48 8c 75 c2 3f
       0.24087952126971926 0.14421227978413398
000740 91 2d e3 d7 63 a9 c2 3f a1 bb b4 7b 4b 84 cd 3f
       0.14579437295320166 0.23059981861430592
000750 eb df f3 f1 14 6d c7 3f d4 00 de 52 ba 31 b7 3f
       0.18301641286939171 0.09060253642201427
000760 d2 ff 42 84 d3 f3 cc bf f7 cc 27 7a c7 a5 b2 3f
       -0.22619098623363115 0.0728420899611598
000770 08 fc 1b f4 21 3d b5 3f 2b db 95 66 29 79 c7 bf
       0.08296405992221889 -0.1833850623040346
000780 97 c3 52 0a 95 95 b9 bf 13 18 16 99 3d ac 73 bf
       -0.09993869306596391 -0.004802933327829012
000790 ed 0e 19 20 f6 04 b2 bf 0d 4e e8 59 07 dd c1 3f
       -0.07038820537223574 0.13955776109706655
0007a0 eb 28 cd 58 28 b3 c2 3f 62 24 45 19 ef c9 c1 3f
       0.14609245620733388 0.1389750359906286
0007b0 33 42 88 68 ba cd 9a bf a1 82 20 08 5e be c1 3f
       -0.026175415640013532 0.1386220493013939
0007c0 0f af 72 7c 41 c2 79 bf d2 6f 9d 38 f0 84 a8 3f
       -0.006288772397208721 0.047889239226350036
0007d0 d6 17 8b 45 89 90 c2 3f 4b 00 35 50 5b 69 b3 bf
       0.14503589530630617 -0.07582636554889281
0007e0 78 18 eb 62 da e1 ce 3f 4b 8b 2d 48 29 3c a3 bf
       0.2412674887656896 -0.03756836896970713
0007f0 5d 2c 24 1c 08 36 c5 3f 28 37 24 1f 21 3c c5 3f
       0.1657114159973813 0.1658975030954306

fc3_act.bias f8 [20]
000000 83 66 77 06 fd fa f2 3f aa 03 9f b2 fb bd f3 3f
       1.1862764599412976 1.233882615794054
000010 23 4a 30 9a 29 b4 be bf 17 5e 75 b6 3b 63 f0 3f
       -0.11993656172152405 1.0242268683704248
000020 a4 58 de b4 7d 5f f2 3f 26 00 47 ec 92 4c ed 3f
       1.1483132424523683 0.9155974020759501
000030 d5 86 a4 b5 47 87 f1 3f fc f3 40 ca be dd f2 3f
       1.0955273719231873 1.179137029698949
000040 46 22 65 68 34 1e a1 3f 5f cb 43 57 43 cf ef 3f
       0.033433568709885494 0.9940506653204969
000050 c5 18 f0 fd f6 5a f2 bf 71 01 08 73 71 8b f1 3f
       -1.147208206124149 1.0965437405976355
000060 7e f9 41 54 4c ff f1 3f 52 2b 8c 5a f3 55 ba bf
       1.1248286525074884 -0.10287400208123401
000070 61 aa b3 6d 8a af ee 3f d4 c3 d1 14 93 a1 f1 3f
       0.9589283125508922 1.1019469083077995
000080 66 34 d4 2d da f8 f2 3f 08 7b a6 6c df 77 f0 bf
       1.1857549467270245 -1.0292658085015223
000090 de 46 3e 47 fd c9 f1 bf 15 09 58 b0 75 bf c0 bf
       -1.111813810628909 -0.1308428870252746
