weights/numdreg_ad/gspc/mse/high/numdreg_ad_pretrain.pt (torch, 263419 bytes, 14 tensors)

fc1.weight f8 [100, 200]
00000000: 58bc 095e ca2e b9bf d8e8 90e3 6db2 853f
00000010: 88ba 3f61 7b10 b6bf b752 2412 cf5a b1bf
00000020: 390a 6023 b0cf a63f 3242 f028 5456 b0bf
00000030: 51cb e1fc c5ef c0bf cebf 0858 b427 963f
00000040: 4cef 7fd3 08b0 b33f 97c5 f4e1 2c3e 9a3f
00000050: acd7 1c09 b0ed 673f fa85 0d0e 68a7 a73f
00000060: 921f 43d1 ccda c2bf 711a abc4 8a01 acbf
00000070: c71c 7ec6 d099 8b3f fce3 9eb6 2d7f b1bf
00000080: 6910 5c2a 24d4 a23f 7f19 8591 254b a13f
00000090: 9024 43cf 6a1d a33f ae08 732f 7e14 b83f
000000a0: 192f dbd6 23d2 47bf f751 bc4f f1cf 8dbf
000000b0: ef86 3915 6312 b83f 4ee5 b407 a6c1 a4bf
000000c0: c8bc 7561 1a69 933f e923 193a 676e a23f
000000d0: dafe 0370 46cd 983f cede b622 5e8a 9a3f
000000e0: f101 3f7e 8904 a83f c3f8 8170 cf38 a8bf
000000f0: de84 90c0 c3c4 aebf 23f9 0f53 6a67 8e3f
00000100: caea f337 31c5 7ebf 3376 a013 02cd a2bf
00000110: d79e 14c5 3b10 943f 766f 8501 2772 93bf
00000120: d984 7f24 4850 ab3f 8fb8 8376 4e36 883f
00000130: e61a a191 8ccb 9a3f ea5b 103a b3ff a6bf
00000140: f503 5c3b 5b85 9bbf 9e07 89d0 a4e1 b3bf
00000150: 69b6 454d 0313 c0bf 0784 92c3 59dc ac3f
00000160: 27d6 7922 035b 893f bee7 2ad7 ffac 8dbf
00000170: 0f81 9b73 b85a c53f 09ee ea18 cc37 b7bf
00000180: 6fc6 51a5 3ce6 b53f 3749 76bf 9c72 a13f
00000190: ea2c c5a6 c80a bcbf b02a 08a7 acb8 b8bf
000001a0: 3eb6 32ce e62b a53f d967 97f3 471d b13f
000001b0: 4be4 41b9 a887 c33f c885 2b82 3a75 a1bf
000001c0: c456 a00a f05d b63f c413 656d 8a98 923f
000001d0: 8097 4512 5df0 a7bf 2aa8 775f 4a3e b63f
000001e0: f072 47c3 a09b afbf 5e9e c690 10b4 9fbf
000001f0: 5d7d a949 cf2e c5bf abe0 5323 ed7e b5bf
00000200: 5a7e 1c20 c9ca c03f 534c a858 d71a 943f
00000210: 4bfb 1ec7 6ce0 75bf 70e3 9d80 730a 9b3f
00000220: 6d79 b642 4513 a03f 3009 c49a d25d c2bf
00000230: ea91 2c6f 9026 b13f 0ee8 e447 ae55 c53f
00000240: 2674 937b 0ace c3bf 4d49 e771 299c a4bf
00000250: bc68 944a 8c47 87bf ed25 2427 c703 78bf
00000260: 5730 32f8 bf49 c1bf 9ccd b0d6 47b3 c53f
00000270: 0028 262b 75da 6a3f 2d54 bbcb 323d b23f
00000280: 3017 7862 48a7 c33f db4b 96b6 1583 97bf
00000290: fc14 cca7 3d0b c2bf a45e 6058 db34 9d3f
000002a0: 0dbc bbf7 d8d0 b6bf 8daf f52d 208a adbf
000002b0: f155 8334 36b3 aabf e4a6 b4db 4eed b63f
000002c0: 2ac5 be53 81a7 ad3f 5668 b447 1cc0 b4bf
000002d0: bde5 c54b 6e3d bbbf ea36 244a fbd6 b13f
000002e0: 88cd c17e da3c 4b3f 1261 860f 7d63 95bf
000002f0: 867e 277e 952a be3f e2cf d71e 2162 c63f
00000300: 6207 2414 e8e5 9ebf 496d b9a0 4157 b73f
00000310: 5675 0d4f bece 9a3f b958 b7dc 5a23 81bf
00000320: 5b01 fde5 788c c3bf a573 535b d3bb a53f
00000330: e175 5d99 84c2 70bf deb8 1e5b 62c9 94bf
00000340: fc30 3903 19f4 cd3f 0d78 81d3 bad2 b93f
00000350: ef61 9951 e41d c03f 7f5e 5b8d 2850 9bbf
00000360: 778b 086e 4ebf a83f bf76 af2e c84c 893f
00000370: e746 40a4 b38e bf3f be8a fa03 a22d b8bf
00000380: e0a1 8744 d12a ba3f 2ae1 aec2 9a23 c83f
00000390: 112c 6f67 d2fd d03f 2c2d 5383 2e54 98bf
000003a0: 66e6 1c32 90c8 973f 549c d8fe 76ce b93f
000003b0: f3c7 b82c ff89 cc3f 3250 65b7 15d2 b03f
000003c0: 005c db5e 0089 b5bf 798d 941d 9018 c13f
000003d0: 4925 f374 06e9 a63f c253 983e e44b bd3f
000003e0: d3bc 1b4f 3382 b5bf d1ca 19bb 949f c43f
000003f0: a03e e064 0027 9f3f fb8f 7b78 28ab b43f
00000400: 5a6f 1d53 ea1f aa3f 1d6c 4640 7682 d23f
00000410: 0c6c 156f f4ae ab3f 6826 7a16 5182 84bf
00000420: d6fb 03dc 4daa a53f 3f82 f6ef 1bb3 c13f
00000430: e4d1 17ba 83b8 b73f 06d4 648c eeec 9cbf
00000440: 2faa e61a da2a cd3f 5f5b ca48 837d c03f
00000450: 127b 784d e2f4 be3f 094a bf20 2b91 afbf
00000460: 82b7 e359 797a af3f 071e 6d8c 1f1f ca3f
00000470: f8e3 3d20 231c c03f 6dc4 1030 5357 88bf
00000480: 457d 719a 920f c23f 5770 0f71 0a0f a43f
00000490: 9458 ce10 ad9d c43f f332 b1d5 eef3 b83f
000004a0: 0fee 275b 197f c53f 5110 18a0 298d c73f
000004b0: 024e 1e24 6b14 903f 7047 9c68 58a1 cebf
000004c0: 47a4 a109 c84b c53f 4bb1 bd45 49e0 b23f
000004d0: e29e be5a 0a3d bd3f 288c 5a8f 58b6 98bf
000004e0: 2a21 f273 f7d0 a93f efcd 1b82 63e9 c73f
000004f0: 7845 96b9 a911 c43f 9f3e 7298 4167 c73f
00000500: 5aae 5be5 0694 bd3f 57a1 a13b a7be b73f
00000510: aad4 5553 27a2 9f3f a303 a56f 727e c83f
00000520: 123e b561 a0ea c23f 8e72 3716 c605 a13f
00000530: 7aab 31e9 f5f0 cd3f 537e 105a 60e5 b13f
00000540: 4aaf eeb8 d991 d03f 35a0 b5f1 9314 a63f
00000550: de52 34ea 98ff b03f dc87 4c3f eb94 c53f
00000560: f540 a3f3 e5eb bd3f ef31 97fb a5bc ac3f
00000570: 1e26 a8dd a6e1 ba3f 3068 322f 0559 61bf
00000580: 76e7 0bcb da98 c23f 9ee9 5ef3 3f30 bcbf
00000590: 8483 195f c53f c53f c5fb efc1 2cce b33f
000005a0: c105 b9d9 92d2 c33f 6ba5 da16 9edd a2bf
000005b0: 2d0f b7c9 b93c 8ebf 3df7 498b 796f c73f
000005c0: c243 0a15 8711 b93f 242a 3d05 6d6f 7a3f
000005d0: 0ebc 5c52 db68 9bbf becd 8da1 ccc1 c43f
000005e0: 3c41 6e23 13c4 ce3f 81e8 ef41 7acc bf3f
000005f0: 80ec f933 115b 91bf 4e99 8c99 69e4 c53f
00000600: 2604 2fd5 0899 bbbf 8044 f363 43e0 c43f
00000610: bc00 41f8 bbc6 c13f 7692 69d8 64d2 c83f
00000620: cb90 d0d9 c4f0 b13f c33a 97df 3822 813f
00000630: 4112 ebea a50c ab3f b23c f26f 2565 66bf
00000640: 8ad5 b015 0900 9bbf 68c6 10ba 8615 bcbf
00000650: b68c f189 6067 ab3f e62d 8c8e 3cc2 cb3f
00000660: 76a5 88b7 c972 c3bf 28dc 2cfa 6ab9 cb3f
00000670: 7082 34a2 a64a bcbf 3095 69d2 c5d5 b33f
00000680: f8af 13cc fbe2 b43f 6952 3d49 ba9c c1bf
00000690: a0e9 aefb 43ea b7bf 026a 716e 360e 9ebf
000006a0: 76bd ea59 9c24 c4bf 0a07 9626 bb03 c6bf
000006b0: 0097 d7a5 a7c1 b73f 78f8 adf3 4713 84bf
000006c0: e686 fbc2 ffd2 c53f 1c92 20db 1dfc b03f
000006d0: f012 6cf3 5fb0 c0bf 4c57 8932 bc18 a23f
000006e0: 045d cab1 8884 953f a951 8f4a a770 a53f
000006f0: ef08 788d f3ae b83f f118 db72 d852 c33f
00000700: 3529 2554 0048 c5bf 68ff 4329 4841 ab3f
00000710: 3285 04fd efad 8cbf 83be 6800 fe7f c0bf
00000720: 0686 4e9e a100 d0bf 7bb5 cae0 56d7 9dbf
00000730: f751 f524 2a0f c9bf 5232 f6fb 8724 bdbf
00000740: 3fcd a47f 5bbf b4bf 3354 3e21 d8f7 993f
00000750: 0e9b aea3 1636 883f 4cb9 6d5f 2dff c7bf
00000760: 10fc 3b2e 08e7 833f 36c4 050f 40e6 a33f
00000770: 8bdf e56c e8b9 be3f f0fe 16c2 3e12 b2bf
00000780: cdfb 094d 22fd bdbf 2901 b718 fa3d b1bf
00000790: 358c f067 9721 b13f 10de e370 d383 b23f
000007a0: 7d82 fce2 351a 683f 9076 d02b 63cf b23f
000007b0: efb4 dea3 cba3 93bf a8c7 9967 ddeb b43f
000007c0: 995c 4941 6f92 a6bf b755 6afa cf13 b3bf
000007d0: 5f0e 6338 bbbd 92bf 11a4 d6d1 4188 bd3f
000007e0: 6b88 2c09 3a68 b3bf 68e2 0b67 2fa2 c1bf
000007f0: f5e6 c47c cda5 b9bf d534 a6ee 732f a6bf
-0.09837021633005472 0.010594233042969511 -0.08618899463884067 -0.06779188340108076 0.04455328399491915 -0.06381727218127578 -0.13231730315927817 0.021635835526637774
0.07690482295578 0.025627805033939657 0.002920955485843776 0.04619908496421128 -0.14730224817162402 -0.054699265010232596 0.013476973588480224 -0.06834684093963966
0.03677475945554038 0.03377644921652045 0.037333810616083984 0.09406269701415468 -0.000726954936646848 -0.014556775327528177 0.09403056400472186 -0.04053992122721671
0.018955623815995165 0.03599855980116457 0.02422056254090319 0.025918455952448842 0.046909615193275196 -0.047308428272104595 -0.06009494519845203 0.01484568658815683
-0.007512275943777078 -0.03672033776841168 0.01959317579635819 -0.018990144222115167 0.0533468765786524 0.011822331420685365 0.0261671031842309 -0.04491958698070404
-0.02687590169717065 -0.07766180125420738 -0.12558022759496915 0.0563686419711829 0.012380623330709174 -0.014490126375097275 0.16683107037443576 -0.09069514854757456
0.08554438625449177 0.03407754742797169 -0.10953954764879695 -0.09656790807654647 0.04135056750361031 0.0668530435281406 0.1525774864747141 -0.03409750784863835
0.08737087497169244 0.018160021712237087 -0.046755703430604534 0.08688797789332683 -0.06173422225740477 -0.03096032985345542 -0.16549101921826095 -0.08396799194804554
0.13118852680144039 0.019633641039103655 -0.005340981400819465 0.02640705559267381 0.031397022622729455 -0.1434882407848561 0.06699469293796026 0.16667727003533667
-0.15472537073120057 -0.04025392070220111 -0.011366935754768874 -0.005862977925298091 -0.1350631677527214 0.16953371031705167 0.0032779968689213845 0.07124631380004649
0.1535425644689723 -0.022960986394149657 -0.14096804326269552 0.028521945256300044 -0.08912426040818407 -0.05769444047004333 -0.052148527059823986 0.0895585333243179
0.057918588135530705 -0.08105637312510913 -0.10640611028602272 0.06968660888761816 0.0008312289114783969 -0.020887331078115308 0.11783727960527743 0.1748696709252036
-0.030173898915570325 0.09117517637189566 0.026179288458810866 -0.008368215428088953 -0.15272437314889484 0.042448620699111296 -0.004091756787457852 -0.02029946976807017
0.23401177079575308 0.10087173141207036 0.1259122274812081 -0.026672967555752877 0.04833455174618611 0.012353481220937266 0.12327120552097491 -0.09444630238662463
0.1022158424672237 0.1885865641213596 0.2654920587635284 -0.023758627667843132 0.023226025637291058 0.10080665323094823 0.22296132739717187 0.06570564010081695
-0.08412172618714919 0.1335621017870883 0.044746591354462746 0.11443926361273696 -0.08401795083385659 0.16112002502230507 0.030422216565112792 0.08073666516753512
0.051024744649764656 0.28921276356567366 0.054069174346942445 -0.010014184473465096 0.04231494246231875 0.13827847687663739 0.09265921872412936 -0.028247573203049846
0.22787023843314233 0.12883034757825393 0.1209241332185054 -0.061654422519172476 0.06148127767833868 0.2040748058009145 0.12585867952637364 -0.011885309128134314
0.14110024014642356 0.03917725210314476 0.16106189079863908 0.09747212140173271 0.167941255101923 0.18399544064607423 0.01570289047192653 -0.2392988692086493
0.1663751647022613 0.07373483612690739 0.11421265330738664 -0.024133094548812434 0.05042241373399954 0.18680995800933384 0.15678903161873925 0.1828386301390212
0.11553996181071949 0.09275288778156231 0.030892004453069312 0.19135885669132077 0.1477852322664011 0.03324717541884069 0.23391603361536878 0.06990625571096958
0.25890200671959873 0.04312574697070241 0.0664001056469021 0.16860714522141407 0.11688077161966588 0.0561267728440703 0.10500567351859799 -0.0021176434762084848
0.1452897540510169 -0.11011123363178973 0.166008635936148 0.07736472830582304 0.15486369734757768 -0.03684705761890935 -0.014764262646060533 0.18308944035737254
0.09792370093988637 0.006453920232000008 -0.026767184164040052 0.1621642865026 0.24035872678769887 0.12421383008759969 -0.016948956296328976 0.1710330962898276
-0.10780387119940879 0.1630939710653685 0.13887738820813478 0.1939207131100777 0.07008009259931496 0.008366054843376053 0.05283087246565233 -0.0027337771603651246
-0.02636732287301905 -0.10970346491446892 0.05352307971841112 0.2168651290925105 -0.15194055043802351 0.21659600463473905 -0.11051408252797912 0.07748066317579538
0.0815884946093205 -0.13759544922017433 -0.09341835875139859 -0.029351091853053297 -0.1573672713325142 -0.17198886283954834 0.09279868887787401 -0.009802400707254785
0.17050168057090004 0.06634699439798236 -0.13038253198478555 0.035344964188580436 0.021013389445752942 0.04187510285524649 0.09641954616384728 0.15096574409671562
-0.16625980480814354 0.053232436215693124 -0.01400363436602223 -0.12890601177194946 -0.2500385328258691 -0.02914176699657876 -0.19577528767207728 -0.1138386716977007
-0.08104488245299012 0.025359513310452008 0.01182191550271974 -0.18747489127731354 0.009718002234420126 0.03886604483967242 0.12002422960892838 -0.07059089888116055
-0.11714376812777445 -0.06735194304838345 0.06691881454075672 0.07232400423151142 0.002942185637849369 0.07347698039708406 -0.019179517628505612 0.08172401217760117
-0.044085957259704496 -0.07452106345802788 -0.018301892582498144 0.11536036847122967 -0.07580912326787519 -0.13776199847758908 -0.10018619819757275 -0.04333078659247184

fc1.bias f8 [100]
00000000: 130a 94e6 006f e43f 06f9 fc6b 5611 ce3f
00000010: c195 c714 b5ba e13f 9edc b6d0 d789 c73f
00000020: 523e cc52 cdb1 ba3f 379b 4e66 2066 ee3f
00000030: 98f3 f508 a3cf e03f 55c5 86e4 359f b93f
00000040: f3f5 912a 235c e63f 2b5f a050 feed e63f
00000050: 9b39 3418 0846 ea3f d068 bcc2 8dad d03f
00000060: 7630 04a1 12ac da3f 25f0 61c4 e1d9 d43f
00000070: f188 d52c 2797 d63f f5df 39b0 70e6 e93f
00000080: 2fe1 7dc5 b107 c63f 8f64 9c4d a9a7 d23f
00000090: 36bc 35b6 8ad6 d03f 1f8f d2b3 19eb b23f
000000a0: c347 172d e2da e03f 5958 f297 eac4 d03f
000000b0: c789 35ef 8de3 c13f 7a2e 084e e390 d3bf
000000c0: 1221 2482 12db e53f 432e e51b 70fd e23f
000000d0: 8ae1 c60c d6de da3f 1da1 c139 b2e2 eb3f
000000e0: 5ced 08ba 9c27 eb3f 77a2 ad10 9d24 d53f
000000f0: ef4b 73d5 16b1 db3f 5eee 6793 b5da df3f
00000100: 98e9 ae07 871c e33f 7f1e 6ced 8343 f33f
00000110: 9b47 530f 953b dc3f dad7 fb02 ff91 e53f
00000120: f246 3b93 afa6 e03f 892c 3a4d 944a c93f
00000130: ccff 7ad4 a7f4 e23f 674f 532b 6afd dd3f
00000140: 5e80 4c4b 5052 d43f cd93 b65d 8398 dc3f
00000150: e5f5 b64d 4cf9 ea3f bb5c f6bc 0474 d73f
00000160: 7ea5 7006 2675 d93f 3060 069b af6d e83f
00000170: 55cc 3b1a 9ee5 d93f e5f2 ef50 fda3 cd3f
00000180: 1b3f 49e2 4f33 e53f 3946 0af9 da7c df3f
00000190: c959 3ae0 9f3b dc3f a867 2d84 091e e63f
000001a0: 229b 893b a634 d43f 8dba 502e 3073 e23f
000001b0: d38c 69f9 1896 d93f 5e57 0365 abd3 e43f
000001c0: d245 796b 7179 e13f 3982 5844 4acd e23f
000001d0: 084f a6e9 0501 bcbf 8797 37b5 e8f6 e23f
000001e0: 028e 7269 efeb e33f f6a1 4c75 7da4 d93f
000001f0: af15 4252 1d83 e13f 6860 4779 781f e43f
00000200: 8f92 472e 494e e13f 23db f824 2279 aa3f
00000210: 68ad 2dd2 b980 dd3f bc59 f34d 6e72 e93f
00000220: 4b50 356a 95a6 df3f 7de5 eb43 87b0 f13f
00000230: 144b 979d 0087 a9bf 44f3 00e6 c2fc ea3f
00000240: 25d9 43aa 8b5e e53f 0d0d 29e7 9aff e93f
00000250: f031 f04f 573c e33f 7818 fb7a bc85 db3f
00000260: 6cdc f0af 4a6a e53f 491f 4a60 e694 d93f
00000270: 3614 f0ec a6a5 d73f 96c6 7442 765f bebf
00000280: 260c 59d5 b102 d43f 1428 fec3 d819 c93f
00000290: 9ff9 f921 4566 d13f bf35 1720 380a c43f
000002a0: 1dae 15dd 0224 dc3f 5870 6ceb 1950 c8bf
000002b0: 5e87 3de0 38aa c83f 68e6 da1e f221 e23f
000002c0: fd69 2829 373f eb3f 6642 6894 07c1 e83f
000002d0: 8d5a 8f4c 25e7 e13f c47b 95b1 439f e43f
000002e0: 7e1f a0ed 9b83 e33f 3b23 1310 e782 e03f
000002f0: b2ae 3543 75b8 da3f cd64 ca2d e521 e13f
00000300: b581 0701 7ba9 bf3f cc0e c9f3 b5d7 cb3f
00000310: d6ec 4400 1b7f d53f f524 f00c 9396 e13f
0.6385502341730124 0.23490410111293886 0.5540414243557096 0.18389413539054983 0.10427554389411256 0.9499666212258039 0.5253462958349813 0.1000856097150707
0.6987472373436375 0.7165519308791536 0.8210487816557362 0.2605928804129123 0.41675248836759893 0.3257984559820691 0.3529756486733638 0.8093799058833598
0.1721098150553728 0.2914832361144101 0.2630945948976121 0.07389984741399445 0.5267191773111722 0.2620188220838649 0.13975691013463473 -0.3057182561903812
0.6829922239130914 0.5934372467831469 0.41985083816282354 0.8714228752187726 0.8485854753011313 0.33035971287475924 0.43268366665614527 0.49772395510783507
0.5972323560775292 1.2039832376775903 0.44113661285984457 0.6740717943455323 0.5203473926178204 0.19758847971784047 0.5923651838311286 0.4685922072505861
0.3175240264263318 0.44680866386107426 0.842931892191413 0.366456207784221 0.3977751791849967 0.7633893993215732 0.40463974534867947 0.23156706287399867
0.6625136775637402 0.49199556656194293 0.44113919160136256 0.6911666471089477 0.31571346105777043 0.5765610603901493 0.3997862277667085 0.6508385632430238
0.5460745905967832 0.5875598273160626 -0.10939061121308324 0.5926402606389595 0.6225506839295465 0.4006646771909169 0.5472551924328196 0.6288416260458805
0.5408063796899841 0.051705424321360625 0.46098180318104776 0.7952186129066869 0.49454245921993295 1.1055977490599098 -0.04985811160772449 0.8433546535739898
0.6677912068833264 0.8124517931795779 0.6011158524793796 0.4300376130089556 0.6692250667901027 0.39971312907481554 0.3694855989309106 -0.11864413378205038
0.3126644690966621 0.19610127992592707 0.271867068462507 0.15656186644484468 0.43969794836331905 -0.1899444961098904 0.1926947684215134 0.5666437723768469
0.851466732393703 0.7735631846026763 0.5594660277664204 0.6444414585529263 0.6098155633089701 0.5159793199501118 0.41750842631766283 0.5353876013133686
0.12367981696252779 0.21752046969969852 0.33588290239613394 0.5496306660362779

fc2_act.weight f8 [50, 100]
00000000: e399 e30f 0272 b23f b859 baa8 8b33 c93f
00000010: 6297 d618 6b04 a2bf d08b c95f 43de b13f
00000020: 8b08 54cf b335 813f 03ea 3557 75e2 b13f
00000030: b6a4 696d ed37 c1bf 7753 59d9 15ba aebf
00000040: 2b86 38f5 24ca b3bf 1c68 dbdc ce8c b63f
00000050: d3a6 6ec8 0c83 9cbf d61b eb7e b3d3 bd3f
00000060: b63e 5e8b 3491 a7bf 15b0 293d 2941 56bf
00000070: ed09 11d9 54e0 c23f 8a42 76d1 c221 7dbf
00000080: ddbf ca57 606f a73f c997 d644 c98e b13f
00000090: 1484 bcf3 dfa6 b33f df97 167e 48d5 b53f
000000a0: 3d3b eb3c 71c9 6ebf 3162 59a3 c15a 503f
000000b0: da1c 0a47 94ca a43f 1451 c7b4 5610 973f
000000c0: 2f54 d04a 3918 a0bf 8c38 14d1 b59a 933f
000000d0: ecb1 7043 3e25 4f3f a14b aea0 5316 903f
000000e0: 2a3a c970 71e9 b13f 066e d1c0 b7ec b23f
000000f0: 15da 9d5d 5c26 9a3f 0aca ff08 b1d7 933f
00000100: 7474 00c0 cd67 a0bf 8e36 306c 7d8b a33f
00000110: 7eb1 bc84 775e 973f 9fb9 28e7 d794 b3bf
00000120: 19ed 2968 5006 9e3f 6dda 3d0b 175b ab3f
00000130: df74 25aa d13c 8ebf 8861 2edd dd37 9b3f
00000140: b50e 9695 f963 ca3f 2e0d 9d1f f24b bd3f
00000150: 2e17 41bf f079 b03f 8e10 f491 c019 b63f
00000160: bac6 ae6b 6b05 b7bf 2d5b 7d80 4fef 97bf
00000170: 2210 c4c0 36cd b23f 87d7 5ada e457 733f
00000180: 7f55 152d fe10 bbbf 33aa 0826 51e3 a7bf
00000190: a3c8 eac2 7ccb c23f d14b 061f 0a0c b3bf
000001a0: ff11 c2a8 b90c a13f ddca 4ed6 bc30 afbf
000001b0: bd92 551d 969b 9a3f 2e51 9dfc a243 a93f
000001c0: c06e c616 eecf b13f de87 42da dc3d 90bf
000001d0: e7bf f89c dd83 a83f ec1b 0118 bbbb 913f
000001e0: 037b 9210 e2e1 903f edb2 c091 c02f c13f
000001f0: 80a5 fcc9 2890 923f 2f9d 1b6d 2f9a b0bf
00000200: a802 34a1 3ca8 aabf 0f10 85f2 5d63 bbbf
00000210: d925 dfbc d30a b5bf 3ce4 e308 a169 9a3f
00000220: b0a5 65d9 3f97 c23f dd77 278b 6d10 a43f
00000230: c0a4 a367 9772 b43f e0b6 07a1 2685 b13f
00000240: 49b8 2ba4 0441 b2bf bd27 541c 7d2c 433f
00000250: 5f0d 6f5b 7087 ae3f aea6 debd f30e b33f
00000260: 4b7d 01ae 9076 9e3f b46b 6221 1d0e bd3f
00000270: a1ab 8124 1b7b a93f 6e41 8e73 fc62 a93f
00000280: 3c15 1fc5 979b 643f 45f8 60d1 6345 b53f
00000290: 703b 964d a18b a73f 997a 90ea c1bb be3f
000002a0: a4b2 39a1 6d29 813f c6a3 b1a8 b349 9abf
000002b0: b59b d5bc cac9 a63f e1ec a48b 4802 6e3f
000002c0: b42a 1a1d d34b 9d3f 6fba 0c5e 579c a2bf
000002d0: 816e 0896 7794 b23f 7e2f e939 85e8 843f
000002e0: 1e7a 4488 5188 be3f 78a6 6dae dd72 b1bf
000002f0: c8ba 72c5 cc82 c13f a0e9 be35 1d21 803f
00000300: 3505 3d50 59b0 a73f f60c aa71 f27d b73f
00000310: 19d0 b777 11c6 3fbf 0026 a510 80d0 a63f
00000320: 670b e2da 23a2 c03f 0375 f2fb 5330 af3f
00000330: 584f 9ffb 8210 c03f 72b5 de6e f3bf b13f
00000340: f6db a357 9784 92bf 8f84 761c be7f 933f
00000350: d68c ce01 ef80 9bbf a4b9 4003 32df a73f
00000360: 0729 a9b4 c5ee 95bf bdfc 731a 3679 b33f
00000370: 5bb1 8d80 c867 8a3f 1a82 98b4 9649 bd3f
00000380: 4672 2d18 ee97 93bf ea4d d59a 7e77 a33f
00000390: 2279 74cb 7ce5 9e3f 296a 6bdb c76c b0bf
000003a0: d45d ee82 5fb3 adbf 4600 6ac5 e1e1 933f
000003b0: 91a4 7775 d07b bc3f bb8e 0e54 daa0 5ebf
000003c0: 0f66 253d a966 823f 1859 c20c c0e6 2ebf
000003d0: ca70 d400 369c 773f 92e9 66c0 980f 75bf
000003e0: 38c7 67d6 e409 5ebf e07a a45d d3d6 bf3f
000003f0: 84dd 6033 f77e b23f e726 e842 f6c8 b13f
00000400: 70a8 b391 9afc 773f 94c8 ba28 b2b7 76bf
00000410: 527a 9bd9 7303 b33f 62ea 1ab4 6609 bd3f
00000420: f1d2 9615 9098 8b3f 5adc f9d7 2f84 b13f
00000430: 8b47 d31c 8d95 ae3f d7aa 7a87 6d76 a8bf
00000440: ca79 3832 ff00 a4bf 35d9 52d5 1043 873f
00000450: d07a 1eba 5dab b63f 2dcd de39 14e4 84bf
00000460: 3e8a 64ed 8218 c53f b3e8 7339 89da c53f
00000470: 2ead a1fd 5460 a9bf bbe3 06f7 c921 9ebf
00000480: 2b20 0c2e 22a3 84bf 88db 6409 e480 9f3f
00000490: 29f2 a504 d0a6 8ebf 9d48 48d3 554a 733f
000004a0: d31f 20a0 6adf bd3f 2864 cf4c b01b 7d3f
000004b0: 8c30 9304 1581 c03f e461 0093 c7aa b3bf
000004c0: 45f6 818e 0351 9a3f a5c2 8bd7 7ed6 c03f
000004d0: 3565 3bc8 0b8a 9dbf 8495 8a28 f044 923f
000004e0: 7559 ba58 2b92 8a3f 404a 94aa 9246 b33f
000004f0: 7a5c 1cb3 1003 8ebf 62b8 90e3 2f16 b63f
00000500: 7024 e782 37d9 b13f 9fc3 ff63 0295 ad3f
00000510: a3fb 77ff a801 693f fdcc ff7c c637 b13f
00000520: 7e6c 9406 2d05 9e3f df14 53e7 5d74 613f
00000530: a68d c6b7 5202 9a3f 2d26 9b64 7bcc 753f
00000540: 2268 8df4 b797 a83f 9837 6701 df37 b53f
00000550: e57e 3c85 5fe9 51bf 45fd a2b0 0a7a 903f
00000560: 268d 79e2 4e34 963f dd9e b1c4 157d a53f
00000570: 2540 b463 b3f3 b73f 6acf ada9 1d35 9f3f
00000580: 0db9 0070 2139 72bf 1e65 38f9 1041 b03f
00000590: 58ff 52d0 1675 ad3f 0db1 21ea c4c5 b43f
000005a0: 7c11 bfc8 0170 9d3f b25c af25 9449 a63f
000005b0: 61a2 12ab 8e54 b73f 1b1f c516 e486 8bbf
000005c0: 44f2 2550 2ebd a03f af45 6596 e3c8 98bf
000005d0: a689 b16a 822d ab3f a664 ff96 826e 9cbf
000005e0: 6f46 b8a7 5184 8d3f 0ccc 4ba6 b5e0 70bf
000005f0: 45d8 c0e0 e188 a53f dcbc 8720 1848 b53f
00000600: 96b8 902c f81c aebf ce50 b102 7d08 8c3f
00000610: 146b 07fa 1a02 b93f 52eb 9bed a7fb b33f
00000620: fea6 f033 6e7e b53f 51cd 49b4 d351 8b3f
00000630: 9c94 d431 7f5e b53f 4b4a e1a8 3da0 a33f
00000640: 2f29 bba0 9c42 af3f e90f 5ad5 642b a4bf
00000650: dad6 febc 8ea4 af3f c346 f82d 98b3 813f
00000660: 44ab 4e1a cb74 97bf cd13 f6c0 1828 b83f
00000670: 756a 4234 f38a a33f f1b5 7485 f614 b23f
00000680: ef0f bec1 1a59 97bf e97e 3b5a 9d14 7f3f
00000690: 8261 fc52 b466 a4bf a1d2 a648 49f0 af3f
000006a0: 6906 3a7b b23e bf3f d246 6913 6f69 acbf
000006b0: 860a f14b 7a44 ab3f 2cfa ec1d d2cd b93f
000006c0: 449a 488a 2cf7 b03f a569 a63a c7ac a73f
000006d0: dcd7 f785 b433 96bf e55b c73b 0ab5 88bf
000006e0: 6d82 9d46 34af 6d3f 8489 7723 149d b43f
000006f0: 3523 d9b2 1728 b33f da92 522b 7cde a83f
00000700: bf86 e479 008e 953f a24e 56b9 f883 85bf
00000710: c5e0 2a44 5560 82bf 6480 9b3d 32b4 b63f
00000720: 061b a4d5 6a6b b93f 2169 afea 4c69 a73f
00000730: 8f17 9e98 a1e5 85bf d062 7670 3ad0 683f
00000740: c2e2 5a7c cbc6 ac3f 7836 b27e 7b0f ae3f
00000750: 9775 27cd a769 8b3f c6cd 3541 cb2b be3f
00000760: d2ae 5995 cf26 8a3f b691 0a10 97e2 b93f
00000770: 3e47 8159 9906 a0bf a288 fa8b c6c6 96bf
00000780: 4b83 4f53 1bfc a93f 8454 3e93 845d be3f
00000790: 0044 9132 e35a a33f 9a59 bc03 48d9 8a3f
000007a0: b866 c8c3 f0bb 963f fc71 4c06 4ce9 893f
000007b0: be6e e6b2 a462 b73f d563 76ca f533 9b3f
000007c0: 4113 3eb9 5715 c23f 39e5 5328 a0d6 8b3f
000007d0: 6530 ed71 82cd 833f 222e 6b03 a3c9 96bf
000007e0: 5b60 7e70 6bf6 983f 23cb 2f74 e866 a13f
000007f0: 3ae0 baf4 1d4b a6bf 7f5c 4e31 c56b a83f
0.07205212486187622 0.19688554514568835 -0.03518995931817305 0.06979771698529125 0.008403210415512305 0.06986173037686431 -0.13451927034774308 -0.060013468534328256
-0.07730322825275297 0.08808606044786454 -0.027843665822422658 0.11651155327409354 -0.04602970315238279 -0.0013583090518762876 0.14747105215981496 -0.007112275131831889
0.04577160903625075 0.06858499460812974 0.07676505756946056 0.08528569296194587 -0.0037581645659438266 0.0009982005116368038 0.04060805670911245 0.02252326467881101
-0.0314348129105969 0.019144860159081165 0.0009504846592612282 0.015710169489078777 0.06996830943646928 0.07392452676270275 0.025536959852127412 0.019377485441461707
-0.03204195946475688 0.03817359872492175 0.022821300007465954 -0.07648991960079464 0.0293209613396189 0.0534293366644548 -0.014764440541222999 0.02658030188067209
0.20617599300395786 0.11444009086431059 0.06436066312116104 0.08633044780077823 -0.08992644671414043 -0.023373834817301976 0.07344381529043223 0.004722494084196677
-0.10572804070155505 -0.046656165974429696 0.14683494107663816 -0.07440245873867403 0.033300210810043744 -0.06091871372281841 0.02598413995783021 0.049344151818021195
0.06957901054414162 -0.015860987493063188 0.047881055270749866 0.01731769880305116 0.016486675511823822 0.13426978222687272 0.018128049209882757 -0.06485268033758439
-0.05206479518711166 -0.10698496981518722 -0.0821964584457854 0.02579356781732066 0.14524076571551126 0.03918783496531806 0.07987352638487533 0.06843797141456376
-0.07130459793163015 0.00058513745230581 0.059627066766121166 0.07444690118304706 0.02974916517302732 0.11349660935449785 0.049767349439967086 0.04958332930175656
0.0025155987031860987 0.08309005605494331 0.045987168046045634 0.12005245186490256 0.008379799349506563 -0.025671775027521958 0.044508300353121845 0.0036631981758127184
0.028609560633905587 -0.03634903929775112 0.07257792866624337 0.01020912249546035 0.11926755501597383 -0.0681589651918787 0.1368041957952839 0.007875660135927387
0.04626731018516709 0.09176554942137102 -0.0004848282476068735 0.04455948069751159 0.12994812190671753 0.06091558886076067 0.1255038956284078 0.06933518845354117
-0.018083920215726544 0.01904198693012354 -0.026859030232697055 0.046624720475267695 -0.021418656493815493 0.0760682882864669 0.012893263266697976 0.11440412434650007
-0.019134254670790683 0.03802104606679875 0.03017230026045426 -0.06415986163066435 -0.05800913308410896 0.019416358637045293 0.11126425617080062 -0.001869404994274611
0.008984872988253149 -0.00023575872763066034 0.005764208746111341 -0.0051418272836890756 -0.001833413576261168 0.12437172924226614 0.07224984173159582 0.06947268613307821
0.005856136117680419 -0.005546279844269492 0.07427143156699259 0.113424700709325 0.013474584254120599 0.06842326186038986 0.0597347352683207 -0.047778532779678855
-0.039070105438657146 0.011358386526222656 0.08855233949587249 -0.010200651184141119 0.1648105296272479 0.17073169045744904 -0.04956307979667894 -0.02942576952202434
-0.010076777487043461 0.030765116761553496 -0.014966607229092226 0.0047095634986523945 0.11669031533540357 0.007106484100369882 0.1289392731035871 -0.0768246396913877
0.02569966847703699 0.13154588246063273 -0.028846916290466502 0.017841103052565824 0.012974108357678852 0.07529560722859063 -0.01465428396799794 0.08627604776185785
0.06972071596023155 0.057777476031225954 0.0030525494328225863 0.06725731422175225 0.029316619421575478 0.002130683331957969 0.02539948698689689 0.005321962360264315
0.04803252086885858 0.08288377556092852 -0.0010932381455361292 0.016090552359625993 0.021683914730954566 0.04196994806335195 0.09356232818777295 0.030476058465367308
-0.004449015250470601 0.06349283298950012 0.057533944063378584 0.08114271846870143 0.028747585179887278 0.04353011093160698 0.09113399197179596 -0.013440877861867364
0.03269333580371783 -0.024203830770891773 0.05308158447657556 -0.027765312639392768 0.014412534647848944 -0.0041205497443455134 0.042059954343514984 0.08313132089800795
-0.05881476921091282 0.013688065190003231 0.09768837551329695 0.07805871535303524 0.08396042602603512 0.013339666308843564 0.08347315756380386 0.03833191572688984
0.061055082912917384 -0.03939356903450159 0.061802349634872036 0.0086433304814223 -0.022906468849821296 0.09436182700126423 0.038169479493451876 0.07063236959648812
-0.02280084426412537 0.0075880190449592955 -0.039846072321043216 0.062380113714799686 0.12205043323958766 -0.05549189674333167 0.05325681855221824 0.10079682570083354
0.06627157569946812 0.04624006834929454 -0.02168161456753369 -0.012064056348135519 0.0036235829365270284 0.08052183023349896 0.07483051411066984 0.048572426117322556
0.021049506606806597 -0.010505622058907097 -0.008972803252035874 0.08868707660758585 0.09929530826421393 0.045725253723235555 -0.01069189307214538 0.0030289784805968903
0.05620418446546217 0.05871187135299477 0.01338511557417625 0.11785574285550302 0.01276933836489694 0.101113740364389 -0.03130034654226542 -0.022242643636339772
0.05075154678320944 0.1186144694787164 0.037802791521819756 0.013109743703847699 0.022201311063418244 0.01265200990888448 0.09134892814329995 0.026565399629905635
0.14127632660906822 0.013592959624008404 0.009669322110902276 -0.022253558238658162 0.024377516499584178 0.033988250906892746 -0.04354184734751283 0.047697222012339495

fc2_act.bias f8 [50]
00000000: ca04 4f07 9f05 e93f 7aec 166b d898 ea3f
00000010: 315b 88b4 0961 f23f 88a5 b9ac 39a8 f03f
00000020: 0693 f776 1039 adbf 42bc 5be9 2014 f33f
00000030: eafb bba0 f959 f13f c7a6 645c ec48 f33f
00000040: 4e7a fb31 96fb d93f 39c5 cfb1 9d24 e33f
00000050: 5189 70d0 a496 f2bf 8ad8 5b90 776e ef3f
00000060: 9624 d5c4 2a25 f0bf 3ee0 6ef4 9b2e f13f
00000070: 154b ffd0 b479 983f 4441 55ba 6ab0 f03f
00000080: 19e5 ea34 0193 f2bf e5b4 5f99 f481 e5bf
00000090: 7c22 9ed6 6b95 f13f 14c0 97d3 02e6 eb3f
000000a0: 51e0 c70a 8e3e f13f da7b 8c94 4f99 ee3f
000000b0: 8c4a f2e3 6adf f23f debc aea6 97ce e93f
000000c0: 6423 a6cf 4077 ec3f b915 c8c5 1c16 f13f
000000d0: e5a1 840f 89a2 ef3f 4b3c 3bc2 3594 f23f
000000e0: d682 5854 25ee ec3f b15d eff6 e1f4 ed3f
000000f0: f61f a29d 04e7 f03f be3b 61d6 e5c5 f03f
00000100: d55f b308 2ee7 b3bf 0e36 2bad ecbc f03f
00000110: e5c4 4a86 bf72 f0bf c537 09b2 c240 d93f
00000120: 76fe 44cd 5771 e83f c60f 8640 f910 f13f
00000130: 0dd9 b264 3d2e ea3f bb52 9232 3942 f13f
00000140: b351 e299 3072 f13f 031d 242d c221 eb3f
00000150: 2c46 fdce 3fdc f13f 8019 575c 15a9 f13f
00000160: da00 f2c0 f202 e53f ef7c 975f 2009 e03f
00000170: bc7a 0ef5 3642 f03f c5af 2330 663b f13f
00000180: 0564 21a6 d089 e9bf 3521 db97 f14e f13f
0.7819361822841071 0.831157883795995 1.1486908962303455 1.0410706278874802 -0.05707599117503119 1.19241419940569 1.0844665793117607 1.205303536330051
0.4059806335552921 0.5982197258837579 -1.1617782728358927 0.9822347468859942 -1.0090739907048252 1.0738791988533332 0.02390177274339596 1.0430705336221573
-1.1608898226825828 -0.6721137042601667 1.0989797957901422 0.8718275196715717 1.0777721806644147 0.9562147046416343 1.1795452980192378 0.806468797256368
0.8895572715419857 1.067898533424666 0.9885907462203788 1.1611840808070777 0.9040705344560489 0.9361429045629192 1.0564008863020695 1.0483148931705126
-0.07774627411288233 1.0461241497426985 -1.0280146833213675 0.3945776690132983 0.7638358124895166 1.0666439552742175 0.8181445090074547 1.0786678290798324
1.09037838087998 0.8478709108029822 1.1162717900773584 1.1037801367798181 0.6566098946059598 0.5011140696550721 1.0161656925699125 1.0770017509885161
-0.7980731243834503 1.081773369967846

fc3_act.weight f8 [20, 50]
00000000: eb6d 08b5 2809 a9bf 3044 49cf 342a bf3f
00000010: 884e 9d2b 78e2 bc3f fa28 b2b4 b154 b03f
00000020: 3df0 1646 34cc b13f 8fa4 a096 23d6 ba3f
00000030: cf36 bce3 4227 b03f e558 0318 3c90 c93f
00000040: 149f e074 a261 a1bf 456a c8a1 8de2 b23f
00000050: 024b 908b 3656 bdbf babf 2f37 3957 c23f
00000060: 2cb8 3fb3 8c2d a7bf 62a6 d487 1d1d c53f
00000070: f3f5 5746 8a9a d1bf 5541 4ba7 ddef b93f
00000080: 63d2 9f87 7bd4 b4bf 7a87 db8f caad d2bf
00000090: ccb2 eb34 f992 c13f dc6c 99e9 9363 b23f
000000a0: d7b7 4c9a 393d cd3f 7fde 1162 4102 c53f
000000b0: 0af4 5486 6789 d03f d7d8 847e 380f a73f
000000c0: 36db 76e7 00ec c63f 2ecc b8eb c03b 903f
000000d0: be45 0254 00af c03f afb3 897e e788 b23f
000000e0: 6e24 6a8a 2527 c13f e8f7 559c 028d b43f
000000f0: 92e8 ed18 4b4f bc3f 7659 5cc8 7864 c23f
00000100: cccf eb25 7a02 b83f bc69 6b20 d07a c43f
00000110: e3c9 476f 72e1 a33f 7df8 2ef2 3416 b93f
00000120: 7035 8d24 4e07 bb3f a79f e93c b26e c63f
00000130: 748f 7e22 aa00 d03f 6f05 d722 1e9a c83f
00000140: c844 31ce 8a04 b73f b1f8 1f94 9ff6 c23f
00000150: 6b3a 794d 0a6b 943f adab 8cb8 098e b43f
00000160: fe3c 1391 090f c23f fb79 cbaf 641f c53f
00000170: 307f 58e0 5443 c03f 90ac a498 7d1f 95bf
00000180: 9458 778c 431d d7bf 203e 6212 d6d2 9b3f
00000190: 5b69 2139 7ba8 a23f 5717 fd0f 4ae6 bb3f
000001a0: c53a 6038 8b1a c2bf 1588 a388 9bc9 963f
000001b0: 010c e962 cbdd a03f 3796 b53b 2049 a43f
000001c0: 3753 30f4 7c85 903f 887d a87c a866 c0bf
000001d0: 4e77 3339 2994 b03f 6c58 58a4 c5a2 bebf
000001e0: 1eec 723c 63a4 d03f 0761 05dd 23c0 b2bf
000001f0: 5f58 1f78 c2d6 c33f 96be caf6 c0b6 acbf
00000200: 7a84 d7a5 257c c43f 5a4b 52d4 b83c 94bf
00000210: c711 93b2 f737 c13f 7631 81a3 052d b23f
00000220: 3126 f5cd b26d c7bf ebf5 5892 7e35 a4bf
00000230: d5f1 d5c6 aef7 9a3f c9ad 1a1a bb6a a8bf
00000240: 469e 3910 e1e8 94bf 4c4f 5682 8ab4 b53f
00000250: 52a6 705e 3a58 a6bf 9c53 97a1 403f c8bf
00000260: 4b2e af3f 7cf1 b03f de49 d440 ff97 b6bf
00000270: c375 9ee1 0810 bc3f 6db0 dedd 7732 bcbf
00000280: f7be f996 2467 72bf 875c 5ee8 656f b3bf
00000290: 4d73 d9ea 4e5e b7bf 3a7f 23c3 7bcf bfbf
000002a0: 9650 4740 d933 ad3f 2ea6 4dfe 223b c3bf
000002b0: 695a 9b11 b952 adbf cb42 83fc 42e0 79bf
000002c0: 92a7 4db8 8d78 38bf e4d5 bd8d d1a8 a8bf
000002d0: 39b2 8765 41e1 9bbf c482 0c6f f8c4 b43f
000002e0: 9423 299c 75f9 a8bf c93a 51fb 40eb cfbf
000002f0: 7f43 e287 23ae c9bf 1d63 dd36 d2ff aabf
00000300: 4292 5f4c 1f88 7abf 186a 1339 b10b 9c3f
00000310: b3ae 9670 a095 d53f aa57 1291 ba46 c4bf
00000320: ca42 1eaf 2005 c73f 87c5 e565 cca8 b63f
00000330: 8209 c7b9 5299 c03f 8fe0 a0aa 2f7b b53f
00000340: 25e7 9d5d bf4c aebf 168e ac7c d5db b83f
00000350: 4aab 7204 e0f6 d03f 703a 6530 7ba6 c13f
00000360: 39a6 a7f3 bbb1 b93f 8307 c0c5 eb0d b03f
00000370: 5cf0 7b35 99b3 d7bf 1774 4696 499e a03f
00000380: 781a 18ea 93c9 c5bf 517b 6043 e6a8 ca3f
00000390: b6f6 7948 a897 d4bf 3f12 6c67 40f5 bf3f
000003a0: 4522 c607 008c d3bf 7c00 c4e6 0b31 d4bf
000003b0: 827a c230 1b36 af3f 40fe 15c3 cda7 a9bf
000003c0: 1045 1f8e 739d cf3f a38f 6063 06e2 a1bf
000003d0: a935 0279 1cfa b93f 2106 e77f 1784 ba3f
000003e0: 95b6 46ff dac2 c83f ee8e e61e f62a 743f
000003f0: 6b59 0551 edcd b93f 80ae 2aa8 7ab7 c73f
00000400: b062 ae52 32ac c83f 4283 b85d 9b7e a43f
00000410: 0386 8493 3d0c 9abf 90ff 91b4 8cd1 be3f
00000420: 7f5c afb0 522d b6bf 4153 c8e5 0648 b23f
00000430: 0362 be12 2d00 b0bf eda4 7840 15d7 b53f
00000440: ebdd 0697 c84a ca3f 5b9c 3b2a b57e c33f
00000450: ccb6 519a 2cc6 b33f 535c 7748 4621 c13f
00000460: 88ba 6bb0 6a29 c43f 6867 5425 7761 ac3f
00000470: a969 f012 a147 c53f fa9b 8bd0 37e0 ac3f
00000480: 5225 f273 f6fe c63f 4209 26dc ec95 c13f
00000490: ffab b052 de58 c23f 9537 1627 65a2 c03f
000004a0: 133d bd22 93ac d2bf e8b1 c2a0 13d7 bb3f
000004b0: 683b f02e abb5 bc3f 9076 21e5 bebb 74bf
000004c0: 4322 f207 a8b7 a1bf 7f89 53ee d1e3 ba3f
000004d0: be99 71b3 4a37 bc3f fe7b 7777 b3de bbbf
000004e0: 2024 462c 468e b4bf 4c43 8ccb bade a2bf
000004f0: 6c5c cac8 03df b1bf d75b 14da e35d 783f
00000500: 26f2 4dd9 ff59 b8bf e35b 5509 0b86 b63f
00000510: 0b7e 26b0 bb8c af3f 2f56 214b 8bc4 acbf
00000520: 2bd0 a48f 62c9 c1bf d90c 2c3d 09b9 b63f
00000530: 8f2a e5a4 dca2 bd3f 1f0c 2af4 defa b83f
00000540: 27e1 c1e5 9637 a7bf e5c7 b44a 5c9e 9b3f
00000550: 0fc7 119e b0b1 afbf ea7e 9a85 e76d a13f
00000560: 5ba6 0ee9 cb4d 76bf 2909 de78 8620 b23f
00000570: 953c 97e3 95d3 973f dcfd c3dc b7f2 7f3f
00000580: eaf8 73ca cc8c 903f 2365 7192 e201 c0bf
00000590: 935a 2033 86f4 b8bf 76e3 dfda f40f a9bf
000005a0: dd25 b94f 30c6 823f 702c d0d8 ed3d c0bf
000005b0: 3a29 4fde 96be c0bf 0aa9 829f 888a afbf
000005c0: 9ad0 bf34 868f 9fbf 614b 960c a826 8cbf
000005d0: 0359 660d 2f06 9c3f f585 5b6a b019 ab3f
000005e0: 6faf b17e a467 abbf 0f83 3b1c a1b9 babf
000005f0: fb16 19e4 d8f6 a0bf 8a35 529e 4c44 c1bf
00000600: 37b1 6c55 2c92 bebf d916 5f73 0279 b2bf
00000610: d8f6 8b6a bde0 b0bf ede9 bc3d 870d bdbf
00000620: f1d7 d789 6538 933f 66c8 54bc 25a7 bbbf
00000630: 7649 f609 40d1 c1bf 6511 ab8d fe74 323f
00000640: 68b9 22bd d92c c93f 1735 aff8 f937 b63f
00000650: bfad fc69 5497 c13f 4b1b 2c22 b738 ca3f
00000660: 5f46 b157 5654 c03f 2a78 a611 4225 9e3f
00000670: 75a5 772d f856 c63f 2ee1 2c67 aad6 953f
00000680: 7671 1caa 50ab 98bf 404b 2c22 86aa bc3f
00000690: e640 629a e4fa d4bf 8c0c a803 45e4 b13f
000006a0: f03d 5d3d 9f39 bebf a51b 3e09 ec70 c83f
000006b0: 518e 9dc5 ba73 d5bf 998e aa9a 2322 a0bf
000006c0: 104b b9ea a079 d3bf cbcc faa7 3663 d2bf
000006d0: 17fc d76e 22e6 c13f 54a3 863e daad 9cbf
000006e0: 7744 a86e 06c3 bc3f 730f a15f aeb8 9abf
000006f0: 96cf 26bd 8bb3 c03f ec17 c269 2fdd c83f
00000700: 759f beef 2e42 b73f 11be 5122 8ce4 76bf
00000710: 4b15 bd9f d20f 923f 75b6 3e8d db29 c23f
00000720: d923 c5d0 7146 913f 4b3b 7d30 ca76 a4bf
00000730: ed07 a495 fa2b b63f 1b27 383b 8a9b c33f
00000740: 1348 cac0 bb9c b6bf e57b 7290 06c6 b23f
00000750: 26ce 419e f6bf b9bf a2e6 5b44 6d4b c53f
00000760: 94e8 06c3 5c59 8a3f 3c14 f754 4d55 83bf
00000770: 6a27 9465 483e af3f bd3b 55c3 5cf2 d03f
00000780: c155 4931 20a1 cc3f 8b94 2495 8ef7 c03f
00000790: d976 c849 ecb5 c33f 54f8 45f1 9cdf 973f
000007a0: 31b2 be0e eedb d63f 7c47 8784 7c1a b33f
000007b0: 4e19 2787 a894 af3f 1179 e7c3 3c3d ba3f
000007c0: 9d0a f5bf e477 c4bf 1ba7 65db e0de 72bf
000007d0: d6e9 33d9 8529 af3f 111b cd4f 789f 90bf
000007e0: 8320 66b8 75c8 c43f f238 6e6c aa9a af3f
000007f0: 352d 85f4 f5e4 a8bf 041d 6b7a afa1 c03f
-0.04889800271868324 0.12173776684473192 0.11283064904028539 0.06379233037492674 0.06952215872928576 0.10483000209264247 0.06309907970372851 0.19971419498933254
-0.033948017852081375 0.07376942825104844 -0.11459675700488606 0.143286849924605 -0.04526939094635937 0.16495103008610373 -0.27505738133899554 0.10131631216359456
-0.08136722623005137 -0.2918573765619993 0.13729777416246802 0.07183193638904889 0.2284309390465171 0.1641313294273807 0.2583864986261807 0.045037999576764846
0.1790772562214557 0.015852941882439513 0.13034061529155666 0.07240149344734335 0.13400716074491775 0.08027664486687025 0.1105849204886076 0.14369115622748624
0.09378779817399091 0.1599979551600209 0.038829399189029855 0.09799509918863865 0.10558021919606175 0.1752531812119262 0.2500405632838387 0.19220329953354162
0.0899130586051512 0.14815134747181483 0.019939576128587804 0.08029232745745558 0.1410839041113618 0.16502054771167693 0.1270547957838004 -0.020627939645390614
-0.3611611243953885 0.027171463844352428 0.03644166061777084 0.10898268595073311 -0.1414350533745702 0.02225344678380033 0.03294215757752995 0.03962040642617775
0.01613421669397327 -0.12813287817787633 0.06476075788984056 -0.11967120420772098 0.26003342536177054 -0.07324432512303157 0.15499144425729391 -0.05608180058095262
0.1600386676573498 -0.01976288600833285 0.13452049464662094 0.07099948159993183 -0.1830352311756527 -0.03947063003986869 0.026335459600419348 -0.0476892918935295
-0.020419613471317065 0.08478608781871094 -0.043641876247715886 -0.189430312063135 0.06618477396767124 -0.08825679142709172 0.10961966999317156 -0.11014508406396013
-0.004492896012024287 -0.07591854975759037 -0.09128278001430808 -0.1242596961415047 0.05703619870806269 -0.15024220864442966 -0.057271750830911135 -0.006317388215578655
-0.00037339649161671166 -0.0481629834675166 -0.027226468870070717 0.08113053046373425 -0.048778224289498656 -0.2493668772826452 -0.20062679419472926 -0.05273301048027277
-0.00647747255240866 0.027388352497704188 0.33725749011021405 -0.1584084709508578 0.17984398413366015 0.08851315963490523 0.12967905112425276 0.08391092220051831
-0.05917928712638191 0.09710439962196235 0.2650680583416728 0.1378931032472397 0.10036825846295806 0.06271241739162119 -0.3703368208223361 0.03245763739980861
-0.170214165977274 0.20827940263640213 -0.32175643041396584 0.12483599209742467 -0.3054199291150648 -0.315493560177863 0.06095967264376602 -0.05010836607379732
0.24699253501470553 -0.03492755854702458 0.10147264437019622 0.10357806084268663 0.19344651665362692 0.004923783692365664 0.10079844692277155 0.18528683863893392
0.19275502240340847 0.040028433981439196 -0.02543731892467883 0.12038497360663158 -0.08662907422636755 0.07141154394078077 -0.06250268657311868 0.08531315635686428
0.2054072129665053 0.1523043113913641 0.07724264876898274 0.13382795847312198 0.1575139390401612 0.05543110209164476 0.16624844956170406 0.056398147780605215
0.17965584432048815 0.13738785504762957 0.14333704984287007 0.12995590599569753 -0.2917831267595414 0.10875055956666524 0.11214704414326848 -0.005061860736615423
-0.034604311914396856 0.10503875797761529 0.1102186859221552 -0.10886689821880677 -0.08029593068035057 -0.036855542513996115 -0.06980918552504684 0.005948915525798313
-0.09512328200612127 0.08798283555857682 0.06162058377526244 -0.05618701259724578 -0.13895828260285845 0.08876092666109815 0.11576632524262663 0.09757798634568403
-0.04534598879485179 0.026971284923270295 -0.06190254144247664 0.03404162889387215 -0.005445286297722863 0.07080879641401751 0.02326807214359102 0.007799833500257116
0.016162109238387602 -0.12505752707037585 -0.09748114345743834 -0.04894986316498422 0.009167077477417013 -0.12688992582875214 -0.1308163247579815 -0.061603803130610826
-0.030820939034996366 -0.013745606311919624 0.027367339318140626 0.05293036745366556 -0.053525104966722796 -0.10439497889775516 -0.033133294910426124 -0.1348968289425268
-0.11941792569695485 -0.07215895954785924 -0.0659292588352075 -0.11348767525934252 0.01876982358768226 -0.10801921699456471 -0.1391983078616012 0.0002816316097489418
0.19668122992647885 0.08679163285633638 0.1374307172312523 0.20485581558770102 0.1275737693963945 0.02943900330284791 0.1745290967949519 0.02132669691784022
-0.024091015227086975 0.1119769891195519 -0.32781329227965583 0.06988936747807112 -0.1180667424025541 0.19094610644625934 -0.3351885728681952 -0.031510460500865985
-0.3042986194824815 -0.28730551151529643 0.13983564770021026 -0.028006944719581497 0.1123508472594653 -0.0260951276652714 0.13047930465620244 0.19425003684972297
0.090853627711679 -0.005589053534194048 0.017638484000845705 0.1419023933098519 0.016870287291826578 -0.039968794268694006 0.08660856393183254 0.15318420306749023
-0.08832906204978057 0.0733341314939789 -0.10058537830064349 0.16636434400407035 0.012865757657767575 -0.009440044551306419 0.06102205505346954 0.2647926242397565
0.22366716772618925 0.1325548389660621 0.1539893493908753 0.02331395361533624 0.35717345657284044 0.07462290034825786 0.061681047914634676 0.10249690802399793
-0.15990886090192627 -0.004607084605916768 0.06086366917039114 -0.016233329649618492 0.16236754897932223 0.06172688077559653 -0.04862183198801021 0.12993424870931147

fc3_act.bias f8 [20]
00000000: 3639 30d1 af03 f23f af0d 6290 b74d f1bf
00000010: 47b3 631f f2ee ec3f 7e3c 922b d170 b3bf
00000020: 5fbd 7d8a e01d f23f 9a2f 1baa bcaa ec3f
00000030: ca3b cb6c 0c06 f03f df71 bb00 3534 ba3f
00000040: f9e9 adfc a77f f23f b594 3170 c868 ba3f
00000050: 0b15 be9e 2ac2 b03f a299 1176 a5cd f3bf
00000060: e104 7565 c973 bfbf b738 341f 5eaa f03f
00000070: c2ae fe2b 0123 f13f 3f52 d487 cdff a93f
00000080: ed6b f46c 07d2 f03f 9344 3a39 bc0d bcbf
00000090: 63d8 6f59 be2f ed3f ab0a a3a1 2321 ed3f
1.1259000941677875 -1.0814738883935708 0.9041681874347 -0.07594020189047687 1.13229421709169 0.8958419153582213 1.0014766931305865 0.10235911624790316
1.1561660642897762 0.10316136111358072 0.06546274543332602 -1.2377066242275778 -0.12286051489811058 1.041593667879665 1.0710460394429195 0.05077974589417921
1.0512766128583693 -0.10958458325537128 0.9120780703367583 0.9102953106851904

fc_q.weight f8 [3, 20]
00000000: f548 5c1a 43b5 d43f a14c 5535 b08c e0bf
00000010: 9be3 0cc6 131e d53f e488 2485 c520 8d3f
00000020: bc1f 3c03 af0c cc3f 0931 9862 508d c43f
00000030: 5dd6 75c1 1d05 d53f 0652 1dff 271d 80bf
00000040: 2635 904f 8e63 cf3f 9a90 764b 25c6 c1bf
00000050: 9493 71f8 0397 b73f fd94 7eab 38ad ebbf
00000060: 631b 37d5 b2b1 b53f 4526 7597 b877 d23f
00000070: e679 0232 6220 d23f 4937 df8a d7ac bc3f
00000080: fa47 20ab f56e c13f 3177 6821 199a d0bf
00000090: 23c1 b8ae 3d46 b2bf 28cb 00a0 2829 a33f
000000a0: 6e26 4020 9763 d63f d1f5 61ba 1bde e0bf
000000b0: dcbe 0e5c b27e d73f 21dd 66ac 1d43 c0bf
000000c0: b914 d37b 3b93 c13f da8e 2ce0 b24b 90bf
000000d0: 9941 7536 cf71 95bf f6bf c61c 9562 b3bf
000000e0: 1276 081e c74b d23f 0f3a 667e ba60 3fbf
000000f0: 712e 033f f127 c2bf 99e2 683d da5c ebbf
00000100: b38f a68f 0489 c9bf 04be 7c69 ece7 da3f
00000110: 16d1 daf2 fa38 813f 89b9 331f 04ee cabf
00000120: 6272 1ff6 5111 d93f efcd 9fd5 1921 b53f
00000130: 4df4 94a8 8ed7 d13f 3e4e 2dcc d076 b23f
00000140: 5aa2 2bea 606b a7bf 4978 d524 d72f e1bf
00000150: 64c5 37d0 500c d23f 343d 5ba5 db69 c13f
00000160: 5fec 855d 44df d23f d653 7956 bc22 cf3f
00000170: a07e b675 0dfe d33f 49cd 1c0b 3755 c4bf
00000180: 71cd 1eb3 b438 c83f d626 0861 dc23 bb3f
00000190: eb60 ef2a 5b8a b8bf af46 42bd ea0d ebbf
000001a0: 9922 6a1d 6459 b03f de7c ad2b 8b84 b13f
000001b0: 0a32 44a5 3065 d23f 30a4 687a 21f2 c8bf
000001c0: 6809 92d4 8bbc 973f f713 9e94 808e c8bf
000001d0: 2cb2 d313 d1b6 d03f 4eb0 9541 3bd2 d53f
0.3235633618761676 -0.517173866430671 0.3299607690892629 0.014222663045590563 0.2191370740695201 0.16056256117043002 0.32843727009399065 -0.007868111107804953
0.24522570500304502 -0.13885942635272813 0.09214806380766866 -0.864895186376685 0.08474271493387912 0.2885571936682008 0.2832265365958889 0.11201235905101926
0.13619871955648916 -0.2594054056406661 -0.07138429179827148 0.03742339089548913 0.3498285117098935 -0.5271128311430237 0.3671079539299009 -0.12704821508462152
0.13730567499275084 -0.015913767750261744 -0.020941961001257423 -0.07572299912021649 0.28587510998645016 -0.00047878792829517206 -0.1418439443281048 -0.8550845336349823
-0.19949395193282057 0.42040548612109796 0.008409462486590285 -0.21038867496049488 0.3916821387809134 0.08253632989345026 0.27878157103606754 0.07212548241414482
-0.04574110849882081 -0.5370898932849367 0.28200168927931757 0.13604302953761194 0.29487713940733856 0.24324754927024966 0.31238113875768114 -0.1588505558262148
0.189230525456519 0.10601594323102445 -0.09586114690990015 -0.8454488464796749 0.06386399953965806 0.06842870537137766 0.28742614878936534 -0.19488924481382375
0.02318018422057247 -0.1918488240882252 0.26115824638580665 0.3409565105891986

fc_q.bias f8 [3]
00000000: ec1f 0f4c 769f f13f 2861 6034 910a ef3f
00000010: 88fb 4a83 4b20 f03f
1.101431176286492 0.9700399420717405 1.0078845146778992
