weights/numdreg_ad/gspc/mse/high/numdreg_ad_pretrain.pt (torch, 263419 bytes, 14 tensors)

fc1.weight f8 [100, 200]
00000000: 698c e40f 6de3 74bf 615b cccf 950c 883f
00000010: 2978 68ec 4a25 973f 56be 6cd0 0f15 b1bf
00000020: 6299 db18 9a4e a8bf 4a20 edcd 8b8c 863f
00000030: 9928 639f ff86 92bf f056 0177 b42c b43f
00000040: 2a65 d316 1ad8 98bf 49b5 83e5 458b 9ebf
00000050: ffb9 199d f52f 8abf 4b70 5e0d 246a 90bf
00000060: 1d89 d737 8daf 593f 7dcd a41e b652 87bf
00000070: 40a7 8584 d2d2 a8bf 8e16 160f d150 643f
00000080: b3c7 94ba 02d5 8e3f d4e8 02a9 c250 85bf
00000090: 0a57 7cdf fe47 a9bf 8430 59ef 1af9 823f
000000a0: b100 2761 c821 85bf 78d8 ab94 95f4 933f
000000b0: 1295 4c2e da16 983f 4603 7be0 9233 aabf
000000c0: 3f8a 4890 57aa 69bf 34a1 10f3 6c72 9e3f
000000d0: ba29 2bbb da6f 89bf 08a6 c21e dfda a03f
000000e0: 64eb edaa 19cb 96bf 0f78 29a9 7f66 a0bf
000000f0: 63a0 7cea 7609 97bf dbcd 7753 f6a7 a3bf
00000100: 6c8a f934 a39e a73f 42e4 ed4e 645b 7ebf
00000110: d6d4 5b06 2097 a13f 4750 5a37 fef4 6d3f
00000120: 35f5 4bae 9fd2 a33f 1392 d6c3 facc a0bf
00000130: 54c9 9fa8 0281 a23f 8314 d9cb 3206 853f
00000140: 2367 2941 fba0 a13f 0c76 813f e6bc 79bf
00000150: 69f4 a6d5 97a5 9f3f 779b f289 9a26 9b3f
00000160: e029 5ed1 d792 8c3f eee4 d696 db20 a4bf
00000170: c066 4975 3f08 7e3f de9f 6528 45a7 9d3f
00000180: 2ad9 6ec0 dcc9 a7bf 3a5a 078d ba45 a93f
00000190: 3da9 4fd9 604f a33f a4fd 876e e817 713f
000001a0: 5580 0f96 758b 90bf 02be 2a8e 5193 a03f
000001b0: d882 109e 7978 86bf 584c a3f1 32ab b03f
000001c0: 26c8 4a9e b610 a0bf 65e9 be18 8c15 733f
000001d0: c713 4a43 8609 9abf 1e13 e1d1 dca8 8abf
000001e0: 41ea 38cf 5835 a0bf 65e0 904c afbd 93bf
000001f0: 801f faa0 4efe a1bf 4724 b865 e1fd a3bf
00000200: 6c7f 0002 7816 a4bf a561 37ae d904 953f
00000210: 7b60 2cea c030 8d3f b304 74c1 88d0 87bf
00000220: ecc5 306a a3c9 983f 10e0 5731 37a9 8b3f
00000230: 6f64 7253 bb01 8d3f 03dc bb52 a5ec 923f
00000240: 5646 73de 7816 a03f d044 080a 615d 93bf
00000250: feb6 efb3 a128 a43f 5bba a942 5b0e 8c3f
00000260: 10df d397 a76d 75bf ebcf 9779 cc92 a63f
00000270: a4e2 0a65 ba2f 743f 4f17 9837 2a30 9abf
00000280: 0040 ff9f dce6 9b3f dc72 b691 4a26 70bf
00000290: dd62 b4ad 23eb 5b3f f37b 5308 93ad 72bf
000002a0: 7398 79f3 214a acbf b24a a6b5 ca22 a13f
000002b0: f5ed 8933 2cc1 773f 9d96 38d9 1d7a 9e3f
000002c0: 8cd5 7ef6 be8d 733f f14e ac98 52e7 a5bf
000002d0: f84d bfe3 1ac2 8ebf 67f0 f702 8446 84bf
000002e0: 52d9 76b0 5382 8bbf 1d4c 2440 17a4 a83f
000002f0: 2569 6a4e ab66 57bf 561e 1534 f3e8 9abf
00000300: 210e af94 59fe a23f d587 3688 797e 90bf
00000310: ff48 bf0f 8729 a13f 6303 5bed 6be7 7abf
00000320: d98b f8c8 df42 923f 6a9a 8cbb c5aa a53f
00000330: f9dc 2a13 92ae 16bf 237b 8136 7966 9bbf
00000340: fc7d f7b5 3fec a0bf 6739 b0f9 c527 90bf
00000350: 189e caec d901 a73f e98a 8c8e f161 8f3f
00000360: 92e4 d4fd c3cc 32bf 7386 9278 14d6 883f
00000370: 62c9 2d21 e6bc a13f 56bf a076 12d4 95bf
00000380: 08af 0356 f7bc 923f e3ca daa4 83aa ae3f
00000390: 1341 1f25 0a1c 933f ccd1 5270 c9eb 933f
000003a0: d9d0 d962 b37f 4d3f 6734 88a0 73a0 9abf
000003b0: 9033 5268 0d19 94bf d1a1 3048 fa70 b0bf
000003c0: 5653 d42b 697c 83bf 4bac c309 a712 873f
000003d0: 071e 2efb 86c0 9c3f 5bbc c5a4 dfa0 99bf
000003e0: aaa1 5788 47b1 a5bf 1c3e f0cf cbee 903f
000003f0: a3bf 592e 19e5 923f 99ad 307f 188f 8f3f
00000400: df86 fe15 1aca 90bf bce0 5586 78c9 a1bf
00000410: b0d3 bacd e5a1 aebf 677b 51e8 c5b2 adbf
00000420: 8ee8 9ccd 6fb0 943f bc59 ea36 38d4 91bf
00000430: 29cf 1cb1 69ed 91bf 10ad daf9 efcd abbf
00000440: 4715 16c7 6c65 abbf 5acc 30af a92d 84bf
00000450: 4653 f6c2 bb3f 973f 57d4 2630 f817 a6bf
00000460: 8216 29e5 8702 a23f 196c f5f4 2a62 a3bf
00000470: e9c4 cc7c fd1d 99bf eb4e a2de 6222 b23f
00000480: aaea ed50 ddd3 99bf b141 c58f 31fe a3bf
00000490: 4737 aa2e 50a9 8cbf 0cbe c785 a066 9a3f
000004a0: 9e5c 7449 7237 a6bf da93 716a 24e1 933f
000004b0: 9fc5 b6cf 946e 90bf db8b f305 a5c4 99bf
000004c0: 1910 fbcd 48cf a93f c5be 9d62 6ec0 913f
000004d0: 4afa 5f8a 4d5a 9ebf 3fb4 fb44 8e61 90bf
000004e0: 36ca 4363 20e6 a6bf 0fcd f789 0a9f 623f
000004f0: 0360 fdd8 a5e8 adbf a770 a69e 0b64 603f
00000500: 1000 6e4f 3621 a6bf 3b1f cad6 6ef8 95bf
00000510: a885 83e7 9ec9 67bf 2f98 d488 8b42 a13f
00000520: 4331 8d0b d80c 91bf 2809 5db0 ea57 a03f
00000530: 0982 41df ffd7 98bf 25df ab1a 387f 82bf
00000540: 962b 60eb 935b 943f 5076 b7c1 8e99 a63f
00000550: d954 5566 34c2 80bf fa2f 3d64 8779 813f
00000560: 920e 878e 597d a7bf 65e1 fe9d bcc6 5ebf
00000570: aa20 82bb 6a77 803f 4a21 13fc ae17 9c3f
00000580: aead f6c4 4eee a43f 0493 830a 0660 a03f
00000590: 48e5 5fa3 97f5 8e3f 43aa 3a0b 6e0f 993f
000005a0: 8b04 87b1 dceb 983f 8183 0391 d0c1 8a3f
000005b0: 3533 c4e9 df4b 97bf 03e4 9bac 8e55 acbf
000005c0: 6314 99a4 07f0 7bbf e646 ff37 b040 aabf
000005d0: 29d2 c3f0 7296 8cbf 7c3a dac3 2f5c 733f
000005e0: 985e 9ab1 d073 ad3f 15a5 fb67 edd7 2abf
000005f0: 9321 8109 0a16 963f 0476 e75b ec6c b13f
00000600: a521 4b86 9542 a23f b3b6 380d 45c8 4f3f
00000610: 2587 ac98 94cb 9c3f 5ae6 c30f 0c7c a5bf
00000620: 9a7e 63fc cc22 9d3f 4351 cf72 2b6b adbf
00000630: eccc d248 d1a4 a63f 4e06 9aee fac1 8ebf
00000640: 0ea4 710d b0dd 92bf c5c4 9c54 0cb8 913f
00000650: 625c 426a 216f 98bf 36b4 1a24 36a5 973f
00000660: 1d34 64c2 9da4 8e3f e950 28c7 c5fe a6bf
00000670: fea4 2300 fbb1 8bbf a47d 9a64 abe6 923f
00000680: 8367 adbc be57 a0bf 8384 3db2 7c13 993f
00000690: ef91 f8cd e07c a2bf 28a5 b155 5825 9abf
000006a0: 57da 3df6 50a3 a7bf b5d1 0ad2 4ee1 a0bf
000006b0: be72 74f2 bd78 a73f 5fd1 3755 7e38 ac3f
000006c0: e4c6 ae89 ef07 2ebf 541e 5b7a 4da0 963f
000006d0: e698 18c4 36e3 9a3f 6126 6475 8ac2 a23f
000006e0: a58c 95c6 af6f 8cbf 85b1 dec2 9606 ad3f
000006f0: 9c57 2589 7162 a03f 21ab aa9e 5244 a0bf
00000700: d8e1 4647 64ab 57bf 1a76 24e9 c0ac a1bf
00000710: 3c55 cf4a 776c 8d3f 3428 2de0 96ce a6bf
00000720: 3de1 c3ed 1e66 a73f a20b e13f 5ec0 883f
00000730: dea5 4725 6a9e aebf 3c8a 37f4 bde8 a0bf
00000740: 00dd 66b6 332d a03f a299 5c66 347c 9b3f
00000750: f414 c3a5 ac4c 93bf bd63 84d3 b1d7 a83f
00000760: 6f73 ec12 5289 6bbf 3566 b26e 0f43 9b3f
00000770: 694e 1067 dfeb 573f 9b03 7882 1495 69bf
00000780: 96aa c031 5385 aa3f f22f 1e40 d4ee 493f
00000790: 1477 00ac 8a24 a13f df5f cda0 a967 97bf
000007a0: e959 965c 8bcc 943f 4af3 eaaf 9d3c 8f3f
000007b0: acf8 33d6 0d06 63bf 8ea4 ec53 8077 9c3f
000007c0: 91b1 788d 715e 60bf 69bd 5962 6e33 a53f
000007d0: f441 2ad8 f005 9c3f d4b8 119e 0942 80bf
000007e0: db0a 365c abe8 8b3f 275f 0422 cfbb a83f
000007f0: 36a6 926e 6e03 913f e020 ae37 c5e5 983f
-0.005099702857736956 0.011742754367828291 0.02260319774551803 -0.06672762716765965 -0.04747468522491506 0.011010257932540086 -0.018093103507262318 0.07880714326287452
-0.024261863368200277 -0.029828159459545565 -0.012786787850214585 -0.016029895130131682 0.0015677336772275737 -0.011388228235410075 -0.04848344676686489 0.002479942625259585
0.015054723090177058 -0.01040794447213892 -0.049377407818765276 0.009264192990620986 -0.010318341698507845 0.01948770255963736 0.02352467448794921 -0.05117472639313418
-0.0031329832293221223 0.029733373961932943 -0.012420376622135677 0.03291985750668053 -0.022259141023350706 -0.032032002830178034 -0.02249704176134094 -0.03839082497497844
0.046132183281561406 -0.0074113767903947764 0.03435611798878717 0.0036568608437140024 0.03871630671162977 -0.03281386986353509 0.03614052112961255 0.010265728803583457
0.03443131609374308 -0.006283664137382693 0.03090512506036128 0.026514448804529658 0.013951955868624688 -0.03931318489362377 0.0073320845445665195 0.02895839747489492
-0.0464619622138563 0.049360112872524245 0.037714983489268473 0.004173191010067443 -0.01615699509045528 0.03237395153461976 -0.010971975456472036 0.06511228942263025
-0.03137751276280225 0.004659220936384355 -0.0254269579477471 -0.013017392306332417 -0.031657004638379956 -0.01927827744313539 -0.035143334532278026 -0.03904632918062894
-0.039233923191431014 0.020526314981766842 0.014253146311191003 -0.01162821617481522 0.024206689220767005 0.013506346886956094 0.014163459285827266 0.018480857062026967
0.031421448854996356 -0.018910900342295645 0.0393724949025067 0.01369925782384234 -0.005231527958350815 0.04408873543061972 0.004928329567228804 -0.025574359553522993
0.027247855439611612 -0.003942767415904238 0.0017040108130627542 -0.004560064645573003 -0.05525308701616973 0.03346856562997881 0.005799458180827601 0.029762712844009987
0.004773851345750823 -0.04278047670064023 -0.01501866347817947 -0.009900122967330739 -0.013432172606240887 0.04812691362362662 -0.0014282868302531529 -0.026279258779395263
0.03709678592670352 -0.01610746282461391 0.03351995532251983 -0.006568357077129191 0.017833229676522542 0.04231851496142698 -8.652464456814284e-05 -0.026758092834252466
-0.033052435839405064 -0.01577672325589088 0.04493599906464513 0.015323531306028442 -0.0002868631834931991 0.012127075128151454 0.03464430956855115 -0.021316803446267706
0.0182989736794488 0.05989467036615339 0.018661650195839274 0.01945414302891084 0.0009002328785770133 -0.0260026995402324 -0.019626817219023318 -0.06422390234423082
-0.009514638567034755 0.011266045556530232 0.028078183251208724 -0.025027746612462525 -0.04236815966925474 0.016535934988551756 0.018452065900816838 0.015409652120147043
-0.016395957558080872 -0.03474022521817363 -0.05982893120145805 -0.05800455532948128 0.020204302715889848 -0.017411115981838185 -0.01750722068318492 -0.05430555272081439
-0.0535081856751654 -0.009852719935315491 0.022704061293171728 -0.04315162265576394 0.03517555878037816 -0.03785833587854643 -0.024528465978794243 0.0708371919193344
-0.025222261490379573 -0.03904871826182744 -0.013994814323520578 0.025782116093919824 -0.043391772715204655 0.019413537022405204 -0.01604683416161878 -0.02516420220207381
0.05040957941449182 0.017335629242949197 -0.029641353197798183 -0.015997145615006977 -0.04472447597244804 0.0022731023634549106 -0.058415587175375115 0.0020008303592487678
-0.04322213859177293 -0.02145550905200298 -0.0029037574387166983 0.03371082349103493 -0.016650558190393083 0.03192075159906188 -0.024261472703416973 -0.009031713785119752
0.01988059162253427 0.044140301844646346 -0.008182916043248433 0.008532579180290146 -0.04587821831549123 -0.0018784372295908788 0.008040269706058051 0.02743409551183732
0.040880643409163184 0.0319826019129206 0.015116867707535633 0.024472922740338864 0.024337242446339984 0.013064984727351849 -0.022750376360863817 -0.05534025055926153
-0.0068207071831852565 -0.05127478297766945 -0.013958833668291497 0.004726587850781724 0.05752422492986148 -0.00020479939484311567 0.02156844790468566 0.06806828731301812
0.03566424621891721 0.0009699189344638176 0.028120347803571328 -0.0419620293850584 0.028453066734867784 -0.05745826508033016 0.04422620786626816 -0.015018425375504265
-0.01842379648261177 0.017303650535897903 -0.023861429319904544 0.02309116931308016 0.014962418074469902 -0.04491251045343054 -0.013523064557789951 0.018458059325551127
-0.03191944173040808 0.024488399866986043 -0.03610899462026739 -0.02553308508905619 -0.04616787916068137 -0.03296896280281506 0.04584306320814367 0.05511851110705623
-0.00022911833806698375 0.0220958810739645 0.02625737735629565 0.036640478925687565 -0.013884900329406877 0.05669089440138734 0.03200106429237268 -0.031771261089792675
-0.0014446715623376207 -0.03452113004662412 0.014367038698689265 -0.04454490171936279 0.04570099499136624 0.012085663151202134 -0.059802357722059205 -0.03302568060077646
0.0315948639067134 0.026840990779555825 -0.01884717714053337 0.0485206194591181 -0.0033613780027636412 0.026623002177620776 0.0014600450197165499 -0.0031228447512607455
0.05179843885737971 0.0007914101008608106 0.03348191594726138 -0.022856378974523636 0.020311524892884156 0.015252334529003559 -0.0023222227333682035 0.027799611208284385
-0.0019981592011132994 0.04140801382606691 0.027366412347477678 -0.007938456665410966 0.013627375365790886 0.04830786981818696 0.01661465215571508 0.02431400444359688

fc1.bias f8 [100]
00000000: 1119 a1c3 5c7d a23f a487 b846 ba9b b23f
00000010: 1037 a4ed 01f6 523f 16fb 576d c036 a5bf
00000020: c51b 1e90 b25e 853f 90b8 67f4 dc2a 843f
00000030: 177c 7c09 4112 763f 8c6d 4a25 8fd6 ae3f
00000040: 4eda 12b4 dfc6 783f 8948 3604 bd3a 983f
00000050: 5280 f281 886e a43f cf50 e58d c922 7abf
00000060: 1413 d5aa 8126 91bf 0ab5 8c97 81e6 a13f
00000070: b3ed 4607 1034 a43f eeee 987d 8cd2 51bf
00000080: 5e3e 7cc2 05dc b33f debb 7a7c f348 96bf
00000090: fdb8 df98 f414 72bf 39dd 5da7 500b a73f
000000a0: a5ca a5c4 785a a03f 4ecf 5755 f761 98bf
000000b0: aee3 ea6c a37a a4bf 258b 9cd7 817a 583f
000000c0: 7f71 ed8c 25ed 93bf addf a798 7bf5 92bf
000000d0: 98ce b688 ecfe 8cbf 186e b689 bc28 80bf
000000e0: df52 ea8d ab42 b33f b24d 219d afab a3bf
000000f0: 3a47 7b2d e4e6 94bf d3ba cfe9 6402 673f
00000100: ca5c 44c1 052b a03f 5beb a515 a825 703f
00000110: 0c65 3cec 6368 9ebf b60e e947 ccf4 7fbf
00000120: faff 2e55 3e32 9c3f 0afb ce2b 8af3 673f
00000130: b533 6393 3ab6 993f ea52 5190 f0b9 8abf
00000140: fd6c 6442 e66a 923f bed5 91dd 3811 a2bf
00000150: 09d1 1031 a2d5 a43f f1cf d35f e7ef af3f
00000160: 524e 779d d0d8 70bf bf4f 524e 9f79 a13f
00000170: 1375 f25e 9625 23bf 9a28 c4ea 1ac5 95bf
00000180: d0c1 b8d2 d541 a8bf 3ccc 6ab3 3282 8b3f
00000190: 51da c5aa d66c a13f 1649 90cf e661 943f
000001a0: 6db3 0c69 6738 65bf d980 d6b1 0ab8 32bf
000001b0: 1b70 8917 fa19 ad3f 1bb6 7ca7 72b4 a03f
000001c0: d204 56d3 93bf a83f a751 5153 658f a9bf
000001d0: 6106 8019 1423 a13f 5b0e 9d75 3511 9b3f
000001e0: 774d 3a5f 4ffa 773f c86c 16a6 0cf5 a6bf
000001f0: 0ab9 530d 49c6 b03f 0a85 b0a6 5783 95bf
00000200: bd59 49fa 987b 9c3f 2028 b77e 0e3e 8a3f
00000210: 06e1 21e4 5d36 a83f 593d b996 6ff7 a53f
00000220: 8d12 1048 0fe9 9a3f c512 f890 d429 78bf
00000230: 3c82 35db 883d a73f 7bab fe06 59c4 7c3f
00000240: 583f 40e6 fdf5 97bf a147 486a 8054 a13f
00000250: 3905 0283 64f7 a4bf 4110 51a7 c918 ac3f
00000260: 346d 60f6 17f2 81bf e6a8 7bf7 a4e3 ae3f
00000270: e522 85a6 21ed 7abf 1c7f a4ed 7d32 9e3f
00000280: 0d8d 575e 1b6e 983f fdc0 43e1 7236 733f
00000290: ce14 b2eb 6877 8c3f 01ce 2fab 3db0 403f
000002a0: 1aa7 dee8 dfd5 8a3f 8de1 b054 3601 8b3f
000002b0: 7e0a dcb0 7f09 753f 4720 533f 2996 86bf
000002c0: 0d32 7f6a 33c9 57bf 6276 3b07 d073 9c3f
000002d0: 2de9 f067 75f9 803f 905a 6d16 df3f 993f
000002e0: 7b09 7179 7771 6a3f 2806 5240 cb88 a0bf
000002f0: 5b00 7856 5650 8e3f ed63 4dad 3b76 a43f
00000300: d0d3 06b9 2a97 a03f 0664 19d8 3c87 a63f
00000310: 8c32 d8bc 7753 a83f 1bd4 8ac6 959e b13f
0.036112688904312525 0.0726887152345897 0.001157285578816173 -0.041433347079865054 0.01043452741920515 0.009847379883435786 0.005388502169608087 0.060230706503001746
0.0060490358748013905 0.023661569006045133 0.039905801642135544 -0.006380832024962937 -0.01674845318963765 0.03496174788447533 0.03945970619994501 -0.0010877963999424384
0.07757602689911766 -0.021762661430951506 -0.0044145159317692225 0.045008202009677985 0.03194024467929538 -0.023811211189197316 -0.03999815659103177 0.001494051741652577
-0.01945933029797819 -0.018514567558639495 -0.014158103868658942 -0.00789019866242939 0.07523605551461852 -0.0384192351636118 -0.020412030483220912 0.002808758827533489
0.03157823547570045 0.003942162113498816 -0.029695092481323335 -0.0078018169138577755 0.027535413693612988 0.0029237459807228737 0.025109210248775066 -0.013049964336610615
0.017985914041770624 -0.03528764443118913 0.040692394723381105 0.06237719578521695 -0.004113020804158278 0.034131029425366936 -0.00014607868749731047 -0.02125970895671312
-0.047377283070435205 0.013431926823022626 0.03403349718694371 0.01990471498363274 -0.002590372060146276 -0.0002856279478127395 0.0568388131839301 0.0326267079784481
0.04833661989960948 -0.0499221481519812 0.03347075282364354 0.026432833961065643 0.005853948637781207 -0.044838328623166 0.06552559447638742 -0.02100884394542838
0.02781523730876655 0.01281367611126788 0.04728978547876932 0.04290341105353929 0.026279677174914574 -0.005899267518093059 0.04539134670153941 0.007023189318639984
-0.023399321726230354 0.033847821210783786 -0.04094995593278345 0.05487661521377208 -0.008762538152999079 0.06033053895028377 -0.006573802420753981 0.029489486341048296
0.023857524521997898 0.00469059824921225 0.013899631207332421 0.0005092908016863241 0.013103246015663528 0.013185905894815853 0.005136011879360523 -0.01102859711171801
-0.00145177861303403 0.027785540048049014 0.008288304552583082 0.02465771269211331 0.0032279332622532886 -0.03229365501557552 0.014801668657128333 0.0399645470667521
0.03240331181169831 0.04400053155831789 0.047511808206853606 0.0688260659906778

fc2_act.weight f8 [50, 100]
00000000: 5c96 3bfe 9443 a73f ae3d 81f8 c483 b03f
00000010: 66dd 25ac ced5 92bf 09b6 e05b c3f9 8c3f
00000020: e059 898b 4ba4 9cbf 7e66 6671 9a28 913f
00000030: c97d f875 36de aa3f 3087 55a5 0235 6c3f
00000040: 274d d339 bff1 a2bf 9493 5480 d1a3 a1bf
00000050: 1238 369c 8c8b 9d3f 811c c33b 1772 85bf
00000060: 72a1 2ed8 f8f8 99bf 8ca8 0277 3539 893f
00000070: 07a5 db9c 11a3 74bf 577f 458a 173a 6bbf
00000080: be8a 58b6 4c90 b1bf 5a1b e1b8 418e acbf
00000090: 8477 c214 6491 ad3f b1b7 571f 0655 9e3f
000000a0: 6a4e 9a3e 7c7a ae3f 5461 046a 50a6 a03f
000000b0: 6fd4 d8cb 5e18 a0bf 0415 ca99 780e a53f
000000c0: a298 bb71 2a4e 7dbf 21c2 ee97 82ea 5c3f
000000d0: 2456 bc36 213c 973f 51e5 0581 0a52 ab3f
000000e0: 1ed4 12f0 e2ba 6e3f 9944 9638 ec40 9bbf
000000f0: 440b dd50 ccd1 a43f 7bf0 4083 1386 a33f
00000100: e75d 7b2a 6c08 5f3f 2aeb e475 d392 4c3f
00000110: f6d5 3a22 4e31 a13f fab3 e585 7b7c 503f
00000120: d74f 5298 e9d1 a9bf 5a39 c861 a222 b23f
00000130: 1e5a bf22 1e89 7a3f f49c 1a3a df6e b93f
00000140: dd88 a6e8 3d3a ac3f 5940 18e4 36cb aa3f
00000150: adac 2c53 d44b b53f e739 8dd5 cf4d aa3f
00000160: 5fd9 82b0 cb6e 9a3f 846d dfd7 602b a33f
00000170: 72f9 9d75 e059 b23f d45f cb11 02f3 953f
00000180: a096 0eb8 9be1 acbf 0495 ae89 73f0 83bf
00000190: 7a58 7bd3 46ba a83f 4290 22e4 2314 a3bf
000001a0: dbfe 3035 be32 b33f ffea 7931 18fd b13f
000001b0: 5b19 7c7f 810a ae3f cd77 b5db 2af4 a63f
000001c0: 5861 f95a 7d48 72bf a167 fe92 a0d2 94bf
000001d0: 0d17 dbaf 0286 9d3f dc0e 2dc4 b9c7 a1bf
000001e0: fa26 d80f 4bbe 6b3f 7c7f d381 2597 b93f
000001f0: 26fa 9473 ad77 a23f 009a c065 8089 9d3f
00000200: 6e63 c91b 4b6d 8dbf 592e 1d4b edcd 8a3f
00000210: c8a5 8e69 5230 a1bf f591 b674 b166 a2bf
00000220: ad24 5084 bd48 993f 9f50 e6c2 ace8 a0bf
00000230: db85 4a32 d170 8bbf 8868 5102 76b9 9abf
00000240: f94d 2589 9055 72bf 8820 4adc e766 a43f
00000250: 9a5f bf63 4ac2 a9bf 43d9 ea0d 72b8 aebf
00000260: 6278 1156 850a 94bf e18e 76d9 8d6e 953f
00000270: d8c7 c8f2 7b3d a53f fbbc 490a 8946 9f3f
00000280: 4d5d 52b5 ac10 713f 84ae b489 a36e 91bf
00000290: 4d5b 3b2e 1359 933f 34e3 159a 28c0 983f
000002a0: 5f9c 417d 02be 573f 67f2 0109 bed5 b13f
000002b0: 2bc6 f490 82d9 a6bf e1f8 d5a1 de60 8fbf
000002c0: 52ff d7ef ab3c a53f 8940 f035 1237 8bbf
000002d0: 7b28 93eb 35f6 973f 8297 534a 293e ae3f
000002e0: 22a1 2771 a784 ea3e 55ac d1c7 27d3 7bbf
000002f0: cd1b 35db 4cac b63f 416c c22e 0d54 a33f
00000300: 90e7 8302 40ad b0bf a459 6f87 d37a 893f
00000310: 6c5f eea6 1094 903f 23da 84f5 ed78 a63f
00000320: d398 45fb fce4 963f 1cb4 2293 54a7 a1bf
00000330: 5fad 0930 18da 963f 7604 f17c 5ea1 b73f
00000340: ac66 85f2 2a4e 813f 477a d88a 0713 acbf
00000350: 6806 613f eb47 8c3f 2e40 7fab c2e5 73bf
00000360: b238 70e8 69e2 7dbf d200 6780 776c a63f
00000370: 1bab 682a 01d9 963f 63c6 3b29 3f4b 78bf
00000380: f7bc bff0 905c 8fbf 76f2 fbdd 282c b43f
00000390: 16ca 2e9d 7742 b43f fbf1 9b38 0b8c 863f
000003a0: 89cf e057 ce34 6fbf 2628 5063 b4c3 7bbf
000003b0: c902 8a96 9ce2 9a3f 0d30 0407 7bcf abbf
000003c0: f42e 02f3 3d1d a63f 4510 f5d6 fe76 7a3f
000003d0: 5da5 2e62 d7a6 b63f 2e89 c75e 2995 9dbf
000003e0: bd0b 8aac 6620 8fbf 598b 9c60 5409 743f
000003f0: 7a62 e1c6 4917 a23f fb98 fa75 7363 a03f
00000400: 586f 7aa2 8fe7 a73f aadf 4b26 0bef acbf
00000410: a262 639a f783 a63f 968c f978 2691 9bbf
00000420: 7cf2 b78b 42f1 a53f 2b22 8e1a fb3d b2bf
00000430: 40a9 2fee 2f03 a33f 3922 d821 d71e a13f
00000440: 13f3 4aca 55ee 91bf 07be e47c 37d3 a4bf
00000450: 2190 ea9f ca89 ae3f 09c9 1ec3 2c26 88bf
00000460: 4848 de49 d9c3 a7bf cdcd 4547 e70e ae3f
00000470: 4978 e0d7 c1d8 a9bf 59bc 03a3 d04a 74bf
00000480: 1271 654f 25ba a6bf 22cf 9190 22a6 a33f
00000490: 11d2 e67f a0c4 9a3f 1b48 f040 96b3 b13f
000004a0: 63a1 8958 dd86 b53f b463 a93f 971a ab3f
000004b0: 80cd d9f4 8708 61bf 6f07 64bd 0642 a53f
000004c0: 5321 4291 db67 a1bf 6553 d328 32fd b63f
000004d0: 7663 1e84 0dd0 a7bf 8dd3 bf8f 2972 b43f
000004e0: 0006 d977 581d a3bf ff04 eeed cce7 ab3f
000004f0: 74c0 7835 77d0 73bf f2d7 5b01 e662 a53f
00000500: b939 ab87 9212 98bf 89d4 e25b f85b 8abf
00000510: 9c20 ca69 6965 96bf 588a 8249 2155 b93f
00000520: cec0 5c42 2125 a63f a668 9c51 bc50 ae3f
00000530: 9b60 e050 6d16 b1bf f9fc 2790 8241 99bf
00000540: 21c6 f63e 4a16 96bf 88e7 e45c ffc3 943f
00000550: d2ee ff7c 4317 b4bf 050b 8d09 772b 8cbf
00000560: 3392 5279 b862 b13f 5073 9fbf bc1c 8dbf
00000570: 4559 b10b c40e b13f 1339 9a16 13e3 803f
00000580: 6664 d136 15ea a63f da08 0f35 54f7 b63f
00000590: 7ff2 03dd 03bd 5d3f 0a97 595c 3410 9d3f
000005a0: 6ae6 022f e886 9c3f ee19 840c 7b1d ad3f
000005b0: b6bf b18d 45d8 8e3f adac 7377 5e4d 803f
000005c0: 264e 1c6a 9494 a6bf 9384 9444 0483 933f
000005d0: 06fc 973e 9eac aabf aef7 7975 412b 8cbf
000005e0: aefe 9dac fc93 923f 99fa bb1b 63d5 92bf
000005f0: fb2a b106 d03e ba3f cf1b 1fdd e812 a13f
00000600: 5716 1e99 434e ae3f 3d77 f5bf 217a 96bf
00000610: 43de 2eee 054b 78bf c038 b709 543a 953f
00000620: dd16 ebb6 ceac a0bf ddb1 4c2f 63a7 96bf
00000630: b0c2 c8a9 bf81 963f 4544 7d7e 289e 81bf
00000640: 60d9 8dab 66b0 7abf 994f e2e6 e4a3 a13f
00000650: 8fe6 eb4d 1ec6 83bf f570 ac5c 8b8e a7bf
00000660: 49ab 5ae8 feb5 9c3f b39e aa7e f40d b0bf
00000670: 5d17 a477 cb32 a53f c398 5b0f 3e0f 9fbf
00000680: a43e 7177 45d1 95bf 05cc 057e 9bb9 8d3f
00000690: f2c5 c648 8fac 373f 0472 bed3 d5ad ac3f
000006a0: bcae 7855 8eb2 a33f 8070 0867 e257 6fbf
000006b0: eebf 088e dbe0 9f3f 1e91 db71 f47d 91bf
000006c0: e2f6 086a 55d0 aa3f b45d 19a8 f1cb 973f
000006d0: 5dc9 105f 9016 78bf 8f74 befc 9055 ab3f
000006e0: 2f4b aa1a cf97 84bf 3eff ab9c 69b3 853f
000006f0: 49fb 36ab ff7c 95bf 7bbe ed0b 2b28 b33f
00000700: a1e4 96bd 8a8a 813f 3177 5f8f 1a06 a03f
00000710: a466 ff6d aaf0 a33f 221f dd99 7dc5 a9bf
00000720: 3227 e96a 6099 80bf 905f cd12 078f b0bf
00000730: 1670 b46f cee3 843f a373 bef0 97e9 b63f
00000740: bc47 2ae1 0523 99bf fda4 3490 f8b5 b13f
00000750: e56f 21ca 9a1c 883f 7d95 92fd e6f0 913f
00000760: 0364 304d 32a6 97bf d044 642f e86f a83f
00000770: cf83 b8de af7a a1bf 9640 cc46 290f 9ebf
00000780: e7dd 8f84 cf24 783f 6a87 ec6e a01a a83f
00000790: 9eb0 7f5a 776b a23f 2df6 beec 836a a23f
000007a0: 6d0e b230 bc18 aa3f 2b11 63dd fed3 a83f
000007b0: 60d7 5854 3672 b4bf 358a e693 9aec 92bf
000007c0: 19e3 8047 b0aa 8cbf c1cf 8df4 2998 923f
000007d0: aa92 4184 7211 ae3f b6d0 34be f152 b43f
000007e0: 10c3 9a39 d455 aa3f 0d09 2322 4870 a43f
000007f0: a13b b0ef d147 a63f b278 82e9 52df 76bf
0.04543748477389606 0.06451064173710705 -0.018393735177111202 0.014148260346781976 -0.027970486060746924 0.016756451770197682 0.05247659864493987 0.0034432460476389246
-0.037000633057369385 -0.0344529599335949 0.028852650675212095 -0.010471517096801943 -0.025363815493308413 0.012316148466499997 -0.00503832702609342 -0.0033235988395716
-0.06860808803370852 -0.055772832697178656 0.057749869856009745 0.029621215498927437 0.05952823890870891 0.03251887601999451 -0.03143593061796756 0.04112603070556456
-0.007154622838902254 0.0017648959471722252 0.022690314260293346 0.05336029839504398 0.0037512237909944754 -0.026614848092837737 0.04066313254454326 0.038132295391251035
0.0018940979297691286 0.0008719952127543608 0.03357929389805385 0.0010062414436007292 -0.05042963013070761 0.07084097754725374 0.006478421895698831 0.09934802216104172
0.05513184990856399 0.0523316529689743 0.08318831472995454 0.051374907320326284 0.025813276909241064 0.03744032511869036 0.07168391105185437 0.021434814773641467
-0.056408754556554586 -0.009735968245716105 0.048296178165103634 -0.03726303253031961 0.07499302672021761 0.07026816566387238 0.0586739032860801 0.04483159954064284
-0.004463662785916554 -0.020334729167735714 0.028831521972072106 -0.03472691077925358 0.003386637311227567 0.09996256274780352 0.03606931720650079 0.028844839296789715
-0.014368616853219964 0.013088086943432818 -0.03357179201641319 -0.035939736840450744 0.024691544724224346 -0.03302516822000822 -0.01339877543188355 -0.02609810246608693
-0.004476132004430416 0.03984760822373895 -0.05031044452306262 -0.060000957678698195 -0.019571383836926144 0.020929542920966496 0.04148471201587228 0.030542508366520043
0.004166292802572369 -0.017023616104025155 0.01889448136975185 0.02417052689040418 0.0014491104421041829 0.0696676990500663 -0.044628219790308364 -0.015321482957685041
0.04147851279048943 -0.013288633605071947 0.023400156501147223 0.05906800300890237 1.264485357395422e-05 -0.006793170349833029 0.08856659270996588 0.03775063701433413
-0.0651435857907059 0.012441303797385235 0.016189823330563 0.04389136907632387 0.022357895695130758 -0.03447975441063297 0.022316339427942974 0.09230604696587527
0.008449874426037361 -0.05483268327610751 0.013809049483941752 -0.004857788495385802 -0.007296003058412536 0.043796286033740764 0.02231218167632241 -0.005931135867045609
-0.01531327471454212 0.07879882258925783 0.07913920962781903 0.011009299912523743 -0.0038093595640251205 -0.006778435364148938 0.026255079925706668 -0.054317326170434034
0.043191848672988004 0.006461139171111856 0.08848329684282903 -0.0288893188570764 -0.015198518887023721 0.004891709899115104 0.03533392479647986 0.032008751060219574
0.04668854578377929 -0.0565112575768006 0.04397557983037827 -0.02692089188930121 0.042856292300688076 -0.0712582530815175 0.03713369162126634 0.033438418275242694
-0.017510738822909277 -0.04067395591334493 0.05964501573660664 -0.011791562752339961 -0.04641608263695268 0.05870745415714005 -0.050481851198342094 -0.004954161631970677
-0.044388929311681605 0.03837688460126133 0.026140697294708973 0.0691465290585999 0.08408912097514114 0.05293724681968773 -0.002079263248384755 0.04151936590098059
-0.03399549625561584 0.08980096337047667 -0.04650919187333262 0.0798669792128079 -0.0373332639978905 0.05450287250915586 -0.0048374802204734675 0.0417701603563926
-0.02350834801728194 -0.012870731643810156 -0.02187123020351632 0.09895523113895288 0.04325202879988553 0.059209713899876434 -0.06674845909617703 -0.024663963364216255
-0.02156940469075697 0.02027892117005295 -0.07847997476340687 -0.013754777888271183 0.06791260683036952 -0.014214968297830005 0.06663155827968577 0.008245610358497168
0.04475466055073056 0.08971144004229661 0.0018150842407173293 0.02838212789210729 0.027858379239410182 0.05686554458411651 0.01506094301859649 0.007960069675809167
-0.04410232348723424 0.019054476438331646 -0.05209822191317674 -0.013754378697964 0.01814265063830927 -0.018392132346884613 0.1025209442461054 0.033347393982289135
0.05919085735426382 -0.021950270978201337 -0.005930922666201935 0.020730317204475268 -0.03256841643228168 -0.022122907411516003 0.021979326951795997 -0.008602444038532062
-0.006515885405738636 0.03445353811653646 -0.009655224564528523 -0.046009402334876194 0.028038008624814457 -0.06271293728297671 0.04140315852605057 -0.03033158272491999
-0.02130611936109851 0.01451417425480451 0.00036123750831071257 0.056013757798812264 0.03847164910652398 -0.003826086227730896 0.03113120130927876 -0.017082042168923832
0.0523707096040036 0.023238922009424193 -0.005880893660150069 0.053387194492850225 -0.010055177689797993 0.010596108525987465 -0.020984644723053312 0.07483166733958939
0.008565029059229014 0.031296567918373326 0.03894550888771889 -0.05033485892505342 -0.008105042708070085 -0.06468242844618843 0.010200131210289991 0.08950185420549288
-0.024547664516439957 0.06918290634770936 0.011773309033905785 0.017520531870692125 -0.023094926797146097 0.04772878244887979 -0.034139152467339444 -0.02935471052757118
0.005894480339513098 0.04707814554264085 0.0359761522266535 0.03596889748540053 0.05096996397426499 0.04849239780881683 -0.07986774024251764 -0.018480696942456205
-0.013997437650787913 0.01815858416689742 0.058726862568425034 0.07939062970837338 0.05143607333355338 0.03991914192876509 0.04351669360050115 -0.00558407199437576

fc2_act.bias f8 [50]
00000000: c298 cb03 18be 9f3f f54a 291d 9706 84bf
00000010: d8fe f233 6253 9c3f 4011 517a be23 ac3f
00000020: cac9 1a54 ba52 8bbf af66 0965 a3b5 b2bf
00000030: 1aec 647d 5885 ad3f eed0 fb2c b15d 993f
00000040: 0e2e 119e 2ab0 a03f ba28 fdea f6d6 93bf
00000050: 68e9 8928 62cd a8bf 1d54 a27e a141 b3bf
00000060: bbc3 9022 7a6f 7d3f e08a f52c 9fbd 693f
00000070: 70d1 c955 d1a2 a03f 2178 4d96 eedd 6e3f
00000080: 833a 9b96 cc28 983f 74b4 337d 2bf5 b53f
00000090: b1db ee7b 330a 833f 9ebe c648 c757 a43f
000000a0: ff1f 9bca 6f09 a73f c3dc 7b72 3a5a b03f
000000b0: 8c0d e1fe 1155 923f 3b82 065a 7240 a43f
000000c0: c95f 1439 1aa9 8cbf 5614 f857 e34a a83f
000000d0: 54e6 660b 9c4f 97bf 79df 1d9f 586a 88bf
000000e0: 4442 e534 ae41 8dbf 5498 da2d 3585 a13f
000000f0: 6e46 a5e9 9d8b abbf a4e9 306c 8776 933f
00000100: 0f12 2016 effc 943f aee4 0694 6922 ad3f
00000110: 9f03 656d 6acc a53f 4aad 92e2 d9cd a63f
00000120: a504 e82b 3222 65bf db90 67b6 5be6 80bf
00000130: 78a4 a90b 2f71 a9bf 72e3 3761 af32 b0bf
00000140: cbf8 6291 ac24 ab3f 083d b2aa f0ac b23f
00000150: 4e89 c9f3 835e 82bf ea10 0414 8acf a53f
00000160: 5363 83b1 c2b8 ac3f fb8b ae3a 7e2c 6c3f
00000170: 0aa7 f838 b45c 893f 750c 3e12 374c a43f
00000180: dfe8 8039 891f b43f 1f65 2f15 c426 a33f
0.030998587829252917 -0.009778194978172542 0.027661833210685355 0.05496020548938185 -0.013341384593648881 -0.07308407990185616 0.05765797167483573 0.024771469469627876
0.032594043536473646 -0.019374712078651803 -0.04844195122582812 -0.07522019712116941 0.007186390962531537 0.0031421765230999904 0.03249220058652014 0.0037679347901038583
0.02359313649395257 0.08577224547089363 0.009296800822864744 0.03973219645865565 0.04499387119500397 0.0638767747403675 0.0179026424232354 0.03955418919509098
-0.013994412295275442 0.04744635056344097 -0.022764623828811573 -0.011921589237075857 -0.014285431851619575 0.03421941933383779 -0.053799567004387025 0.01900683973165375
0.020496116376323367 0.05690317089051554 0.04257519326575409 0.04453926935942805 -0.0025797824775968974 -0.008251873497052411 -0.04969164864889647 -0.06327339290136338
0.053014176127804534 0.0729513565768124 -0.008969336392685403 0.04259902471861372 0.056097110909553514 0.0034391847052162006 0.012383850086809218 0.03964397523579858
0.07860620168586106 0.03740513571365

fc3_act.weight f8 [20, 50]
00000000: bcb0 215f af4f 9f3f 8c43 f31d 773a a73f
00000010: 6fe9 d9e7 0338 9dbf 08ec dad5 4d21 c0bf
00000020: 6769 c91e 5c43 8abf c07e af70 630d 8e3f
00000030: 59d4 74fb 516a be3f 028d 17b1 d83f 953f
00000040: 8399 3abf 919d bebf a3ef 5587 0231 a8bf
00000050: adf6 1eea 3331 b3bf 89df 2d11 5383 b5bf
00000060: ce1d 5b29 693b ac3f d681 8a1e ec94 a73f
00000070: e82d f44a b533 b13f 6d32 f8d8 08eb 9abf
00000080: 806e de68 ed58 b03f 303c b1f4 8892 a8bf
00000090: 3fa4 8284 9627 a43f bd77 9b2b e358 a7bf
000000a0: 1293 7d04 bb69 96bf 2c33 ddc7 4bf7 b23f
000000b0: 0e37 1be7 ed03 ae3f cb94 7483 c077 aebf
000000c0: 1ca1 c5f8 da32 833f f200 b968 fb40 b0bf
000000d0: 36e1 8221 0d2c 9c3f 22e3 f240 9fb3 b23f
000000e0: 205d 6aa1 5643 a43f 419b ec2b 5d32 97bf
000000f0: bfdd 8da1 ae9d 763f 74e9 adbc f02a 90bf
00000100: 0aab 8cfb 6f54 8e3f a099 9670 1271 c0bf
00000110: 46fd 53ef bae6 ad3f 2f85 09dc 4374 8f3f
00000120: 37bd a18e 0a0c a23f 6cac 7c19 d8bf a23f
00000130: 2145 dbba 5413 6cbf 908b 2a8e bcf3 aa3f
00000140: e9ed c681 8fae aebf 3840 8c8b 16f4 a1bf
00000150: 600d 4a8b c6bd b83f 5376 4381 7a74 913f
00000160: 9990 47cf f00f a3bf 6add e25f 153d acbf
00000170: 8a81 4ccd c36e b03f dad3 5978 a14f 773f
00000180: 7c78 5a2d eb03 a1bf abe3 e4e9 a224 a13f
00000190: a592 8184 60ad 7fbf ca23 c9d2 1514 ae3f
000001a0: 10b1 810d 4e3f b33f 0f79 7dd2 5bbc b13f
000001b0: 9211 c9a4 0fa5 ba3f e911 e549 2f4a abbf
000001c0: 663a 14bd e1d4 ab3f 33de ef44 f290 a5bf
000001d0: aba2 92ba 96c8 b4bf 047a e10e 574a afbf
000001e0: 7e89 ce16 e7d4 a03f 3462 4a24 d032 b73f
000001f0: 8274 e72b 5856 893f 2b7c 9ed0 8814 a53f
00000200: 3ce1 4a36 b70c 8a3f 262c da08 e428 8dbf
00000210: e862 7ad0 0de3 80bf e108 aee3 4b7e b4bf
00000220: 84fa fdb8 e8b9 b7bf f313 ca9a fbcd 9d3f
00000230: e45e 3b62 0313 92bf 2114 45f2 1ed2 a6bf
00000240: 4339 1e78 3933 a7bf 0f0e 4801 d69a 873f
00000250: 75ae 7ac4 a72b b4bf 06a2 7bae ddf2 c13f
00000260: cd70 cf29 d583 993f 5304 ab2c f6be a2bf
00000270: c791 fbe3 1ce0 9c3f e14e e953 ccbb ba3f
00000280: de59 d5cd 5455 9abf 6fe2 47a3 96ba b73f
00000290: 7c29 7827 a43f bbbf cd88 d9c9 6c79 9b3f
000002a0: 833d 7753 b159 ae3f c909 f1be ac19 ac3f
000002b0: 08d8 7470 9871 a43f 96bb 92eb a274 a23f
000002c0: f0aa eabd 3c76 903f 6776 0a20 e94e 893f
000002d0: 568f ca3d 42a9 acbf bd8e d0cf 7533 99bf
000002e0: ebfa 779d 32e5 a2bf 5938 4117 2bec ad3f
000002f0: ca08 13be 8f4d 9f3f 71bb 65d7 2683 ad3f
00000300: b297 7ada a4a0 b0bf 56ac f476 046b a53f
00000310: 8d6d 0c44 0228 923f 245c 7098 57b5 8e3f
00000320: a6b2 f33c 5901 a53f 9feb 76d4 63a0 b83f
00000330: fc61 03c2 ccf6 a73f fd07 64e8 2400 c03f
00000340: edca 28b0 4352 b13f b72a fa8b 7446 9fbf
00000350: 5f32 4b25 61ad 98bf 570e ce88 63fe acbf
00000360: 2274 4798 db5a 953f 8912 202b 978f b13f
00000370: 2b46 c75c d712 7bbf b776 388b e367 b93f
00000380: 04c2 2ceb 6dfd 98bf 09b8 18cc 5e59 50bf
00000390: 35e4 b457 3d8a 6c3f 74d7 935e 3216 abbf
000003a0: 8335 fbfe a4fc 7cbf f326 deb2 8e5e b4bf
000003b0: fd71 4540 292c a93f 4aec 88c8 6d33 a53f
000003c0: cfe6 b179 99a6 62bf e06d 9203 0079 a23f
000003d0: 1aff 6579 2b35 babf 970a db2b c12f 813f
000003e0: c474 6350 14f4 b83f 91cc 7571 ceee adbf
000003f0: a3ab 6eb4 df98 973f 45ec 2360 79c0 b8bf
00000400: ffc3 c279 4c66 a23f c8c2 6e1d ff3d 9bbf
00000410: 46d0 1309 ccaa a6bf 4c95 8810 5c65 92bf
00000420: 919c 0222 d6a6 aabf 1623 ae40 5d4c c0bf
00000430: f722 3cb6 58a0 9abf 01e3 bb44 ba59 a13f
00000440: 60a4 62d4 a385 ab3f 7823 1717 6865 b93f
00000450: fb04 29f3 4b19 a1bf e5e8 6d3e 8da3 95bf
00000460: 194e 2541 a40e bcbf edc1 220c e743 b9bf
00000470: 9d65 a007 f0f5 a9bf e059 cb2d e34c 9cbf
00000480: caa0 909e 623a 9c3f bedc 37c6 19ec 8d3f
00000490: 7ceb 6e5c e98e b73f 399a c164 6bda 9e3f
000004a0: 9f44 2fe2 1873 a23f 3be4 21d5 325e 6cbf
000004b0: 283a 90e9 65b0 85bf 5e25 e6ce b47d a3bf
000004c0: 8b1a 87e4 c0ac 9bbf 7edd 2616 a807 adbf
000004d0: 2f2e 94e7 8be8 c03f c7a1 c67b 64fe b13f
000004e0: 7c5e a1ab eecc b13f 27b3 3c52 c6d8 a03f
000004f0: 8cbd 6852 b53c 96bf f12c 1800 3c96 7bbf
00000500: e7c7 3bca 223f b43f 38d6 c077 d16f b0bf
00000510: a7a2 e14a b848 c03f 43db da85 97ce a73f
00000520: 90c6 52df 5444 b43f 2198 0adc 1307 ac3f
00000530: 9d62 cc26 16ae a33f 3a57 ba19 631b 74bf
00000540: 966d bce5 1be5 90bf 8b3b bdb3 5e0c a3bf
00000550: 9115 3c09 1266 b23f ea51 54a0 385f ae3f
00000560: 1447 727a 1f44 af3f a23d d001 30df 69bf
00000570: 1070 3392 0143 92bf 99d1 2ad2 d5cb b93f
00000580: ea5c 0819 91b9 84bf 9024 8e83 6846 603f
00000590: cfd6 0f23 2072 933f 64e0 0e51 4f6b a1bf
000005a0: 88c1 d4a8 36c7 af3f ca49 e2d0 f4b8 b5bf
000005b0: 8196 71d2 2d6d 9cbf 1cad 46be cc22 a93f
000005c0: 6e95 5366 664e 8abf c4b0 c9c6 a428 9fbf
000005d0: 9322 d98a c05b bf3f 705f f317 4d8b a7bf
000005e0: 2a99 294b 2a85 8cbf feff 1e5e 78e3 843f
000005f0: b945 35c7 f715 ac3f 25d5 a550 69ef 9e3f
00000600: 49c7 552f 56eb 8cbf 58a0 223a 7fc8 b73f
00000610: 0f02 c838 f104 98bf 1085 0d90 3470 8ebf
00000620: 6e5b 17fe bdd5 8abf 55a5 0d09 5edc a93f
00000630: 749e 0673 12e8 9bbf 173d 2c1f b18f a33f
00000640: d5c5 8865 6d24 b83f c9e6 9088 319c 5dbf
00000650: e329 d137 0171 b03f 6c28 a060 0009 b93f
00000660: a746 df96 add9 adbf 065f 1c3f 7622 aebf
00000670: 900d afcd fe6f bf3f a84a 99f1 31e1 923f
00000680: 28c4 0512 1bd5 a0bf 8345 8ab9 7102 bb3f
00000690: 6751 3393 05f0 b03f ab80 55f1 7e3c a3bf
000006a0: 5598 11a0 8763 b7bf 0328 f602 ae5f a3bf
000006b0: 72b1 c41a 2636 b4bf 2116 9c59 056b b0bf
000006c0: 0d5a 4afb 681b a6bf 103f a5b0 c4e2 c13f
000006d0: a73e 046a 9bef ab3f 40ed a3bc 796f 87bf
000006e0: ea52 0bb0 b31e 87bf 5e45 dde3 4f57 9b3f
000006f0: fb4b e1bf 7603 ba3f 00bc 8705 042f a73f
00000700: ed60 277a cfc1 a3bf 5acf 977c 7d06 a23f
00000710: e2d5 1ab2 c9a6 afbf 7c61 b604 5cf8 95bf
00000720: 0a36 0b3a 9cc5 b13f 6744 da77 52a4 afbf
00000730: b8c2 2b7c 3f1f 633f dd71 8421 e761 b6bf
00000740: b213 766b 66c9 a73f c4ac 9072 65f0 91bf
00000750: a346 8683 3b1b 8c3f 568b 92f7 9ec7 92bf
00000760: 39ab 6030 c3c7 a43f 6a76 bdba 3c64 bd3f
00000770: b754 f67d ea5c b6bf 5e73 ce98 98e2 be3f
00000780: 64c7 dfc6 bf3d 87bf 7a63 3a83 ab75 a43f
00000790: c388 e3a6 634c 8c3f a9ae b9a7 55d8 90bf
000007a0: 5f3d cb33 63db 9f3f b426 06f2 59c3 aebf
000007b0: 1993 1539 2270 b23f 29ec 4991 8b65 a5bf
000007c0: a1fd e74a bd23 ba3f e1d3 380a 5715 a7bf
000007d0: 6b5c bb3c 2056 b53f c649 96c8 9d76 aa3f
000007e0: 0b0f bc0b e799 a43f e254 4a93 3fba c03f
000007f0: 2d7c 1321 a90c afbf 0f39 c2ef f383 a1bf
0.030577411824581388 0.04536792984584456 -0.02853399374587567 -0.1260163587774914 -0.01282379120782613 0.014673973919286154 0.11880981816359916 0.020751367386663062
-0.11959181708025395 -0.04724891569182368 -0.07496952501147787 -0.08403510255254622 0.055140768335657606 0.04605806229415392 0.06719525413443928 -0.02628721069599964
0.0638569241549991 -0.04799297320334295 0.0393645321613083 -0.04560003192248938 -0.021887704991416852 0.07408593778127387 0.05862372823831495 -0.05950738529853935
0.009374342648428562 -0.06349154764848544 0.027511792345394435 0.07305331550277264 0.03957625122455455 -0.022653060727999778 0.005521471169110225 -0.01578880454642602
0.014809489120656067 -0.12845068452334107 0.05840095683560746 0.015358476784231271 0.03524811736212501 0.03661990462418249 -0.0034271864777585402 0.05264081225802564
-0.059925541488578045 -0.03506536916222597 0.09664574528328762 0.017045892848605537 -0.037230992605857334 -0.05515353007779818 0.06419013750246996 0.005691176169070078
-0.033233022009185625 0.03348263840820861 -0.007733704587825106 0.05874698827808052 0.07518470601798222 0.06928037537497665 0.10408113263208055 -0.05330035950695217
0.05435853417485674 -0.04212147799983903 -0.08118574194908017 -0.06111404472970963 0.03287431863215583 0.09061909566879295 0.012371720161292513 0.041172290292927315
0.012719565719962682 -0.014238149185322579 -0.00824557106470665 -0.08005213078107289 -0.09268049732598099 0.029106074640839762 -0.017650654669380553 -0.044571845125155336
-0.045312686837052606 0.011525794900996393 -0.0787911276517493 0.14022418040919166 0.0249169642228118 -0.03661317153228851 0.028198672690352724 0.1044280724393576
-0.025716137946199306 0.0926908634791148 -0.10643983806236251 0.026830386943750995 0.059278050841039785 0.054883383091254574 0.039929164626684666 0.03604611516617877
0.016076039401620557 0.012357541361150482 -0.05597884182250705 -0.024610367592812866 -0.036904889795541816 0.058442446316448744 0.030569311119287325 0.05764123324740112
-0.06495123228032076 0.04183210327240576 0.017730746653894115 0.014994320239607069 0.041025913896964014 0.09619735657808669 0.04680480831456532 0.12500439974979818
0.06766150522961896 -0.03054220299103846 -0.024098890210370146 -0.05662833256704108 0.02085440747201884 0.06859726717818594 -0.006609765300213104 0.09924146794261444
-0.02440425632375033 -0.000997870040361006 0.0034838865373356905 -0.05290372280607772 -0.007076878085809371 -0.07956783167733388 0.049165047736753544 0.04140799591956375
-0.00227670646341669 0.036079407154115506 -0.10237380708531099 0.008391865874164224 0.09747435534105181 -0.058462573385349555 0.02304410494586374 -0.09668692204643133
0.03593672739351205 -0.026603685542513827 -0.044271827800827654 -0.017964781293035956 -0.05205411114848702 -0.12733045252050407 -0.02600229847215282 0.03388769234692824
0.0537539669761109 0.09920359195451833 -0.03339612334503702 -0.021131712851890767 -0.10959841337653876 -0.09869236036571012 -0.05070448010537663 -0.027637052221359926
0.02756647198489829 0.014610482560767909 0.09202440745040791 0.03013007929294018 0.03603437195818881 -0.003462886125870782 -0.010590358915604517 -0.0380684378206506
-0.027026189754702428 -0.05669904013069081 0.1320967560535435 0.07028797170517641 0.06953326883501093 0.03290385965224223 -0.021715958742956995 -0.006735071541253066
0.07908837735502026 -0.06420621083892619 0.12721923500364093 0.046498046006880255 0.07916765644292867 0.05474149762203263 0.03843754981625589 -0.004908930884672641
-0.01649898137757829 -0.03720375007707507 0.07186997151810305 0.05932023007531824 0.06106661195475574 -0.0031581819189409758 -0.01783373312797215 0.10076652890240324
-0.010119565559803385 0.0019866982733601282 0.01899004186630898 -0.03402183403471851 0.06206675349165197 -0.08485345935540703 -0.02776023480364254 0.049093626238880556
-0.012844848630673335 -0.03042848075203676 0.12249377622459638 -0.04598465840689314 -0.013925867480065596 0.01019948994860442 0.054855101649660516 0.03021015696272857
-0.014120744056274186 0.09290309113805628 -0.023456353274015792 -0.014862452169554646 -0.013102993313550217 0.050509394269122744 -0.02725247218191247 0.03820565705802375
0.09430583695281965 -0.001807258961220292 0.06422431576462588 0.09779360159896705 -0.05830137697888676 -0.058856673435171245 0.12280266305520215 0.018437176104564884
-0.03287586779595869 0.10550604610241092 0.06616244167100192 -0.037570921859470495 -0.09136245401313776 -0.037839353429333776 -0.07895124581836457 -0.06413300931679845
-0.043177872347929115 0.13973291993396986 0.05456243199489324 -0.011443091458650856 -0.011289027986472761 0.02670025661729391 0.10161535439083018 0.04528057639605976
-0.03858803144584209 0.03520576616202105 -0.061819365493118075 -0.02145522860300407 0.06942154328427122 -0.06180055344624052 0.002334236139511194 -0.08743137901587468
0.046458435647799404 -0.01751860152959918 0.013723816825208351 -0.01833961854994056 0.040586566596479697 0.11481074866375143 -0.08735528540849456 0.12064508181215447
-0.011348245865494717 0.03996025063424376 0.013817575960676348 -0.01645025097097511 0.031110334430932137 -0.06008416251559137 0.07202352422389104 -0.041790353284305866
0.10210784033551203 -0.04508468627719942 0.08334542734825028 0.051686220870709884 0.04023668306584057 0.13068384830390928 -0.06064346817742492 -0.03420984555951822

fc3_act.bias f8 [20]
00000000: b840 be07 cdea b0bf b425 384c 8998 a5bf
00000010: a1f7 a030 b1b6 aabf 8b4f 60c8 ad30 973f
00000020: 0675 9ff7 9607 c03f a105 6286 bbb4 a0bf
00000030: a98b 081a 5540 97bf b5e8 cb36 4171 92bf
00000040: 7b72 d717 6030 97bf 6ab0 17e5 7889 91bf
00000050: d99e c6db 6708 b73f 9883 e944 a565 753f
00000060: 944e c79d 1fdc a0bf 7957 05e3 f9d4 ac3f
00000070: ad31 bb9c 9b3d a4bf 8ae3 313b 8f6f b13f
00000080: ebe8 94b8 88d3 b43f cfb1 d23a 7959 7dbf
00000090: c9f9 9fb9 9ecd bc3f 1ac3 7b1f 852f abbf
-0.06608277739565238 -0.0421793847600144 -0.05217508047688502 0.02264663253306724 0.1252316197486964 -0.03262887969413986 -0.022706346239043693 -0.018010157556070456
-0.02264547486798783 -0.017125977499674518 0.08997201076146712 0.005223889906660249 -0.03292940903670885 0.05631237884760671 -0.039532530672292544 0.06810851283252198
0.08135275370014809 -0.007165406755273953 0.11251251251085316 -0.053096923917001784

fc_q.weight f8 [3, 20]
00000000: 1dc0 012e ca6b a2bf 968c 3023 0b55 bb3f
00000010: 2a36 0b63 3eb0 a93f 1eae b394 6be3 c53f
00000020: b195 faaf a8ba b1bf 632f 4493 e4f3 c23f
00000030: 10bc 17ba b3a1 c63f 34bb f045 d8ee ad3f
00000040: 9cd8 3ab9 cabe 96bf 09ee e015 e8b4 c03f
00000050: dd7b d04b fa41 3b3f 0766 8c56 02e2 c2bf
00000060: 4c14 eac5 5ac6 babf c39a 55ed 046e b13f
00000070: b407 0695 7512 b43f 0e4c d190 8929 ae3f
00000080: b3ad 998f 6daa 6abf 7a9c ffcd f95d b13f
00000090: 3ddd 161a 5266 b13f 1e50 9bd8 55e5 b2bf
000000a0: 2111 ede2 054d c8bf c973 dfab d40b 61bf
000000b0: 9ce9 0686 68dd c0bf 28f7 20e2 a979 b7bf
000000c0: be8c bb1a fbff c33f 3b33 5cec 823e 94bf
000000d0: f9de 1628 f562 b1bf bab6 1401 481a 70bf
000000e0: 7407 42b2 a027 b4bf 590f db92 a90a be3f
000000f0: 2ba7 0a10 8639 a63f d980 6f16 5eba a63f
00000100: 90dc d800 ee77 c6bf 4426 9c37 e823 a9bf
00000110: 2168 2fac a7ed 90bf 3396 b585 943a 993f
00000120: 6deb fcc9 5c82 c2bf fdd4 e90f c99a b63f
00000130: beae 4bdf 45a4 b63f 4875 f233 2a5a b0bf
00000140: 2b45 5653 8e36 64bf 2361 1af2 3abe abbf
00000150: 473c 6b31 5c8a c73f 7249 2a26 1102 c23f
00000160: 49c5 8fc3 0f70 c23f 71f5 7da1 d4f9 b13f
00000170: 39d9 a7e7 a9fd b33f 786e 2e84 7364 c5bf
00000180: 2058 84db 51dd b6bf 4394 ed05 7b21 b4bf
00000190: e3fc 78b4 6591 c33f 345d aae4 d60d b1bf
000001a0: 2957 f593 57fe a7bf 1590 fde7 ea15 c4bf
000001b0: c40c 583c f6ea b7bf bc98 ab7a 07d9 bc3f
000001c0: f4f1 a225 80f7 c23f 7d66 263f 04ea a1bf
000001d0: a15f 3fce 2fdf c5bf e7fe 1ff2 df32 72bf
-0.03597862063986688 0.10676641091463276 0.050172757711703334 0.17100281487306374 -0.06925443931921539 0.1480680197786298 0.17680975519712705 0.05846286634220235
-0.022212188296827237 0.13052083080570778 0.0004159198832115999 -0.14752225137708327 -0.10458915073293545 0.06808501047417352 0.07840666664381396 0.058910654952932004
-0.0032550945150455423 0.06784020690212059 0.0679675401396382 -0.07381187952279375 -0.18985055523274588 -0.0020808366525515193 -0.1317568449429246 -0.09170018931123691
0.15624941640189677 -0.019769712139395806 -0.06791622380012176 -0.003931313768857409 -0.07872967102050926 0.11735019526809988 0.043407620866970774 0.04439062141295986
-0.175534964002257 -0.049102074421238956 -0.016531581768369222 0.02463752809616988 -0.14460334646886555 0.08829933775435346 0.08844410611680595 -0.06387580650558278
-0.0024674205585105877 -0.05418571668013985 0.1839099160483519 0.1406880794862207 0.14404484795481157 0.07021836226154733 0.07808935075431557 -0.1671280284325467
-0.08931457146931665 -0.07863587279060007 0.15287467300547694 -0.06661742289212641 -0.04686235123760547 -0.15691887214336533 -0.09342898343315925 0.11268660302048067
0.1481781181118006 -0.03498852988122978 -0.1708736187999849 -0.0044430492289391004

fc_q.bias f8 [3]
00000000: 7fa3 63be 4b73 a03f fe1c 83e1 2d54 a03f
00000010: ff19 73a2 e7f4 95bf
0.03212963770949439 0.03189223649820326 -0.02144205025686041
