weights/numdreg_ad/djia/correlation/high/numdreg_ad_pretrain.pt (torch, 263419 bytes, 14 tensors)

fc1.weight f8 [100, 200]
00000000: 0730 da4a 5f6a 89bf ba81 25b4 15d4 93bf
00000010: 0b00 e932 254e a3bf 7d77 9d0a 72c3 97bf
00000020: d3cb 4cdc 2731 a8bf 9ae3 fcce 61c7 a6bf
00000030: 51d2 1b44 949a 85bf a172 fa1a 79f8 a33f
00000040: fe41 8379 cfba 92bf 7186 cb20 00da aa3f
00000050: 7193 d1dd 1461 aa3f 4ee8 257a 9628 aa3f
00000060: 7333 a6c1 81de 5bbf 4f2b 3cff f681 98bf
00000070: c139 3f7f 0b0c a1bf 695f d7e6 c4e0 9cbf
00000080: 9d17 a6e9 661c 8c3f e8da c22e 1299 91bf
00000090: 32cf bd43 43e6 a5bf df05 5608 6da3 ac3f
000000a0: 3cc5 fea6 58ec 483f d425 5844 a3ec 69bf
000000b0: 9bd8 4946 0eb8 6e3f af51 9104 51cd 963f
000000c0: a664 2d59 c25d 9a3f a976 62bd 2ffd 94bf
000000d0: 85bc 5e97 00c4 70bf 9adc 0e4d 2a69 723f
000000e0: 0b19 562a 5935 9dbf b488 e9c4 2e25 7abf
000000f0: f7f2 b818 1ba8 6e3f e8f6 e2da 2de2 983f
00000100: f3a7 9eae cb48 8bbf ad71 b639 221d 0fbf
00000110: 5dc6 4a01 6b2e a6bf 870e 1b17 795b 913f
00000120: 1630 41b8 004a a7bf 7989 6b68 0c90 abbf
00000130: 08b5 0493 a853 aebf 885d f175 766c 963f
00000140: 99e5 28d4 cc9a 913f 08ab 0f50 a7d5 aabf
00000150: da97 f70e 9bdb 863f 73e6 b8ec 345f 9dbf
00000160: 1b8f 90fc 796c 9a3f 80b6 0e83 e6a3 6e3f
00000170: 18e9 b9e9 ffdd 94bf 3933 7a99 d425 94bf
00000180: e21e 4f0d 8e52 8abf d7a6 20eb 0f1b a2bf
00000190: 358f 44d0 0fe0 a7bf 7560 c798 4975 8bbf
000001a0: 6606 70a1 e187 7cbf d0a8 152b e2f7 afbf
000001b0: f702 5b3e a5a6 893f d919 758b f565 67bf
000001c0: 5f57 1f3e fe51 9e3f 6ad2 8eeb 47e5 793f
000001d0: 3e6e b261 2865 81bf b636 ebff 7bf7 a6bf
000001e0: 4548 e3f0 32cb 86bf c1c9 23fc 7518 aa3f
000001f0: 336b 2e14 c832 a53f 145a e54e 6a76 763f
00000200: c21d 2cc8 013e a23f d374 2a6c 76a9 a43f
00000210: 4e2d 9716 3a34 aa3f f5f1 2dab b75f 99bf
00000220: e07a 8fb9 57db 9cbf 7715 1c57 1fed 94bf
00000230: 9438 d64c 7361 ae3f 3c77 7a21 d010 6c3f
00000240: 357d 8b9a 4804 a23f 6a37 3d18 7fff a7bf
00000250: e585 c6cb ca0f 993f 02be 7664 4354 80bf
00000260: 09f9 8518 6068 b03f 6530 4642 73e5 a23f
00000270: 5fa0 2269 a6fe a4bf a54a bd2e 88be a83f
00000280: 22a8 054b 9e99 a9bf b32c ee6c 6328 8bbf
00000290: e80d 8a3e 4d5f 84bf 84ad b622 75ab 963f
000002a0: f01f f5e5 f60c 933f debf 10a1 ea49 93bf
000002b0: 2464 8a96 c410 b1bf df5e 0072 4c69 a03f
000002c0: 1602 b16c 1e1f 8c3f 4fd2 9910 7028 a83f
000002d0: da58 d83a 11b8 963f 3173 ed5d e57f 903f
000002e0: 4d94 b673 c7c0 a2bf 0b96 bcbb 9615 a7bf
000002f0: 09cf 7b47 cbb3 633f f9f6 2fe5 cb46 a73f
00000300: 1b32 0d0a 77e5 92bf 7858 e46b 44e4 9ebf
00000310: 7df8 2b32 90d7 9e3f ac9a 1e1e d957 9d3f
00000320: 1bbf 0999 13ec a4bf 6956 aa4c afbd a03f
00000330: 08c2 beb4 afd5 a93f 86f1 3b8f 23eb a4bf
00000340: e0c0 f9db 068a 973f 2cd3 7d70 3a62 91bf
00000350: e030 5ccb 6425 9f3f a4cc 31c8 367e 9d3f
00000360: 329e 2b26 a9b8 923f 58a8 c2ed 005c 96bf
00000370: 55f2 3170 48ec a3bf ae56 231b 96a3 a73f
00000380: 7a86 0b4c 7f72 773f 10fd 9e61 447e 9e3f
00000390: c3f4 861a 593c 84bf 9c0a 5b6e 661c 8f3f
000003a0: 4273 26f2 893f 993f 0c3a eee7 4c71 92bf
000003b0: f71a c51a d677 6a3f ed04 e4a1 b08f 9ebf
000003c0: a220 173f 262a a8bf f211 c935 c914 7c3f
000003d0: 0081 2abc 6003 923f 53cd 1a2f b539 98bf
000003e0: c43d 1c64 b828 773f 5a18 b7d9 2d6f b0bf
000003f0: 87fd f050 223b aebf 086b 68cc 474e a0bf
00000400: c5b9 2fa2 1bf9 a4bf 2886 edc0 49c4 7fbf
00000410: 6ccc 4748 d6f1 acbf 1fe4 d97d 9ed9 a5bf
00000420: 774b 8bce 7d20 773f d770 cfbe 2b77 903f
00000430: ea5c d359 4e18 74bf 1e07 3895 7d60 a8bf
00000440: a86d d34a 301d 6d3f adf9 9182 485a b0bf
00000450: e620 42e1 4f6e 8dbf 0bfb 5ded 4e90 983f
00000460: 03de 6406 3fb1 933f 0359 4e9a ab53 7f3f
00000470: a21e afbf e3e7 a6bf a41c 8362 90b5 98bf
00000480: eba9 0434 0414 993f 8282 542a 4068 a3bf
00000490: f919 1042 75c2 a83f c0f8 fd38 32a4 a43f
000004a0: fc27 d1b8 9381 b0bf 7bec dbd7 55c6 883f
000004b0: 0be7 daba 8b67 943f 8654 90f0 fd34 97bf
000004c0: d53b 8223 94e3 603f 0ce7 2865 fb2e 913f
000004d0: a934 20e0 f1be a83f ee90 8e57 8217 a9bf
000004e0: 4206 ab0a 09eb 5ebf 26da b08f 11a8 883f
000004f0: 01f6 d3bf f3d2 9ebf 9715 3e06 7210 a7bf
00000500: 9aec 0c99 8981 abbf 99c8 8e51 9e75 a8bf
00000510: 035a 99b9 a9be 80bf 71b4 803c 63e1 963f
00000520: ef3b bba4 390f a0bf 0185 3584 098a 8f3f
00000530: 49b2 6b5f c018 a0bf 9775 cfa8 09c6 943f
00000540: 103b 650c ba55 afbf 5dc5 183b 30c7 853f
00000550: 5f7a 92bd b3aa 4dbf c8f5 a421 b53a a93f
00000560: 9109 d8b3 bb95 aabf 406c c311 f130 abbf
00000570: ed04 d02e 859c aebf b07c bf78 ccaf 993f
00000580: ec41 bdb6 1d57 903f 3603 589b f028 aebf
00000590: b1d6 ef77 c35c 6abf df17 7965 a3f0 98bf
000005a0: 92f4 7371 51ac 74bf e0df 1bb0 4687 ab3f
000005b0: c1b8 b071 6e36 9fbf d2e0 cd18 aa57 973f
000005c0: 4e28 5668 e94d 9c3f 1ee8 af28 91ed a43f
000005d0: 11cb f9c6 ec09 90bf 9a7d b530 7485 ae3f
000005e0: 21bb 7d82 7270 a2bf 9cc1 e1f3 623f 9bbf
000005f0: 0018 cf42 81a9 a13f 7298 e15b d5b1 563f
00000600: 94e5 136e 85d9 96bf c909 fa51 9564 a3bf
00000610: 1306 65f2 dada aa3f 529a cab8 37bb 913f
00000620: d209 c41e 402f a0bf 67ee 9dd6 d3ce a73f
00000630: fddf fd5c cdcd a93f 1865 2f3c aa24 a3bf
00000640: a886 9f4e fdaf 7a3f 667f 2c01 0e95 9dbf
00000650: 7aeb a631 52fe 4fbf cb5a f74b 0c59 9b3f
00000660: 8c6c e005 c716 7f3f 141c 8864 f53f 88bf
00000670: 262c 5f3d 34e3 863f 3951 4ce7 3720 a7bf
00000680: 60b0 aaed 4d48 a93f 0ebb e0a9 b3e7 a2bf
00000690: 5f99 3531 5e7e a8bf 4ba3 8962 811b a1bf
000006a0: 8b7d 95c1 5adf a2bf 30e2 82cc 8690 5ebf
000006b0: 24dc b50e 6114 8fbf 870a b84d 5d8b 923f
000006c0: bb8c be1b 59ab a93f 5c94 fffe 18fa a43f
000006d0: 2317 5e8e e1e4 a8bf 1625 f209 a6c3 92bf
000006e0: 6317 18f1 13c7 ad3f f34c 13af 622e a0bf
000006f0: 254c 90a3 e760 8a3f 7211 f79a 27f9 acbf
00000700: e620 055d 832b a83f ddc3 f157 f04b adbf
00000710: c258 11a8 c736 9e3f ecb3 06ee 2682 89bf
00000720: 56d1 2fb9 49d2 a53f 2838 6b93 4a81 99bf
00000730: e35c 9808 1e38 5f3f 222b a829 9200 9fbf
00000740: c81b 154d 872b ae3f e1c8 18ce 534a ab3f
00000750: 9210 13bc f6ee 9abf f3b6 760b fad0 a6bf
00000760: 3b94 b7f4 079d 983f 4f3e e22c f93a 943f
00000770: 1da9 d8ed bf89 ab3f f02d 2cfa d14f a2bf
00000780: d89d 6afa 18c8 873f 653f 970c 9aac 9f3f
00000790: d1e3 b616 52e2 a0bf a3f9 279d c2d2 893f
000007a0: f66e 6685 187a ad3f 1aa6 a769 0a3d aa3f
000007b0: eb4c e70c 7ed0 a03f fd23 b498 a5e9 73bf
000007c0: e4b0 662f 7eda ac3f aec4 8401 7017 853f
000007d0: 9654 e01d 575d 8f3f 4ebf 6f73 0b3b 903f
000007e0: dcd7 f813 8e1a 8cbf 911e 1cee 025b adbf
000007f0: 8ec2 e493 a566 7dbf cf61 b261 45dd 9bbf
-0.012409920188723346 -0.01936372673060458 -0.037705576386088145 -0.023206502817053377 -0.047250028268898035 -0.04448991443354729 -0.010548742607604885 0.03900507406544774
-0.01829075030474491 0.05244446182565533 0.05152192313906923 0.051090910349515725 -0.00170099898841444 -0.02393327648955373 -0.03329502037341881 -0.028201176251826086
0.013726047521014634 -0.017185482124399437 -0.04277239038392934 0.055934340732175285 0.0007605965492897613 -0.00316459549026569 0.00374987400055733 0.022267595199382203
0.025748287861777762 -0.02049707978641516 -0.004093172368739966 0.0044948246367574555 -0.028523820122722515 -0.006383116428511016 0.003742268488876706 0.0243003048751608
-0.01332244040152728 -5.9344870545905e-05 -0.04332289114735197 0.016950504336604524 -0.04548647164537571 -0.05383337759646429 -0.05923201365144776 0.02189812750688483
0.01719207806511278 -0.052411297343345764 0.011161052126180172 -0.028683497379665867 0.025804430046391418 0.0037402631937400455 -0.020378111496463708 -0.019675561778558424
-0.012852773457680159 -0.03536271805962848 -0.04663133065539996 -0.013407301878871384 -0.006965524072258233 -0.06243807578978677 0.012524882283629675 -0.0028562351032263953
0.029609653989460024 0.0063221749668867875 -0.008493724328494708 -0.044856905927742316 -0.0111297588122491 0.050967871693405005 0.04140305754045528 0.0054840233481941066
0.035629325566386 0.040355396941984666 0.051179709680207894 -0.02477919561668958 -0.02818047590323658 -0.02043580025840216 0.05933723748158673 0.0034259858183095775
0.03518893133672877 -0.046871158322217735 0.024474304854839608 -0.007973219397938717 0.06409264181818143 0.036906816330060356 -0.041005325635808935 0.048328643517966875
-0.050000139863940044 -0.013260628473082603 -0.009947398634955598 0.022138433688878148 0.018604142938130452 -0.018836656647351784 -0.06666210818583856 0.03205336467379793
0.013731229488372281 0.0471835155739525 0.02218653604185126 0.016112884385950103 -0.036627037882944614 -0.04508658448893862 0.0024050684258954996 0.04546200916955274
-0.018453464497087162 -0.030167645535663173 0.030119183599702105 0.028655426467276854 -0.0408636211694768 0.0326971798978491 0.05045842248307869 -0.040856467470777466
0.022987467933888506 -0.016976273647247783 0.030416083252064463 0.028801780671028468 0.01828254981492545 -0.02183534098791315 -0.03891207093781605 0.046169939816235725
0.005724427465538912 0.029778545816722846 -0.0098807297916842 0.0151908876827112 0.024656443981814442 -0.01801033177940252 0.0032309705476650757 -0.029845008736633472
-0.047196574403245664 0.006855760552359135 0.017591010555976005 -0.023657637596170854 0.00565406825786802 -0.06419645848572611 -0.0590449069791204 -0.03184723253453653
-0.04096304278197097 -0.0077555542946768155 -0.056532570193575576 -0.042675927031219134 0.0056462206200248366 0.016079600831162857 -0.004905992563372078 -0.04761116453665991
0.003553957291485072 -0.06387761295079626 -0.014370559751356326 0.02398799251340748 0.019230828061351356 0.007648153613351252 -0.04473792757886243 -0.024130111706452198
0.024490419077816055 -0.037904744307756935 0.048358597101515195 0.040315217453995356 -0.06447718870290936 0.012097044610973598 0.01992624595616292 -0.022663085754250044
0.002061642964754177 0.016780784653952316 0.04833179341231048 -0.04900748556909372 -0.0018870914743022303 0.012039315412136164 -0.03010159357380893 -0.045047343503976815
-0.05372266763011986 -0.04777235742166503 -0.008176160789997949 0.022344160621447565 -0.031366158827601846 0.015400003764343586 -0.031438838623078676 0.02028670399510232
-0.06120091821013862 0.010633827975740468 -0.000905359043048847 0.049276028019885454 -0.05192362375602778 -0.05310777036512393 -0.059787904705453566 0.025084681386826346
0.015957321432610458 -0.0589060964230214 -0.0032180612320143677 -0.024355462139531766 -0.00504714788189377 0.05376644992605839 -0.030481076897722618 0.022795350803307475
0.02764095973319796 0.04087499257725845 -0.01566286053134564 0.059611922212521054 -0.03601415484341986 -0.02660898793732401 0.03449634495295584 0.0013851722319713458
-0.022314152568446113 -0.037876764542506054 0.05245098313254117 0.01731574120881369 -0.03161049247320914 0.046499843548158996 0.0503982711806543 -0.03738910660440292
0.006515492897933996 -0.028888911077160094 -0.0009763623559629752 0.026706878792391458 0.007590081628246936 -0.011840741281970359 0.01117554485599299 -0.045167681679375744
0.04937976385312548 -0.03692399452881122 -0.047839110857966764 -0.033412974623223755 -0.03686030972562112 -0.0018655125041232672 -0.015175588857102858 0.0181097582517489
0.05013540710140193 0.04097059357426566 -0.04862122404942528 -0.01832446513848137 0.058159468822892156 -0.0316038931574897 0.012880143813196973 -0.056588399569167516
0.047206978898033644 -0.05721999238529183 0.029505843766252544 -0.01245527662180198 0.04261999497967632 -0.024907269714098984 0.0019054692551259626 -0.030275615494285486
0.05892584625194491 0.053301447780897744 -0.026302199582247505 -0.044563115977650634 0.024036526023241783 0.01975621544312239 0.053785321983314406 -0.03576522997726872
0.011612124578575342 0.030931860941393014 -0.03297668959880407 0.012609024449372458 0.057572141918368944 0.05124695338947678 0.03284067065728798 -0.004861494885752824
0.056354468618651926 0.01029860977777938 0.015314751242877993 0.015850237770734403 -0.013722524628160863 -0.05733498722662234 -0.007177969730307722 -0.027211269462527995

fc1.bias f8 [100]
00000000: 1666 6f9d ab1f 793f 4ce0 e01a 195d a6bf
00000010: 6039 3182 44dc 93bf 4a98 297e 9d27 943f
00000020: f37c 7b54 931b a43f cb4d 82a6 9592 523f
00000030: dae7 b4df a913 973f 050a faf9 e9a5 483f
00000040: 6db2 86ec ec95 71bf 9bd8 a6aa 9621 acbf
00000050: 8a76 20f9 50db af3f 36b2 6a14 24a4 a83f
00000060: 6d31 df54 de86 803f 4dc5 3a30 7c63 913f
00000070: 5cee dc41 c261 913f ea8b 6755 5321 983f
00000080: 9be7 8e9f 5500 62bf 8dff d9f6 6164 893f
00000090: 1eb6 9f7a a3c5 a4bf 408d 3b8c dadb 92bf
000000a0: fb94 a1b5 0da0 ab3f 85f1 6527 337b 80bf
000000b0: 400f 001f 3c0b 963f 0530 84d0 e6c0 99bf
000000c0: a17c 99cd 2aff a03f 7142 6b19 5d84 973f
000000d0: e066 0836 90c2 913f dbff 2932 1d8f a4bf
000000e0: d2a6 6a6b 0322 953f ffbb f1a2 420a 963f
000000f0: 4413 f328 ca27 9cbf b63a 165b de9f ac3f
00000100: 8acc 6e41 741d 753f a3ad 6b32 1ce1 8ebf
00000110: 0ae6 af5d 77d0 a13f 0a59 30c6 122c aebf
00000120: 59ac 8281 14f2 99bf 6adf b255 150a 9abf
00000130: a180 8bfc 27f9 a23f 7bb9 fae9 f226 97bf
00000140: 44f0 874e 418b a53f a6ca edc4 6ec5 a53f
00000150: e2eb 197e 205e 72bf e996 98a8 d5cc a93f
00000160: b98d e67d d53f 9dbf 7683 970d 2d8a af3f
00000170: 4afd 7040 73b0 8d3f c30a 5359 5146 873f
00000180: 4781 5a76 70a6 a7bf 7122 1e22 6e85 973f
00000190: 7249 9366 572c 9c3f 9398 c88e f047 7bbf
000001a0: 5a71 2789 1c40 833f d3bc 772f 4192 a23f
000001b0: acca dfd4 325f abbf 6884 427e 298e 953f
000001c0: d87a e719 78d5 a2bf ba65 1a5d 243e 903f
000001d0: 0e84 e71a 12e1 a23f b450 2b61 1899 8a3f
000001e0: 0ec3 2682 e061 9e3f c9cf c9fd 26c2 a33f
000001f0: 7537 65c7 f427 513f 29c0 f0ad 90b9 ab3f
00000200: b951 9f88 ec81 aa3f 4524 452d d979 733f
00000210: e4f4 c27a 9e14 7ebf d23b fda7 93c2 9f3f
00000220: 949f 59e5 a3e4 a4bf 7b98 1f6e 12c0 9ebf
00000230: 8f3b 8eff a255 6f3f 7ec1 21ac 4079 b0bf
00000240: 4dee 5210 256b 68bf 355a a166 77dc a4bf
00000250: 9b19 d74a 2305 afbf a844 13af 09a8 a7bf
00000260: a9f7 dd71 f7c7 98bf e7ff 2e9a 4040 a33f
00000270: b28f 67a5 82dc 94bf f3da 1228 6b46 a4bf
00000280: bc1e ad83 78cc 913f b2d0 5dba bf92 763f
00000290: 1295 5832 dc2d 9abf 2ec5 117d 42df aabf
000002a0: ca2c d3bd 9f24 94bf 9ce5 84df 8f9c a23f
000002b0: 691d 5555 f650 9ebf d843 6b74 298e 87bf
000002c0: f6df ffd9 49aa 3e3f 4fb1 8bbc fb36 903f
000002d0: 0642 8ae1 7cf9 a1bf 9982 3e73 2d54 613f
000002e0: f5b6 5c40 9ad1 a9bf 48e9 d14a 2656 943f
000002f0: 1c4c dea4 199d a73f 61ec b50f 04e7 77bf
00000300: 1a74 9dd5 12d9 a7bf bc98 2713 9ae4 a13f
00000310: a059 bfdf a41b 7c3f 1171 377c fcce 783f
0.006133718844432609 -0.04367903187852615 -0.01939494175558687 0.019682370019289665 0.03927288442877765 0.0011335812978686573 0.022535948065730206 0.000752200361560818
-0.004293370708563599 -0.054943760234366944 0.06222012559031238 0.04812729596355718 0.008069741215785265 0.016981068080615547 0.016974482793769105 0.02356462677733965
-0.0021974251107765414 0.012398496003924975 -0.04057036277650304 -0.018416800316925164 0.05395548669984326 -0.008047485008085395 0.02152723254404454 -0.02514992377932403
0.03319677123794774 0.022965864826633046 0.017343762681867214 -0.040154373525183217 0.020637563162984325 0.021523514933900142 -0.027495535611495883 0.05590720044994184
0.0051550427660230855 -0.015077801026072651 0.034793596445478484 -0.05893000287339774 -0.025337524800005038 -0.025429089885363444 0.03705716092895384 -0.022609515696495813
0.04207805713301174 0.04252191690365707 -0.004484297680046519 0.050390889006207314 -0.0285638197034481 0.0616010741321195 0.014496708301634204 0.011364589251006923
-0.0461917061304598 0.02296993334997172 0.02751289905138194 -0.006660403898910999 0.009399626670465611 0.03627208427848818 -0.05346068237840504 0.021050117808617236
-0.03678489032949067 0.01586205309158626 0.03687340334341381 0.012987318482750566 0.02967024607068241 0.03859063957216297 0.0010471239489393245 0.05415012477203646
0.05177249114754851 0.004754875514046357 -0.00734388261861094 0.03101568901848479 -0.040806886431538875 -0.030029571505928204 0.0038250144538731277 -0.06435016825139958
-0.0029807781125706146 -0.040744525220976525 -0.0605860737664898 -0.04620390188359497 -0.024200311970609487 0.037599581547965326 -0.020372430177203867 -0.03959975113087024
0.017381556546097285 0.005511044442631329 -0.0255655675629401 -0.05248458649374253 -0.01967095943545586 0.036350723300027726 -0.029605721433907748 -0.011501621117902802
0.0004679136563932035 0.01583474481860608 -0.03510656598257715 0.0021153342913325488 -0.050427265507421305 0.019859884564064317 0.04612045419266783 -0.0058355482718709115
-0.04657801492314935 0.03494721874067028 0.006862300910106006 0.006056772489923882

fc2_act.weight f8 [50, 100]
00000000: 2d7e b3c0 dbc8 a7bf e2ff 2bfb 65c0 88bf
00000010: a9db ce7a 8c84 8abf 6267 e7e3 3f93 acbf
00000020: 13ac 032c 9665 9e3f 89a0 9d6b 7393 913f
00000030: ab89 219f cffb adbf 542c 7c96 615f b2bf
00000040: 1457 cdf5 6cd2 b33f d24f 4b65 179f aa3f
00000050: 1c6f f0a9 3288 b0bf a293 23be 82a3 a8bf
00000060: 1d55 0d8c 6b2b 593f e1ad d002 052a a83f
00000070: 6211 c8bb bead afbf 3cdd f3d6 fd54 b43f
00000080: 3d8a e9d0 8e4b ad3f 653b 1a09 1ed6 723f
00000090: 4247 482d 455f a3bf 49c3 1614 6ebf b23f
000000a0: 6a4f 25da 2528 a83f 94e7 a7de 619f 623f
000000b0: 18d2 bb91 4122 87bf 66ec 0904 22e2 a9bf
000000c0: 9198 7969 d8b9 a2bf e461 26f4 77e7 6c3f
000000d0: 725e 0e93 726d b33f 77b0 bcfd 520e 933f
000000e0: c9a5 ec80 81ed 9abf 9f28 f558 3b33 913f
000000f0: 0991 e351 6e85 87bf 656d 7885 38f0 a23f
00000100: c264 d393 e1a6 aa3f 3292 37bb a854 aa3f
00000110: 80d1 eaa4 2d9e aabf 0622 150f 3c8f 90bf
00000120: b12b 5370 529e b03f ea74 2048 01fd 92bf
00000130: 2406 997b 25f1 aabf 0a03 2539 307c b23f
00000140: b370 b8a8 6444 a83f e40c b123 c0c6 ad3f
00000150: 4b1f 5afb 38d8 8d3f 0fa9 da97 7d37 9cbf
00000160: b978 a1e3 10b0 8fbf e8b7 cc00 8498 66bf
00000170: 3c61 59d2 11fc b03f 93c7 e5b3 25ed a23f
00000180: 4ea0 96dc ef69 a4bf 6d7f 158c 2a70 b03f
00000190: 6802 8506 826e 7c3f acae 7fec c913 6a3f
000001a0: c17b f81d df30 81bf 6492 e2f7 cd54 4abf
000001b0: 4040 b414 3652 9f3f e9c7 2dd3 8456 b63f
000001c0: f3dc cecb 94e8 a93f 0d5b 67ff c1c8 903f
000001d0: c149 902c ca09 a83f af4a d122 7ee4 a6bf
000001e0: 4720 958f f91b b7bf ccd1 e164 511e 9cbf
000001f0: 252e f049 ec7e b13f aab2 674b 320a a0bf
00000200: 3d93 6384 d72b acbf 2f13 5798 64a6 b43f
00000210: c811 5841 6d84 a9bf 6975 3e81 469a a6bf
00000220: 8126 ce84 db22 94bf 0e86 6c04 17ea aabf
00000230: e56c cc5e a444 a83f 8cec ea4a afd1 a53f
00000240: 9470 18d6 8ba3 75bf e82b b09d 6d34 85bf
00000250: fa71 1492 e2b2 56bf f026 0065 320e a33f
00000260: 3c61 3c0d 0ff2 833f 9669 41b5 53c2 a3bf
00000270: 41d9 06c7 2da3 b6bf df81 7f15 6917 983f
00000280: 64bb 782e b82b abbf ddc4 0935 192f aebf
00000290: 0d07 11e6 9ea4 a6bf 168a 48c4 9a81 8dbf
000002a0: 21f4 6936 3839 a7bf 7766 1521 b9d1 9f3f
000002b0: 7e28 f0f6 9485 b13f 32be bb4f a233 423f
000002c0: 8e20 8624 f9eb b8bf 39ac 1bfa 426c 8ebf
000002d0: 0c99 0067 9434 983f c3bd 8c36 f157 ab3f
000002e0: 5c8a 6426 1fd9 b4bf 3081 79b8 5b00 abbf
000002f0: 4c39 4f93 6717 a73f afe8 7747 4bb8 b23f
00000300: d410 611c ed82 78bf b32b e7e8 45df 873f
00000310: 4643 fead 51ca 823f 281a 0063 ea37 44bf
00000320: f9fa 7c62 d64d a13f 622a 0c89 719b abbf
00000330: c503 ac74 6d4f afbf ef7b 4396 327a b23f
00000340: b544 1ee1 6acc 70bf 4ae4 d223 b614 943f
00000350: b3ed 8598 d375 a2bf 845c 3301 57c0 84bf
00000360: f729 3302 986e 953f 4a41 d8c4 563c b83f
00000370: cccb 64d6 3d3a 94bf 6fc2 eb17 4efb a13f
00000380: a848 c164 be61 89bf 035b ae05 be96 a13f
00000390: 6c89 1098 ff6a b23f 9a8b a4b8 1bfd aa3f
000003a0: 8fdc fcb3 637b b03f 4e06 4a7a 124b 933f
000003b0: b9d6 1ff0 044b ae3f 98df 81d2 bde8 afbf
000003c0: 8b33 c5ac 53c4 b23f 4424 8532 bf96 8fbf
000003d0: 1e35 b676 b604 753f 3ee8 a45f 4101 693f
000003e0: d480 02a1 52fa 823f eb82 f012 20b1 a8bf
000003f0: 4ee5 be74 0a48 a73f 0575 70bd d20a a23f
00000400: 3b37 30a8 37be 6fbf 5b2c fd0a 40e0 aebf
00000410: d6f0 5764 ca25 a7bf 9411 0718 18f6 75bf
00000420: f326 cd86 be5c b7bf ff9f c442 98fa b23f
00000430: 4971 c05a 42f5 5f3f 54b0 f1dc 976f b43f
00000440: 37f2 1e32 03f4 a8bf 3aef 1800 8309 ad3f
00000450: d15b 5c26 46b1 a13f 9f7f 8e5e 0d0d 94bf
00000460: 2441 af00 ee52 aa3f 596d e565 2071 a3bf
00000470: 2c65 623e c6d3 aa3f 4440 0269 9872 a7bf
00000480: 52b5 137a 421b b4bf 2c00 e8bc 586b 9d3f
00000490: 438b 99ff 6805 893f b97b d858 0fa0 5d3f
000004a0: daa2 f615 22db a93f e2a6 9bd4 b21b 493f
000004b0: ca4b 3578 6919 863f 5e94 fae9 5ea9 903f
000004c0: 10d6 1c39 b300 623f b030 5236 0030 90bf
000004d0: 2a44 f9da 4bc9 a8bf 6e51 112b bc38 8cbf
000004e0: 48aa 3694 a9b0 8c3f 94e0 cb02 8dee b13f
000004f0: e1cb d55c bcbf 913f 2368 29c9 516f a7bf
00000500: 72f0 1405 15e9 93bf 6143 b6d6 51d6 acbf
00000510: 0b5a 1a22 9e22 913f 51b0 9603 4667 a63f
00000520: fab8 b495 bb3c b43f d3df ce06 49a9 b33f
00000530: e0e5 8c6a 7186 7e3f 07be ea32 aaf0 b2bf
00000540: 2730 8ff8 2bb0 a2bf 1eaf 881f fa67 aebf
00000550: e68f 4e71 1b06 a9bf ad5e dccc bb9c 7ebf
00000560: d3e2 35fd 7f1e b33f ef23 b6d4 3dd5 a0bf
00000570: 021c 2df1 341e a43f 002f 568d 2f28 97bf
00000580: e028 2594 52ac 833f c43a 34b6 bf54 913f
00000590: 45a1 45cf e853 a93f 61ef 2a6d 4f7e b33f
000005a0: 6b46 c68d 81d6 a3bf 9daf 4840 2dce af3f
000005b0: 2967 a2f0 4e31 af3f 78c5 a900 dd93 793f
000005c0: 71bc b40a 06c1 b03f 06d4 8404 676c 8bbf
000005d0: d55f f665 da60 aabf ffff 97bd 3089 9fbf
000005e0: 29d1 5233 3a3a a53f 69da 4218 ec4e acbf
000005f0: 1da4 a15e bf4b b2bf 4155 507e dc48 b1bf
00000600: 6c71 f1cc 132c b23f bf07 ffac 8b7f b1bf
00000610: 341f 45f7 ba27 973f 0221 d54d 2f95 903f
00000620: 201a dd25 c6db 673f 9bd9 6690 6907 923f
00000630: b7de bfdd 0eb6 b03f 51ad 5b2b 7ef8 b2bf
00000640: 33fc 84ee 922d 8f3f e393 aa63 1884 8ebf
00000650: 09d6 a20d 7ed4 8f3f 8f30 cdfe 3eea 98bf
00000660: 48de cc61 50e9 96bf 9c61 6df0 abbb 9abf
00000670: 5b14 a48c 41f2 abbf acc1 306a e069 a33f
00000680: 127a db8f e3c8 a9bf abbe 36d4 2f9c b03f
00000690: 1102 ea14 a629 b6bf 3664 9654 edb3 833f
000006a0: 3cd7 93f8 4ae8 b53f ee40 3479 9d8f aebf
000006b0: 86a9 faa8 fb64 b2bf 905b 5b56 11d1 86bf
000006c0: 55c1 5e3c e0bf 933f 5776 1181 e875 b5bf
000006d0: 5dac 6e9b 84d1 b23f 493c 792a 2929 b2bf
000006e0: 54c7 95f2 a56e 9c3f d049 8b46 f584 9a3f
000006f0: 208e 047a c50f 9cbf 990a 67fa 6161 abbf
00000700: 6300 2aeb 645a 933f d641 4024 3e6f 873f
00000710: bb7e 8e8c fce5 893f 31fa 79b7 7eb5 8fbf
00000720: ba7c 3c82 1eb1 b63f f8a7 fcd8 824f 6a3f
00000730: 430d aa4b 3d89 b23f c1f2 07aa cf8d b33f
00000740: a443 814a f9c3 94bf f770 4249 3e5f b43f
00000750: 91fa 3bd8 4f4b 493f c5df 2336 e33b a9bf
00000760: 25ad d7d7 eab8 afbf 13bc 564b 5f4f b1bf
00000770: 2816 b55c 2140 9abf 7c9a 0b7b f4f3 b23f
00000780: bb2a dcbd 4d4c 893f 0b33 bc01 c9de b73f
00000790: 704f 6d46 1448 b53f 7723 bbdc 87c8 803f
000007a0: 67fb c610 2e61 6a3f ba2f d285 0cd2 b03f
000007b0: caaa 9fa1 7787 993f d84d d0ad 7454 94bf
000007c0: 803a 885f 5267 b03f 7bc0 d335 237d a8bf
000007d0: d520 6ce9 b33b 8fbf 2ba4 252f 04ed b6bf
000007e0: 290c c2ce b6e4 b43f 963a 48a8 a9ec aebf
000007f0: f14b b05c e1dd ad3f f148 57af 9bf9 95bf
-0.046454303048218605 -0.012085720756203903 -0.012948129174999172 -0.05581092507391251 0.029684397159979236 0.017164042895644136 -0.05856179063336538 -0.07176790164901209
0.07742959023502421 0.05199502097607901 -0.06457821511179102 -0.0481224877455937 0.0015362310661733499 0.0471955839096514 -0.06187244455580544 0.07942186830392911
0.057217085840211436 0.0045987294448782455 -0.03783622911227137 0.07323348989917834 0.04718130386268522 0.0022732650297684984 -0.01129580713266258 -0.05055338191319762
-0.036574137568821226 0.0035283415647422312 0.07588878717648997 0.01860932992637784 -0.026296638006135162 0.0167969964070741 -0.011484968065311312 0.03698898915555552
0.05205445222390771 0.051427147725722114 -0.05198805463934075 -0.016171396656575986 0.06491580240542195 -0.018543262507695703 -0.05262105115663143 0.07220746417170801
0.04739679870201154 0.05815697131813538 0.014572568102508085 -0.02755542983383302 -0.015472537943591257 -0.00275827199802502 0.06634627709843682 0.03696554013266886
-0.03987073486069957 0.06421152038592277 0.006941326057415688 0.0031832641434358013 -0.00839399633610849 -0.0008035665230364361 0.030587048543623263 0.08725767284138865
0.05060257900134415 0.016390830243689303 0.04694968980779236 -0.04471201109904165 -0.090270612291648 -0.027459403784136957 0.06834294133312165 -0.03132779283973737
-0.05502198687626112 0.08066395491830457 -0.04983846113831053 -0.04414577796635905 -0.01966422079161712 -0.05256721428873955 0.04739869744499873 0.042615392585013984
-0.005282922969424803 -0.010353905081521078 -0.0013854229549173911 0.037217688397573556 0.009739034263063766 -0.038591972232740065 -0.08842741116572929 0.023526803910387414
-0.053067928002170445 -0.058953082775482925 -0.044224706253329506 -0.014407357325642283 -0.04535842575294447 0.03107346786905515 0.06844454792750018 0.0005554716621797905
-0.09735066549012769 -0.014854930169766788 0.023638075625194196 0.05340532103434328 -0.08143801390955602 -0.05273710848701041 0.04510043786250381 0.07312460417589038
-0.005984235967904723 0.011656328363548107 0.009174955484725477 -0.0006170172182471999 0.033796977541433244 -0.053920314769204905 -0.06115285920350958 0.07217708748383676
-0.004101197717219997 0.019610258041869146 -0.03605519520621261 -0.010132484172954877 0.020929694303768866 0.09467069917468965 -0.019753423891596886 0.0351204303932534
-0.0123934626100531 0.03435319728230548 0.0719451662303407 0.05271231297435648 0.06438277382118172 0.018841065133989247 0.05916610175328913 -0.06232255167645845
0.07330821006799064 -0.015424245576143865 0.005131447552583239 0.003052356417495821 0.009266515291813361 -0.04822635871119537 0.04547150302046053 0.03523882448664931
-0.0038748824167730545 -0.0603046430029159 -0.04521019434830158 -0.005361646763450873 -0.09125891486214836 0.07413627271728272 0.0019505641930726728 0.07982777732985485
-0.048736667507430935 0.056713193666352926 0.03455561846038047 -0.019581040283469183 0.05141395338398727 -0.037972462118626545 0.052396960368421425 -0.045796168154197875
-0.07854094963450578 0.02872980740539803 0.01221735029247884 0.0018081807969634169 0.05049997823818382 0.0007662413783837386 0.010790657025301704 0.016271098166403035
0.00219759945403087 -0.015808108630651574 -0.04841076896685366 -0.01378008848602327 0.014008831821077497 0.0700462467028749 0.017332976499755296 -0.045771175199391466
-0.019443825183075032 -0.05632262941356348 0.01673361857555204 0.04375666421705716 0.07905170826845512 0.07680183807576606 0.007452433616714299 -0.07398475401964087
-0.03650033387347689 -0.05938703188834736 -0.04887471922054924 -0.007473691553762468 0.07468414241692338 -0.032876903739697975 0.0392929596333076 -0.02261423397207718
0.00960602297404417 0.016924853797770437 0.04946830301452335 0.07614609160640164 -0.03874592643400095 0.062119878861579304 0.06092306792670705 0.0062445290483180635
0.06544530640961611 -0.013390354943661375 -0.0515201806512661 -0.030796777316936638 0.041459864392353225 -0.05528962894589002 -0.0714683156999318 -0.06751802524407415
0.07098506692404322 -0.06835244153538066 0.022612496702350174 0.016194094777604036 0.002912413604380562 0.017606400908073288 0.06527798570447883 -0.07410419996783914
0.015223644165074024 -0.014900389234137229 0.015542015830173577 -0.024331077863550873 -0.022374397248510897 -0.026106535481945067 -0.05458264200027748 0.03791714950819211
-0.05036078578062954 0.064883221921941 -0.08657300959203719 0.009620527404694195 0.08557575768267339 -0.05968944649259976 -0.0718533790156127 -0.011140952537443544
0.01928663605184629 -0.08383038664893526 0.07350949091657939 -0.07094056403114836 0.027765839511125393 0.025897819929761756 -0.02740391309010992 -0.053477346245491116
0.018899514058375987 0.011442647439282288 0.012645695723960562 -0.015482892965562463 0.08864012412640224 0.0032117419831552106 0.07240660760185329 0.07638261700771933
-0.020278830692692332 0.07957829750597854 0.0007719173304108919 -0.04928503070726679 -0.06195768246456116 -0.06761737431837415 -0.025635262759598515 0.07403495792423515
0.01235256896645375 0.09324318210947184 0.0831310913029577 0.008194981979060973 0.0032201671330932993 0.06570509211650136 0.024930829276778955 -0.019853423222299188
0.06407656509711934 -0.04782972366399548 -0.015250592766748042 -0.0895540824036664 0.08161490009119689 -0.060399343292478466 0.05833343750432352 -0.021459992005312626

fc2_act.bias f8 [50]
00000000: 4fbd de8a 66d5 9f3f 81e1 869d 96aa a6bf
00000010: 1ba2 58b8 9e31 77bf 6caf f122 c9e7 97bf
00000020: 0f86 461a 5906 9bbf 1013 b87f 1a84 963f
00000030: d5d2 eedd 7e2a 87bf b436 bb95 a725 8b3f
00000040: 44ee df0b 7ac1 a6bf ea09 e5a0 359f 953f
00000050: f443 db7b 8f6b a1bf cce4 3e66 1c53 b6bf
00000060: 5224 ad1f 1c75 a9bf d636 9e13 1bb5 963f
00000070: 58e4 0e11 cb7a aebf 3740 b7b2 448c a6bf
00000080: f962 7daf 9c8c b03f 890a 049d c4c6 ac3f
00000090: a66e bf56 919a aebf 21c6 6960 0da1 a7bf
000000a0: c0e2 e635 94d9 b1bf 50d2 3916 f358 b03f
000000b0: 844c 5cad 5834 813f 5fb0 0a5b ced3 b4bf
000000c0: 8c4a 7f2d bfd0 493f 183f f197 81a6 b4bf
000000d0: c162 0412 1495 943f 7703 42d1 e70f 9c3f
000000e0: 2293 adb8 0b7e 9ebf f880 04b4 3d2c b23f
000000f0: bd4d 74a4 1ca2 b8bf 64a0 3b21 30da a63f
00000100: f247 408b c6c9 a1bf e33e b1dd b4f1 9a3f
00000110: 91c0 c8d5 bab8 b2bf 50ce 448d ca4c b0bf
00000120: 72a9 369e f1e1 97bf c29e bcf5 1e8a b43f
00000130: 84dd 86d7 dfef b0bf 5956 a9c8 eb70 b0bf
00000140: ef21 c569 c89c 923f a5a6 c13f 4579 b43f
00000150: 7b8a 3360 2535 9e3f e5f9 bb1b dfd8 b03f
00000160: cb45 b00d e8fd b03f 71b5 9567 8af8 b3bf
00000170: 0c8e 692c b671 a33f 9e21 ac04 8eef adbf
00000180: 0a58 daaf fc72 b4bf 56d2 c008 bfc9 81bf
0.0310874960193222 -0.0442702357572129 -0.005662555694961681 -0.02334512973577267 -0.02639140341637441 0.021988309903480163 -0.011311522624830964 0.013255414254128219
-0.04444486041026299 0.021115148492080772 -0.034023746365740154 -0.08720567222816838 -0.04972160231279389 0.02217523867834966 -0.059530587990089756 -0.04403891259755748
0.06464556965273606 0.05620397965141872 -0.05977300819332969 -0.046150606173693605 -0.06972624126400273 0.06385726254104296 0.008400624075454617 -0.08135690424632135
0.0007878240094164198 -0.0806656833603906 0.020099938964537104 0.027404424807631025 -0.029777701517917816 0.07098756451569332 -0.09622363104818184 0.044633392388107734
-0.03474255037157538 0.026312662154224575 -0.0731312534269384 -0.063671740998694 -0.023322844773852443 0.08023255824502498 -0.06616019260297007 -0.06422303818666232
0.01817620416230342 0.07997544104150707 0.029499610897696798 0.0658091967306756 0.06637430509751778 -0.07801117924619462 0.03797692577498077 -0.05846828276668535
-0.07987956326755366 -0.00868558164084125

fc3_act.weight f8 [20, 50]
00000000: f070 f053 abe8 b03f d801 6ced e1ea 723f
00000010: 6f34 2b3c 8b80 7abf dfa0 46ff 1061 b93f
00000020: 066f 0cd6 9046 b8bf ec90 7926 4726 acbf
00000030: 857f 3ce5 5a91 bc3f 10b6 0adb 0b11 b43f
00000040: ad33 e030 e676 6dbf 6a18 f20d 1a38 b1bf
00000050: 3dfc f8fa 4350 73bf d9d4 66ef 38d8 b73f
00000060: a032 9e4b d085 6dbf 378c 06a2 2767 b03f
00000070: 58b0 6110 3af8 a33f a65e e25d 9e39 b6bf
00000080: 2327 99fe 1cdd a5bf 8b9c 398c 2fef b3bf
00000090: 8fd0 b472 8a49 86bf aba2 5fc9 7248 9a3f
000000a0: 80de 8873 a66d 943f eca0 dbef 20d2 b3bf
000000b0: 16f2 de60 52b8 95bf cf01 5766 4c2a b83f
000000c0: 14e6 c445 59a1 bc3f 5c0b 61cc 7f4b 953f
000000d0: b80a fe08 ee2c b43f 6e1b b50b eff1 b0bf
000000e0: 6968 e0f1 6d9a bebf 4c29 e1aa 946a 7fbf
000000f0: 4aa8 91d6 1082 a3bf 5ad1 aca5 4190 c0bf
00000100: 66d1 5c17 2888 913f d78c e807 8181 b9bf
00000110: 2c8a f8fc 45c0 b53f 4a03 21f2 e0de aabf
00000120: 609a 6059 96df bbbf 4044 4429 b406 6f3f
00000130: 8468 6b86 eb8d acbf 136e 1c62 f2df b93f
00000140: d09f e4e8 b823 9a3f 1ca9 66fb 13ad a5bf
00000150: 65bc e519 8708 b5bf 7e46 5197 2f22 ad3f
00000160: 2d81 f77e 04bd 9bbf b744 e255 d767 b53f
00000170: 50e5 964e f140 b43f b993 4085 f088 b93f
00000180: ba35 d857 bf59 a83f c19b e248 31ac b53f
00000190: 1887 8d74 70d1 bb3f 1050 8460 f785 9b3f
000001a0: 03c6 778b 08fc 903f 1907 48d7 a2a6 8b3f
000001b0: 5e03 2284 a8a4 abbf 8af8 4d61 8dff b1bf
000001c0: a8e2 dd22 8718 a53f 4f70 45fd 0b72 a8bf
000001d0: 3b98 d0a4 0c23 9a3f 31c2 834d f2c2 c1bf
000001e0: ebc5 7554 6bc8 b1bf 85d2 f4cb 99d9 a73f
000001f0: 73e6 3fe3 14da a43f 9d10 35e9 3aff 9c3f
00000200: 53ea d71d 16a3 9b3f 1eea f1a5 9ea5 a1bf
00000210: a064 86e7 8727 b5bf 0c2f f376 da04 96bf
00000220: a6b1 4569 13b6 abbf ac27 6a24 16e2 b7bf
00000230: 7c70 0ed2 c223 c0bf 1fdd 73f9 d31d 943f
00000240: 8fbc e080 5594 9e3f 2d72 bd56 fccf b13f
00000250: 9b3b 61d9 053e a6bf c6a2 1ecb 7cd1 b63f
00000260: 1e3b 3135 d543 bb3f 2c55 f1c8 04e4 bdbf
00000270: a5de 0f8f 9324 45bf 723c f46c 9fe0 7dbf
00000280: 8f46 b4bf a959 a93f 4f90 163f 354d adbf
00000290: 470c 66c2 6fca a2bf 31e7 31cd b9a0 a8bf
000002a0: a90e dfd2 58bb b0bf 852f 02b8 3753 bc3f
000002b0: ac0d 18bb 396d b7bf 5199 a7df 52c9 b43f
000002c0: 4430 c192 9e36 a0bf 55fa d669 40c3 973f
000002d0: 10ea 4d15 093f b3bf baca 8e33 5580 a3bf
000002e0: 3c30 afc5 75c5 a2bf 67fb bb4f a7e6 c03f
000002f0: c7f9 c5ca 1f60 a33f ed91 cf0d 225a b8bf
00000300: 5c5f 0345 677c a13f eeb6 baa6 7b27 a33f
00000310: dc79 02e5 f86e b93f d6fe 5046 441b b93f
00000320: 5f5b 633b e494 ba3f b9cc e250 4a4e b63f
00000330: e0b2 ab1b 37af bdbf 21d4 79ab 13d8 c0bf
00000340: 6f82 70b3 63b3 bc3f 0468 fa07 2cef 91bf
00000350: 0a93 f683 f054 b2bf 1a8f 0716 98d8 b23f
00000360: d5cb 64e5 ff36 bd3f 8ed5 9c48 0f7f aabf
00000370: a77a f99b 356b b63f ee3e ddfa 9ad2 aebf
00000380: 53a3 3773 27ca a33f 207a f314 c540 ab3f
00000390: 818d f2a1 d84d ac3f 1903 e20d 1d73 bc3f
000003a0: 4fae 095a 8e64 803f 99fd 7dab 1d7b aebf
000003b0: 78c2 4020 8115 9cbf adbf b5f0 8600 b6bf
000003c0: 08e5 ded0 970d a0bf 6c6e 32f6 c503 b7bf
000003d0: d2bd 6f3e a157 8f3f 98b4 ab6a 6a0e 9d3f
000003e0: 4156 ab1a 09e0 ba3f e03d 4b53 3fcc bb3f
000003f0: 55e9 54ba 09bb 863f a029 9cfd ae07 a73f
00000400: fc25 85ce 21e7 9dbf 4480 6b9c 59ac 703f
00000410: d431 255f e559 b13f 21ca 4263 0a54 6c3f
00000420: 10e1 4e5e c0d2 a33f a680 c721 1f35 c03f
00000430: 8ba7 c0ab 4e0c b4bf 42b0 8891 22f7 ba3f
00000440: 8e93 fdf7 5851 953f dad6 2a6a 7830 b9bf
00000450: b595 3404 63cb a53f 80c3 aff2 efb0 be3f
00000460: e917 6f35 99fd ad3f 376a 8223 4b96 4cbf
00000470: eeac c486 a44c bb3f 74fe 161c 9334 933f
00000480: 44c9 9ece ed58 acbf fb3d b602 03c9 b3bf
00000490: a070 1287 65d8 aa3f 87fc 5a7c 5716 b8bf
000004a0: 823d 549d 55e5 bdbf d1de 02a7 ef67 b6bf
000004b0: 8fad 1463 4d26 a63f fba5 fdcb a103 98bf
000004c0: c553 fbcf 2ba8 a23f c23d 2898 ccb2 b83f
000004d0: a21e 9dfe 3ae8 94bf 9b5b d37c 06eb bebf
000004e0: 7aad b402 65ff a33f dca7 ee23 2d70 babf
000004f0: a541 9bb0 e9b6 b4bf 77de 4520 bbae bf3f
00000500: aa8f 09a7 38c5 b13f eca9 6907 2f32 c13f
00000510: 07e2 9bbd 291e b4bf 2e5c 6ec2 8180 9f3f
00000520: f1cb 861f e39a bf3f 5079 ffc5 e03f b33f
00000530: 8d13 4e5e ec79 adbf fbbd cf00 56cb a2bf
00000540: d720 ed8d ded4 a73f f27f b067 517d b3bf
00000550: f9cc c3bb 3d72 b7bf df92 4c1c 9086 a93f
00000560: 5b2f 7dd5 c75d a8bf 1ddc ce52 e47c b23f
00000570: 3ddc 1d89 6784 a93f d0ad 9c99 6174 a73f
00000580: 8868 d243 ce28 9cbf 8cf4 776c 0cb1 b43f
00000590: 77a8 4a33 289c a3bf 62db 74a4 01bf b83f
000005a0: faa5 5e13 2937 bbbf 8473 0d8d 60dd b2bf
000005b0: 184e 3400 fa6f b23f 9917 3dd1 7152 90bf
000005c0: 11e8 6ee8 de3d 83bf fc7f 95cb d67e b53f
000005d0: fc89 8bc2 ea05 88bf 5264 deb3 0f60 c0bf
000005e0: 1c82 450e c5e7 70bf 1d15 878e 3146 b73f
000005f0: c0c8 9e7c c90e b6bf 7fd9 9c29 b504 b93f
00000600: ee0e 1c8a b194 b8bf 2b41 2357 10a5 99bf
00000610: 5110 3c42 62df a83f c610 4e61 5758 bfbf
00000620: 37ad 9427 035c a63f 148c 456f d670 bdbf
00000630: ee13 1aea 9548 9dbf ec5f 7751 6ba5 a03f
00000640: 9dde a55c bce3 89bf 5601 2d44 f06c adbf
00000650: 6584 ccb2 18a9 ba3f faab f906 87e2 9dbf
00000660: 595f a317 bfaa bb3f 3ed5 240d 63da a83f
00000670: 44a1 2e1b ebc5 c03f 28b8 7dff 4361 9f3f
00000680: b432 1577 7288 a43f 7759 9f76 c3e3 b0bf
00000690: e59f 2e24 11a1 a93f ad39 7bdf 80a7 84bf
000006a0: 76c2 df5f 559d ba3f 8306 39bd d0c6 b0bf
000006b0: a8fa 17c0 857b a83f ec2a 65ef 329f b8bf
000006c0: 9f37 b931 890c 823f f1cc e531 1ae1 a8bf
000006d0: 504c 083e 5b12 b7bf 6b0c d4e8 9729 c1bf
000006e0: 57e7 98a6 bc54 8a3f f54d cc77 ef1e a13f
000006f0: 0396 9c9f 66cc b5bf 6ec8 3f14 4d02 b8bf
00000700: f5e7 6dfa 1fd3 713f 7939 a82e 84bf 8d3f
00000710: ede2 b04e 17bd b93f ec05 2c5e b6a3 bbbf
00000720: e71d 7bd8 fd86 b2bf 42ac 37c8 215a c0bf
00000730: 65c8 6109 4d06 c03f 61ee 01f7 dbd8 833f
00000740: daa6 df24 ed29 ab3f 9ba0 39e8 68c8 91bf
00000750: 486a c7e1 330c 90bf 663f 19b0 8c91 b53f
00000760: 6cb4 8760 74c1 90bf c389 5f2b 6039 bb3f
00000770: 0c18 d2e3 e4b7 ab3f 7843 f10b a357 a83f
00000780: 2031 82f1 d80b a03f 7c64 6925 e11c b8bf
00000790: 50bc 1fe0 ff38 b7bf 2b26 b828 4f0c b13f
000007a0: 5a5d f3d2 5ed6 a9bf ef45 3653 0a94 a53f
000007b0: ad1a c461 c498 b3bf 153e 08ea 2e57 b3bf
000007c0: d9fd 3dfe e20e a13f 7592 8215 1068 b3bf
000007d0: d565 effb 7730 b53f 03a3 cd69 226d b03f
000007e0: f914 29a0 0c46 883f 9fce f2cb f85e b53f
000007f0: bdfb 6e26 5632 a9bf b252 6a24 7fd6 c03f
0.06605025100037998 0.004618532685299624 -0.0064702452534223095 0.0991373656494292 -0.09482674814028877 -0.05497953743614112 0.1115929422053324 0.07838510606480775
-0.0035967346111704574 -0.06726229515524698 -0.00471521906689448 0.0931430420376559 -0.0036038463849251273 0.06407401757910312 0.03900319528551738 -0.08681669036956893
-0.042702585295570715 -0.0778684346529294 -0.01088245546871061 0.02566699365698592 0.01994953231971275 -0.0774250588980327 -0.021210944330720315 0.09439542292148605
0.11183698609684029 0.020795819138821656 0.07881057471790143 -0.06619161640001689 -0.11954390673818839 -0.007670002682127763 -0.03810169810533688 -0.12940235700228692
0.017120958734453316 -0.09963232462955617 0.08496510911985727 -0.05248167949367273 -0.10888042146744104 0.003787376286830596 -0.05577026382316411 0.10107340712823314
0.025526894774117015 -0.04233610576496202 -0.08216137296925437 0.05690144273888807 -0.027088232278289204 0.08361574026845885 0.07911594551741996 0.09974578145245418
0.047559718583311164 0.08465869931624949 0.10866453977135071 0.026878228441162888 0.016586431038325255 0.01350142688261573 -0.053990617875576005 -0.07030566812133734
0.04120275784129507 -0.047745108286762254 0.025524327811716523 -0.13876179489990784 -0.06946440517437906 0.04658203711224921 0.04072633050959675 0.02831737564453417
0.026989312716958768 -0.034466703183131595 -0.08263444330659064 -0.021502889166000336 -0.05412350330411479 -0.09329355610876061 -0.1260913396516833 0.019645034885766962
0.02986272429569375 0.06957985990215639 -0.04344194677889065 0.08913402518249844 0.10650379704132404 -0.11676053911044865 -0.0006452293874863081 -0.007294295078522516
0.0495122000230711 -0.05722967524641886 -0.03670071838407601 -0.048101240442476 -0.0653586878607323 0.11064480059047639 -0.0915103990337715 0.08119695625609792
-0.03166671315611372 0.023205763301797983 -0.07518059511304664 -0.038088476699518606 -0.03666275060786048 0.13203898804928402 0.03784274435291795 -0.09512532078912957
0.03415224759527177 0.037410606482223815 0.09934955206924861 0.09807230679234222 0.10383440446763136 0.087132115123313 -0.11595482278398661 -0.13159414170118658
0.11211226588103228 -0.017513931261966334 -0.0716085741210685 0.07361746347265488 0.11412047720368375 -0.05175063859352767 0.08757338579151029 -0.06020054161365161
0.03865168839894886 0.053228529746537356 0.05528141953370903 0.11113149250924116 0.008004295466171344 -0.059533049759006924 -0.02742578276974192 -0.08594554306705389
-0.031353706595334485 -0.08990132580441362 0.015303859441671817 0.028375303993858653 0.10498101140122974 0.1085853174547462 0.01109893417252709 0.04498049588990516
-0.029202011327731356 0.00407061580946794 0.06777795384295554 0.0034580424199586323 0.038717280876371274 0.12662114285831655 -0.07831279462030076 0.10533348134112067
0.020818128715649524 -0.09839584915138336 0.042567343009334214 0.11988734888997321 0.05857542779226305 -0.000872408570120448 0.10663822450867474 0.018755243863550722
-0.05536597392291978 -0.07728594604690635 0.05243222497776512 -0.09409090791722195 -0.11678061572114554 -0.0875234396688669 0.04326097330553146 -0.02345135505257721
0.03643929399337468 0.09647825922751621 -0.02041713885344499 -0.1207737021207848 0.03905788095502323 -0.10327417495014352 -0.08091602861100584 0.12375993287957408
0.06941560819683326 0.13434398519468915 -0.07858525160907713 0.0307636523171732 0.1234571411103358 0.07519345125135612 -0.05757082606491002 -0.03670758018403927
0.0465459392785889 -0.07613095075112122 -0.09158693155386634 0.04985475869606203 -0.04759048920695249 0.07221819898300948 0.04983829067980892 0.045809793473690186
-0.027499411477585528 0.080826546174608 -0.03830075861090248 0.09666452660608862 -0.10631043169873769 -0.07369044727006552 0.07202112679470252 -0.01593950118628804
-0.009395352810191356 0.083966660216447 -0.011730035841030599 -0.12793155939724216 -0.00412728285695654 0.09091481904677719 -0.08616313259588804 0.09772808328566461
-0.09601888295952296 -0.025043731039489685 0.04857928331878781 -0.12244173169716807 0.043670748311650014 -0.11500301567643617 -0.028597204602664954 0.03251204843007813
-0.01264140279521025 -0.057471760103455935 0.10414270749289896 -0.029184446144807176 0.10807413413146828 0.048541159967877764 0.13103998973134356 0.03064447638410442
0.040103508984065256 -0.06597539564186215 0.050056968371165834 -0.01008511240015938 0.10396321860003774 -0.06553368205734426 0.04781740159886755 -0.09617918343171156
0.008812972860279987 -0.04859239443876529 -0.09012384666884654 -0.1340818297249798 0.012856935342927462 0.033439143537318396 -0.08515015980500355 -0.09378511185039581
0.004351735033987216 0.014525444673407094 0.10054155036130981 -0.10796680258865593 -0.07237230811289629 -0.12775060917133102 0.12519228895286286 0.009690969920703897
0.05305424761884377 -0.017366065191169438 -0.01567154946847385 0.08425216006548694 -0.016362970725755252 0.10634423312107004 0.05413737565054086 0.047543616493050445
0.03134038875677647 -0.09419066584941221 -0.09071349355484526 0.06659407371639563 -0.05046364140587896 0.04214508310100117 -0.07654979121080414 -0.0755490609519643
0.033316701445979376 -0.07580662274501455 0.08277082348595084 0.064165259199978 0.011852358472547385 0.08348040560923174 -0.04921216220053946 0.13154591825572975

fc3_act.bias f8 [20]
00000000: 87c0 c12a aa3c b63f 25ef 789c 5bb2 ba3f
00000010: 2f22 c597 85ec adbf d8f6 3b66 880c b4bf
00000020: 3964 d7f4 9204 903f 9c51 50c9 7d57 b63f
00000030: cbe8 5e69 136c b6bf 57a1 69b2 5e32 9b3f
00000040: a84e 09b5 f976 a9bf 88b4 ea3d 959a b8bf
00000050: ba18 95f0 185e b1bf 5e9a 5b61 669f b13f
00000060: 583c f2fe e8d1 b4bf 403c 487c 2f57 a63f
00000070: 6712 0e73 b0e1 863f 5dea d7b4 cf37 babf
00000080: 879c ec37 195a 8fbf e488 adaa 34ce b2bf
00000090: 7f4b f9eb 861c aabf 1000 c824 1e20 bdbf
0.08686317008846532 0.10428402490736895 -0.05844514348661211 -0.07831623550370226 0.01564244861024042 0.08727251210104331 -0.08758660624053786 0.02655933345741465
-0.049735835408367735 -0.09610874902382893 -0.06784206269830664 0.06883849980258946 -0.08132797455094598 0.04363392250171971 0.011172655593108162 -0.10241411366579585
-0.015308568019078329 -0.07345894972744166 -0.05099889402904178 -0.1137713279531456

fc_q.weight f8 [3, 20]
00000000: d391 cd72 8651 963f bde9 7b36 ec8f b8bf
00000010: 40b7 61b2 995a bf3f 76d0 2c96 614c a93f
00000020: baae 4059 b198 c23f 80fd 9912 e7f1 b6bf
00000030: 43b1 d6e3 0982 c3bf a42d ac1d b094 a53f
00000040: 4a54 87da c49f c0bf 8d70 6598 6f29 ba3f
00000050: 7421 b5eb be37 b8bf 64ec c36b bf80 87bf
00000060: 941e 72e1 4073 c53f e593 fc52 2ba4 c2bf
00000070: 33a3 5aa2 0d65 a1bf 8c5b a124 0a25 a2bf
00000080: 5112 6a9c ed2b 60bf 22e9 7cf9 bdbf c0bf
00000090: 6758 abdb ef8c c53f e1fc cadb 4a79 c8bf
000000a0: ef0b 1441 74fe c1bf 93e6 fc95 1565 c03f
000000b0: e1e4 b0f8 18db c73f 533b 0a6e 29a2 c43f
000000c0: 851e fc7f 507d c03f 4320 5c3b b4d0 b6bf
000000d0: 28ee ceee f728 9bbf 4a98 50fa fdcf c6bf
000000e0: 13b9 0caf bf47 c7bf c65c 3766 1543 aabf
000000f0: 245b 5f99 3cca bc3f 7dbe 1e30 3060 a53f
00000100: 730e 04bf e2ec b2bf 5608 7e49 faec bd3f
00000110: 42cf 9cc7 e039 c2bf 56a8 2e1c 04f9 c53f
00000120: c10a 1754 985e b43f 0e4b 162f 1a5c a33f
00000130: bc01 8d09 1649 863f f1ee 13f8 41d1 bf3f
00000140: fc33 71c4 b09d c6bf 271b 4d50 997a 21bf
00000150: f0fa 082a e2b9 aa3f e052 668e 07a2 a3bf
00000160: 853d bb1c 2980 b5bf 6051 df95 9f7b b83f
00000170: 79e9 d22a 6b38 c3bf 22a6 af8b c44b c63f
00000180: 4d36 e1a0 3a27 98bf c768 bc0f ca26 973f
00000190: ab3f 1c5d 8607 c6bf 52f0 c7a3 6979 b9bf
000001a0: 086c cd5c a259 c7bf 8f3f dbad 0818 b53f
000001b0: 8f0e 877d efdb 95bf cd5f 1e03 d8dc c13f
000001c0: d314 1496 012d abbf 28f8 f4f2 a214 b13f
000001d0: ec2b c5cb d8cf c53f ad1f 7d4b 2325 c33f
0.021795368916530066 -0.0959460862176575 0.12247620205900223 0.049410867292324065 0.1452848134807619 -0.0896286411680105 -0.15240596413549143 0.042150024053707186
-0.12987576170295007 0.10219476194964923 -0.09460061316088347 -0.011476035572277783 0.16757975586027796 -0.14563504745561243 -0.03397410017834659 -0.035438839885208656
-0.0019740715827672247 -0.13085150415447183 0.16836355424919988 -0.19120155078960635 -0.14057782342578615 0.12808484862926103 0.1863738264380919 0.1611987864784746
0.12882429360637473 -0.08912207078185568 -0.02652346987791368 -0.1782224151840544 -0.18187709853504738 -0.05129305718190262 0.1124608873791258 0.04174948298839085
-0.07392708934281149 0.11689724249120678 -0.14239129778581555 0.17166186691366886 0.07956840565661151 0.03781205963891497 0.010881588140933533 0.12428676897610182
-0.17668733207611342 -0.0001333534384235443 0.05219942820666812 -0.03834556210782636 -0.08398682547998788 0.09563634308807911 -0.1501592597104027 0.17418724842654948
-0.02358714682514167 0.022608906946609133 -0.17210464044955862 -0.09950886009750207 -0.1824229195725311 0.0823979782537647 -0.021346799885363196 0.13955211784627722
-0.05307774502765885 0.06672113830151771 0.1704054827663123 0.14957085786795457

fc_q.bias f8 [3]
00000000: 7108 9643 b4f1 8d3f 93d1 91bc 78c2 bd3f
00000010: 27c2 6e67 5481 c23f
0.014621170342028674 0.11624865154028034 0.14457182932302823
