weights/numq/gspc/correlation/highlow/numq_5.pt (torch, 526847 bytes, 8 tensors)

fc1.weight f8 [200, 200]
0	0x3f8da3fecb3f3b8a	0.01447295243988635
1	0x3fa3f74c36eaf81a	0.03899610681899919
2	0xbf98f49ece237383	-0.02437065251511995
3	0xbfa4fb017738f600	-0.04097752170899227
4	0xbfae096145874f7e	-0.05866531347024216
5	0xbfaaaffd479afc84	-0.052123942366500337
6	0x3f94b46439b19536	0.020219388982146223
7	0xbfb9d0885dbb3da5	-0.10083820618023383
8	0x3fa9f95adc8fd545	0.05073055212407466
9	0xbfc3c6f1e544f680	-0.1545088166694093
10	0x3f6c1f0b7020b287	0.0034327720068375064
11	0xbfbe93bc91103978	-0.11944178144060469
12	0x3f7c1bb33710bb7f	0.006862354334812858
13	0xbfbe8bbc717bf19c	-0.11931970377549422
14	0xbf963ed66cc054c0	-0.02172408140912263
15	0xbfb2f5e9f100af40	-0.0740648473153529
16	0x3fc77e83d50c9e27	0.18354843046948696
17	0x3fa1a58f532b97c0	0.0344662465120531
18	0x3f8d84ea8da40e39	0.014413673827681982
19	0x3f85964ec68de1f3	0.010540595468897051
20	0xbfa407ada19e3c2d	-0.03912108037831561
21	0x3f6f257f3bc44725	0.003802059653147521
22	0xbfaa012c0a195d23	-0.050790191872403655
23	0xbf8917652673bc3b	-0.012251653896298112
24	0x3fb097cf813d063b	0.06481644540056035
25	0xbfc0fcb971bf1120	-0.13271253637334102
26	0x3fac0ee00627308b	0.05480098795996565
27	0xbf910a5152125be8	-0.016640921243915502
28	0xbfbf6aa10e86329c	-0.12272078137011494
29	0xbfac20cf3cdf91be	-0.05493781679232111
30	0xbf96bbc3e6bc1cd0	-0.022200642545638527
31	0x3fb710703097963e	0.0900945776589532
32	0xbf8d6a5e02b5f671	-0.014363035638548656
33	0x3fb59776e1d26529	0.0843424130747691
34	0x3fa0b3ac51c181a3	0.03262079713818202
35	0x3fa9b70098a7e668	0.05022432197069976
36	0x3fb5b8eeac51a90b	0.08485309321409688
37	0xbf459ae8184a1062	-0.0006593354488164777
38	0x3fa03f759769c41a	0.031734156353998524
39	0xbfb2028e58b0bf11	-0.07035150208752962
40	0xbfb16bed294ce858	-0.0680530763465027
41	0xbfb5dc9ddcf2907a	-0.08539759296633234
42	0xbf899d204806be19	-0.012506725500172998
43	0xbf9f1503343b149c	-0.030353593886293426
44	0xbf972bd99109bc5e	-0.02262821147672544
45	0xbfb08537887840f0	-0.06453272897511275
46	0x3fb3493d90d2444f	0.07533631120374305
47	0xbfac2bf152559a5c	-0.0550227559095233
48	0xbf87d490cfffa251	-0.011635905597317338
49	0x3fa574797abfb55d	0.041904255136482084
50	0x3f608ae1c17bc0ed	0.002019349030767717
51	0x3f9cc05352f61f02	0.02807741350036875
52	0xbfa6c820fc0bad66	-0.044495611922537745
53	0xbf9c22da9ad1ff60	-0.027476707171899206
54	0xbfa2ebd9edac9901	-0.03695565248772149
55	0x3fb24ecd5b20ec01	0.07151492571658481
56	0x3fc09d73774d0af6	0.1298050243877566
57	0x3f7d71b6c3db479f	0.007188524175676308
58	0xbfa9771a24c681e2	-0.04973680209082311
59	0xbf900c12facf1649	-0.01567105918709036
60	0xbfb3975be2a78c79	-0.0765283039432222
61	0xbf8d4191dd303b9e	-0.014285220682749341
62	0xbfa23f2d571a7394	-0.035638253100137934
63	0x3fbf18daf0671e9f	0.12147301072320225
64	0xbf6b0d163ec44a68	-0.0033021387554382116
65	0xbfa4717d5303dc97	-0.03992835653655751
66	0xbfac67781f811b87	-0.05547690758299156
67	0x3f78148c791eac96	0.005878971789495277
68	0xbfb5e1d777ea5e5f	-0.08547732045769284
69	0xbfc2521801119444	-0.14313030292683682
70	0xbfa6d32cc7154252	-0.044579886724595355
71	0xbfa6e56ab12e10fb	-0.04471906102028985
72	0xbfb532f2c1eef5e5	-0.0828086589308082
73	0x3faaace88e04798a	0.05210043653117953
74	0x3fb66dd0b0ea1e43	0.08761314696504834
75	0xbfba15524745368f	-0.10188783874510875
76	0xbf991b6ae2622077	-0.024518652026501244
77	0x3f934aed829950e3	0.018840514274715125
78	0xbfb8ae3d251856a9	-0.09640867381707587
79	0xbfb8f2bb8540b0c1	-0.09745380404700922
80	0x3fa173ceedba37cc	0.03408667232461901
81	0xbfc0dddba1b1ee4f	-0.1317705668951583
82	0xbfb5441f5a037679	-0.08307071635814535
83	0xbfbfc916cc7fe41c	-0.1241621255175151
84	0xbfb6209384148b09	-0.08643457388511079
85	0x3fa3239c823faa56	0.03738106813382973
86	0x3fb3d6836bf9b808	0.07749196420783744
87	0xbf763b344bf205b9	-0.005427555354914509
88	0xbfabde4828a796e7	-0.05443025108597315
89	0xbf92d135a730db1a	-0.01837619622184681
90	0xbf90d60946f7a91c	-0.016441483456142256
91	0xbf571e2cc1d82160	-0.001411002834517637
92	0x3fb55036430d1d0e	0.08325518738739765
93	0xbf7f23e801765ace	-0.007602602264703063
94	0x3fb1675c78e026fd	0.0679834170442994
95	0x3f82fc4ae96abb34	0.009270272491759358
96	0xbf93d8cf0ac41c24	-0.01938174727640897
97	0x3fab3fb06f61ee04	0.053220285030843
98	0xbfb7fe74046c6237	-0.09372639759056588
99	0x3fa012daa33e3c42	0.03139384501184185
100	0xbfa20c786cd3351c	-0.03525139168196231
101	0xbfa794ca6cbd8be0	-0.04605705811879779
102	0x3fb12dbd9ab7f9cc	0.06710419680891916
103	0xbf909361351b3c3f	-0.016187209001881305
104	0x3fbe7674a416db47	0.11899498945318242
105	0x3f9cf329f4e53520	0.028271346637940842
106	0x3f9bb42947a71b8d	0.027054448126161246
107	0x3fb539501ddae9a8	0.08290577629933316
108	0x3fc16aebf6bb4512	0.1360754923576129
109	0x3fb8d23e5d41f0bc	0.09695806290432335
110	0xbf857dde85bcc050	-0.01049398275026206
111	0x3fc0e62884389dce	0.13202387291060663
112	0x3f90a20e6137dd9d	0.016243195232133457
113	0x3fa7159cc236aced	0.0450867640568847
114	0x3faff2ff63ace820	0.062400799672517104
115	0x3f9c6bf19ccf5571	0.027755522914806933
116	0x3fc6cb2ca24f5774	0.17807538914956533
117	0x3f9a8ca5d3272481	0.025927153599500933
118	0x3f915204ecd23f99	0.01691444106523896
119	0xbfa2a557d9a21bf3	-0.036417718235547535
120	0x3fbd3c69413bf752	0.1142030510199821
121	0x3fb1c103176761ac	0.06935138055212658
122	0xbfa43b5221c9f97f	-0.03951508200133257
123	0x3fb5d77406f7715a	0.0853188054092632
124	0xbfb1c87057b2e4ab	-0.06946470395168329
125	0x3fb5707e5faf1006	0.08374776683837135
126	0x3fb02a8f60161627	0.06314941497665726
127	0x3f89e53bd223eda9	0.012644259787058259
128	0xbf987a9b4eb9446a	-0.02390520732871374
129	0xbfc01c26659a8a5c	-0.12585906945340042
130	0x3fb0b7ebf7df1374	0.06530642320201513
131	0xbfa4a273e01f8a14	-0.04030191527251162
132	0xbf7be4a81ad89b43	-0.006809860858573216
133	0x3fa57711f3672c95	0.041924057924540716
134	0xbf982bd04850b171	-0.023604635633249275
135	0xbf84e78acd80f318	-0.010207256695247177
136	0x3fbe982db19e6bf1	0.11950955950162247
137	0x3fa1b06c600ed9af	0.03454912827094191
138	0x3fb5c91f3de68a81	0.08510012875789565
139	0x3f500fb3ff088d1c	0.0009803064132334954
140	0x3f8243212d23dd9f	0.008917102041307965
141	0x3fb34b14d095a946	0.07536439983747298
142	0x3fba89fed45c67a9	0.10366814312547369
143	0xbfa92c2c6338b5af	-0.049165141212465506
144	0x3fae43c68057190f	0.05911083523419524
145	0x3fbfc7bf78dce43f	0.12414166165116657
146	0x3fc1df3e0cd2ee47	0.13962531686944343
147	0x3fc168f4ddeb36c2	0.13601551853064647
148	0x3f702922ce878047	0.003945480312239686
149	0x3fb7ae8e9c6d9e56	0.09250727957771096
150	0x3fbeafd3dffa009d	0.1198704168145945
151	0xbfa1e140fc9625d5	-0.03492167552310447
152	0x3fbcb60647df088b	0.11215247397106702
153	0xbf9e9f7d600f4975	-0.0299052801017949
154	0x3f998cf127e7233f	0.024951713619688617
155	0xbfa82ad18253c902	-0.04720167842778446
156	0x3f9e9eed23f52c14	0.029903130836185524
157	0x3fa89a1ea3e310b1	0.04805083990643889
158	0x3fa781f7495cdcdd	0.04591343660870859
159	0x3f89b6275d85831f	0.012554461995649966
160	0x3f88c37e71a20565	0.012091625063706155
161	0xbfa4bbf9196a6183	-0.04049662051437777
162	0x3fc1f2ff36c73c7b	0.1402281777832036
163	0x3f9b550e4f3ef763	0.026691649996556942
164	0x3fabda2997fd110a	0.05439882259682534
165	0x3f9ba6601c15a73e	0.027001859392306253
166	0x3f9a2e23762ad863	0.025566629493106407
167	0x3fb889f1503f5deb	0.09585483750503669
168	0x3f71579a23333aa6	0.004233934497462377
169	0x3fa3e55e8a1d6fcb	0.03885932384466136
170	0xbf9b14e602b151ab	-0.026446908869120083
171	0x3f80b6b4f29d012b	0.008160985616655644
172	0xbf90f3f0ce97d6ab	-0.016555559739535635
173	0x3fb0db47664556b0	0.06584593054625532
174	0xbfb8dd91b0030de5	-0.09713087603727606
175	0x3fb45e98f91e4a9c	0.07956844408026104
176	0xbfa3030b69c3b8b1	-0.03713260332175262
177	0x3faa895a34df3d72	0.051829165414910686
178	0x3fc1685949c5d609	0.13599697210490572
179	0x3f905b38dd310acb	0.01597298479124269
180	0x3f70f41a4fd912b8	0.004139044552691366
181	0xbfad02a79ab04424	-0.05666087878501738
182	0xbfa6458f052b9353	-0.043499440556650136
183	0xbfb5c6fe2948f494	-0.08506763942655687
184	0x3fa5ddc81d4d1569	0.0427076850669817
185	0xbfa61345406a9eb6	-0.043115772355404244
186	0x3f988bc0189ce196	0.02397060537552561
187	0xbf9624254bc3d350	-0.02162225985462679
188	0x3f70ae167655027b	0.004072273009399492
189	0x3fc068b1b0714ec0	0.1281950103317424
190	0x3fb4753e5ab5320d	0.07991399492784286
191	0x3fa4194be10a9175	0.039255496235713595
192	0xbfa0b84a896c9b85	-0.03265602996389475
193	0xbf8be2acfc96ebc2	-0.013615943392201294
194	0xbfacc8589880c08f	-0.05621601926429875
195	0xbfa50b55f3784192	-0.041102109880856066
196	0xbf80bd84a348e509	-0.008173977120451885
197	0x3fa5003786a42ce2	0.04101727980204274
198	0xbfab8882f420a65f	-0.053775875378346376
199	0x3fbcd317c5b30759	0.11259602142947979
200	0xbfaf91893ef30691	-0.06165722745346359
201	0xbfb6a609ef01c7d6	-0.08847105107432127
202	0x3fb78aa914f40a44	0.09195954095415809
203	0xbf9d85c99019a72a	-0.028830670757464073
204	0xbfb094004d21c571	-0.06475831873992434
205	0xbfb490e6d6d5c071	-0.08033602471346214
206	0xbf832ac69e9488a8	-0.009358932222827868
207	0x3f9026e242fa283e	0.01577333005710834
208	0x3fb36302becc9c99	0.07572953375039261
209	0xbfb668c70d0aacc0	-0.08753627842331735
210	0xbf9602a3f80f4064	-0.02149444772277355
211	0x3fadbb236c6c3452	0.05806837748068773
212	0x3fb89a1210428c9e	0.09610093018504748
213	0x3fc38231feba3ef0	0.1524107450281842
214	0xbfb55f60c459fd81	-0.08348660272348775
215	0x3f7e63fb22745c0a	0.007419568056568524
216	0xbfb29f6743a9df01	-0.07274480249349936
217	0x3f841e88dbb76bc0	0.009823865132536969
218	0x3fb1a90ce9dca116	0.0689857550575009
219	0xbfb14fca0bce63be	-0.06762373722302947
220	0xbfb41fc257fdd07a	-0.07860960624913274
221	0xbfa121c8a332c344	-0.033460874482790476
222	0x3f91bd70b532e0f0	0.01732421976041193
223	0xbfb731e1755c0970	-0.09060486903402931
224	0xbf910ce832df61ee	-0.016650798897758827
225	0xbfa7916282146564	-0.046031072977892135
226	0xbfb1910ea9d36691	-0.0686196484197359
227	0x3fa8d1cf4bb8d059	0.04847572135295825
228	0x3f9f00ec467c8450	0.030276958276889865
229	0xbfa989284ceb6e39	-0.04987455309830264
230	0xbfbce6743609c2a8	-0.11289144820490071
231	0x3fb7d78b8ec7b936	0.09313270793766013
232	0x3fb4bbf43cd4939f	0.08099295125118865
233	0x3fa724b5a83f3b95	0.04520194701000616
234	0x3fb27fa547c43ae6	0.07226021768677135
235	0x3fc38770f4283016	0.15257083818176004
236	0xbfa6703c92b2e1f6	-0.043825047404826664
237	0xbfa9d8e72eac81dc	-0.05048296398877358
238	0xbfa6b321c20d5c81	-0.044335417688381014
239	0x3fb38c07c8bce733	0.07635544443919855
240	0xbfab25bfa5d7d9c9	-0.053022374147917946
241	0xbf79cf0c90c97049	-0.006300973018905928
242	0xbfa2c8d6faaa27a1	-0.03668853578444887
243	0xbfaed54f301bb986	-0.06022117101916806
244	0xbfbd7cd57430afe8	-0.11518606268572251
245	0xbfba2f3d1d0906a2	-0.10228330572956648
246	0x3f90105df5043878	0.0156874352260776
247	0x3fb82934ef2cf024	0.09437876548048557
248	0x3fb9786216b19ba6	0.09949315122649569
249	0x3fb5c53b445d7c88	0.08504076403686345
250	0x3fb590c1b45ea6d0	0.08424006131704265
251	0x3fb64622607b485b	0.08700766425616406
252	0x3fa1d564df455763	0.034831192259544584
253	0x3f9a8dfcf34042b1	0.025932266566146726
254	0xbfc11f08dc311977	-0.13375960113098603
255	0xbfa868f3cff091aa	-0.047675723202959944

fc1.bias f8 [200]
0	0x3fc9e068d520decd	0.20216093451175823
1	0x3fdc14b883de702d	0.43876469495603737
2	0x3fab999bca38e33b	0.053906315265015846
3	0x3fd7bf812ef3abd5	0.37106351456776326
4	0x3fd396cca564687b	0.30607906486114417
5	0x3f9c8e52fd254e13	0.027886673641957026
6	0x3fc9376e8b3b4d1f	0.19700414465351287
7	0x3fd6824d976b71a0	0.35170306956367803
8	0x3fd69d8c241f951f	0.3533659317748334
9	0x3fdc542e37ee5407	0.44263797246941333
10	0x3fe09625a0233201	0.5183284881291571
11	0x3fd448087225bb01	0.316896544906669
12	0x3fd58c666742aca9	0.3366943367388538
13	0xbf950c746af83b95	-0.020555323628339634
14	0x3fdf4781fa9ac9b0	0.48873948548421264
15	0x3fe0987238bc92a3	0.5186091526162112
16	0x3fa630899b38a7fb	0.04333906192580624
17	0x3fe2302ea6d2c10d	0.56838162024181
18	0x3fdc662a4a034361	0.44373566844756424
19	0x3fc0b51998c451f6	0.13052673301048373
20	0xbfc1dc8807bd10dc	-0.1395425832544167
21	0x3fe3b79fec2dc49c	0.6161651242129156
22	0x3fe0abb2bf6bd434	0.5209592570014423
23	0x3fd868a6dbce1731	0.3813874384435279
24	0x3fdda922a0938b8c	0.46344819718631736
25	0x3fd7af14d637bc4d	0.37006112022112775
26	0x3fd2c01078c70710	0.2929726771800327
27	0x3fd960a6d6347b51	0.39652415197808916
28	0x3fd7edd288f5952c	0.37389052748615614
29	0x3fd738c9c9285d32	0.36284107822708045
30	0x3fd6f2fa562b3940	0.35858019270826347
31	0x3fcff190efaa186d	0.24955951406826973
32	0x3fe1dd70b250b634	0.5582812769623104
33	0x3fdcce0985683334	0.4500755121996918
34	0x3fde45fee1c2ae03	0.47302219435616183
35	0x3fdcab979659bda6	0.4479731529490557
36	0xbfc68cc3b326076f	-0.17617079017150725
37	0x3fdcf4f824219a1d	0.45245173958247326
38	0xbfbb9a974416d2d4	-0.10782761967022775
39	0x3fc56c072f0b7f09	0.16735925480951888
40	0x3fe073f942ffed02	0.5141569431865778
41	0x3fb4f669b1fff4b2	0.08188496204089082
42	0x3faed9da2ce2cb66	0.06025583074497014
43	0xbfcff2639a8261f6	-0.24958462757491845
44	0x3fd18b3f61581c12	0.2741239977480642
45	0x3fe16eb2aa8e051e	0.544762929072167
46	0xbfd234ec31130fc6	-0.2844801406138199
47	0x3fd3b411b398d479	0.3078655485035778
48	0x3fd35dc480a69395	0.3025981193880452
49	0xbfd063125e043e16	-0.25604685956293005
50	0x3fd523e920c5002e	0.33031681251668743
51	0x3fd2b7cef732b044	0.2924687780421247
52	0xbfcca5a140ee63bb	-0.22380462332219317
53	0x3fd864a4dbd2c824	0.3811428209984362
54	0x3fcdc02369e202fd	0.23242609663068228
55	0x3fdf0f9270e6758e	0.48532544160283286
56	0x3fd68ea82fae6c90	0.35245709091550115
57	0x3fd7382182ed2eca	0.36280095849791094
58	0x3fdb327225a92ffc	0.42495397260495316
59	0x3fbe8e9385fa34af	0.11936304112369343
60	0x3fb5d721d05b45aa	0.08531390511350048
61	0x3fdcb0b99cf0a3cc	0.44828644109889804
62	0xbfcf76cf02483394	-0.2458132516043433
63	0x3fcc71b787f5dc8a	0.222220364939606
64	0x3fe0a22b4f3bc19c	0.5197960422065537
65	0x3fd485921d688062	0.3206525122823277
66	0x3fc7dd5f12ae92f5	0.18644321834758384
67	0x3fdd89955fe0f802	0.4615224300686124
68	0x3fd190cdc417e531	0.27446312093487096
69	0x3fd14e6ce9bded60	0.27041170908315415
70	0x3fd67c2bec0b7a39	0.35132883120778363
71	0x3fd9492ef8cd635c	0.3950917653760848
72	0x3fd445e6ef22c6db	0.3167664847670559
73	0x3fd4565d74d7e129	0.31777130518414026
74	0x3fd0938a7e7a6f60	0.25900518752472657
75	0x3fd9d7d916c17b64	0.4037993166183951
76	0x3fd24f2cb6e020bd	0.28608243807731154
77	0x3fd7a0413d811d20	0.3691561794880318
78	0x3fe133c917a17411	0.5375714742218652
79	0x3fd1b5348b7a1366	0.27668489094531024
80	0x3fdd301e125b068f	0.45606185715232866
81	0x3fe2fafa1577c435	0.5931368274015144
82	0xbfbd1043e4a78f22	-0.11352943737398083
83	0x3fe05780cb644ea9	0.5106815311905467
84	0x3fd90a20673974c3	0.3912430770922805
85	0x3fe2864bdf8b4f9b	0.5788936010453541
86	0x3fd492f210c8067f	0.32146884573749185
87	0x3fe0ee35f510a61f	0.5290784632135831
88	0x3fddafedeb149096	0.46386287648261637
89	0x3fc62525eaa18d19	0.17300867039293946
90	0x3fcb6a777320e8c2	0.2141866027976161
91	0xbfc17989248babb1	-0.13652147564365927
92	0x3fd86d019ccea038	0.3816532164878512
93	0x3fc65f30c93a591c	0.17477998567182673
94	0x3fd4b3c87838e153	0.32347308865020813
95	0x3fa57a2d33a0986f	0.04194775824753171
96	0x3fd38bfe359dba33	0.305419494971747
97	0x3fd6a5426ebd3da5	0.3538366395414079
98	0x3fd394703746b10d	0.30593495748577554
99	0x3fd896ab84aebc74	0.3841961665847926
100	0x3fd8686455558ee1	0.38137157758158763
101	0x3fc03b12c4f3db6d	0.12680277458977277
102	0x3fd8992c3ace6357	0.38434892409127513
103	0x3fd149713f8bf810	0.2701075668882149
104	0x3fe3ca6c0d1397e7	0.6184597258950334
105	0x3fe11ededb69ef6e	0.5350183759141893
106	0x3fdeffa255634197	0.4843526681770753
107	0x3fc92d59875b8164	0.19669646367311622
108	0x3fdf9116c89fc7a5	0.4932305297107809
109	0x3fdd98cb1cad3433	0.46245076942870184
110	0x3fd76f265d3adbcb	0.3661590490768815
111	0x3fddd0cf919838e8	0.4658698007414288
112	0xbfc890782c922e44	-0.19190885711974393
113	0x3fd86664eece0bd2	0.3812496501997745
114	0x3fcf24dd5fc9aa7c	0.24331252267014125
115	0x3fd7f4d4aa95e3d2	0.3743182817339036
116	0x3fe324a88b425193	0.5982248992827855
117	0x3fd98e55c1ff8723	0.39931243844158554
118	0x3f9cfeb7dea0a6c7	0.028315422976595863
119	0x3fa1556c484fba3f	0.03385485060413317
120	0x3fdd93b2fc387416	0.4621398413744954
121	0x3fd5222cec15498b	0.33021090559955074
122	0x3fca6e9ad70ac748	0.20650039196112346
123	0x3fd38a32c4590e94	0.305309955354667
124	0x3fd2aafe6e3af532	0.2916866375415622
125	0x3fe2244a4b181451	0.5669299570732936
126	0x3fe2e60fb66a3a3e	0.5905836642066971
127	0x3fe0af5a0a0aa305	0.5214052387355826
128	0x3fbbbee97383bfea	0.10838183469945731
129	0x3fd0c90b57192850	0.26227077012720645
130	0x3fdb9de969826ce6	0.4315131693235358
131	0x3fc284195a497e87	0.14465634258793988
132	0x3fd9ff5c1b4361cd	0.40621092474387127
133	0x3f9c6beba98c1bd8	0.02775543424925417
134	0x3fa0de7d11ef4183	0.03294745296409742
135	0xbfd85d65c663cc67	-0.38070053457267367
136	0x3fd76459f93941f2	0.36549996698616305
137	0x3fcd4b0f731035d3	0.22885316007925258
138	0x3fdb399a2455a150	0.4253907542065649
139	0x3fe4564a352be6b7	0.6355334318643234
140	0x3fe65816b3e05792	0.6982530129632656
141	0x3fe20b1fb87e9cb8	0.5638578990373366
142	0x3fd61da5eb950fe6	0.34555957799989157
143	0x3fde7a51ee903b54	0.47621582314689204
144	0x3fe19197640a0a66	0.5490223840609587
145	0x3fdb3114dfe79362	0.4248706995552337
146	0x3fcfde4f0a5ab44f	0.2489718246992276
147	0x3fd7349c03dee750	0.362586025028226
148	0x3fd7d39ab9c13789	0.37229030742752706
149	0xbfd942dcc7f91e63	-0.39470595863938324
150	0x3fd3a916a2764e71	0.30719533791964354
151	0x3fe17f9a0337b0fb	0.5468263686030065
152	0x3fde81c00670acd1	0.47666931752128244
153	0x3fdd08e4c9bc638f	0.4536678285672275
154	0x3fdd71f3ae9856c9	0.46008007097530573
155	0x3fd242de68752927	0.28533134652083664
156	0x3fd179e053e2df48	0.27306373779309867
157	0xbfbcfaa25346f23b	-0.11319937260754724
158	0x3fdd8fdd419180ab	0.4619057789150342
159	0x3fd31057b668993c	0.2978724747976178
160	0x3fdfc79ed7a5ce73	0.4965588670668019
161	0x3fb3d59adcbe0d0f	0.0774781025811999
162	0x3fd0d888c2d7f00e	0.2632162001389141
163	0x3fd382421f06c687	0.30482533483436963
164	0x3fbd0e550e112236	0.11349994271689287
165	0x3fd4670b6bd796d1	0.3187893441339443
166	0x3fd6b4e6e77ba5b0	0.35479137998353405
167	0x3fdc526758159672	0.44252952196106954
168	0x3fdada8c7b2202a0	0.4195891573399795
169	0x3fe16fb2606bec6b	0.5448848613008413
170	0x3fe14b2003d00033	0.5404205393279028
171	0x3fd945db4dbc486d	0.39488871184688074
172	0x3fe314cc97c54ef7	0.5962889637252989
173	0xbfd924196396ee4f	-0.3928283188394958
174	0x3fd223ec13f44fcc	0.2834425158373477
175	0x3fb839a804a64552	0.09462976563942974
176	0x3fc48f90f0c33336	0.16063129192334608
177	0x3fcc300f00c895d8	0.22021663225420585
178	0xbfa8486d1ea92b85	-0.04742756842877952
179	0x3fd56c4b11b7661e	0.3347346947681177
180	0xbfc66b714d3b4661	-0.1751538874728338
181	0x3fd1077bbac0e21b	0.26608174550668345
182	0xbfd19dac263db4aa	-0.2752485631415974
183	0x3fcf266708d0d843	0.24335945063075046
184	0x3f73f930b823e253	0.004876318273311658
185	0x3fcf0e119d7d6c87	0.24261684598863928
186	0x3fd9b30d53c308e2	0.4015534704195841
187	0xbfd6be180450ad39	-0.3553524057521887
188	0x3fd88f14ebdca73d	0.383733015378869
189	0x3fd18d30d0530e74	0.2742425951403
190	0xbfd842b8fae605d4	-0.3790724229985163
191	0x3fdbbdd18ef114a8	0.43346060713913426
192	0x3fd2ba40a9c2e675	0.2926179559541205
193	0xbfbef1190a4baeab	-0.12086636067732097
194	0x3fb79b83d9895947	0.0922167211623207
195	0xbfc28a6e1c791ca8	-0.14484955206191796
196	0x3fd97222cce80065	0.39759130487801136
197	0x3fd67c51011a4699	0.3513376723068205
198	0x3fd1bfb469aaf70b	0.2773257285988257
199	0x3fe2db0f61416942	0.5892407321473814

fc2.weight f8 [100, 200]
0	0x3fa78c19229c4316	0.04599073932161539
1	0xbfab275daa1ab5ac	-0.05303471280545166
2	0xbfa7f3e32f057283	-0.04678258847227303
3	0x3f9783722315b9a4	0.022962363616380835
4	0xbfa48491eb3cea63	-0.04007392880017304
5	0xbf8f136b8d759059	-0.015173759703152866
6	0xbf875fea1696e652	-0.011413410963416446
7	0xbfac62fb53d0bff5	-0.055442670804381956
8	0xbfacca34b459c42e	-0.05623020841165559
9	0x3fb1f5fd3d009405	0.07015974749863581
10	0xbf9b5c0c4d0b9555	-0.02671832294699546
11	0xbfaf9197cc450eab	-0.06165766113784107
12	0xbf8ad86aa8099013	-0.013108094456761454
13	0x3f905365906feaa8	0.01594313329767752
14	0x3f9f76641fcacefc	0.030725063744013945
15	0xbfbcb012c7c308f7	-0.11206166626928736
16	0x3fb65de5e23d97a2	0.08737026952220942
17	0x3f81c7f235e6521f	0.008682148237121599
18	0x3fb2b3fe744a9ce7	0.07305898989817515
19	0x3fa7fbae1c4f542a	0.046842041927142766
20	0xbfb54218c91098df	-0.083039807403654
21	0x3fb73e91f878325d	0.09079849544668535
22	0xbfbbc943294854eb	-0.10853976972460415
23	0x3f96465574d6eda8	0.02175267720825294
24	0xbfb33b6293075d44	-0.07512489404267791
25	0x3fb232fbe9e8e491	0.0710904546803184
26	0xbfb31338921d59c5	-0.07451203887226317
27	0x3fbb059f2265e133	0.1055545290927327
28	0xbfc1b447d3392431	-0.13831422628052928
29	0xbf9afe8031d68197	-0.026361468355050013
30	0xbfa6e940d9e67c9d	-0.04474833164135215
31	0xbfb6660f553fa7f7	-0.08749481040254624
32	0xbf900f608664faf8	-0.01568365879324582
33	0x3f898cf21900cc27	0.012475863826784629
34	0xbf9db1b27ebde6c5	-0.028998173700051994
35	0x3f875d6421da46f4	0.0114085982161529
36	0xbfc45db5ca4c0ee0	-0.15910980584896262
37	0xbfb8e247366f2b70	-0.09720273093186704
38	0xbf7da415ebe8875f	-0.007236562376904703
39	0xbfaca0510bd8c3af	-0.055910618492254975
40	0x3fb1f12e85d19141	0.07008639113479821
41	0xbf8a800423ee84e1	-0.012939483973072931
42	0xbfb479a97e17cc7e	-0.07998141601983552
43	0xbf956a0f935a38dd	-0.020912402504614448
44	0xbfb48bf66cf7e4ea	-0.08026065979347022
45	0xbfaeded095efb42d	-0.060293691923881766
46	0xbfb9ea25e247c9c2	-0.10122906469749807
47	0xbfa5cc64a481333d	-0.042575020867479975
48	0x3f8f46103bdd0eff	0.015270354105843873
49	0x3f71f853946723b9	0.00438721321410978
50	0xbf9738d247d973d7	-0.022677693972912607
51	0x3fa9ecf1dc88c492	0.050635870142636055
52	0xbfc02947df57336c	-0.12625978856376763
53	0x3fb4f43340ec8aac	0.08185119948442815
54	0x3fc211ab072c0642	0.1411641869563472
55	0x3fa01e643e19737d	0.031481869297500055
56	0xbf9ff6ac54b5259f	-0.031214420957700658
57	0xbf63a3a83944d995	-0.002397373735358597
58	0xbfa40dd082dff4fb	-0.03916789624779856
59	0x3fad730829c40c06	0.057518248651852885
60	0xbfb51518dce2c57c	-0.08235316651077612
61	0xbfae93989d17945b	-0.05971981923702493
62	0xbfa1a18d5245088c	-0.034435669224437054
63	0xbfb16472f190c450	-0.0679389800796042
64	0x3f95294e90e8957d	0.02066538581325038
65	0x3fb9e2fbbe79e4f2	0.10111974144264815
66	0xbfb5fc29a919968f	-0.08587894800583683
67	0xbf9ea994632968f8	-0.029943769981721297
68	0xbf99e77a959fbfa0	-0.025297084219289112
69	0xbf963ebec599f0cc	-0.021723728953006824
70	0xbfbd32cbf3129ea6	-0.11405634579079535
71	0x3f865b5b4ad71631	0.010916436406556236
72	0x3fa06b3eb414024c	0.03206821392268874
73	0xbf32452c65230dc3	-0.00027878126014632356
74	0xbfb903dc026fdd71	-0.09771513995644
75	0xbf647e9a9d3d7270	-0.00250177572335835
76	0x3fa7faefc9214b36	0.04683636980248311
77	0x3fbae6ecabe6218f	0.10508612820388506
78	0x3fbb8b20c996cdc1	0.10759167596443488
79	0xbf8339cf8408c364	-0.009387608734955762
80	0xbf9a54b1864340ce	-0.025713704890961968
81	0xbfb450722e8a6cac	-0.07935250889061035
82	0xbfbc7e4b4b5a9e83	-0.1113020953149491
83	0xbfa10d09bd848e2c	-0.03330259741258276
84	0xbfab706f562cf0ec	-0.05359218527743956
85	0xbfadc017b2794367	-0.05810617498048636
86	0xbfb2f8051b874599	-0.0740969841201803
87	0xbfa55fde0c4db24d	-0.04174703502835495
88	0x3f82ec99f62ee582	0.009240343881048888
89	0x3f985d3da9c2c372	0.023793185697914727
90	0x3fbd1f8ec0a23855	0.11376278117151746
91	0x3f8b5a9d7f7a5cb4	0.013356428578204273
92	0x3fb4f0af2b1968ba	0.0817975502226628
93	0xbfb35cf4cbeed1a5	-0.0756371496089004
94	0x3f7acd920e6595ab	0.006543703586748088
95	0xbfc15b6d428eed79	-0.13560262441556484
96	0xbf903a4c7845e808	-0.01584739193047116
97	0x3fae2e819b2cd1f6	0.058948564712782245
98	0xbfaab5bd15f0c812	-0.05216780560330404
99	0x3f8b41a6a94a8e24	0.013308813134535198
100	0x3f30459c9b01f856	0.0002482898080485898
101	0x3fad387e5a6b9f15	0.05707163671269037
102	0xbfc10c2fffd05720	-0.133184432896706
103	0xbf533bf0420296d7	-0.0011739584224782962
104	0x3f70715919ca9664	0.004014347123904114
105	0x3fb6bf347b9e7341	0.08885505693474462
106	0xbfaad772ff388e11	-0.052424997000596225
107	0x3fa6903bb32a2941	0.04406916200703615
108	0xbfb7f72c6c3caf8d	-0.0936153187037105
109	0xbfb6a329d63fac96	-0.08842717629129235
110	0x3fa89e8b24eebd6d	0.04808459115826733
111	0xbfa6c1a40c2ef92c	-0.04444611214374769
112	0x3f8abf636273bf34	0.013060356561680565
113	0x3f6ca2573f6be2fd	0.0034953788812085427
114	0xbfbad3107b7c5bce	-0.10478308691777657
115	0x3fa41067d6e9bfed	0.039187664970881865
116	0x3fb7055d19d3c036	0.08992559319062896
117	0xbfb5f9bdfb9e3034	-0.08584201233878802
118	0x3fb25fce6ab35ef6	0.07177438836094638
119	0xbf80ac836c4b2159	-0.008141543142656959
120	0x3fbea4bdce76f983	0.11970125475543196
121	0xbf9d75543945dceb	-0.02876788711134008
122	0x3fab39ab7f6d9a36	0.05317436151999681
123	0xbfa40989fefaa49e	-0.039135277152419365
124	0xbfb77a08b71108fd	-0.09170584172628433
125	0xbfb99ea2d5ae65af	-0.10007684437586904
126	0xbf76b655601ae1da	-0.005544980523773247
127	0xbfb1dff6e2ff827e	-0.06982367555566246
128	0xbfb4b6dc55cd0a44	-0.08091523260831318
129	0x3fac3414eb82b0d9	0.05508485197910468
130	0x3f8879fa69ff66b6	0.011951404914657498
131	0x3f7e298d7598b5c1	0.007363846374159378
132	0x3fa35697e96c3410	0.03777003025434322
133	0x3fa32d40d40d36ea	0.03745462978859655
134	0xbf77a37dbda2e2c3	-0.00577115170943249
135	0x3fb315385bd53661	0.07454254381192406
136	0xbfa1a2c8024d6c5a	-0.0344450476465787
137	0xbf9a7e61e42c53cd	-0.025872735549530113
138	0xbfa276cb3406648e	-0.03606257448263604
139	0xbfb4b40c3eca9886	-0.08087231190674701
140	0x3fa2ada60b0f9599	0.0364810837270781
141	0x3f6f834b585ad765	0.003846785696476939
142	0x3fae50f59cea89ec	0.05921142139893107
143	0xbf806cdbe036a594	-0.00802013185496512
144	0x3fb6ab227ddefdbe	0.08854880879424962
145	0x3f9fd31babba7ff9	0.03107875095031429
146	0xbfa4324f1c95755e	-0.03944632743762598
147	0x3fb4964c0fad5a2e	0.08041835196250055
148	0xbfa2e405047b5200	-0.03689590148647781
149	0xbfb3a386d227ccb7	-0.07671396857022016
150	0x3fb0d4976c075709	0.06574388873499627
151	0xbfbf97d845737f53	-0.12341071792206763
152	0xbfb2e3b5ef6265fc	-0.07378708929390848
153	0x3fa3e57cc1e5043a	0.03886022440793409
154	0x3fc0559a3602781c	0.12761237752141674
155	0xbf7201db30440505	-0.004396301465250167
156	0xbfad121bee0858f4	-0.056778786474909554
157	0xbfabdc18b27ed24c	-0.05441357783221132
158	0xbfabc3aae2b15fb8	-0.0542271997189227
159	0x3fbcc3f123b41220	0.11236483689942434
160	0x3f89cf292cef58e2	0.012602159198575828
161	0xbfba930ffba6e65d	-0.10380649465414522
162	0xbf95b18961fe02e9	-0.02118506107899779
163	0x3fb8374537c0941a	0.09459335909976155
164	0xbf803c30231022f4	-0.00792729956630598
165	0x3fa4950bc9d44966	0.04019963110671902
166	0xbfafec3d67899fdf	-0.06234924210440317
167	0xbfb14a0fa17a3909	-0.06753633205719124
168	0xbfb209c58a87b2d7	-0.07046160347062923
169	0x3f869c34485590e6	0.011040123422113312
170	0x3fb36bbd27202958	0.07586271481719586
171	0xbfb749d2218f0ed2	-0.09097016639048697
172	0xbfa0c3a18bda669d	-0.0327425463885451
173	0xbfb99fec2efb862d	-0.10009647509607396
174	0x3fc0350caf8723b1	0.12661894388864206
175	0xbf9a7cb989c7e5ed	-0.025866412195659483
176	0x3f6ecae139e68fa2	0.003758849997398132
177	0x3fb6291647c65eb4	0.08656443836513966
178	0xbfbcdad3e721998b	-0.11271404641011011
179	0xbf91531c32463f01	-0.016918602531915464
180	0x3f9e98c9a8b5dc12	0.029879713938012094
181	0x3fbf1200469066d1	0.12136842463260257
182	0xbfa85b37acf3f231	-0.04757093416444425
183	0xbfa7b23243fb6827	-0.046281405256835044
184	0xbfbbcb322022e82f	-0.10856927189425457
185	0x3fa57b233c6a6e7d	0.041955090641946115
186	0xbf8787e3a46c10d4	-0.011489656882539036
187	0xbfa57a38bb31a749	-0.04194810185511117
188	0x3fa3230384f28c7e	0.03737650869268182
189	0x3f9c7909c735950d	0.02780547407509908
190	0x3fa4b8e215bce2f4	0.04047304644922703
191	0x3fa7556cd4d815b0	0.0455736169642863
192	0x3fa5ed2e589140fb	0.0428251727213382
193	0x3fb3913992c446df	0.07643470605060142
194	0x3fb289806016e239	0.07241060586864813
195	0xbfb83600eae39571	-0.09457402929873183
196	0xbf960abe88b601e9	-0.02152536115090867
197	0xbfa140123155fe90	-0.03369194843525947
198	0xbfbb01d8fd0c8f03	-0.10549694230990884
199	0xbfa3fb7638c29ed1	-0.03902787630914662
200	0x3f936e6ee99c1189	0.018975956924820934
201	0x3fa9a009ea5b15d7	0.0500491236285076
202	0xbf91ebdb97d8c196	-0.01750128855036478
203	0xbf988f0801083083	-0.023983120978343663
204	0xbf8ffaf3ca9f1ce4	-0.015615372296350967
205	0xbfac794734765530	-0.05561277881057902
206	0xbf8a0742fe3b9b86	-0.01270916307789861
207	0x3f9c8e31079e3d1c	0.02788616761205019
208	0x3fb705f8ead5fe4d	0.08993488057421324
209	0x3fb8769cb48ffcc8	0.09555987747443162
210	0x3f73ee2d5af6b331	0.004865815324063758
211	0x3fbb05896e087501	0.10555323540070917
212	0xbf90ebc5e334e246	-0.016524402611340493
213	0x3f962f45a272b05e	0.021664703407325063
214	0x3fbc630d41eb3ba0	0.1108864103255045
215	0x3fb2a6d4c524ee95	0.0728581410702936
216	0x3f93164c290e3d91	0.018639745717846493
217	0x3fa1d9055866715b	0.0348588629160271
218	0xbfb5434de1ad89fe	-0.08305823096956286
219	0x3fbb0bf3e24cb222	0.10565113329784784
220	0xbfa2cf764b4979a3	-0.03673906010657226
221	0x3fb94f58abd431bd	0.09886697955170738
222	0x3f7a98033c235745	0.0064926267970884565
223	0xbf9d0ae8f810217e	-0.028361930981220855
224	0xbf95df725e08bd90	-0.021360194196117954
225	0x3fad9ec7b9931016	0.057852021601803624
226	0xbf739b68c17de2cc	-0.004786881639909434
227	0xbf8540c26a2bd822	-0.010377425065126348
228	0xbfbc38ca949e5028	-0.11024156692866482
229	0x3fb91d1a5c7160bb	0.09810032612711243
230	0x3f9607531965ea24	0.021512316155602687
231	0xbf99ae009aa00876	-0.025077828824585834
232	0xbfa75fde34d51b3f	-0.04565328974654514
233	0xbf6435c855314d56	-0.002467051768272259
234	0xbfa048bdf05ec7f8	-0.03180497702795998
235	0x3fa1fe42c7d80cbd	0.03514298142911219
236	0xbf89978efb3186a9	-0.012496106186691351
237	0x3fb14fb5a4bd8fc8	0.06762252113327272
238	0xbfa612ff5722e82a	-0.04311368883777818
239	0x3f833970407c4449	0.00938689896386981
240	0x3fb772128ebaccd7	0.09158435806857611
241	0xbfa8bfb8230a2c69	-0.04833770206195071
242	0x3f7c56ce2f66f893	0.00691872159080566
243	0xbfa14a14448dc978	-0.033768304222479395
244	0xbf9b9bdc82291752	-0.026961751407973474
245	0x3fb602ead04f5d23	0.08598201356595729
246	0x3fb4286396ea5bc0	0.07874128756007703
247	0xbf8905fd312aab1e	-0.012218454420993615
248	0xbfa5d64872f13aee	-0.042650474577944894
249	0xbf8382d39a65a3f4	-0.009526875638316647
250	0xbf93dae08430f355	-0.01938963705855497
251	0xbfa12b0e623e0312	-0.033531617634258506
252	0xbfc016eb9ed599c3	-0.12569947486481511
253	0x3fb883c74ecb6c65	0.09576078103730053
254	0xbfa862363b071599	-0.04762429686119702
255	0xbf80d614807b9b5b	-0.008220825358376585

fc2.bias f8 [100]
0	0x3fdbaf04f3981cb8	0.43255733288283293
1	0xbfc2354666de7029	-0.14225082419295745
2	0xbf9fdda27ac07e90	-0.031118906728919316
3	0x3fe60a5bef77bbef	0.6887645413497675
4	0x3fe9815dd31d2a7c	0.7970418093985496
5	0x3fe8aa8a12126025	0.7708177903141445
6	0x3fdc885d3b6e70d9	0.4458230095276697
7	0x3fd6939be0c5ffa5	0.3527593321850822
8	0x3fe81620dc766b4e	0.7527012163076081
9	0x3fd0e6822589331d	0.2640691153108479
10	0xbfd243cb15c394fb	-0.2853877747096047
11	0x3fe5eb4fbd69389b	0.6849745463785156
12	0x3fe730358804be6a	0.7246349007236408
13	0x3fddf2ff3d366c59	0.4679563615588385
14	0x3fe6d0963fe99d19	0.712962269620138
15	0xbfbe8247ff5c7d5b	-0.11917543396383705
16	0xbf9e87bd0f505a46	-0.02981467634171
17	0xbf9cf5ffee61eff6	-0.028282164501874228
18	0x3fe749a6897f5c97	0.7277405438898253
19	0xbfe27200ebddb04c	-0.5764164549596074
20	0x3fe63d806f3934a5	0.6950075313885874
21	0x3fe7f892dbe9387f	0.7490934653412892
22	0x3fe0dbdfc97e82c7	0.5268401084359419
23	0x3fc9c548eb880fb6	0.20133315563736937
24	0x3fe57041082f05c6	0.6699528846585785
25	0x3fdb9d113565a434	0.4314616223769605
26	0x3fc25f7c5ab66701	0.1435389941150831
27	0xbfd9e079ca5daaed	-0.4043259121159924
28	0x3fe37818101b365f	0.6084099115921154
29	0x3fe924408b3d63bd	0.7856753081824689
30	0x3fe3e1c3890aac58	0.6213090588183929
31	0x3fe6eba582f4a2a7	0.7162654454924294
32	0x3fe7e6a92eaea7a7	0.7469068443071948
33	0xbfc914b41943f00a	-0.1959443209997292
34	0xbfc89c1dff048c10	-0.1922643180087964
35	0x3f8869d7a25eb944	0.011920628206863022
36	0x3fc0f9e8677a612e	0.13262658169402058
37	0x3fd0636335b50210	0.256066133926681
38	0x3fbf778139c72711	0.12291724835008845
39	0xbfe366967b52dee4	-0.6062729271570473
40	0x3fd4596e4926db0d	0.3179584230778552
41	0x3fe4625ce535544b	0.6370071865773154
42	0xbfc48924f06184ca	-0.16043531167364328
43	0xbfb05a1d4ed3a240	-0.0638750379035935
44	0x3fc162fa7ffd345b	0.1358330845781975
45	0x3fe7cb0b834d1c81	0.7435357632138136
46	0x3fe27ac89169f773	0.5774882164111957
47	0x3fe20c9008c029e6	0.5640335246001171
48	0x3fe5e1c5db803af8	0.6838101660849523
49	0x3fe8ae8eeaa2e5eb	0.7713083822956696
50	0x3fe5836b2ee316af	0.6722923198473917
51	0x3f7a7f178a7ff390	0.006468860585297956
52	0x3fe661469e651b5d	0.6993744939471572
53	0xbfdf1c94f65c6e4f	-0.486119499766322
54	0x3fe456d7ca7274ff	0.6356009439511182
55	0x3fe6939737f6cc71	0.705516442589568
56	0x3fc496baa1594a46	0.1608498847804915
57	0xbfd6b5774a10fe68	-0.3548258040718566
58	0x3fb663ba17ec8a64	0.08745921215135294
59	0x3fe2ce164f12e9f9	0.5876571220790644
60	0xbfe3ba863720880a	-0.6165190769863795
61	0x3fe6d51232f7d753	0.7135096545668865
62	0x3fe7db0f4560d758	0.7454906802220007
63	0x3fe3eb303cc363a6	0.6224595248014466
64	0xbfe423154806d82d	-0.6292826086780728
65	0x3fe55c47613b0fae	0.667514505294539
66	0x3f83d290318a49c1	0.009678961288305811
67	0x3fe5c33402706f1d	0.6800785110130821
68	0x3fe01f0ae880abbf	0.5037893811289605
69	0x3fe4af799f84ada0	0.6464202991095824
70	0x3fd869f29167b04d	0.3814665241213831
71	0x3fc501d06242d678	0.1641178588667349
72	0x3fe94d7c15c45bbf	0.7907085824143606
73	0x3fe7f914e0339350	0.7491554621634382
74	0x3fe91343bb23e5f5	0.7836016326029368
75	0x3fe844de2ddcb9d0	0.7584067245241446
76	0x3fc2c33cc99bbc83	0.1465831741729496
77	0xbfbcc6c1e7f92531	-0.11240779794129165
78	0x3fe564623722f12b	0.6685038639912241
79	0x3fe4bcf5789aa39d	0.6480662684963253
80	0x3fda206021698917	0.40822604430117465
81	0x3f96ceb985ca69f0	0.022272967139182087
82	0x3fe741cd78e6c310	0.7267825471263638
83	0x3fe6ae3db844df30	0.7087696646694663
84	0x3fe80b9d04a26069	0.7514176455033638
85	0x3fc3f68091088c52	0.1559601505442481
86	0x3fe417683f6bc78f	0.6278573263827968
87	0x3fc0affc8a4a3f3a	0.1303706813091539
88	0x3fe35ae48ef2d029	0.6048453132593795
89	0x3fe7b5b939f16578	0.7409330493639308
90	0x3fe70351b344e6d4	0.7191551686621218
91	0xbf515e65fbee583b	-0.0010601039827853448
92	0xbfb9544501eac1b6	-0.0989421014480801
93	0x3fe21176991d9192	0.5646317472970159
94	0xbfd95c50639da7fd	-0.39625940063581294
95	0x3fc62d687d5a9a31	0.17326074715420384
96	0x3fe57f8e4b451abb	0.6718207807651518
97	0x3fdd5da1b6fdd0fa	0.4588398253465723
98	0x3fe9166afca13b9b	0.7839865621734704
99	0x3fe3dca57b93dc5e	0.6206843770622859

fc3.weight f8 [50, 100]
0	0x3fad24ff7cfe23ff	0.05692289734640354
1	0xbfc48859915b21f6	-0.16041106793842602
2	0x3fa2fdb1e4c802fa	0.037091788461117006
3	0x3fa1311857f295cb	0.0335776908262165
4	0x3fbd6da6760fcdff	0.11495437986723543
5	0x3fc2831e721e9f01	0.14462643215414775
6	0x3fae76daaa25eb1d	0.059500535268816025
7	0x3fb18e4832142b32	0.06857730124117437
8	0x3fb63ebe49811c3b	0.08689488691844442
9	0x3fa01568555eff2c	0.03141332666518645
10	0x3fa20a9d750eefd5	0.03523723653731251
11	0xbf69fa36876df89b	-0.0031710686702686847
12	0x3fb6b18af05f7ca9	0.08864658707124086
13	0xbf922a88ae91770b	-0.017740379004286527
14	0x3fa6cd5d4e2cc6bb	0.04453555659564531
15	0xbfb3920ab7032109	-0.07644717186042639
16	0xbfa6f09c481227ca	-0.044804462239951784
17	0xbfc2adf372df06a8	-0.14593356236405453
18	0x3fb4d86cf5c64592	0.08142739296297055
19	0xbfc3b619c1864b5d	-0.1539947695678973
20	0x3fa53562e73d6060	0.04142293045760037
21	0x3fb288512ed3e14e	0.07239253419164024
22	0x3fb09fd793f74140	0.06493899691054583
23	0xbfc47b88fcb4ea8b	-0.16001999224848293
24	0x3fc1f4b1ccbbdc14	0.14027998444336787
25	0xbf87c65b12c93c41	-0.011608802328877956
26	0x3faa2d3f6da967cd	0.05112646306652344
27	0x3f5c02bf7e31e7eb	0.0017096395538644903
28	0xbfa691fb857e7ab5	-0.0440825081307045
29	0x3fbe4df61fc63176	0.11837709689843287
30	0x3fb8b2a9eb016c5d	0.09647619235458778
31	0x3fbfe4876404e492	0.12458082382080907
32	0x3fc428c72acec770	0.15749444570752358
33	0x3f7b7ee8ef28d78b	0.006712827586445767
34	0xbf9817a85c5f574e	-0.023527746808972787
35	0x3f91bc6bca1f18ce	0.01732033177520336
36	0x3fb83f50bfd18771	0.09471611674373805
37	0x3fa9cc595836f88a	0.05038718416061368
38	0x3f7251cd09a1e966	0.004472542694310943
39	0xbfcd1e0ae39fc025	-0.2274793254323423
40	0x3fa1b6bd4fd0d7af	0.03459731673539978
41	0x3fb43cd91029e9b7	0.07905346531507616
42	0xbf8dfd7eb09b674c	-0.014643659367198268
43	0x3fa2274a5adb2cb8	0.03545601233562351
44	0x3f8c54cee6ecec38	0.013833633825575217
45	0x3fb16d27336acfd5	0.06807179456046637
46	0x3f797bc2b641f8d0	0.006221542924434512
47	0x3fb51ff8e2ba54c9	0.0825191072020345
48	0xbf9b3518c41890dc	-0.026569735497233946
49	0x3fc3d1a53f016aa0	0.15483537270013858
50	0x3fac0404de1ecdd5	0.05471816264562405
51	0x3f9ab9af68c3c7e6	0.026098957795461696
52	0x3fc0dfe5ce64bb81	0.13183281495863855
53	0x3f969b919359c798	0.02207782232148467
54	0x3fbf0c2510d8d1a6	0.12127906476309266
55	0x3fb8bff113af8ec5	0.09667879801377939
56	0x3fbcbd4b11c293fb	0.1122633856162593
57	0x3fb0df37df6aa0d1	0.06590604023461145
58	0xbfa9d342cb4cfa27	-0.05043991786668683
59	0x3fb0f74a7daf74d7	0.06627336090555801
60	0xbfc1d994f3688130	-0.13945257077376416
61	0x3fa989b589fc71a5	0.04987876233483072
62	0x3fc3409578b416eb	0.15040844339107848
63	0x3fb56d3cc8c82088	0.08369808103464227
64	0xbfcdc63bab2748db	-0.23261209351637188
65	0x3fc18f0084f072c6	0.1371765755765379
66	0x3fa165c6eb513b6f	0.033979622102029754
67	0x3fb9fde6253cacec	0.10153044137102868
68	0x3fa6f30b3fc7ba9c	0.0448230281216315
69	0x3fc2d82e00af1ff7	0.1472222808208696
70	0x3f65de5270cb8bc8	0.0026694879692157093
71	0xbfaaee683edb47e3	-0.05260015265743314
72	0x3fc407cbea58e0c1	0.15648793165906308
73	0x3fc13f26e94b6a00	0.13473974601113525
74	0x3fc511e0d5601591	0.1646081010696148
75	0x3f8888b2012c654e	0.011979475651559792
76	0xbfb55f33e9af3aa3	-0.08348392920673091
77	0x3f9cffaca4e3225c	0.028319070400160448
78	0x3f9cea42f711e176	0.02823738701815289
79	0x3fbd98061c8db912	0.11560095021352293
80	0x3fba2bbb440a3f44	0.10222978984006398
81	0xbfb856d24533d9a7	-0.09507478894724973
82	0x3faaf7afd64e5e65	0.05267095080415344
83	0x3fbf983c8d12fe42	0.12341669506258149
84	0x3fb9725db6a9466a	0.09940133771422102
85	0xbf657aee0fc95ca1	-0.00262209412020871
86	0x3fbd5c06b8b8b245	0.11468545923043745
87	0xbf9275561a24cfa7	-0.018025727601709864
88	0x3fa09b6200e56205	0.032435476884249005
89	0xbf988804a05b2283	-0.02395636776671718
90	0x3fb9bff663175350	0.10058536452500033
91	0x3f9e8f635bfd15a4	0.02984385727838447
92	0x3fb3daef8f5cc8ce	0.07755944490489527
93	0xbfa7a11dcf84e2bf	-0.046151095945281544
94	0xbfc174545b891fa7	-0.13636259526742586
95	0xbfb6607dcb623048	-0.0874098416845196
96	0x3f7df9366cc86c6c	0.007317745778460876
97	0x3fc0278fa95f6422	0.1262073113455538
98	0x3fb9b7676a94a42e	0.10045477249208609
99	0x3fa3f00486f0eee0	0.03894056460600637
100	0x3f90f7ac3902f507	0.016569796542843764
101	0xbfb7bd602b307a84	-0.09273339323451962
102	0x3faab14a4ee55d60	0.05213386738858605
103	0xbfb74a9e78bdb0df	-0.09098234603669962
104	0xbfb9be52a95aaa5c	-0.10056034693358512
105	0xbfa24a7ce634a165	-0.03572454748274615
106	0x3faa0a3f4e9363df	0.050859430639043295
107	0xbf950c40597b9965	-0.02055454775008893
108	0x3f8dd7c6c5ddc34a	0.014571717179678995
109	0xbfa07b0161073e1d	-0.03218845662524592
110	0x3f826fbae9b47bdc	0.009002170807944347
111	0x3fa9b288250fb4ea	0.05019021465691671
112	0xbfb0f6f2ca5c0627	-0.06626813354889603
113	0xbf932d486c673f07	-0.01872742807046193
114	0xbf7ee94450d68e07	-0.007546679361812198
115	0xbf92d81ec7847f57	-0.018402558257661763
116	0x3fb3ce7641d2ada1	0.07736910922056107
117	0xbfb2e706901fb9e9	-0.07383767145777366
118	0x3f8c3332fdaa325b	0.013769529691921514
119	0x3fa9e159f61071c4	0.05054741982187097
120	0x3fb3b67e1e92e184	0.07700336691312343
121	0xbfc1aab64f3af7dc	-0.13802222126645247
122	0xbf8d9650cd4326e3	-0.01444686056528916
123	0xbfba387bd3ff2ea1	-0.10242437291815999
124	0xbfc0bb5a099a3c1e	-0.13071752041693768
125	0x3fab1f2511b16f52	0.05297199097614559
126	0xbfa18e1e0fd0f845	-0.03428739493436742
127	0x3fa7b8a5e3e08723	0.04633062750532548
128	0x3f93ff02c33e9958	0.019527476469784005
129	0x3f75f7fe472d1a99	0.005363457940637994
130	0xbf9314758627573e	-0.018632732689943803
131	0xbfb86f12fb432c27	-0.09544485697112802
132	0xbfbca531cd8c395b	-0.11189566868072147
133	0x3fbd6a83cbb8dd8e	0.11490653728184538
134	0xbf75670953d2388b	-0.005225216326961167
135	0x3face37d323f250c	0.056423103698373195
136	0x3f7f3264f34a1dca	0.007616419160178587
137	0xbfa281d1d469df0b	-0.03614669530810318
138	0x3f9a52df52e73dc2	0.025706757960333844
139	0x3fb9a07f6cebd937	0.10010525140009895
140	0x3f913414fb6c22f5	0.01680023941574667
141	0x3f7483409a77920c	0.005007984501820061
142	0xbfb9470a37fabbcc	-0.09874023310361152
143	0xbfba422a224e520e	-0.10257209146067955
144	0xbfa89c1b0dac96c1	-0.04806599180146299
145	0xbfc0a8a42ccb9d19	-0.13014652430795406
146	0xbfaed1b62e62a082	-0.060193722879660974
147	0xbfb5cb747853b7e6	-0.08513572633430008
148	0xbfb53dd6c678b207	-0.08297483773703372
149	0xbfa32dad3faddbf4	-0.0374578609689066
150	0xbfab99338db3ea22	-0.05390320877809908
151	0xbfa22faf66491232	-0.0355200588569783
152	0xbfc08cf3ce7ac546	-0.12930152494440444
153	0x3f8280a64d9e6b71	0.009034442180384268
154	0xbfbd808185b537ab	-0.11524209513046794
155	0x3faca7d294bf358d	0.055967884690839666
156	0x3fa00b3d5de7aa5f	0.03133575221348361
157	0xbfb9080eb3619b16	-0.09777919654298403
158	0x3fae03ef9d655255	0.05862377926192567
159	0x3fa478985e26020c	0.03998256825707722
160	0x3fbc34e1336bbaee	0.11018188004866733
161	0x3fb6d17759144a3e	0.08913370060717171
162	0xbfb7769937f998f8	-0.09165341965271867
163	0xbfbfdf35f823f147	-0.12449967678179973
164	0x3f993603f3036095	0.024620115001056837
165	0x3f9a63e01bba3929	0.025771619503353414
166	0x3fafe21892f7197e	0.06227185052880467
167	0xbfb709b320854b92	-0.08999175590478917
168	0xbfa2dbb8185175ad	-0.03683257386067438
169	0xbf93aeed5a8960de	-0.019221981669347403
170	0x3fa1f8f8c11def89	0.035102628301472434
171	0xbf76a1197c262e06	-0.005524730253806625
172	0xbfa1d6f23b0acbd7	-0.034843034465118876
173	0xbf8c94fb4ff4c7f9	-0.013956035020417078
174	0x3fa818613c57b532	0.0470610033188258
175	0x3faaa41afdae247f	0.05203327509577437
176	0x3f80bf366640c89a	0.00817720889617517
177	0xbfa0094c68623b0a	-0.0313209416791463
178	0xbfb2380c98fbe173	-0.07116774306257927
179	0x3fb1c1a71eb1c60d	0.06936115741134348
180	0xbfc1cd26ac457894	-0.13907321368873637
181	0xbf58f93152d8985d	-0.0015242559123947099
182	0xbfbf9410a648eb5e	-0.12335304317177306
183	0x3fabf930a83cc96a	0.05463554433517255
184	0x3fb3586d2a41316c	0.07556803018196029
185	0x3f89671ef98bb621	0.01240371893933473
186	0x3f8ab2370c43fab7	0.01303523069554778
187	0xbfaf2e73e9040451	-0.06090128154210873
188	0xbfbc0617000e7eba	-0.10946792365438798
189	0x3fb1b467efe831ab	0.06915902716736493
190	0xbfb13854d7d8ef67	-0.0672657992335509
191	0xbfa94afcbdeeb8ce	-0.04940023249160817
192	0x3f9f9a10568cc273	0.03086114433534921
193	0x3fa2ea7517765392	0.0369450179233929
194	0xbf722f286544a855	-0.0044395044281292
195	0x3faf41844a69fedc	0.061046728214021434
196	0xbf558bf91ff02798	-0.0013151104792563425
197	0x3fb53bb431d5b2a4	0.08294225899380564
198	0xbfbec6411231bf06	-0.12021261877248088
199	0x3fb7fca4f0ae0efe	0.09369879604315298
200	0xbf7be94d3ebca252	-0.006814290751016987
201	0xbf8aba2c23dc7355	-0.013050408214945778
202	0xbf8f68e37745f090	-0.015336777760915049
203	0x3fb46a3258328d9f	0.07974543240793829
204	0xbf9cd2ef073f130b	-0.02814839822510166
205	0x3f72d4a81f75aaa5	0.004597336511646209
206	0xbf7aa22a84b9da92	-0.006502309882867723
207	0xbfb7243fd0039f3d	-0.09039686993093894
208	0x3fa5231a4b1ba811	0.04128343741270169
209	0xbfb1a0c9277cc231	-0.0688596459774622
210	0x3f6121331691c2f6	0.0020910260978371743
211	0xbfb1d252dac4f4a0	-0.06961553422020694
212	0x3fb1c2c0fe997c4a	0.06937795844849962
213	0xbf9b14e1e1770288	-0.026446847330364537
214	0xbfab39593799afca	-0.053171909367705064
215	0x3fa29a72a4c6e150	0.03633459340511769
216	0xbfa727c7aac6827f	-0.045225371929750395
217	0x3fab4aad16f7bd78	0.05330410867088181
218	0xbfa4cd92cf8a4619	-0.040630901178826125
219	0xbfb5e3153403da0a	-0.08549625892542437
220	0x3fa28e4384d8d0c6	0.03624163624445624
221	0x3f896c25c28f66e3	0.012413306236271853
222	0x3fa194e5f34341f6	0.03433912844196023
223	0xbf9ec497bfb7f408	-0.03004681689889213
224	0xbfa1da20a6677d2e	-0.03486730605413367
225	0xbfb310748e8c1900	-0.07446983795316342
226	0xbf9989856a9585f9	-0.024938664083839133
227	0xbfa112c5c0d9f1a0	-0.033346347609924054
228	0xbfb5d2f75a72f062	-0.08525033910967886
229	0xbfa84e35cc48fef8	-0.047471696078444425
230	0x3fa72c88f726428d	0.045261650247202835
231	0x3fb37b97e595bf2e	0.0761046348104599
232	0x3fa41a2bd7a82231	0.039262170863427655
233	0x3fb72cb0b2fe910c	0.090525668811612
234	0x3fb2bdc66a4940a1	0.07320823759914898
235	0xbfb3983940db2893	-0.07654149850273688
236	0xbfabc01a34db7eac	-0.0541999997637935
237	0x3f612c497f19975c	0.0020963130453307954
238	0x3f91d3b10685062b	0.01740910150807033
239	0xbfb6c375f98dae71	-0.08891999571431498
240	0x3fb5bbc3c1119e35	0.0848963114127564
241	0xbfa8eaf2e0204618	-0.04866751657403884
242	0x3fad78a7dde302d6	0.057561155162607555
243	0xbf8d46f21e0511ba	-0.01429547456849255
244	0xbf938188d309ad43	-0.01904882228920469
245	0xbf9567749e4c9df1	-0.020902464067288965
246	0xbfaa940f4cd92230	-0.05191085637176618
247	0x3f9aadb9679a9454	0.02605333037231035
248	0xbf7933a5df7da2fb	-0.006152770940254677
249	0x3fa07a2706f2eb89	0.032181949232344804
250	0xbfb8d68fd2d8752d	-0.0970239534148802
251	0x3f91fed7c62a692c	0.017573710889885394
252	0x3fa11e24873fb454	0.033433095464581314
253	0x3f98aebb2eb27ce0	0.024104046559497827
254	0x3fb7f22e2b8fd004	0.09353912890929911
255	0x3fb0e979566317f5	0.06606253012714076

fc3.bias f8 [50]
0	0x3fe6f6e9e5d503f1	0.7176408280284915
1	0xbf8d5e630f538dd3	-0.014340185075019917
2	0x3fb09d28fc350cb2	0.06489807279017404
3	0x3fe2a3a1b5e604a3	0.5824745705323447
4	0x3fe50b170191ce0e	0.6576037436156541
5	0xbfaff56e4e505fc9	-0.062419364032563936
6	0xbf95c38dc05fa879	-0.021253790728146236
7	0x3fe7940a69f8e344	0.7368213720102195
8	0x3fe5018a169b0df6	0.6564379159466955
9	0x3fe4be7e66bffcad	0.6482536322436282
10	0x3fea0d5472e50e44	0.8141271823919358
11	0xbf9ce7584598fb3e	-0.028226260421656983
12	0xbfb263842bc075f8	-0.07183099811705762
13	0x3f9779e028d62b12	0.022925856106250704
14	0x3fe3a1651c1401f1	0.613451533165117
15	0x3fe3e9561d604445	0.6222334455252471
16	0x3fe5883f96ebcf6d	0.6728818843534846
17	0x3fa253507097ac77	0.03579188703937402
18	0x3fa67d18bd0ac3a2	0.04392316157953437
19	0x3f76692a68cbd4ed	0.0054713875404008685
20	0x3faa3d2c81fd6407	0.05124796950139659
21	0x3fe62108c7d10f7a	0.6915325071972653
22	0x3fde629ee19102a4	0.4747693255231218
23	0x3fe774e09f8fb5de	0.7330172649796471
24	0xbfb298cf0fa08f99	-0.07264417773745747
25	0x3fe6010d0dedf593	0.6876282951413252
26	0x3fe2eea596ccb320	0.5916316933922623
27	0xbfa6765e5df6a27c	-0.04387183091177335
28	0xbfa7d7aba8675c84	-0.04656731062612443
29	0xbf8221d8f0ce4a0b	-0.008853621338663428
30	0xbf8bfe7a09f3db12	-0.013668969563224862
31	0xbfb2d82303b35e9b	-0.07361048546169473
32	0xbf7d5aec8b95af12	-0.007166790013211759
33	0xbf905170df8de448	-0.015935672421140162
34	0xbfb737337a9b610a	-0.090686051781976
35	0x3facab8f527c91e7	0.055996397799649426
36	0xbfa956064201f135	-0.049484439427916284
37	0xbf68779437f63640	-0.0029867072004836903
38	0x3fe7e0157beedd4a	0.746103994423643
39	0x3fe62415df93e077	0.691904961276136
40	0x3fe58792e60c35a1	0.6727995389098177
41	0x3fa77aa9d2c9ac96	0.045857722264224396
42	0x3fda21d9ef037fd0	0.40831611958674063
43	0x3fe4cfbdd2712698	0.6503590688891618
44	0xbfe3d0e57f276d81	-0.6192500575520371
45	0xbf84dee70de38430	-0.010190777884817676
46	0x3fe3ce78a9897347	0.6189540206210972
47	0xbf98d6a150943660	-0.02425624899210843
48	0x3fc9d7bd94d1eb84	0.20189637915231284
49	0x3fe9461bf9fe0a66	0.7898082621253024
