weights/numq/gspc/correlation/highlow/numq_4.pt (torch, 526847 bytes, 8 tensors)

fc1.weight f8 [200, 200]
0	0x3f8b79e1d850328f	0.013416065610749399
1	0x3fa0bf7c9c212c2b	0.03271092801932015
2	0x3f717491380da1cc	0.004261557828478545
3	0xbfb5cb7a80bc9fb6	-0.0851360859202249
4	0xbfab6d07281d4214	-0.05356619229008089
5	0xbfa3832e44ce573b	-0.038110204600498375
6	0x3f80f803f8adc9d7	0.008285552050186702
7	0xbfc06d1040b61097	-0.12832835349775415
8	0x3fb1c77faba70809	0.0694503587792782
9	0xbfc8b72ae4e96752	-0.1930898301823683
10	0x3fa08592df025075	0.032269086573394036
11	0xbfb24aa4827add54	-0.07145145593209651
12	0xbfa8cd3c1f1142b7	-0.0484408176349737
13	0xbfb41e5b0ad934dc	-0.07858819022040414
14	0xbfaba5a22ca4d6a8	-0.05399805827111709
15	0xbfb2fbab3a4e01ae	-0.07415266202406798
16	0x3fc4e966bde53c2a	0.16337284347761855
17	0x3f9880dca502fb85	0.02392906911040484
18	0xbf887a55b21cd878	-0.011952085016315048
19	0x3f839c44c03867e1	0.009575402370547383
20	0xbfb2bb0254d43dda	-0.07316603251478374
21	0x3fa59c59e38952c7	0.04220848944229299
22	0xbfa315053cdc079f	-0.03726974838174545
23	0x3f9d7c0faca1246e	0.028793568526712603
24	0x3f906f9ce7332983	0.016050769435233214
25	0xbfbebf3999c86990	-0.12010536198105215
26	0x3fa7e961a5bd6def	0.04670243404572349
27	0xbfa49592df6633f4	-0.04020365693131814
28	0xbfbdea7e977ea7ee	-0.11685935209848683
29	0xbfa8d2757c047a3b	-0.04848067416081788
30	0xbf97940a8bd138c3	-0.023025669845360818
31	0x3fb8f7cfa39b29a1	0.0975312971524205
32	0xbfa12e22bfddb6d1	-0.03355511276354906
33	0x3fbaa2dcd6e78133	0.10404758688628561
34	0x3fa74db9414d9a7f	0.04551485941083388
35	0x3faa45160aa480e0	0.05130833511270949
36	0x3fa79ea2430e0c90	0.04613215511837965
37	0x3fa4e784e82e908c	0.040828851072803735
38	0x3f93138bf38bb4f4	0.01862925218568008
39	0xbfb2243ecfce8d32	-0.07086556027802685
40	0xbfb0030e5ee8d7d7	-0.06254663293006445
41	0xbfb7a59c3cf9487b	-0.09237076271645776
42	0x3f478f09f0de7c9e	0.000718955854370668
43	0xbfa0255e3ff413ed	-0.03153509646111972
44	0xbf880a9d263f1d5e	-0.011738994340602712
45	0xbfb3f04b4c502669	-0.07788534749138311
46	0x3fb63cd87475437d	0.0868659290620268
47	0xbfa12c9edd8a5292	-0.03354355291700019
48	0xbf8e044f28300504	-0.01465665666001082
49	0x3fa0ca8674218d70	0.03279514472594769
50	0x3f957801bb781d6d	0.02096560198517976
51	0xbf73e54859cd7630	-0.00485733282115812
52	0xbf7e214ed6078d12	-0.007355983689623773
53	0x3f941862b5398e5c	0.019624273596845362
54	0xbfadbb5851e60798	-0.058069953915960315
55	0x3faecc68003f08d7	0.060153245954568106
56	0x3fc0623f0df226b5	0.1279982393355589
57	0x3faa2b8d255a87a7	0.05111352044083555
58	0xbf7eda4ee418d50d	-0.007532413642868063
59	0x3f73fe03e73cb3f0	0.00488091969218106
60	0xbfad1c217d4c5838	-0.05685524611014653
61	0x3f93026fca0e825a	0.01856398268467028
62	0xbf9b06c80dd84ae5	-0.026393056721711345
63	0x3fba7d18ce211a17	0.10347132713750572
64	0xbfa13dc9c5cacd43	-0.03367453135924816
65	0xbfab0d333f0364a6	-0.05283508438305633
66	0xbf9253286b050fc5	-0.01789534714886522
67	0x3f8e485fb95c6ab7	0.014786479801434422
68	0xbfbc8e33d4577343	-0.11154483732339053
69	0xbfc1fefba18d1fe2	-0.14059396160359855
70	0xbfb29ce2e82bf3f0	-0.07270639580015348
71	0xbf9dfde5a0809fab	-0.029288852616587906
72	0xbfae77da6c901759	-0.05950815749387912
73	0x3fa39f14abc98e79	0.038323064775593836
74	0x3fb7de02034aae72	0.09323132114757884
75	0xbfb55fb902c69b2a	-0.08349186246651344
76	0xbfa2d7fa88f2aeb0	-0.03680403634765861
77	0x3fa8e66f042826cb	0.048633069283892626
78	0xbfb86c80dd07ad97	-0.09540563007583668
79	0xbfb44d1b30156824	-0.0793015472785617
80	0x3fa122ca0d26009b	0.03346854601386547
81	0xbfbc649244be5d41	-0.11090959719000627
82	0xbfafc77a09d0ff56	-0.06206876153782896
83	0xbfbf3f280a5a1ed0	-0.12205744030699894
84	0xbfb08bdb1a369d32	-0.06463403120016123
85	0x3f957b53d42e39af	0.0209782694105855
86	0x3fb06e852c00d0a5	0.0641864044599197
87	0x3f97466b34145495	0.022729563764262457
88	0xbfb078312f7138b6	-0.06433398636110862
89	0xbf9ec1c83da43b45	-0.030036095392513635
90	0xbf31573699c10e4e	-0.0002645977308512779
91	0x3f614716e44b1913	0.002109093389978453
92	0x3faceb3c7bedfdb5	0.05648221028149739
93	0x3fa01ef7ec7e02e7	0.031486270540886534
94	0x3fa5db1ad3732f97	0.04268726187873922
95	0x3f8e278e64ee3e55	0.014723885016592645
96	0xbf996914b112a214	-0.024814914043107164
97	0x3f80fadabe5df908	0.00829096692518451
98	0xbfb6dc3ec786a44e	-0.08929817553748018
99	0x3f45e167154697fb	0.0006677392325868942
100	0xbfa4ce6afcf69d61	-0.040637343768419106
101	0xbf8ece7e721bd639	-0.015042293412515938
102	0x3fa8681efbc458b9	0.04766938041045549
103	0x3f9145c704f3f31c	0.016867742230704072
104	0x3fc0ea83540dbb84	0.13215676883870853
105	0x3fb1956bd2ca9cc3	0.0686862363460135
106	0xbf5cf8f472969a88	-0.001768339842195184
107	0x3fac7bc8a24e4f19	0.055631894886714224
108	0x3fc1c3ee396d5449	0.1387918262868502
109	0x3fb17b98c35ec46e	0.06829218644885923
110	0x3f9d18ee55b5e98c	0.02841541669975238
111	0x3fbc2eed6355899e	0.11009105372571645
112	0x3fa537fcf6818c84	0.04144278058154163
113	0x3faef65a84de02b2	0.06047327873148357
114	0x3fb8c0a39bbdd9b9	0.09668943931851616
115	0x3fa1d2f666884843	0.0348126411592067
116	0x3fc31cb247d52b69	0.14931324489074463
117	0x3f98bb333759c11c	0.024151611569721884
118	0x3faa56ca1b92dedf	0.051443401208812516
119	0xbf96fe889d965d70	-0.022455343836182917
120	0x3fbf0eab55efd4dd	0.12131758544986178
121	0x3fb3e0ca6dd617ce	0.07764878446150122
122	0xbf9d405d2edd8f62	-0.02856584166092036
123	0x3fb76c4a7200f5a2	0.09149613650602942
124	0xbfa1d30010becb72	-0.03481292919550229
125	0x3fb1e706f3c36632	0.0699314446568671
126	0x3fb32bf019d4a2ad	0.0748891890585905
127	0x3f9d65b1f62692d5	0.028708248757214633
128	0x3f7bffe40b7604eb	0.006835833358651326
129	0xbfbc655a6ff596d4	-0.11092152818090578
130	0x3fab99affffa4282	0.05390691756941114
131	0xbf99988502430c90	-0.024995878470474298
132	0x3f93213bb285085a	0.01868146206948782
133	0x3f8badf5a8b873f5	0.013515395366136199
134	0xbfa3237ecafdae83	-0.037380182532470684
135	0xbf86a20d4135480d	-0.011051276733869764
136	0x3fb639dd6ff517ba	0.0868204496701698
137	0x3f9e165b7920a797	0.029382161396064168
138	0x3fb97a7a72db8413	0.09952512077462954
139	0x3f83c949c3cc74e3	0.00966127041606985
140	0xbf89d2a79972075d	-0.01260882317569994
141	0x3fb65bc12bda28be	0.08733756371126142
142	0x3fbf3223263c47a7	0.12185878451808084
143	0xbfa30e6249638b88	-0.03721911569461783
144	0x3fad1d68598aa5e3	0.05686498730694802
145	0x3fc0402dd4c0400b	0.1269585884879237
146	0x3fbe45f47b166342	0.11825492863716838
147	0x3fc21d0a903bf726	0.14151126902282235
148	0x3f78e18cc5c1abaf	0.006074476139569392
149	0x3fbd137b3be5d8d4	0.11357851230954746
150	0x3fbcc8c4fae23e50	0.11243849873630407
151	0xbf8a09c7dc7362f5	-0.012713967719194733
152	0x3fb9eb12dc302e7e	0.10124318957985598
153	0xbfa3821aac444017	-0.0381019912039166
154	0x3f97315ffe8518dc	0.02264928809133769
155	0xbfa5a462aa4c9848	-0.04226978615615501
156	0xbf927ad7b054fe95	-0.01804673207993675
157	0x3fb14dba4309de11	0.06759227883036824
158	0x3fa92d0d5b0c1b96	0.04917184578339755
159	0xbf89274011f6e304	-0.012281895206670786
160	0x3f8aa3c075821a68	0.013007644258562226
161	0xbf7fb0ace8731d96	-0.007736850187206731
162	0x3fc1571b0b46deda	0.13547075319887975
163	0x3fa6d17c468d9fe7	0.04456699715848327
164	0x3fa0745fa15e5cae	0.03213785977202953
165	0x3fa8e3e64702108e	0.04861373535916967
166	0x3f9c348d99d30303	0.027544224275291473
167	0x3fbb165a629d8e96	0.1058098307381051
168	0xbf7200784679428d	-0.004394979310362712
169	0x3fa5659fb8f6d711	0.04179095394958499
170	0xbf9007705e15b7f7	-0.015653377287371453
171	0x3f7454d16eef9cba	0.004963701342581556
172	0xbf86acea2e9a7732	-0.011071996257040338
173	0x3fb4055bf32c6e07	0.07820677458624213
174	0xbfafe235d9b6a043	-0.062272723032322584
175	0x3fb478b0f092dd1c	0.07996660111790671
176	0xbfaf043c47aa3024	-0.060579189060348676
177	0x3fab672a726eedcf	0.05352146765605036
178	0x3fc31839bab37595	0.1491768037439384
179	0xbf82cf9faa6e7b9d	-0.009185073269518724
180	0xbf83a5754004eddc	-0.00959292985554943
181	0xbf95485540d42dbe	-0.020783741075360622
182	0xbfa5527c77f5ec86	-0.04164494480479512
183	0xbfacea9e50494290	-0.0564774964337903
184	0x3fb30b722a361ed4	0.07439340143730117
185	0xbf46a77d0b50df14	-0.0006913528983494032
186	0x3f9542f30a9b4c01	0.02076320411908839
187	0xbf9bd014efc11d27	-0.027160956510013847
188	0x3faec7c7e030ba62	0.060117956273064946
189	0x3fafa1aea01df008	0.061780411763692256
190	0x3fb36aa58f07dcc8	0.07584604970894582
191	0x3fa6e0ee18f16668	0.04468483023147202
192	0x3f6858214c54f410	0.0029717111925990983
193	0xbf783293c88713e9	-0.0059076092515555146
194	0xbfad6e29fc4be36d	-0.05748110966482654
195	0xbfb44984456d0b55	-0.07924677557916245
196	0x3f954871d57949be	0.02078416696014939
197	0xbf924d781efda11b	-0.017873646632694844
198	0xbfb48dc5c5cac179	-0.08028827742487533
199	0x3fb1b454c6c798f3	0.0691578851034114
200	0xbfaad01e6de87b92	-0.0523690709271626
201	0xbfb6b2f6d0291c72	-0.08866827566190397
202	0x3fb2f36249e39381	0.07402624420099181
203	0xbf9c773691a5839a	-0.027798512115058217
204	0xbfb5de8b40cf59bd	-0.08542700130724419
205	0xbfb75bffc75ee7ee	-0.0912475454087198
206	0x3f36c36a6246830f	0.000347341034535418
207	0x3f97f540fd45084e	0.023396506746628902
208	0x3fba031040af3163	0.10160924510200213
209	0xbfb34c9bc56ef35d	-0.075387702657236
210	0xbfa7b2079d5b61d9	-0.04628013416158056
211	0x3fad74b0721b86ae	0.05753089325822934
212	0x3fb74e26a156f132	0.09103623808818354
213	0x3fc21ab8f7735c45	0.1414405067687047
214	0xbfb676ac78cc9bc5	-0.08774831723404393
215	0xbf8ccc96fe65e63a	-0.014062099112140836
216	0xbfb2b20641aaf980	-0.07302893737048599
217	0x3f9334fca5ba35fa	0.018756816497036845
218	0x3fac76fe1216d71e	0.055595340450436334
219	0xbfb81120015cb62b	-0.09401130707984666
220	0xbfb65d7f2bb0a278	-0.08736414734506492
221	0xbf980a1bf95e4505	-0.02347606381915048
222	0x3f97981ace6612b9	0.023041170928552932
223	0xbfb6a74c9e214240	-0.08849028454393082
224	0xbf90f73c85fd29bd	-0.01656813209346252
225	0xbfa9122724dee850	-0.04896662068445379
226	0xbfae9e3f1dcfd82b	-0.05980107535280895
227	0x3fa25e5bcb5172ab	0.03587614876662334
228	0x3f90903ac43b08b9	0.016175192095723576
229	0xbfa1d7cc1fd3fb8d	-0.03484952820325935
230	0xbfbc0413c0f91289	-0.10943721257451434
231	0x3fb6dd52285888bb	0.08931458935743113
232	0x3fb2514be23c574c	0.07155298493702594
233	0x3fab0e55dac7ea79	0.05284374519029184
234	0x3fb457de9f34395e	0.07946578394714751
235	0x3fc2cf30eaf50de6	0.14694797012826583
236	0xbfa4975ced565a0c	-0.04021730801757792
237	0xbfa023b563b7b665	-0.03152243463760555
238	0xbfa86d4f55b0bea3	-0.047708968363051406
239	0x3fb00528605fcbe2	0.06257870056997164
240	0xbfae6118138ba9f4	-0.05933451880067145
241	0xbfa2d45f16d36b38	-0.03677651551853106
242	0xbfa4204872a1388f	-0.039308799736873394
243	0xbfa7de77772bca6e	-0.04661916093563866
244	0xbfb8a5711528c217	-0.09627444044668497
245	0xbfb95e28560ee104	-0.09909298039463371
246	0x3f94b776e78ebcd3	0.02023111141505469
247	0x3fb7a27516eb9b0d	0.09232265290811999
248	0x3fb9ef7dc907cfa1	0.10131059797259791
249	0x3fb0dad076269e4d	0.06583884129087743
250	0x3fb265c0c9f6af6b	0.07186512881042766
251	0x3faf6d9e92113270	0.06138320477530079
252	0x3f952b675df94faf	0.020673384772024125
253	0x3fa269b5b69caad8	0.03596275190496606
254	0xbfc045c6cbc6cdab	-0.12712941122081864
255	0xbfa0e2bc73ebcd6f	-0.03297985949566395

fc1.bias f8 [200]
0	0x3fcd5bad552e809d	0.22936026248226407
1	0x3fdc36a2170fefc6	0.44083454372571074
2	0x3fbe27408e6079d5	0.11778644062039885
3	0x3fd84e50247ef49a	0.37977984966330214
4	0x3fd43f5a04a5ec80	0.3163666768447868
5	0x3fa94c9d60583205	0.04941264916496738
6	0x3fcdaa36f1299428	0.23175703788288726
7	0x3fd666de6b07accd	0.35002861454149753
8	0x3fd621b03af6f1af	0.3458061767412585
9	0x3fdb47e0735a91a5	0.42626200928705266
10	0x3fe05ea70dcc7ad6	0.5115542668825934
11	0x3fd3944727dadacd	0.30592516796188535
12	0x3fd53c140e7dd19c	0.33179189124282416
13	0x3f7441e869adc929	0.004945667135745326
14	0x3fde9b85011aab25	0.47824215991811264
15	0x3fdfb8304dcb69a6	0.4956169852936462
16	0x3fb040228ba67b4d	0.063478621572796
17	0x3fe149e7ae0c4543	0.5402716063855809
18	0x3fdc0a7384824cfd	0.43813789310770784
19	0x3fc05e3f23f8e549	0.1278761792798753
20	0xbfb9a14589942105	-0.10011705979207271
21	0x3fe2ee89746d2d7e	0.5916182779268835
22	0x3fe00d1cb4733ec1	0.5016006016175752
23	0x3fd8a85a2cc4d76e	0.3852754056164177
24	0x3fdd832879434ab8	0.461130255146752
25	0x3fd91a47638a7326	0.39222893448622853
26	0x3fd3c62a9cc263c1	0.3089701205113294
27	0x3fda3efb819ab74f	0.4100941434543203
28	0x3fd648db00d7cd8d	0.34819674570390974
29	0x3fd654557be830e6	0.3488973341016063
30	0x3fd4f848ef02c41c	0.3276541074838535
31	0x3fd137ee57f1df76	0.2690387591205686
32	0x3fe1305bd37b095a	0.5371531610947315
33	0x3fdaf8def2bc3021	0.4214398737392476
34	0x3fdd6875416185b6	0.4595006121145063
35	0x3fdb7593422129d6	0.4290512224003157
36	0xbfc3e52be4d69ebf	-0.15543125795124088
37	0x3fdc534fd004eb27	0.4425849467694882
38	0xbfa670825e182632	-0.04382712744343244
39	0x3fc6929244f2023e	0.17634800306770332
40	0x3fdf5abe721f073d	0.489913569876183
41	0x3fb498cb668b9cd2	0.08045645955609196
42	0x3fa9761c5fd60bfb	0.049729239176507144
43	0xbfcd3e8623ee9113	-0.22847058062064515
44	0x3fd1a25acb2ceb2b	0.2755343422065148
45	0x3fe09d0a31454746	0.5191698992077611
46	0xbfd2a644500e2a0b	-0.29139812295821405
47	0x3fd402250ab51a75	0.31263090177200265
48	0x3fd3055081911de3	0.2971993699361219
49	0xbfd29de8f66fdf96	-0.2908880621539479
50	0x3fd51e4731f9e10c	0.3299730289504772
51	0x3fd15ea862141009	0.2714024503513888
52	0xbfcbe06a7c797c0b	-0.2177861316476711
53	0x3fd747bf24a08362	0.36375406815391476
54	0x3fcb2cfc6821637c	0.2123103626679742
55	0x3fde96936fe0e504	0.4779404251635955
56	0x3fd596bb23ffbe51	0.33732489123847126
57	0x3fd73701ff94ba87	0.3627324100406572
58	0x3fdb83b267d9f191	0.42991314069492953
59	0x3fc1b2b990cbd609	0.13826675005081793
60	0x3fbe937acdf0f63f	0.11943786170828562
61	0x3fdc0202e3398a5d	0.4376227587692137
62	0xbfce78871d2dd7eb	-0.2380532162166554
63	0x3fcf72d4e18ad94e	0.245691881301989
64	0x3fdfbc8ee1ef5e63	0.49588367523162996
65	0x3fd4126ab36bfe16	0.31362407228150013
66	0x3fcb16965685a4c0	0.21162680840214954
67	0x3fdcafaf44a4d559	0.4482229395246882
68	0x3fd247f28e22a23e	0.28564132576369505
69	0x3fd0626b0524e683	0.25600696089131975
70	0x3fd511473d649d3f	0.32917958255207574
71	0x3fd9f6fb6d5d5ad3	0.40569959335463784
72	0x3fd4324060a0d428	0.3155671065936212
73	0x3fd42c4925929a21	0.3152029864235449
74	0x3fd162c514123fd6	0.2716534324654253
75	0x3fd7dc50bce2ba36	0.3728219837748016
76	0x3fd44eb1cc887d82	0.3173031327623549
77	0x3fd5ed88930dc759	0.3426228939125529
78	0x3fe0a960dcd853d9	0.5206760705356103
79	0x3fd1be45698900e2	0.277238228856744
80	0x3fdc88df30f815dd	0.44585399419915267
81	0x3fe1bf4b80792f77	0.5546014317746842
82	0xbfb976a1c6d4b0b7	-0.09946642975109198
83	0x3fdf8696e78b7968	0.4925896893672843
84	0x3fd7b4ebb55956c3	0.37041752538548794
85	0x3fe20157f5433ee2	0.5626640119826016
86	0x3fd3ef209189a597	0.31147016728081084
87	0x3fe09b2d825fb143	0.5189425989497426
88	0x3fdc61fcc11658fc	0.4434806714647406
89	0x3fc77fe3838f30a1	0.18359035419269268
90	0x3fcf2ca2865f0806	0.24354964791388073
91	0xbfb90645c9348464	-0.09775196230158795
92	0x3fd7abb0771f8e0c	0.3698540843308542
93	0x3fc5c9a66b4c5725	0.17021637190981057
94	0x3fd4da2df10a2982	0.3258166173842697
95	0x3fb324d2fe2feeb9	0.07478064256423068
96	0x3fd32096ecf0ce65	0.2988641084550408
97	0x3fd6a8c67ef5a782	0.35405123136899175
98	0x3fd23c77aa9dbe52	0.28494064008461806
99	0x3fd755fe943eeb3d	0.36462368466498046
100	0x3fd8472c1629d774	0.379344007152546
101	0x3fc3981875871b9b	0.15307908762607955
102	0x3fd7f3afc6df2b70	0.3742484514338491
103	0x3fd07adfd89299af	0.25749965810464465
104	0x3fe390c9a45cfc31	0.6114242754191591
105	0x3fe00f068b50d24c	0.5018341752061786
106	0x3fde5a95dd2f6cc1	0.4742788944256056
107	0x3fcab9fe562b1d92	0.20880107123796826
108	0x3fde1ed3845e133f	0.4706314842845138
109	0x3fdc8721fcc6db70	0.44574784932358735
110	0x3fd6c6a4acc006d2	0.35587422247054434
111	0x3fdd8c3faee0e203	0.46168510511373045
112	0xbfc4f79b0ac1d141	-0.16380632424592004
113	0x3fd765048892551c	0.36554063164779094
114	0x3fcd9c1249955f83	0.23132542221969396
115	0x3fd7b0e67c034f12	0.3701721392692302
116	0x3fe29da3e4a5c464	0.5817431894084959
117	0x3fd878d1da01691c	0.38237425126648517
118	0x3fabcdff9b98222d	0.0543060185846723
119	0x3fa323ecf1984aa5	0.037383465282024
120	0x3fdd1d0086393989	0.4548951445366574
121	0x3fd4db123f515f90	0.32587104972253034
122	0x3fc90d3dfbc35bbc	0.19571661751862546
123	0x3fd29aa214ce9cb0	0.29068805725041624
124	0x3fd21af11aba4457	0.28289439783208564
125	0x3fe08bd4d54f0e59	0.5170692602336643
126	0x3fe1c99894a429b5	0.5558588889264714
127	0x3fdf4e90b22b2a29	0.4891702403953411
128	0x3fb9ecf32ae27788	0.10127181813228792
129	0x3fd05c57aa06a5f9	0.255636135140406
130	0x3fdbba7fcf015a5d	0.43325801101074096
131	0x3fc3527da9736f5b	0.1509549214741764
132	0x3fd9eb55048a8a31	0.4049885315272688
133	0x3f8caf80778a0980	0.01400661816410742
134	0x3fa33cdcee23c2f7	0.03757372290590937
135	0xbfd5cebe47c08d1d	-0.34074360854192937
136	0x3fd58780d64e3e37	0.33639546325955244
137	0x3fd022045a11fcc3	0.2520762328712857
138	0x3fdaa7d5fb426491	0.4164938882546006
139	0x3fe34fa17bbd3726	0.6034705559520475
140	0x3fe599a907875d02	0.6750073573156501
141	0x3fe1390210da259e	0.5382089928763667
142	0x3fd4a6a55a4be7c1	0.3226712590982253
143	0x3fdcb63e542cfbba	0.4486232587841489
144	0x3fe0ccef4bd378dc	0.5250164490678588
145	0x3fdb2993cde3927d	0.42441268068640864
146	0x3fcfaa440ee829bd	0.24738360145449959
147	0x3fd88c912de0be2f	0.3835795352960955
148	0x3fd75cd2c66e22bb	0.3650404870791523
149	0xbfd8ecfc9bb447e1	-0.3894645233677903
150	0x3fd5784d8cd5e6bf	0.33546770814391985
151	0x3fe09c37f7f2189c	0.5190696566285342
152	0x3fde29c0b588fec3	0.471298386841209
153	0x3fdb76715da6c106	0.4291041769565854
154	0x3fdbf9c84ae152ba	0.4371205073596617
155	0x3fd3b14c15df411b	0.30769636283823026
156	0x3fd163f031dc5131	0.27172474736404967
157	0xbfbb2dea0221795a	-0.10616934349079568
158	0x3fdc8dd0774ccf35	0.4461556592025205
159	0x3fd1b0c13944337e	0.27641325561926766
160	0x3fdf3581108b0759	0.48764063468489877
161	0x3fc02f30d2f36323	0.1264401464493626
162	0x3fd1bc24b73ec657	0.2771083631042521
163	0x3fd2f97a47bb1b34	0.2964769077774918
164	0x3fbbb557da725407	0.1082358272854692
165	0x3fd34c89dbd7dd9c	0.30154653996529546
166	0x3fd6e06a46498ae1	0.35744721282951103
167	0x3fdb02261b516600	0.42200615566034116
168	0x3fd9fc72690dc0e9	0.40603313693192306
169	0x3fdfeb2d41136746	0.4987290511613661
170	0x3fe11c6e1ac1df39	0.5347204706767804
171	0x3fd79923a543f795	0.3687218774720063
172	0x3fe2400988ba7934	0.570317046210937
173	0xbfd8a2dcbe710e29	-0.38494032476248435
174	0x3fd2ae77f182003c	0.29189871392009414
175	0x3fba64b823418149	0.10309935436953767
176	0x3fc2e92955f185dd	0.1477405233045336
177	0x3fcedc05a7d3e2bb	0.24108954138480052
178	0x3f53a47e8dde9bfa	0.0011988864784855378
179	0x3fd6cba9c58798d8	0.35618061342246454
180	0xbfbc542b7c5a8dd7	-0.1106593302343336
181	0x3fd17c87513984bf	0.2732256215295585
182	0xbfd0306439bb7170	-0.252953583125211
183	0x3fcdabbc47f2975b	0.23180345070903283
184	0x3fa3ee376cbd631b	0.03892682268514688
185	0x3fcfe5620d581142	0.2491877141147914
186	0x3fd8e106b4514bd2	0.3887345086015418
187	0xbfd4ca1b4732f911	-0.3248356051734769
188	0x3fd77d38694fb8ae	0.3670178440505748
189	0x3fd15b86bed5798a	0.27121132503625545
190	0xbfd76be6fa7c7630	-0.36596083127537593
191	0x3fdb63e60ab0381c	0.42797232669625074
192	0x3fd29db4f695ff50	0.2908756645265287
193	0xbfc0aced0818fbc8	-0.1302772798098586
194	0x3fbecd6d9e4fc980	0.12032208552390067
195	0xbfb827264bd93bb5	-0.09434737540980971
196	0x3fd83a09f48fa3bd	0.37854241259497795
197	0x3fd64b7606e5329a	0.34835577653283567
198	0x3fd20721c34ff796	0.28168529580568114
199	0x3fe213e790bce092	0.5649297549162091

fc2.weight f8 [100, 200]
0	0x3facae4ca9d125af	0.05601729939423749
1	0xbfa91e7e31bbf09b	-0.049060767718374275
2	0xbf7c48bf01c20a79	-0.00690531360681012
3	0x3fa1e7973c081210	0.034970022275988666
4	0xbfae9568a65fdf8d	-0.0597336485952261
5	0xbf581622b4dc2b5f	-0.0014701212816727522
6	0xbfa3f09738ac7052	-0.03894493643585463
7	0xbfa76a013c83c22a	-0.045730627667471005
8	0xbfaa7a5f65030843	-0.05171487911276575
9	0x3fb3ce1443583b6e	0.0773632683196703
10	0xbf78d246dc9cf00a	-0.006059910587108428
11	0xbfa5f7263bc615b5	-0.042901224896052005
12	0x3f81a8ec81bd3859	0.008622977933239339
13	0xbfa2a825b865f744	-0.036439112433966275
14	0x3fab10928ef934a4	0.0528608130958699
15	0xbfbbac3831ff6715	-0.10809661121984633
16	0x3fba1ccb283290cc	0.10200185519585431
17	0xbf7ec214c3f8c86c	-0.007509308924953922
18	0x3fb3f8c95b746079	0.07801493151453255
19	0x3fabb9e273a131ec	0.05415256177420588
20	0xbfaec885f1b4ebae	-0.0601236207534933
21	0x3fb507416df6f590	0.08214196142849617
22	0xbfb548c027b7c702	-0.08314133615183653
23	0x3f93824ab218b49d	0.019051711197040622
24	0xbfa48c9c509d38a6	-0.04013527378138919
25	0x3faec385ed0472a5	0.060085473234925225
26	0xbfb24630aed59702	-0.07138351696411507
27	0x3fbb2ffe890bbb04	0.10620108457417748
28	0xbfbe320db8f68cb8	-0.11795125737858114
29	0xbf9042c14411bede	-0.01587964990579748
30	0xbfacd24b9d0623f9	-0.05629192630573949
31	0xbfab9393b38a1e30	-0.053860297838636106
32	0xbf6090b2c7ef536e	-0.0020221225563354294
33	0x3f93ac803d3d56a6	0.01921272634293438
34	0xbfa6d80c46ed6f1b	-0.044617065103663665
35	0x3f99c6867e90c0ee	0.025171376681272166
36	0xbfc40cd384cd41e2	-0.1566414259382461
37	0xbfb72d0d714dc267	-0.09053119674877906
38	0xbf74298843336fd0	-0.004922420764355409
39	0xbfb94f3ce0102994	-0.09886532278338783
40	0x3fa71b67bfbc60ae	0.04513096061254039
41	0x3f88333014df0825	0.01181638301557448
42	0xbfb3dd6b7c8f3138	-0.07759734908103588
43	0xbf859155b5dd421f	-0.010531110394056018
44	0xbfb5a7d6dbf37db1	-0.08459227437878415
45	0xbfb21240f262535c	-0.07059102933483302
46	0xbfb46ad1af497810	-0.07975492982356536
47	0xbfa7191c33591ebd	-0.045113450306016635
48	0x3f9de83a0bf78a59	0.02920618722954269
49	0x3f91f97ba861be96	0.017553264763079023
50	0xbf9d59a953e17efe	-0.02866234373539011
51	0x3fa583fbda36c644	0.04202258146996177
52	0xbfb7800ba965f613	-0.0917975700922045
53	0x3fb57149d193463d	0.08375989309868088
54	0x3fc02d6cb3e94fbb	0.12638624939665796
55	0x3fa5ba3370b12465	0.04243622542032525
56	0xbfa2d07b409e066d	-0.03674683727059578
57	0xbf577c992cc81464	-0.0014335151528268803
58	0xbfa7067cac924dec	-0.04497136694513046
59	0x3fa8d52177daca89	0.04850105846471304
60	0xbfaa068752e0ab3d	-0.050831059328933816
61	0xbfb0d71f649d404f	-0.06578251081850904
62	0xbfa06655d28d9f7b	-0.03203075595121071
63	0xbfa3de1fc0b817d9	-0.038804046893389184
64	0x3fa35bac2f2fcc3f	0.0378087813950505
65	0x3fc0edda1bc34d8e	0.13225866656885582
66	0xbfb61136bd072906	-0.08620016207638423
67	0xbf92ca99da120a2d	-0.018350986418690752
68	0xbf8f6be28f196886	-0.015342493049662186
69	0x3f84d1ba670af45d	0.010165649671188765
70	0xbfbb15f98e7b3d41	-0.10580405930089844
71	0x3f8761a654e2a91b	0.011416720834251983
72	0x3f9db70bcd3a8b6f	0.02901857795826451
73	0xbf9056fbc230cec0	-0.01595681545968719
74	0xbfb64eec48ba35d7	-0.08714176917620563
75	0x3f64ed0de09aa774	0.0025544425050911205
76	0x3f9867102304943a	0.023830654275247755
77	0x3fb7962257354087	0.09213461522199583
78	0x3fbb63f31a1afdcc	0.10699386012401318
79	0xbf948886ec46680c	-0.02005205933674152
80	0xbfa0f7893dcf1fe9	-0.03313855056290988
81	0xbfab74eba7e59108	-0.053626407857139624
82	0xbfb66813c73195ed	-0.0875255929291467
83	0xbf8441f2e5bcc4c4	-0.00989141238787495
84	0xbf98ddac046328b6	-0.024283111350805263
85	0xbfb03a8882b9dafb	-0.06339314643433262
86	0xbfb702d670e630cf	-0.08988704925849621
87	0xbf9e1288b76de5c9	-0.02936757678569338
88	0x3f86e26f969ce906	0.011174079688875082
89	0x3f865779b8e90fee	0.010909033732907827
90	0x3fbc8501e9e6aed5	0.11140453300930216
91	0x3faa4c64eb3c4306	0.0513640916016183
92	0x3fb8a829e3528af2	0.0963159732805641
93	0xbfb697ca6c71d384	-0.088253642535916
94	0xbf94f2b9d3bc77f4	-0.020457175777771355
95	0xbfc0793a343c5b7f	-0.12869956541609537
96	0xbf77c4d68cee720d	-0.005802953803961686
97	0x3fae1d9d7ca7fdc4	0.05881969591791461
98	0xbfb2c52373202c26	-0.07332059441266434
99	0x3f872d75610d3697	0.011317173980980129
100	0x3fa28db9db6d5a09	0.03623753360323085
101	0x3fa6cc97d88f6e11	0.044529671845989445
102	0xbfb8edfdab15eda7	-0.09738145281692444
103	0x3f95c0fb66c1e33f	0.021243980547726023
104	0xbf46a55960bdfa5b	-0.0006910978713533066
105	0x3fb4b0352a0e58f4	0.08081371571310908
106	0xbfa77fbb38f4a316	-0.045896387770261324
107	0x3fa3a021675f2ca0	0.03833107363569721
108	0xbfb68ba7f78dc0a0	-0.08806848329345707
109	0xbfb6e5c98559a4c0	-0.0894437742769183
110	0x3f996bd5988e2f57	0.02482541793464973
111	0xbfa2f536ea7b5691	-0.03702708828283819
112	0x3f86d75cef025ff8	0.011152959865555076
113	0xbf8026eab94c6f1a	-0.007886728076804728
114	0xbfb961bca4625cfa	-0.09914759648596663
115	0x3fa31993f6e61660	0.03730451954747305
116	0x3fb5198530d16778	0.08242065851064051
117	0xbfaf67fed04c61aa	-0.06134029667572645
118	0x3fb404cb7cb21a69	0.0781981639321231
119	0xbf761795e9593985	-0.005393586723199899
120	0x3fbe26fc952e2521	0.11778238908859297
121	0xbf9337bff52d6032	-0.018767356242591578
122	0x3fab42d602cd6f1a	0.05324429306230467
123	0xbfaa0c300bdd5ec0	-0.050874234627085624
124	0xbfb396bf3bbdb59e	-0.07651896675607481
125	0xbfb0fb106be320cf	-0.06633093484845463
126	0xbf6951990f34c9d8	-0.0030906667176619877
127	0xbfa827e2ad90aea9	-0.04717930191722292
128	0xbfb9b46ad8158db1	-0.100409200434618
129	0x3fa7ff05cf6d94a1	0.046867543764883786
130	0xbf8c9fe5fe4f2ee2	-0.0139768570169489
131	0xbf7b03bfe059b6d4	-0.006595372693124896
132	0x3fad94ed50264055	0.057776847871651306
133	0x3fa9cd340d681b30	0.05039370216041161
134	0x3f63e8793fa5701b	0.00243018800135354
135	0x3fb01d62c09ff8f3	0.06294839098697817
136	0xbfa170505294af16	-0.03406001098696103
137	0xbfa0c670daf01e73	-0.03276398346502853
138	0xbf9ca44f460e0b5d	-0.027970541621026402
139	0xbfb6463af9db62c1	-0.08700913047813243
140	0x3fa3c381e2bf2355	0.038600977829964
141	0xbf8467450f79cea2	-0.009962596449646203
142	0x3fa4912e08573daf	0.04017013408485625
143	0xbf7f1767f7aa749d	-0.007590681193190421
144	0x3fb78fe118db7760	0.09203917366855086
145	0x3fa3f33e9cde71c0	0.038965183877027965
146	0xbfa11ff609cd95b9	-0.03344696874300319
147	0x3faa68426dcddb4e	0.05157668676741044
148	0xbf657e011fbb3ae4	-0.002623560137954827
149	0xbfb243fac9110d20	-0.07134978684284876
150	0x3fa7997f506cbcd2	0.04609296662089836
151	0xbfbe4e7465b38d75	-0.11838462336486606
152	0xbfacd585b9c69179	-0.05631654637116674
153	0x3f9bf3bf0d99b873	0.027297005848986488
154	0x3fc01b1e0553cc05	0.12582755336879373
155	0xbf79489eedb31237	-0.006172772230631333
156	0xbf9f9dd594a1687f	-0.030875527569471203
157	0xbfae8bd0a65173e2	-0.0596604540848842
158	0xbfa86fae51bc9cab	-0.04772705791247608
159	0x3fb8d3f1ee1df121	0.09698402465250357
160	0x3f98a4c63d4c8a0b	0.024066064349549204
161	0xbfb53afe78131eba	-0.08293142730246475
162	0xbf899bdf2acc9d46	-0.012504333013181889
163	0x3fb616082fbe7b35	0.08627368131281517
164	0xbf96f6f970ad759a	-0.022426507475179137
165	0x3f67494899359f28	0.0028425615252451082
166	0xbfa7fdf1d5a7a030	-0.04685931904879259
167	0xbfae60118f5785cb	-0.059326695201672296
168	0xbfb45b17222b04a6	-0.079514928666884
169	0xbf5afd7fdff314a5	-0.0016473530557033292
170	0x3fa5f3d57fb5bac5	0.04287593063314924
171	0xbfb2e80eb599798d	-0.07385341580945788
172	0xbf59b47c5b7b4135	-0.0015689100672951599
173	0xbfabd6e60adc0ab3	-0.05437392122805331
174	0x3fc237422cbf41f2	0.14231135544697754
175	0xbfa506fad898c195	-0.04106887716295941
176	0x3f8a56d9e3b94800	0.01286096788604496
177	0x3faf08a97f62c57d	0.06061296157839544
178	0xbfb3b70fdb93731b	-0.07701205359212475
179	0xbf76090d11927af8	-0.005379725503330539
180	0xbf56dfe1a3749399	-0.001396150922866135
181	0x3fc17489e3db4ed7	0.13636897683919955
182	0xbfa8080cfcf77852	-0.04693642223331608
183	0xbfa9b8f4300bcc84	-0.05023921095371356
184	0xbfb3dd5607873707	-0.07759607013505497
185	0x3fa0291ee8a13d66	0.031563726327130934
186	0xbf890fc06364dec7	-0.012237074883713629
187	0xbf89b09bb65b0067	-0.012543884756610347
188	0x3fa98b63d5d428c1	0.04989158616270251
189	0x3f9f975d6b52725a	0.030850848842066327
190	0xbf7449e300e57bd2	-0.004953276379040044
191	0x3fb0211decd07176	0.06300532371137088
192	0x3fa75ee58e3f8e02	0.04564587937764132
193	0x3fb7bba1de312302	0.09270679163558884
194	0x3fb1133ce2bc3356	0.06669979606176688
195	0xbfb33344d9581812	-0.07500105196240295
196	0xbf778e9a0864ce47	-0.005751229944781117
197	0xbfa212c901a35d1a	-0.03529956955906695
198	0xbfbbcef5d126a117	-0.1086267123815826
199	0xbfa10de72cfb6b56	-0.03330919670198422
200	0x3f916c850cc196c3	0.017015532401635235
201	0x3fa79f2067a5345d	0.04613591447068963
202	0xbf9790366aac675c	-0.0230110647781666
203	0xbf9f8fbb510bb277	-0.030821730443607778
204	0xbf87fb1ef0352d60	-0.011709443765218708
205	0xbfa7bb9d143688d9	-0.0463532530950645
206	0xbf812838f4ba0e18	-0.00837749955031257
207	0x3fa34259370c7bd0	0.03761557385427461
208	0x3fb45c695bbe3229	0.07953508844202219
209	0x3fb83106639a3960	0.0944980614824309
210	0x3f724c146ed6421c	0.00446708661674269
211	0x3fba652f5d9ec20a	0.10310646091125633
212	0xbf9336ea91fee677	-0.01876417652213155
213	0x3f9a8a14bd89cd76	0.02591736227846072
214	0x3fbae8401ce65640	0.10510636048851385
215	0x3fb029999c985beb	0.0631347663223633
216	0x3f9093e27b0e9a39	0.016189135323339186
217	0x3f97b69f114e1aed	0.02315758269426287
218	0xbfb55f398d76e668	-0.0834842653629494
219	0x3fbdcfff056bdc87	0.11645501978260785
220	0xbf94522230d37dc9	-0.01984456465731713
221	0x3fbb04c3fa5bb56f	0.10554146635305071
222	0x3f76a346327cc981	0.005526804168584199
223	0xbfa11734a6612e29	-0.03338017016411882
224	0xbfa1e921cfb9b299	-0.034981781584837175
225	0x3fb01609f8dc3962	0.0628362877434703
226	0x3f8c6686e46c2794	0.013867429586315962
227	0xbf9d37e73115e272	-0.02853356587499651
228	0xbfb8180a965cf962	-0.0941168419931038
229	0x3fb76d63dbc591e2	0.09151291003724496
230	0x3f964953c47cf0b5	0.02176409613387938
231	0xbf9cafe6ae89523e	-0.028014759447915198
232	0xbfad01aeb6031a69	-0.05665346118762644
233	0xbf88f48eac947f04	-0.01218520607159191
234	0xbfa23b0d7b6bbd0e	-0.03560678607561317
235	0x3fa0182572d78ab5	0.03143422152404211
236	0x3f83118c9f66feff	0.009310816397259723
237	0x3fafafd22f97cbae	0.06188828307121895
238	0xbfb3b4b4724f2ed4	-0.0769760874820194
239	0x3f7f90205f4c4fb4	0.007705809072621795
240	0x3fb6978f3f8c9dfe	0.08825011540886149
241	0xbfa6f6b207604e38	-0.04485088672677445
242	0x3f839a43aa432af5	0.009571579583640391
243	0xbf9a81134099a649	-0.02588300782955447
244	0xbf9d8783a5d5db93	-0.028837258335865434
245	0x3fb5fd67a8ec98a6	0.08589790224195556
246	0x3fb53341a6bc1df1	0.08281336136507612
247	0xbf955b893a44eafe	-0.02085699480196989
248	0xbf9f6c4d2956d725	-0.030686574600358747
249	0x3f9584329ed0c564	0.02101210684140166
250	0xbf8a2bffdd67ab27	-0.012779234832995435
251	0xbf9e3fe9a57d4f3d	-0.02954068253104868
252	0xbfbb7ba2bf3e3cb7	-0.10735528153439843
253	0x3fb41c71dcd86cc5	0.0785590328381885
254	0xbfabc7e666e52e6f	-0.05425949102445037
255	0xbf7e11a35dfdf8ee	-0.00734103980346233

fc2.bias f8 [100]
0	0x3fdae1ccdb7678f0	0.4200317519370307
1	0xbfb84975c080d396	-0.09487091016565183
2	0xbf9fdda27ac07e90	-0.031118906728919316
3	0x3fe4bd9edeeb4d03	0.6481470445527581
4	0x3fe830640a7fe5c5	0.7559070782728489
5	0x3fe75cc480ca7c86	0.7300741687248695
6	0x3fd97a6374d86144	0.39809500132243536
7	0x3fd3f887504b0958	0.3120439800369659
8	0x3fe6c73077a5b50a	0.711815103231545
9	0x3fcd98b4f1d67da2	0.2312227421616458
10	0xbfcf5c9645d7bf4e	-0.24501303110400346
11	0x3fe4997ab26f5e16	0.6437352643069427
12	0x3fe5dff3efbc42bb	0.6835879976589107
13	0x3fdb4be376682c42	0.4265068680112486
14	0x3fe57f188f41f565	0.671764640617465
15	0xbfbe8247ff5c7d5b	-0.11917543396383705
16	0xbf9e87bd0f505a46	-0.02981467634171
17	0xbfa0b37fd0bbda97	-0.032619470815849975
18	0x3fe5f7e9b54ca9f5	0.6865128079419366
19	0xbfe140e7a6314c3d	-0.5391729589413284
20	0x3fe4eeb696cc0805	0.6541397996190886
21	0x3fe6ab346272ecfb	0.7083990023451457
22	0x3fdf2b5ec13ea68f	0.4870221030383641
23	0x3fcc37ffd27e7202	0.22045896318458352
24	0x3fe4246d4846a743	0.6294466411247658
25	0x3fd8dbc656cac67a	0.38841398692884577
26	0x3fbf01ce5cf707a2	0.12112130899097776
27	0xbfd74e2d5c5d7d4a	-0.36414655704534893
28	0x3fe22b13d1381e9a	0.5677584730446654
29	0x3fe7d5f732a8786f	0.7448688496986174
30	0x3fe2943f8a222a75	0.5805967042845867
31	0x3fe59f46b48070b6	0.6756928944992271
32	0x3fe695ab83b86bd8	0.7057702610649086
33	0xbfcd9e94a7270bf8	-0.23140199815506413
34	0xbfc4b5db3fd95983	-0.16179981820705444
35	0x3f8869d7a25eb944	0.011920628206863022
36	0x3fba28d85df099b5	0.10218574803784615
37	0x3fd173b2221c5b79	0.2726865132439609
38	0x3fbf778139c72711	0.12291724835008845
39	0xbfe217ade997fdf6	-0.5653905451180765
40	0x3fd50e425a5ad456	0.328995311963188
41	0x3fe3133306da30fc	0.5960936673959902
42	0xbfc2054cbeb25b03	-0.14078673659670224
43	0xbfb7369b3cc553e2	-0.09067697747862227
44	0x3fc78d68258c353d	0.1840028937662427
45	0x3fe67aa2ad8276bd	0.702470148931489
46	0x3fe12cf311b39059	0.5367369981509099
47	0x3fe0bc4dc4a63c77	0.5229863014991584
48	0x3fe4948ab57244c8	0.6431325477480181
49	0x3fe75e71f30211a8	0.730278944611702
50	0x3fe4339ac0babcbe	0.6312993778464244
51	0xbf9baf59a3c8a105	-0.027036095258297105
52	0x3fe5121c07011a4c	0.6584606301119691
53	0xbfdcbc19afe7d39f	-0.4489807336643085
54	0x3fe309c4cccd8bb7	0.5949424743706605
55	0x3fe541ed4b5bbac5	0.6642977210848008
56	0x3fc0771d72cc4e3c	0.12863510232328845
57	0xbfd410eaf2f491f4	-0.31353257871731377
58	0x3fbb6350c08489ca	0.10698418331279594
59	0x3fe1663b6b688775	0.5437295053309145
60	0xbfe25e4fe7d17d11	-0.5740127113057573
61	0x3fe58993d2af68a5	0.673044120306504
62	0x3fe68bb17fdccb1e	0.7045524117769195
63	0x3fe29e76225410a8	0.5818434401012569
64	0xbfe2de4b6694c684	-0.5896355632341543
65	0x3fe40bb0c3a18ed2	0.6264270611686362
66	0xbf918049e6051597	-0.017090944923685205
67	0x3fe4730e8f118d49	0.639045028143678
68	0x3fddbfa6f109e121	0.4648225168125624
69	0x3fe35e9333ac5006	0.6052948006858976
70	0x3fd7230cf739ac58	0.3615143217381891
71	0x3fc04711a629c5ee	0.127168851980556
72	0x3fe7fef69b1ebbf2	0.7498734502495366
73	0x3fe6ac634bf70be4	0.7085434421245478
74	0x3fe7c235c2c8cc40	0.7424572758085404
75	0x3fe6f44a0406fa61	0.7173204497010596
76	0x3fc41a4be77449b5	0.15705250550725017
77	0xbfc0d2c6c03578f7	-0.13143238434981416
78	0x3fe40ffd3c37ebe5	0.6269518066541165
79	0x3fe3705351ce494e	0.6074616048593187
80	0x3fd7894895b9b6d3	0.3677541219866331
81	0x3f9b7ce6ebf7a246	0.026843650963117825
82	0x3fe5f183f31572ef	0.6857318637590576
83	0x3fe55c1ca7885b86	0.6674941322443011
84	0x3fe6bdc5da80d752	0.7106656329767509
85	0x3fc3f68091088c52	0.1559601505442481
86	0x3fe2ce86e4b00ef6	0.587710806518287
87	0x3fb77659bc41799e	0.09164963575447024
88	0x3fe203fef82c4d0b	0.5629877898340124
89	0x3fe66416cd35a60b	0.699717903900081
90	0x3fe5b39c1ba912dd	0.6781750240557717
91	0xbf947c54e0e846ba	-0.02000553724980734
92	0xbfbd7838dc3b9f8b	-0.11511569382457602
93	0x3fe0c6d34bc52aee	0.5242706756483508
94	0xbfd6b64c5df49ca5	-0.35487660575240404
95	0x3fc5dd14df2f4505	0.170809372879866
96	0x3fe42d6573021455	0.6305415388348005
97	0x3fdb1f692793b1cf	0.42379216065344577
98	0x3fe7c42942fe43a0	0.7426954563580814
99	0x3fe287658997a936	0.5790279090263428

fc3.weight f8 [50, 100]
0	0x3fa4ac7342f5c9dc	0.0403781909216325
1	0xbfc43b3119592144	-0.1580563901682216
2	0x3fa2fdb1e4c802fa	0.037091788461117006
3	0x3f9c965bbd826020	0.027917321626404257
4	0x3fbc4c429f4f48fb	0.11053863896748688
5	0x3fc1dd3c41e8dd4f	0.13956406801455976
6	0x3fae5fd9e48e24ca	0.05932503619175973
7	0x3fb39cf81d7d0aed	0.07661390991146862
8	0x3fb50840f2a34428	0.08215719150327117
9	0x3fa02f100c218f3b	0.031609059792371906
10	0x3fa25c8c4d1055ed	0.03586233559341765
11	0xbf7a3a53791fa1b8	-0.006403280322026132
12	0x3fb58d19e847fc84	0.08418428345611245
13	0xbf971db6c5746d40	-0.022574287225421985
14	0x3fa5a037c44fdf7d	0.04223799010645644
15	0xbfb3920ab7032109	-0.07644717186042639
16	0xbfa6f09c481227ca	-0.044804462239951784
17	0xbfc3bf964e0246f3	-0.15428427514103013
18	0x3fb409edaa5db7b0	0.07827649506881929
19	0xbfc2b2fa599c17d3	-0.1460869729564239
20	0x3fa235c830e287fd	0.0355665740655837
21	0x3fb0956f17032148	0.0647801810438341
22	0x3fb096c6f670c549	0.06480067745794317
23	0xbfbef5afdfc82484	-0.1209363862364104
24	0x3fc1d198f1bd372f	0.13920890620868806
25	0xbf8d4e7a84fc6fef	-0.014309842284596612
26	0x3fa52029cf4b1ec8	0.041261011652350243
27	0x3f5a05815dc7787e	0.001588226637174311
28	0xbfa940b52ed7c8ea	-0.04932180592358455
29	0x3fbdbe69ce70e1f5	0.11618672647535518
30	0x3fb79bfe9be9cd82	0.09222403818585259
31	0x3fbecebb15bba879	0.12034196167556556
32	0x3fc3aaa6726231ff	0.1536453302873184
33	0xbf525393cf30f472	-0.0011185592127412017
34	0xbf85fd5304fecd49	-0.01073708399767405
35	0x3f91bc6bca1f18ce	0.01732033177520336
36	0x3fbb48ad1cfff02c	0.10657770116807858
37	0x3fa9aa69deda3bc4	0.05012827725760574
38	0x3f7251cd09a1e966	0.004472542694310943
39	0xbfcc4270d70e15a7	-0.22077761173947616
40	0x3fadd6c006b7c19a	0.05827903825764054
41	0x3fb37c0ba42d48aa	0.0761115337202535
42	0xbf9bcdc55a198c09	-0.027152141212706513
43	0x3f833665867b5c0c	0.009381096998749804
44	0x3fa5e34c7ba03c00	0.04274977692704596
45	0x3fb098ea5d195f87	0.06483330510070405
46	0x3f682ef5e7bc69d8	0.0029520800434401466
47	0x3fb43c6beca76962	0.07904696014103288
48	0xbf9eabbfb630d7df	-0.029952044959109855
49	0x3fc30e049a09e61c	0.14886529466075238
50	0x3fab759c67573b76	0.05363167535289552
51	0xbf9ed25bcd833d1b	-0.0300993293938606
52	0x3fbf30b3c2396408	0.12183688632775624
53	0x3f9c6a522c1161ae	0.027749332370463335
54	0x3fbe67389b8ac120	0.11876252934849107
55	0x3fb7e2dde22fa9ff	0.09330546161769603
56	0x3fbb8a33392f2593	0.10757751604173497
57	0x3fb14bcb82d567a3	0.06756278938465114
58	0xbf938bb47d3c7d25	-0.019087619918647953
59	0x3fac369d6f08758e	0.05510417919524989
60	0xbfc0e040aa2923be	-0.13184364613178262
61	0x3fa7746cab07d965	0.045810123327032305
62	0x3fc309fe9e234427	0.14874251100130317
63	0x3fb46ae9f550cc41	0.07975637663985059
64	0xbfccc12dc526896f	-0.2246453488015265
65	0x3fc0fed17a91fbfa	0.13277643666148703
66	0x3f72de9f5f3b6ca5	0.004606840655209475
67	0x3fb954e32977661d	0.09895152819026305
68	0x3fa5772e29e4d5d4	0.04192489873313901
69	0x3fc1b7973ac024d5	0.1384152447574595
70	0x3f8cd9cfb1b28deb	0.014087317095181148
71	0xbfb21b13be9e2ea5	-0.0707256641746264
72	0x3fc3a560923dd5eb	0.15348441258144815
73	0x3fc0910215d8323d	0.1294252974188498
74	0x3fc48f36ef142fd6	0.1606205623032781
75	0x3f80ba31498ef1c0	0.008167634064982887
76	0xbf97e7418bae96ab	-0.02334310927439868
77	0xbf810402da8f3977	-0.00830843190661022
78	0x3f97d860dcf3fb4a	0.023286355482010003
79	0x3fbd0b91f48583d8	0.11345779628528818
80	0x3fb586ac3ed30c22	0.08408619436072276
81	0xbfb54d31ee9d7db1	-0.0832091529423369
82	0x3fa9883e08224653	0.04986757134714694
83	0x3fbebe3930ae13db	0.12009007872082071
84	0x3fb86c31a1b5cbdb	0.0954009074974204
85	0xbf657aee0fc95ca1	-0.00262209412020871
86	0x3fbc65808994f355	0.11092379912311164
87	0xbf928246c8eaa292	-0.018075090420696834
88	0x3f9a66cf1a3f6453	0.025782810189273708
89	0xbf9a06297ba13499	-0.025414131327398868
90	0x3fb8c0a3dfd87943	0.09668945517521359
91	0x3f7e5ffd83582462	0.007415762219815299
92	0x3fa83d117e73e3c4	0.04734091442691793
93	0xbfa9d421039f9434	-0.05044654053907785
94	0xbfc1295640e6b387	-0.13407400292399194
95	0xbfb8bf706e72509c	-0.09667113014649192
96	0x3f703ccb8d7e2e1d	0.00396422875190752
97	0x3fbeb1fdef172208	0.11990344130675379
98	0x3fb89dce87be5b4e	0.0961579400449015
99	0x3fa24b6764507c54	0.035731535907182504
100	0x3f90f7ac3902f507	0.016569796542843764
101	0xbfb7bd602b307a84	-0.09273339323451962
102	0x3faab14a4ee55d60	0.05213386738858605
103	0xbfb74a9e78bdb0df	-0.09098234603669962
104	0xbfb9be52a95aaa5c	-0.10056034693358512
105	0xbfa24a7ce634a165	-0.03572454748274615
106	0x3faa0a3f4e9363df	0.050859430639043295
107	0xbf950c40597b9965	-0.02055454775008893
108	0x3f8dd7c6c5ddc34a	0.014571717179678995
109	0xbfa07b0161073e1d	-0.03218845662524592
110	0x3f826fbae9b47bdc	0.009002170807944347
111	0x3fa9b288250fb4ea	0.05019021465691671
112	0xbfb0f6f2ca5c0627	-0.06626813354889603
113	0xbf932d486c673f07	-0.01872742807046193
114	0xbf7ee94450d68e07	-0.007546679361812198
115	0xbf92d81ec7847f57	-0.018402558257661763
116	0x3fb3ce7641d2ada1	0.07736910922056107
117	0xbfb2e706901fb9e9	-0.07383767145777366
118	0x3f8c3332fdaa325b	0.013769529691921514
119	0x3fa9e159f61071c4	0.05054741982187097
120	0x3fb3b67e1e92e184	0.07700336691312343
121	0xbfc1aab64f3af7dc	-0.13802222126645247
122	0xbf8d9650cd4326e3	-0.01444686056528916
123	0xbfba387bd3ff2ea1	-0.10242437291815999
124	0xbfc0bb5a099a3c1e	-0.13071752041693768
125	0x3fab1f2511b16f52	0.05297199097614559
126	0xbfa18e1e0fd0f845	-0.03428739493436742
127	0x3fa7b8a5e3e08723	0.04633062750532548
128	0x3f93ff02c33e9958	0.019527476469784005
129	0x3f75f7fe472d1a99	0.005363457940637994
130	0xbf9314758627573e	-0.018632732689943803
131	0xbfb86f12fb432c27	-0.09544485697112802
132	0xbfbca531cd8c395b	-0.11189566868072147
133	0x3fbd6a83cbb8dd8e	0.11490653728184538
134	0xbf75670953d2388b	-0.005225216326961167
135	0x3face37d323f250c	0.056423103698373195
136	0x3f7f3264f34a1dca	0.007616419160178587
137	0xbfa281d1d469df0b	-0.03614669530810318
138	0x3f9a52df52e73dc2	0.025706757960333844
139	0x3fb9a07f6cebd937	0.10010525140009895
140	0x3f913414fb6c22f5	0.01680023941574667
141	0x3f7483409a77920c	0.005007984501820061
142	0xbfb9470a37fabbcc	-0.09874023310361152
143	0xbfba422a224e520e	-0.10257209146067955
144	0xbfa89c1b0dac96c1	-0.04806599180146299
145	0xbfc0a8a42ccb9d19	-0.13014652430795406
146	0xbfaed1b62e62a082	-0.060193722879660974
147	0xbfb5cb747853b7e6	-0.08513572633430008
148	0xbfb53dd6c678b207	-0.08297483773703372
149	0xbfa32dad3faddbf4	-0.0374578609689066
150	0xbfab99338db3ea22	-0.05390320877809908
151	0xbfa22faf66491232	-0.0355200588569783
152	0xbfc08cf3ce7ac546	-0.12930152494440444
153	0x3f8280a64d9e6b71	0.009034442180384268
154	0xbfbd808185b537ab	-0.11524209513046794
155	0x3faca7d294bf358d	0.055967884690839666
156	0x3fa00b3d5de7aa5f	0.03133575221348361
157	0xbfb9080eb3619b16	-0.09777919654298403
158	0x3fae03ef9d655255	0.05862377926192567
159	0x3fa478985e26020c	0.03998256825707722
160	0x3fbc34e1336bbaee	0.11018188004866733
161	0x3fb6d17759144a3e	0.08913370060717171
162	0xbfb7769937f998f8	-0.09165341965271867
163	0xbfbfdf35f823f147	-0.12449967678179973
164	0x3f993603f3036095	0.024620115001056837
165	0x3f9a63e01bba3929	0.025771619503353414
166	0x3fafe21892f7197e	0.06227185052880467
167	0xbfb709b320854b92	-0.08999175590478917
168	0xbfa2dbb8185175ad	-0.03683257386067438
169	0xbf93aeed5a8960de	-0.019221981669347403
170	0x3fa1f8f8c11def89	0.035102628301472434
171	0xbf76a1197c262e06	-0.005524730253806625
172	0xbfa1d6f23b0acbd7	-0.034843034465118876
173	0xbf8c94fb4ff4c7f9	-0.013956035020417078
174	0x3fa818613c57b532	0.0470610033188258
175	0x3faaa41afdae247f	0.05203327509577437
176	0x3f80bf366640c89a	0.00817720889617517
177	0xbfa0094c68623b0a	-0.0313209416791463
178	0xbfb2380c98fbe173	-0.07116774306257927
179	0x3fb1c1a71eb1c60d	0.06936115741134348
180	0xbfc1cd26ac457894	-0.13907321368873637
181	0xbf58f93152d8985d	-0.0015242559123947099
182	0xbfbf9410a648eb5e	-0.12335304317177306
183	0x3fabf930a83cc96a	0.05463554433517255
184	0x3fb3586d2a41316c	0.07556803018196029
185	0x3f89671ef98bb621	0.01240371893933473
186	0x3f8ab2370c43fab7	0.01303523069554778
187	0xbfaf2e73e9040451	-0.06090128154210873
188	0xbfbc0617000e7eba	-0.10946792365438798
189	0x3fb1b467efe831ab	0.06915902716736493
190	0xbfb13854d7d8ef67	-0.0672657992335509
191	0xbfa94afcbdeeb8ce	-0.04940023249160817
192	0x3f9f9a10568cc273	0.03086114433534921
193	0x3fa2ea7517765392	0.0369450179233929
194	0xbf722f286544a855	-0.0044395044281292
195	0x3faf41844a69fedc	0.061046728214021434
196	0xbf558bf91ff02798	-0.0013151104792563425
197	0x3fb53bb431d5b2a4	0.08294225899380564
198	0xbfbec6411231bf06	-0.12021261877248088
199	0x3fb7fca4f0ae0efe	0.09369879604315298
200	0xbf7be94d3ebca252	-0.006814290751016987
201	0xbf8aba2c23dc7355	-0.013050408214945778
202	0xbf8f68e37745f090	-0.015336777760915049
203	0x3fb46a3258328d9f	0.07974543240793829
204	0xbf9cd2ef073f130b	-0.02814839822510166
205	0x3f72d4a81f75aaa5	0.004597336511646209
206	0xbf7aa22a84b9da92	-0.006502309882867723
207	0xbfb7243fd0039f3d	-0.09039686993093894
208	0x3fa5231a4b1ba811	0.04128343741270169
209	0xbfb1a0c9277cc231	-0.0688596459774622
210	0x3f6121331691c2f6	0.0020910260978371743
211	0xbfb1d252dac4f4a0	-0.06961553422020694
212	0x3fb1c2c0fe997c4a	0.06937795844849962
213	0xbf9b14e1e1770288	-0.026446847330364537
214	0xbfab39593799afca	-0.053171909367705064
215	0x3fa29a72a4c6e150	0.03633459340511769
216	0xbfa727c7aac6827f	-0.045225371929750395
217	0x3fab4aad16f7bd78	0.05330410867088181
218	0xbfa4cd92cf8a4619	-0.040630901178826125
219	0xbfb5e3153403da0a	-0.08549625892542437
220	0x3fa28e4384d8d0c6	0.03624163624445624
221	0x3f896c25c28f66e3	0.012413306236271853
222	0x3fa194e5f34341f6	0.03433912844196023
223	0xbf9ec497bfb7f408	-0.03004681689889213
224	0xbfa1da20a6677d2e	-0.03486730605413367
225	0xbfb310748e8c1900	-0.07446983795316342
226	0xbf9989856a9585f9	-0.024938664083839133
227	0xbfa112c5c0d9f1a0	-0.033346347609924054
228	0xbfb5d2f75a72f062	-0.08525033910967886
229	0xbfa84e35cc48fef8	-0.047471696078444425
230	0x3fa72c88f726428d	0.045261650247202835
231	0x3fb37b97e595bf2e	0.0761046348104599
232	0x3fa41a2bd7a82231	0.039262170863427655
233	0x3fb72cb0b2fe910c	0.090525668811612
234	0x3fb2bdc66a4940a1	0.07320823759914898
235	0xbfb3983940db2893	-0.07654149850273688
236	0xbfabc01a34db7eac	-0.0541999997637935
237	0x3f612c497f19975c	0.0020963130453307954
238	0x3f91d3b10685062b	0.01740910150807033
239	0xbfb6c375f98dae71	-0.08891999571431498
240	0x3fb5bbc3c1119e35	0.0848963114127564
241	0xbfa8eaf2e0204618	-0.04866751657403884
242	0x3fad78a7dde302d6	0.057561155162607555
243	0xbf8d46f21e0511ba	-0.01429547456849255
244	0xbf938188d309ad43	-0.01904882228920469
245	0xbf9567749e4c9df1	-0.020902464067288965
246	0xbfaa940f4cd92230	-0.05191085637176618
247	0x3f9aadb9679a9454	0.02605333037231035
248	0xbf7933a5df7da2fb	-0.006152770940254677
249	0x3fa07a2706f2eb89	0.032181949232344804
250	0xbfb8d68fd2d8752d	-0.0970239534148802
251	0x3f91fed7c62a692c	0.017573710889885394
252	0x3fa11e24873fb454	0.033433095464581314
253	0x3f98aebb2eb27ce0	0.024104046559497827
254	0x3fb7f22e2b8fd004	0.09353912890929911
255	0x3fb0e979566317f5	0.06606253012714076

fc3.bias f8 [50]
0	0x3fe5a6aabc7121fe	0.6765950851923319
1	0xbf8d5e630f538dd3	-0.014340185075019917
2	0x3fb09d28fc350cb2	0.06489807279017404
3	0x3fe152158a9e3647	0.5412700374014968
4	0x3fe3bbf4d40e8708	0.6166938916905744
5	0xbfaff56e4e505fc9	-0.062419364032563936
6	0xbf95c38dc05fa879	-0.021253790728146236
7	0x3fe646540dabd5ef	0.6960850016609451
8	0x3fe3ae17944f9205	0.6150014778800715
9	0x3fe3686cdcfd3cb0	0.6064972225375609
10	0x3fe8ba58f3d504c6	0.7727474939676078
11	0xbf9ce7584598fb3e	-0.028226260421656983
12	0xbfb263842bc075f8	-0.07183099811705762
13	0x3f9779e028d62b12	0.022925856106250704
14	0x3fe24f1dd0d9c0b0	0.5721577719796382
15	0x3fe297bdbff49ad2	0.5810230969553578
16	0x3fe4352fa8119bfb	0.6314924509614451
17	0x3fa253507097ac77	0.03579188703937402
18	0x3fa67d18bd0ac3a2	0.04392316157953437
19	0x3f76692a68cbd4ed	0.0054713875404008685
20	0x3faa3d2c81fd6407	0.05124796950139659
21	0x3fe4cc86fcaa5b5a	0.649966710555286
22	0x3fdbf937eea8b7b0	0.43708608919666414
23	0x3fe622d90c6fae91	0.6917538874526646
24	0xbfb298cf0fa08f99	-0.07264417773745747
25	0x3fe4acf17fdc006d	0.6461112496617837
26	0x3fe1b2be21c7166e	0.5530691776009016
27	0xbfa6765e5df6a27c	-0.04387183091177335
28	0xbfa7d7aba8675c84	-0.04656731062612443
29	0xbf8221d8f0ce4a0b	-0.008853621338663428
30	0xbf8bfe7a09f3db12	-0.013668969563224862
31	0xbfb2d82303b35e9b	-0.07361048546169473
32	0xbf7d5aec8b95af12	-0.007166790013211759
33	0xbf905170df8de448	-0.015935672421140162
34	0xbfb737337a9b610a	-0.090686051781976
35	0x3facab8f527c91e7	0.055996397799649426
36	0xbfa956064201f135	-0.049484439427916284
37	0xbf68779437f63640	-0.0029867072004836903
38	0x3fe69108dd2249eb	0.705204421903827
39	0x3fe4d10085414f35	0.6505129435194933
40	0x3fe43be255876b52	0.6323100729453961
41	0x3fa77aa9d2c9ac96	0.045857722264224396
42	0x3fd77ef15108bb09	0.3671229640339538
43	0x3fe380d438b2baed	0.6094761950861006
44	0xbfe29d1215732f94	-0.5816736620849832
45	0xbf84dee70de38430	-0.010190777884817676
46	0x3fe27aa028b7f7f9	0.5774689479146665
47	0xbf98d6a150943660	-0.02425624899210843
48	0x3fc9d7bd94d1eb84	0.20189637915231284
49	0x3fe7f49feccf6eed	0.7486114144516854
