weights/numq/gspc/correlation/highlow/numq_4.pt (torch, 526847 bytes, 8 tensors)

fc1.weight f8 [200, 200]
00000000: b055 0abc e2ef aabf d5e0 d68e 55e0 9d3f
00000010: 7676 a623 17b5 6f3f 2cfc 7c25 5676 ae3f
00000020: 765c 3291 6e70 aa3f f702 2c22 92f6 733f
00000030: c809 2199 5286 a5bf 9508 2084 d14d a23f
00000040: cd1a 7fbf fd87 53bf 81fe cb62 a992 9abf
00000050: 28f0 b3e2 3340 a3bf 77de 68a5 c99b adbf
00000060: 8fc1 6bf5 7a16 ae3f 7755 1d96 2b6b 9d3f
00000070: 349f 4d63 3681 88bf 9c9f 7acf 285c a93f
00000080: ea43 46fd 9443 a6bf 955a c1c6 d701 a1bf
00000090: 4b8c a590 320e b2bf 9623 fd19 44c1 84bf
000000a0: 9687 b3e5 2c94 a4bf b8f1 674c 11bb afbf
000000b0: 1c4d a7c6 8b34 8bbf 371d c9de 236d 8dbf
000000c0: 40ad a527 c09d 9b3f 1f53 2e75 e704 a03f
000000d0: 5d2a 42f1 2db2 90bf ac6f 4dee de53 703f
000000e0: 8b4e d41e 0bdf 9fbf df81 9e09 bb4c b43f
000000f0: d3b2 bee9 26e2 a5bf d059 2e30 4858 9d3f
00000100: 0102 3a9c b70c b63f 5093 4dfd 5086 b1bf
00000110: 6863 4f64 6d0b a2bf 23db 7735 5d7a b5bf
00000120: 1fe8 22ff 61c8 a33f 055d 223d 4a96 923f
00000130: d17b 5f7f 4dc2 a83f 16cd 5955 6380 963f
00000140: 1998 87d8 6eb4 ac3f 1b92 1d53 0270 5d3f
00000150: 48f1 ce5e 8e62 a93f 8051 3a44 94d4 8d3f
00000160: d55b d5f4 9c66 a5bf b119 75a0 2a94 b33f
00000170: a410 77fe ea73 a5bf f6c8 5030 c9d9 75bf
00000180: a642 9f42 4e57 8abf 0b45 6126 efe9 433f
00000190: d76a 2662 ee4f a33f 1b7a cedc 3f12 993f
000001a0: 1b30 e96e 40c3 9fbf 9a74 f22a 1c2c acbf
000001b0: 9977 5553 0a9b 8dbf 3402 1d5f 03bc b53f
000001c0: 6660 ede0 5b12 70bf da05 46e1 abf9 a4bf
000001d0: 6f36 f7f5 b04b 8d3f a774 8ba8 66e1 99bf
000001e0: e6b8 a6b9 f917 74bf 75e2 916f 9a55 933f
000001f0: bb4b 73fd 8e76 ae3f d783 429d 1d3d b4bf
00000200: 9c7b f5fe 22f3 a03f 4465 a029 6c87 a13f
00000210: 1dba db54 cc8d 453f a40e 2d32 9472 b13f
00000220: 5a91 66a0 47c2 9abf f94d 045d 56db 843f
00000230: 4edb eed2 76c7 a9bf 81b1 9f52 3b58 923f
00000240: 45e2 0fd5 1e1f ab3f 024a ea69 fce4 853f
00000250: 18ac 3f78 6911 963f 8b56 358a c388 adbf
00000260: d563 bb67 2050 813f d87e 2e9c 6964 a43f
00000270: ba88 945a e2a1 983f 558a bdf1 1d34 a53f
00000280: 657d a26e 083c 9e3f 259d f288 8f17 7e3f
00000290: 5f61 117f 1d2e 79bf 239e c067 a743 ae3f
000002a0: 6ce6 17d2 333f 89bf 9940 8afe eb8a 98bf
000002b0: d59b d1bb 9775 893f 1583 48ab dbeb a13f
000002c0: 2db8 973e b009 b33f 5a4f 5280 964d 96bf
000002d0: d42b 19f1 1af4 b13f 5c2b 4ebc 1b65 acbf
000002e0: 16c5 bac8 1ba6 90bf 94ca baee 51b0 a23f
000002f0: f192 127c 5b29 743f 1a83 3584 1e9d 5abf
00000300: be04 ba36 c3e8 93bf 633c 3b9e 3e5d af3f
00000310: 68dd c0d8 8eca 8f3f 55e6 fee2 dc99 9dbf
00000320: 47c9 375e d08a 763f 436b e587 2c53 a7bf
00000330: cbcf 88d2 0924 b03f 0539 cca6 228a a13f
00000340: 924b e60a d154 7bbf b586 e34a cc58 923f
00000350: 85eb 9ee1 3aaa b13f 7bec 673b 18b2 8b3f
00000360: 48dc bfb4 fee0 b73f 1833 646e 6239 a63f
00000370: 52d1 fabd 4b4b 223f f2ab aec7 2ea5 863f
00000380: 6f3e 2ede f417 b63f 5846 649a b5d8 a23f
00000390: e65a 19b1 f18e 963f 9cbb eeec 39fb 67bf
000003a0: 6959 860e 32a0 a83f ffbc cdf3 311e 643f
000003b0: 40e1 b80c 0245 a83f 175f bd5d 37f1 8ebf
000003c0: 0637 afec 1c0a 903f 0443 da60 68ec b2bf
000003d0: 1b27 234d 270a b53f 132d 1e07 3f20 903f
000003e0: 1871 4b18 5c8f a03f 5d91 4aaa 1e88 b23f
000003f0: db76 8f1d 1f0c 97bf f7d3 2717 d5e1 483f
00000400: c519 b921 551e 823f c006 1f61 edbd a43f
00000410: e767 95b2 465a 733f 2f35 c29e 4df6 89bf
00000420: 217e 29a1 4591 afbf cd6c c603 37ad 893f
00000430: c003 c46c 4836 9abf a991 d4e8 ffd9 62bf
00000440: f3f0 3c32 ffe0 9fbf 7dfd 738f d5fa af3f
00000450: d924 42d1 f806 a03f 6305 f138 83dd b33f
00000460: 2fb6 7013 62c6 87bf a8ca b61e 6385 a1bf
00000470: b08f 0c17 97f1 9bbf 42fe ab67 c4e5 863f
00000480: 738d aae7 2758 94bf 791e c0d3 b5c9 97bf
00000490: 2c60 e331 9c23 9a3f edcf 21c3 62ce a6bf
000004a0: bbf1 c977 fb99 a33f 3409 d6d6 0adf 893f
000004b0: 3ec9 2e31 908b 823f 7b95 8829 9bfa 82bf
000004c0: 50a6 5a25 bbfb a23f 4461 3a7b e877 9d3f
000004d0: 9b89 24e1 34e3 b43f 706b 8d47 b1f5 a3bf
000004e0: 42e7 5d9b f3bf af3f a705 9ab2 0797 98bf
000004f0: 23ed d3d5 537a b13f 2fda 00f7 0ba9 a33f
00000500: 1053 297e 22fa 90bf fc86 7f62 dc5f b03f
00000510: 7623 50c5 45d5 92bf 3bb0 8859 cd76 943f
00000520: dc89 f2c3 eff9 94bf a5eb 11fa 52ed a3bf
00000530: 4f15 99ca 9aa6 8bbf 4402 e4db a496 92bf
00000540: d45f 9190 b005 99bf 3608 b59d d4d7 89bf
00000550: 77c1 421d 9d9a 7dbf 09cd fa6a 2cea a1bf
00000560: a9a6 6c3d 2a6e aa3f a517 8ac4 0e04 a83f
00000570: 4782 85c6 800d 99bf 09d4 d3be 498e b2bf
00000580: 1933 cc1a fe7a ba3f aadd 7d11 fb1e a2bf
00000590: 6bf7 5f1e 6e4f 9c3f 6d31 e273 2413 93bf
000005a0: d749 6437 5c8c 84bf 4828 966e 6231 a5bf
000005b0: 9469 42bf 5be5 b53f 5aa6 9a48 6a94 b63f
000005c0: 26dc 4748 704e 933f c2b5 7030 df34 b33f
000005d0: e5b5 1d45 92fe a03f 1b4f efb9 51fa 9ebf
000005e0: 60a6 4695 ab08 b33f 882c 7682 0714 b83f
000005f0: 1ed0 2a72 92b9 533f 6322 2347 e766 59bf
00000600: 0dc7 bc94 9046 863f f575 eef5 0cde 793f
00000610: 427a 6ebd f121 adbf 3024 f08f 506a 993f
00000620: a2a4 fa80 c1b8 9c3f 2bd9 72a0 b541 af3f
00000630: 7d95 d490 643b a93f bd63 f9a5 2a90 a43f
00000640: 3aa5 1121 3259 b43f 5adf afcd 1774 84bf
00000650: ec11 5394 a055 af3f a580 c212 72ac 9cbf
00000660: b1e4 7052 f0ac 7abf 84a5 7542 70b8 a5bf
00000670: 344a af46 f98b 9a3f ee62 0faf ab1b a4bf
00000680: dfe8 2590 6894 b33f 325c 1314 854b b0bf
00000690: 2178 e5c3 883f 903f 04d3 4e36 b8fa a9bf
000006a0: 6d80 bd51 80dd a23f 7bd5 e1de 66f2 90bf
000006b0: d249 8817 42fc a7bf f792 5ba7 915c a63f
000006c0: 9877 d885 a9e1 983f a83f 0bfd 341d a43f
000006d0: 2fcb 127c 9406 b13f 27ed 6a6d d5d6 a43f
000006e0: 2683 b494 543f 83bf bfc2 d650 3398 b53f
000006f0: 8d75 f93c cf8e ab3f 93e3 6b0a e3bd 993f
00000700: 9c96 746e 50bb a5bf b3c2 4e91 cee3 77bf
00000710: a28d 93dc a901 b03f 7f50 d185 ed3d ad3f
00000720: c353 16dc 86b8 94bf 313a 6a24 1ff4 943f
00000730: d41f 4046 31e5 9abf dae8 8cd5 d9a2 a8bf
00000740: 9acd d40c bb60 a7bf 7174 9ad7 e1e3 a93f
00000750: 94bf 55f5 ee6d 9a3f ed7f 1667 f2dc 78bf
00000760: 4793 b2ad 5a11 a53f f70a e310 42ee 8d3f
00000770: ce3b bf57 1f71 863f 4269 1500 e59d aa3f
00000780: 83de 5d14 5862 56bf 1577 9dc9 0d60 a13f
00000790: 8c7b f421 3acf a53f f561 9e42 28e3 74bf
000007a0: accf f9c8 db48 a53f f955 1435 6b03 b1bf
000007b0: 0700 7202 061f 963f 71e5 35c9 1480 b1bf
000007c0: c712 2796 8838 973f 322a 6cc2 b207 a2bf
000007d0: 267d cf20 972e 9b3f ea94 74e8 7052 a9bf
000007e0: 9d75 1e91 51c9 a4bf d1a9 032a 2c75 b53f
000007f0: 2837 8747 cc69 643f 43cd 6195 ed06 683f
-0.05261143250860856 0.029176079600546984 0.00387053031336287 0.05949658591861637 0.05163903734608592 0.0048738201464863995 -0.04204042548419157 0.03574995744567492
-0.001192090798200307 -0.02595009484775668 -0.037599202560130884 -0.05782919067536068 0.05876526113377444 0.028729134595172092 -0.011965203195088848 0.049531245543504826
-0.043484359662336505 -0.03321718503200547 -0.0705291369572915 -0.010134250681987738 -0.04019298843355938 -0.061974087311657156 -0.013283817291187598 -0.014368324505211845
0.026968958301421653 0.03128741555625524 -0.016304700708625542 0.003986235450465541 -0.031124280697510314 0.07929581627696035 -0.04274102786380287 0.02865708154748764
0.08613154949308212 -0.06845575508266433 -0.03524343347061781 -0.08389837794662162 0.03863817443330241 0.018151435834252733 0.048357412146053165 0.02197413643302778
0.05606409447845823 0.0017967245771269905 0.04958004863098836 0.014565618831775096 -0.04179850090684282 0.0764795915357357 -0.04190000873816871 -0.005334649938094174
-0.012861834915299863 0.0006077211117007387 0.037719201546868746 0.024483678676569292 -0.031018263596976774 -0.05502403282410136 -0.014455872219226328 0.08490010330297865
-0.003923758412234779 -0.040967341660699666 0.01430452585818928 -0.02527389911380298 -0.004905677308143041 0.018881238040622656 0.059498279989973445 -0.07905755128241708
0.03310498583117935 0.034236316758504276 0.0006577727997106351 0.06815458512306322 -0.026131743588522972 0.01018397780766288 -0.050349915741597515 0.0179147023372237
0.052971805103827076 0.010690662367129459 0.02155079647483768 -0.057684050198685353 0.008453610578202412 0.03982858687890961 0.02405503919465766 0.04141324592525978
0.02952588248501566 0.007346687968641495 -0.006147494526054536 0.05910990849980304 -0.012327580307999152 -0.023967444811717618 0.012431321543955246 0.035002579363441345
0.0743665840925309 -0.02178034933292792 0.07013100038709236 -0.055458895431988536 -0.016258653761444718 0.036501465217402856 0.004922253953883114 -0.0016243742000698392
-0.019442606177567205 0.0612582748559525 0.015523067464626464 -0.028907252649992127 0.005503477037097255 -0.045556441868674934 0.06304990186691765 0.03425701414208685
-0.006672684261860422 0.01791686255535892 0.06900375374145369 0.01352328234951571 0.09327690041378489 0.04340655896712614 0.00013957309328350515 0.01105724856264165
0.08630304741222415 0.036809611412661425 0.022029663500087525 -0.002927411208893683 0.04809719493202886 0.0024558044082635395 0.047401489308358524 -0.015108521030625916
0.015663577982016917 -0.07391979565205636 0.08218618043170205 0.015748009499970083 0.03234374805990309 0.07238952310087172 -0.022507177523826676 0.0007593431931228735
0.008846917239805028 0.04051153002320751 0.004724765932531106 -0.012676817328861915 -0.061655212329011506 0.012537412455279196 -0.025597697866945657 -0.0023012159569068724
-0.031131732407843903 0.06246058822761833 0.03130319170402069 0.07759876384900148 -0.011608854501981984 -0.034220788478156294 -0.0272887809579882 0.011180433667958959
-0.019867537989410388 -0.023230401086065975 0.025526466889317742 -0.04454334861739526 0.038284166691457476 0.012632450753475945 0.009055258274973551 -0.00926705570698049
0.03707680541021985 0.028777725716822702 0.08159189697884132 -0.038983860001016946 0.06201134940688614 -0.02401363399122194 0.06827281923681432 0.03839909925629958
-0.01657918829944821 0.06396272091617655 -0.01839169518283109 0.019984444226949654 -0.020484682402306706 -0.03892001440632179 -0.013501366908836103 -0.01815278617960049
-0.02443576700565571 -0.012618695319023581 -0.007227529266103586 -0.034989727076572726 0.051621742246721176 0.04690595769083864 -0.024465572468559207 -0.07248364361642258
0.10343921808471314 -0.035392614255154456 0.027646751979765776 -0.018627709935161208 -0.010033340874120817 -0.0413923988335943 0.08553098124904174 0.08820213577805572
0.01885390702406311 0.07502551014541495 0.03319222539617409 -0.03025176713329279 0.07435104746277821 0.09405562338922568 0.0012039117943176757 -0.0015504129956288796
0.010876779116731261 0.006315279605499925 -0.05689959943196189 0.02481962088134909 0.02804853772855565 0.06104819854356188 0.049281256370060846 0.040162403831977646
0.07948602015826092 -0.009987054791039607 0.06120015917398178 -0.028001577754026247 -0.006512583501767797 -0.04242277919076812 0.025924582423451706 -0.03927361022915031
0.07648328322639796 -0.06365234127166344 0.015867363888325884 -0.05074096358240435 0.03684617040448832 -0.01654968963017243 -0.04684645211468176 0.04367499511662303
0.02429833297184522 0.03928533162036213 0.06650665310989433 0.040701551062250645 -0.009398136890526109 0.08435364459615878 0.053823925202531965 0.025138423453401847
-0.042444718821838395 -0.005832487969130429 0.06252538333097005 0.05711309679523512 -0.020235163863236993 0.020462500188438596 -0.026264924919843072 -0.048117453878562436
-0.04565987140304202 0.05056672818066311 0.025809987758691103 -0.006070086369987832 0.041148027137103464 0.01461459745440184 0.010957951417280311 0.0519858896829697
-0.0013662204887320568 0.033935957776277594 0.042596642155550674 -0.005099446550865573 0.04157149151151826 -0.06645841642269791 0.021602720164537483 -0.06836061394087324
0.02267659584483075 -0.03521498320886386 0.026544915559381675 -0.0494571002730398 -0.04059843918296766 0.08381916070690144 0.002491854651657816 0.0029329910567469654

fc1.bias f8 [200]
00000000: da11 4cb0 4b48 c03f f8bd 325f 5cb1 c03f
00000010: 38f6 cd5b aa81 ac3f e0e0 dc51 f573 ab3f
00000020: dea1 bd7c 02ef be3f 37d4 8003 6874 c03f
00000030: 361e 8daa 6a6f b53f 676f 9e0d e7a3 b73f
00000040: 000d 9387 6e44 b93f bb55 4867 0760 b63f
00000050: 30d2 1a94 6ca3 ac3f e998 20a8 3617 bb3f
00000060: de5a 6cb6 4108 a03f 1412 6f9d f3c9 b13f
00000070: d302 2f0c cc2f b03f 0af8 de3f cce1 a83f
00000080: ee85 a020 e6ae b43f ec89 ce77 4794 b83f
00000090: 72ca a4fe 19f9 bb3f ad56 8828 9149 aa3f
000000a0: 5d85 9c53 55f8 bb3f b102 f845 bc00 b73f
000000b0: 8f90 f16d 2a07 a73f c854 e61a e934 c03f
000000c0: 09bf ab41 34fa bd3f f2ba 41af 76b1 b43f
000000d0: 763c d6bc e278 b23f 8d19 4456 48cc bc3f
000000e0: 60d9 e994 d87d b93f 2048 bab5 34e6 b73f
000000f0: 1beb 7efb 61b4 b03f 1b3a d4b9 936e ad3f
00000100: 6ce5 4ec7 cd7e ba3f 001f 3930 04d6 bb3f
00000110: 3480 7f80 84ef b23f 24e7 89c2 18b3 a03f
00000120: 6ca4 5d3b 5f4e b83f 7826 ce5b 889e b93f
00000130: 537e b3ba 1814 af3f bafb d2e5 7cc4 a03f
00000140: cc2c 6881 a869 b23f 566a c837 3131 aa3f
00000150: e599 df3b 8c71 b93f 7302 f60b de27 b43f
00000160: d91c caf6 f814 6e3f ad81 8e8c c059 ae3f
00000170: 4c24 9222 4284 b73f ba0d 7903 ed7e ad3f
00000180: 1db1 e5d0 f574 b23f 70bc 77bf 5f8b be3f
00000190: 838f 99c6 a8d2 a73f effa bf10 7b36 c03f
000001a0: fd4a c367 c8b4 93bf 6f3f dca1 1378 bb3f
000001b0: 1ac6 fb6f 3206 b73f 0752 fc28 f410 973f
000001c0: 980b 0b53 95bf bb3f 51b0 96ec 4c10 c13f
000001d0: 3686 25a3 65ed 933f 8164 f44e 2c50 b13f
000001e0: f72e eda4 25b1 a43f 2552 f4a7 9b57 b63f
000001f0: 663e 79c6 4ddc b13f 3437 8b27 90ea b33f
00000200: 4ac3 a33d a311 ac3f 0157 1b5d 0899 b03f
00000210: 7072 4527 e656 8e3f 5072 13b7 8897 b03f
00000220: e6af 6bac 4a6c c03f 34df f0f1 33a8 ac3f
00000230: e7ee 7b25 356a a83f 0c02 7249 94ab 9e3f
00000240: ac30 9513 7e26 be3f 40c4 a7ec 2b2c ae3f
00000250: 9df6 18ea db8c 993f 658f 7489 8900 b43f
00000260: 0481 3ab8 63bd a03f 46cb 5edd 292a aa3f
00000270: ae2c d7c1 549e b53f 8f63 201f 2e01 b53f
00000280: fe4c 3d72 068d ba3f be7e b44d 23ae b03f
00000290: 393a a164 4fe1 ae3f 1ec0 6e5d f429 b73f
000002a0: 654e e105 57d7 b63f eb67 8dc5 b045 a03f
000002b0: 970e f2b8 b1b6 c23f 9113 0534 0145 b03f
000002c0: ad86 22b9 b619 9a3f 7f2e a7a3 31f0 b63f
000002d0: 5a9f dc68 0572 b23f ee31 b15e 9d03 ba3f
000002e0: 5699 e820 1387 b03f 3f83 3a89 a034 ba3f
000002f0: ae6d d8cf b12b ab3f 3eb0 81b1 3ee2 a83f
00000300: b98e 4223 7798 a43f cf83 dd2e 74a5 b13f
00000310: bfb4 e492 feff a73f fc95 a998 2d4b b13f
00000320: 902a d90c 6ca4 b33f 638d 8afd 8a84 b23f
00000330: b5ce 9b82 ee42 a23f 16f2 5887 8bd8 b53f
00000340: eab9 9132 95fa b73f 233d d0bb e8bb b03f
00000350: 801c 144d 076c a03f 323a 8315 126c bf3f
00000360: d748 0094 d469 bf3f 30ef 7b55 91e1 b33f
00000370: f53b be60 ea34 b63f b68f 0d8a 5449 a33f
00000380: c9de a903 42b1 993f 9697 7984 8728 a03f
00000390: 2532 a4f2 189f b13f 418d 6e28 b9f9 953f
000003a0: cfe3 2404 61f8 b13f 4ef3 2e83 bd16 b23f
000003b0: 0623 070f c36f ae3f 872b e772 a865 bb3f
000003c0: f595 a549 cc71 af3f 1907 b504 c488 b93f
000003d0: a13f c0f0 df07 b13f 6cce c90d 199e b53f
000003e0: 99da b9af a1cc b03f b381 474a 188b a53f
000003f0: f9bb 709d 0d58 b73f 9e88 0b36 695d 8f3f
00000400: afe7 7be0 0022 b63f 5fde eba8 8857 c03f
00000410: 6de6 1b91 176e 953f 4ba4 f2d8 7687 b53f
00000420: 7385 41bf 8373 b83f f744 e30d 1770 bb3f
00000430: 9d86 7711 b893 c23f 3796 be0f 96bb b83f
00000440: 7dd9 bc3d 4af9 b13f c7e5 5734 1622 c13f
00000450: 6821 d4c0 ece1 a93f 2f36 7176 d117 ae3f
00000460: 387c 4ce7 7c43 b23f 78e6 3c05 d7ae bd3f
00000470: bb22 14ff f59f b13f bb64 6e62 c3c5 b43f
00000480: f04f bf03 f320 b13f c531 e7c2 170b bc3f
00000490: 981d 1aa0 37f2 a43f a5d6 828d 73a8 bb3f
000004a0: 2957 a70d 2d80 bf3f 0fb4 cfc6 f4e3 923f
000004b0: bf37 67f2 6949 b13f 677d 08e1 3332 be3f
000004c0: 074d eced 8a02 b93f a426 23a4 13ee a93f
000004d0: 7329 14c9 905c c03f 3177 7827 7636 ab3f
000004e0: 1427 3422 8137 a13f 7983 b48e 442a b53f
000004f0: 90dd 9f97 cfd9 b43f 901a 6870 18e1 b53f
00000500: 82fc 74c9 ca0d bf3f 1ac2 87cd 5909 c03f
00000510: e1ea d7b9 64f3 c23f 0648 e85d 62af c03f
00000520: 7ec2 523e 6ca4 bf3f d5e8 21e9 38c6 883f
00000530: 07fa b60e c3a3 b83f 9bd8 b4cf 9418 a33f
00000540: f934 e176 eb70 82bf f86c 5c81 f35c a33f
00000550: 6532 7cfd 02e2 b63f 4b37 d5ba fcc1 b03f
00000560: b150 72d3 6b68 a53f 4c70 ba59 862c b13f
00000570: 81d8 dbc7 adb5 b03f d8b0 0fd8 dbdd a03f
00000580: 126a 4f87 8849 a63f 029f 6302 8a44 ba3f
00000590: 44c0 b3b0 5696 b43f 5f04 6703 b78d b13f
000005a0: 5090 82dd bcb6 ad3f f33c f343 d957 b23f
000005b0: cb37 610c 07f6 a73f 79bf 344f 19cd bc3f
000005c0: 08e0 9f37 cae7 a13f afe1 c738 1ac5 b43f
000005d0: bf21 de80 2f1f b13f 328e b18a cef2 b33f
000005e0: 786e 56bc 0c13 9b3f b56a 9638 c1c1 9f3f
000005f0: 8ad9 5101 8806 ac3f ae6e 83da 82e4 b13f
00000600: cfbd f699 ad94 b93f 1a82 2616 daac b43f
00000610: ae8e 0775 6043 ae3f 969b f2a0 bebc ab3f
00000620: bc67 3fc0 33a7 b33f 0dce c787 cec2 aa3f
00000630: bd43 9f4f 8ba2 b83f b8db 48e5 0924 b13f
0.1272062884164729 0.13041262291288525 0.055676768976792024 0.05361906647016368 0.12083449883869643 0.12855243845993566 0.0837313333878392 0.09234470446102493
0.09870043573305409 0.08740278502985792 0.05593432720107605 0.10582295994445058 0.0313129935440679 0.06948778718567211 0.06322932527019569 0.04859770087885813
0.0807937459617489 0.09601256060572155 0.10926973788154173 0.051342521856139946 0.1092580155496043 0.08985497196409643 0.04497654525838001 0.12661470235312877
0.11709906199734745 0.08083287981728995 0.07215706930422691 0.1124921045885456 0.09957650790770378 0.09335641323767208 0.06525242223771636 0.057484260973172684
0.1034973727791077 0.10873438050577633 0.07396724831733154 0.032616399524114464 0.09494586181030379 0.1000752662786456 0.06070019988123634 0.03274908357115387
0.0719247165617844 0.05115655713980931 0.09938885175470309 0.07873332778945911 0.003672109849791033 0.05927850452212922 0.09186185211196224 0.05760899226563816
0.07209717130689737 0.11931417870049343 0.04652907776178863 0.1266626197611553 -0.019244319279844813 0.10730097486179856 0.08993830903980218 0.022525610925258756
0.10839207913799809 0.13330995132617088 0.019460285265614462 0.06762959411243409 0.04041402471793092 0.08727429247330372 0.06976781936213569 0.07779789891648364
0.0548220646613858 0.06483509324183602 0.014814184258903768 0.06481222600582126 0.12830480021454987 0.055970786365320185 0.047685299707124255 0.029951397879360228
0.11777484872908656 0.05893075240954504 0.02495139709775761 0.07813319784014323 0.03269492744334637 0.051102932236423856 0.08444719059405045 0.08204925784992965
0.10371437348412724 0.06515713355156103 0.06031272986784981 0.09048392563886451 0.089223326621601 0.031781696429518856 0.14620038538497646 0.06355292816176773
0.025488715219245495 0.08960256810603971 0.07205232439139078 0.10161765634365569 0.06456107667381636 0.10236552572542922 0.05306773817229825 0.04860111157253798
0.04022571854991725 0.06893087524578266 0.04687495749599568 0.06755337693319768 0.07672763169936503 0.07233494462939442 0.035666898196635634 0.08533546499615627
0.09366734013176595 0.06536726556099785 0.03207419219875707 0.12274277711115003 0.12270859349544892 0.07766064011587726 0.08674492704288624 0.037668840267343226
0.025090247605901426 0.03155921451688852 0.06883388446676315 0.021460431187404486 0.07019621230291694 0.07065948918075302 0.059446425995309624 0.10701992802857606
0.06141508482941652 0.09974312891884231 0.06652640941342593 0.08444363199833455 0.06562243023095461 0.042076834742832324 0.09118733495482435 0.01531488605673231
0.08645635109488013 0.12767132042039273 0.02092778037238079 0.08409827038362143 0.09551261348089728 0.10717910851532851 0.14513302662731045 0.09661233791720113
0.07021011359470282 0.1338527446348918 0.05055179456582232 0.058775468548088454 0.07134228369658124 0.1159490955150434 0.06884705998903488 0.08114262726884906
0.06690901605116983 0.1095442629659323 0.040910471242621316 0.1080391140447668 0.12304956038800853 0.01844770873497131 0.06752645652815568 0.11795353168462484
0.09769504841488096 0.05064450625066044 0.12782487695978836 0.05314988357370821 0.033626590180643984 0.08267620548259726 0.081448530690855 0.08546593422225102
0.12130420130141498 0.12528536353740166 0.14805277895341987 0.130352302411268 0.12360264321865519 0.012096829046857863 0.09624880894896402 0.03729691539267429
-0.009004439893170334 0.03781853632082205 0.08938616455652378 0.06546001015996443 0.041812295495362924 0.06708564463264216 0.06527219895710525 0.03294264805285402
0.04352976466880788 0.10260832365349518 0.08041898550050158 0.06856864769999181 0.05803480342845602 0.07165296467723063 0.04679891611213768 0.1125045603155267
0.03497154168138655 0.08113254438638394 0.06688210388359205 0.0779236878020633 0.026439856524673705 0.031012553290205875 0.05473732963666851 0.06989305338668814
0.09992489823229465 0.08076251068860821 0.059107794080572304 0.05417438234990539 0.07677005237147133 0.052267507624403554 0.09623022741221994 0.06695615623253459

fc2.weight f8 [100, 200]
00000000: bf2f 62b2 b3e8 953f b193 f1e4 7190 b53f
00000010: b79b de05 c4ec 823f 25a0 e536 2d39 743f
00000020: 5d29 df5d 7233 903f d7cf 6c6d 448e a23f
00000030: ed98 58ac c9f8 a43f 4a67 f1e0 a74e a73f
00000040: 4e00 6b8f fa69 9b3f bdf4 3400 a701 a93f
00000050: 313a a871 d4e7 b43f 73ba d2f3 cef5 b83f
00000060: ac91 f3aa 9b96 a33f 4068 e8b9 62c2 923f
00000070: 5550 4b51 9445 7d3f f77b 96e2 2f17 993f
00000080: 0198 c899 87eb aa3f 1728 07af 2e6e a33f
00000090: bbc4 e5b9 4fd8 b23f a1df 7a4f bf17 a93f
000000a0: 614a ffa4 2a5a 813f 8b4d e085 6341 a13f
000000b0: 72fd 65dd d64c a93f 735d 1896 be49 8f3f
000000c0: f133 b7ec dae9 6e3f 8e08 46c6 ccc8 af3f
000000d0: 2a53 040c 5655 8c3f 22c9 99dc edaa 783f
000000e0: d227 5d9c 4bdd 963f c0dc 70c7 df01 b53f
000000f0: 52cb 4c99 fa89 b23f c604 93b1 e2ef 7c3f
00000100: ca04 a0c7 f612 a63f c800 2a14 3666 6c3f
00000110: 5333 17ec 1abe a93f d359 bb3f be14 af3f
00000120: bcc4 a1e9 9dda 723f 50a7 cb15 7874 8a3f
00000130: 79e0 7196 4549 8f3f d531 f21a bc79 6e3f
00000140: 5593 75af 7f77 ab3f fe39 0f1c ec7b 52bf
00000150: 3c1c a799 8b19 b43f e785 feca a98e 9ebf
00000160: 3745 ef3e 520f 6e3f ac24 4db6 4128 a13f
00000170: cbdf 82ee e702 b33f a5d9 aff6 e605 853f
00000180: ee11 d5f3 c73d 7d3f e633 e1a3 2a76 a03f
00000190: ae8d d26d 6f3d 41bf 611d 7442 4af8 723f
000001a0: 3ac4 d7ea 987b a53f 3170 a4a2 8a55 9ebf
000001b0: f463 7a02 f83f a43f b4ee 769b 0a1b 9e3f
000001c0: 6317 1c09 e924 a83f a319 4b33 d527 943f
000001d0: fc49 9fd2 aec6 7b3f 7bf2 b862 ebaa b43f
000001e0: 09a6 8ca3 4630 b43f 166b ca3a 67d8 a13f
000001f0: a8cb 5bbe 65b8 a33f 6e6b df96 fe62 7dbf
00000200: da05 6e29 2d5f 873f 3722 c0eb 4474 a53f
00000210: 103a f2ae 0291 a63f 3518 17d0 60a3 a73f
00000220: 36b6 2d56 328b b23f 668f ec04 f3db 883f
00000230: fd5a 3141 36f2 b23f a68c d71a f322 9b3f
00000240: c152 34fc 9a66 8d3f fe7f 0695 8604 9d3f
00000250: 996c e52d 5839 69bf d120 ef0b 7819 4ebf
00000260: cbc0 af04 141d 943f 493f 4aaa e3fc b23f
00000270: e1a7 7d11 995d b63f 2caf 6c77 4976 993f
00000280: 2277 cecb 7b3b 79bf 6e95 928f 9a64 a93f
00000290: f0e3 c79c 55b4 a0bf a201 54fa 7499 993f
000002a0: 27cd 6974 df6a a03f c22d 8637 9522 a13f
000002b0: 4e18 7714 7b29 ac3f fd0c 5a71 df19 953f
000002c0: 83fc 492c 21b1 8dbf dd08 67c2 ce38 b93f
000002d0: faad 360a 4058 a93f de90 faf7 9b16 a33f
000002e0: 8840 63f6 a7af a33f e104 1c0b 2907 a33f
000002f0: 9d2b 66ab 3e88 aa3f c5de fbee 29ce a53f
00000300: addd 71fb 2e18 7e3f 1d36 5af7 0537 773f
00000310: daa5 ccc6 744c b73f a558 6a61 9b75 953f
00000320: 4dc7 618a d550 7b3f b3a7 3c7d 99f7 5b3f
00000330: faa8 2afe 32d3 a73f 0bba fc25 6db6 9c3f
00000340: e4c5 6622 5ccb b03f 79d2 42ce ea90 a03f
00000350: c38a 3bad 119c a73f 36af 29a9 fe5e 94bf
00000360: a84c 71b2 9230 85bf 7e0c c76c 8868 6b3f
00000370: 9e2c 5094 d059 b03f be9f fec2 e59c a83f
00000380: df8a 65fb 77e8 7dbf 7275 d19e 7e8d 95bf
00000390: 4ea2 e982 1022 7bbf d5c8 59bb bc27 aa3f
000003a0: 1815 65c4 6999 b33f 4490 9972 27d8 a73f
000003b0: dbc2 89b7 63e2 993f 51b7 6519 d9a2 b43f
000003c0: cbd1 2b2a de75 9b3f c934 49f4 fa7d b93f
000003d0: a63c 5c08 2d18 b23f bcdc 8ca9 d1c7 b13f
000003e0: c9ef a826 f691 8bbf f8ab 7505 45df 833f
000003f0: 523c 3b03 07ba a33f 2f67 55b9 b3fd 9b3f
00000400: ac4d 4971 9b26 b93f 5060 a3a7 22ce a13f
00000410: 832d 9501 56f4 a53f b5ba b56a af40 9e3f
00000420: 2a7d 3bc2 5386 b13f 7097 2bb0 7f6f 8d3f
00000430: 88f0 1d0f b5d7 7e3f c070 2bf2 1f7c aa3f
00000440: cd0d c986 d599 59bf 7894 1463 5d32 a53f
00000450: 3a0f 7819 29b8 9e3f c58f 974d 3231 97bf
00000460: 1de0 50b5 54da 953f 4408 7fd5 98f1 85bf
00000470: d89d 8496 e61d 76bf 4262 ef89 ee7d 8e3f
00000480: b3e8 d33d abeb 84bf 45f2 defb 7fcf b13f
00000490: b8ac 0742 c85c 94bf baf3 91af a583 b53f
000004a0: 88f5 00de 08a6 a33f 788d eb19 d83c a93f
000004b0: 1592 6c3a 08b7 b23f d5c1 6c24 046e b23f
000004c0: 68d9 17d6 cf28 95bf 9c77 8235 648b 933f
000004d0: 941b 5b2b ac68 b23f f62b 8c87 7af4 b03f
000004e0: 1177 462f 4170 a63f ed50 5360 df13 a4bf
000004f0: 0119 358d 0218 6cbf e543 29a3 393a b73f
00000500: a073 5e2b 6d05 b43f 5081 76bf 1cf5 b23f
00000510: bc2c 91fc 2577 b73f aff1 9a08 95e6 a43f
00000520: a648 5251 7813 ba3f 31f9 2c9f 6eb5 9a3f
00000530: 621f badc 2b64 873f 2ed2 a619 041f ae3f
00000540: 5710 1bf2 1cb1 75bf d5ad e5a4 101c 91bf
00000550: 0f88 dbcd 05fc a43f a5f9 6ea4 ee0d 813f
00000560: bd01 2fc2 bec4 673f cbfe 77b9 b0f2 a83f
00000570: 1b45 792b 72dc ac3f eb79 9dd2 d954 513f
00000580: 7a58 0cb5 2e3a a7bf dd8a 1796 e365 a63f
00000590: 2a43 df2d 5f64 a53f 6fd9 0146 306d 6d3f
000005a0: 59e5 68a6 6406 93bf c5ae 677a 9eb1 a43f
000005b0: 2182 0b78 8e2a aa3f 669c c2e3 839c 9a3f
000005c0: a423 37e9 bd23 963f 0b96 bc02 033b 69bf
000005d0: bd55 3f0e fa67 923f 22ee 5265 8c82 ae3f
000005e0: bb86 d02f 7749 9c3f fe5b 6ae8 bf95 a83f
000005f0: 7cde 1e77 c1cf 8abf 31a1 64fd 5a62 893f
00000600: 1d5c 9ee9 7970 833f 8e0a bcc8 06f6 993f
00000610: 1eb6 1f6f a3f5 ac3f f9c1 f925 6f9b 943f
00000620: 31ea 4e8b b7ba 89bf 6a26 daea 2479 b93f
00000630: f4b4 f0c6 9894 b13f 7b26 eeab 3e43 b23f
00000640: f298 a3fb 4251 6e3f b421 8a81 7421 a0bf
00000650: e30e d2c7 8490 9b3f 0cd1 066b 8d4f acbf
00000660: f725 62a6 8262 a0bf 9975 11ba 5627 733f
00000670: 67ce e784 3277 82bf 86e0 60f4 f3c6 ab3f
00000680: 7575 bd4e b413 83bf 70f5 52f8 62e0 b2bf
00000690: 03c3 4ef2 660b a4bf 1838 1981 caf8 54bf
000006a0: 1ac7 a564 c07a a2bf f040 4f9d 47b8 97bf
000006b0: 4981 a9c2 6051 a0bf 0083 91cf 899a a43f
000006c0: e771 d5ac c9d6 a6bf 9f89 5b4d 1c96 923f
000006d0: a23d 3141 3905 acbf 949d cc17 94a9 3ebf
000006e0: cf6e 10b3 da9c 9dbf 24c6 07d9 62ed b1bf
000006f0: 8367 1176 c267 9ebf 0d91 0a22 f1c9 883f
00000700: 848f 0274 ea2e b1bf cee1 551e 244a 8e3f
00000710: e23b b6b9 ea8c a33f 2a35 2a04 c8ac 9b3f
00000720: c7fb 9c30 e3a0 883f 4821 2eaa 6938 96bf
00000730: c2bd bb9f 4906 92bf 3d6e 0479 49da a6bf
00000740: 4790 1d95 031c a1bf 3a36 3f3d 08a2 8fbf
00000750: 4845 fba9 4e7c ae3f c67c d9b9 1c8e 89bf
00000760: f754 e93f 7474 9ebf 5add 35ad f68f 95bf
00000770: 9ea1 7099 7e7c 7f3f 21ae 8602 4bf1 a2bf
00000780: 54f8 3583 374e 993f 6873 1e37 d9a8 9a3f
00000790: 7027 0807 0d5e a2bf 2a25 99f3 e223 91bf
000007a0: 2fbf ea72 9e66 a2bf f394 bd99 436d 82bf
000007b0: 444e 4a6f 9e59 8d3f 70db 74f7 7b10 adbf
000007c0: a71c 610b db55 a6bf 3cf3 d689 a662 a53f
000007d0: ff26 e29a 2ce5 ad3f f81e a58e cb4b c33e
000007e0: ab89 716a e8c6 8d3f 5bec 4a1c 7b59 a4bf
000007f0: cd09 5d06 9145 a13f 70f2 bf06 d1a2 a73f
0.02139549995676737 0.0842353042549593 0.009240657261967529 0.0049373403729547115 0.015821253756976506 0.036241663320111854 0.0409606001742747 0.045521970948085924
0.02677146435121385 0.0488407314064516 0.08166244292099446 0.09750073864663893 0.038258423441024675 0.0183196474045888 0.007146434178782431 0.024502514080833006
0.05257819893112981 0.0379499996812031 0.07361315048707955 0.049009302570481646 0.008472760353389565 0.033702001659686585 0.04941436245553178 0.01527737517885328
0.003773620211836797 0.06207885666209832 0.013834640733458043 0.006022385737752852 0.022328549784368885 0.08205984706079317 0.07241789095568876 0.007064710161274584
0.043113433712287 0.003466706869687728 0.05027851230588589 0.06070513275124125 0.0046030205213451435 0.01291745964541105 0.015276473668777367 0.0037201570444891177
0.05364607827031046 -0.00112817819193689 0.07851479054726068 -0.029841092123779858 0.003669415127185129 0.03351025915487446 0.07426309178379069 0.010265163806235498
0.007138997139297205 0.032151539330335585 -0.000526122482956406 0.004631319118977601 0.041958597819651236 -0.029623190094852873 0.03955054311990827 0.02940002988701336
0.0471566032047537 0.019683200126360167 0.006781275655117099 0.08073302421775878 0.07886163227944833 0.034854150702093786 0.03851621578896608 -0.007174486627230843
0.011412003352009249 0.04190268876852026 0.04407509217809402 0.0461683515564321 0.07243647197693623 0.012138269984980087 0.0740083607828232 0.0265005097516108
0.014355860540072542 0.028337576719081874 -0.0030791017772294313 -0.0009185634770512379 0.019642174516719273 0.07417128474685088 0.08736569096586734 0.02486529151353449
-0.006160243586149668 0.04959567072482228 -0.03262584246471778 0.02499945428735518 0.032065375290495184 0.033466971423958394 0.05500397324389948 0.020606509488527703
-0.014498004116147328 0.09852306600717804 0.04950142025640143 0.03728186990818626 0.03844952471411128 0.03716400395024678 0.05182071535371977 0.042588529990039294
0.00734728195595073 0.005667708688304821 0.09101037839413753 0.020956447430386622 0.006668886320868439 0.0017069815557513135 0.04653319695110443 0.02803965134006074
0.06560302581672023 0.03235563056788222 0.04611258735328285 -0.01989362628448462 -0.010346551962504627 0.00334574361315415 0.06387046452452913 0.0480720329790638
-0.00730177753425451 -0.021047571605199385 -0.006624283311432123 0.05108442103382208 0.07655964894100398 0.04657099985050242 0.025277669980314648 0.08060986394931759
0.02681681759254832 0.09957855667126404 0.07068139509304902 0.0694552458706878 -0.013461993269736088 0.009703196744075257 0.03852865137525242 0.0273349840038925
0.09824534908084698 0.03477581306805233 0.042879760449603864 0.029543629539541445 0.06845592014314109 0.014372823299207943 0.007529933225551962 0.05172824698613132
-0.0015625558109072402 0.0413998778770201 0.029999391726973836 -0.022648607240526326 0.021340678755422105 -0.010714715972316331 -0.005399609312270091 0.014888633331723192
-0.010215127777417931 0.06957244776908407 -0.01988518622412691 0.0840400270116807 0.0383761187554042 0.049292328991010714 0.07310534883851745 0.07199121369627133
-0.020663497392854252 0.0190864236507121 0.07190967615598104 0.06623044785753493 0.043825184842019145 -0.039214115627744885 -0.0034294175945063237 0.0907321952193026
0.07820780094921398 0.07405261682879893 0.09166181007565205 0.04082170229000625 0.10185958848367935 0.0260827335980533 0.011421530412249307 0.05883038342600276
-0.005295861310234149 -0.016708622040295957 0.04098528039845927 0.008327354806053242 0.002901432585957957 0.04872658027670481 0.05636936932263322 0.0010578276801066443
-0.04536577186642972 0.04374610144784239 0.04178140101396928 0.0035921042290808984 -0.01857907548603541 0.0404176258487872 0.05110593047516355 0.025987683082942324
0.021620719298684712 -0.003079896812681287 0.017974764937965782 0.059589755409856573 0.027623998921746145 0.048017499085453594 -0.013091575095912626 0.01239462934297872
0.009491875116323151 0.02535257911859872 0.05656157237522684 0.020124184315536173 -0.01256316560635637 0.09950476392455135 0.0686736570066449 0.07133857438580009
0.0037008579503093825 -0.03150524216931974 0.026918482490613804 -0.055294436754964676 -0.032001574335549 0.004676188255954194 -0.009016413384393475 0.054252265530920815
-0.009314926770168633 -0.07373636782263815 -0.03914949138505188 -0.0012800195294349111 -0.03609276989563011 -0.023163908935942723 -0.03187086464163486 0.0402415338401223
-0.0446074508169863 0.018150751325160305 -0.05472735329442037 -0.00046787133742262036 -0.02891866414948546 -0.07002847479432056 -0.02969268651609226 0.01210392365585069
-0.06712212879443596 0.014789850402608187 0.03818448559751865 0.027026295904353827 0.012025618477876322 -0.021699572574591458 -0.017602110266066402 -0.044634147665615555
-0.033416854813169077 -0.01544577061568041 0.05954213929147528 -0.012478088781050178 -0.029741112137647154 -0.021056989976810804 0.00768708660965736 -0.03699716955028643
0.024712436088059356 0.026034730900949127 -0.03587380133474383 -0.016738458746009467 -0.035939170387221935 -0.008997467164315575 0.01433109070902739 -0.05676638980587867
-0.043623776568489085 0.04176826889622595 0.05838908568064304 2.3002713664155564e-06 0.01453954291190914 -0.0397451850926351 0.03373387530020331 0.04616406638522086

fc2.bias f8 [100]
00000000: 9cc3 5da3 b9af b73f 297a 7b80 9b77 35bf
00000010: 590a 7a4c decc b43f 5ba8 5ebc c77e 9e3f
00000020: b29e b520 d759 a93f 031d 6f17 ae8f b03f
00000030: 75e6 19c7 4fb1 c13f 1293 b519 b3da b63f
00000040: 34f6 a73d b58d 973f 17ed 2083 5972 b33f
00000050: 8afd d78a 16af 8d3f 0836 05c7 2213 903f
00000060: 2d5d 762a 878a b93f 52ae 1292 28a3 a7bf
00000070: 1aa4 528d 6131 b33f 716a e776 1959 b73f
00000080: 0a52 c363 c936 b33f 3d92 7f51 6974 a13f
00000090: b265 b800 ac45 9f3f 858b b74e ecc7 a43f
000000a0: a44b 1571 8a98 b23f b25d 4f9c 24a5 b33f
000000b0: 21e2 8a6b e1f2 b13f a77b d08a 4139 a73f
000000c0: 472d 2771 6e63 c23f a30a f14c 3aff bd3f
000000d0: 3a44 13e0 af0c a13f 837e 2842 23f4 b53f
000000e0: 0613 3b49 608f b03f 6e96 421b 5097 6d3f
000000f0: fb02 8307 3e3e bc3f dbea 1795 ad91 bf3f
00000100: 4c9a ae26 e4c4 ba3f 814c d79b 04c4 b73f
00000110: aaca d14e fa6a b13f 7333 de62 4ece ba3f
00000120: da57 8387 bfbc 8fbf 8ce6 219c 74b2 b73f
00000130: 0eed 5a8b 1abd ab3f f0a1 6ee3 ad90 a73f
00000140: 6ef4 ee03 97dd b93f bede 818b 727b 7f3f
00000150: a708 9df9 fda7 b53f c8b4 45b2 7b14 963f
00000160: a231 4fa6 9119 a03f f0bb 385a 8d3a aa3f
00000170: e183 66bf 7f44 b93f 3930 0cc6 0b21 b93f
00000180: 08ee 8ab0 2865 c13f a57a 63ba 7603 a53f
00000190: fb0a 0edd d5cd 9d3f 8a22 9b46 bc94 a33f
000001a0: c2b9 5d24 dd13 b33f e926 edfa a755 7f3f
000001b0: aa0a 8fa7 6d57 b83f b0df b4d9 ca58 b03f
000001c0: ee58 2652 bce9 ac3f c94e 2376 327f b53f
000001d0: f000 599d af30 903f fde6 53dc 808d b73f
000001e0: ee9a 96ed c57c a23f 98a8 2d9d 4563 b73f
000001f0: 6714 ba7d 5027 943f 0ec2 a545 c479 a13f
00000200: f4c8 556e 9c77 8c3f 148e ca32 8d42 a03f
00000210: 26c0 2898 66b8 b93f bfc4 8dca 6949 a93f
00000220: a001 7300 1203 c03f 4071 c59e b10f b23f
00000230: 3680 e6ad 106f b63f 805f 7e9d 01df b33f
00000240: 79e6 77b0 abac af3f fa2c cd6a b38b b33f
00000250: 6d74 510b b5d0 b43f ebfa cd4e fb75 af3f
00000260: 215c dbe2 fb0b b03f b255 53ea 5d65 b53f
00000270: 31ed b37b ac0a 9ebf f188 cbaf 4829 9cbf
00000280: c4c3 4ac1 3f01 a63f 2b5b 419f 6f90 a03f
00000290: 7458 c246 2828 a63f a963 f640 8e45 b83f
000002a0: 9274 251d 1a01 b43f 6ccb 0321 710f b33f
000002b0: 3a11 4c25 5e74 69bf d4ed 7161 77cd a33f
000002c0: b851 bb4f 8f0b a8bf c984 f6fc 0a46 953f
000002d0: ab79 a571 c0e0 ab3f c04f 5ac2 8c93 fa3e
000002e0: 8827 8247 5d32 ab3f 44fc 6088 056e b03f
000002f0: 9a2f f88a dc8f a23f 4bcf c3b6 eb21 b63f
00000300: a96b 73ce 085b a83f efa0 3cfe 648f 90bf
00000310: 72e8 d629 7c96 ab3f 5d52 50a5 812b c03f
0.09252510298189381 -0.00032756372864453876 0.08125104300601417 0.029780503151109233 0.04951355242047607 0.0646923835002902 0.13822362157570792 0.08927459123294693
0.023001510513486603 0.07596358729727047 0.014494110214399187 0.015697997472036845 0.09977001940420811 -0.04616667540662135 0.07497224521888804 0.09120330002716927
0.0750547283708515 0.03409127349712946 0.030539214652980547 0.04058779202366395 0.07264008770770986 0.07673863235628778 0.07011231303739197 0.04535870379935796
0.14365940594721335 0.1171757161946894 0.03329991922658633 0.08575649609746887 0.0646877459322007 0.003612190683344 0.11032474215881997 0.1233166207311273
0.1045668215216235 0.09283474735939203 0.06803860115341345 0.10471048272866117 -0.015496727297811864 0.09256676494433175 0.05417712164986642 0.04602569009086099
0.10103744359999364 0.00768608802911047 0.08459460586621735 0.021562512164952335 0.031445075560984095 0.051227967513447825 0.0987014620100264 0.09816049180170773
0.13589962597130545 0.041042051556123206 0.02910551225387346 0.03824413644685361 0.07452184808582898 0.0076500474668337115 0.09508405056753114 0.06385486426449805
0.0564707613258849 0.08397212394930444 0.015810722330798777 0.09200291995139405 0.03610819363830396 0.09135851943361428 0.01968122260452212 0.03413213110150447
0.01390001498905178 0.0317577480793966 0.10046998228858736 0.049388223624995835 0.12509369871078224 0.07055196882487724 0.08763221974959454 0.07762155623492895
0.061864247600124274 0.07635041577775672 0.08130961920092412 0.06144700371713959 0.06268286026475824 0.08357798548543974 -0.02933759217283444 -0.027501235704115726
0.04297827944299784 0.03235195941004173 0.043275126111596146 0.09481133543012156 0.07814181529598077 0.07445437484765954 -0.0031072462828679844 0.03867695869936552
-0.04696319435393853 0.0207750050445881 0.05444909465107924 2.5345198216244818e-05 0.05311862466721978 0.06417879657327413 0.036253826107070355 0.08645508968384978
0.047569537354966336 -0.01617200662363499 0.05388248453842061 0.12632771083794384

fc3.weight f8 [50, 100]
00000000: 4b29 3931 9f24 afbf b27d 7a03 3228 8dbf
00000010: 7d18 e964 90ab 5cbf d0fa 8286 f871 7f3f
00000020: 2cd0 4ee7 6cfe 953f 72d8 8029 b8f2 a53f
00000030: 0231 1f28 a648 b03f c662 a2f2 539d 9abf
00000040: 3648 7edc 6188 ad3f 0ced f31a 1b48 893f
00000050: 190b c0a2 5570 b03f 7b65 43bf 77a0 9a3f
00000060: c1e7 036f 193d b53f d304 74af eae7 b53f
00000070: 2bfb 87fb 565f a03f d536 2a2b 3ef5 b53f
00000080: 21c0 0979 552b 9b3f 01b2 89cb 3fe9 b0bf
00000090: 7f2f b47e b7d6 b43f 6eb5 c56f a9f2 ab3f
000000a0: 5795 6bb5 9dba 933f 3e89 f2c5 de7c 86bf
000000b0: 3622 c687 134c 9b3f 33ac e7d8 1db1 8d3f
000000c0: d20f dd3c 0b27 adbf ffb3 7adc 7a29 8e3f
000000d0: 700e 288e 68b7 9e3f 22a5 05cb 43f8 b33f
000000e0: f416 287f 264e b0bf b56f 946e eab9 af3f
000000f0: cf13 e2d0 e5b3 78bf 5d24 371e 9d86 9a3f
00000100: 2bbf ae9f 9361 b03f ee51 6d37 924c ac3f
00000110: 13d7 9c6d 8637 9b3f 583c 7ea3 4d4c b13f
00000120: b6cf 2ad7 f6f0 6bbf 068a 253a 62db b43f
00000130: 7440 f0b7 fa0d b53f a331 bb57 354f 923f
00000140: a2e0 8868 8ab3 973f f80c d50c ca8c b03f
00000150: 30d7 72d5 4ac5 b23f dd10 4b91 7c9a 92bf
00000160: dc56 6e7f 91e7 94bf d99f aab5 074a b13f
00000170: 5939 6a66 d835 9c3f 75d9 e5c0 e440 a83f
00000180: 079b d53b 3770 9a3f 4ae8 b4d8 7f65 62bf
00000190: 7f38 e048 acc3 a63f 61a3 e705 fdb2 90bf
000001a0: f8b4 12d3 2cfd a23f 0999 1cf0 8cad b63f
000001b0: b1ab 8015 9f21 af3f ec6d 04bb 4e23 843f
000001c0: b240 71ae c974 ad3f f360 fe87 0533 6c3f
000001d0: 48c2 0703 96dd a73f b0f5 d966 e995 b03f
000001e0: e1ab 3741 3379 963f 80dd 1b09 0709 aa3f
000001f0: a113 8fbf ad37 aabf 6b2e c65c 397c ae3f
00000200: 02cc 9fa2 5c48 67bf dfb6 ff99 3fe9 b33f
00000210: 29db 7f8c 10f6 a83f c64c cd2b e06f b23f
00000220: cf8c afad ec96 8fbf 5288 2d34 5c8f a73f
00000230: 1d94 f353 ebd7 8b3f 520b f5e9 3825 973f
00000240: f8ac 4278 c3c8 76bf c6d0 ddc1 9121 923f
00000250: bec4 01ef 5868 aebf c198 ee38 c9e2 96bf
00000260: 34ba 1157 8ccc a3bf 8386 b468 8214 9a3f
00000270: aec7 3ec5 3a60 ba3f eea8 cbc7 81cb a1bf
00000280: 81ef 5d62 26ef a43f ef95 7c6c a393 88bf
00000290: d5bf 7a5d d34c ab3f 0916 8f12 ad76 bc3f
000002a0: e3e9 af18 ea6b a13f 9f15 da45 306e b4bf
000002b0: c241 c939 c8ae 9cbf 5336 7550 891e a4bf
000002c0: fe6f 95c7 1eef ab3f f2b2 55ff a7f3 993f
000002d0: 37c6 7ff6 cbc2 ab3f 57c0 c025 d33e 87bf
000002e0: 1033 aa45 bf48 ac3f 0c74 aac9 ca53 b93f
000002f0: d8be c073 9d77 94bf 85d1 7704 fa64 a9bf
00000300: 5877 cfe5 1459 41bf 0803 1c7a 2183 9c3f
00000310: 6e5e 4a2d b7da b43f b190 b6dc c429 a43f
00000320: 63db fb63 1b0a b43f dadb b11a 75a1 a23f
00000330: 8648 83be 358b a53f 1cdf 6339 9479 86bf
00000340: 3e22 77b8 34f1 ae3f 0279 d471 76f3 9d3f
00000350: 3776 7ebd 4bec 95bf 445e d4d0 9fc9 b13f
00000360: 0101 5464 a34e 963f 8eee 7612 8617 b43f
00000370: b2e7 cf20 73e5 943f a80a 33d6 f517 ae3f
00000380: 3b9e 7573 de70 963f 61d8 8af4 7639 aebf
00000390: 8ca0 8913 32ca 663f 643f 4550 3e9f a33f
000003a0: 733e 1207 8fcb b13f 7c8d 5b62 dedc a93f
000003b0: 65fb eeba e694 9d3f 6f52 63ba 2991 973f
000003c0: 4493 5ab5 3192 593f 9aa9 2186 199a a13f
000003d0: e3a2 8130 3ef6 ab3f f03c b97a f286 b93f
000003e0: 41fa 1160 3e16 a23f b8ab e035 b20f 6c3f
000003f0: dab2 1fab 2393 a53f d4ba c12f 15db ad3f
00000400: 393b d78d d7cd 953f a7db 7b22 b70b ab3f
00000410: 22d6 bec0 1c4d b43f 568e e9b2 d952 b23f
00000420: c2ed 3951 c143 903f 27b1 4280 c4b2 b13f
00000430: 1721 aa60 d7a0 ba3f 2163 4fc2 4112 85bf
00000440: 2fdb f260 9dbb 57bf 66b9 c99e 0403 3abf
00000450: 3156 e442 f07e 95bf 5ef1 7e1e 13ff a73f
00000460: d5f9 322e 84e6 b13f 6b20 034a 2fc9 ab3f
00000470: 0816 16c1 9a87 ae3f dd28 aacc cb4a 953f
00000480: ef51 37f4 4c73 a3bf 2d42 61bd 74ee b53f
00000490: 4e72 55dc f6db 94bf 0582 731c fd4e ad3f
000004a0: 262b 40dc 26c0 a0bf 0953 5979 40a4 59bf
000004b0: 415f 86b3 dbfa b63f 947d 9594 0ba7 a6bf
000004c0: 1e23 935a 1366 b93f 67e8 7dfe a63e ba3f
000004d0: 514b 7e8c 4c4a 70bf 5a8d 0a4b 4d2c b03f
000004e0: d3fe 7e9a a074 63bf 94b9 914b d0c8 a93f
000004f0: 7562 e144 ed72 a43f 398c 60c8 5905 98bf
00000500: da40 58cf e235 b93f 5478 eb2f ddb7 8ebf
00000510: bc2d dd0e fe95 723f 75d4 9904 2d22 a73f
00000520: c750 7b3c db07 b43f e801 f9a3 0db6 b03f
00000530: 2067 4f57 eea1 b43f 0b6c 0835 2d5c b83f
00000540: 9492 ae03 44ad a6bf 5131 3c34 137a a83f
00000550: 58f6 ff5e 41d2 acbf 36b2 e8e2 2fc0 a23f
00000560: fbf2 acd0 0205 9abf 58d8 981c e040 a23f
00000570: 072f 5587 40b8 963f 3d4e 6be8 5916 743f
00000580: a9d5 47d8 c276 96bf 29aa 4178 d4f7 a23f
00000590: 8890 e08d 3be7 81bf 6fe3 8f8c 69f7 843f
000005a0: 2673 a900 68ef 9d3f 7186 72b5 c584 bf3f
000005b0: 7acd b654 6d71 8ebf 06f2 5618 c801 b33f
000005c0: 26e3 a51d da84 573f 5dc8 d185 ebd3 b33f
000005d0: c63a 7c4d 46a8 ab3f abd9 a1aa f7b1 7f3f
000005e0: 6f70 5624 1680 88bf d440 f3e1 180e b53f
000005f0: 9cd1 946e e75f b03f 4536 6c39 3f98 a93f
00000600: b6b2 d62e 850a be3f 54c0 084f 1191 9b3f
00000610: 37a2 a5f0 7787 963f 8203 91fd 2352 bb3f
00000620: c06f bc96 f7e9 a43f cab7 93b0 994a 743f
00000630: 5e63 19cd c5c5 b93f 0abf a233 94d3 ad3f
00000640: c201 7af8 6d63 a43f a14c 26c6 254a 70bf
00000650: 0d3c b2c1 f608 7c3f e135 7d44 722a 803f
00000660: cee8 40b6 31af a93f 5f64 28c5 2d79 ab3f
00000670: 3ff5 44e1 b309 af3f 6cd9 7fb6 3521 533f
00000680: 5002 0b2d fd04 ac3f 21aa 1a59 79c3 b63f
00000690: e021 0e9f 45f8 b1bf 6bd9 4e6c c826 a1bf
000006a0: fd25 6dba 4a94 95bf 8b70 5685 01e4 a2bf
000006b0: 82d5 50de 0c21 903f c600 8158 4bb0 983f
000006c0: 71b0 a387 aeb5 9b3f 0fa6 2991 1970 aabf
000006d0: c733 7075 cc8e 91bf bfd8 38e7 20a0 a03f
000006e0: c55f 7240 d898 b23f 20a4 cec3 d605 80bf
000006f0: 53fd 1641 c405 b43f ea6c 9f6b a8c8 a43f
00000700: 1f6a cd75 0712 b33f 6c2a 8946 be1d 99bf
00000710: 9abc 98e2 685b b23f 6d77 87d6 4707 af3f
00000720: a68a 7a0e 9025 b33f 80f7 d7ca 2c43 8fbf
00000730: b5a2 76c2 8984 983f 9791 0580 8118 5e3f
00000740: 72e0 c0ea 9a85 7b3f 4a5b 3cf4 55f6 81bf
00000750: 0155 3efa cc50 a93f a96d ba90 b2e0 b1bf
00000760: 7c97 24ed c2aa 9cbf bf4c 30a9 b0e7 bf3f
00000770: 1250 ccbf 3eaf a33f 6b73 732e fd08 aa3f
00000780: 452a 3ee0 ce88 963f be09 2b45 7023 7fbf
00000790: 3741 1072 042d bb3f 6a6f 29a6 1c1a b53f
000007a0: 8603 561b 5f0c 98bf 1c0a d28b fbf2 af3f
000007b0: 0c15 8d34 d798 a43f cc01 33bd 826e 883f
000007c0: 7dc8 d36e bc95 af3f 1cf0 f174 6f7a 9bbf
000007d0: caaa 8d8f 43a3 9ebf 7556 6364 3b8a b1bf
000007e0: 21b9 3173 ec92 803f 50aa b3d5 bbe3 ab3f
000007f0: f59e ff01 bac2 a5bf 9a1d 48d1 3a02 9e3f
-0.06082627750272936 -0.014236822825579452 -0.001749888429587481 0.007677050402149901 0.021478368394767397 0.042867426935502176 0.06360853652512691 -0.02599078339025842
0.05768113915031885 0.01234456230166938 0.06421408866303259 0.02600276093366947 0.08296355209668517 0.0855700186111961 0.03197738476227693 0.08577335885839983
0.02653249312646733 -0.06605910033403718 0.08140131800990778 0.054585738081054255 0.019266571233761933 -0.01098035852038903 0.02665739551733478 0.014497979337610633
-0.05693850629771159 0.014727554181570566 0.029996522594969155 0.07800697046845476 -0.06369248012932954 0.06196529960490641 -0.006030938833764445 0.02590413567466886
0.06398890160084807 0.0552716915759993 0.026578998985505708 0.06757054559260334 -0.00341079913172312 0.08147252959819448 0.08224455824552185 0.017880280952157112
0.023145830755510695 0.0646482735947308 0.07332294188639987 -0.018167444580073123 -0.02041461315419367 0.06753585992066692 0.027549153567229954 0.04737009863576961
0.02581869414043594 -0.0022456643106610096 0.04446161641691137 -0.016307786450770027 0.03708782269073113 0.08858567106344507 0.0608033860920253 0.009832968790354855
0.0575316453401923 0.003442297747778261 0.046612441892538714 0.06478747139950403 0.021946717124517682 0.0508501242274475 -0.05120604480138203 0.05954150445458314
-0.002842122009491189 0.07777783879984267 0.04875232424813298 0.07201958722480403 -0.015424584436863146 0.04601562630593094 0.01359542703580457 0.022602929381956578
-0.00556255679490935 0.0177061819626523 -0.059389857459686266 -0.022349495029310832 -0.038669953945703744 0.025468862190911167 0.10303084674413185 -0.0347557598486946
0.04088706923263797 -0.012000347851038177 0.05332050815684367 0.11118585303400876 0.03402644683224645 -0.07980634408348529 -0.028010490920054705 -0.0392954741206323
0.05455871759724572 0.02534353729190548 0.054220556106781385 -0.011350297536495342 0.05524251675988101 0.09893481658441788 -0.019987545194623063 -0.04959851555387033
-0.000529418186143475 0.02784397418782006 0.08146233421063595 0.03938117212536108 0.07827922049533025 0.036388072498929794 0.042077712541542175 -0.01097408104077107
0.06043400527739039 0.029249048898344128 -0.02140920967177903 0.06948279236200344 0.02178435611585972 0.07848394346995688 0.020406531217282704 0.05877655257929365
0.021914935872159296 -0.059032170630801024 0.002781961255369286 0.038324305819172705 0.06951230929029766 0.05051321936277994 0.028888325843350233 0.023014690400332712
0.0015607343133663002 0.03437881243083325 0.05461305944556274 0.09971538063222218 0.03532595560772168 0.003425453250220891 0.042138208998812224 0.05831209381073213
0.02129303744532793 0.052823756179285745 0.07930164056491454 0.07157669656731377 0.015883465368899292 0.06913402682647939 0.10401674375510016 -0.010288728468297816
-0.0014485394383833663 -0.00039690840529873204 -0.020992044527778645 0.04686794039978069 0.06992365005405728 0.054269292626089115 0.059628330297567145 0.020793136946431246
-0.03798904877809039 0.08566980002911669 -0.020370347211939248 0.057243261073157505 -0.03271600187880201 -0.0015650395993322427 0.08976529248172672 -0.04424320400971307
0.09921380006120414 0.1025184985464037 -0.003977107065923872 0.06317599374829311 -0.0023749481951823386 0.050360211586723796 0.03993932214570332 -0.023457911353158976
0.09847848474624091 -0.014999130272766482 0.004537575163179704 0.04518261605418498 0.07824487902263676 0.06527791264762295 0.0805958712730015 0.09515650315044881
-0.04429066224046099 0.047806358457907046 -0.05629162106195612 0.036622520874832906 -0.025409740435168065 0.035651210299349756 0.02218724084859416 0.004904128267941452
-0.021937412691803413 0.037047042541264404 -0.008741822497605037 0.010237526514161847 0.02923357490577696 0.12311969451777728 -0.01486478247429689 0.07424593538502941
0.0014354829823714581 0.07745239274098155 0.05401820846428999 0.007738082358733338 -0.011963055595338027 0.08224635616648196 0.06396337938060132 0.049989677199942885
0.11734802621385651 0.026920576523650944 0.022001146376540794 0.10672211590373418 0.040847527647400295 0.004953956938363599 0.10067402131370559 0.058254844000996966
0.03982108743821612 -0.003976962618611386 0.006844486134595773 0.007893460002061427 0.050164750573871694 0.053658895794975285 0.06062090039129452 0.001167585805885797
0.0547255628093849 0.08892019677538389 -0.07019457944091512 -0.0334990150653763 -0.021073501232683246 -0.03689579727799338 0.0157510767641802 0.02411000945744559
0.0270602484023787 -0.05163650414472098 -0.01714629618441046 0.03247168371710662 0.07264472554595532 -0.007823636866151118 0.07821299161058919 0.04059339822534887
0.07449385286364717 -0.02452752404705409 0.07170730144638285 0.06060242170109018 0.0747919116352401 -0.015264844837471037 0.02394309281740688 0.0018368973397509863
0.006719212669899931 -0.008770629421218996 0.04944458536844288 -0.06983486207393831 -0.02799515316396349 0.12462906008322515 0.03844638911519395 0.05084983055141986
0.022006256519981688 -0.0076021562151162275 0.10615566048386858 0.08242968613325066 -0.023484693568665026 0.06240068513672645 0.04022858158581685 0.011929532431509758
0.06168927052375837 -0.02683424140239775 -0.029919677388003753 -0.06851550293807825 0.00809273459000487 0.05447184547104611 -0.04250127100368487 0.02930538084367882
