weights/numq/gspc/correlation/highlow/numq_pretrain.pt (torch, 526847 bytes, 8 tensors)

fc1.weight f8 [200, 200]
0	0x3facd155ce7d6057	0.05628460069300505
1	0xbf82be41fd8fe1d0	-0.00915195040759978
2	0x3f6d76de93b1b4ff	0.0035967204290076045
3	0x3f71760064859291	0.004262925657120179
4	0xbf799f3adc5cb0df	-0.006255369114836123
5	0x3fa94430f926bf3d	0.04934838334463485
6	0x3faa608cd3e90d60	0.051517868869747074
7	0xbfae30eac1d30d43	-0.05896695724507108
8	0x3f9195243b825f38	0.017170492298276246
9	0xbfa4a30856242688	-0.04030633975532988
10	0x3f86448a1e2608ac	0.01087291626459249
11	0xbf997689f699f6c1	-0.024866252590519226
12	0xbf6cb796c62fd809	-0.003505510788722969
13	0xbf758679222e2836	-0.005255196740913395
14	0x3f9e03254fa43820	0.02930887507050539
15	0xbfa92629651b0dd5	-0.04911927565765565
16	0x3f9603762b365baa	0.02149757994410676
17	0x3f917d84264015db	0.017080368837943154
18	0xbf8eb3ef863668ac	-0.014991637500134956
19	0xbfa41e30a865b6f7	-0.03929283195144067
20	0x3fa102981006ad52	0.03322291560774694
21	0xbf8bd5633c0c050a	-0.013590598363864465
22	0xbf849741431000ea	-0.010054120883069523
23	0x3f893e69411fa502	0.012326071071543602
24	0x3f8b207bbd64543e	0.013245550839693473
25	0x3f66dcf443f48daf	0.002790906029660887
26	0xbfae445fcb492e2a	-0.05911540371434072
27	0xbf92c7ce19e7d04c	-0.018340320902965154
28	0xbfaf20e49405a1ec	-0.06079782778653339
29	0x3f83a3e14fd9ca01	0.009589920281745103
30	0x3f9e0fd4059b32d4	0.02935725483148384
31	0xbfaf74e7885d2ab6	-0.0614387849769477
32	0xbfa1ef34eecc488b	-0.03502812781347683
33	0xbf85a23a4abf13df	-0.010563331037596711
34	0x3fa81cc370a9ce93	0.0470944476154759
35	0x3f9bfcd8b9a57404	0.02733172066779234
36	0xbf88e7d322d759fe	-0.012160920620698509
37	0xbf94e0df405b8020	-0.02038906889254133
38	0xbf8ea600eb4df738	-0.014965064221310706
39	0xbf90a716c2f6f279	-0.01626239361734114
40	0xbf6f23fe1ff3cb42	-0.0038013423323887416
41	0xbfa1574c90ef7cec	-0.03386916417343308
42	0x3f328e62eb7a3b22	0.00028314509425169017
43	0xbf9f295f18d17748	-0.030431257142814944
44	0x3f3d047037d51f59	0.00044276942920306244
45	0xbf7b029f77baf75d	-0.006594298287095982
46	0xbfa59ff11be0a826	-0.04223588433553997
47	0xbf9a21ef5d3ef169	-0.025520076814915003
48	0x3f998017f8c3c693	0.0249027009567216
49	0x3f99d55dcf6ba610	0.02522799089903144
50	0x3fa6794f1687fce0	0.04389426374472705
51	0xbf79927a6d298b63	-0.006243208149132015
52	0xbf9b79db45dc94dc	-0.026832033289925103
53	0x3f95a7ed8a733f1b	0.021148406577423545
54	0x3fa8f3b33f5865a1	0.04873428486116472
55	0x3f971305ea31d4f6	0.022533504885775955
56	0xbf844e5a363dd86d	-0.009915070324250952
57	0xbfa31ed284c4a8d0	-0.03734453077989175
58	0xbf84ea77b27d4888	-0.010212836393894045
59	0x3f850f245677c2fa	0.010282787216938417
60	0xbf8079fd6218fb92	-0.008045177036476923
61	0xbf996b754afef226	-0.024823982908616447
62	0x3f900f6be9d569ac	0.015683828494141558
63	0xbf849a63f452727f	-0.010060101407640019
64	0x3f95c203a37d37a6	0.021247917989334696
65	0x3f93494f5b10cdea	0.01883434289284295
66	0xbf7d7ff24258adac	-0.00720209724890301
67	0x3f95b5a8240b1a41	0.021200778198158913
68	0xbf93c0d4744b19dc	-0.019290275190337755
69	0x3f82f6d35c2f52a7	0.009259845019110214
70	0x3facf88e27b1fa29	0.05658382639466126
71	0x3f7ba2fa8851c2a8	0.006747225420540438
72	0x3fa8bbb472f236ba	0.048307074576866296
73	0xbfa545973e24ebe2	-0.04154656060787666
74	0xbfa8b75e4b5fa9af	-0.04827398939217475
75	0xbfafe46d7def33cd	-0.06228964006695712
76	0x3f5a4ace9deaaa88	0.0016047494643013655
77	0x3f7b1f23b0ee3904	0.006621493738647514
78	0xbfa16e50c89881ae	-0.034044765936644836
79	0x3f7bac58eb5b4066	0.006756160107855269
80	0x3f98f29a487085eb	0.024362955733641483
81	0x3f9387e22681f678	0.01907304153473041
82	0xbfab582d9c3a540f	-0.053407121010572316
83	0xbf94822a88011c30	-0.020027794409795685
84	0xbfa9ac658266ff0a	-0.050143406074765265
85	0x3f928aa10e657cd7	0.018106953147591334
86	0x3f9cf7893ccebf94	0.02828802522316172
87	0x3f973536c2fa0efd	0.02266393246692554
88	0x3f988466d11d5895	0.023942572129577917
89	0xbf883dcb46a4534a	-0.0118366127904125
90	0x3fa9570d898a3230	0.049492285766153166
91	0xbf96f1a1728684aa	-0.02240612279422708
92	0x3f7d3f0573b69881	0.007140179917234702
93	0xbf7a7515759948c5	-0.006459316087403082
94	0xbf88d551c5e9bf18	-0.01212562451584591
95	0x3f96bb01b49689cb	0.02219774880144047
96	0xbf90fea1504dadf3	-0.016596336866696104
97	0xbf9ada5ce2ca2a55	-0.02622361311163453
98	0xbf87864f329f71d0	-0.011486643535982305
99	0xbf7b2f278b589930	-0.006636766881945186
100	0x3f8a125f5fe3cf40	0.012730355371310176
101	0x3fa44a0ad9dbdf9b	0.039627398580648086
102	0xbf972d242287d3f2	-0.022633137328700266
103	0xbfa3044b64c5d193	-0.03714213948379377
104	0x3fa84b21fb631187	0.047448217331779445
105	0x3f927b8fa3057d56	0.018049473118819513
106	0x3f9e153e8b73c371	0.02937791563175857
107	0x3f80e24e3ad93465	0.008244143649017663
108	0x3fa16c0f5d733eb4	0.034027557523243074
109	0x3f9e019c7e4e2b74	0.02930302163035088
110	0xbf886739beed8902	-0.011915637149006123
111	0x3f8aa3b824559672	0.01300758229144636
112	0x3f96553fe557de31	0.021809576390266542
113	0x3fa3200def9f1ab0	0.03735393095080519
114	0xbf6e5ff3c284804c	-0.0037078629431022466
115	0xbfa19cf9535667ca	-0.034400741026913886
116	0xbf8bd823077b101e	-0.013595842042725844
117	0x3f82ac8dd1d754a1	0.009118183103888735
118	0xbf7494b4a09a8774	-0.005024629188172248
119	0x3f887957bda57020	0.011950192904514323
120	0x3fab74653e09f381	0.053622402022461386
121	0xbf9c7b1f17a36d5b	-0.02781342107560412
122	0xbf71ae0df5592fea	-0.004316381955117502
123	0x3f86ca5443bb4d0b	0.01112809974384856
124	0xbf90bd5ccaf86c37	-0.01634736050446525
125	0xbfa28f8aa56e685e	-0.036251385397193955
126	0xbf8dc243663b0128	-0.014530684048964362
127	0xbf99d6fdf411cbb6	-0.02523419191534134
128	0x3f9ac4d124da3d7a	0.02614142215184987
129	0x3f82a0ef7dfe471a	0.009096022636899504
130	0x3f96304e9f826aac	0.021668652043994527
131	0xbfafecfd6f546863	-0.062354965057424015
132	0xbf93a20a323b85e4	-0.0191728203925602
133	0x3f7b5840c5b4d652	0.006675961510429556
134	0x3fa4f02d0fb6d029	0.04089489762137106
135	0x3f9e7a14817f53e9	0.02976257362736937
136	0xbfa5f1fa936e9838	-0.042861776825973086
137	0x3f6ab8e47462f663	0.003261991692027165
138	0xbf9f320b085d4d31	-0.03046433676292998
139	0xbfa8c493558f9a01	-0.048374752230120784
140	0xbf7e044405604ccd	-0.007328286845239518
141	0x3fa11ec2d4d8e031	0.03343781326515261
142	0xbf99cd6e6393993b	-0.025197720363302905
143	0xbf99a73284d1c990	-0.02505186973253043
144	0xbf44da0b6fe1cf68	-0.0006363445134085323
145	0xbf9f7ec667c4ffd5	-0.03075704582556667
146	0xbf9079ae844efec9	-0.016089178872561036
147	0xbf988384853ff605	-0.023939200051236415
148	0xbf89f100b7852ee0	-0.012666707611649952
149	0x3fa259b056d44524	0.03584052143026842
150	0x3f9653b0ca8d33d5	0.02180362926747022
151	0xbf8c11fc1eaf974f	-0.013706178366145542
152	0xbf7ce06c6c33aff9	-0.007049964452772167
153	0x3fa35f4e308b8e59	0.03783649771301318
154	0xbf8af80475c00c14	-0.013168368190241288
155	0x3f64636a2f0158ee	0.0024888109110562306
156	0x3f7d90c904ea3c7e	0.007218156081434944
157	0x3f8993a776f826d1	0.012488659208446691
158	0xbf99a34a871fede6	-0.025036968705519323
159	0x3fa1c3eba1d15851	0.03469787931742075
160	0x3fa3f6a4585710d0	0.03899110391970029
161	0x3f978e4111168f7a	0.02300359408185624
162	0x3f8ad6fc81ea258f	0.013105366434745828
163	0xbfade53e33ef0eb0	-0.05838961013753641
164	0x3fa7665aa41b6d16	0.045702774555787126
165	0xbfa6ae4cff36a66a	-0.044298559335698
166	0xbf7c2d0f4903c2c1	-0.006878909786096344
167	0xbfb0f1c57acbfafb	-0.06618913886994086
168	0x3fa08d9788d8261b	0.03233026071036368
169	0x3fa06a627d388142	0.03206165102551718
170	0xbfb21e228c86d3e0	-0.0707723229487125
171	0x3f6772355d8c757b	0.002862076024384206
172	0x3f89feb86f4bc2ee	0.012692871948702469
173	0xbfa87f6fce4af8ad	-0.04784726517890312
174	0x3fa9e437bcd2f675	0.050569288062871566
175	0xbf841aac6dcd70a4	-0.00981650075998914
176	0x3f895fa92d538785	0.012389489837406628
177	0x3f9063980e9e4ed9	0.016004920856700664
178	0x3f83fe39d598b915	0.00976224120230688
179	0x3f9a16bf2579bbc7	0.025477396642994223
180	0xbfabff980ea8b4ec	-0.05468440226500512
181	0x3f862e038c7b32d9	0.010829951977393492
182	0xbfa30a7c41030af0	-0.037189372001668164
183	0xbfa3f954050f775f	-0.03901159822247168
184	0x3f95ad7d14f200ab	0.021169618991280597
185	0x3f787e64302fd6c7	0.0059799111941082955
186	0x3f7e94ecbd121b8e	0.00746624446867984
187	0x3fa3dba5bc89c00e	0.03878515173425977
188	0x3fa2b86d6fbea9a7	0.03656332005569434
189	0xbf80f53c940b0358	-0.008280251758493826
190	0xbf8ec74fdfbd8fd8	-0.015028594985501728
191	0xbfac01ecbcb7ee94	-0.054702184712337815
192	0x3faa0baca93017ed	0.050870319035354196
193	0x3fa2258e6f76d678	0.035442782503577186
194	0xbfadc3ea0e7cfced	-0.058135332363684934
195	0x3fac868635f107ca	0.055713838658007456
196	0x3fa56858fa66e71c	0.041811733786245336
197	0xbf94113d7efb7432	-0.01959701621568772
198	0x3f703a65bb40c926	0.003961942089562498
199	0x3f4467a283a504d1	0.0006227057959124154
200	0xbfa6e6ead59212e5	-0.044730509348516446
201	0xbf6be2980cba52e3	-0.003403946849923721
202	0xbf88888f029f798a	-0.011979214923425702
203	0xbf9d7b39a9293a91	-0.028790379476328957
204	0x3fa271d3ae250c9d	0.03602468014516911
205	0xbf862993faf6b51d	-0.010821491333298067
206	0xbf52bd05114d966d	-0.0011436986435112942
207	0x3f40307ead24028f	0.0004940622841616715
208	0x3f96a0e71076ec34	0.022098169689098238
209	0x3f999474ccd5377b	0.024980378152853682
210	0xbf8937e2e57257d9	-0.012313625933796079
211	0x3f99e01b78626ac2	0.025268964026148984
212	0x3fa67e5b704063cb	0.04393277879007192
213	0xbf939e6246304956	-0.019158874067281083
214	0x3f6e8ad0d65f51d5	0.0037283018927871483
215	0xbf990c4b2a5d1245	-0.024460958920160775
216	0x3f77a4f1f720bc19	0.005772538354036371
217	0x3f98d8c20e682b7b	0.02426436627323934
218	0x3f45554f7a7ad2ca	0.0006510389402679337
219	0x3f97a74e438af90a	0.023099158165444535
220	0x3fa423a539502045	0.039334452863898174
221	0x3f4f14adf556d846	0.0009485101133381933
222	0xbf87dede0a5fbd7b	-0.011655554477299592
223	0x3fae714267d3a311	0.05945785062232834
224	0x3f6924f3bdd4b92f	0.0030693779541685266
225	0xbf922acba4ef8a14	-0.017741376821399937
226	0x3f7487a3845c4ada	0.005012167681132518
227	0xbf8cca37d60874fa	-0.014057575434942116
228	0xbf9416a1482d4537	-0.019617576628040836
229	0xbf9b0c97d5a64c92	-0.026415226378571584
230	0xbfa5566f9eca7a6b	-0.041675079473169806
231	0xbf66918a9cf8346c	-0.0027549464500738387
232	0x3f9c3731c6fee59a	0.027554300089581575
233	0xbf99fc015b917e80	-0.025375386442077374
234	0xbfa4a1087b961f10	-0.04029108532546222
235	0x3fa262ad2ff88a06	0.03590909205037822
236	0x3fa38a150e5d4740	0.038162858966315216
237	0x3f87e882b077dd36	0.011673947344191232
238	0x3f93a8c52b55c426	0.019198494691810584
239	0xbf97584ef56d80a0	-0.022797807435723016
240	0xbf9af3d0af8e1542	-0.026320706095721798
241	0x3f78c266100f8f8e	0.006044768030708426
242	0xbfa8addfd9cb8546	-0.048201556526473996
243	0xbf7c1953c8f90cbd	-0.006860091481544814
244	0x3f87cac83398f2c8	0.011617244791631079
245	0x3f4465014e8b3aed	0.0006223923092763796
246	0x3fa09c851a72051d	0.03244415233440121
247	0xbf93156d860862db	-0.018636428170881607
248	0x3f7ac15f4b6f8362	0.006532070393377195
249	0x3fa366babc3eba13	0.037893138388756985
250	0x3fa091beda7b63e9	0.03236195008293647
251	0x3fa428dea9604843	0.039374311614793565
252	0x3fa2ddc0bf610cf5	0.036848090516764666
253	0xbf7e1b9e04075889	-0.007350556611035349
254	0x3f81d40330a337dd	0.008705162927437666
255	0xbf842757787da2db	-0.009840663303934452

fc1.bias f8 [200]
0	0xbf90650d32bf2976	-0.016010481092771887
1	0x3fac5d6ef7b07dc2	0.05540034078171231
2	0x3f89707df5668ffc	0.012421592761548077
3	0x3fa5556185ad55bb	0.04166702992248924
4	0x3fb0e1506e3f7e45	0.0659380215797621
5	0xbfa9033887f8a49b	-0.04885269794278565
6	0x3fa6c9bed004b568	0.044507944958563084
7	0x3f937641fb47b0c2	0.019005804979244763
8	0x3fb17bff8a244c0b	0.06829831240274602
9	0x3f9d69e885a3bfd1	0.028724320561138775
10	0x3f9b99b71dde1277	0.02695356483265462
11	0xbf72f1df2ca6e820	-0.004625198149762283
12	0xbf954ca6fadf8efd	-0.020800217687692236
13	0x3f719d10a629c05a	0.004300179515311775
14	0xbfa38fe28b1757c9	-0.03820712993517323
15	0xbf81ea3f451abaf1	-0.00874757222785891
16	0xbf9d5bbbdd53a06a	-0.028670249351222678
17	0x3f8a142e015ad5a5	0.012733802238794232
18	0xbf83bbcc14bb5272	-0.00963553846615037
19	0xbf8e196b19a00f93	-0.014696919173736755
20	0x3fab10898c969b68	0.05286054459730033
21	0xbf97fdbd2d7d66d4	-0.023428874875526542
22	0xbfa88235ac26d827	-0.047868420853248765
23	0x3faf563e9cd4a220	0.06120486893116017
24	0xbf76ba2fe932017c	-0.005548655654934339
25	0x3f7ef9f9e993c5bf	0.0075626146510656125
26	0xbf85e02e51389ea8	-0.010681497434304646
27	0x3f8d2c052c424f7c	0.014244118130853904
28	0xbf74dc9689fb177e	-0.005093181651039445
29	0xbfac944017bdc783	-0.05581856050311187
30	0xbf8f7dc48d98eedc	-0.015376601763925128
31	0x3f92bbdf2cdea384	0.01829479895937737
32	0x3f8b959ddf40e435	0.013468964934974273
33	0xbf95fe5cceaa3947	-0.02147812854178113
34	0x3fade3958f502ea8	0.058376954788483204
35	0xbf5307a880894c7c	-0.0011614938286086665
36	0x3f85094d6206c28d	0.01027164893534518
37	0x3f90b013dde509aa	0.0162966827567829
38	0x3fa0237eb4c1b786	0.03152080494406477
39	0x3f9609dce3a6501c	0.02152199878180748
40	0xbf922d568aeeb690	-0.017751075963750085
41	0x3fb1285d2bbf4523	0.0670221549801409
42	0xbf69ecd71d9e7686	-0.003164692066049582
43	0xbf9cfe195baba722	-0.02831306097042508
44	0xbf9b37ff804e4743	-0.026580803114092843
45	0xbf9074998a0e835f	-0.016069792796432277
46	0x3fa2b07ad4fab89c	0.036502684114894296
47	0xbf80f89dbd0d28a3	-0.008286697704211149
48	0x3fa2781a3441899f	0.03607255828753186
49	0xbfa0532667b25434	-0.031884384306217234
50	0x3faa3047b345e46c	0.05114959777251546
51	0x3fa307d04f4ab351	0.03716898887555565
52	0xbf811a572951f6ba	-0.008351021717540309
53	0xbf779e3ee286dc7d	-0.00576614918138951
54	0xbf997f1ed8e55c32	-0.024898988712575405
55	0x3f9da156405f7d0d	0.02893576400663016
56	0x3f9a97bf18117ecb	0.02596949180985923
57	0xbf9356994241d708	-0.018885035199182304
58	0x3fa0dd46277135c8	0.032938186945652925
59	0xbf8577ac13685182	-0.010482162801999765
60	0xbf97dafbc155babc	-0.023296292948937078
61	0x3f8aeb5c821b91d5	0.013144228668758121
62	0x3fac5df47f24e260	0.05540432025958775
63	0xbf7e76f6d7df9664	-0.007437671882120609
64	0xbfa18abad6a5c359	-0.0342615496655358
65	0xbfa34002b0f6507f	-0.037597736455752255
66	0x3fa5f338e02a5aa1	0.04287126289743993
67	0xbf7bcc83861a2b2a	-0.006786836400020127
68	0xbf86de94ee438522	-0.01116672851680051
69	0x3f76f966238359a6	0.005608939151179026
70	0xbf9481a51a135e69	-0.020025806156665747
71	0x3f769d1ee5a973f1	0.005520935718405604
72	0x3fa5e50777a773a0	0.04276297889348446
73	0x3fa893f77b3d75bd	0.04800389651675683
74	0xbfa746b30f2fd56e	-0.04546126900087698
75	0xbf81a397d9bb622a	-0.008612810451652814
76	0xbf9a4abc0fd7fba8	-0.025675714938184463
77	0xbf98190ad6cfa89e	-0.023533028946908112
78	0xbfa484395790af24	-0.04007128900442883
79	0x3f8908351b4c42e7	0.01222268571430747
80	0x3fa95a864c46c3af	0.04951877289875683
81	0x3f81a813d4a49031	0.008621363570064574
82	0xbfa2f62675102a54	-0.037034227170882034
83	0xbf8f5c231af4de48	-0.015312456379077535
84	0x3f6b6f123f09546f	0.003348861348323732
85	0xbf6f4534341c7346	-0.0038171786881221774
86	0x3fafb5335e292b8a	0.061929326290360256
87	0xbf964dffda2b44a6	-0.021781919184665675
88	0x3fa7ee72c741ded9	0.046741091559793176
89	0x3fabb2cb4687778d	0.05409846530868299
90	0x3fb14fb5d570ca1a	0.06762253247215036
91	0x3fae4c697c273cfe	0.059176727681569105
92	0x3fa39cf5ed4cfa6b	0.03830688974129689
93	0x3fa4096b79f72186	0.03913436759791282
94	0x3f871125ab37dfae	0.011263174331347017
95	0x3f9d4f211a068351	0.02862216683718383
96	0x3f9c07fe10fe7d9f	0.027374238764989674
97	0xbf7e9321448d9237	-0.007464532806669192
98	0xbf73693c8bbc44d7	-0.004739033229058629
99	0xbfa2d18bde07bd40	-0.03675496182756399
100	0x3f8887662378b86b	0.011977003057008958
101	0x3fa9eae43b0fbc1b	0.050620205125476235
102	0x3f8eeaf44ebf411b	0.015096577313585649
103	0x3fb0c3a0f0c85a3e	0.06548505667192558
104	0xbf8dda34ac5cca2c	-0.014576350698551975
105	0x3fadb5967c5a70c8	0.05802603023514191
106	0x3fadc764c45296e4	0.058161877598917916
107	0xbfa2d66700c9cb34	-0.03679201016065861
108	0x3f9e6a82231f2172	0.02970317210545787
109	0xbf6663c53593a321	-0.0027331210845783637
110	0x3fa655a15118cda9	0.043622056149981
111	0x3f99f2b5fcbd36b8	0.02533993105981011
112	0x3fb294397eaa3f59	0.07257422773750245
113	0x3fa4618a6e80faed	0.03980667685435955
114	0xbf82b84f4367607b	-0.009140605206013888
115	0x3f99ff4be705a8be	0.025387941337080326
116	0x3f9b4d93f70255ec	0.026663124037971928
117	0xbf785e599df0f38b	-0.005949354234925939
118	0xbfa542a498ba9c84	-0.041524070399924035
119	0x3f9640c8699e7cbf	0.021731502005079003
120	0xbf8b2ce358ca47b6	-0.01326921095577292
121	0x3fae1898ff636a51	0.05878141515286884
122	0x3fb0eb30834ac466	0.06608870702145139
123	0x3f7ca67f87eaa757	0.006994722526238415
124	0x3fb179b0ed1811f1	0.06826310909679713
125	0x3f996bd0e84e0d0e	0.02482534807087427
126	0x3f7aa63c672d3063	0.006506191205357312
127	0x3fb2c51c042a7446	0.07332015134530065
128	0xbf8587fa6f40ebfc	-0.010513264198484855
129	0xbf8b13afffe921ec	-0.013221144673608763
130	0x3f9a4543ce33a812	0.025654849491651595
131	0xbf713e7825d93e6a	-0.004209966018222747
132	0x3f9462acc8c7ef09	0.019907665018748442
133	0x3fb0b8042527be16	0.06530786425695853
134	0x3f9b76b2b55518a6	0.026819984738971535
135	0x3f9f31aac739c6be	0.03046290245987992
136	0x3f923ef51cb5786a	0.017818288686037333
137	0x3f8eac31c9af1f51	0.014976872413072025
138	0x3faa5641808be0ab	0.051439330045412866
139	0xbfa53b5840705304	-0.04146838938337363
140	0x3f9e96af8eba81ce	0.029871695600947316
141	0x3fa8613121c0ca6d	0.04761651551270494
142	0xbf95c3c83ac9f57d	-0.021254662121000124
143	0x3fa60123f4c1796f	0.04297745096913529
144	0x3fa04f6e8a24e97f	0.031856016505531486
145	0x3fb161b790074d0c	0.06789729372330927
146	0x3f81af885027735e	0.008635582872494826
147	0x3fadf8a7dabc3944	0.05853771729572313
148	0xbf8de70b229e8dc0	-0.01460083674812196
149	0x3fa3ce0864e2c7c4	0.03868128043667654
150	0x3fa7392b75671c40	0.045358045655625734
151	0xbf6e4f7604209cf4	-0.0036999993326564066
152	0xbf97ee71e268c942	-0.023370532459190636
153	0xbfa68a684c580816	-0.04402471477443741
154	0x3f93f90b3e378aeb	0.01950471465341767
155	0x3f84bf322823edca	0.01013030228613489
156	0x3f82abe11a738861	0.009116896266679388
157	0x3fa58ce9ceb64c85	0.04209070823994757
158	0xbf948da20a9619ec	-0.020071536918772212
159	0x3fb1b2fc2877f56a	0.0691373442459359
160	0x3f97aa9e78438c1b	0.023111797418902662
161	0xbf7600915591c14b	-0.005371635162291287
162	0xbf2b714235f8ee53	-0.00020936902272859995
163	0x3fa4f4442c11b797	0.04092610395387835
164	0x3fb1511e7f6202f0	0.06764402971203842
165	0x3fb29a84bdff0c4c	0.07267026556569184
166	0x3fa6e0b9f4d64e3c	0.044683276307435155
167	0xbf791a2825100200	-0.006128460708169303
168	0x3fa5ff5e55f91f30	0.04296393203236304
169	0xbfa56ae0711a94eb	-0.04183102970754667
170	0xbf7493f740189848	-0.005023923703936069
171	0x3f8cfd854010ce0f	0.0141554269958766
172	0xbf7d038668420fec	-0.007083439854003597
173	0x3f71ca77470e185d	0.004343477180446778
174	0xbf91b727ae98f186	-0.01730024340780425
175	0x3f74879b62a3dc63	0.005012137388113211
176	0x3f7745131ddd1592	0.005681109117920429
177	0xbf97643149539945	-0.02284314165162839
178	0xbf9cd2387fa8d420	-0.028145678321568224
179	0x3f9466ee2624cb81	0.0199238978177152
180	0xbfa01bf23b4e631c	-0.03146321271851191
181	0x3f83b5a00bf0c424	0.00962376629294865
182	0xbf944fc103fb194f	-0.01983548723981104
183	0x3fa1d70a91aaad38	0.03484375980527904
184	0x3f9715ee61e736dc	0.022544598317657413
185	0x3fa0b2485601d2c6	0.03261018800632125
186	0x3f326198ef03c48f	0.00028047546130866794
187	0xbf641e3885524b5b	-0.0024558166429157597
188	0x3f80f48e301734ca	0.008278952448473115
189	0xbf5f74f3cf0b2908	-0.001919973463531623
190	0x3fa702f49f8620bf	0.04494442412675558
191	0x3f565604d5ee55a8	0.001363281938869457
192	0x3fa8d34fcb3630dc	0.04848718028651586
193	0x3fa1b0093255d9af	0.03454617251820779
194	0x3f8e2508fb354173	0.01471907631517475
195	0xbf98b38b7717f7ad	-0.024122409004114043
196	0xbf92102e04dc5e8d	-0.017639845892601747
197	0xbfa1a31170c3589d	-0.03444723607542353
198	0x3f94ee38cd0bce7c	0.020439994349500598
199	0xbf8bbe5d0a1c8d3b	-0.013546683188514144

fc2.weight f8 [100, 200]
0	0x3f8d758a77b854df	0.01438434770447333
1	0x3fb018ac7adcf9d8	0.06287649154271635
2	0x3fb1d839119494b1	0.06970554999550661
3	0x3faac00ac5b2d0a0	0.0522464147883579
4	0xbf994f346b9cbccc	-0.02471620470822415
5	0xbf829816b43fbec1	-0.009079148650897097
6	0xbf8e845d10a9af12	-0.014900900908478874
7	0x3f94771050bf8a64	0.019985442093352637
8	0x3fad6f9bae10f5b5	0.05749212741691726
9	0x3f74c0090f0edff4	0.00506595171548695
10	0xbf8bc58bfcb8b04a	-0.013560384416528976
11	0x3f9a2feb35a617d4	0.02557342066713615
12	0x3f94ac3e1d21ee0d	0.020188303497418448
13	0x3fa573a503c347e4	0.04189792319233712
14	0xbfa3f426057438f0	-0.038972080388804176
15	0x3fa060babe444201	0.031987987256915325
16	0x3fa17cd738865fc0	0.03415558400155261
17	0x3fa3b12070f73821	0.038460744657286
18	0xbf85be7fd9206ab7	-0.010617255033186763
19	0xbfa01fdfdbeab394	-0.03149318275004656
20	0x3fb0caa424748e61	0.06559205904027855
21	0xbf793b23fd9d71e7	-0.006159916485412676
22	0x3f887381c752de56	0.01193906201875376
23	0x3f92adfce93baeb7	0.018241836295529192
24	0xbf8b19b9977af9e9	-0.013232660231889919
25	0x3f0f0ef2bfbb5af1	5.923918066990341e-05
26	0x3f95fafa91c70a66	0.02146522059207214
27	0x3f7f682d62214f3b	0.007667710569950799
28	0xbf953773b1ae2a14	-0.02071934482550304
29	0x3fa17e70cc3867a6	0.03416779034542054
30	0xbfae3dc2f4ab0094	-0.05906495320005081
31	0x3fa9393e01d661c7	0.04926484844617423
32	0xbfa61ff95994afc3	-0.04321269243732175
33	0xbf6aaec7e4f7f9cd	-0.0032571701228782724
34	0x3f955616c862dad4	0.020836215954399176
35	0x3f86eb322a4aec79	0.011190788188619504
36	0xbf75cabe1b52951e	-0.0053203035396667524
37	0x3fb1dbd777253a42	0.06976076754401908
38	0xbfa9d3758c177634	-0.050441430426627326
39	0xbfa15bce7a0f2496	-0.03390355339031108
40	0x3f86f0addd634d40	0.011201246565554102
41	0xbf71df44c45402b2	-0.00436331617424972
42	0x3fa4b526841d1ff2	0.04044456827847388
43	0x3fa7cbe6ac18ab2d	0.04647751665864628
44	0xbfa132d5d5e6197d	-0.033590967522331795
45	0x3fb2d232c7f89985	0.07351987249476195
46	0xbfaa1c6a6640d887	-0.05099804399689938
47	0x3f9044bf8e0c7055	0.01588725380416663
48	0xbfab5ddbcd833d0f	-0.053450459324830495
49	0x3fa75551a53a22f8	0.04557280675823522
50	0x3fb0699f6cc37c59	0.06411167531358454
51	0xbf96447662f81001	-0.02174553851183703
52	0xbfa5465a95d5f287	-0.041552382269377346
53	0x3fa03862ae267af2	0.031680186995108786
54	0x3f900e65b1e64b5c	0.015679921134118188
55	0x3fa1cdb78b5b468c	0.03477262092714026
56	0xbfa452ae36cdb282	-0.03969330233562564
57	0xbf901e018d32a2a9	-0.015739464037923288
58	0x3fa0bf2cb5e7e381	0.032708546834277825
59	0x3f891e9920bea417	0.012265392600811649
60	0xbf95cbcb67b22018	-0.02128522701653432
61	0xbfa87e664de2dd9d	-0.04783935261496739
62	0xbf9788dee6ee55a8	-0.022983057827863057
63	0x3f82c8aee804ac9d	0.009171835380206434
64	0x3f7c9f51c39d8c63	0.006987876311401828
65	0xbf80d0548776eb9f	-0.008209858306931937
66	0x3f8a1511fd8fc811	0.012735500860774381
67	0xbfa47e60cd3a64b1	-0.040026688625581903
68	0xbfa1f0fe75a55cef	-0.035041763173177524
69	0x3f80aa5b2e5e289d	0.008137428619893245
70	0x3f86531d26e15d76	0.010900714634927349
71	0xbf9bc92af440dee2	-0.027134581716579904
72	0x3f9d92291be8cb19	0.028877870872928122
73	0x3fad10f4b7678391	0.05676998843023918
74	0xbf9e9f0156740c69	-0.029903431798640776
75	0xbf772971ad521ba2	-0.005654758501925013
76	0x3f7f1d57296734a6	0.007596340632926834
77	0xbf9ab9a58253d81e	-0.026098810271797494
78	0xbfa9e51d301f153a	-0.050576126217075815
79	0xbfa09b67ff0195bb	-0.03243565547817747
80	0xbfa027824fdce95b	-0.031551429985898514
81	0x3fa055bfd82fbeba	0.03190421594615374
82	0x3fa0798999d9f523	0.03217725756710823
83	0xbf8645c3e283c3b5	-0.010875254011326033
84	0x3fa44181aa304e5a	0.039562274956691026
85	0x3fa7b0b2bd10ac44	0.0462699752609628
86	0x3f9bdeb1d8458b3d	0.02721670038716727
87	0x3fa51db5fcff8fb1	0.041242301114635345
88	0x3fae2c8d764cce04	0.0589336592587664
89	0x3f915cf9054600bd	0.016956225344529886
90	0x3fad8c6aeeb52fdc	0.057711927069788976
91	0xbf96a7ae6bfddc8e	-0.022124028531348254
92	0xbf324b38b8ae94fa	-0.0002791417579664637
93	0x3fa6f3c34ff7f037	0.04482851363351908
94	0xbf9702a598c40438	-0.02247103447826168
95	0x3fab5c29df9e59df	0.05343752722471939
96	0xbf985e62636f397a	-0.023797547644613705
97	0xbf7fe12927433826	-0.007783089404439314
98	0xbf759fd4ef4a6ade	-0.0052793805849897495
99	0x3f984bf5ae53e705	0.023727263226624568
100	0x3fa3bc255cc0816e	0.03854481465555436
101	0x3fa8ec68d4e07c49	0.04867866133303573
102	0x3f89357a5ed99d13	0.012309032458871749
103	0xbfa7b70c50bb8d84	-0.046318421225602285
104	0x3f9d19e945d11789	0.028419155966069396
105	0x3f59f3fdffc76372	0.0015840511761011336
106	0x3f9ded15350e7d95	0.029224711764638995
107	0xbf72433aa7612d45	-0.004458645931730236
108	0x3f834fe2d0fa4efe	0.009429714205260616
109	0xbf8542c0fe49ebc6	-0.010381229172017014
110	0xbf71894ec8a2c416	-0.004281337498626156
111	0x3fa8ab79e0242fd2	0.0481832586393406
112	0x3fa7f2c4cb760271	0.04677405341772534
113	0x3fa6db7005c6462c	0.04464292593469241
114	0x3f912201e1f1ea0a	0.016731290259921074
115	0x3f80165dab53b4c6	0.007855159560188684
116	0xbfae09ceb98cc03b	-0.05866857543003375
117	0xbf9c8c7ddbdf4710	-0.027879683060581917
118	0x3fa489fc0da1ee8d	0.04011523882306021
119	0x3f812a34325bf7b5	0.008381278788416194
120	0xbf972044576e309a	-0.022584026180581952
121	0xbf99dc79d432d6b1	-0.025255111290525437
122	0xbf9b36db1785fbfd	-0.026576445875885913
123	0xbf9528eaa8c62a5f	-0.020663897086289015
124	0x3f84897c28eb083e	0.010027856825562616
125	0xbf97d45105edbad4	-0.023270860659461004
126	0xbf79a9d912bbdf25	-0.006265495245081164
127	0x3fa637555e38b077	0.04339091086544127
128	0xbf8b8313d52512a5	-0.01343360418526036
129	0xbf89078aa7d71a7c	-0.01222141575534618
130	0xbfad51a8d96e20ce	-0.0572636380593977
131	0xbf888b1b25279b26	-0.011984073706981468
132	0x3fa57f8821123535	0.041988615071299064
133	0xbf89b00450b00181	-0.012542756760013376
134	0xbf9dc1905737a072	-0.029058699916192095
135	0xbf85e264be7083ba	-0.010685717641594528
136	0x3f8106bac3c130bf	0.00831361684699805
137	0x3f95809b8dbd061f	0.020998411680244296
138	0xbfa94b77d03c5d23	-0.04940390030804511
139	0xbf58a432427ace4d	-0.0015039912049531646
140	0x3fa5b6d29883fd41	0.042410451047539606
141	0xbf91486641a4c854	-0.01687774444253194
142	0x3fa6bfb893cb045b	0.044431465188161844
143	0x3fa295d100c1ace9	0.03629925855860867
144	0x3f9b2ae3e45ac60e	0.02653080064073348
145	0xbfa9e5afb7088fea	-0.05058049306197161
146	0x3fa4466674197244	0.03959961096982004
147	0x3f77709907afc177	0.005722615979707127
148	0x3f9b43b7bafc73cf	0.026625510013321304
149	0x3f9f91a80936438e	0.03082907253480332
150	0xbf843beee353db9f	-0.009879938423621058
151	0xbf8a2db6ccbe6695	-0.01278250515297267
152	0xbf9bf2d6c3ca3301	-0.027293544483245395
153	0xbfa55781d3ad1286	-0.041683251466143864
154	0x3f9bf6bd0b13c674	0.02730841999159002
155	0x3f87d0126083989d	0.011627334185004218
156	0x3f966a45a27ece03	0.021889770548751752
157	0x3fa9d692497372ad	0.05046517511957425
158	0xbfa12a7466e7461b	-0.03352702861924347
159	0xbf6e66b76a8d3c5f	-0.0037110884044646987
160	0xbf82aab650160879	-0.009114670104058075
161	0xbf36baf6d8ed3747	-0.00034683729693517736
162	0x3f50ca7162005471	0.0010248286489560577
163	0x3faa7093318ea868	0.051640128898115034
164	0x3f9bc7d48072ea77	0.027129478778741913
165	0xbf9fffa668f89050	-0.031248665005606135
166	0xbf9367eaeae26448	-0.018951101862146907
167	0x3f6ba2f16cfc2ae6	0.0033735957475803267
168	0x3fa9fe1d1a1651a2	0.05076685851523456
169	0x3f96244a135c5779	0.02162280791443247
170	0x3f99d4aaee359385	0.02522532538332058
171	0x3fa369404b80639d	0.03791237756394781
172	0x3f8ba64f4b397458	0.013500804408233133
173	0x3f78c611e9caa296	0.0060482692466982315
174	0xbf0aba06a8349ecf	-5.097706618989244e-05
175	0x3f8e20e27f49f8c1	0.014711160192060981
176	0x3f7b87410d13ae5d	0.006720785241877883
177	0xbf7d3341e906830e	-0.0071289610499725275
178	0x3f9d9ff152354587	0.028930445330222845
179	0x3fb1c6c295f4a7fe	0.06943908844974087
180	0x3fa1a0e7402576f5	0.03443071992908912
181	0x3fa8d41d8d39e766	0.048493312348866266
182	0x3fa011cbc1ba6f89	0.0313857721314142
183	0x3fa11262a1452d36	0.033343393503481186
184	0xbf60b76303306a8e	-0.0020405706250248906
185	0xbf9f4e7361a380d2	-0.030572703203575476
186	0xbf951c0a26b0ad47	-0.02061477528711222
187	0x3f7febad7a58dfcb	0.007793119094962673
188	0xbf7779f3eabc7ea2	-0.005731537628690527
189	0x3f945d3c2ae576ce	0.019886913412270606
190	0x3fa1eb0a8f2cc899	0.034996347405823865
191	0x3ee5ffba88737b1c	1.0489912041609195e-05
192	0xbfa94fa16bf68e7c	-0.049435657910433556
193	0x3f83cec047ed716c	0.009671690173200097
194	0x3fa5e405cce4aa1b	0.042755299817447155
195	0x3f8fc60e02a7e4fb	0.015514478164720283
196	0xbf7a5b8b4faa1d56	-0.006434959587415653
197	0xbf8013a20285d7e0	-0.007849946691504017
198	0x3f580bbf42c1f8b7	0.0014676444798449714
199	0xbf9617993cd6c945	-0.02157439645606842
200	0x3fa25cd67a4fa438	0.03586454623275198
201	0xbf3c6d8e72db6f0e	-0.0004337761664438979
202	0x3f9318bee334efc1	0.018649084680177234
203	0x3f8bc78d5e00fd86	0.013564209395666504
204	0x3fa2623f28de3cbe	0.03590581296804761
205	0x3faa42e816796454	0.051291706794196174
206	0xbf87d6cc41989401	-0.011640163184958753
207	0x3fadf497dde92b69	0.05850672325012491
208	0x3f5ae978a314adb1	0.0016425779434240224
209	0xbf91df38ef21c2d7	-0.017453088374568573
210	0x3f9021d01a379706	0.015753985977332817
211	0x3f88fdff184fd7f9	0.01220320980972288
212	0xbfa88c9689f17934	-0.047947601641441656
213	0xbf9a12a3cd8a62dc	-0.025461730404091706
214	0x3f662ea77ff7addd	0.0027077933771033473
215	0x3f9641912f0446ff	0.021734493727371348
216	0xbf9f912ad5791f21	-0.030827206878057404
217	0x3fa444ed438ddf88	0.039588369842873894
218	0x3f94eec136394b6e	0.020442027029570146
219	0x3f925b135bd2f1f0	0.017925550918095057
220	0xbf898333f067cdb2	-0.012457280897229282
221	0xbfa589ce0adb3268	-0.04206699259302554
222	0xbfab75f3bc17d546	-0.053634278021415
223	0x3fa0cb6baf635a8f	0.032801976356201405
224	0x3f828ec8221832d6	0.009061397114260055
225	0x3f8ff3ee7eaadfd1	0.0156019813924643
226	0xbf6fda8d3bf99442	-0.0038883932573292876
227	0x3fa563917958b9d8	0.0417752705219418
228	0xbf88111dd71c1c3e	-0.011751397254114445
229	0xbfa43ccf6706665e	-0.039526444746297726
230	0xbf89baafdac880a9	-0.01256310831473713
231	0x3f98f47e7d8f3284	0.02437017098763984
232	0x3fa25d9a303657ad	0.0358703788617015
233	0x3f890b4e7700b2b2	0.012228596693682679
234	0x3faa204257633149	0.05102736775151812
235	0x3f9d2cac1ae077a3	0.028490723743849988
236	0x3fa08b29b605d01f	0.03231172892529365
237	0xbfa2d4bc1c21c03e	-0.03677928775221105
238	0x3f7db2366aa3911c	0.007250034870797142
239	0xbf76abc11e5d89e9	-0.005534891481007589
240	0x3f99c7466da8acac	0.025174236720130125
241	0xbfa23a16cf59bed2	-0.03559943467268813
242	0xbfac857c907dc661	-0.05570592178163448
243	0x3f9f3abcee340974	0.030497505224965818
244	0xbf96203130197c81	-0.021607178269161146
245	0xbf9d8e172022821a	-0.028862344108917616
246	0x3f84b0e9a2e24e9e	0.010103059085202756
247	0x3f9bd9a47cc5f6f7	0.027197427859838332
248	0xbf898daa0a90d4e8	-0.012477234313431798
249	0xbf73c8af8057b93d	-0.004830060531715139
250	0x3f941735a11b8cbb	0.01961978717635014
251	0xbfa991bec214912b	-0.049940072242210164
252	0xbfa213eb4dc84c3b	-0.03530822109691952
253	0x3f75d49f29bd1d1c	0.0053297250086139746
254	0x3fa27ae9d7b12d2a	0.036094005183793534
255	0x3f997d4f6d8055e6	0.024892083223752602

fc2.bias f8 [100]
0	0x3f989069c17a621e	0.023988392290080644
1	0x3f90ae41112d17e6	0.016289726899479627
2	0xbf91467d534ca6fa	-0.01687045880240754
3	0x3f9e825f48b529c3	0.02979420548698798
4	0x3f6d6af66967c6bf	0.003591042778901293
5	0x3fa3880e342a02fb	0.038147395961464846
6	0x3fa63a9831acc653	0.04341579061873504
7	0x3f85c96278ed8f2e	0.010638017001560831
8	0x3fa60c05d39eb1a8	0.043060476381785506
9	0xbf895648b4b5ee80	-0.012371604933597569
10	0xbf959ab2adac34d8	-0.0210979383946793
11	0xbf96344045cbb0e5	-0.02168369699477148
12	0xbfa1c6b05dc03b22	-0.0347190012399692
13	0xbf5f11e058c1412d	-0.0018963518987398884
14	0x3f7913c37245b014	0.006122363531499548
15	0xbfa02c4bfd51958d	-0.03158795802373069
16	0x3f92ebae4ea78826	0.018477176237759484
17	0xbf93e27462ae8f35	-0.01941854336077072
18	0x3f92702357d501b7	0.0180058977468904
19	0x3f98f61ea05983f1	0.024376371895758756
20	0xbf60d57b3c5374ca	-0.002054920858980046
21	0x3f5a3ec26af1e65e	0.0016018770800471298
22	0x3f5bb20caaeadf41	0.0016903995234951038
23	0xbfa3c2d9186572a3	-0.03859594748312147
24	0x3f9af8b923dad5e2	0.02633942872372142
25	0x3f2a22c23e928e88	0.00019940014980078893
26	0x3fa2b82641c272bf	0.03656119873742147
27	0xbf4372143ed2202c	-0.0005934332708799109
28	0x3fa4fb8651b025c5	0.040981481048287395
29	0xbfa379a5ccf671f2	-0.03803747298227113
30	0xbf9a001826d4bfd5	-0.025390984888133367
31	0xbf9583cfeaea9161	-0.021010636056091218
32	0x3f9949ddb57a8ac6	0.024695839120463935
33	0x3f8b294c7bf616e2	0.013262364895818949
34	0x3faf11e1819315d9	0.06068329531403167
35	0x3fb05a1c6a17b421	0.06387498464728526
36	0x3f8a80dd673b0141	0.012941102707714537
37	0xbf8a8809de372b16	-0.012954785436610144
38	0xbf8cb1d0006fdc8c	-0.014011025441489154
39	0xbfae7b6f3f603d80	-0.05953548096305905
40	0xbf88c876e5a16937	-0.012101105578200417
41	0xbf79c9b11686d99a	-0.006295863866787954
42	0x3fab9fd4090467bb	0.05395376787255609
43	0x3fa32df69cbf56bd	0.03746004737301465
44	0xbfb10f9fc2b4b728	-0.0666446543079614
45	0x3f97ac3be4a92394	0.023117957908002376
46	0xbfa6e14c245779b5	-0.044687632976763515
47	0xbf902ed8ac69524a	-0.01580370476070162
48	0xbfa5a09ca85c4ddc	-0.04224099688704161
49	0x3f9cfe2d7d9771ed	0.0283133609681147
50	0xbf9cc0d13dcb9adc	-0.02807928981465123
51	0xbfa1ce62a68c4bf1	-0.034777720289774446
52	0x3fa79b2b7de2f63d	0.04610572730733196
53	0x3f7124ea449c735f	0.0041855956167438915
54	0x3f90afe0c224229f	0.016295921182094216
55	0x3f8bc13bbd02d045	0.013552157121331851
56	0x3fa1fdf019a286a1	0.03514051735807056
57	0xbf9a7c09ead0a188	-0.02586379523941809
58	0xbf8dcfcb783ac06f	-0.014556493383992312
59	0x3f9ce890955e3bac	0.028230914227204515
60	0x3fa5254a3e201492	0.04130012520185135
61	0x3fa8a6d33210b5bc	0.04814777361057618
62	0x3f9b1048e58f7a93	0.02642930890203361
63	0xbfaa61178729b1fb	-0.05152200245797541
64	0xbfa4ee7e22a5d97c	-0.040882055024598934
65	0x3f999c18928cc820	0.025009521431634707
66	0x3f87d8b70703e25e	0.011643819715105138
67	0xbfaf51f193332921	-0.06117205545304417
68	0x3fa09083221149b2	0.032352540882715344
69	0x3fac3cccbaf783bf	0.05515136511144857
70	0xbfa39da650174701	-0.03831214645073367
71	0x3f97e4bf3ce24629	0.023333538142258945
72	0xbf981ade50ffeb4b	-0.023539994901493427
73	0x3f910ea9bb36e008	0.01665749745527026
74	0x3f9f7cd63fa81001	0.030749652514728613
75	0xbfa4cc8de149d049	-0.04062312483884562
76	0x3fa3f5b1f9125ba9	0.03898388066698228
77	0x3f5702fd4880dc12	0.0014045213192852607
78	0xbf957ad61e3a7b06	-0.0209763961744285
79	0xbf9f34c3ad2a8855	-0.03047471756384142
80	0xbf88e388dcc9ce90	-0.012152737844395106
81	0xbf37e951caa55f9b	-0.0003648590742577563
82	0x3f7bd6934a141bf3	0.006796431874369613
83	0x3f9cf6384d88ef0b	0.02828300450549563
84	0xbf9e4b8311daeab0	-0.02958493038634441
85	0x3f83ae532372a5ed	0.009609841841966971
86	0x3f7cc37f91cff306	0.007022379225415381
87	0x3fa659b4e72a486d	0.04365315744247842
88	0xbf7498539447e6c8	-0.005028082352959103
89	0x3f9267057309cb86	0.017971120020273477
90	0x3f9973355dab69d8	0.02485354789937752
91	0x3faade09e0f4b7d9	0.05247526999515601
92	0xbf98ba592146e433	-0.02414836183172415
93	0x3fa02590829fa760	0.03153659433867406
94	0xbfa844207bb667c1	-0.04739476690447431
95	0x3f9a82a40eb26895	0.025888980290439696
96	0x3f86f50fb6202f85	0.011209604974304241
97	0x3f90f917220160db	0.016575204325221953
98	0x3f7923dcf4f4ede2	0.006137717354529811
99	0x3f9378b39076736e	0.019015126888564486

fc3.weight f8 [50, 100]
0	0x3f97bf5bb182e2bc	0.023190911015918955
1	0x3f500c18206195bf	0.0009794459924930968
2	0x3fa07d43314ec089	0.0322056768121693
3	0x3f9808fbc17d3e3f	0.023471769032140207
4	0x3f9eb06a11262d42	0.02996984224004718
5	0xbf41eccb09924462	-0.0005470267671105029
6	0x3fa5c25c4a7f84a2	0.0424984780254445
7	0x3fa9a3819845e512	0.05007557853509516
8	0xbf5636069f63a596	-0.0013556542085616289
9	0x3f933a47ff178f1b	0.018777012772161244
10	0x3fb0c032f235d0a4	0.065432724126199
11	0x3fa5c42777a18ca0	0.04251216254558554
12	0xbf74a7a5fd9fab7f	-0.005042694474449826
13	0xbfa0fb789613ba64	-0.03316857177729984
14	0x3f9b7b9b38028dc5	0.026838708203866597
15	0xbfb46ef909914750	-0.07981831058102995
16	0x3f9d6c3c75bda391	0.02873320072777436
17	0x3fba1fbd74ed27bb	0.10204681496284611
18	0x3f55f23b69bff455	0.0013394909101400916
19	0xbf5ee6507f162e33	-0.0018859659288378405
20	0x3f98bd99452fd6fc	0.024160761688071894
21	0x3f82cd2aadaa96b9	0.009180386948467999
22	0xbfaa918daa242fa1	-0.051891734141548136
23	0x3f8976b1050e14bd	0.012433417288557508
24	0x3fa938abe14e202d	0.049260493519853156
25	0x3f66b03e9d0488bc	0.002769586841297215
26	0xbf759303069cd72b	-0.005267154521609456
27	0xbfb2d706be5072d1	-0.07359354158729593
28	0xbfa3c109cf87dad8	-0.038582140525183994
29	0xbfaa57d9499c5352	-0.05145148299758397
30	0xbf57a6856bd95500	-0.0014435103361354895
31	0x3fb037bd5fa0e21a	0.06335052094153362
32	0x3f9009b54b216285	0.015662033758732114
33	0x3f90a786abc9d5a1	0.016264061198361216
34	0xbfb806ff2135b625	-0.09385675965105429
35	0xbfa5e6ad9d206c79	-0.0427755598359107
36	0xbfb4c55ec9fd6b29	-0.08113663131136363
37	0xbfa4022da1931d99	-0.0390791187033372
38	0x3f9d30c6288cff73	0.028506370759032017
39	0xbf9d2aa4e4f2cf45	-0.02848298690214725
40	0x3face47f2335b8c9	0.056430790947034355
41	0xbfaf337b5fd896c8	-0.06093965096469628
42	0x3fb26513f89f1dce	0.0718548280702784
43	0x3fa9cca76776d606	0.05038951051703226
44	0xbf5b918ba8e0b435	-0.0016826499809312727
45	0xbfa6875ce03b26a2	-0.04400148617930923
46	0x3fb14658deb4e021	0.06747966229602344
47	0x3f9829f17ba47c8c	0.023597500964680537
48	0xbfa550258f79e824	-0.04162709595125616
49	0xbfa66419d3d22ae2	-0.04373245917039072
50	0x3fa6b392c8540677	0.04433878608143698
51	0x3faa81ba3c04cf7b	0.05177099211360222
52	0x3fa4d20375ad8cbc	0.0406647759580436
53	0xbfb17e5d32ad79d1	-0.06833441245314666
54	0x3f94d4581431bbdd	0.020341278297958943
55	0x3f90d21525a76482	0.016426401541910447
56	0xbfad36fdf0b1b0de	-0.057060180312733286
57	0xbf838532e93d0601	-0.009531400435323968
58	0x3fb1899a483fc5c8	0.06850590003866508
59	0x3f78fdfdc52dc4ea	0.00610159996982527
60	0x3f8313cb8409db03	0.009315099684710676
61	0xbfabda85d743cb2d	-0.05440157177681324
62	0x3fac281948662e1c	0.054993429267679
63	0xbfa469b4ca9079ee	-0.03986897442540625
64	0x3fb41b71e0763577	0.07854377489112162
65	0x3fa1b27e82cdef5b	0.034564927546823575
66	0x3fab3906854d479c	0.05316944482059613
67	0xbfa3ecea635742e3	-0.038916897417612416
68	0x3faef39cd96c6938	0.06045236734481069
69	0xbfb00edc3688a4f5	-0.06272674876585767
70	0x3f8b16534ea95ff2	0.01322617610746588
71	0x3f6ea1b30621bab2	0.003739213615566805
72	0xbfb3483fff398f83	-0.07532119732928604
73	0xbf8a98ffd57879f1	-0.012987135603052176
74	0xbf768b88c2eb96ff	-0.005504163955924345
75	0x3f909a4c46a2026b	0.01621359997852993
76	0x3fb08bc03286335c	0.06463242753507131
77	0x3fb16ebd7c0dbb34	0.06809601095822587
78	0x3f6c8784b399cf7e	0.003482588942285091
79	0x3fab01b86d2970e3	0.052747500729965834
80	0x3f991770714315f4	0.024503476059882304
81	0x3fa6c87f0be453bc	0.044498415185592916
82	0x3f7afb91742776e9	0.006587570360776709
83	0x3f91763b56776008	0.017052580978855786
84	0x3fb20f6727f00626	0.07054753041304504
85	0x3f7b88789eb8d1a3	0.006721945926575409
86	0xbfab6cb297320bf0	-0.05356367202423218
87	0x3f9315104333748e	0.018635038472770087
88	0xbfa869208c413b56	-0.04767705642790669
89	0xbfb44b8b0f32e250	-0.07927769776404969
90	0x3faa884135568ffc	0.0518207910165813
91	0xbfa332de0629b3ef	-0.03749746155958877
92	0x3f9ac17313f09f9f	0.02612857636645993
93	0xbf6e2e524c9bf993	-0.0036841971785854326
94	0x3f8e9a169ad2e3ca	0.014942337608191542
95	0xbf9b4bdd8bc7a011	-0.02665659108780011
96	0x3fa5d5da266b7d36	0.04264718741409938
97	0xbf84e9b10a830961	-0.010211356290146413
98	0xbfb3031ea0581b2c	-0.07426635183956581
99	0x3fb02b74f48917aa	0.06316309900384334
100	0xbf90935bc162887a	-0.016187127760197907
101	0x3fab871bc378bfa8	0.053765170680321106
102	0x3f89c637269ebe04	0.012585097185222167
103	0xbfa4e64141f48ee1	-0.040819205571350776
104	0x3f90f417205612e8	0.016556130741736036
105	0xbf7e4ea0f2888b71	-0.007399204922452594
106	0xbfb243fe6feb81cf	-0.07135000450535432
107	0x3f72d09a5b878600	0.0045934705344463644
108	0xbf9883f26025fa35	-0.02394083701937629
109	0xbfa441940304d18c	-0.039562821739681814
110	0x3fa2c87b00bcc852	0.03668579467775203
111	0x3f9d58c27bd40813	0.02865890389239929
112	0x3fa76fa15dde83ad	0.045773546894685914
113	0xbfaffaf51b467e7a	-0.06246152837706816
114	0xbfa2f06504f80abf	-0.036990315300518876
115	0xbf77eee5f487583b	-0.005843065512143804
116	0xbf48beea601238ad	-0.000755180779508332
117	0xbfa9b5f7199369df	-0.05021640956120498
118	0xbfa75cd05a2f9c09	-0.045629988678960905
119	0x3fa162c1e742c42f	0.033956584434584484
120	0xbfadbfd7efa23845	-0.05810427475181305
121	0x3f9b9a60c74afef4	0.026956092990757477
122	0x3fa4ff614ceaff3a	0.04101089538516907
123	0x3f95df09d71c0a49	0.021358636621707814
124	0x3fa0992d4042fc3f	0.0324186459488307
125	0x3f913ddd0eba9e4c	0.016837553047166318
126	0x3f94bbdf630a03d2	0.020247927112453663
127	0xbf81d208cdf9735d	-0.008701390062179898
128	0x3f8691f78e36e43e	0.011020597484149627
129	0x3f35bee63708dacc	0.00033181305392153133
130	0x3f8a00b83c02b061	0.012696685153365363
131	0x3fa37ff721ef8cd4	0.03808567322973891
132	0x3fb099e859a342de	0.06484844387456287
133	0xbf9ec8add78537d6	-0.030062404898948923
134	0x3fa369848c169521	0.03791441164075083
135	0x3fab693e70f2602e	0.05353732231850504
136	0xbfa5518343bc2835	-0.041637517946654524
137	0xbf731d5d01884d3e	-0.00466667490447331
138	0x3f917697f21b511c	0.01705396094514909
139	0x3f79e1331d57c3b8	0.006318282762991005
140	0x3fb37a226a96359c	0.07608237364021025
141	0x3f86c41bd07ddeb8	0.011116235065613864
142	0x3fac70a3320bd251	0.055546855792191104
143	0xbfa4bcf500f81fde	-0.040504127853693936
144	0xbfa91054899b3789	-0.048952714727064146
145	0x3fa1456ad0e29c39	0.033732736586266694
146	0x3f94bc1871849352	0.020248777321416007
147	0xbf9a036cd33e5ecb	-0.025403690713203624
148	0xbfb3e0de425bb8b0	-0.07764996643138278
149	0x3fb12e6c0f04ef8d	0.06711459509545943
150	0x3fb4429950c8e9a6	0.07914121839795615
151	0x3f7f47e66eb85f6c	0.007636928679424542
152	0x3fa14c84a807a6e4	0.03378691245218393
153	0x3fa7b5d3fb8ad9d6	0.04630911298356792
154	0x3f98ff688bf2c393	0.024411805669561536
155	0x3f94e7b1547d3f04	0.02041508749181188
156	0x3fa5ca734b8c6ca6	0.04256019875739385
157	0x3f8243d342a8cdcd	0.008918428870947981
158	0xbf821c285883d10a	-0.008842768861065515
159	0x3f9107d63f904436	0.01663145792923989
160	0xbfb4291d7c897214	-0.07875236788226686
161	0x3fb5b8ef26fca456	0.08485312177494228
162	0xbf9637a4c2f238fe	-0.021696638487406432
163	0xbfaf89608c9b92d2	-0.06159497944262217
164	0x3f616b6440e6c419	0.002126403625162709
165	0x3fa2b699ea7cec50	0.03654938685800657
166	0xbf9a4f60be97d1dd	-0.02569342768943438
167	0x3f9a34d95ce2a509	0.0255922282164294
168	0xbf815b45dcf3608f	-0.008474870496158608
169	0x3f92dedd7f9b1564	0.018428288377227445
170	0xbf968852f1ada8e5	-0.02200440979087483
171	0x3f9bca9a2db36c39	0.027140053786620853
172	0x3fabfb9dc1f5ad43	0.054654054571836606
173	0xbf962db4383ffe4f	-0.02165872186014744
174	0x3f949de397784d2c	0.02013354885100431
175	0x3f376023fe28fd21	0.00035668257456574105
176	0xbfa4f6cf9174a526	-0.04094551706868747
177	0x3f9904be6143accf	0.02443215817121996
178	0xbfaf9c47fda3bc5c	-0.06173920603929936
179	0x3f711f4207630bbe	0.004180200505461805
180	0x3f71f95b5d5354fd	0.0043881958892673075
181	0xbf9c899706fe4eec	-0.027868614007799872
182	0xbf669e98f1d58477	-0.0027611720276330925
183	0x3f6c4b387f22bf16	0.0034538367700277612
184	0xbfae3c4e3f386e72	-0.05905384561284856
185	0xbfadf1ff920dd1e7	-0.058486925677161676
186	0x3f926147bceec82d	0.017949219614543366
187	0x3f673269321cad5a	0.00283165498776376
188	0xbfad4b85139d4298	-0.05721679558212606
189	0xbfa2fabf142ea421	-0.037069293225904916
190	0x3fb0a1af0a661e52	0.06496709827308081
191	0xbf4989bb6a8646d7	-0.0007793583982211538
192	0xbf92cb462aa22faa	-0.018353554107804072
193	0xbfa12bb8dc32373d	-0.03353669822636938
194	0x3fa11e6b521e059b	0.03343520524414175
195	0xbf7f0dd450dbc46c	-0.007581548079302097
196	0xbfb260abe2e6c7bf	-0.07178758897387548
197	0xbfa9a3d660c40e72	-0.05007810527061175
198	0xbf70b151f206dc3c	-0.004075355624471529
199	0xbfa0f4d4687f9200	-0.03311790252317692
200	0x3fb294431e1d5a79	0.07257480130406603
201	0xbfa18d5e40ee2e73	-0.03428167860610367
202	0x3fa4f0ef336780ae	0.04090068342679963
203	0xbfa541edc8229615	-0.04151862209372951
204	0xbfa93ddcd297bdef	-0.049300099093553366
205	0x3fa2d26a6a3932cd	0.03676159426377055
206	0xbfa350711c33b2de	-0.03772309750806867
207	0x3fa93742b288f3ed	0.04924972943670256
208	0xbf71f85e0f567383	-0.004387252255949717
209	0x3fa276bc3b2a8663	0.03606212827913848
210	0x3f8ad430a582c244	0.013100032855022488
211	0xbf9188eff4a569d6	-0.01712393694593025
212	0x3fb2851d09404049	0.07234364963392283
213	0xbfb161bb11e91137	-0.06789750277772987
214	0x3f8c1280e1f14805	0.013707167525499395
215	0x3fa2ec7b04c8e469	0.03696045335204518
216	0x3faf5ea77a3f26ea	0.061269029305163716
217	0xbf8bbf9f2ac2b958	-0.013549083225680533
218	0xbfa49756aa88aeef	-0.04021712142670519
219	0xbfa83040912ea86e	-0.04724313518757205
220	0x3f9ae611edf3b7c4	0.0262682725414647
221	0x3fb44f89ccfb4ab9	0.07933865789827167
222	0x3f544ff594bda5b1	0.001239766907895717
223	0x3f934d17d7220712	0.018848774438544665
224	0xbfa4a58a964ea49d	-0.04032548031620673
225	0xbf9454e05c4e1691	-0.019855027803279916
226	0x3fb78f784f497c4b	0.09203292785376609
227	0xbf9deaff90ea5c80	-0.02921675989145145
228	0xbf5dd942b08327bd	-0.0018218184723530616
229	0x3fa4fbaac61287f5	0.04098256748081034
230	0xbf44d144dfa63b3d	-0.0006352983757994323
231	0xbfa519c7aa19114d	-0.04121231032744053
232	0x3f92521833e250f3	0.017891290823698957
233	0xbf8d4b92f1056ba1	-0.01430430219686746
234	0xbf96c094765265b7	-0.02221900913409566
235	0xbfaf4326869895d0	-0.061059192590885325
236	0xbfb1a28370a4df32	-0.06888600826357275
237	0x3f8358b3db3fb81e	0.009446530464597255
238	0xbf8d945e128b8058	-0.014443144741960776
239	0xbfa661839a073640	-0.0437127233050032
240	0x3f63ef787d3df7a2	0.0024335244469843734
241	0xbf74a5bf5ddc4955	-0.005040881658503989
242	0xbf84bf8eaf095863	-0.010130991665544714
243	0x3f8703c8bafe7b88	0.011237686354261603
244	0x3fa521997b08942a	0.04127196909784232
245	0x3f587f6a628e76f7	0.001495221988285276
246	0xbf8e823dc3803d9c	-0.014896852997508252
247	0x3fa6aaed20523ff6	0.04427281398341158
248	0x3f7babf06eb650fa	0.006755770863851257
249	0xbfa8929b2c3befbd	-0.04799351611106271
250	0xbfa2f15ce96b0683	-0.03699770306913044
251	0xbfa4399f4f137dc4	-0.03950212326321492
252	0x3f3e4d18d926f432	0.00046235901495689507
253	0x3fa7e5d9ff347ecf	0.046675503161393565
254	0xbfb0d5574f1ce8a9	-0.06575532609432123
255	0xbf284d80bd43dcb5	-0.00018541523480284308

fc3.bias f8 [50]
0	0x3fa2038ef38994f1	0.03518339846486097
1	0x3fad14c444d636ab	0.056799062159467915
2	0x3f8d7b83d239aa27	0.014395742276254243
3	0xbfb3b4d159476c10	-0.07697781018889338
4	0x3f7cc5e5121a194a	0.007024664695228397
5	0x3f762e59c915802d	0.005415297245548384
6	0xbf9c67ad81f4ec80	-0.0277392492837234
7	0xbf686e5b9f5f61a5	-0.0029823102476990875
8	0x3f9d07cccc066d5f	0.02835006709356713
9	0xbf684d88a8e986c2	-0.0029666585099200346
10	0x3f9cc0dc2229ad86	0.028079452118999558
11	0x3f572cf307441bb6	0.0014145253490498283
12	0x3fa0d034d9a6c190	0.03283848912122089
13	0x3f8e67da12aedabc	0.014846519179497412
14	0x3f9d5b167c44b8d1	0.028667785010093653
15	0x3fb18e613fa2a440	0.06857879451367044
16	0xbfa5a72c7b72bea9	-0.04229105956016827
17	0xbf98256cb01e9642	-0.023580263375740047
18	0x3f9b7152d4695b4f	0.02679948255021297
19	0xbfb0d61966ef66cb	-0.06576689494195447
20	0xbf99c7d8ec5f06c2	-0.025176419665291723
21	0x3f74a258bc4f128c	0.005037638305058888
22	0x3f904f01605036f1	0.01592638159131971
23	0xbfb35b3d3a6c8691	-0.07561094929089963
24	0xbf950f3a241c08fb	-0.02056589932818385
25	0xbfa9cb99da0df65c	-0.05038147723005856
26	0xbfa2541d7f705d5a	-0.035797998243817644
27	0xbf9c69a0d7154e1d	-0.027746689918172963
28	0x3f9c3ca1178cdd2e	0.027575032293694672
29	0xbf93225e03c318e5	-0.018685788135166432
30	0xbf747be4feb35ddf	-0.005000967513488302
31	0x3fb2d2ec1b417756	0.07353091874526049
32	0x3f868eb607533f9c	0.011014387224719084
33	0x3facad7c7a13794a	0.05601109495340724
34	0xbf4bdd0f583301ec	-0.0008503270077185299
35	0xbfb47806cab61411	-0.079956459512758
36	0xbfb342801563cfaa	-0.07523346445287751
37	0x3fbaa38cd005a4a6	0.10405807570136236
38	0x3fabb46bdfc400e8	0.05411088091386934
39	0x3f8ba2c07aa654d7	0.013494018309567242
40	0xbf65879032ccbc5d	-0.002628118169375733
41	0x3f914ce76b1e4460	0.016894927895524936
42	0x3f8e02f06856a3b5	0.014654043373257023
43	0xbfa4c8b722881980	-0.04059383675125883
44	0xbf92d7e6bb3cf003	-0.018401723077872145
45	0x3f443af8b5db0173	0.0006173815160864085
46	0xbfa07da61cb69d55	-0.032208624844595114
47	0xbfa947bfe3e7be59	-0.04937553078695762
48	0xbf9b8c8e646ac091	-0.02690336692711576
49	0xbfade96f91c77ead	-0.05842159895450769
