weights/numq/nyse/numq_^NYA.pt (torch, 526847 bytes, 8 tensors)

fc1.weight f8 [200, 200]
-0.0006903030784460165 -0.09269108026028446 -0.05762438317154096 -0.012234948888144177 -0.020179594100077844 0.07938265318046069 -0.014570111747879451 -0.016408498265277655
0.15016988874259476 0.012754863879427206 -0.03847082534049478 -0.003428986529617534 -0.13219443237250023 -0.07693043765809336 -0.058837712549800435 -0.048485140095617496
-0.09633701594428028 -0.029052597661377 -0.10259556220748847 -0.024750611733784345 0.11426849759176343 0.02406928179794496 0.08165675477979506 -0.048550094238521135
0.06074916205104527 0.06564596789330249 -0.05112629169450437 0.139105452728854 -0.07253658837926164 -0.01257754484526902 -0.05737248741293012 0.03419651039901591
-0.09681176156784307 0.00843522037810763 0.06992445665029887 0.056134517705492416 0.04985168065678851 0.00783675699242548 0.058088692154366975 0.08886248546171441
0.009674501620554474 0.10876899569182097 0.01111985722421832 -0.03614592890585058 0.08412645944684201 0.15971118980780102 0.11597068706659774 0.09780556400906654
0.04617868299280553 0.037530365631133523 -0.091638250242954 -0.028978371254781015 -0.046418100685330865 0.034397798372901134 0.053853161060872456 -0.1287881556401543
0.08573608798011705 -0.09293195071194565 -0.004855353706547117 0.11502422010464211 -0.012359602842643487 0.04109875195489783 -0.042126478173157414 0.04542845157304158
0.028941555339787088 0.147839507876487 0.042065786319745516 0.07146176924076443 -0.04761990828334094 0.024845946590675405 0.05306424989050433 0.0376033211566212
0.008336764815599489 0.07968006427981718 0.009105989525740845 0.039281038374787684 0.12240057589194345 0.013949469069289313 0.049322347706248 0.014345466153098516
0.12116665123126129 0.07157884813353793 -0.01693719044760477 -0.0585872728756251 -0.047953107527325754 0.054003971460966534 -0.014834662397612825 0.105178198964894
0.015073438808043784 0.03660146644805056 0.04103018844769666 -0.09068153099821014 0.042221788140781605 -0.09476708554800398 0.1295856447040656 -0.04011645135391046
0.0908844985400562 0.05509461921690005 0.12329813634098023 0.03898265133508628 0.03802430966363765 0.050457047116618026 0.05432536574661509 -0.0436916084861174
-0.0631496961215402 0.11588354109449973 0.04119408035090175 0.11512245522386554 -0.033334509058273946 0.04263369581399361 0.021881661824873503 0.04941546354495793
-0.0011894138098927733 -0.011094977920049312 0.014672912865010566 -0.025378677648347742 0.0018454492304830685 0.0012252499254246376 -0.04311702047604062 0.10363813471317898
0.04119804171169106 0.015715726691496044 -0.02394235652329067 -0.054240711916555155 0.04137156059162472 -0.004472482968248814 0.020369386571071624 0.03251710103583261
0.05701468027264236 0.055190562982641835 0.13433959524210187 0.03604282118382167 0.12153162563312822 0.03921473299679532 -0.04333172742657875 -0.003850161804610751
0.08195683724767151 -0.0065203158811068425 -0.02139090722498664 0.10562335377362776 0.09873658637292783 0.14474793102031022 -0.06564268004326065 0.0025313809494055843
0.008931891196181574 0.0621794601623735 0.07211135110379907 -0.014886139260688887 0.13031422331717388 -0.02713044041656281 0.0834791908097204 0.07616462968748716
-0.047831261939793875 0.11128535758722355 0.08733454094982436 0.0602607219156407 0.07379819085780032 0.07204612189357107 0.11869384899718347 0.037298180395315586
0.09681505319238912 0.028342864842837805 0.09878656392443223 0.028346610016850647 -0.013623690446885913 0.08088287956596636 -0.0147829418398175 -0.06080045851753702
0.19764532639469112 -0.024756837790051306 0.12710245416523946 0.1621561834694522 0.08494755562131688 0.004970653577332172 0.06743185177832992 0.09027827720781731
0.05615146542426588 -0.027457149882553978 0.05527693696843408 -0.010317461948980438 0.019080212250756935 0.04681984181861537 0.13558333609358308 0.020901445465153247
0.10042328419039928 0.11595873646207303 0.06239557085004909 0.04645266203994096 0.16513726469312082 -0.008423197943400905 0.05958490280286337 -0.04346450269056012
0.09831415296510843 0.02312966399889982 0.024783013299577508 -0.014864301161421033 0.03907292807127688 0.09208631256814985 0.0642502573557223 0.024136449165761843
-0.11875749306734262 0.09969160331233265 -0.052846697522021056 -0.11421238385650546 0.09383583695041318 0.0018664751915430764 0.04797159422576344 -0.005523838838923878
-0.01313049406853308 -0.06344984855911563 0.03168772982321173 0.008904870017218108 0.01784002374245953 0.03897932770147127 -0.10542723750306766 0.0486000705906427
-0.06317586494173555 0.09905040857117318 -0.04279464634177509 -0.07899733340079584 -0.1120035262191925 -0.07098691895282482 0.08484655225308765 -0.07236972659952903
0.03733173737125616 0.014335472142655159 -0.056598200652441484 -0.01381823894694062 0.022816037974586336 -0.06277841479067495 -0.06502754258922541 -0.06038021998291382
-0.03227732344986377 -0.07831862621674514 -0.07114998174005956 -0.0954128586698118 -0.06074177608027158 0.07915536099034277 -0.056067609503235805 0.07138366260199606
-0.09321985648126242 -0.14561919306420296 -0.0077711087765919284 0.056030836517862476 0.011845931707851733 0.054986181484982 0.06401880760531418 0.04097401346878075
-0.023958538104290675 0.04577260241926581 -0.013787196110237196 0.05633332164573438 -0.04295229184714956 0.17339265352835798 -0.015382609119490609 0.09580819656906979
00000000: 7d71 b892 ae9e 46bf 1d4d 5946 9aba b7bf
00000010: d20e 5972 f180 adbf 9713 be0a a30e 89bf
00000020: 9c57 d3a2 f5a9 94bf 41a0 47eb 6b52 b43f
00000030: 3150 a64b efd6 8dbf 780f b4ad 63cd 90bf
00000040: d527 7f54 c438 c33f e20a d1d9 381f 8a3f
00000050: f706 60b1 72b2 a3bf f4a7 1920 1b17 6cbf
00000060: f267 e045 bfeb c0bf 67f8 ce91 b6b1 b3bf
00000070: b37e 5806 fa1f aebf a8f5 1a56 0bd3 a8bf
00000080: 63fa dfec 8aa9 b8bf 9a20 47d3 f6bf 9dbf
00000090: 7a59 65e8 b343 babf c075 cf6f 3958 99bf
000000a0: 43a3 1e44 b340 bd3f 193b a428 9ea5 983f
000000b0: 90d6 4603 75e7 b43f c8bf f1d5 8edb a8bf
000000c0: ab8b 89a0 831a af3f ca4b 3795 2cce b03f
000000d0: a559 96ad 392d aabf b835 151d 35ce c13f
000000e0: 1c33 da02 c291 b2bf a1fa 317e 41c2 89bf
000000f0: d2e5 413a ed5f adbf 6b29 9a7b 3482 a13f
00000100: 3652 cdd5 a7c8 b8bf c5a8 441d 7c46 813f
00000110: 26ec 80b6 91e6 b13f c592 71db a9bd ac3f
00000120: 36a1 24d4 2886 a93f 43d0 e9b7 b70c 803f
00000130: d20d 2412 cdbd ad3f 123b e61c b1bf b63f
00000140: 32e6 85a0 39d0 833f c0ac 50ef 48d8 bb3f
00000150: 5fe5 e9f8 01c6 863f a47e 111d b881 a2bf
00000160: cd6d 0dc8 4f89 b53f face 8390 6a71 c43f
00000170: 60e5 3e44 41b0 bd3f 9428 c912 c909 b93f
00000180: 68f1 737a bba4 a73f 6d3b fc19 2e37 a33f
00000190: be2c dbb7 9a75 b7bf eb90 5293 81ac 9dbf
000001a0: c898 c500 1dc4 a7bf 60cc 2196 969c a13f
000001b0: 90d8 153b a492 ab3f 6316 4b5a 217c c0bf
000001c0: 332a f6dd ccf2 b53f bcb0 0f69 63ca b7bf
000001d0: 8d05 1516 35e3 73bf 82eb 982f 3a72 bd3f
000001e0: 4470 01d0 fd4f 89bf cafb 1a47 e50a a53f
000001f0: e246 190c 9a91 a5bf 16d6 a0e3 6542 a73f
00000200: ee12 b8e6 daa2 9d3f 8370 b1ad 67ec c23f
00000210: 9a33 0c91 a589 a53f 71aa cd89 514b b23f
00000220: ef51 6ef9 a261 a8bf 4032 2e40 3771 993f
00000230: 46a4 bbc3 3c2b ab3f 8a66 2d15 be40 a33f
00000240: a948 e6a1 dd12 813f 1d99 39a6 e965 b43f
00000250: 0eab af39 29a6 823f 7f63 58ee a41c a43f
00000260: aaab 77e6 a455 bf3f cee1 970b 8a91 8c3f
00000270: 1176 b85c c740 a93f 4597 c9df 2761 8d3f
00000280: 7373 6714 c704 bf3f 2ca3 d1cb fd52 b23f
00000290: fefd 3b9c fb57 91bf d9de eca9 26ff adbf
000002a0: 3393 2449 4f8d a8bf f9d4 8e96 68a6 ab3f
000002b0: 1d74 c2ae a261 8ebf 4870 ce5c f5ec ba3f
000002c0: fb1c c0b5 d2de 8e3f c791 c26a 6dbd a23f
000002d0: 7d2a 10ab e801 a53f d40f fda1 e736 b7bf
000002e0: 8291 7c1e 189e a53f 2a79 2add a742 b8bf
000002f0: 1b7c 042d 4396 c03f 3978 31bd 248a a4bf
00000300: f861 f1dc 3444 b73f cebe 71a7 5c35 ac3f
00000310: b304 3e77 7790 bf3f 11ee 30b9 88f5 a33f
00000320: 5ca6 ea1c ec77 a33f 10ed 6f8e 81d5 a93f
00000330: b42c 73ca 88d0 ab3f fe71 1d1b bf5e a6bf
00000340: 8827 9817 942a b0bf a942 2533 8baa bd3f
00000350: edb5 caf7 6317 a53f 17c3 384c aa78 bd3f
00000360: 9f8d 7784 3811 a1bf 161a 7572 15d4 a53f
00000370: e10a ae77 2568 963f 9c3e afcf fb4c a93f
00000380: aab9 8d5a c37c 53bf fb18 88ba f6b8 86bf
00000390: ac62 2307 d50c 8e3f b5bf 0f3a defc 99bf
000003a0: ddba d805 603c 5e3f 81e8 fb16 1213 543f
000003b0: d3ec b021 6f13 a6bf e227 365f 0788 ba3f
000003c0: c035 9fe3 e817 a53f 89ff b090 c817 903f
000003d0: dbdd 0659 5884 98bf 8733 9647 70c5 abbf
000003e0: 2076 7337 a72e a53f 40ea 4901 bd51 72bf
000003f0: f03a a664 b6db 943f 10ee 04db 14a6 a03f
00000400: 0367 5336 0731 ad3f 35d6 1dfe ef41 ac3f
00000410: cab4 0f34 0a32 c13f 16ed 7a64 3474 a23f
00000420: ee24 8655 b21c bf3f 1d37 7c17 f413 a43f
00000430: 7f49 5a80 932f a6bf 30a2 1fe1 5f8a 6fbf
00000440: 5d8f a98f 1ffb b43f b4ca 80f7 0bb5 7abf
00000450: ac33 da7b 7fe7 95bf 41cd 26d2 210a bb3f
00000460: 89f1 6309 cd46 b93f bbac f2a6 1987 c23f
00000470: d6f1 016c f5cd b0bf 8677 86cc b0bc 643f
00000480: 93da a124 e24a 823f 7dba c277 fcd5 af3f
00000490: c843 a9b6 e375 b23f e48f 4eca 9f7c 8ebf
000004a0: 5fea acef 22ae c03f 6ec7 4209 15c8 9bbf
000004b0: 759e 6c6a e45e b53f 30a5 9e71 867f b33f
000004c0: 8901 84d3 567d a8bf c65c 5c7b 327d bc3f
000004d0: a5cf 3075 8e5b b63f 91d8 b84b 7eda ae3f
000004e0: e4fb 3c30 70e4 b23f 0026 5659 9d71 b23f
000004f0: 56e4 ad57 b862 be3f 9a12 ff41 bf18 a33f
00000500: a6c8 380f dfc8 b83f 2bbc 4c76 e905 9d3f
00000510: 4bf3 5685 134a b93f 563c e6cb e406 9d3f
00000520: 3193 5cc7 bce6 8bbf 2dc9 8a8a bdb4 b43f
00000530: e7ec ecdd 8446 8ebf e149 d4d9 3c21 afbf
00000540: d845 892a 714c c93f b880 a442 db59 99bf
00000550: 00c6 f0a9 e444 c03f 7638 6ca8 88c1 c43f
00000560: 53c9 447d 1fbf b53f fec4 dea8 1b5c 743f
00000570: d2bd 18be 3643 b13f 8694 2528 7a1c b73f
00000580: e348 3d87 e2bf ac3f 7dd3 2523 ba1d 9cbf
00000590: c444 0139 424d ac3f c952 304d 5221 85bf
000005a0: ba90 785e c389 933f b866 d432 c5f8 a73f
000005b0: 2cc7 3375 cb5a c13f 3a0c d942 3067 953f
000005c0: 3acc 5a21 57b5 b93f 1a43 cac4 78af bd3f
000005d0: 4fb3 6ef0 4ff2 af3f b620 8cb0 a4c8 a73f
000005e0: cf9a 9ac7 3723 c53f 1fa0 8e7d 2e40 81bf
000005f0: 564d bf91 e981 ae3f 4f8b 2fb3 fa40 a6bf
00000600: c415 b8c7 1d2b b93f 805e c579 4daf 973f
00000610: d4d9 78de b760 993f 4cf9 edba 2c71 8ebf
00000620: 983f 73e8 5d01 a43f 2bb2 e3f4 f792 b73f
00000630: 9737 1a72 b472 b03f fdea 3baf 39b7 983f
00000640: 2812 e11c e466 bebf ca8a e98f 6385 b93f
00000650: eb0b 1eeb b80e abbf 613e 76d5 053d bdbf
00000660: 7712 e51a a005 b83f b2a6 037a 9094 5e3f
00000670: 9c5b ac98 bb8f a83f 40b8 9532 2aa0 76bf
00000680: 0b5e d614 29e4 8abf b95f 7fd0 3f3e b0bf
00000690: 2ae4 8cc6 5f39 a03f 161f fe6b b73c 823f
000006a0: 6389 22ba a744 923f 4f51 6533 19f5 a33f
000006b0: c5ec 2e89 47fd babf c84a 8ac3 1be2 a83f
000006c0: 903e d221 4b2c b0bf eff7 7719 5e5b b93f
000006d0: cfaf f60c 2ee9 a5bf f078 6d53 2b39 b4bf
000006e0: 8fea 255a 43ac bcbf 979f 58df 322c b2bf
000006f0: 4ef9 1aef 80b8 b53f fa26 f788 d286 b2bf
00000700: 4f8d 393e 251d a33f f310 3480 ea5b 8d3f
00000710: 011e a179 70fa acbf 2063 eca2 bc4c 8cbf
00000720: 8758 b363 165d 973f 22b1 6b06 3f12 b0bf
00000730: 6a8d c220 a5a5 b0bf e8c5 4dfc 27ea aebf
00000740: 6e39 3d41 a786 a0bf e9c0 4482 b00c b4bf
00000750: dd3e af9c e236 b2bf 64ce 9a23 fa6c b8bf
00000760: a60c 88cb 8b19 afbf 4db0 c196 8643 b43f
00000770: e8d2 5cca e4b4 acbf 2b22 5820 3346 b23f
00000780: 09c2 ecaa 41dd b7bf 86b9 f053 a6a3 c2bf
00000790: 0033 c920 99d4 7fbf d4cf d2e4 12b0 ac3f
000007a0: b4fc 340a ae42 883f 6d7a 6b16 2627 ac3f
000007b0: c765 fe5c 8963 b03f 5526 abbf 8bfa a43f
000007c0: 54ba 7846 9688 98bf ec19 e3ac 816f a73f
000007d0: 1812 2d23 763c 8cbf f575 499c b8d7 ac3f
000007e0: 7223 8bc1 d7fd a5bf b4ae 2200 bb31 c63f
000007f0: f34d c3d8 ea80 8fbf dff0 f3ce e286 b83f

fc1.bias f8 [200]
0.5543196330564464 0.5956512150604699 0.607495543988442 -0.1103853332851301 0.5085472057490822 0.17306072596872096 0.4556725531715151 0.4779966567807455
0.520170461248865 -0.08896649008434376 0.457800119279317 0.4136294552893029 0.4112967801003085 0.4799636534588821 -0.038421656947623506 0.48634945197464347
0.22201424358065214 0.36041487522423243 0.2289594052212033 0.5112134192328787 0.6579170355894447 0.43941837940339507 0.5374139524005445 0.6867921686782937
0.21717881964951896 0.3368223026820484 0.26378364209548294 0.5344696723035882 0.3238840077069298 0.32949392379999304 0.6721602079295798 0.3776842665705988
0.4109788097192106 0.26136487803424063 0.3076203317606469 0.33114446297940137 0.4182253554589992 0.14825585728148843 0.6130672991904473 0.5374027012309867
-0.2138388052396236 0.7356728148433861 0.35525855358081326 0.12460301153022502 0.1850811342288356 0.4359535064651652 0.1732452869132897 0.24493360434058942
0.22179032059247653 0.3030049942215793 0.538541576622041 0.3297996029718298 0.006211783817317638 -0.012348830616360612 0.34523982711549717 0.30135427991444363
-0.3179997608611905 0.18313500033452737 0.3136656868890738 -0.18377764931748605 0.1944107221243769 0.6599535321113177 0.621672424771189 0.14393879061552747
0.1010790060621291 0.15992119237761598 0.6977730079143152 0.5205496145412224 0.2535735991790496 0.2343284147190563 0.23349782597351296 0.48699995494803655
0.22007003200731343 0.5797259067414791 0.32975218272918927 0.405357235185814 0.1704299847079478 0.43236724786899333 0.6418696843874234 0.23554040565568862
0.7110184460452944 0.16614709738242975 0.6222961736342261 -0.02047325291624956 0.29893633902181177 0.3895221846842385 0.024576792265636003 -0.10869924782559881
-0.10440054966916143 0.6209849508364425 0.13686807541480758 0.516018284979357 0.48393852848076924 0.7572082287650457 0.26706204523117366 0.2801637723297023
0.27884682774189595 0.3477918970541803 0.10145035546937474 0.02753885569018121 0.4382244132384906 0.2642331395718457 -0.12706181789328727 0.2593519787619035
0.30428517453547826 0.44004528261898535 0.414257055327262 0.43068141818731653 0.46890114341780925 0.2282448010435156 0.36264032656246376 0.221606781924113
0.48357466310859953 0.15483315505224332 0.26704084980128445 0.3466133077068852 0.1787850621326553 0.5642668779903418 0.5594418744172553 0.2745294607909422
0.6055702107370614 0.3495409593309911 -0.031234593113698084 0.5950404003249319 -0.40404304398430574 0.37113739165788295 0.25908413200992425 -0.2779233842871
0.2672665641418566 0.14114441356681956 0.7228025407341955 0.21320468577052487 0.47998662307768614 0.42167051670720146 0.03195249224057898 0.5768435203041568
0.23090671296162074 0.753789720696939 0.6674301423450985 0.2948872481417139 0.15421289603514904 0.5234520368367831 0.2887222037538246 0.5709260162342878
0.6600109085753036 0.2896932185691159 0.5371856932080435 0.4669101261548846 0.626062447794054 0.43120580863340197 0.30891819108359203 0.10098553346503247
-0.10916110507791286 0.36751888021068435 0.4292528306306114 0.2651548584956422 0.7134710749860637 0.16737689605641082 0.7202868326809113 0.5105370611354411
0.3273705893780679 0.31704973650755175 0.11006358119024987 0.5379897563418997 0.20925740939045556 0.11398104126576933 0.5544902060937885 0.23639302378073285
0.40919483025129555 0.23098644591613102 0.1335581850110151 0.24436342954123344 0.39321768697641535 0.2617221841769229 0.5319037808049671 0.6731260660893134
0.34996413959146416 0.6348316537393519 0.6756661881771863 0.3411712541106971 0.5211488107172867 0.5305567794614598 0.19081755352028307 0.7191864071759028
0.40840772541408976 -0.05834580748492973 0.45382099804389114 0.42312564809415787 0.6045976434912118 0.16576473682662368 0.533890369021707 0.4010062733775409
0.3208373076299354 0.20183460004197967 0.20235519036810184 0.609504658279101 0.5769999421476913 0.4119695326244708 0.29795910987539104 0.0787078540120936
00000000: d442 f086 fcbc e13f 773c 1023 930f e33f
00000010: c0ac bc7e 9a70 e33f ffed 6a94 3642 bcbf
00000020: 8343 25ca 0446 e03f 7afb 2097 da26 c63f
00000030: 589d 6336 bd29 dd3f f11e 1e4a 7f97 de3f
00000040: 6f17 ed85 3ca5 e03f 7827 5a05 82c6 b6bf
00000050: 5336 1adf 984c dd3f 774f c8ad e778 da3f
00000060: 89c7 deba af52 da3f 0df9 b778 b9b7 de3f
00000070: 48aa 18e0 00ac a3bf c526 aa73 5920 df3f
00000080: fc68 b675 f66a cc3f b41e 858d 0911 d73f
00000090: edb1 c4b2 8a4e cd3f ab35 9c3e dc5b e03f
000000a0: 59d0 ea06 a80d e53f 3521 3344 6e1f dc3f
000000b0: 9b2e bfbe 7e32 e13f f5e8 f391 33fa e53f
000000c0: 0ea8 e3fb 83cc cb3f c64c a521 7f8e d53f
000000d0: 8545 01c9 d4e1 d03f 8eed 6724 601a e13f
000000e0: 801d 33fd 83ba d43f 6de8 bcae 6d16 d53f
000000f0: 055d d71f 5682 e53f 1f9b 48a1 fa2b d83f
00000100: fbf3 c510 7a4d da3f d5b9 dec0 33ba d03f
00000110: 17c9 1f30 0db0 d33f 6cdf af8b 7831 d53f
00000120: e87a 0348 34c4 da3f a672 3b45 0cfa c23f
00000130: fea3 0850 3f9e e33f 7336 5226 6732 e13f
00000140: c758 8fe9 115f cbbf 1be0 09b7 a18a e73f
00000150: 303f 505f 8ebc d63f b063 81a3 fbe5 bf3f
00000160: a649 4f15 bdb0 c73f cc0a 3689 a9e6 db3f
00000170: 9146 bdcc e62c c63f 38c8 2afe fb59 cf3f
00000180: 21cc c10e a063 cc3f df34 2d0f 6f64 d33f
00000190: 1f18 648b bb3b e13f d9db 3fcb 6f1b d53f
000001a0: cbf1 8505 8771 793f 83ff 20fd 574a 89bf
000001b0: 5e37 afc9 6818 d63f a27f 2f76 6349 d33f
000001c0: 7137 42ab 1b5a d4bf 8949 98ba f770 c73f
000001d0: 7e38 c43e 1913 d43f 3ff5 c6a8 0686 c7bf
000001e0: 670a c256 73e2 c83f 8a87 a9de 561e e53f
000001f0: eff3 a691 bde4 e33f cbe4 2817 966c c23f
00000200: 0c5a 5951 50e0 b93f e67e 9931 4c78 c43f
00000210: c8c0 200f 2854 e63f 71cc 4caa 57a8 e03f
00000220: 0d98 e6c2 8c3a d03f a8f5 de36 79fe cd3f
00000230: af25 1fbb 41e3 cd3f 47f0 e9db 012b df3f
00000240: ef89 263b 412b cc3f b827 4358 1d8d e23f
00000250: a2d0 26e6 a81a d53f ba7b 1479 5ff1 d93f
00000260: 8809 4a55 a6d0 c53f d55d 5dad e7ab db3f
00000270: 449c d74a 328a e43f b6c0 9621 3026 ce3f
00000280: c2c0 93c1 a9c0 e63f 419b cade 4e44 c53f
00000290: 04eb 45aa d9e9 e33f dc42 dfbe f0f6 94bf
000002a0: 4fd1 ebe1 c521 d33f f841 1275 eeed d83f
000002b0: 1902 169c a82a 993f 40c0 82c2 b6d3 bbbf
000002c0: e672 8392 feb9 babf 70d2 e4d4 1bdf e33f
000002d0: a3f3 e2a1 e484 c13f a5fa 43c7 3883 e03f
000002e0: 6a5a 464e d9f8 de3f cada 59c0 0c3b e83f
000002f0: 3154 9167 8b17 d13f 1f86 eb07 34ee d13f
00000300: 9eaa 6f5d a0d8 d13f 1156 eaf1 3842 d63f
00000310: 0796 e886 a6f8 b93f 7dff 3b52 2533 9c3f
00000320: 42c2 ca68 de0b dc3f 32c0 3e1d 32e9 d03f
00000330: 5303 36c8 8f43 c0bf 56db bb0a 3999 d03f
00000340: e966 5286 6879 d33f 3ce3 66b0 b329 dc3f
00000350: 8024 3106 3083 da3f ce00 87cb 4890 db3f
00000360: f555 02f1 7902 de3f ef61 fb29 2037 cd3f
00000370: 8bfa b2c5 7f35 d73f 91ca 776c 9c5d cc3f
00000380: 1871 ce24 e3f2 de3f ca97 a4a4 92d1 c33f
00000390: 95ec 2581 3217 d13f bd67 3d95 e92e d63f
000003a0: 2bc1 6fcd 6de2 c63f c1e7 6569 790e e23f
000003b0: 5652 54a5 f2e6 e13f daad f803 e491 d13f
000003c0: 2d85 51c7 d460 e33f c519 3c0b e15e d63f
000003d0: f073 b50f f6fb 9fbf f437 662a 920a e33f
000003e0: 41b0 055b d7db d9bf 0e93 df0b b7c0 d73f
000003f0: 7d4a 799c d594 d03f 8ba1 9329 7fc9 d1bf
00000400: 896d 1338 e51a d13f de2b 2428 0511 c23f
00000410: 1569 3dcb 3221 e73f 9c82 5e88 4a4a cb3f
00000420: 88b6 28d0 19b8 de3f 7478 bc55 a6fc da3f
00000430: c5e0 65ba 135c a03f 2bb5 d38a 8075 e23f
00000440: 2a6b 4ce6 598e cd3f d989 ce9e 0b1f e83f
00000450: 0d94 3775 965b e53f 97ab b1c3 6edf d23f
00000460: 32d4 8b88 3fbd c33f 5fa2 677c 1ec0 e03f
00000470: 441c b0b1 6c7a d23f b92d 05a3 0645 e23f
00000480: 90b1 6a32 cf1e e53f 3826 e86c 558a d23f
00000490: f5a4 060d a030 e13f e669 8002 dbe1 dd3f
000004a0: f4ee 501d b408 e43f 9a3e 7b3f e098 db3f
000004b0: 03fc f5cd 50c5 d33f 30f7 991b 30da b93f
000004c0: ff0a 4e70 fbf1 bbbf 30b7 cae8 6d85 d73f
000004d0: a187 51dd e078 db3f 8b50 6715 4cf8 d03f
000004e0: 9fa0 b64a c1d4 e63f 108a 552b 9b6c c53f
000004f0: 7653 c3f8 960c e73f 2120 9fd1 5156 e03f
00000500: 5944 c3c5 a3f3 d43f b057 60fa 8a4a d43f
00000510: fa58 b179 202d bc3f 7749 224b 3637 e13f
00000520: 588b e360 f2c8 ca3f beba 998c dc2d bd3f
00000530: ff00 a43e 62be e13f aa05 1269 2042 ce3f
00000540: 10c8 6783 3f30 da3f 17b8 83bf f690 cd3f
00000550: 7b22 5e42 6f18 c13f 5be7 1b05 4d47 cf3f
00000560: 2270 7184 7a2a d93f 595d 6b67 0ec0 d03f
00000570: 80a2 e513 5b05 e13f 1f0a feac 3f8a e53f
00000580: 095c 94fd cf65 d63f ead5 e878 8a50 e43f
00000590: e77c a7b2 0e9f e53f 7168 aff4 bfd5 d53f
000005a0: 4b29 4c45 40ad e03f 62a8 0e36 52fa e03f
000005b0: 04a9 efa7 b56c c83f 338b 5136 9303 e73f
000005c0: ba95 0528 5a23 da3f 0752 036e 80df adbf
000005d0: bb8a 353a 670b dd3f 1472 2a99 7d14 db3f
000005e0: cb11 4128 dd58 e33f f60c c065 c737 c53f
000005f0: 901f 5341 a115 e13f 926e 6937 16aa d93f
00000600: 69dd e633 9988 d43f 66d6 3057 b7d5 c93f
00000610: ea46 675e c6e6 c93f 4a30 c2e9 0f81 e33f
00000620: e92e 2a95 c876 e23f 3083 6475 b55d da3f
00000630: df71 1d16 c311 d33f c297 ebaa 3226 b43f

fc2.weight f8 [100, 200]
0.0725416660713364 0.0050511930356026595 -0.0452034457563582 0.07665209870374362 0.09461675687171675 -0.021224660756539164 0.08768419088914194 -0.032374017640870355
-0.0026299220144476287 0.07312265081950735 0.016829410630896866 0.04286063936188106 0.020215744830396058 -0.03859907961653442 0.006846085966048036 0.00479522286168499
-0.020195375696969112 0.06888708539846367 0.07799997744191335 -0.004570499783574445 0.0011632435374863462 -0.005054389415264709 0.03256435264309673 -0.029008442858322873
0.02038822578101615 -0.0020668630638291346 0.0764051082837928 0.013375332403391695 -0.024138806959538812 -0.03207988113589165 0.01988089625074142 -0.018339135065006923
0.047340640300492676 0.06455072555165461 0.043236428483136725 0.0364028757795601 -0.015619145369793893 0.0006932703400997109 0.043909838693934264 0.05686050339887055
0.009737447164098032 0.05253362470645381 0.05399681851548577 0.04265517741796084 0.07328135748813164 -0.0023181330764958986 0.005636342064080882 0.10094301025879117
0.032547885076289 0.04741571961647345 0.07164830596508308 0.09544579998783605 0.004154733917631251 0.00719685413136593 -0.021727064025780486 0.0006407384959379574
-0.06047276789405826 -0.02776315325300421 0.05434654100031104 -0.021566407517399352 -0.04108891761348741 0.045098311857478056 0.07286926303763268 0.06783894805460244
-0.007066450640705291 -0.0005627053325538908 -0.025956224181214804 0.03149484696021193 -0.014196623135389136 -0.01091823379279667 -0.01716083809056507 -0.025308660523346536
0.03214812687860749 0.07417948057762472 -0.018657257987374085 -0.024322067254360088 0.06339036449054426 0.014767745018443319 -0.06538015184393607 0.0028821389466170766
0.05962373559535182 0.06750641948209819 0.05639423304304017 -0.005135791349659903 0.0664590396525977 -0.021200543980011723 -0.04468158938046861 -0.00913278503621874
0.020966623690837943 -0.01136847481756481 -0.009705545897886315 -0.030015970284182365 0.06562225756421929 0.019307219464771166 0.044520042266709976 0.041505831949940265
0.03175325120249396 -0.02211533787048657 -0.02820505577875745 0.06859273845674621 0.04600532468209046 0.03372138559938376 -0.015152913276457085 0.009543081698605384
0.07257631171676893 -0.029459738202116056 -0.014234358521937789 0.0028208797671325533 0.05976330729046692 -0.030539872266062456 0.06078595170687835 0.07864196375687958
-0.0305128926497773 0.0838953287847255 0.0020614697840940607 -0.037677215570774705 -0.027157202470964276 0.05740236489318586 0.05349468160604535 0.042758166742663285
-0.017691659294890236 0.0011643031510874073 -0.026594248493611323 0.030642280470160224 -0.009773945672411525 -0.013919602029317945 -0.04495121615600939 0.0835027544858383
0.023360673756848062 0.023310803713393734 0.027820506445077484 0.06698691322147467 0.007152137800358748 0.026217386290796715 -0.007491305866533645 0.08417416640951704
0.014763312131665858 0.08655308308698491 -0.028461056113645862 0.009869555995521065 0.05555773446204668 0.061473793490986736 -0.018006180609254116 0.028641882251868575
-0.04380254522191148 0.08112583944880764 -0.05455207761264247 0.05830043045755071 0.02735452425611808 0.08728595980301207 -0.04589691139604654 0.020988735762587436
-0.03992140043617947 0.03774550885511733 0.01289120123466862 0.09034831688638316 -0.010168242545272613 0.07637869777624999 0.0959517146156782 -0.012803868255806969
-0.02791292181993029 0.050138631062459714 0.08702960368601358 -0.0034240608372757024 0.06707127378457964 -0.013975452020058262 0.0196322623196929 -0.03544542589971662
0.07649399160093 0.02060639804076503 0.004440740478621952 -0.029210805520246966 0.015397007452999698 0.07764583872228924 -0.010409193190611702 0.029613766792521777
0.05842785156117513 -0.05700796851018809 0.04598963810845091 0.03643828014178445 -0.0053564386413166715 -0.027759888408651873 -0.02859044935344028 -0.025127365820823165
-0.02283405118232267 -0.029647190515593558 0.04716974908737039 -0.004691013484057469 -0.028911004412613253 -0.019275222293717094 -0.013817965395603062 0.05792798152836006
0.08537811793241902 0.019909761464258647 0.07035866350222696 -0.04466041133035237 -0.04562541159430927 0.01896118505866863 0.06621787998359394 0.03792046775213193
-0.1487875846692386 -0.10506094321325325 0.04090897604221176 0.03860740367954071 0.05369404250480556 -0.08854999191042022 -0.030169546482140437 0.04112604161067142
-0.04032468237135642 0.037641209521212596 -0.09849463132442167 -0.11748042555613317 -0.16156747035291646 -0.151563895235791 0.04966744720596382 0.03354728501407958
0.058649760887781274 -0.13739396994866382 -0.039676172246046464 -0.039091776269418586 -0.08100532510263968 -0.09304557045179351 -0.026679924369476693 -0.003587093359129475
-0.031552660931196574 0.03553233879635323 -0.21667698623121878 0.11411507515122381 -0.2551946680879898 -0.026893852195944035 0.021038626614810266 -0.006379129094816043
0.11517291815271948 -0.061563334126116954 -0.10271218819977014 0.010609594894799991 -0.044705471690431306 0.0025418474755399953 0.013081252289771684 0.050138669839794224
-0.22373005300754223 0.05843822000556729 -0.05761779055948722 -0.12610941232885328 0.12104987708149459 0.014603320082015007 -0.13051865358276163 0.03354365268739079
-0.05572074000707299 -0.02602684135423738 -0.006902043496623489 0.11255072265233945 -0.0029432912104312647 0.04091026726908734 -0.05305833769415383 0.01880068047621091
00000000: 99ad 5f33 1792 b23f 9594 4c4e 8fb0 743f
00000010: a750 61f2 e724 a7bf 2433 1ad1 789f b33f
00000020: 46e8 6ac4 cd38 b83f bea9 45df eabb 95bf
00000030: f1bd 3e9c 7872 b63f b3ec 03c6 5393 a0bf
00000040: 9cef 60a1 588b 65bf 43da dd81 2ab8 b23f
00000050: 0c27 15a1 ba3b 913f 989a b068 d4f1 a53f
00000060: 2eb1 a4ab 6fb3 943f 91a9 3731 42c3 a3bf
00000070: 51c8 4635 a40a 7c3f 0133 e3d5 27a4 733f
00000080: 517d 98b8 18ae 94bf 8835 e782 95a2 b13f
00000090: 41a6 3378 cef7 b33f ce9a 8c31 84b8 72bf
000000a0: 96b2 d93c ff0e 533f 8643 d653 e9b3 74bf
000000b0: 7c2a 3c5b 46ac a03f 4e9b 89a5 63b4 9dbf
000000c0: 78cc cfab a6e0 943f 776d 76a8 86ee 60bf
000000d0: ba83 5301 498f b33f ae2f f7b9 8664 8b3f
000000e0: d59c d2e9 d7b7 98bf 6e2b ad30 c66c a0bf
000000f0: a331 d95c a85b 943f 9851 5d85 7ec7 92bf
00000100: 7081 b94b 083d a83f ee6b 2d77 6586 b03f
00000110: b56d a9cc 1523 a63f 2a39 e8d1 65a3 a23f
00000120: b118 7034 eefc 8fbf 9ae0 10b8 92b7 463f
00000130: 9e7f 53b2 597b a63f 8782 10e5 d11c ad3f
00000140: e53d ee08 3af1 833f dcee 1bf0 afe5 aa3f
00000150: c05f 3993 78a5 ab3f dbca 0740 e6d6 a53f
00000160: 1c69 d129 91c2 b23f 4ddc 0a38 7afd 62bf
00000170: 5047 590d 2216 773f c140 d2af 66d7 b93f
00000180: 1ccb e9cb 1daa a03f b85b 238a df46 a83f
00000190: b70f ef1a 8b57 b23f 1502 7dcd 226f b83f
000001a0: aa03 cce4 8d04 713f 6b83 0dd2 727a 7d3f
000001b0: fa1d b795 9e3f 96bf f0e0 5271 e7fe 443f
000001c0: e9a1 ce60 49f6 aebf ef9e 05ad f16d 9cbf
000001d0: 867e 7e50 4fd3 ab3f fff1 ea1b 8115 96bf
000001e0: dd84 c14a 9b09 a5bf 13bb 103d 2017 a73f
000001f0: 5358 a15d 8fa7 b23f a020 4aaf e45d b13f
00000200: 5af8 68e6 b5f1 7cbf c0c8 1380 5070 42bf
00000210: 03a0 f1b7 4494 9abf a88e 5fb3 1720 a03f
00000220: f01c a480 1e13 8dbf 85a7 8f88 4c5c 86bf
00000230: 91d4 7b59 9c92 91bf 766b 0375 83ea 99bf
00000240: 847e 2423 b875 a03f 7a7b 1d2b 6dfd b23f
00000250: 4923 8e63 e31a 93bf 0fe0 b64d e2e7 98bf
00000260: f14f 5ed6 593a b03f ea79 1e2f 8d3e 8e3f
00000270: 0f2b faed c0bc b0bf 527d 9590 489c 673f
00000280: ee0f e594 0087 ae3f 5d17 f2c7 1948 b13f
00000290: 14aa 3475 b4df ac3f f584 2c7e 4409 75bf
000002a0: 80db d4a9 7503 b13f 27cc 346c 98b5 95bf
000002b0: feac 3e5a 81e0 a6bf c868 6aa8 35b4 82bf
000002c0: cb1e 3d4c 4678 953f dfed 5fdc 5a48 87bf
000002d0: 071e c551 80e0 83bf e5bf e9aa 81bc 9ebf
000002e0: 4bc5 20ca 9ecc b03f f427 b690 45c5 933f
000002f0: 39a7 1abb 54cb a63f adf3 a29d 4040 a53f
00000300: 32ab e94e f641 a03f fc2d 9333 67a5 96bf
00000310: 0742 9b40 c9e1 9cbf c230 6a30 4b8f b13f
00000320: 2923 e789 028e a73f 307b a6f0 ed43 a13f
00000330: c92a b197 7d08 8fbf b476 63be 528b 833f
00000340: d8ae 4975 5c94 b23f 8fda 8190 b12a 9ebf
00000350: 896c a642 e726 8dbf 47a6 104b d01b 673f
00000360: e96f a0d4 4b99 ae3f 5b51 6d22 d845 9fbf
00000370: 4a49 4615 561f af3f efd3 6d36 e121 b43f
00000380: 400b 2690 c53e 9fbf 70e5 6a0d 2a7a b53f
00000390: 1973 bd29 37e3 603f 5a94 5c91 6d4a a3bf
000003a0: f5c4 da01 19cf 9bbf 23cc dbbf d763 ad3f
000003b0: 250b 04a8 a763 ab3f fde2 97ff 65e4 a53f
000003c0: 5c88 5528 c31d 92bf 2b1e 38fd 7013 533f
000003d0: 95c2 2ace 853b 9bbf f40e faa1 b060 9f3f
000003e0: 028a 20c8 5c04 84bf f3fe e95b e181 8cbf
000003f0: d068 9c86 d803 a7bf f680 a4bf 6f60 b53f
00000400: 2a58 3147 dceb 973f b3b8 5e8e c9de 973f
00000410: 5ceb 5b95 fa7c 9c3f 51d5 8be9 0d26 b13f
00000420: 1936 2f5f 8f4b 7d3f 1c81 d202 bbd8 9a3f
00000430: 56af 371b 34af 7ebf b19d e52b 708c b53f
00000440: 5706 4a36 3a3c 8e3f 8d00 3ac5 5728 b63f
00000450: 92f4 de24 e524 9dbf 757e d061 7d36 843f
00000460: cdd2 1b39 1072 ac3f 56ae 3539 7e79 af3f
00000470: acd6 5e53 3670 92bf 3c48 452e 4c54 9d3f
00000480: fb59 6b86 496d a6bf 8c0d 4bbb a9c4 b43f
00000490: e0e0 8cfa 3fee abbf 9dd8 50d4 8dd9 ad3f
000004a0: a587 4f0c d302 9c3f 1400 c166 5f58 b63f
000004b0: 7cea ddca cc7f a7bf a521 bd36 127e 953f
000004c0: c75c 91ea 9370 a4bf 050c 351c 6153 a33f
000004d0: d625 acbd b366 8a3f ab91 463a 1121 b73f
000004e0: 4897 8469 16d3 84bf 3360 0fe9 8d8d b33f
000004f0: 88fb 44a4 4a90 b83f 982c 5e1b ea38 8abf
00000500: f6dc 6879 3495 9cbf 0be4 5b49 c5ab a93f
00000510: 4b82 9d75 9247 b63f 8681 19aa c60c 6cbf
00000520: 96e4 673f 952b b13f 51d6 fb6a 299f 8cbf
00000530: 3234 70d2 7a1a 943f 0a6c 1022 e725 a2bf
00000540: e338 4438 1c95 b33f 619b b1f6 d719 953f
00000550: e7e2 0232 7430 723f 11dc 98f9 6fe9 9dbf
00000560: 1837 bc5b 7788 8f3f b793 fb01 99e0 b33f
00000570: 2fc1 a642 6a51 85bf 767f 8a3f 1253 9e3f
00000580: dff6 425f 41ea ad3f 02ae b900 2630 adbf
00000590: 6fe7 422f f48b a73f 461a 10cb 09a8 a23f
000005a0: b08a 990c a2f0 75bf c84e 6c93 166d 9cbf
000005b0: 2ccb cd93 d046 9dbf 5681 bdf9 fcba 99bf
000005c0: cdc8 403c cf61 97bf 5024 bb46 d55b 9ebf
000005d0: 23ae 6123 a226 a83f 3167 fc57 e236 73bf
000005e0: f467 c9a9 d89a 9dbf f2a2 7f45 e2bc 93bf
000005f0: 2e60 c5eb 974c 8cbf eb0c 6084 bca8 ad3f
00000600: 4953 5020 57db b53f adcb 7079 3963 943f
00000610: 377a bb7e 0603 b23f 80f6 2dbc badd a6bf
00000620: 9804 54c5 365c a7bf c4ac e196 8f6a 933f
00000630: 1ea3 f0ac a7f3 b03f 0959 b0c1 4f6a a33f
00000640: 5944 1ab9 780b c3bf 0316 3023 46e5 babf
00000650: aea4 6d74 05f2 a43f 3bcb 5f80 59c4 a33f
00000660: 3daa 1819 c97d ab3f 4ffa 5057 36ab b6bf
00000670: 225e e7fd c3e4 9ebf 6aaa 76f7 780e a53f
00000680: 4c5c 03d0 6fa5 a4bf 7a40 c067 b545 a33f
00000690: 3db6 5eb4 f136 b9bf 8a0a af79 3213 bebf
000006a0: 62b1 a12c 3eae c4bf 4a63 a51a 7266 c3bf
000006b0: ced0 d9fa 026e a93f 9497 0218 1c2d a13f
000006c0: 8ecb dc69 5707 ae3f 5c6e cc27 2096 c1bf
000006d0: cf57 746c 6f50 a4bf 8b49 3d59 d603 a4bf
000006e0: 9f20 1ed6 c3bc b4bf 48cc 20a2 d5d1 b7bf
000006f0: 10b2 816a fb51 9bbf 5efd 4815 ae62 6dbf
00000700: 903f 9a9d ab27 a0bf 5455 2972 4b31 a23f
00000710: b857 d44c 12bc cbbf 7b4d c143 a536 bd3f
00000720: a14b 6304 1c55 d0bf b084 94de 0f8a 9bbf
00000730: a1af 0d55 268b 953f d259 6d6d 0021 7abf
00000740: 01cf d9ec f87b bd3f 35a6 68b5 3a85 afbf
00000750: d1f6 3791 584b babf 949a c6b8 7bba 853f
00000760: 16ae b9b5 a2e3 a6bf 1e75 ecf8 a3d2 643f
00000770: 9acd 33f6 57ca 8a3f b326 7496 c6ab a93f
00000780: e45d 66b6 2fa3 ccbf 7d4e 8547 9deb ad3f
00000790: 3ed6 3d3c 1480 adbf 3fc9 d56c 5a24 c0bf
000007a0: 76f5 3fef 1ffd be3f 6f7b 5271 58e8 8d3f
000007b0: 01f5 53d2 d5b4 c0bf 50bb 8f36 a22c a13f
000007c0: c71e 14c8 6d87 acbf 9f0f bdc1 c7a6 9abf
000007d0: 8040 7f31 5145 7cbf c0d6 eec8 1fd0 bc3f
000007e0: 339a b96f 871c 68bf 2592 fbc7 30f2 a43f
000007f0: 2460 5a62 762a abbf cec7 264f 7c40 933f

fc2.bias f8 [100]
0.8602551662949177 0.007993943353092298 -0.8914451382726952 0.7667035542773709 -0.02511452001105312 0.789421627418545 0.8230447581210444 0.8337235946971565
0.8273015683593402 0.5842838036245542 0.2348723163414543 0.7322998705613334 0.8610232917708012 0.5360908512786849 0.8435289095323131 0.8846354207284939
0.15031144922090325 0.7534662554797744 0.5557193726749975 0.7865700855314294 0.8685965883587914 0.8941206950179291 -0.04413757455284413 0.5999953621743638
0.8890654816933378 0.8654809292799139 0.825288556656006 0.7492684887531661 9.525005774709625e-05 -0.7585831886286587 0.8284518636973544 0.8221609746594054
-0.8199966389682385 0.8487360548532705 0.8481431007627622 0.7289952451197067 -0.04795298651857212 0.8009518978073403 0.9078929116660006 -0.003328585054816978
0.5738414643605195 0.903020897103091 0.8916151248841471 0.4796334741686396 0.1080175095094216 0.8430073523069915 0.8516426046049846 0.76310344504885
0.8200891193550318 0.7586054134003667 -0.2299413785741643 0.7961131174222946 0.8711009763852084 -0.1188398999625377 0.7883553071473082 0.7781369863391864
0.8221445808461768 -0.006104358342040102 0.8157734411590558 0.8074012163744678 0.8177097841482242 -0.24789173748712343 0.9252752016409438 0.8950283439479866
-0.1102122960587489 0.4333680741607955 0.5800332178666755 0.8866967816599026 -0.873317871327521 0.6150463944064706 0.885394286044224 0.4749626776291372
-0.7555809075315958 0.4742760374064872 0.10149337716860321 0.12585154847735103 -0.0707018356937416 0.7543318904081077 0.8371810392280463 0.8491710302348247
-0.6604328440049846 0.34073694940103977 0.7760177995546926 0.8733390835679214 0.3204998340245155 0.9191705861956848 0.8550047744629872 0.6857423595158827
0.835915402942905 0.9096266729753819 -0.8438752884973448 0.7427411515498589 0.7831556725239605 0.7870030478303917 0.8922726471114304 0.5727629653172382
0.0461940146244856 0.8748309483719227 0.8660360219466616 0.8196087584724175
00000000: 6f74 aed7 3587 eb3f aa0f 24ea 205f 803f
00000010: cde6 61f4 b786 ecbf 0525 6be4 d588 e83f
00000020: eda9 68e8 9eb7 99bf 6491 1025 f142 e93f
00000030: 8fc5 e8f5 6156 ea3f 5117 a41a ddad ea3f
00000040: 4f0d 8123 4179 ea3f 5dcc 84f2 73b2 e23f
00000050: 570e b6ca 4b10 ce3f 77a1 5d23 006f e73f
00000060: d4fe e7b7 808d eb3f f3a7 3d00 a827 e13f
00000070: 9c7f f556 30fe ea3f c62f 1df1 ee4e ec3f
00000080: 591f 4fd3 673d c33f 569b bd43 651c e83f
00000090: 6991 6cfe 73c8 e13f 39d2 2b07 952b e93f
000000a0: c261 8d12 8bcb eb3f e5eb f800 a39c ec3f
000000b0: 4a5d 753e 3399 a6bf 554c 4979 2933 e33f
000000c0: 0d03 fc73 3973 ec3f 9634 d20f 05b2 eb3f
000000d0: 0638 138c c368 ea3f 3bc8 e3e8 01fa e73f
000000e0: d135 2888 1ff8 183f 5c93 4e40 5046 e8bf
000000f0: 0c7e 9c7b ad82 ea3f 4cb5 4688 244f ea3f
00000100: 245a 6697 693d eabf ccfc d083 d828 eb3f
00000110: c254 0300 fd23 eb3f 0d51 17d6 ed53 e73f
00000120: fa82 af39 4b8d a8bf 9b0d d8df 65a1 e93f
00000130: a605 7c6f 750d ed3f 7d01 7a7e 8c44 6bbf
00000140: bf8c 50c6 e85c e23f 0732 9514 8ce5 ec3f
00000150: 3ee2 3f71 1c88 ec3f 37c1 6799 50b2 de3f
00000160: 8203 bd16 09a7 bb3f 4746 0e8e eaf9 ea3f
00000170: cf13 d5fd a740 eb3f 4d64 7eea 576b e83f
00000180: ffed 6d89 2b3e ea3f b9f0 23dc 7e46 e83f
00000190: 8491 7c16 b86e cdbf 04da 6737 c279 e93f
000001a0: 08d2 a227 0fe0 eb3f fd8b ccab 4a6c bebf
000001b0: 546c bae8 343a e93f 5150 8489 7fe6 e83f
000001c0: b52c ea26 024f ea3f c8f3 1237 e200 79bf
000001d0: 1e27 57e7 d01a ea3f d586 6213 3bd6 e93f
000001e0: 9e25 91b5 ad2a ea3f 0f58 ba9c eaba cfbf
000001f0: 0620 5bbd da9b ed3f 11fd 477b 12a4 ec3f
00000200: 457c 307f df36 bcbf f0ab 6972 4dbc db3f
00000210: ab97 aad2 a18f e23f d753 d6ed d15f ec3f
00000220: 35a6 0b52 38f2 ebbf c8f3 afc6 75ae e33f
00000230: bb01 d465 2655 ec3f 0d37 cfdb c965 de3f
00000240: 0891 ea02 b82d e8bf 4dfd 7be1 895a de3f
00000250: 6a22 b34f 78fb b93f 303b 6e4e e71b c03f
00000260: 8b60 12f8 8319 b2bf e73e f4a1 7c23 e83f
00000270: a41a 0ae4 2fca ea3f e136 72b9 682c eb3f
00000280: eb94 460f 4422 e5bf 69d7 8d59 a2ce d53f
00000290: f470 c647 23d5 e83f 4bc5 47ce 64f2 eb3f
000002a0: e78e 60bc 1183 d43f cdfa e46e d869 ed3f
000002b0: a0c1 07f9 325c eb3f 6c48 f3f5 99f1 e53f
000002c0: 1a99 bba8 d1bf ea3f 24f4 7f65 a91b ed3f
000002d0: 08f5 bfbf 0601 ebbf cb99 6917 89c4 e73f
000002e0: 7d5a 257c 9c0f e93f 5915 0904 212f e93f
000002f0: a8af ce5d 7f8d ec3f 7db8 8cff 1254 e23f
00000300: 938d 2aec bda6 a73f 8127 1979 9dfe eb3f
00000310: 3867 ed2c 91b6 eb3f 2def a425 3c3a ea3f

fc3.weight f8 [50, 100]
-0.051981873697380776 -0.047376933956660434 -0.09749035736821648 -0.07095383099026589 -0.023359579338294342 0.08218116332390189 0.05907414664873211 -0.03276054407662545
0.06173570664670363 -0.086803807400629 -0.00898247170934733 -0.12813398224993347 0.05831369480584207 0.07437788215375497 0.019878248727022034 -0.10421090380698912
-0.0269127758183156 0.06384821356784794 -0.03717370565886078 -0.10954063851953433 -0.0016314764988312562 -0.017343935049335717 0.03167069376946433 0.014166920457469237
-0.025884025813708814 0.08212571995125109 0.028794135324910475 -0.12231485174252633 0.06473318101158207 0.0047718934363589925 0.06947410161797629 0.04695296028161058
0.085983436252001 0.05913657243519773 0.020572017417133756 -0.032079422542687024 0.021440540102961134 0.039916198950833724 -0.04246921202253515 0.005545394636548434
-0.10919725405761437 -0.06602323744326137 -0.07663869165960446 -0.08903123928979668 -0.015538434888774665 -0.07045756543365628 -0.09531897768759082 0.013003581343662302
-0.09869297458847007 -0.024699982210414664 -0.008483648396275212 -0.06589384942847269 0.01940050710776776 -0.031934359888745406 0.023416715782370305 0.054374273131046216
-0.08016868229325595 -0.03166937698132636 0.019581546529259596 0.051902009167880604 0.07218575324350658 0.07381823039204033 -0.01001602062557099 -0.024492099224906482
-0.02513315505129376 0.06822275933676504 -0.10050965836588896 0.0427554311114631 -0.007288993441616744 0.024579301899900978 -0.08225040431315525 0.04270871821968811
-0.07446143143872966 0.06343849813173782 0.024072186705917237 -0.1023714256546389 -0.034711315489323116 -0.1141101953945861 -0.03980622070613824 -0.08134255197986487
-0.09502106095220718 -0.0988583653042915 0.007734388010773657 -0.07791032826359169 -0.10632955571634396 0.04035580968400915 0.08075886163622639 -0.016519693033408077
0.03825670119880226 0.01549696991036148 0.04805966702602834 -0.05780639567805751 0.006211943715412859 0.011240473053244125 -0.016268666596809075 -0.03662782897081605
-0.0818215961824053 -0.05669941520248978 0.024911201791780066 -0.017751315477888864 -0.08550777990276415 -0.08909563447863005 -0.09928901705130383 -0.07173073538616262
-0.016122233060301135 -0.01533305356952499 0.05425926236902464 -0.08684663982192176 0.08501085113617202 -0.04377313154965766 -0.07417722670884903 0.03382576645147809
0.0750083687544113 0.010467110002284757 -0.06976917854426869 0.06880541141185471 -0.0957559694238676 0.09769144890008875 0.05711639588820488 -0.06783872077233881
0.03866796535127063 -0.04419800518283221 -0.09465723452579866 0.03720871910436591 -0.04749668683051078 0.02942730717941061 -0.056947645041026285 -0.003157806058641394
-0.08283651949435299 -0.00936260574010798 -0.016878349023316915 -0.07742602491561677 -0.020830798002785502 -0.09577196084692215 -0.030511477630658722 0.007636621179284509
0.015638485688249625 0.04010984624681276 -0.08766304611823479 0.04588970717401457 -0.08970725938138643 0.022544080262153272 -0.05307898412276579 0.012074544788460933
-0.06456735787033457 -0.05842682037414918 -0.07057576812359251 0.07975834271591146 -0.06661162406935892 -0.08945962956453266 0.031151063139137496 0.09137539680481208
-0.07999844797963379 0.029771508115695875 -0.05960299052654347 0.07548743544964528 0.05862148946006448 -0.007023388124395475 0.07839285269536299 -0.08964973774442184
0.044623081260175015 -0.08517589468250372 -0.0734260249832166 0.011609794970701469 -0.0919211445250871 0.08461040425110547 -0.01541676203642969 0.05166201050277478
-0.05201709959801327 -0.05758662535677802 -0.0740723133117875 -0.09305398217212234 0.006875660915126616 -0.02358197689603063 -0.03290212004135456 -0.07304785403769876
0.06553953338214405 -0.000297256486584499 -0.042377698222643215 -0.06987531892394291 0.004010746155215531 -0.05917065473502993 0.0841183122359766 -0.09477998466866579
0.08518067888272739 -0.03477389732206448 -0.029557502714019444 0.012831844613461858 -0.07751202904500275 -0.09819800245300919 0.09698230069409573 -0.032971031808005494
-0.03058542214339771 0.041092519646326216 0.08159653462295782 0.021199287480891647 -0.01438231426064069 0.05717332477230396 -0.09879660442085063 0.012054128204189682
-0.12703171592322168 -0.026254487186529434 0.06187424079311555 -0.027597297718989593 0.0038849340915050943 -0.07268696494273494 -0.11197036859566242 0.054509232350467764
-0.05077941224932799 -0.04490389330443222 0.05702056656145176 -0.08052970797381241 0.07285211776865724 0.07368497526282519 -0.07045114993477639 0.06351852709703668
0.07894280246810247 -0.10774372328265523 -0.006835132926941752 0.017447235891439157 -0.05078520250203284 0.05354805127842595 0.06999613710297879 -0.07109150178511577
-0.019055025453219878 -0.04881456156078544 -0.06784182287589235 -0.12389291765324977 -0.09189503170538381 -0.06974965422543425 0.04441377063335229 -0.07395058899682613
0.05260630323693003 -0.0045432740545131986 -0.006392013119267145 -0.08825681608571044 -0.028565274112191917 0.034304055039956094 -0.03132663615480446 0.09261289043194618
-0.09120085482701955 -0.013232084436220657 -0.012777471881438206 -0.010290446070405608 0.05660842344491194 0.014804329105806655 -0.05312393210660479 0.01966804699429931
0.0168951621631233 -0.03783628502343934 -0.003268013923204295 0.04526091804294561 -0.028618209273618227 0.021224203602867787 -0.11414758573585151 0.008202019773959544
00000000: 08b5 073f 5e9d aabf 9172 db1b ca41 a8bf
00000010: 4464 92c8 20f5 b8bf ea0c a1bf 072a b2bf
00000020: 7ca4 39d5 92eb 97bf e7c9 d220 d309 b53f
00000030: 7f73 ca6f f73e ae3f 2309 d172 fdc5 a0bf
00000040: 9709 1692 d29b af3f 5138 f439 c638 b6bf
00000050: 54c5 d4f1 6665 82bf d185 a2bf b166 c0bf
00000060: 6635 33e8 4adb ad3f 1968 65cb 6d0a b33f
00000070: 9ebc bcb0 f65a 943f add4 bcd7 90ad babf
00000080: f5dd efcf 058f 9bbf fd92 2e45 5b58 b03f
00000090: 3de1 2694 6e08 a3bf 503c 06f4 da0a bcbf
000000a0: ab20 3a8d e8ba 5abf 9b8b 48c7 9bc2 91bf
000000b0: 9584 f623 2437 a03f f51e 66e0 8b03 8d3f
000000c0: d44e 6f91 5781 9abf 42e0 59f1 3006 b53f
000000d0: 9dfa 25b6 357c 9d3f f19a 0cb0 0650 bfbf
000000e0: be29 698f 5a92 b03f 138e fc63 b18b 733f
000000f0: a041 5e02 0ec9 b13f 6345 b8e9 370a a83f
00000100: 2836 b3ae 0203 b63f 9ba2 3619 2647 ae3f
00000110: bccb 13b8 d410 953f 3f0c 64cd b66c a0bf
00000120: 7c03 344a 82f4 953f ab1f 2662 e56f a43f
00000130: fc85 7249 86be a5bf e0dd b789 c4b6 763f
00000140: 978e fdea 59f4 bbbf 1b48 981d e6e6 b0bf
00000150: 5046 49e2 979e b3bf 5d70 1255 c0ca b6bf
00000160: 262f 6d6d 9dd2 8fbf ec17 4bcb 8109 b2bf
00000170: 2a3a db13 d366 b8bf bdb3 d024 9fa1 8a3f
00000180: fad2 335a f143 b9bf 57d8 38bf f34a 99bf
00000190: ad57 4d03 e05f 81bf d386 4d58 6bde b0bf
000001a0: 63f7 36fe b9dd 933f a484 ae4e b359 a0bf
000001b0: ee2a dc31 8dfa 973f 2ae8 aed9 f1d6 ab3f
000001c0: 33ea 9c4c ef85 b4bf a5c7 d6f4 f736 a0bf
000001d0: e307 cb57 2f0d 943f e50a f26f e692 aa3f
000001e0: 2d01 6bf9 c37a b23f 64e5 6165 c0e5 b23f
000001f0: 5be0 2e88 4783 84bf 83b6 b9f4 7414 99bf
00000200: df60 f67b 81bc 99bf a1bc 31f8 0b77 b13f
00000210: 9616 9d3f 00bb b9bf 4442 b334 0ae4 a53f
00000220: 2873 3d47 10db 7dbf 3e3b 4607 512b 993f
00000230: 6a97 9bcc 5c0e b5bf 5ce9 03c8 eadd a53f
00000240: 8aba d784 e70f b3bf e67d c862 813d b03f
00000250: 789a 941a 61a6 983f 2348 3b85 0335 babf
00000260: ead2 a779 aec5 a1bf 8723 5c65 5336 bdbf
00000270: fd6e 3820 7b61 a4bf cad5 8690 ddd2 b4bf
00000280: 5790 38dd 4c53 b8bf f9fe ea25 c84e b9bf
00000290: 133b f9f8 17ae 7f3f 09aa e967 eef1 b3bf
000002a0: 5160 66ec 6938 bbbf 48c4 9745 84a9 a43f
000002b0: eafb 96dd 9cac b43f e616 46d5 89ea 90bf
000002c0: c9de 00e1 6196 a33f e0e5 9d17 e0bc 8f3f
000002d0: 6b52 44d4 469b a83f 68b0 dfc5 cc98 adbf
000002e0: d9fb a2f1 b171 793f 2cf5 3dc1 3e05 873f
000002f0: 0c69 eebb bba8 90bf ad34 1bff e1c0 a2bf
00000300: 3bbf b597 42f2 b4bf 4079 feab b407 adbf
00000310: fcbe ff73 5282 993f 1a09 c19d 662d 92bf
00000320: 7066 3c7e d6e3 b5bf 8355 4db4 f8ce b6bf
00000330: ac5b 1649 016b b9bf 5a02 9a0a f25c b2bf
00000340: 1f10 eebe 5882 90bf 4d0a 089d ef66 8fbf
00000350: 2b95 c2ba dec7 ab3f 287a cdd5 943b b6bf
00000360: 105b 6f69 45c3 b53f be08 e690 6e69 a6bf
00000370: 558e d25a 47fd b2bf c5ab 5761 9c51 a13f
00000380: 38fc b99a bf33 b33f d0c7 25b9 c76f 853f
00000390: a1cd 1d94 64dc b1bf e93e cd3f 3b9d b13f
000003a0: 6c81 1295 7683 b8bf b9ee 1f8a 4e02 b93f
000003b0: 277a cf38 5c3e ad3f c3a2 1edf e05d b1bf
000003c0: b552 2c9d 49cc a33f 4d0e 9ef5 1ea1 a6bf
000003d0: 483c 9ede 743b b8bf 79cd 5b6f 050d a33f
000003e0: b0f6 3559 7c51 a8bf b097 c727 3122 9e3f
000003f0: 2823 12e2 3d28 adbf 5a9b f737 66de 69bf
00000400: cf88 242e c634 b5bf 953f acab b32c 83bf
00000410: cf31 43d4 8e48 91bf e731 df24 31d2 b3bf
00000420: b7a9 af30 ab54 95bf 4519 b6df 8284 b8bf
00000430: 7625 4e9a 663e 9fbf 5ab3 78e3 9347 7f3f
00000440: f627 5c02 8903 903f 3b5b c11b 4789 a43f
00000450: 4d43 25dc 1571 b6bf 2621 120f db7e a73f
00000460: 86c0 4111 0ef7 b6bf 0203 c79d cb15 973f
00000470: 9009 d329 2b2d abbf 831e d8f7 89ba 883f
00000480: 0435 7182 7c87 b0bf a5b6 6ec5 1eea adbf
00000490: dc1c fbe7 4011 b2bf b349 8cf1 0a6b b43f
000004a0: c64d e99a 750d b1bf bebc 4a87 d3e6 b6bf
000004b0: 9b43 ac75 10e6 9f3f 6e89 efc4 6064 b73f
000004c0: 0ca4 cd3d c77a b4bf 698a d616 6c7c 9e3f
000004d0: 8c50 1c7e 4884 aebf 0ee0 8302 2553 b33f
000004e0: 3bc7 25c8 a203 ae3f d481 d264 8ec4 7cbf
000004f0: 2f15 91d2 8d11 b43f 8e0f b503 49f3 b6bf
00000500: f282 5125 d6d8 a63f 06a3 1162 16ce b5bf
00000510: f06a fa47 0ccc b2bf 7f0d b34d e0c6 873f
00000520: bccf 8be5 2488 b7bf 1aeb 2807 07a9 b53f
00000530: 2eae 0dc6 d292 8fbf 652c 1c6b 7173 aa3f
00000540: 5165 363b fca1 aabf bb50 3081 fe7b adbf
00000550: cd93 3633 67f6 b2bf ef1b 31c2 62d2 b7bf
00000560: 1d3a 4d2c a729 7c3f cc85 2cae df25 98bf
00000570: f7e6 17f3 8bd8 a0bf a888 22a0 43b3 b2bf
00000580: 42ae 78e8 32c7 b03f 9a76 6ee3 227b 33bf
00000590: 6a5b e497 87b2 a5bf 7e6e 9351 59e3 b1bf
000005a0: 517a 1b79 926d 703f a291 f0b5 9d4b aebf
000005b0: 3459 0c18 c788 b53f 09a1 7746 8043 b8bf
000005c0: 8f69 0da6 66ce b53f af65 815f e2cd a1bf
000005d0: 1957 086e 5244 9ebf 7787 b207 9547 8a3f
000005e0: d77d cb0d d4d7 b3bf b475 1119 8123 b9bf
000005f0: 6fa0 c501 d5d3 b83f 4a59 a93e 94e1 a0bf
00000600: d069 5cef c851 9fbf b17f fb27 140a a53f
00000610: 4a2b acaf 82e3 b43f e939 b719 44b5 953f
00000620: 6439 1f8b 7974 8dbf 0f86 3370 d245 ad3f
00000630: d382 f1f8 bb4a b9bf 6bac 59b3 d5af 883f
00000640: bff5 b844 9342 c0bf 5b8a 5bcf 74e2 9abf
00000650: 71af 5701 fbad af3f 8be6 a44c 7742 9cbf
00000660: 8f1a d81b 4cd3 6f3f 9648 46e9 9c9b b2bf
00000670: a64b 3d0f 17aa bcbf 4df7 8c54 a2e8 ab3f
00000680: cb88 d755 c2ff a9bf af45 69a2 a4fd a6bf
00000690: 1762 29b9 cc31 ad3f c79c 1a4e 989d b4bf
000006a0: c4be 42b7 6fa6 b23f fcdc f5be 04dd b23f
000006b0: 1e7a ef28 1609 b2bf 9265 920c c042 b03f
000006c0: 0fe7 da72 9835 b43f bf28 d9b7 1795 bbbf
000006d0: af12 2906 28ff 7bbf a2c0 3c2e b0dd 913f
000006e0: 49e3 bb9f 8400 aabf eabf 0272 a66a ab3f
000006f0: d720 b44f 44eb b13f 05cb 307b 0d33 b2bf
00000700: 1788 951c 2983 93bf eebd f1e2 38fe a8bf
00000710: 4090 8dea 145e b1bf b3d7 863d 72b7 bfbf
00000720: e7e9 d6cb 6e86 b7bf 6a38 ce03 1ddb b1bf
00000730: 827e b9d8 66bd a63f eee4 4201 6dee b2bf
00000740: 2da1 ee9f 36ef aa3f afc3 b1d7 f79b 72bf
00000750: d67e d8f4 822e 7abf ffb9 bcaa ff97 b6bf
00000760: e6da 7318 3740 9dbf 6899 0815 4d90 a13f
00000770: 8fa1 8e7b 0b0a a0bf 96de 9777 7ab5 b73f
00000780: 3f6b d970 f058 b7bf 25b5 4a4f 6c19 8bbf
00000790: 0cc7 d93e 132b 8abf 714d ab4a 2813 85bf
000007a0: 157f bf7e c7fb ac3f 850e ca6a bb51 8e3f
000007b0: 1cca 105e 0f33 abbf f281 774a dc23 943f
000007c0: 8d0f ce23 f74c 913f a93c 8e0d 475f a3bf
000007d0: e980 899d 85c5 6abf 0d12 9065 702c a73f
000007e0: 7be1 9983 174e 9dbf ba8d 6e31 ccbb 953f
000007f0: 6a20 a7b3 c638 bdbf d2bc 8575 38cc 803f
