weights/numq/gspc/mse/high/numq_5.pt (torch, 526847 bytes, 8 tensors)

fc1.weight f8 [200, 200]
0	0xbf9a8cd2f3dfbac1	-0.02592782605637001
1	0xbf946ac7122ef086	-0.01993857429964454
2	0x3f698935b9de59a5	0.003117184575738468
3	0x3f10852ff856a0ad	6.301980291445698e-05
4	0x3fb7d96f8889015f	0.09316155513170575
5	0x3fc14b74a4168209	0.13511522304635573
6	0x3fb049bbc3adbd24	0.06362508323012556
7	0xbf433d4ca955d727	-0.0005871414493145752
8	0xbf824d4442cc5419	-0.008936436928289425
9	0xbfa5505afce798ee	-0.04162868821349429
10	0xbf2e3a8f850a0964	-0.00023062707852623398
11	0x3f98f5e41c554698	0.02437549994403429
12	0x3fb51547b66e5013	0.0823559589755976
13	0x3fa368ccd120f354	0.037908936050803504
14	0xbfa7d133d4e45b00	-0.046517963159365294
15	0x3fa30ad22a02037a	0.0371919323233731
16	0xbf45cd5691668552	-0.0006653473563355361
17	0x3f928d27b19d74cd	0.018116588798297074
18	0x3fad44f1166ce185	0.05716660879847083
19	0xbfa46873af1787c3	-0.039859404681706255
20	0xbfb797fd82e3d569	-0.09216293759876283
21	0xbfb212c09ae11a92	-0.0705986383555717
22	0xbfb3efda7dda2acf	-0.07787862370075092
23	0xbf7f27edcd43c246	-0.0076064385541348475
24	0xbfa030385d088318	-0.03161789069804949
25	0xbfa0266f0d3e7e31	-0.031543226591790215
26	0x3f9b2a3d6cd5afef	0.026528320091003307
27	0xbface39e14a166de	-0.056424083727234495
28	0x3fb3a5bad284be2d	0.07674758567440483
29	0x3fc0801f1b68a7cc	0.128909958251198
30	0x3fa81f580d6560ec	0.0471141353943397
31	0x3f96e854fe66d363	0.02237065127129102
32	0x3fa7b4745e473eae	0.04629863406046063
33	0xbfb4b8cec20ec905	-0.08094494092691569
34	0x3fa2c4fe8a574e05	0.0366591972230275
35	0xbf7adee8004c4497	-0.0065602362199267605
36	0x3fb081db98d8f6d0	0.06448147279385386
37	0xbfad571f54735aae	-0.05730531602755683
38	0x3f86711d6fe8ed79	0.01095793721935111
39	0xbf92db0a6e785985	-0.018413699142990864
40	0x3f92ebdf77ba095c	0.018477908785379568
41	0xbf84db872212702c	-0.010184341170592935
42	0x3fa9ecb8c9626b41	0.050634169180929785
43	0x3fa4c95e076a4af8	0.04059881058232934
44	0xbfa1583f6ff14ddc	-0.033876402296893565
45	0x3fa28f117a78a9b2	0.036247774314989725
46	0x3faffa315009ab7a	0.06245569326423257
47	0xbfa56ad51383e44f	-0.041830690986849654
48	0xbfa09ab4356c8381	-0.032430297395200654
49	0x3f932a72b6b215fd	0.01871661415181868
50	0xbf90cadb0797ed42	-0.01639883264395548
51	0x3fa5be04f4c3b303	0.0424653576645593
52	0xbfb2e862b87d20ed	-0.07385842327233023
53	0xbfb90fdc0ecbfae2	-0.09789824830293584
54	0xbfb58fb3e7bd5c80	-0.0842239800234541
55	0x3fa5ae0f063094a9	0.04234358740385719
56	0xbf833133e39ed260	-0.009371190437243715
57	0x3f84ec61a8bcebc6	0.010216486894582998
58	0x3f99efaf2189ced1	0.025328384801879992
59	0x3f82c285f117a523	0.009160086078696289
60	0x3fa367b821554695	0.03790069014452261
61	0xbfc0a8c19ce35c38	-0.13015003357460997
62	0xbfb297153309d0d6	-0.072617840729268
63	0x3fa24cacfe83de6c	0.03574123961328443
64	0xbfb2b18a6d1cd54a	-0.07302155650980527
65	0x3fb7d406b551d38a	0.09307901312588576
66	0xbfbc3afb294690ef	-0.11027498014169955
67	0xbfa3589a7c657f11	-0.03778536575805281
68	0xbfb7ed42b3a69009	-0.09346405874254073
69	0x3fb888acdbd380a3	0.09583549849367272
70	0xbfa8f5371205b9bb	-0.048745842885967026
71	0xbf73e844739f60fd	-0.004860179318676436
72	0xbf289cc38fdf10b8	-0.00018777739745535148
73	0x3fad5c67631aeee0	0.05734561047344555
74	0x3f9063d3062a4e7b	0.01600579953317414
75	0xbf987de2659e86cb	-0.023917710735651448
76	0x3fab54021f80484c	0.05337530741248084
77	0x3f97d6c76f05240e	0.02328025450814058
78	0xbf80930ce764d6ec	-0.008092976390439564
79	0x3fb1343bf2c00889	0.06720328022496082
80	0xbfbd57d7857b1015	-0.1146216107254648
81	0xbfa27adae737d467	-0.036093559956420766
82	0xbf8c200edd5688c7	-0.013733020906162697
83	0x3fa4c45473a5802d	0.040560378186228575
84	0xbfb505df19ccd932	-0.08212084178817206
85	0xbfaf138734dbbddf	-0.06069586296313977
86	0xbfb3dd892eba84f1	-0.07759911909899465
87	0xbfbbccbb4192e2c3	-0.10859270430490668
88	0xbf9ccbba83028b5d	-0.028120912786686037
89	0x3fb3bc1844aab740	0.07708884884297351
90	0xbf47a3c3d1f8ca66	-0.0007214265969593514
91	0xbfb90c8a443d2954	-0.09784759679783878
92	0xbfabb55b717efd1e	-0.05411802063417269
93	0x3fb1f6d8b8153fc3	0.07017282957281083
94	0x3fa00695dd1d80b9	0.03130024265442572
95	0x3f9725186f969ebc	0.022602445421994175
96	0xbfaf5334fbe9c8fb	-0.061181693793416835
97	0xbf95c5f5c5f9cd4b	-0.0212629701695282
98	0x3faa64f8052232f2	0.051551581026705665
99	0x3fb20698992c93cc	0.07041314830401219
100	0x3f8b085fbe19ca5e	0.013199565876879035
101	0xbfbef6b51d5b5185	-0.12095195738522165
102	0xbfa7c2aafc6a0059	-0.046407073318733345
103	0x3f97caa315c7c7a7	0.023233936504716415
104	0xbfb14fc93215b7f1	-0.06762368653082242
105	0x3fb02aac4230cd38	0.06315113655073368
106	0x3f92f45442f7b574	0.018510166728380864
107	0xbfb64c79c4526b16	-0.08710442584053299
108	0xbfb3070cf4da1504	-0.07432633378819636
109	0xbfa2f96cf5970ad7	-0.037059216479539074
110	0x3fc09e88d3b62abc	0.12983808839302025
111	0x3f7c2f9bf2cf41de	0.006881341146212054
112	0x3fb9292fc02b10f5	0.09828470651251904
113	0x3f9ef9c2c6790b80	0.03024963699705152
114	0xbfb0496a8d88ee78	-0.06362024264756794
115	0xbf905617d1c6b230	-0.01595341890213059
116	0x3fb11a444d5c5b77	0.06680704964342775
117	0x3fbcaac6ccf301c7	0.11198084357875536
118	0x3fb022300c9414de	0.0630216627797213
119	0x3fae6e5144b53af6	0.059435405385206794
120	0xbf9920d0d9f74492	-0.02453924494131294
121	0xbf9208dc22e0fd9f	-0.01761192286380508
122	0x3fb77453dd4dcde7	0.09161876824310121
123	0x3f9bd9515be0a33a	0.027196189148671147
124	0x3faeef4590eae744	0.060419248523841534
125	0x3f96462f4b5d5b31	0.021752108549971175
126	0xbfb10f836f587b88	-0.06664296596907893
127	0x3f81e95287b8c531	0.00874580837907732
128	0x3faf75ebe5cb2e35	0.06144654445742185
129	0xbf6bb0dab6dfa048	-0.003380229164566404
130	0xbf924a4876424115	-0.017861492364830662
131	0x3faf67014a9b26b6	0.06133274112432956
132	0x3fbecb2262c56771	0.1202870837345509
133	0x3fb489e7e40e176f	0.08022927587270855
134	0x3f8c17a7ba8789a2	0.013716993694235683
135	0x3fabefda58cf1919	0.05456430753797487
136	0x3fb4a8d71bd15ea3	0.0807012980379747
137	0x3faaceea02291e42	0.052359879268405254
138	0x3fa7c95b3d05179f	0.04645810241576886
139	0x3f707ab21eb47cf3	0.004023261815091705
140	0x3fb417d2b1afa42c	0.07848851049460909
141	0x3fba2977b52c8d99	0.1021952454871581
142	0xbfa2d22ba0a55131	-0.0367597230530542
143	0xbfa0aef3802300ec	-0.0325847715298567
144	0xbfaf378ed3cbd161	-0.06097074828531635
145	0x3fa4670ad18025f2	0.039848650049019954
146	0x3fb792a053f4b643	0.09208108949379672
147	0x3fa1f5ee7153fbe1	0.035079432806007345
148	0x3fb9865ebade1f25	0.09970657407950208
149	0x3f7a752e4dfa3625	0.00645940864309361
150	0x3fa9f6c9355b76f3	0.05071095253309279
151	0x3fc1c85d20933a42	0.1389271172578948
152	0x3fbe4fe01b22efc0	0.11840630209456915
153	0x3fc3a03e028dc483	0.15332770466514853
154	0x3f9e1e4124b71e41	0.029412286630558396
155	0xbf9083c5f7c69e62	-0.01612767529300497
156	0x3f8227ca63d528ee	0.008864957019472954
157	0xbf9e189e48ef71d0	-0.029390786363238608
158	0xbf8808e89e0174ac	-0.011735741922331698
159	0x3fb0626ae6cf7807	0.06400173316021106
160	0x3fba985fa79e75b4	0.10388753740558948
161	0x3f835a1c35656840	0.00944921529724152
162	0x3f44afbbe4ea8317	0.0006313006832280058
163	0x3f9187d8bb882b79	0.017119776197471268
164	0x3f95e146c97eb9b8	0.021367174194603072
165	0x3fa45eb8c790d45c	0.039785169945766724
166	0x3f9bad872ce7e92b	0.02702914439758179
167	0x3fb548fed6c900ae	0.08314507240084154
168	0x3f4f7a34a05d77ad	0.0009606129612895663
169	0x3fa93d1a0c78cfd6	0.049294294378711065
170	0x3fa42792aa09d948	0.03936441732087076
171	0x3f9516cbee0c0aad	0.020594774631727365
172	0x3fac654f11db7970	0.055460425309990735
173	0x3faa93d4a9eabb19	0.05190910886937256
174	0xbfaa23269aebeb81	-0.05104942933208801
175	0x3fbadef64b05d26d	0.10496463138208308
176	0x3fb92ebed90d7f85	0.09836952971590847
177	0x3f9b7c0d501ee269	0.026840408339668196
178	0x3f6d2c00bd29f8d1	0.003561021273809841
179	0x3f935593bbed25f1	0.01888113817702747
180	0x3fa504cd0cc3f3a0	0.04105225354030684
181	0xbfb4dfc0818e7a46	-0.08153918421747006
182	0x3fb030e21e6fd0ae	0.06324589961133384
183	0x3f9ef8b84056ceda	0.030245665480562824
184	0x3fa3a71f512a8b32	0.038384417207700486
185	0xbfa35486c90d1090	-0.037754261057245775
186	0xbf93f3e4c10b5fb4	-0.01948506763696374
187	0x3fb6f9aa02510229	0.08974707180551235
188	0xbfa7bf1861486b40	-0.046379815936424595
189	0xbf8c7d6c9a44936c	-0.013911102731592094
190	0xbfad50eaad6f4de2	-0.0572579704964047
191	0x3fb91e875dbac5b0	0.09812208212203788
192	0x3fbba31a24cd8805	0.10795749090678448
193	0x3fb9fbf5672f65e4	0.101500833217322
194	0x3fb325d120541094	0.0747957900931076
195	0xbf97c4b848c42e44	-0.023211364213280086
196	0x3fae8e3ed65c4efa	0.059678996722281455
197	0x3f94ea1d987807b9	0.02042433016868703
198	0x3fa8a6c48ef7b2a8	0.04814733739099114
199	0xbf90ea3752bb99b6	-0.016518463539705507
200	0x3fa3c1aa3d3a6177	0.03858692166722027
201	0xbfb937f16499fdf9	-0.09850987154094772
202	0xbf9c5544e1418d4a	-0.02766902565816779
203	0xbfa1d3cadd4acb22	-0.03481897307701433
204	0x3faf54035f6790e9	0.061187844654144126
205	0x3f3411b8ea118408	0.0003062321139336026
206	0xbfb26afbf87abfa4	-0.07194495026010245
207	0x3fa2e6f3f0da1fe6	0.036918280745396534
208	0x3f80f91ac0a525ce	0.008287629131376397
209	0xbfa88a10ac171600	-0.047928353316404326
210	0xbfaa24c5eabe9889	-0.05106180658849364
211	0xbfa56a04ccd86e10	-0.04182448387674864
212	0xbf6d4bc755ab509d	-0.0035761731390753907
213	0xbfb31f710ab8b248	-0.07469851028208396
214	0xbf554c2a91299e37	-0.0012998977369082074
215	0x3fb16efaa1696f81	0.06809965553969556
216	0xbfbd638a79ffa94b	-0.11480012396319698
217	0xbfabfd9aee22a96a	-0.0546692290966629
218	0xbfa1445a4b8c15ce	-0.03372461483199239
219	0x3f800de10d723a3b	0.007838972304196825
220	0x3fbb86271c9edee7	0.10751575897927133
221	0xbfa34a1f5d8cb9e5	-0.03767488495792629
222	0x3f9cf78cfe2e6cb5	0.028288081182478126
223	0xbfa118f3170e74f5	-0.03339347511721683
224	0xbf78228824363edd	-0.005892307093190855
225	0x3fae751b442370d8	0.05948720175521921
226	0xbfb3194d52296964	-0.07460482841398669
227	0x3f9264ff131d5306	0.017963395635280065
228	0xbf92ec1a7d186778	-0.01847878826638502
229	0x3fa29c06e9864201	0.0363466415466327
230	0xbfab20827b3b2b18	-0.05298240427290163
231	0xbfa80bca02f9a5bb	-0.046964943755323195
232	0xbf95a5586255736f	-0.02113855457479324
233	0xbfbab88e740a5bcd	-0.10437860806483386
234	0x3f96733e429fb6e5	0.02192399293556137
235	0xbf901d9cf91d638c	-0.015737965302239185
236	0x3f58812dd346d0e8	0.001495642424839844
237	0x3f87350038ed25d7	0.011331559884314153
238	0x3fa7f0d77368b4a7	0.04675935062218999
239	0xbf944c13f5850f78	-0.019821464405381545
240	0xbfaa9401c346ea30	-0.05191045292618346
241	0xbf9f2ac93863fbe0	-0.03043665320091893
242	0x3fb0b73218e46b22	0.06529534442635712
243	0xbfc0d952443c7367	-0.13163212138979505
244	0xbfa526d094e82f35	-0.04131175821029701
245	0x3fa3696ae277afd7	0.03791364683624437
246	0x3fa09a619e10fbcf	0.032427835984428215
247	0x3fad74d2fedf11e4	0.0575319229242586
248	0x3fb5b336209587b8	0.08476579947958285
249	0x3fb158ebe7e7e576	0.06776308452380939
250	0x3fa3a29f6005b1eb	0.03835008666178282
251	0xbfa7df9f0fb29d37	-0.04662797037718252
252	0xbfa2904c01b4bec7	-0.0362571479876102
253	0xbfaba5299cc6f59f	-0.05399446524414064
254	0xbf8799cbe2985cc4	-0.011523812153468767
255	0xbfaba666a6cdee24	-0.0540039137476607

fc1.bias f8 [200]
0	0x3fe2bc89d5adbe0c	0.5855149434482327
1	0xbf6570e2db9eb811	-0.0026173048799682593
2	0x3fe2e48760f53890	0.590396584864509
3	0x3fdfbbe457a89222	0.49584301529310626
4	0x3fd94a39234ae15a	0.39515522429021177
5	0x3fd15fe045dfa2cd	0.2714768106803092
6	0x3fd95b176075e782	0.39618477268196994
7	0x3fe074794efc6ecd	0.5142180006691547
8	0x3fc05590590c8145	0.12761120174492127
9	0xbfdaa6593dd1047a	-0.4164031127621183
10	0x3fcd09fc68bdceed	0.22686724771812497
11	0x3fc80490316d2d38	0.18763925946618953
12	0x3fe15fb3877a4316	0.542932285885487
13	0x3fe60bc9872c75f5	0.6889388694868886
14	0x3fe396a633681d32	0.6121397975956937
15	0x3fd45aa19fadc411	0.3180316981661813
16	0x3fda479ce41ae9c3	0.41062090183154626
17	0x3fd964f3235ced61	0.3967864842740792
18	0xbfa49a3736a20774	-0.04023907224565351
19	0x3fe213ba778c9b69	0.5649082503267496
20	0x3fd2fd51b2a8d8ce	0.2967113728258369
21	0x3fcf32b57ad5f20f	0.24373501298750042
22	0x3fd481eba974a3bb	0.32042972134018627
23	0x3fdb8572c3da651d	0.4300200379016859
24	0x3fd6e984af0e7b9f	0.35800282569283043
25	0x3fded0cdc09cceee	0.4814943676931155
26	0x3fd172c38b48619a	0.27262962915258415
27	0x3fd53a3880bd43be	0.3316785104007599
28	0x3fe45c7a5b15f435	0.6362888125437453
29	0x3fe214e5637a15b2	0.5650507872493817
30	0x3fd12508d2a10209	0.267885404293367
31	0x3fe5be6a2e16f850	0.6794939899625749
32	0xbfd4403d913081f3	-0.3164209287515682
33	0x3fe36f816e0a3970	0.6073615216462667
34	0x3fdb9761ee45112f	0.43111465710196034
35	0x3fe2f5e45414b72e	0.5925161020474883
36	0x3fca2da548512448	0.2045179942236095
37	0x3fe60205c5807302	0.6877468926864767
38	0xbfc0d217e9394926	-0.13141154182319176
39	0x3fd865ffc34aba71	0.38122552939868287
40	0x3fdbdc25437b8fac	0.43531161871055235
41	0x3fe0944ce213671d	0.518103066973001
42	0xbfd5daa203cc083d	-0.3414692914085469
43	0x3fc22532c47ff48d	0.14176020235746414
44	0x3fe1f89b743cf81c	0.561597563769968
45	0x3fbd91c7b1dc3df8	0.11550567714970572
46	0x3fdae962a3b5ee12	0.42049470889443896
47	0x3fd6f56b5f8dddfd	0.3587292130609681
48	0x3fdb8e88e33264f1	0.43057462870781565
49	0x3fe3178843b4459b	0.5966225931498913
50	0x3fb0658a905e8811	0.0640493967498801
51	0xbfc48f9c141a196e	-0.16063261968174508
52	0x3fd874fb57ccb10e	0.38214000295808226
53	0x3fe1c171b7d0ea9b	0.5548637952955063
54	0x3fdc69f9c8745e87	0.44396824432031007
55	0x3fe07136d6f709f0	0.5138200949225489
56	0x3fe52d9d926a1f13	0.6618183002146644
57	0x3fe5731f858d1e40	0.6703031166479789
58	0x3fcfff98f8b8f151	0.24998771805429468
59	0x3fe19b2afda29c75	0.5501913980305192
60	0x3fcb20a2305b3107	0.2119333969225254
61	0x3f7f7cf731fd19fd	0.007687535864369097
62	0x3fe342bebad5e49f	0.6018975876933331
63	0x3fe1753627421e45	0.5455580488932773
64	0x3fe4f0efec2739d1	0.6544112789504714
65	0x3fa8e7aec4b5e13c	0.048642598640926654
66	0xbfc4f50a8458fb01	-0.163728060362665
67	0x3fd92b433ae49fcd	0.3932655406119892
68	0x3fc695fdeef7e751	0.1764523903692017
69	0x3fdfbbae54dd5a9d	0.49583013808789095
70	0x3fdb7e3d296a3fdd	0.42958001179158406
71	0x3fdd13beeae6398c	0.4543301862658147
72	0x3fd95a779fa20fe4	0.39614668454328084
73	0x3fb7ccbbc159cb11	0.09296773405530369
74	0x3fe32685444bcf66	0.5984522184285026
75	0x3fde3d96cb49da82	0.4725090966452755
76	0x3fde74fcc104ba72	0.47589033936939196
77	0x3fdd33fbf5b346c1	0.45629786485833895
78	0x3fdde64b41dbb403	0.46718102866617545
79	0x3fd246b2ae86a395	0.28556506198452186
80	0x3fe024d40550a88f	0.5044956306276321
81	0x3faa8e46c59c4ab5	0.05186673319089633
82	0x3fe09db8d948a040	0.5192531818220303
83	0x3fe3eee7d066d808	0.6229132719370236
84	0x3fda99d6043154d9	0.41563940438693475
85	0x3fdff5398192c711	0.4993423238148447
86	0xbfe0aa33c1f12cef	-0.520776633065365
87	0x3fd6d6c07183db38	0.35685740552382894
88	0x3fe0154ccf1f088a	0.5026001019798667
89	0x3fe1a5b536bd60e4	0.5514780110488826
90	0x3fd6568121d46e34	0.34902981094066665
91	0xbfd11d8bcd4828fa	-0.2674283508973897
92	0x3fdafd66ffb26076	0.4217164513625059
93	0x3fd0a620c09414ef	0.2601396446846839
94	0x3fd6541ff6a9cb36	0.3488845738240117
95	0x3fddc4d53b60e8bb	0.4651387290829338
96	0x3fd18eb36c951801	0.2743347702383972
97	0x3fceea4b4c10447b	0.24152508939781456
98	0x3fdb14a26e23035c	0.42313442950767466
99	0xbfc3ad5f7587b8c0	-0.15372842062737924
100	0x3fe32cd312f92bdb	0.5992217417309534
101	0x3fe44eb28318f130	0.6346066055771526
102	0x3fccbeb29ce2bc85	0.22456963215288198
103	0x3fdc128d2908a9b0	0.4386322880478941
104	0x3fe281920daeab58	0.5783167140228711
105	0xbfd628290cfef45f	-0.3462011935151334
106	0x3fe141fcb7092a78	0.5393050742071201
107	0x3fcbf0b6912cdfb5	0.21828348244320997
108	0x3fe3f9aa83d546d8	0.6242268156877016
109	0x3fe1860072870c97	0.5476076351991591
110	0x3fd31ae9ac3c58b6	0.2985176259984529
111	0x3fe017c490cdace8	0.5029013469878949
112	0x3fced393d00d6b8a	0.2408318296318977
113	0x3fc625d73f904a24	0.1730298099870008
114	0x3fd9aaf54c4550a8	0.4010594601470623
115	0x3fe0c9cbc4c9bb2d	0.5246332973018518
116	0x3fd99f0876f83c2e	0.40033160799152057
117	0x3fd1639b536124c2	0.27170451300169074
118	0xbfc1bcc6df19f596	-0.13857351201651785
119	0xbfa9522329d2826c	-0.049454783301602884
120	0x3fe15e6ecc754c37	0.542777442295466
121	0x3fe5ffbf1a78984f	0.6874690548909345
122	0x3fd0e6814edbe292	0.26406891537730204
123	0x3fdd3e6dc14a87b9	0.45693534732901814
124	0x3fd0ab61d94d69ea	0.26046034069955104
125	0x3fe248f0391c4ed5	0.5714036097947096
126	0xbfc2ad46c59a3a73	-0.14591297768170683
127	0xbfd3e37f9ec28a97	-0.31076040748500006
128	0x3fe14fcaad2f118b	0.5409901983735365
129	0x3fe2d5a48034280f	0.5885794166545127
130	0x3fd1a68b09116d40	0.27578998456529646
131	0x3fd5372ba70edce5	0.33149234117759213
132	0x3fce167c747b445f	0.23506122291158513
133	0xbfa890c215c00a74	-0.04797941699509503
134	0x3fe45095c75b46ef	0.6348370450670852
135	0x3fe6d2bf98023674	0.713226124660379
136	0x3fe15ded27c9a4aa	0.5427156235793025
137	0x3fda3a855695ac4c	0.40982182937176925
138	0x3fdb40049eec7a46	0.4257823516835838
139	0x3fe10b228ca166a4	0.5326092478455462
140	0x3fe138762e779c43	0.538142290836625
141	0xbfc6a65c9e4cf928	-0.17695195893788562
142	0x3fdc8ad3709bb8f7	0.445973262757334
143	0x3fcb021a0e0fbeca	0.21100164114567682
144	0x3fdf441295c77060	0.4885298216520422
145	0x3fdeafd85be916e4	0.4794827363551646
146	0x3fdefc0f2cac40b9	0.4841344772585319
147	0x3fd2b9c314dbefde	0.2925880149557524
148	0x3fd969daf0cfcac4	0.39708589092985513
149	0xbfc61ececa986b98	-0.17281517879822839
150	0x3fddb7e518036b50	0.464349053812545
151	0x3fe318d2747b7b41	0.5967800402685058
152	0x3fe620ee9c85d19b	0.6915200287899553
153	0x3fdca3e66206f370	0.447503658036843
154	0x3fe3fd8c663c8fe3	0.6247007366951006
155	0x3fda9770a633a313	0.4154931662620111
156	0x3fde86f11b689dd1	0.4769861953413655
157	0x3fdbdf6d73463e50	0.4355119348265122
158	0x3fe0411c3de0d5ff	0.5079480370101804
159	0x3fd7342c9ad1ace2	0.36255946272895134
160	0x3fe2555004ffc49a	0.5729141328466938
161	0x3fbcb8f42ac5fa93	0.1121971706797729
162	0x3fe183e94b4a4c9a	0.5473524542343455
163	0x3fdc9eeb12ff36e9	0.4471996007458601
164	0xbfd41ee81babf9da	-0.31438639356920606
165	0x3fc8e636adb1ca7e	0.19452556115318836
166	0x3fe35dbe71f79958	0.6051933504029803
167	0x3fdc564f2d7cd544	0.44276790086890494
168	0x3fe423c4a4bddac9	0.6293662278756865
169	0xbfd28bacf5ef712e	-0.28977512375947156
170	0x3fe389d13daf4f3b	0.610573406675463
171	0x3fd85b38c61ba5b9	0.38056773516162995
172	0xbf93dfc149c4e857	-0.019408245208275634
173	0x3fe0ea82be98e9b7	0.5286267969707329
174	0x3fe11f4c17dfa0a6	0.5350704637794663
175	0xbfd080d10774ece9	-0.2578623364276625
176	0x3fd53157be6f978c	0.33113664242989027
177	0x3fd932905b09f225	0.3937111748744278
178	0x3fe2853382a9159b	0.5787599136316887
179	0x3fdb9b194adb6c00	0.4313414793993502
180	0x3fd13566663b8325	0.2688842771877254
181	0x3fe250c555205540	0.5723597204802573
182	0xbfd6b3a570327130	-0.35471473652593755
183	0x3fe18f6d0e99afd3	0.548758057132995
184	0xbfd69a270688925f	-0.3531587184718656
185	0x3fd45554123ea45e	0.31770803243359136
186	0x3fd7e39347e1bc33	0.37326509494500043
187	0x3fda9e57264bae6d	0.4159143327694668
188	0x3fe17d726de8a9e2	0.546563353219707
189	0x3f8bd43311fe3f84	0.013588332163436474
190	0xbfc64b6d0183526d	-0.1741768128764706
191	0x3fdec980b97ff20d	0.48104875674451436
192	0x3fe409933941b24b	0.626168834523534
193	0x3fe2b8f4e16b7c07	0.5850777056438127
194	0x3fd3a983e3451690	0.3072213859016779
195	0x3fd1732af7cfec25	0.2726542873421656
196	0x3fe3e848c10776b9	0.6221050043202104
197	0x3fe154ba0cc08a96	0.5415926217140903
198	0x3fe3d8df19d2b496	0.6202235702854917
199	0x3fce26dac4a1d4b0	0.2355607471578529

fc2.weight f8 [100, 200]
0	0x3fa52377beba88ba	0.041286222488694915
1	0x3faeb32cf60d6d14	0.059960751567553455
2	0xbf86bd1159c4a49a	-0.011102805664068339
3	0x3f75cc2a95476015	0.005321661320031997
4	0x3f67ccb7513d6e61	0.0029052334229342923
5	0x3faee6948784ae20	0.060352937262305284
6	0x3fa20d89f9928d99	0.03525954410113314
7	0x3f661a656dcbdf79	0.002698133567147151
8	0x3fb3da9f3603a99a	0.07755465573033007
9	0xbf827228baf9a456	-0.00900680370905797
10	0x3f839b2c66129ad6	0.009573313584338033
11	0x3fb06dedc0a50c11	0.06417737916221734
12	0xbfb048c95241d83b	-0.063610632498098
13	0xbfa74c8f82b75b2f	-0.04550598593384902
14	0x3fb83e353383eb49	0.09469921596239063
15	0x3f912c5b9812be00	0.01677077403718208
16	0xbf927de8185044b5	-0.018058420642834878
17	0x3f9bb7883eb4b653	0.027067307307495913
18	0x3fa5b2e7ad5cb5d4	0.04238056174504448
19	0xbfa5d70a37fd93b7	-0.0426562493655988
20	0xbf9cdb1fca04c37f	-0.02817964239619952
21	0xbf95e7086048ffc3	-0.02138913238218244
22	0x3fb5a18bb1ede248	0.08449624151206436
23	0xbfa48f5e44680c42	-0.040156312799830576
24	0x3f925e3bdf9258ad	0.017937598725062887
25	0x3faf1d98f1ba0fb3	0.060772685535112635
26	0xbf937590c44949a3	-0.01900316427265526
27	0x3fb4e1f60a62c961	0.0815728926998296
28	0xbf8bca63e11837b8	-0.013569622332422301
29	0xbf600f38cb151d5a	-0.001960383343120914
30	0x3fb0c74be4478eb6	0.06554102252226354
31	0xbf8b2cb6bec74372	-0.01326887864789381
32	0x3f900d7646602579	0.015676353497871418
33	0x3f9f3f7d4f73a202	0.030515630697580683
34	0xbf95c56b89334d3b	-0.021260910271690064
35	0x3f6534ec9562a358	0.002588712765902928
36	0xbf8d4d26ebe6182f	-0.014307312082348115
37	0x3f8cb8225d4eb78f	0.014023083183783118
38	0x3fa50df634ac13e5	0.04112214463206224
39	0xbfa2a29969f4f370	-0.036396784004387395
40	0xbfa1a52469ee262f	-0.034463060313168696
41	0xbf8cb6ef931e3f1f	-0.014020797421636253
42	0x3fb5787f596f5e38	0.0838698953006024
43	0x3f8e67b37fe2852e	0.014846231785045374
44	0xbf944c30bfd15138	-0.019821893413181274
45	0xbf8530c2f8d8b4ca	-0.0103469116393974
46	0x3fb1af3f8387a408	0.06908032380273721
47	0x3f7f109c8f781bce	0.007584201397100322
48	0x3fb009a31433a2b7	0.06264704936223607
49	0xbf85452e05084870	-0.010385856178832337
50	0xbf9a12b7c663848f	-0.025462028011024315
51	0xbfa5194efb368325	-0.041208713689462585
52	0x3fa15df738184991	0.03392002639533865
53	0x3fb64607c8dd2519	0.08700607923414728
54	0x3f87f961d06e9a71	0.011706127332059087
55	0x3f95a8d687356d62	0.021151878359302663
56	0xbf8ce7ffaa75d81c	-0.014114377393280413
57	0xbf77dc833128993d	-0.005825531452990082
58	0x3f807a5e11a7827b	0.008045897401588
59	0x3fa6ca2e0a3e6038	0.04451125979466081
60	0x3fa6cbe0ab7ce637	0.04452421277387624
61	0x3fb24546faf64f54	0.07136958720212522
62	0x3f821d4ddd77d09e	0.008844955750625435
63	0xbf9848ebdbfed6bb	-0.023715672781426927
64	0xbf86af5bf1a25638	-0.011076658546055204
65	0xbf8091a975c4850d	-0.008090328127368563
66	0x3f736dcfacc34149	0.004743396024608445
67	0x3faa41629acecbf6	0.05128009929412507
68	0xbf97e06824f38527	-0.02331698155911002
69	0x3fb246eec33866f3	0.07139484659310451
70	0x3fac4102d48db654	0.05518349499366751
71	0x3fb239fb6030b70c	0.07119723413844897
72	0x3fbafe98d06ea547	0.10544734085728634
73	0xbf9271af1758a893	-0.018011794853159357
74	0x3fbbd380fc22be6e	0.10869604259164031
75	0x3fb7f8574872ab0d	0.09363313215969189
76	0x3fb76e38410bc3f4	0.09152556980167487
77	0x3f97cee22150c97e	0.023250134738370225
78	0x3fb89382b379982e	0.09600083238328302
79	0x3fa06275a1dfcca7	0.03200118638042087
80	0x3fa62fbcc4fbf2ae	0.043332957311553386
81	0x3f8e9aefd0d59f1f	0.014943955956098485
82	0x3f9122b29f697447	0.01673392389271935
83	0x3fb41a96316bbdf2	0.0785306807190336
84	0x3f90f85e34c8b150	0.01657244870345781
85	0x3fb20c35c8d85eba	0.07049881127783922
86	0xbfa3ca2ae5573ef1	-0.03865179109163631
87	0x3fab776957ea227e	0.05364541242767461
88	0x3f9bf76b64461217	0.027311017985555432
89	0x3fa2de4a6ef71076	0.03685219387583143
90	0x3f8eaee22ef0aa85	0.014982001359461048
91	0x3f970e5378738898	0.02251558706928644
92	0x3fa9f6a949c58b61	0.05071000123532233
93	0xbf91e8c40705ad5c	-0.017489493301963463
94	0x3fab5897fdd689e7	0.05341029142006786
95	0xbfa5c1a3aafbece2	-0.04249297582824753
96	0xbf88eee767aa099a	-0.012174423075752828
97	0x3f974425735a62ad	0.02272089497145895
98	0x3fa7d8371d4d3ca2	0.04657146675764891
99	0x3f9efef73341f73e	0.03026949167587322
100	0x3f54eaba4a5b01d6	0.0012766665690123655
101	0x3fada68380c63917	0.05791102358772287
102	0x3f8d067dddaec76f	0.014172538116188097
103	0x3fa71b915903a8b9	0.04513220035171756
104	0x3fb1bab8f77a63c3	0.06925540964074543
105	0x3fb15cc496e37474	0.06782177623559155
106	0x3f7423d31532f127	0.0049169774458131315
107	0x3fabdd39fb2ba150	0.05442219916386881
108	0x3f913c05470192d3	0.016830522974845174
109	0xbfa19579bdf70b87	-0.03434353298100406
110	0xbf999afe402b234f	-0.025005314508948214
111	0xbf9b07dd56295e08	-0.02639718855274789
112	0x3f9a27b3ddca91d8	0.025542078411165153
113	0x3f9b7eaea76bed48	0.026850441902735583
114	0xbf94c1efef133726	-0.020271061865790994
115	0x3fa4189ffb5c9117	0.03925037330034991
116	0xbf9cdf3d0e03a379	-0.028195337276801766
117	0x3f9d798d1e5b7113	0.02878399369989022
118	0x3fa49a9894f8437e	0.04024197405318029
119	0x3f6edc1b4218f842	0.0037670643221466025
120	0x3fa4943dd16543b8	0.040193492709142686
121	0xbf8c1288a42a04ec	-0.013707225332157034
122	0x3fb4624c62147932	0.07962491411715147
123	0x3fba55b2efae10f4	0.10287016250191866
124	0xbf83c0d30400dffa	-0.009645126876520738
125	0x3f8b066d6c37d074	0.013195853104640977
126	0x3f82113e7e16a50f	0.00882195303241187
127	0xbf91841e3b39896a	-0.017105553021232657
128	0x3f9175d278588bb9	0.017051018328981125
129	0xbf91cb9353d7b0a7	-0.017378141395895465
130	0x3fa339ddacc18fe6	0.03755085691298614
131	0xbf96a8a6438a6b94	-0.022127721664769576
132	0xbf80efae6983ee36	-0.008269655795167013
133	0xbf81487bb85228d0	-0.00843903213742117
134	0x3fb1e11ae52a5fc2	0.06984108061658303
135	0x3fb0cc8dd78076b9	0.06562124739908883
136	0xbf9ccbbd4bada40e	-0.028120954269443436
137	0x3fb03178033cbe6e	0.0632548339751737
138	0x3fb76026322e2641	0.09131087041000631
139	0xbfb89561e009b8b4	-0.09602939338376154
140	0xbf978815b53a2c3e	-0.022980059801323664
141	0x3fa297b4709ce8ba	0.03631366610211857
142	0x3fb03231b0c26961	0.06326590123572863
143	0xbf9a6cc74cbe3b98	-0.025805582102801233
144	0x3faa5ee074a147df	0.05150510238367167
145	0xbfb0b64f2b8758dc	-0.06528181851112741
146	0xbf9b651168940fb4	-0.026752731330830407
147	0x3fa9f6b73c6a8764	0.05071041691304748
148	0x3f9825f31cc04d68	0.023582266454537232
149	0xbf7c8ff8cb0413fa	-0.006973239753510713
150	0x3fb239562a20cf79	0.07118738678474114
151	0x3fa314b726bd69b1	0.03726742122553917
152	0xbf22db6e8a62ca54	-0.00014386867878142756
153	0x3f7b02f2efb654df	0.006594609232157127
154	0xbf9e0a8cb25af4c3	-0.029337118516868054
155	0x3f9cb1c1f8976069	0.028021841810045
156	0xbf957ef09627d572	-0.02099204937436156
157	0xbfa7b591c18c6fde	-0.046307139278922924
158	0xbf55df7688ba2d75	-0.0013350160178643132
159	0xbf85db771bc4a86b	-0.010672503027837807
160	0x3f4de5b4e4984af3	0.0009123929277755335
161	0xbf9df9c55df0721a	-0.029273113115879303
162	0x3f9ca3133d2ed97e	0.027965832337679235
163	0x3fa7393254080c48	0.04535825038694746
164	0xbfa7a829bf12b7f5	-0.04620485742030659
165	0xbf91127109351b53	-0.016671911417940177
166	0xbf8f0f158e52b6bf	-0.015165489583832124
167	0xbf718e9feae58fa9	-0.004286408117284348
168	0x3faa2ac918222dda	0.05110767764662301
169	0xbf606df9536863a4	-0.0020055646557577012
170	0x3f726a2ed80a9d6e	0.004495795234709872
171	0x3f7369b4b159d49c	0.004739480811271648
172	0xbf9e056b370936ea	-0.029317546114092354
173	0x3fb5f7ed24b14ee8	0.08581430574241333
174	0x3fb3d77eb6043e12	0.07750694221271484
175	0x3fa99e7e241d54e1	0.050037328632848384
176	0x3fb828393647dd00	0.09436376166546623
177	0x3fb405b6d29300e6	0.0782121910187957
178	0x3fa29982a95482b9	0.03632744137781203
179	0x3fb2f06411a57659	0.07398057394808556
180	0x3f8bd4d737b2cf1a	0.013589555156023492
181	0x3fa238d5a145bc33	0.03558986276299727
182	0x3fa58f3b0297863c	0.042108387056725566
183	0x3fa45971f8b8e4fa	0.03974491273079113
184	0xbf9e5bd65e4f573c	-0.029647206789227484
185	0xbf9b01e123a55ae2	-0.02637435703339975
186	0x3f847ef0198a43d5	0.010007739810392305
187	0x3fa826f9507ec316	0.04717234714133249
188	0x3f8e6a45c8afce5d	0.014851136385892244
189	0x3fb0902663e7507f	0.06469955386211444
190	0xbfa2c24cc6deca95	-0.036638640667111456
191	0x3fa77ef252721749	0.04589040047089427
192	0xbfa721e4135adebc	-0.04518044220224968
193	0x3fb5db13ea25b2d1	0.08537411180959543
194	0x3f9f82411b84855d	0.03077031832174747
195	0xbfa80289d61b9ea4	-0.046894366632668466
196	0x3fb129048dcb9437	0.06703213178441635
197	0xbf8c34cef89e2f47	-0.013772599184242685
198	0x3fa9bb23598c472c	0.05025587528338202
199	0x3fb3edadcd9c45ce	0.07784544248376976
200	0xbf941a938e7882d5	-0.01963263089249064
201	0x3f9c45f0a60ffa6a	0.027610550056119378
202	0xbfa2c78e15ed0531	-0.036678733994003905
203	0x3fa442ce60c23f82	0.03957219058167906
204	0xbf3556e560514993	-0.00032561397558086256
205	0xbfaa688ea27f9af8	-0.05157895787833938
206	0xbf86b50596933690	-0.011087459237752811
207	0x3f7e600cce98b720	0.00741581919423398
208	0x3f56eb9ca8dd2732	0.0013989477042337215
209	0xbfad3191f1e388c5	-0.057018814828340626
210	0x3fb235e6285a8946	0.0711349342841788
211	0xbfabb331e32c91db	-0.05410152338143678
212	0x3fafee6a5f98582e	0.062365841073344405
213	0xbfa66d79cb8fd9fd	-0.04380398378264159
214	0xbf8ed5b6b3c0142a	-0.015056063995880182
215	0x3f64aecf1a3b3973	0.0025247616739313915
216	0x3f9ea5fdc9630f54	0.02993008176487362
217	0x3fa732e5658a298f	0.045310181279165744
218	0xbf7598ef23bfe9ca	-0.00527280248570112
219	0xbfa5266322bfe289	-0.041308496467483975
220	0x3f831842da9313d7	0.009323618216862712
221	0x3f99bf6a264131ff	0.025144251427535732
222	0x3f932b6006b2ba7a	0.01872015038378059
223	0x3fab561614469f9e	0.05339116094120232
224	0xbf7549bee664b339	-0.005197282507919004
225	0xbfa787eef6f9f439	-0.04595896496628211
226	0xbf9fe061c5b53eb1	-0.03112938660825532
227	0x3fb53d3b70c2c24c	0.08296557906101859
228	0xbf45479c4afff64d	-0.0006494057797678615
229	0x3f72c689eaa89464	0.004583872544150134
230	0x3fa579039a129d79	0.041938889081673154
231	0x3fb5c444752e6741	0.08502605305548362
232	0xbf92a5ce0e201114	-0.018210620510232436
233	0x3f952c002b294bd8	0.020675661692006603
234	0x3fad64ec99973db9	0.05741061568152923
235	0x3fb0ef0b9e867d1a	0.06614754314658847
236	0xbfa5d2faa51b8c23	-0.04262526765321464
237	0xbf93c5ddb9fb4596	-0.01930948684350183
238	0xbf9e66697bc3bffa	-0.029687545947069773
239	0xbfafb4a642444273	-0.061925120915593455
240	0x3fb37b7fd048e756	0.07610319933965334
241	0x3fb61fc3dc58a5db	0.08642219667003508
242	0xbfa56229bf9262a2	-0.041764549861175185
243	0x3fad78f6bbb89a63	0.05756350556867031
244	0x3faab16d24029505	0.0521349054772973
245	0x3fa592c93fd2408f	0.042135514298139325
246	0x3f9c9ccf67549789	0.02794193332842768
247	0xbf79965370823a5d	-0.006246877608772819
248	0x3fb2c21c04775901	0.07327437504804736
249	0x3f959443942792ed	0.021073394696844373
250	0x3fa6969c6674eec5	0.04411782026951764
251	0xbfa5647fad2118d9	-0.041782369502969714
252	0xbf9ac18e29e99263	-0.026128979976777333
253	0x3fa8aed35448f094	0.0482088127505175
254	0xbf910bd6a3fdf869	-0.01664672256401226
255	0x3fa7b3ebdaac5d50	0.04629456562377732

fc2.bias f8 [100]
0	0x3fe9f2b981aab20a	0.8108794720224648
1	0x3fe78a2beefbbbc9	0.7356166522639508
2	0x3fe85071db8e3151	0.7598199165527523
3	0x3fe6dd07427f4aa1	0.714481000783355
4	0x3fc922294d61bd9e	0.19635502127083
5	0x3fc0671a568e4cc5	0.128146450294116
6	0x3faaef6f15ae38f2	0.05260798587470274
7	0x3fe9ad14153d33d8	0.8023777403665191
8	0xbfd29f22caba6d45	-0.2909628848808164
9	0x3fe6db3670d50781	0.7142593578102919
10	0x3fdbf9238538ca5a	0.4370812226290234
11	0x3fe5e8eeeecb380f	0.6846842445318105
12	0x3fe7d859459033b2	0.7451597555788025
13	0xbfbe0c4f67f7acb3	-0.1173753384425023
14	0x3feaa65c4563326a	0.8328076701378226
15	0x3fe776cb2c6f1aa2	0.73325117758289
16	0x3fe415a1654c42ac	0.6276404360269985
17	0x3fe68a94eb1eac62	0.7044167129692023
18	0xbfdff455d7423037	-0.49928804417936895
19	0x3fe3ab3eb531319f	0.6146539248380128
20	0x3fe3218081bb0e96	0.5978395971109929
21	0x3fea251e1b8a0095	0.8170309579727638
22	0xbfe1b402e8e21f1f	-0.553224043703242
23	0xbfd168a0d930bb4a	-0.27201100549693946
24	0xbfc93645aaf1465a	-0.19696875426102417
25	0x3fd5bcc487963dca	0.3396464656916264
26	0x3fe68f6f22690fdd	0.705009047706422
27	0xbfe51128dbc445f9	-0.6583446781461922
28	0xbfa4274d72ff1f4f	-0.03936235455290548
29	0x3fd6e566c6dbe68a	0.35775155467818165
30	0x3fd42ce63d7ad393	0.3152404404057105
31	0xbfc28f444d3bf5f2	-0.1449971558685515
32	0xbfe0eb4012f421c5	-0.5287170763195311
33	0xbfd7a80b7050ec16	-0.36963163345689176
34	0xbfd8f6fa8c49febf	-0.39007438373662845
35	0x3fe9b662ab77ac16	0.8035138462995544
36	0x3fe95c7f3b882a5d	0.7925411379558899
37	0xbfe2b0255d677a86	-0.5840021919537584
38	0x3fe4a6c6cca5deb7	0.6453584668187976
39	0x3fe9792772b63b33	0.7960393181291238
40	0xbfb453107be45ac2	-0.0793924620123603
41	0x3fe8daeb6b522873	0.7767235847579869
42	0x3fe27018bc339ce3	0.5761836696446178
43	0x3f9b3bc780f815f2	0.02659522747673821
44	0xbfe226880a1e23fa	-0.5672035405742684
45	0x3fe6ea7d710e4ddf	0.7161242683527539
46	0x3fe69a7ec657bbd1	0.7063592790490195
47	0x3fe5b0eaef090fa5	0.6778464001331385
48	0x3fe85d60f2d6952f	0.7613987677511086
49	0x3fe20057b5e88de4	0.5625418236635906
50	0x3fe3fc57bbaf1caa	0.6245535531715138
51	0x3fe946e066858636	0.7899019243597596
52	0x3fe949c66e7bc5ea	0.7902557523613585
53	0x3fdeb9320220b474	0.48005342681682994
54	0xbfc21e798497b5f7	-0.1415550134110359
55	0x3fa3eaf24553e261	0.03890187355313369
56	0x3fe7323ccfba7429	0.7248825127786677
57	0x3fd478a201d72688	0.31986284427385003
58	0x3f91bc25058535d4	0.017319277250228485
59	0x3fe4130027643dc0	0.6273194093100116
60	0x3fe326b32df5d1bc	0.5984741113339207
61	0x3fad178916adc2d8	0.05682018663254035
62	0x3fe417d03c9641ac	0.6279069121683754
63	0x3fe957349fbda049	0.7918952102600169
64	0x3fdac659d28ae1b3	0.41835637627402916
65	0x3fe4229a10f85fb3	0.6292238551568431
66	0x3fbcbb980ae420bf	0.11223745599648093
67	0x3fe3eb7cf74d40c7	0.6224961118805589
68	0x3fe3551ff18179dc	0.6041412083539472
69	0xbfdfcf31433dbac9	-0.49702102247730956
70	0x3fe9190acf3728cd	0.7843069121529652
71	0xbfe2b192d544dacf	-0.5841764607819985
72	0x3fe237947e90c2b5	0.5692846748334747
73	0x3fe257535e149642	0.5731598699100646
74	0xbf9189b625615e43	-0.017126890212550327
75	0x3feaacb08f9a6af5	0.8335802845716375
76	0xbfd56e5ac292c277	-0.33486050607010703
77	0x3fe867b278996f7d	0.7626583438354683
78	0x3fe6e09bc1bfbb76	0.7149180206450712
79	0x3fe714b72f96b0ef	0.7212787560906956
80	0x3fd9bb0525122f6f	0.40203980083673846
81	0x3fd7710e64882e84	0.36627540414404103
82	0x3fe5241cd2cc11d0	0.6606582753307126
83	0xbf89769d75406a36	-0.01243327154229688
84	0x3fe4add5999c4855	0.6462200164990103
85	0x3fe8f4ea90c0f9de	0.7798970057700065
86	0x3fe94db64e980649	0.7907363448177388
87	0xbfb6e55ab8fe95f9	-0.08943717018572518
88	0x3fe7aa98f6e3496d	0.7395748922374829
89	0x3fe514143eee5827	0.6587010602113467
90	0x3fe77f4f79b28ebb	0.7342908265022382
91	0x3fe68fcb4bed225a	0.7050529940543797
92	0x3fea12c905e36ccd	0.8147931208617593
93	0x3fe0fb2506897208	0.5306573035882716
94	0x3fe68802f8dacfb3	0.7041029797023753
95	0x3fe7b64fd7d24b16	0.7410048690092903
96	0x3fe5b50d0cfbf28c	0.6783509496304574
97	0x3fe97c83e7b45166	0.7964496160007399
98	0x3fe948df314ddf7c	0.7901454890224922
99	0x3fa1d7579067727d	0.03484605443711517

fc3.weight f8 [50, 100]
0	0x3f9f5fe03d2d022b	0.030639175161242854
1	0x3fb342fe89b5437f	0.07524100172055447
2	0x3fc0a7078169707d	0.13009733027400108
3	0x3faa3890b234a8af	0.05121280837404762
4	0xbfaa61eb153051dd	-0.05152830728198741
5	0x3f73c44ca69327cd	0.004825877587061056
6	0xbfb9627a3fe27cae	-0.0991588979691069
7	0x3facf65405adf02d	0.056566835110942605
8	0xbf8eb33e55e7e3c7	-0.014990317341458849
9	0xbf7604ad8a43d746	-0.00537555493450787
10	0xbfb189b5566eb7c9	-0.06850751266639955
11	0xbfa95f383287d9bb	-0.04955459229306621
12	0x3fb1383a2437a3ca	0.06726420768940425
13	0x3f5eb23c348add3b	0.0018735492650828317
14	0x3fc1c3c85e63cf20	0.13878731354599783
15	0x3fb6979f248dc702	0.08825106279780573
16	0xbf92e741a07d3e3c	-0.018460297985539706
17	0x3fb45f947fea7475	0.0795834362310915
18	0x3f887b94ef7fc7b1	0.01195446353810667
19	0x3fbd2961064ba77c	0.1139126434678967
20	0x3f97b1d642f32b06	0.023139331661506744
21	0x3fa3708ce6f23e00	0.03796806639831729
22	0xbfa773e28444e0a8	-0.04580600609409774
23	0xbfb232105229667c	-0.07107641225720757
24	0x3f59173e6a960ad3	0.0015314206633269447
25	0x3fb840c123ee1cad	0.0947380745620758
26	0xbf950e0cebf62af0	-0.02056141081042545
27	0x3fb436ef3386e5e6	0.0789632321165282
28	0xbfb0491973f6832b	-0.0636154087174076
29	0x3fbab6df10a18131	0.10435289531733784
30	0x3fc13b0f44b7666a	0.13461485724728856
31	0x3fa88885b9a1c6b3	0.047916582975529386
32	0x3fad9243983e3a10	0.05775653108058887
33	0x3fabf3a4755db479	0.05459321911517007
34	0xbfc03beab7f2ca09	-0.12682851774077644
35	0x3fc18708dcf65123	0.13693342961472252
36	0x3fbf9eca271f4ee6	0.12351668791898937
37	0xbfa957ac30b942cf	-0.04949701399585182
38	0xbfa6aaf83a7dd058	-0.044273144855566826
39	0x3fc021944b396390	0.1260247580819649
40	0x3f9532ff9d814a65	0.020702356327385724
41	0x3fbdc43e36ca1957	0.11627568090088879
42	0x3f922bbcc18f4479	0.017744969667380126
43	0xbfa62d543ca510bb	-0.04331458320896916
44	0x3fa96a111afbc991	0.0496373506010911
45	0x3f9f05e29698d22d	0.030295887414654544
46	0xbf93da7ac784ee6f	-0.019388121059121518
47	0x3fbd59d4b9baba3a	0.11465196165475158
48	0x3fbed482617f0bcf	0.12043013458519101
49	0xbfa83eff0ae9d57a	-0.047355623323634924
50	0xbfb087c635d0ffab	-0.06457175077321035
51	0x3fc07eaa2f800b54	0.12886550254196527
52	0x3fb4929ad0d15598	0.08036201093758277
53	0xbf99d7162c08e5f2	-0.02523455280081594
54	0x3fb15d7aff55560b	0.06783264859890197
55	0xbfb308a58a5dc6df	-0.0743506872948063
56	0x3fb534d99111abeb	0.08283767501568177
57	0x3fa1025d86b65e20	0.0332211710876289
58	0x3fb3738fba9cb9aa	0.07598207765543089
59	0x3fb9c7a889679078	0.10070279459574916
60	0x3fb536d36cbd394d	0.0828678265072302
61	0x3fa31017be1417b1	0.037232152893963096
62	0x3fb367730f277bee	0.0757972633359569
63	0xbf97de689c25dc3b	-0.023309359102736443
64	0x3fc29bf1d57d66b3	0.14538405346211433
65	0x3fb09a88343907ab	0.06485797190637636
66	0xbf3861f2fd986b56	-0.00037204916370263874
67	0xbfaa213dd394ce6e	-0.051034862592499106
68	0xbfa1c2ab82d4c42a	-0.03468833896693753
69	0x3f908676ae8b54f1	0.016137937930428007
70	0x3f9a7712b79c6cc4	0.025844852883079708
71	0xbfbb82a5686b981a	-0.10746225165675619
72	0xbfa42176fac89160	-0.03931781588861116
73	0xbf98e93eedc69bc0	-0.0243272621752586
74	0xbfb1c03c434e13a8	-0.06933952944935007
75	0x3fc37f5aabaa6467	0.1523240411959563
76	0xbfa5a5e12c961e8c	-0.04228118581073401
77	0xbf99c6360ebe2f34	-0.025170178079448394
78	0x3fbf4cee99e954e0	0.12226763970950882
79	0x3f910fd3e909b63d	0.016661940668589493
80	0xbfad42a1bc8ecf07	-0.0571489851639893
81	0x3faccae5e882bba4	0.05623548949494442
82	0x3fb8b3b5c51b343f	0.09649215757527062
83	0x3f98da4ed647bfac	0.024270278767232575
84	0xbfa7508d705f5760	-0.04553644177182892
85	0xbfa14a23459275ab	-0.03376875137585541
86	0x3fb1b2a2fb424d1f	0.06913202890637081
87	0xbfb1ade48bb06187	-0.06905964289069831
88	0xbf72761eb4d286fd	-0.004507179209356724
89	0xbf5b8b2bb8d69b87	-0.0016811301205536826
90	0x3faad1b1a5e24d7c	0.052381087779532515
91	0x3fb17a3ce56ece1b	0.06827145196330557
92	0x3fc096ec285c948d	0.12960578890593802
93	0x3fc253a25529b648	0.1431773105463654
94	0x3fb585463fd66486	0.08406485613376632
95	0x3fa20ffd1be4b77b	0.03527823415275485
96	0x3fbf79182ffaafab	0.12294150515907513
97	0x3fa9cd445231dc79	0.05039418700555926
98	0xbf82915c2e981b7c	-0.009066314861241535
99	0x3fb89b8d2418547d	0.09612352496363204
100	0x3fc0b6a89fe69c26	0.13057430083901628
101	0x3fa625dc0d41b3c9	0.04325759565185867
102	0x3fa14395764f860d	0.033718748752800655
103	0x3f9114b3d1419a85	0.01668053593348386
104	0x3f6d0af527e9e80c	0.0035452640725539605
105	0x3fb02a33271ade29	0.06314391808233978
106	0xbf901f53dfe3eddf	-0.015744505443746944
107	0xbf6a8fada2871e4e	-0.0032423392587792926
108	0x3fa0769476431374	0.03215469306591148
109	0xbfa2153ec8581dec	-0.03531833835227957
110	0x3f90b7e68eb8adaa	0.01632652517416281
111	0x3fc05628cff28328	0.12762937692334586
112	0x3fb9a587d7174f2b	0.1001820469021452
113	0xbfb229a5e223a996	-0.07094799777011071
114	0x3fa5c26b3b4c7d26	0.04249892329084508
115	0x3f689dc473af379f	0.00300491685400224
116	0x3f97e3d026fb8160	0.02332997548990201
117	0x3fbd53521afefbf9	0.11455262335856266
118	0x3f80d4c8c98eab7d	0.008218353892365244
119	0x3fa0803560a1eddc	0.03222815327259429
120	0x3fc062b78f180273	0.12801260458947503
121	0x3fbb132ace86d919	0.10576121847302423
122	0xbfaa062436fabf3e	-0.05082810565124739
123	0xbfb76ac486720e88	-0.09147289545404125
124	0x3f9ad7f770184e3b	0.02621447202370873
125	0xbf8dce47138555db	-0.014553599627713012
126	0x3fb873ec7e3adaad	0.09551885682854318
127	0xbf9f1b1a19f1f65f	-0.030376823266570315
128	0xbf9c8f99e8938293	-0.02789154512436427
129	0x3f5c1058de99c93a	0.0017128818384689174
130	0x3fc5c2b771457131	0.1700047782022778
131	0xbf81810831e2d4b5	-0.008546890280152966
132	0x3f98fe5ed08a8c57	0.024407845953316656
133	0xbf86b988ae1e7390	-0.011096065343559919
134	0xbfa773caa7fefc9c	-0.04580529499752936
135	0x3fa3cf120ec686fb	0.03868919782986598
136	0xbfa144a3f3c0e61b	-0.03372680998331764
137	0xbf9f3964d4eaa900	-0.030492377753639666
138	0x3fb1ee7342feecc5	0.07004471192969948
139	0x3fb13bfb031ae0d9	0.06732148004346374
140	0xbf9d61bbd00ce4c6	-0.02869313676203402
141	0x3fc083592609eb9a	0.1290084300743189
142	0xbfb18d0530b31d2c	-0.06855804861981046
143	0x3fbc82dcf1008bd2	0.11137181171265745
144	0xbfb52c04d6f87eda	-0.0827029251890922
145	0x3f97aec8443db98c	0.023127679028613055
146	0x3fbd99314c2fb9b6	0.11561878309269144
147	0xbf8a5b6ad9fb7778	-0.012869677331248872
148	0x3fa2b0f5e98efccd	0.03650635219627816
149	0x3fb862ac99c8f1bb	0.09525564913287259
150	0xbf933874da3ed530	-0.018770051785130082
151	0x3fbf6982e6ca88a9	0.12270372519063479
152	0x3fad4ba33f30fdfe	0.05721769472483727
153	0x3fb14a06288aaf0c	0.06753576745785156
154	0x3fb6620b1f8c6baf	0.08743352432467931
155	0x3fa762abefb46fe1	0.04567467976650597
156	0x3fb13e058a68b03e	0.06735262517094129
157	0x3f9a2430ef2fb44c	0.02552868327977746
158	0x3f8f36d6732e6352	0.01524131335263382
159	0xbfa3508e51d9c59c	-0.03772396802095132
160	0x3fb7d4408b9a16e6	0.09308246048211863
161	0xbf852cf71d1e9824	-0.010339670730740443
162	0x3f87f5ed3e3dcad8	0.011699536764103
163	0x3fb27c9e5a8fa322	0.07221402846301975
164	0xbf615201a64b5005	-0.0021142990320672816
165	0x3fb5c5eb220d991f	0.08505124646544403
166	0x3fab42b60cc4aabe	0.0532433405481547
167	0x3fb54fbfbf536bb1	0.0832481233696132
168	0x3fa388374cbe74f1	0.03814862071815551
169	0x3fb6723e7fe64bff	0.08768072722004659
170	0x3fc38a363d58e782	0.1526553916499403
171	0xbfbe11473352b49c	-0.1174511432934246
172	0x3fa37f99c2a98ca2	0.03808289052246862
173	0xbfa40b97267bf27a	-0.03915092797067117
174	0x3f96cc83a810b18c	0.0222645350769866
175	0x3fa1d4d470066f71	0.03482688777441368
176	0xbfa7e89414fdb370	-0.04669630771863964
177	0xbf9bf4b0bd1406bd	-0.027300607242983988
178	0x3fa033dfce036a3d	0.03164576902209546
179	0x3fb0d8d3f75e1566	0.06580853261228511
180	0x3fa2605509e6ab94	0.035891206225037525
181	0xbf97dd9cfbe337d9	-0.02330632483863568
182	0x3f7b2f8125086d4e	0.006637100669219477
183	0xbfacf41fd5c23f8d	-0.05655002102241644
184	0xbfa448fcfb52858d	-0.039619355849263994
185	0x3fc136dfd3597cdd	0.1344871313076287
186	0x3fbe8e093018dd2b	0.1193547956871625
187	0xbf953293782618f5	-0.02070074482755842
188	0x3fa3fa34c345ba75	0.0390182960862732
189	0x3faf5a07a6919d31	0.06123374851523023
190	0x3f9362fe9e9fe94e	0.018932321960144542
191	0x3fbce26bc3ca54e2	0.11282990961111097
192	0x3fa4bd4e14b0c52c	0.04050678255624471
193	0x3f6d3adf0fa6e952	0.0035681111014273315
194	0x3fb3153da6808248	0.07454285922040882
195	0x3f9535cdfdb110fc	0.0207130609599213
196	0x3fb172fa718203be	0.06816067954242919
197	0x3fa858090676d4c8	0.04754665569218158
198	0x3fabc0a81c737354	0.05420422885229095
199	0xbfafd461ebea2503	-0.06216722492997386
200	0x3fb28e856b966fed	0.07248720051433084
201	0xbf94fb83f7c974c3	-0.02049070548888633
202	0xbf96596bb90537a0	-0.02182548825049191
203	0x3fb44bc33d31902c	0.0792810463331654
204	0x3fa32eb2a19a1afd	0.03746565077476836
205	0x3fb8db20280095a0	0.09709359146707763
206	0x3f96d772c942fed2	0.022306245359458306
207	0xbfb1590ec7081701	-0.06776516303224513
208	0x3f79518cc0d51f8a	0.006181287591353066
209	0xbfb27746a3a36b0c	-0.07213250632359464
210	0x3f9b61de94fa4558	0.026740529864189483
211	0xbfbda2d384f9d313	-0.11576578136903164
212	0x3facf930dfadad3d	0.05658867578935165
213	0xbf90b34b3d452e8d	-0.01630895196403386
214	0x3fb37c493a0848ad	0.07611520449453009
215	0xbf9a10825de2b776	-0.025453602772067062
216	0xbfb2fba846e583bc	-0.07415248614189712
217	0xbf9e0439f2f5683b	-0.029312997297303616
218	0xbf8f7666c93408d3	-0.015362551703678317
219	0x3f8e36ef9ed4d087	0.014753219637533966
220	0x3f75229c2b8623df	0.0051599598304017105
221	0xbf9bb997ebee1a35	-0.027075170302419422
222	0x3fb729ee2cffb0a1	0.09048355673411602
223	0x3fb4d64f5016dc14	0.0813951082735545
224	0x3f9a7068c6ab9d77	0.025819432378651776
225	0xbfb3758ab46ad026	-0.07601229576795329
226	0x3fb300084a21e8b3	0.07421924409746587
227	0xbfb36eced60cd01a	-0.07590954519110973
228	0x3f9d5ce02d0cc0dc	0.02867460513078944
229	0xbfa55603af4f4874	-0.041671862745389726
230	0x3fb3201b9a24e3c9	0.07470867646487912
231	0xbfc01a756972a373	-0.12580745362108878
232	0xbfc0015775db3625	-0.12504094366742993
233	0xbfb138f31953e834	-0.06727523201325952
234	0x3fa3439ef948b5ec	0.03762528222101111
235	0x3faf9e20465e3097	0.061753281202159
236	0xbf9d008d603a03d6	-0.02832241916485486
237	0xbfbb50b68243eb6a	-0.1067003315001053
238	0x3f70321209d3c3d2	0.003954000914050364
239	0xbfb007812eaa0e06	-0.06261451138748705
240	0x3fb3aca03205c2aa	0.0768528101086853
241	0x3f829c392c9a555b	0.009087034867926993
242	0xbfbee8cdc6ec9013	-0.120739804330299
243	0x3fa7289e88a06db8	0.0452317754536255
244	0x3f9f8014a9b429e7	0.03076202665128305
245	0xbfb2f9578b2e30a2	-0.07411715648612696
246	0x3f9dd4de72d02cdb	0.029132343061104442
247	0xbf8b149c8e62f2fe	-0.013222907157222515
248	0x3f976f7b0a4eeae9	0.022886202339331616
249	0x3fb429d4a1a5249d	0.07876328417218521
250	0x3f9c111736c8923c	0.02740894576904139
251	0x3f5b02c03df8ec9c	0.001648605095296663
252	0xbfb23560ec5a0d02	-0.07112699289614358
253	0xbfa7eed70cce41cd	-0.046744079888529556
254	0x3fbb6ad53b38b254	0.10709889121853539
255	0x3f8d4fb59584e158	0.014312189698657704

fc3.bias f8 [50]
0	0x3fe482dee17ab0ce	0.6409754184619716
1	0x3fe955d520fbd5ae	0.7917276043141805
2	0x3fc07770014104e8	0.12864494382123515
3	0xbfb5b70b3255d9a2	-0.08482427576914245
4	0x3fdce0d4dd15a513	0.4512226256398019
5	0x3f9e8fac0327f64f	0.02984493989241904
6	0xbfec3e3a52751a15	-0.8825961695191064
7	0x3febcd37af487495	0.8688009665962847
8	0x3fea61034eefea6e	0.824342397855913
9	0x3fece0ca6d3ec3c0	0.9024402745909512
10	0x3fe478acb813ed40	0.6397307963629046
11	0xbf885ad797e7192a	-0.011892017672732697
12	0x3fe767054c42f6a8	0.731325768421546
13	0x3fe4a292aa1ad62a	0.6448453256950348
14	0x3fe78ea06b8454eb	0.7361604785861834
15	0xbf61620204d36cd2	-0.0021219291144070973
16	0xbfe1b40db8081e7b	-0.5532291979188381
17	0x3fe45ab779abc4bc	0.6360738159547945
18	0xbf9cb2641eecf36b	-0.028024258029506848
19	0x3fa572c640920fe7	0.04189128435339722
20	0x3fea7455449978e1	0.8267008151849745
21	0xbf8da234c0f96eb8	-0.014469539774999304
22	0xbfb95cfcc30bb91b	-0.09907512437687098
23	0x3fe5cbc4251fea5b	0.6811238026705938
24	0x3fe97611bb0333c7	0.7956627514446318
25	0x3fb6ed6f22c9b01b	0.08956045722305854
26	0x3f8f1e075ca14bf2	0.015193994058938263
27	0x3fa1b29789e3b028	0.0345656734296827
28	0xbfe3b60a11b9aa28	-0.6159715982624379
29	0x3fe873fb8eacf892	0.7641580378183497
30	0xbfa125314a737a61	-0.033486881578700396
31	0x3fea43cd23a9a782	0.8207765289819096
32	0x3fab6f20a6126325	0.05358221080059015
33	0x3fe669d8eca83614	0.700420820446825
34	0x3fe6f51476f9c655	0.717416984915142
35	0x3feafd76e2aaf80a	0.8434404780489342
36	0x3f91c055e0c22f98	0.017335264056370286
37	0x3fb61317de48fe85	0.08622883965380808
38	0x3fec4aac73e0f63c	0.884115434957216
39	0x3fe512bee4df3192	0.6585382909921
40	0x3fe36ea1f9d98a7c	0.6072549705389316
41	0x3fb66bd09ab94519	0.08758262422022191
42	0x3fe7e70ea2a92fe6	0.7469552208872272
43	0x3fe9f94e7a0d2989	0.811682928449316
44	0x3fe85feb055508b2	0.761708746351607
45	0x3fe7f50f2f9ddb0d	0.7486644678127462
46	0x3fe4e7a4918d7b2c	0.6532767145944027
47	0xbfb6244a59f80217	-0.08649124809745277
48	0x3fe749bb946b73d9	0.7277505778143861
49	0xbf3cb0412ba9b5f3	-0.0004377516849335121
