weights/numdreg_id/djia/correlation/high/numdreg_id_pretrain.pt (torch, 263099 bytes, 14 tensors)

fc1.weight f8 [100, 200]
000000 2a 22 d5 14 f6 08 b9 bf 6e 86 b0 c7 ab 72 ab 3f
       -0.09779298790557137 0.05360924542061417
000010 4c 4b 40 02 ab 53 86 bf 3c ad 5a 30 6e 86 96 3f
       -0.010901771551322569 0.02199718637591029
000020 14 2f 1c 15 5a 2c ae 3f 7a 91 d0 a8 02 43 ba bf
       0.058932128025928204 -0.10258499738171692
000030 f2 59 fa 3b 02 27 bb 3f 91 31 83 3d bd b1 c1 bf
       0.10606397594742825 -0.13823667052782843
000040 82 77 c4 11 62 48 99 bf fe 2d 59 e5 e1 69 c0 bf
       -0.024690182051123617 -0.12823127459192557
000050 41 f5 50 1a 99 e3 b1 bf 2b 31 8a 71 cf 3e 97 3f
       -0.06987912075506576 0.022700539879722797
000060 f5 3b fc c3 73 21 90 bf e7 e1 4a 35 9e aa a2 3f
       -0.015752610051148214 0.0364579620413144
000070 2d bc 99 c1 bd d3 a5 bf 8e 05 fd 15 87 00 b2 3f
       -0.04263108242309275 0.07032055174661009
000080 33 72 78 c8 0c 87 94 bf 6a bf 07 34 ec f8 a8 3f
       -0.020046424613712154 0.04877412924895348
000090 33 6e 09 3d 20 26 9a 3f d6 2b 0c 9e 35 58 ab 3f
       0.02553606388606351 0.05340735964099223
0000a0 53 98 97 12 81 07 a5 bf ae b3 53 af f4 fe 9d 3f
       -0.04107287742571999 0.02929289169417231
0000b0 be 5c 26 34 13 ae a4 3f ad 66 28 82 81 cb 9c 3f
       0.040390586963604744 0.02812006337089794
0000c0 95 00 ae 8b dc 9b ae 3f 2f 6b e4 1d d3 39 b4 bf
       0.05978287892412585 -0.07900733451644436
0000d0 5e 11 f3 06 c9 f6 b1 bf d9 d6 a3 e7 e1 cf b8 bf
       -0.07017189426102763 -0.09692203431390158
0000e0 dc 7e 79 7e e3 f3 99 bf a7 80 e6 72 aa 75 93 bf
       -0.025344423860928042 -0.019003546965564635
0000f0 f1 35 33 7d ab 33 b9 bf 1f 99 14 27 57 4b a6 3f
       -0.09844466978685042 0.043543551941455975
000100 dd ea e0 5c fd 2e ad 3f ce 3c f2 28 a4 52 90 bf
       0.0569991279484918 -0.015940251349601912
000110 03 1d 79 6a e9 2b 97 bf 2b 54 e3 5b a0 54 b1 3f
       -0.02262844765053008 0.06769754641875696
000120 be e0 07 ab 1f 68 a5 bf 25 60 26 c1 91 4b bd 3f
       -0.041810025813846505 0.11443434682439653
000130 95 55 e2 15 d3 ee b1 3f a5 7f ab 60 34 c1 ac 3f
       0.07005042347221598 0.056161534119154845
000140 df e0 03 09 46 3f b2 bf f1 f7 63 af fd b8 9c bf
       -0.07127797813507496 -0.028049434499727913
000150 7d 4a b9 62 e5 3d bf bf 43 53 ac d8 a5 bc b6 bf
       -0.1220382085823903 -0.08881603755828586
000160 e5 2d cd 8b 25 f3 b8 bf d4 e3 c3 c2 8d 0d 97 3f
       -0.09746012366411312 0.022512640965007893
000170 c0 47 12 c8 7e ac a7 bf f9 61 84 31 8d 35 9c bf
       -0.04623790924337312 -0.027548032901082185
000180 2d ba 14 02 25 ee 94 bf 14 db 84 92 04 f1 ba bf
       -0.020439699413311075 -0.1052401406967472
000190 b2 6a 0f b1 64 02 94 3f 94 be b2 28 10 f7 ab bf
       0.019540379816911986 -0.05461931702427339
0001a0 58 12 ef b4 42 7e 90 3f b0 11 24 ad 2b b3 6a bf
       0.01610664586384511 -0.003259263329825589
0001b0 71 1b 17 27 89 e8 9b bf 37 f5 6e 04 62 9d 8a bf
       -0.0272542410000613 -0.012995496521279832
0001c0 13 6c b9 36 bf 06 74 3f 56 03 76 11 b1 64 b3 3f
       0.004889246872688896 0.07575518299382841
0001d0 00 37 5f 88 34 4b b9 3f de eb 92 c3 13 f7 a7 3f
       0.09880379037278075 0.04680692446114397
0001e0 72 68 bd 99 8a bf ab 3f 5d 48 d7 c1 0d a7 a7 3f
       0.05419571997363527 0.046196393882966126
0001f0 d5 a5 71 24 67 98 6c 3f 4b 61 30 ec 36 9a a0 3f
       0.003490640115661784 0.03242656357923809
000200 85 c1 6e c3 55 c6 b1 3f 07 da 60 40 ff 1e b6 bf
       0.06943260213188836 -0.08641047784554
000210 88 d6 bb 10 ab 15 b5 3f 85 f4 a9 69 1b 81 78 bf
       0.08236188086069707 -0.005982501107266396
000220 9b f5 13 36 91 e3 ab 3f 52 b0 c1 52 6e d3 91 bf
       0.05447057519084383 -0.017408107567846116
000230 fb 50 d2 92 10 28 b4 bf 1a 7e 9d ea 19 cd bc bf
       -0.07873633942137197 -0.11250459649954117
000240 72 c2 78 4f b9 e4 99 3f 92 b7 63 d1 ae 7c b5 3f
       0.025286574817246117 0.08393375980423759
000250 d7 ea 9f 3b e7 23 7e 3f dd 2e dc e2 c7 8b b6 bf
       0.0073584587607864104 -0.0880703858239786
000260 09 14 f8 ea 18 0c 9a bf 59 da 20 1e 18 e9 a4 bf
       -0.025436772672055272 -0.04084086768891799
000270 0a b6 74 8a dc ad b5 3f 0e 5a cf fe d0 50 96 3f
       0.08468416576644003 0.021792665054670528
000280 60 df 8b 2a 38 ea 92 bf ea 75 2e 25 4e a1 a3 3f
       -0.0184716011017082 0.03834003642917223
000290 4d 58 5c bd d1 d5 a9 bf 29 1e 15 5d b8 49 a2 3f
       -0.050459436765024714 0.035718690264328785
0002a0 69 6b c2 bf 84 01 c1 bf 1a af a0 18 af 77 af bf
       -0.13285884249929872 -0.06145999122267494
0002b0 0a 6a fd 3f 79 27 b4 3f 96 fd a4 84 de db ac 3f
       0.07872731983426476 0.056364968959765324
0002c0 3c 10 9d e5 fa 7c 8a 3f d7 d2 46 53 87 13 96 bf
       0.012933693058251199 -0.02155887075214732
0002d0 55 9c 6c d2 2d b7 9c bf b4 ad 4f af ab 32 ad 3f
       -0.028042522400167098 0.057027211332605715
0002e0 e6 25 1c 5c 65 36 b2 3f a5 b8 fb bf 38 3e a5 bf
       0.07114251612451702 -0.04149033874078726
0002f0 82 36 df c1 20 3b 98 bf 35 22 5a ba bd 7d 87 bf
       -0.023663055260661377 -0.011470300912393852
000300 72 d4 aa eb 09 20 9f bf af 2c 21 a3 25 8d b9 3f
       -0.030395655640593273 0.09980998261123618
000310 c0 eb 03 b6 1b e9 ab bf 61 37 0c 05 a7 5e ae 3f
       -0.05451284977785731 0.059315890661408195
000320 12 26 1d 05 6b 2e c1 bf d3 04 53 9f 2e 4f b4 3f
       -0.13422906636905957 0.07933322324517471
000330 d4 03 aa c8 d0 c6 c0 3f 8b cd 63 f1 96 8d 91 3f
       0.13106736944248942 0.017141684039371035
000340 15 4e 93 35 93 10 9a bf 7e d2 06 75 1f fb 4c bf
       -0.025453853745444805 -0.0008844283675473877
000350 81 94 cd 2e e1 2d ad 3f f4 78 20 35 6c 20 a6 3f
       0.05699065872503529 0.0432161154605967
000360 33 90 8c b9 71 b5 c0 3f a6 3d 00 0c d8 bd b6 3f
       0.1305372386933655 0.08883428853027073
000370 64 38 ca 0b 3b f0 9b bf 0c 47 e2 76 6d dc b8 3f
       -0.027283594698524274 0.09711345817984468
000380 72 ce 9c a5 f3 0c ad 3f 87 3f d5 2b c5 ec a3 3f
       0.05673943897855062 0.03891578826971825
000390 47 06 1f 4c de 88 a3 bf d4 ae cb 07 33 10 aa 3f
       -0.038153597633492846 0.050904841138473295
0003a0 b1 59 6c 1a 16 cc b4 3f 25 80 0a 22 8f 1f 72 bf
       0.08123911042307587 -0.0044246283656832796
0003b0 51 a0 a8 a2 50 b6 83 3f 91 fe 02 a1 83 1a 8b bf
       0.009625081981610746 -0.01323416552656845
0003c0 e3 fc 44 5f 10 15 b6 3f b9 3a 3c 2d c6 ee b3 3f
       0.08625891042628413 0.0778621540486978
0003d0 a5 59 01 0f a1 02 86 3f 72 4e 2e 49 9e 10 bf 3f
       0.010747202177452684 0.12134732519762695
0003e0 97 0d bf ae b7 3c ae 3f 3d 39 98 7c 54 c7 a7 3f
       0.05905698784001883 0.046442642411522496
0003f0 83 f3 23 ba b7 e2 9c bf 7d 59 fe cc 76 95 a3 bf
       -0.028208609329329015 -0.03824969532358844
000400 eb 11 ca 46 83 78 a2 3f ba 1e 48 d3 ef a9 78 bf
       0.03607568968894611 -0.006021439378407651
000410 6b 28 23 a7 e6 ef 81 3f ae 3a 6b 22 34 9f 79 3f
       0.008758356071116155 0.006255344057264507
000420 44 a8 60 df 1c 1c 9c bf 69 31 b2 84 9f 7d aa 3f
       -0.027450991758236634 0.05173967833352117
000430 c8 a1 08 d2 fd b3 9a bf ff 70 6c 55 4f b0 aa 3f
       -0.02607723802990039 0.05212638776558442
000440 5a a9 a5 a8 e9 b1 41 3f 1a 44 75 7c 86 a2 b1 3f
       0.0005400076782227467 0.06888618982817754
000450 fd 76 2b 7a 2e f6 a5 bf 68 e2 5f 18 f8 30 a3 3f
       -0.0428938411839521 0.03748297975102305
000460 ae 3a 28 8a 14 46 8d 3f b0 8d 0f f6 2b 65 98 bf
       0.014293823686810949 -0.023823439496380494
000470 44 4b 4f 44 56 e7 b6 3f 71 6f 6f 16 d0 96 b1 bf
       0.08946742217748943 -0.06870747134911227
000480 3d f1 44 3f fe e4 9b 3f 62 64 04 1c 74 76 ba 3f
       0.027240727054264047 0.10336995777142158
000490 f8 70 06 fb cf 29 aa 3f 0c 87 eb 2e 9b ed 97 3f
       0.05110025347969044 0.023367333163043333
0004a0 2d 94 86 4c 2c 41 be 3f 5f 0e bd d2 44 ac 8e bf
       0.11818196171096025 -0.014977014237621931
0004b0 21 bf 78 5d 2d 20 a2 3f 37 0e 96 36 fb c7 97 3f
       0.03540174261104157 0.023223805624651397
0004c0 4a d8 22 16 08 47 c0 3f 06 db f6 d9 85 56 c0 3f
       0.1271677120291222 0.12764046805178725
0004d0 77 d0 68 f9 1d 79 5d 3f 0a b4 8f 27 aa ed 91 3f
       0.0017988960950221769 0.017508181252129197
0004e0 59 51 ad 6f ba e9 9a 3f 65 6a 76 33 cb ab ab 3f
       0.02628222757933094 0.05404505732731905
0004f0 eb e1 5e 92 d2 f2 a9 3f 6c 1f c2 09 3b 58 8f 3f
       0.050680714004048465 0.015305005297946393
000500 dd 13 56 75 b5 32 95 bf 9b b3 16 76 5d 3f b1 3f
       -0.02070125130332544 0.06737312443756453
000510 bd 4c 4f d8 4f 5e a1 3f 53 6c 12 41 11 7e ac 3f
       0.033922667651177 0.055649317925791884
000520 36 c9 69 ac a7 22 a9 3f 02 55 2b 4d d1 9d c0 3f
       0.049092521473442494 0.1298162104418808
000530 dd 10 ec 98 4b be 9e bf 09 eb d5 10 e2 c4 9f bf
       -0.030022793968797912 -0.03102448680645423
000540 fd f6 73 db c4 57 9c 3f 18 80 f5 1d 29 5c 86 bf
       0.02767856206354845 -0.010917969919944467
000550 1e 9a 74 a7 ca 75 b4 bf 60 6b 6e 2a 01 67 a1 bf
       -0.07992235744732354 -0.0339889873786976
000560 ad 00 d2 b5 34 02 bf 3f d6 ca cf 79 15 bd 9f 3f
       0.12112740935299611 0.03099473529796167
000570 1c 8c 60 f7 67 0b b3 3f e8 0f 85 15 7f a8 aa 3f
       0.07439279355507761 0.05206677568142465
000580 46 b2 b3 f1 37 fb a4 bf dd e1 af 2d e8 89 a0 bf
       -0.04097914529288409 -0.03230214650824668
000590 c0 4b 38 bf e3 77 83 3f b2 9b 69 4a 30 ca 95 bf
       0.009506015084331909 -0.021279100934772983
0005a0 55 3e 72 18 63 e4 c0 3f 09 10 90 fe c9 d2 ab 3f
       0.1319698209158441 0.054342567753366273
0005b0 54 4b fb 51 8b 58 ba 3f 63 fb 71 ff 06 3f a4 bf
       0.1029135775709567 -0.039543360407143145
0005c0 45 51 1d 55 1c 5a ba bf c2 c2 65 63 96 f7 a4 3f
       -0.1029374797629475 0.04095144236896921
0005d0 bd 54 d2 06 25 47 ac 3f b0 1c bf e9 3d 70 68 bf
       0.055230290491786495 -0.0029832085838027086
0005e0 ba 4e 03 a6 7c be a3 3f aa 4c de 94 05 26 89 bf
       0.038562674775361086 -0.012279552083589291
0005f0 0e cc 41 dd 79 80 b2 bf 6f 0d 61 75 b9 48 4b bf
       -0.07227288867743217 -0.0008326440390721677
000600 5a 54 38 c8 bb f7 85 bf 0d 28 18 d7 92 ea b8 bf
       -0.010726420448046326 -0.09732930899932075
000610 28 97 0b 30 59 46 b6 3f 2c 0e 6c e7 8f 1f b2 3f
       0.08701093123417236 0.07079409980729484
000620 8c a0 3d 0b 51 0c bc 3f ba 19 f9 78 64 07 ba 3f
       0.10956293606216344 0.10167530015414786
000630 f5 3f b5 f9 62 cf a2 bf 58 ba f9 a8 b6 4e b7 3f
       -0.03673848436540076 0.09104482293489846
000640 27 67 b5 9a 9f 91 a9 bf 3a ac 33 e5 35 80 58 bf
       -0.04993914378674296 -0.0014954115220529155
000650 6d 1a f1 06 5e 30 83 3f ea e2 92 00 fb e5 62 bf
       0.009369597040984357 -0.0023069288623357347
000660 c0 e7 35 a1 cf d3 6e 3f e6 f7 b7 52 f5 1c a5 bf
       0.003763108755888006 -0.041236559245575496
000670 e3 7a b7 21 34 ef 91 3f ca 79 ad 2e b5 f7 a9 bf
       0.017514051969437793 -0.05071798510356336
000680 f1 7b f3 df f5 cd b1 3f 20 a7 0a 77 32 93 aa 3f
       0.06954895703846355 0.05190427497048078
000690 dd e0 ab 8c 99 bb b2 3f 2a 72 c4 f8 a4 66 a1 3f
       0.07317504581795072 0.03398623978339217
0006a0 ee 6e e9 5c 74 8a a2 3f 6a 4e 14 25 07 71 a5 bf
       0.036212574331072264 -0.04187795951488911
0006b0 6c a0 ec 9e 6b 40 ab 3f 10 30 91 ea 0f 5c ba 3f
       0.05322586359972167 0.10296725727783973
0006c0 95 28 2e a9 eb 43 b1 bf 12 fc 12 93 fe 31 85 bf
       -0.06744263534906943 -0.010349263060900813
0006d0 85 3e 64 fc 85 d6 b8 3f ce 7c 87 7c 2c 2d ad bf
       0.09702336704162391 -0.056985273553203805
0006e0 18 47 dc b5 0a a2 b4 3f bd a7 c8 22 a3 b0 b8 3f
       0.08059756221726067 0.09644527053083514
0006f0 a0 28 3c b5 fb 34 b5 3f 04 04 0c 1b 16 08 b7 3f
       0.08283970999414914 0.08996713791204064
000700 79 25 af 57 f1 0f b0 bf 68 fb 6b ca 6e 71 b0 bf
       -0.06274326697088907 -0.06423084680498692
000710 cf 75 5b 42 e6 fc 81 bf b4 3b 51 65 ab ad 97 3f
       -0.008783148670256672 0.02312343412296132
000720 53 19 3d e1 c4 da a5 bf 72 db 4c 33 71 24 b1 3f
       -0.04268470048423247 0.06696231367537367
000730 66 9e 39 45 e4 41 8b 3f 23 df b2 48 ec 1c 60 bf
       0.013309272158223705 -0.0019669165536376917
000740 a4 ab e5 3a 5f cf b4 3f ef 8b 7d 69 1e d1 96 bf
       0.08128924549025257 -0.022282099903701832
000750 ff bb dc 4d 72 7d a2 bf d1 3d a5 8d 89 6b b7 bf
       -0.03611333084551659 -0.09148463924542873
000760 79 8c 05 38 6b 74 9b 3f f6 9f f0 06 54 98 46 bf
       0.026811290067950886 -0.0006895456589335314
000770 91 7a 03 27 89 bd 60 3f 93 fb 93 3b 4a 62 bc 3f
       0.002043502689147055 0.11087478594343585
000780 45 50 74 d4 3c f3 a3 3f f3 13 f8 6c f2 35 a4 3f
       0.03896513074337852 0.03947408275784161
000790 33 b9 06 22 cf bc af bf 0b 86 29 b9 96 19 bc bf
       -0.06198737421378766 -0.10976545353471338
0007a0 ad eb 09 ca 77 f8 b0 bf 15 1c 2c 85 30 3e 96 bf
       -0.06629131968104103 -0.02172160923785434
0007b0 05 97 9a 8f 5b c0 a9 3f 91 c4 50 3f 2a f4 b0 3f
       0.05029569747902766 0.06622566266811904
0007c0 19 1e 0f 3e 47 b5 b7 bf a1 3c d0 fb 28 09 7c bf
       -0.09260983719934081 -0.0068446732448272105
0007d0 ca 3a fb 12 1a 82 a1 3f 07 3a 69 7b 1d db b1 3f
       0.03419572335916639 0.06974968207325825
0007e0 2e 91 b9 1d 3e 8e 7a 3f ac b9 bb 2d 7f 6d aa bf
       0.006483309403482003 -0.051616644222906544
0007f0 aa d0 63 e9 4b 61 9f 3f cf 7c 04 18 0a 60 c0 bf
       0.03064459430693548 -0.12793089077692918

fc1.bias f8 [100]
000000 ca 61 7c 49 b6 c3 ce 3f c9 94 f9 12 b4 66 d8 3f
       0.24034765804459673 0.3812685189535157
000010 68 6e c6 d2 2b 09 d1 3f 44 e8 fc 38 a6 32 cb 3f
       0.2661847647047808 0.2124831941853832
000020 d8 8a 8e c2 74 64 d5 3f d9 e1 70 3c 8c 28 d0 3f
       0.33425635337532134 0.2524748411410918
000030 4f 39 5c e1 c6 01 cf 3f 20 83 9e ed 78 ff d6 3f
       0.24224172595899993 0.3593427963733564
000040 99 12 cb be 7e 10 c9 3f bc c4 d7 cc 38 2e d9 3f
       0.19581589046551498 0.3934461594026961
000050 e7 29 b9 73 d8 92 d6 3f 30 14 fb b3 c2 b7 cc 3f
       0.35271273900130357 0.22435792720912806
000060 82 4f b6 fb 97 78 d8 3f aa da 4c 8b b9 bd c8 3f
       0.3823604543806526 0.19328994085090773
000070 24 5e ec 28 c6 13 cd 3f 2d da 1e 81 42 c8 d0 3f
       0.22716595648010796 0.26222288712907266
000080 91 b9 16 8e 37 02 c7 3f c8 e2 e6 22 e3 78 ca 3f
       0.1797551578324144 0.20681418613619074
000090 4c 15 22 5b 56 58 d8 3f a3 b4 81 6c 1f 85 d3 3f
       0.38039168262215095 0.3050001678119065
0000a0 16 07 09 76 3e 40 d3 3f 02 b5 d1 08 1f a4 d3 3f
       0.3007961418808106 0.3068921648144426
0000b0 b4 47 08 62 a1 51 ca 3f b0 0c 98 e3 fe b4 d2 3f
       0.20561616217361023 0.2922970984074693
0000c0 cb b5 48 20 aa 8c c9 3f 74 e2 76 ef 22 24 c7 3f
       0.19960524155014378 0.1807902974376422
0000d0 da 74 0e 2b 4f 32 d9 3f fd ad bf f5 1d 32 cc 3f
       0.393695632979712 0.2202794504113256
0000e0 1e 34 0f 98 bd 14 cb 3f 90 99 79 ae 52 bd c3 3f
       0.21157045292639592 0.154215178673621
0000f0 fd 74 65 cd 5f 3c d1 3f 76 9f 75 7a 4a 7e d2 3f
       0.2693099504302408 0.2889581867116172
000100 6c c6 f7 4f 7d d0 d2 3f ef 1c 9c f9 53 26 d8 3f
       0.2939751892982716 0.3773393571468224
000110 68 b5 2c 67 97 8b cf 3f f4 c5 95 9e 7d c1 ce 3f
       0.24644749200653426 0.2402798675862382
000120 3d f3 43 a1 7e 5e ca 3f b6 cd 74 23 80 b0 d2 3f
       0.20600874780930126 0.292022738099344
000130 9a 7e 18 31 a4 b2 ca 3f b6 99 72 7a 48 50 d7 3f
       0.2085767020916947 0.36427509267596336
000140 bc cf 38 e7 8a ab c9 3f 4c 63 39 da 08 8c d1 3f
       0.20054756441242982 0.27417203246072996
000150 ee f0 12 63 89 2c ca 3f 20 30 92 7c 5b 2d d3 3f
       0.20448415124508962 0.2996433941377763
000160 31 1d 7b 39 b2 ea cb 3f bb 41 e4 25 5e d4 d2 3f
       0.21809985930142653 0.29421189976076406
000170 8e aa 0d 68 f4 4c b9 3f 3d 67 e3 af b4 5b cc 3f
       0.0988304857288915 0.22154863918586357
000180 30 34 50 79 23 c7 d8 3f e8 f7 7e 4e b6 97 c7 3f
       0.38715445372583 0.1843173869401078
000190 37 23 fc 6f 3c d7 d3 3f 64 02 78 55 ea 30 c7 3f
       0.31001196800257297 0.18118027852326002
0001a0 a9 18 20 b4 98 98 ce 3f 30 74 40 fd af 0d d0 3f
       0.23903187556442632 0.2508354161416859
0001b0 7a 2e 95 2a 70 25 d3 3f 1f 8e 32 45 9c 7d cb 3f
       0.2991600433203768 0.21477082613738305
0001c0 6f 1a 66 46 88 ed ca 3f 50 07 68 80 b3 b8 c9 3f
       0.21037391126101876 0.20094913263170122
0001d0 5a d4 a2 e4 a3 b4 d1 3f e7 3c 31 d6 5a 02 d0 3f
       0.27665040328731083 0.25014372746677654
0001e0 5c 80 95 db 83 d7 d9 3f de 10 64 8b 2c 37 d4 3f
       0.4037789959311391 0.3158675538291059
0001f0 0c ce 5e b5 f0 6c c8 3f 3f e0 bc b0 3a 23 d1 3f
       0.19082459312413425 0.26777522334623777
000200 e1 10 03 2d ba b4 d0 3f 85 7b 1e ff 47 6b d6 3f
       0.26103071590138255 0.3502979270360174
000210 bd 25 fb bb 61 06 d0 3f 79 fd 05 05 b5 d9 c6 3f
       0.2503895126106633 0.1785188936737361
000220 2f e4 b6 0d 1f ee c6 3f ee a8 0e ad 57 43 c5 3f
       0.17914188546800022 0.1661176295286348
000230 fb 74 28 46 e7 1e cc 3f 55 50 32 fa 2c d6 d3 3f
       0.21969309735951711 0.30994724686866465
000240 ca 51 77 57 3a 1b cf 3f ba 89 1b 2c f5 aa d4 3f
       0.24301842947774183 0.3229344301927558
000250 1a ab f0 6f ef b8 d4 3f ac f7 a3 f1 8e 79 d6 3f
       0.32378755504275747 0.3511693343897331
000260 41 95 a2 90 dd 30 c2 3f 2d c6 70 68 87 ae d1 3f
       0.1421162563539529 0.27627740096349634
000270 9f 0e ac d9 02 85 d5 3f 84 a0 7d f8 53 9e cb 3f
       0.336243355341347 0.21576928742729617
000280 b8 87 fc d9 0e e6 d6 3f a0 42 47 4d 58 2d d1 3f
       0.35779162681330545 0.2683926348372925
000290 53 80 68 8e 73 e2 d4 3f c4 f9 91 ea e7 f1 d0 3f
       0.32632149607707567 0.26476476580856123
0002a0 2d dc 63 fc ca e4 d0 3f ea 5a 62 a5 d9 4a d4 3f
       0.2639644112345561 0.31706849242020374
0002b0 dd 9e 3a 70 92 26 ca 3f 16 0c af d5 e8 0a d8 3f
       0.20430212478571877 0.375665863681378
0002c0 19 67 bb 6e 0e af d6 3f 93 e7 92 8e 9e fc ce 3f
       0.3544345933311078 0.2420843311463697
0002d0 b9 e8 c4 24 cb e4 c7 3f ba 00 ff 22 3b a8 d6 3f
       0.18666972442026067 0.35401800553882945
0002e0 06 a9 bc df bb 8e d5 3f c1 e4 11 ca 06 6f da 3f
       0.3368367848330681 0.4130265210474811
0002f0 9d 44 51 d9 52 06 d7 3f 97 f4 0f 5e 82 ce d5 3f
       0.35976096365363636 0.34072932420515073
000300 a0 ec ce 09 85 d4 d8 3f 7e 99 5e 36 62 b3 c5 3f
       0.38797117193070996 0.16953685431253612
000310 c1 87 47 b1 87 fc d2 3f a1 45 a4 96 e2 4a d4 3f
       0.2966632109875001 0.31707062445738116

fc2_act.weight f8 [50, 100]
000000 87 69 c9 c4 ce f9 b7 3f 2f 5e c9 79 28 0d b4 3f
       0.09365551285137573 0.07832577679925444
000010 5a be 8e 1d 9f ae a9 3f 67 a6 42 d9 b8 6f 9d bf
       0.05016038165865373 -0.02874649835636092
000020 98 c7 55 66 12 7d c0 3f 49 52 4b 0f 2f 88 a0 bf
       0.12881689068632052 -0.03228900014588427
000030 1c bf 4b f8 ea de a5 3f 9b 66 86 e7 72 b8 b7 3f
       0.042716353234821564 0.0926582160231199
000040 56 7e 32 fa 7b 77 c2 3f 6f b2 34 70 54 3c a4 3f
       0.14427137104665871 0.039522780129435435
000050 c6 49 92 cb 39 6a b4 3f 2e e6 26 6f f3 43 bd 3f
       0.07974587650304618 0.11431809867544793
000060 97 a0 ca 45 bb 54 c5 3f 8d 38 0f 5b 1f c7 b6 3f
       0.16664830119885174 0.08897586796885744
000070 12 87 60 d6 42 f1 af 3f 32 0f ed 5f 22 0a 79 3f
       0.06238755099208339 0.006113180423941421
000080 43 7a 36 6d 3b 92 c2 3f 70 7b ab dd 2e 2e 9d bf
       0.14508765061050796 -0.028496486930517262
000090 52 06 c7 ab 07 a5 b0 3f a4 95 38 71 44 ac 98 bf
       0.06501815742287789 -0.024094647798980198
0000a0 3f e4 7c fb 54 bc 88 bf 44 b4 9a 83 8a 06 7c bf
       -0.012077964710998866 -0.006842175551054434
0000b0 38 8a a7 89 76 e8 bf 3f 33 ca 84 d8 4a c5 8b bf
       0.12464085446075834 -0.01355989907515207
0000c0 47 cc 8a ec 7f e3 b8 3f 10 16 84 30 7b 84 b4 3f
       0.09722136998134188 0.08014650282355995
0000d0 ba 9d 19 46 17 82 c3 3f d4 14 4e 76 b4 1e ba 3f
       0.15240755961279523 0.1020310200529651
0000e0 cd 50 64 5d b3 fc 90 bf 37 73 47 93 6d 06 9c bf
       -0.016588976454912797 -0.027368270982935896
0000f0 b3 a4 85 84 f2 56 9a 3f 19 df 58 ad 94 bd a2 3f
       0.025722302759650883 0.03660263649038437
000100 92 6d 20 68 84 d4 a5 3f e1 b0 3f b8 b8 34 bc 3f
       0.0426370026691202 0.11017946718465367
000110 c4 8f c9 d2 9e 9e 90 3f 57 5e e8 ec 0b 95 a0 bf
       0.016230088820875968 -0.03238713519038743
000120 fb 74 9f 20 96 5e 8d bf 65 5f 31 bf 2a d7 c0 3f
       -0.014340565558024645 0.1315663751181503
000130 28 2e 50 38 d4 52 c4 3f fb 21 ae 74 d5 bc 75 3f
       0.15877773999851397 0.005307039081238414
000140 4e 22 85 4a 36 ac af 3f f7 02 6b e3 85 06 be 3f
       0.061860748860060086 0.1172870331020127
000150 f8 c6 4e 2c d0 89 45 bf c7 7f 8f f6 2e 56 a2 bf
       -0.0006572977514364966 -0.03581377753994235
000160 63 29 f3 34 4b a6 a1 3f a4 97 d1 77 76 14 c3 3f
       0.034471845830540436 0.14906197405360644
000170 3c 9a 4f bc 6d e6 a8 bf c9 c4 ca 85 e8 87 9d 3f
       -0.04863303111760728 0.028838761487979512
000180 39 a6 98 18 f2 29 b5 3f 12 e3 0f f8 ba 24 8c bf
       0.08267129040236733 -0.013741932578328373
000190 56 88 73 83 25 79 9e 3f bd 5e 1b c3 ed 2e a5 bf
       0.02975901236357744 -0.04137366301227761
0001a0 98 9a b8 ee b8 24 ab 3f 4b 40 e8 eb c1 82 b0 3f
       0.05301454462123906 0.0644952012009991
0001b0 0c 02 74 06 0b e5 bc 3f b3 16 1e 11 bf 8a 9b 3f
       0.11286991984889755 0.02689646284081588
0001c0 60 a8 59 24 69 e7 9e bf 4a 8e 3f d6 c4 7b bd 3f
       -0.030179636806146326 0.1151698134486249
0001d0 03 28 cb d4 0b a2 c0 3f 2a 00 31 9b e6 77 a0 3f
       0.12994525804816712 0.032164770550025715
0001e0 40 f7 58 76 dc e0 b0 3f 07 11 5c 17 48 96 90 3f
       0.06593110932678048 0.01619827883315941
0001f0 7f d5 ac f1 50 a5 c1 3f 34 e5 2f ca 5f 08 ab 3f
       0.13785754967254246 0.05279826491455211
000200 3c 11 8b b4 5e 26 a9 3f 1d e0 76 cd 9a f9 bc 3f
       0.04912086442849037 0.11318366543025644
000210 41 f1 fe 1a 01 b4 8d 3f db 03 0a 99 3c e8 b2 3f
       0.014503487240170034 0.07385615097338365
000220 05 59 44 dd ca 4e c0 3f 44 3c 62 72 e1 23 55 3f
       0.12740455440570755 0.0012902928952234364
000230 76 46 b1 ad c9 e9 a2 3f 75 02 f4 b0 eb f8 a6 3f
       0.0369399094130473 0.04486786398957047
000240 95 fe 9e ec 3a 16 b4 3f 6f d8 fe 54 3e 45 a1 3f
       0.0784642055214085 0.03373141086142161
000250 4e 3e 04 e6 bb ae 66 3f 55 c8 f9 0a b6 79 a3 3f
       0.0027688665287611052 0.03803795703869698
000260 83 9d ac b3 1a d6 a4 bf 3b b1 b0 34 c9 93 71 3f
       -0.04069598620690853 0.004291330299605096
000270 9d b9 25 b2 e5 18 c0 3f 73 22 de f6 28 ab c2 3f
       0.12575980375863774 0.14584838918769413
000280 b5 5c 3d b8 9b 35 c1 3f 6a 95 12 e7 c1 32 a0 3f
       0.1344484948737993 0.03163724847517353
000290 8f 38 43 bd c9 b2 6a bf a4 bb 6e 16 73 50 a7 3f
       -0.0032590809079016746 0.04553565644106719
0002a0 ee 66 db 91 ef d9 83 3f 75 ff 9c c1 af ad a7 3f
       0.009693023337081521 0.04624699819987558
0002b0 9b bb 80 bc 50 6d 8c bf 5b 5e e6 c2 7f 80 b3 3f
       -0.013880377533579671 0.07617949016855034
0002c0 8d 14 63 4b 3e ea b6 3f fa 4d da 5d 14 fd ad 3f
       0.08951176968101233 0.05857146878875237
0002d0 3a a9 96 1e e3 fb 92 bf 03 3d 6e cc 05 87 a2 3f
       -0.01853899835774906 0.03618639107218693
0002e0 77 1e 33 d2 19 42 c4 3f 6f 80 59 62 0b 21 a5 3f
       0.15826723827034403 0.04126773429447971
0002f0 bf 83 99 79 8e 3d 90 bf 1d 49 2a 9d 1f 84 93 bf
       -0.01585981957612481 -0.019058698623276905
000300 69 9c 94 4a 1c 01 b2 3f d4 94 42 64 64 9f c2 3f
       0.07032944508374474 0.1454892625380696
000310 a0 3c ab d6 30 85 c0 3f 37 d7 4e 73 74 6b c2 3f
       0.12906465989951688 0.1439042628314213
000320 55 2d 82 4c f3 4b 66 3f a3 a1 84 c6 28 f0 a1 3f
       0.0027217628413091313 0.035035394890943004
000330 bf 27 f4 e5 9b f0 bc 3f 01 5e fa 32 63 7a 63 bf
       0.1130464016352155 -0.0023776948435842997
000340 4b 0a 70 39 da 33 a2 bf 16 28 9d ae 78 7f 92 bf
       -0.0355518527139976 -0.018064389855943906
000350 da b4 7c da 9c 52 bd 3f dd b7 a7 6d 0e 7d 9f bf
       0.11454181989821013 -0.030750489657229586
000360 36 a5 ab 2c a3 6a 90 bf 4a 76 ae 24 7a a9 bb 3f
       -0.016031789399595563 0.1080547656588006
000370 69 37 45 6e 8e c9 9b bf 58 fa 49 a5 ac 8c a5 3f
       -0.02713606403386085 0.04208888547599504
000380 78 47 6c 46 b9 89 b6 3f bf f1 9e 42 41 02 b1 3f
       0.08803899735747034 0.0664406573914169
000390 86 df dc a8 e6 32 ac 3f 4a 37 a8 d7 ea 0f a6 3f
       0.05507584391892721 0.04309018976719743
0003a0 60 0a 1c e8 f5 19 8d 3f 25 2a 0e 3e cb 3f 98 bf
       0.014209672113343064 -0.023680854475552366
0003b0 87 63 44 a8 74 83 ab 3f 52 1a 7e ae 30 3b 87 3f
       0.053737302341864406 0.01134336502560732
0003c0 6a 95 ef 0c 59 3e 83 bf a8 99 7c 38 8e 86 ba 3f
       -0.009396262843390974 0.10361565474577239
0003d0 19 2e 19 ac 8d 3a bc 3f 62 51 ed 7c bf 37 af 3f
       0.11026845409031018 0.06097219848621439
0003e0 4e 25 a2 80 0c a1 7a bf 7e 91 26 91 8b cd 96 3f
       -0.006501244390287054 0.022268467649739325
0003f0 9d a9 5e d1 cc e1 b1 3f 8a 4c 9c 99 94 d5 b0 3f
       0.06985168563429629 0.06575897932298083
000400 24 8b 92 84 2a 27 af 3f 7e cd 8e 20 20 cb b1 3f
       0.06084568851772179 0.06950569910877921
000410 27 15 49 41 ef c7 80 3f b0 08 96 57 6b 41 ac 3f
       0.008193844966749865 0.05518660968938727
000420 73 fd 24 d4 f2 a8 ac 3f 31 4e 5a 29 29 ff ba 3f
       0.05597647514013717 0.105455944629562
000430 e0 07 36 fe d4 91 bb 3f af 91 3c 9e e3 1e bc 3f
       0.10769396978687906 0.10984633076856797
000440 9e 7a 93 3e 06 e1 81 bf 1b 2c aa f2 80 71 a1 3f
       -0.0087299812170703 0.034069089529190154
000450 ce 12 75 b0 6a 6f b8 3f d3 21 0c 6d d6 6a 99 bf
       0.09545008476295466 -0.0248216156060453
000460 63 39 9b 29 99 d0 b6 3f 71 3d 58 2e 55 62 9a bf
       0.08912045732288258 -0.025765734628348583
000470 a1 9f 71 f1 55 72 b5 3f 0b 62 e0 72 15 0e ba 3f
       0.08377587456345605 0.10177740149118379
000480 62 4e b2 a5 33 ff a8 bf f2 88 6d 87 e6 25 a5 3f
       -0.04882203481352289 0.04130478289768459
000490 8f 71 37 2c 96 57 9c bf d6 57 b5 3d 12 e9 b2 3f
       -0.027677866410031945 0.07386888510276832
0004a0 4d 49 82 ce 0b ed b7 3f d6 9a e5 e8 42 d5 99 3f
       0.09346078674051235 0.025227590050600344
0004b0 a0 d6 05 65 50 4b a3 bf e8 e8 df 6d 95 ae b8 3f
       -0.03768397553623726 0.09641393597113146
0004c0 3b ab 92 5b 1a b6 b4 3f 8d 44 14 5a fa bc 90 bf
       0.08090367065112229 -0.016345893619533803
0004d0 aa d7 da e7 b4 38 b8 3f 9d 56 6f 41 d8 5f 91 3f
       0.09461527500647429 0.01696718119986561
0004e0 dc 19 06 ed 24 61 b3 3f c8 72 5c f1 c9 a7 b4 3f
       0.0757010534926858 0.08068525450330377
0004f0 23 d3 4c cb 59 a3 91 bf f9 9b be fe 48 e9 9f 3f
       -0.01722469619126622 0.031163349674581984
000500 22 2a 26 22 62 68 c3 3f fa e4 8c b3 62 88 b8 3f
       0.15162302653728071 0.09583107837251595
000510 74 e6 77 29 6f 5f b9 3f 3b b6 fd 84 ce 81 bc 3f
       0.09911246073161256 0.11135569331028077
000520 26 00 d7 7e 77 a6 c2 3f e7 f8 8f f8 5d ea b6 3f
       0.14570516293861252 0.08951365774553076
000530 cc 5b ce 03 27 1a 95 3f 76 7e c5 49 63 b2 a2 3f
       0.020607575995736302 0.03651724124460724
000540 8e 25 ad 89 a8 ee 93 3f 40 4a 66 f7 13 97 9c 3f
       0.019465096858117863 0.027920066809722366
000550 6d 3b 0b 05 3b d2 95 bf 4c 6d bb 75 15 97 c3 3f
       -0.021309778387883883 0.1530482125152538
000560 d3 4b 49 6a b2 20 b2 3f 42 a8 d5 ff 6d 58 85 bf
       0.07081141562348074 -0.010422572488739349
000570 a8 5f 25 e9 99 b0 a7 3f 3a e5 d2 e4 d4 22 aa bf
       0.046269235334590875 -0.0510469941450062
000580 6a d4 f7 dc d8 70 a0 3f 54 82 f1 2f e9 30 b1 3f
       0.03211095521320646 0.06715257091992416
000590 22 53 e5 0d 57 88 8e bf 42 ab 47 3d 85 9a b1 3f
       -0.014908485518995433 0.06876404520123194
0005a0 59 32 54 d2 f6 d9 be 3f c4 40 da 3c 1e 03 b0 3f
       0.12051336894018884 0.06254757867486932
0005b0 f7 83 99 4a 07 1e b2 3f 4b 13 7f 18 f9 f2 91 bf
       0.07077069827347758 -0.017528431053295972
0005c0 25 3e 9e 08 ec ca a7 3f 45 5a 8e 43 b2 b6 b3 3f
       0.04647004704667904 0.0770064749652671
0005d0 da 08 1d cd 95 48 9f 3f 7a bd dd ad f4 fc 9e bf
       0.03055032791531507 -0.030261824714612008
0005e0 e2 3c de 86 e4 5a 9a 3f 3c 1c 9c 38 9c 07 bc 3f
       0.02573735306901604 0.10949112302851999
0005f0 28 38 03 17 89 56 b4 3f 46 12 37 76 85 27 77 3f
       0.07944542705374202 0.005652924857205982
000600 74 11 6d e9 c7 87 bd 3f d0 5c de ed 5d 45 93 bf
       0.1153531021964847 -0.01881930126509418
000610 ba 53 a5 81 21 f2 8c 3f d0 d3 19 c5 ef de bf 3f
       0.014133703011489963 0.124495492573103
000620 41 a5 ac fa e8 0a c0 3f 01 80 b5 fd fa cf ac 3f
       0.12533294906578799 0.05627426478417875
000630 7f 32 8a 59 94 e8 a8 3f 29 10 42 6d cd c2 bb 3f
       0.048649440698771855 0.10844119946892818
000640 2f 59 9e 7f f2 3a a7 bf 2d 68 08 b8 78 68 cd bf
       -0.0453716069015847 -0.2297507189367151
000650 ac 59 bc 46 9b 29 98 bf a2 0b b4 d2 b0 f0 b9 3f
       -0.02359621638523783 0.10132889885066601
000660 9d 32 b0 25 29 cd b8 bf ca 2e 43 00 e8 ac c1 3f
       -0.09688050432323299 0.13808918011488053
000670 83 71 7b bd d1 b6 8d bf 66 2d 4e 5c 97 d2 b2 bf
       -0.014508856387174479 -0.07352586749600717
000680 5b fc 55 00 79 f6 83 bf e7 d1 5b 78 68 6b ac bf
       -0.009747453043699552 -0.05550695866796556
000690 9e 16 8a a2 aa 6b bb bf 0c f2 14 78 56 53 b6 3f
       -0.10711161106345421 0.08720913345036524
0006a0 56 39 34 a6 ce 46 af bf ba fb fd 4e 53 b7 c2 bf
       -0.0610870912442915 -0.14621964795148107
0006b0 b3 41 b5 92 bd b6 9f bf ff c5 ba da 8d a3 a5 3f
       -0.03097053726134087 0.04226344389952529
0006c0 3d 34 62 80 15 59 a8 bf 54 b1 6e cd 34 db bb bf
       -0.04755465690787062 -0.10881357207717218
0006d0 69 3c 83 3b 38 fb 8f 3f de e2 b0 70 a9 93 8f 3f
       0.015615882221395165 0.015418361426882961
0006e0 98 ea 32 de 07 a2 68 3f 1b ae b1 27 f5 f7 91 bf
       0.003006949774854672 -0.01754744581960042
0006f0 e3 24 80 40 47 08 ba bf 76 bf 92 7c e2 a4 ae bf
       -0.10168881725998662 -0.05985172053021774
000700 47 3e cc 86 7d b7 6b 3f 9d 63 86 b2 88 d6 cd bf
       0.003383393448878089 -0.23310955731429042
000710 5f f5 5e 1c f4 a6 9e 3f 20 11 20 0a 26 c0 a7 bf
       0.029933752280830613 -0.046387852416986286
000720 2a 7f b9 d2 ab f4 7f bf 3b 5b 00 46 c6 31 b8 3f
       -0.0078016959992906285 0.0945094986821972
000730 88 ed 70 5d e3 01 a8 bf 0c 59 0e 60 77 ca ab 3f
       -0.04688940539969183 0.05427907035407217
000740 bc 08 f3 15 cd 94 cb bf 1c db cb fe b9 61 b0 3f
       -0.21547854968782143 0.06399118872273529
000750 f8 d2 11 64 b4 0b b0 3f 8c d0 e1 c9 6d 09 b1 bf
       0.06267859881502236 -0.06655012301217961
000760 13 cf 18 1d f6 64 c8 3f e8 03 1a df 86 15 b0 3f
       0.19058109684703392 0.06282847353760668
000770 83 b5 64 33 54 87 ba bf cd e7 1a 24 57 f9 ba bf
       -0.10362745527955579 -0.10536713248703151
000780 07 79 3e 6a d2 bd 93 3f c5 be a7 06 68 83 c5 3f
       0.01927880071127055 0.16807270359958273
000790 fd d6 76 fd 4d 59 b6 bf 0f bc e6 5e f9 42 b3 3f
       -0.08730018079844722 0.07524069373060648
0007a0 dc aa 45 0a 7a 46 c5 3f 34 63 20 33 fa 59 82 bf
       0.16621327878541237 -0.00896068066144693
0007b0 5a af 1e d2 cb ab c4 3f 33 cc 23 90 10 e4 97 bf
       0.16149280318983977 -0.023330935285184217
0007c0 01 8d 02 44 c6 9f b1 bf f0 57 15 ae 28 e7 ba bf
       -0.06884421501540673 -0.10508970499117232
0007d0 94 5f 94 95 d3 fe ba 3f dc af a6 c6 94 90 a9 3f
       0.10545084382863329 0.04993119168224755
0007e0 9b ce 75 03 dd ed cd bf a3 90 bc 41 e8 a3 d3 bf
       -0.23382151287988936 -0.30687910480106434
0007f0 d1 dc 7a 97 16 b8 af 3f 95 9e b9 01 7f d4 c1 bf
       0.06195135687942755 -0.13929736694557407

fc2_act.bias f8 [50]
000000 0c 70 76 32 ce f1 d2 3f da 18 f6 dd b1 fd dd 3f
       0.29600863388054743 0.4686093013373359
000010 58 39 8f 69 ca d8 98 3f 3c c3 af f4 a7 2c d7 3f
       0.02426449078830592 0.3621005906598389
000020 92 7d 4e c4 02 58 d7 3f 07 f0 b7 fb be 2d d7 3f
       0.36474675341192964 0.36216711599240664
000030 c5 25 81 c2 6b ae dd 3f 4a 72 29 41 e8 0e c1 bf
       0.46377080912187935 -0.1332674329923001
000040 36 e4 a2 73 c7 9d d3 3f 7d ad 5a da 78 bd d6 3f
       0.30650507252318293 0.35531445811894696
000050 7c c6 ba 37 e1 c6 d2 3f 2c 38 11 ba f5 56 d6 3f
       0.29338865702002415 0.34905760927802265
000060 74 e3 26 4f 58 df da 3f 55 de 8b 0d 51 33 bb 3f
       0.41988189439466983 0.10625177937242232
000070 0c f9 54 80 48 36 d8 3f 7d 0b 0c 92 22 86 c6 3f
       0.37831318409361425 0.17596847659305218
000080 8d 2c 01 15 81 fb d2 3f 60 b0 35 a1 be 89 d1 3f
       0.29660059977749925 0.2740322660745331
000090 2d 54 a0 4d 51 44 df 3f d2 13 a9 7a 3e 62 d4 3f
       0.4885447748250183 0.3184963415008585
0000a0 e7 1a cd e7 cb f8 d5 3f 21 e5 79 0f 0a 3d df 3f
       0.3433103336032403 0.4881005431303312
0000b0 a4 89 37 67 0a 1d d1 3f 58 94 f5 20 20 59 c6 3f
       0.267397499845311 0.17459489449825827
0000c0 02 b4 e1 00 9d 5e d5 3f 84 6b d2 cf 4a 2a dd 3f
       0.33389973722552224 0.4557063130866299
0000d0 d7 15 96 b6 b7 62 83 3f 5d d8 f1 91 df 2a 42 3f
       0.00946563268622473 0.0005544273043500792
0000e0 2c ba 61 59 89 03 e0 3f c4 73 2f 7f 43 3a b6 bf
       0.5004317041146513 -0.08682653288947423
0000f0 01 6f fe 9a 04 8e db bf 59 fb 70 6f c6 b4 d3 3f
       -0.430543090211117 0.3079086387914934
000100 30 7b 5c 96 e6 1f db 3f 3b 91 ca ff 79 52 a7 3f
       0.4238220661517742 0.04555112121059542
000110 d0 31 97 c2 0b 22 dd bf b5 91 39 31 7c c7 d9 bf
       -0.45520299914349227 -0.40280060584180016
000120 a1 ea 6c 0d 1d 81 dd 3f 31 35 88 4f 26 a0 b9 3f
       0.4610054617984734 0.10009993974400257
000130 d9 b1 bc ed 7c 8c dc 3f 5d e2 e6 c3 ed 77 c8 bf
       0.44607470718872616 -0.19115993562242553
000140 ee a3 92 aa 88 d6 d4 3f 0d 1c d9 08 06 97 de 3f
       0.32559410722257 0.47796774734564523
000150 5c ff 42 30 3a a6 d2 3f a8 d9 6c c6 f9 a6 da 3f
       0.29139570916230695 0.41644138696156086
000160 97 28 cf 4b c9 5e d7 3f 10 74 f4 cf 26 66 d8 3f
       0.36516029742473094 0.381234839516595
000170 c7 46 19 fc f4 1a d4 3f 76 be 89 53 78 53 d4 3f
       0.31414532298104486 0.3175946059991256
000180 13 06 c4 37 b7 b0 d6 3f 85 e6 42 6d b2 32 d1 3f
       0.35453587003584736 0.2687192980771232

fc3_act.weight f8 [20, 50]
000000 c4 00 ee ec c9 65 9d bf c2 04 08 8a a7 0d 9d 3f
       -0.02870860584835168 0.02837240009285292
000010 b9 0c 5e 36 d4 41 bb bf c7 0e 74 91 b6 6d b4 3f
       -0.10647322013214734 0.07979908991915884
000020 2c bb bf ab d2 6e a6 bf 5e 5b 47 73 ae 18 b7 3f
       -0.043814261880348176 0.09022035898611366
000030 40 04 d8 de 6d 76 ba 3f 1d cd 8d 38 07 5c bc bf
       0.10336958590052436 -0.11077923899374693
000040 9d 2e af 9e c3 11 c0 bf e1 81 e6 ff 75 42 b9 bf
       -0.12554211853272515 -0.09867036340302306
000050 22 ad 5a bf 7d 55 b6 bf 89 32 71 c6 63 41 86 3f
       -0.08724199220403198 0.010866908544039393
000060 af c3 20 a8 a7 07 a8 3f 15 59 0b dd 78 43 73 3f
       0.04693340232223108 0.0047030183056533574
000070 20 b5 f8 66 a1 cc 9a 3f b2 97 13 ed 4c 74 b5 3f
       0.026171228322870665 0.0838058546829348
000080 f6 37 93 b2 db 46 ad 3f aa e5 5c 1d f7 9c be 3f
       0.05718123011466496 0.11958260027758763
000090 2e 07 78 80 3b 50 62 3f af 14 4c 5c ce 64 b6 bf
       0.0022355234284540315 -0.08747567895268803
0000a0 ae fa 1f cb 3f 7c 98 bf 09 50 3c d1 f4 83 a5 3f
       -0.02391147305751911 0.04202237180848562
0000b0 0e 6f 18 df 64 c1 9a 3f 43 df b0 07 75 05 c0 bf
       0.026128364674248998 -0.12516653895885996
0000c0 41 8e f4 59 9a 9c b7 bf 2d 54 e0 39 49 e0 97 3f
       -0.09223332115339479 0.02331652084111029
0000d0 d9 0c 13 23 1b 23 b0 3f 98 e8 17 2e 44 54 b4 bf
       0.063035675108995 -0.07941080212904905
0000e0 01 19 a0 8b f8 cd 85 3f eb 14 a9 28 0c be b9 3f
       0.010646764527348031 0.10055614464461697
0000f0 2c b6 94 37 03 0d b1 bf 08 66 90 b2 37 8c a6 bf
       -0.06660480601268465 -0.04403852514969847
000100 23 e6 6d c0 ed 14 90 bf e7 da 40 1a 70 b2 97 3f
       -0.01570483672137447 0.023141624071480484
000110 40 dc 03 17 ac de c1 bf 03 01 69 41 72 65 ad 3f
       -0.13960791705878428 0.057414598927154635
000120 e0 ea 6a 30 8c aa bc 3f 18 8f 10 8a 49 45 ba 3f
       0.11197735006400533 0.10261973973007021
000130 8f 80 c9 6f 5d 8a b9 bf 35 8f 18 da 7f c6 9f bf
       -0.09976753215005572 -0.03103065270091961
000140 aa 6d bb 1a 3b 6f be 3f 92 fc 39 c3 5e d8 a0 bf
       0.1188847484840411 -0.032900773364411454
000150 63 f2 88 ea 9d 84 ac bf 4b f7 2f aa 86 a6 8d 3f
       -0.05569928634620138 0.014477779453951142
000160 b6 a5 cf c7 77 0d 72 bf 91 b2 dc 35 35 23 a5 3f
       -0.004407375233293312 0.04128423960205397
000170 70 23 4d a8 e0 c2 c1 bf 0e cf f4 87 14 af 98 bf
       -0.13875969140851963 -0.024105377958405554
000180 1f ec 69 7c f5 20 bb bf 20 54 3a b2 47 a6 ba 3f
       -0.1059716633553056 0.10409973241105819
000190 3d 01 32 1e ad e2 c0 3f d5 a4 5a a1 9c a6 c6 3f
       0.13191760992413917 0.17695958975426743
0001a0 06 86 d2 58 e8 a5 95 bf 99 e5 23 71 fe 81 c5 3f
       -0.021140699788366767 0.16802959942269238
0001b0 39 04 12 72 87 7b c9 3f 70 11 b2 f6 46 91 bd 3f
       0.19908230848162292 0.11549800417748712
0001c0 46 c9 32 e5 24 6a cc 3f 3c 2d 22 1a 17 68 aa bf
       0.22198926154448823 -0.05157539552700505
0001d0 9c 05 80 db 73 82 bb 3f 2b 49 56 86 68 0a 7b 3f
       0.10745929821862038 0.006601723003216524
0001e0 74 51 42 55 3c 3b b8 3f c1 d1 2a 8e 12 1b a1 3f
       0.09465386468429476 0.033409671644594414
0001f0 bc bd b7 4f 0e 08 c7 3f c3 9c 4b 76 ee 39 cb 3f
       0.1799333466765186 0.21270542884960805
000200 1a bb 47 c8 8b 58 c5 3f b5 a9 9a fe 5a cd 92 bf
       0.1667647102289827 -0.01836149386387272
000210 98 fa dd 52 c5 5b b3 bf 0e fc 21 03 33 72 be 3f
       -0.07561906121370965 0.11893004251940928
000220 91 59 48 4e 8c e2 a3 3f 78 e3 d3 bc 50 bf c6 3f
       0.03883779960249279 0.1777134820947841
000230 cd f3 3f e9 f6 54 c0 3f 0b 36 03 b5 12 3a 9f bf
       0.12759291066313808 -0.030494968698624485
000240 15 7f aa d6 fe a8 b1 bf 14 fd ae 9d 79 fb 95 3f
       -0.06898491612309628 0.021467113732566892
000250 be bb 7b c0 f1 9b a2 3f 94 3a ec 12 9d 73 b6 3f
       0.0363460109200484 0.08770162307721768
000260 7b 16 f1 f8 19 ff a5 3f 77 e0 fa d8 7a 8f cc 3f
       0.0429618946441623 0.22312865824438052
000270 ae 54 58 56 a5 a3 d0 3f 13 5a b8 67 9d a4 bd 3f
       0.2599881499493887 0.11579307348470307
000280 1a c1 2e 31 38 d9 b7 bf 6e 39 ac 30 c0 91 69 3f
       -0.09315825653789425 0.003121257182448981
000290 43 5e 78 b3 de 2f c5 3f d9 26 de 84 e7 f2 b4 3f
       0.1655233742064742 0.08183142656175892
0002a0 74 b9 8d f4 94 db cc bf 37 3f 9b 83 48 b6 c8 bf
       -0.22545110646337785 -0.19306284357161882
0002b0 45 95 f9 fe 89 8c a0 3f a9 20 25 02 a7 62 be bf
       0.032322227835531105 -0.11869281580323111
0002c0 2a 8e a3 2a 30 38 80 3f 15 cb 4c 6a 18 82 ba 3f
       0.00791967039226112 0.10354759783949093
0002d0 31 b0 ad 3d 64 23 45 bf 95 2a a3 8a 1a 85 ce 3f
       -0.000645088144080491 0.2384370018902088
0002e0 9f 21 30 ab 22 17 b2 3f b1 6a c5 db 35 d4 d1 3f
       0.07066551856417512 0.2785772939875342
0002f0 22 6c 7d 10 b9 43 c3 3f 3a 81 64 31 ed 9c ae bf
       0.1505042391316645 -0.05979100444733594
000300 7f 24 1f f5 cb ee a3 bf 6c 49 3b 75 83 b4 b2 3f
       -0.03893124930579805 0.07306691753482192
000310 1f bd 04 fa 23 55 9d bf 31 fb 75 1b 3c ab 82 bf
       -0.028645097861212606 -0.009115666950263087
000320 5e a2 92 7b 59 d6 aa bf 29 3d d0 4c 7c df ab 3f
       -0.052416607222146125 0.054439434410705374
000330 27 28 98 49 49 3b c5 3f 92 e4 96 04 21 db a1 bf
       0.16587177365755787 -0.034874946413261956
000340 5b 8d 68 da d8 dc 8a 3f 98 1a 5b b7 fa f0 a3 3f
       0.01311654488114893 0.03894790161353007
000350 9f 64 bc 36 d5 4c a4 3f a5 cd 4f 33 d8 3a a0 3f
       0.0396486882511422 0.031698948157919994
000360 49 e6 bc bc e7 be a6 3f 4b 3f fe 50 0d 67 ad 3f
       0.04442524126939113 0.057426849495753794
000370 6d 55 c6 cc 7f c7 ba 3f 9b cb bf 00 ff 67 c7 3f
       0.10460661649115872 0.18286120926458413
000380 f9 e6 b9 c0 0c 5e b6 3f 7c f4 6f 42 0a e4 b9 3f
       0.08737258630017299 0.10113586542134273
000390 f6 2b 31 68 d1 82 ca 3f 88 48 a3 f4 26 da b7 3f
       0.20711724841598284 0.09317248795130884
0003a0 a0 6a b2 07 6e d9 ad 3f 87 9d be 0c 3f 10 cb 3f
       0.05829948276478558 0.21143329736990443
0003b0 56 c4 48 11 0e fd d0 3f bb 58 ce 1f f9 b2 bd 3f
       0.26544524848856577 0.11601216341509517
0003c0 c0 68 f7 94 5c dd c7 3f 70 ad bc 66 a2 c9 a2 3f
       0.18644292138816887 0.03669459823717147
0003d0 fe 8b 69 16 e9 e6 b6 3f 2a 41 df 6a af dd cf 3f
       0.08946091458487612 0.2489527961574905
0003e0 d1 2c 39 85 c9 65 a3 bf 0d d5 d1 b3 7a 39 ca 3f
       -0.03788594962369419 0.20487912922150323
0003f0 e9 a8 79 f6 08 6a c3 3f b6 b8 7e 3e 6c 80 31 bf
       0.15167343172954098 -0.00026705401114214143
000400 1f c7 80 be 23 0b c0 3f 73 57 b7 03 50 fb c8 3f
       0.12533995439439935 0.19516945058301935
000410 ed 0c 4e 32 26 fc 94 3f 0e 71 6c e2 f6 f2 48 bf
       0.02049312288319254 -0.000761385487610096
000420 a7 e4 32 d5 23 11 c4 3f 44 20 e6 04 0b 3a c1 3f
       0.15677307043168762 0.13458383311467703
000430 54 c5 a0 24 a7 6c c3 bf 01 3a 0b 88 9b c8 c0 bf
       -0.15175332344510173 -0.13112205641523647
000440 51 65 3d d7 e7 0d cd 3f b6 5a 6d 96 7a aa a0 bf
       0.22698686609036625 -0.03255065046567067
000450 26 82 5c 47 c8 dd 9b 3f d3 e6 9c 7c 44 23 b0 bf
       0.027213219981719793 -0.06303813974673327
000460 43 d3 73 46 83 22 ad 3f 68 9d 07 95 63 c3 9a bf
       0.05690393672003904 -0.026135974856427963
000470 d8 7c 79 79 95 1b a1 3f d2 f2 c2 c0 ea da 71 3f
       0.033413573339879654 0.004359166148955667
000480 ff f0 e1 88 86 76 ca 3f 62 24 3e cf f3 86 9e 3f
       0.20674211200446987 0.029811677478879146
000490 02 9f c3 16 8a 90 7d bf df bc 8d 36 0e 8f 8c bf
       -0.007217921647885596 -0.013944731750341109
0004a0 45 ea 39 f0 12 36 a1 3f 6f da 31 f7 3a ca bd 3f
       0.03361567671250446 0.11636704001453223
0004b0 ed 65 d5 50 7f 9d b4 3f a1 34 5f e2 92 6d c7 3f
       0.08052821849323495 0.1830314259845283
0004c0 7e f3 11 ee a6 06 c1 3f 20 f2 24 90 b3 56 b1 bf
       0.13301550507085474 -0.06772920865200449
0004d0 8d fe 8b aa 82 fa b7 3f 55 f8 1b 76 0c 31 c5 3f
       0.09366623557797933 0.16555934683850873
0004e0 71 34 ea 01 cc 14 cd 3f 84 75 33 49 fb 05 c4 bf
       0.22719717114924579 -0.15643254350917968
0004f0 d4 ed d1 3b 96 81 c8 3f d6 6b 04 b6 db 26 a5 bf
       0.19145467682743222 -0.04131208989038952
000500 d2 e2 1a 45 1b da b0 bf 61 10 b1 7d 82 99 ca 3f
       -0.06582804143080104 0.20780974519050502
000510 2a 9d 4a 8b 3c 80 ca 3f 4b 1e 70 11 8a e3 bd 3f
       0.20703846742001392 0.11675322461825847
000520 d3 3e 63 2d 81 f7 c5 3f 22 c5 76 26 75 05 a6 3f
       0.17161574093051132 0.043010388322168205
000530 2d d3 b8 94 bf 61 c6 3f 3a 61 1a 8f 66 09 ca 3f
       0.17485804330649427 0.20341188418820783
000540 97 18 4f 6d 82 17 cc 3f 3d 48 24 a3 c4 7e c5 3f
       0.2194674524054718 0.1679311558332887
000550 7d 91 8e e5 60 e0 bb 3f 2d c4 f0 8b 20 3e c1 3f
       0.10889249424378096 0.13470846970588593
000560 9d 5a e8 22 db 65 a8 bf 76 3e f3 8c 9c 5e c6 3f
       -0.047652099620042444 0.17476231462795838
000570 80 24 2b d8 45 58 c8 3f 40 70 c0 ba 6c 4b c8 3f
       0.19019387297729295 0.18980177992568947
000580 1a f2 76 ef 94 95 d2 3f 01 dc 4e 0c de 15 d5 3f
       0.29037974724977433 0.32945967866857023
000590 f8 3d 4c 3d a1 d2 c5 3f 2d 32 66 df ac de d2 3f
       0.1704904126458897 0.2948410207398265
0005a0 60 4b a0 6d d6 17 b0 bf a1 b9 8f b0 b1 cd c2 3f
       -0.06286373306674653 0.1469022857776965
0005b0 bd 7c 5e 9f 10 e4 68 bf fd c0 4d 43 91 c0 c2 3f
       -0.0030384373339554503 0.14650169168772456
0005c0 03 56 fc 6b 35 a7 bc bf cb 00 4b 90 df c2 b5 bf
       -0.1119264019619877 -0.08500478050973752
0005d0 8e a8 74 aa c5 a9 bf 3f be 46 11 64 0c ff ce bf
       0.12368426715389289 -0.2421584595309038
0005e0 dc 7a 30 59 4a 37 9c bf 36 3f f8 5a af 0b ca 3f
       -0.0275546662270426 0.20348159734612076
0005f0 23 ec 0b 28 af 37 c1 3f 32 f9 76 2e 3b 1c cd 3f
       0.13451184707068461 0.2274240471724141
000600 a6 6a 9f 16 cf 80 c5 3f 46 15 e5 7a 60 dc c0 3f
       0.16799343685746243 0.13172536850667366
000610 a6 29 6f 1a c7 b0 b4 3f f2 de c1 65 70 9e ac 3f
       0.08082241435400891 0.055896294042154696
000620 fb 00 dd be 73 dc b1 3f 1e 14 4a ba 75 ae 84 3f
       0.06977008256672328 0.01009838080177344
000630 38 0c 88 05 dd 69 b0 3f 31 35 cd 6f 79 d4 8e 3f
       0.06411534676594577 0.015053700184263082
000640 34 03 cf f0 b9 87 c1 3f 01 2f fa 45 68 32 aa 3f
       0.13695453890070441 0.05116582731451836
000650 ed 70 d2 29 eb c0 aa 3f 46 87 19 1a 4c d9 c8 3f
       0.052253102164486843 0.19413138651276024
000660 47 e3 dd 75 f5 c3 a1 3f 78 d4 5d 2f b9 75 b2 3f
       0.03469817222407428 0.07210881620797405
000670 93 2f 8e d7 69 60 c3 3f 80 29 76 b3 12 d4 67 bf
       0.15137980485121413 -0.0029087414984065307
000680 6e d7 27 9b 82 6c c3 3f e0 32 7e 3c 21 c8 c5 3f
       0.15174896789511244 0.17016997770078657
000690 d5 21 b2 96 3c 0a c0 3f 78 7e 86 7b b4 8b b9 3f
       0.12531239851183665 0.09978797927623784
0006a0 22 fc a9 aa 95 62 c9 3f 55 c4 87 ec 64 8e aa 3f
       0.19832106431201263 0.05186763179143187
0006b0 ad b4 a9 28 30 7b a7 3f 50 65 33 dd 5b 88 a3 bf
       0.04586172577260448 -0.038149710418745486
0006c0 42 fa 2e a2 50 43 ab 3f d4 31 fa 1b 38 61 93 3f
       0.05324794750002983 0.018925549228287
0006d0 7a 2a d5 e7 9e 71 ba 3f 2d 70 a6 d0 e2 9c 9f bf
       0.10329621467568897 -0.030871910080904442
0006e0 6b 6e 59 0a ff 02 c7 3f 22 81 42 2b 3c e4 bd 3f
       0.17977893834437295 0.11676384025713962
0006f0 99 f3 f4 1d bc 8f a5 3f f7 73 cd 01 ba a0 65 3f
       0.04211223474201304 0.0026401169729255397
000700 60 3e 93 17 d2 1b ac 3f 6f 27 38 f6 89 11 c5 3f
       0.05489975488455623 0.16459774515561373
000710 52 cf f1 53 bb 55 8d 3f e6 85 43 db c9 39 a8 3f
       0.014323676585469212 0.04731589128074258
000720 86 11 2f 4c 92 c9 cd 3f 0a 99 2e 10 b9 22 83 3f
       0.23271397323527426 0.0093435724318849
000730 96 94 4d a0 58 93 c5 bf 4b ad 0b 55 8a 95 c4 3f
       -0.1685591490487794 0.16081360962503263
000740 67 d7 46 62 04 30 b4 3f 1c 69 c5 66 0c 71 bb 3f
       0.07885768317541207 0.10719373234806934
000750 54 4a b1 a9 fa 35 b2 bf e4 1e 67 91 1b 85 c1 bf
       -0.07113615649112975 -0.13687462424990493
000760 04 69 bb 5d bc 69 b2 3f 71 eb fa 36 9e 1b bf 3f
       0.07192590034847873 0.1215151676396269
000770 48 27 25 ec cf 63 bd 3f 0a 76 20 c5 e9 12 b9 bf
       0.11480426326047877 -0.09794484198251766
000780 17 a1 7a 72 23 34 c5 3f f2 2a 12 7c ff 28 c1 3f
       0.16565363969608235 0.13406365926888203
000790 8b e1 47 38 a1 9b 9a bf 98 6e 9a d5 81 18 c3 3f
       -0.02598430543909695 0.14918539934011643
0007a0 4a d4 5e fd 21 ac c1 3f a1 e1 46 18 c4 ec c4 3f
       0.13806557532885427 0.1634755247630553
0007b0 2c e5 cb e0 ce 9c c4 3f cf 23 94 ba d9 e4 5d 3f
       0.16103540398015903 0.0018245817430531002
0007c0 3b 09 74 27 81 13 94 bf e8 37 15 5a e0 1e c9 3f
       -0.0196056537943232 0.19625477217272125
0007d0 96 ac 62 51 1c 08 b9 3f f5 b7 e6 73 0b 91 ca 3f
       0.09778000819157948 0.20755141410103276
0007e0 8b c7 07 83 0e 76 d7 3f a8 e5 11 ca 4a 85 ca 3f
       0.3665806083291662 0.20719275347418642
0007f0 84 19 a8 d3 59 32 bc 3f bf b1 20 0c c8 b1 c0 3f
       0.11014329354666158 0.13042545883344123

fc3_act.bias f8 [20]
000000 18 fa ce 1b e4 22 a5 bf 30 47 ab d5 c8 34 d2 3f
       -0.041281822580902794 0.2844717108356347
000010 7b 15 00 8e 5f e9 d6 3f a9 e5 cf d9 a7 9f d5 3f
       0.3579939734193755 0.33786960859978393
000020 46 e9 df 2b 54 6f d4 3f a7 4c 12 70 3f 85 da 3f
       0.31929497036584953 0.41438280052643467
000030 0f e2 0d 84 ee e8 d8 3f 99 fb ef c5 0b bb db 3f
       0.38921702285691223 0.43329138116671967
000040 c5 14 4e 75 7c 99 b0 bf 95 59 97 44 0e 09 db 3f
       -0.06484201301471433 0.42242771814690033
000050 5d df 7c 95 4e fc b4 bf 55 bf 1f 1d b7 bc b0 3f
       -0.08197489881137927 0.06537956677470665
000060 60 c7 f3 19 5b 5d dd 3f 3e 72 5f 46 d6 91 e1 3f
       0.45882298979187475 0.5490523695439788
000070 18 75 9a 5d b2 35 da bf 27 bd 01 8e 97 2d b9 3f
       -0.40952738896324226 0.09835192887270648
000080 8d da 0a 22 b0 2f 99 bf d6 37 16 27 c1 d5 e0 3f
       -0.024595977857382812 0.526093078938852
000090 bf 0b 9e a0 ae c4 ad 3f a2 d4 04 d5 49 73 d2 3f
       0.0581411906305429 0.2882866459143064
