weights/numq/nyse/correlation/high/numq_5.pt (torch, 526847 bytes, 8 tensors)

fc1.weight f8 [200, 200]
000000 17 6c 31 e2 e8 c8 a2 bf a4 a6 47 f9 e1 bc ba bf
       -0.036689069377381305 -0.10444462142882088
000010 83 37 ac a3 01 f1 a9 bf bc 8e dc 8b f6 ef a2 3f
       -0.05066685793836625 0.03698702294630382
000020 17 5e e9 3d b3 32 82 3f 0b 0b e6 8a f1 80 8d 3f
       0.00888576538743195 0.014406096507405338
000030 13 01 34 a7 9d 14 a2 bf a9 b4 c3 33 35 52 92 3f
       -0.035313536320247384 0.017891722950413556
000040 5d 83 f1 cf 72 cc b4 3f 1a 34 c9 e9 8a 18 ac 3f
       0.08124463631385255 0.054874745405506256
000050 c3 95 b1 38 5b bf af bf af 56 7c 41 0c 10 9e 3f
       -0.062006807966820364 0.029358092781953612
000060 5e 79 6b 2c cb ab b3 bf d3 4a f2 57 7c f1 b7 bf
       -0.07684011301487234 -0.0935285296166442
000070 c2 7b 77 93 7f e9 ad bf 50 83 86 49 49 12 b0 bf
       -0.05842207598811157 -0.0627790264611694
000080 f6 a8 c4 35 26 07 b2 bf f5 78 d8 60 60 d2 99 bf
       -0.07042158901882431 -0.025216585074411452
000090 9e 3c 6a 5c a5 29 b7 bf b6 4a 04 80 b6 89 91 3f
       -0.09047921663499145 0.017126895488284354
0000a0 01 96 83 53 c0 98 b3 3f 06 78 e2 d9 3f 7b ad 3f
       0.07654954947391703 0.05758094343876512
0000b0 50 95 86 75 99 ed ab 3f f3 90 14 6d 70 98 a4 bf
       0.0545471149410256 -0.04022551852747993
0000c0 fb d6 29 5a 93 3a a8 bf 12 87 d8 09 f0 c1 ad 3f
       -0.04732189632060898 0.058120251848107554
0000d0 32 24 21 13 86 62 9c bf 4a 10 05 5b de ae b2 3f
       -0.027719588201112262 0.07298078272020905
0000e0 4c 9c 45 f9 7c 6f b5 bf a4 d0 59 ad 7b 61 80 3f
       -0.08373242460003033 0.007998434283969687
0000f0 7a 33 43 13 88 4c af bf d1 68 a1 74 2f d3 5d 3f
       -0.061130764342670355 0.0018203700479007443
000100 73 cd d5 ac d6 18 b6 bf 82 82 3a fe a1 c3 63 bf
       -0.08631650657280492 -0.002412620918974818
000110 fe 3c 42 36 67 dc a1 3f 43 cf 87 9c 21 14 b1 3f
       0.03488466775262998 0.06671342917962612
000120 d5 c4 86 4b 8d 85 a8 3f 06 c7 cd c2 6e d9 81 3f
       0.04789392039254784 0.008715501136723269
000130 51 d9 97 73 eb 27 9f 3f 37 67 8a 56 cf 4e bd 3f
       0.030425719194647375 0.11448379385765582
000140 e6 2c 7b 56 ee f3 91 bf 0b 6a c3 c8 c2 cc b0 3f
       -0.01753208544577669 0.06562440301369336
000150 fb ff aa 1a 04 27 8e 3f c9 aa b4 19 20 b5 99 bf
       0.014722854675142108 -0.0251050010385068
000160 0d a8 55 7e 3e 0b b7 3f d3 28 b9 96 65 f4 be 3f
       0.09001532158222876 0.12091669969337042
000170 31 c2 2f 10 d0 2c b6 3f f1 8d 52 d8 0a 2d b8 3f
       0.08662128825358974 0.09443729192076213
000180 d3 8c 9c 1b 59 3d b1 3f c2 20 d0 6b de 84 89 3f
       0.06734234737500637 0.012460458436195036
000190 6b 66 be 8e da dd af bf 36 70 8a 8d af d2 7e bf
       -0.062239484715246395 -0.007525144341936898
0001a0 5b 7b d0 6d 57 4f a3 bf 26 4d 60 da 9b 11 a8 3f
       -0.03771470275409313 0.04700934448933429
0001b0 ba 8b b4 0f f1 31 b0 3f fd 95 a0 66 5a 8b b8 bf
       0.06326204904011848 -0.09587635999249496
0001c0 6e 97 c5 65 ef 88 b6 3f 51 f0 f3 de 46 1b ae bf
       0.08802696451820477 -0.05880185577004283
0001d0 8d d4 39 85 33 53 a5 3f 49 62 53 6f dd a9 b5 3f
       0.04165040017407149 0.08462318389809655
0001e0 6d f7 f3 87 f4 f8 87 3f 26 12 3c 70 87 2f a2 3f
       0.011705313109356042 0.03551886792232421
0001f0 ea 9c fb b2 44 88 9d bf 2f bc 88 d4 a9 c9 ab 3f
       -0.028840135025259984 0.05427294463549292
000200 23 5f 9b 19 6f 2c 9f 3f 1e 30 8e 34 6f f0 ad 3f
       0.030442939699098958 0.058474993863541366
000210 e1 56 c8 1c a1 4f ba 3f cb 62 f2 67 18 2f b6 3f
       0.10277754738521196 0.0866561177994171
000220 9b 0f 92 6f d4 b1 86 bf 1b 87 c6 31 ba 99 a5 bf
       -0.01108137097822475 -0.0421884713898761
000230 7d 87 d9 65 c9 e1 b4 3f c4 cd 51 26 45 cd 72 bf
       0.08157023178639906 -0.00459029208751666
000240 96 a6 88 4a 12 d1 a2 3f dc 85 28 f8 e2 8e b9 3f
       0.0367513385757096 0.09983652647544922
000250 0c b1 fb d7 3d 37 89 3f 2c 6d 98 5f 6e ea a3 3f
       0.012312396196158669 0.038897942704546246
000260 b9 69 11 88 c6 a7 b3 3f 03 7d 51 ac 9c 4e 95 bf
       0.07677880117390758 -0.020807693498110968
000270 1d 91 7c dd 3d 45 b0 3f ab 3a 3a 8b 2e cf a6 3f
       0.06355654389750894 0.04454942178300788
000280 c4 ec e8 59 84 d7 c2 3f 5f 62 66 f5 96 de b1 3f
       0.14720205679063814 0.06980269900521695
000290 73 03 bf 35 5a 23 a5 bf 93 f6 74 c3 05 b9 5a bf
       -0.04128534227448357 -0.0016310268673146763
0002a0 99 be 04 c3 e2 b5 9b bf d5 6c 3d d6 96 16 71 3f
       -0.027061026719080592 0.00417193337110718
0002b0 64 25 d2 a2 0f 52 a1 bf 8f ed 98 b1 e3 6a a7 3f
       -0.033829201341243814 0.045737376622550056
0002c0 9f 19 54 a4 2a 04 7d bf 71 e5 f0 95 d1 a3 a8 3f
       -0.007084051675752794 0.048124837449402665
0002d0 0f db cd d0 f7 35 b1 3f 01 39 2a 53 ca 15 ae bf
       0.06722973678357057 -0.058759997035950924
0002e0 01 8c d5 9a 73 d8 a8 3f ad 31 76 a2 a8 a0 bd bf
       0.04852639451089403 -0.1157327076563834
0002f0 05 3d d1 e2 26 28 bd 3f f6 60 53 2c be 92 98 bf
       0.11389391934902811 -0.023997279601503295
000300 2b d7 4c 30 97 a4 9e 3f 65 63 1b e1 98 35 94 bf
       0.029924738238342 -0.019735707034530665
000310 6d 06 fe 80 2e 3b bd 3f c6 b4 49 1f 9b 45 a3 3f
       0.11418429040170404 0.037640426225018994
000320 60 6b b9 08 91 e2 a5 3f de 37 bc a0 d5 3d 83 3f
       0.04274419051645029 0.009395283668279516
000330 17 1a 43 85 aa a9 a4 3f 1c a5 3e c7 0b 78 a3 bf
       0.04035694958433938 -0.03802525336443294
000340 f8 70 a1 c6 2b d5 9a bf d3 56 52 65 fb 69 b4 3f
       -0.02620380782933382 0.07974215720818316
000350 9c ee 82 cb 51 0c a1 3f 34 1e d6 38 96 5f b5 3f
       0.033297115414339745 0.08348978889090902
000360 bb 5f ef 88 25 2b 98 bf 55 05 86 e2 a3 61 a2 3f
       -0.023602091296055266 0.035901185418888794
000370 4d ed cb 55 12 0c a7 3f 0f 3d 64 d7 25 29 a2 3f
       0.04501397416421558 0.035470182936586984
000380 cb e5 9e 59 51 bd 90 bf 83 cf b0 28 75 8d ab bf
       -0.016347189993870786 -0.05381361123764263
000390 b9 f5 24 af 51 23 a7 3f a2 b9 79 78 26 ec 81 3f
       0.04519133818619587 0.008751202155704633
0003a0 00 6a 02 b6 7f 29 a3 3f d6 de f5 c0 e2 9a a4 bf
       0.03742598625941085 -0.04024418454622285
0003b0 56 c2 e2 75 85 6c b0 bf 77 92 fd 55 b7 e1 af 3f
       -0.06415590408392666 0.06226895260514181
0003c0 a3 22 95 0a f4 b9 7c 3f 03 ef b7 ab 86 7f 96 3f
       0.0070132763733644935 0.021970848303666034
0003d0 79 80 d9 97 48 29 a7 bf a8 53 80 e1 93 27 b3 bf
       -0.04523684362061515 -0.07482265715982683
0003e0 d3 da 45 bf 71 55 84 3f 5f 95 9c 31 4f 6c 93 3f
       0.009928597116169701 0.01896785488420016
0003f0 8c 69 a0 6d aa e4 99 bf 6b 26 eb af 56 f8 95 bf
       -0.025286353055074026 -0.021455149161545266
000400 77 28 ee f6 96 a6 91 3f 80 9e 46 8c 4e 4f ac 3f
       0.017237051793508287 0.05529256307937391
000410 cc 9e bc d0 22 0c b9 3f 5f 7a 46 53 de 69 7f 3f
       0.09784143062699541 0.00766932340448409
000420 c6 e7 4c ac f7 1c c0 3f 17 2b 86 c8 9b c7 73 3f
       0.1258840171156505 0.004829033401970737
000430 d5 6e 6e d8 14 68 ae bf ff 3b 00 b9 81 3d 9a bf
       -0.059387828273626354 -0.025625254551467688
000440 95 61 5d c6 e1 f5 a8 3f 2f 86 a2 dd 2d 98 83 3f
       0.04875093027539205 0.00956760246873775
000450 45 a7 14 96 85 58 bb bf 9f ac 50 c1 86 16 b9 3f
       -0.10681948579863583 0.09799997539146198
000460 3c e5 b7 7d c1 07 7f 3f 0f ef 40 1b c0 ef b8 3f
       0.007575755905685096 0.09740830102321872
000470 a7 45 0d a8 fe 2a a8 bf 04 c4 15 0c 37 8c a0 bf
       -0.047203023924008485 -0.03231975576898807
000480 83 4b 2a 68 ef 87 96 bf 4a 8d 13 20 02 b9 b1 3f
       -0.022002926571598202 0.069229252654215
000490 19 e6 bc 9b b2 05 6a 3f 25 e0 e1 81 2e 32 84 3f
       0.0031765449947698363 0.009861338938421291
0004a0 72 62 34 74 10 8f b5 3f 4e 3d db 5d 13 e5 a1 bf
       0.08421423756625204 -0.034950833518105115
0004b0 ff 86 8f 3c 60 29 9d 3f 38 5a 6f 47 da 29 b5 3f
       0.028478149124459225 0.08266987079637367
0004c0 16 62 bc 85 c6 d7 ac bf 70 41 6a ec 11 3a a9 3f
       -0.056333736252956054 0.0492711640446285
0004d0 71 59 9f 04 fc 6f bc 3f d0 2e 29 1b 6a 6c b5 3f
       0.11108374703267089 0.08368552363497916
0004e0 ec 8a ad fc 3f 8f b6 3f c0 74 e7 0e 8b fd a6 3f
       0.08812332075971668 0.04490313107428667
0004f0 28 d7 fd c5 29 9d b7 3f db 6e e1 77 a3 f5 83 3f
       0.09224186977175164 0.009745862098660954
000500 8c 4e 50 4f 69 47 af 3f ff 63 f6 db 10 43 ab 3f
       0.0610917004888992 0.05324604687775291
000510 2a 60 17 35 65 61 b0 3f 87 ac 98 3a 4d 96 98 3f
       0.06398613496946895 0.024010855390014043
000520 f8 fc 55 da 02 c8 b0 bf 5d 14 d7 9b d3 20 aa 3f
       -0.06555192785707564 0.05103169705720554
000530 42 ee dc c8 4d d9 94 bf 7c a4 ea 2d ed b5 ad bf
       -0.020360198387818558 -0.05802861390595468
000540 05 a7 8b 87 c5 8c c4 3f 1a 3a 84 7e 68 11 9d bf
       0.16054600828584156 -0.02838671943850999
000550 4b 80 9d 22 f7 78 b6 3f 76 57 f4 5d ac 63 c5 3f
       0.08778328509424786 0.16710428798313232
000560 40 04 83 ae ca 01 b2 3f b9 89 0b 27 6d dc a4 bf
       0.07033983955899803 -0.040744219795459675
000570 4d c3 80 14 18 a5 a2 3f cf a9 20 a5 25 b2 ba 3f
       0.036415817740254576 0.104280808271745
000580 5f c7 d4 ff 12 be a7 3f fe 43 4d 69 ed 1d 88 bf
       0.04637202618540814 -0.011775831962639313
000590 db b4 c1 f1 4b d9 87 3f 9c 3b e0 ef db 02 86 bf
       0.011644929232910098 -0.010747640855724154
0005a0 de 25 07 cb 69 61 6c 3f ab c0 06 c2 6b 12 b0 3f
       0.003464419009308924 0.0627810810754023
0005b0 bd ce 0d 19 42 68 ba 3f d3 87 96 0b 00 c3 9e bf
       0.10315335380237918 -0.030040741641307833
0005c0 31 95 44 dc 8b 1c be 3f 93 3f 74 0b 3f da a1 3f
       0.11762308242449106 0.03486821188755509
0005d0 69 84 9b 66 3b 22 ab 3f 47 f8 eb c3 b3 66 a2 3f
       0.05299554469616725 0.03593980566618931
0005e0 0c df be e4 7f ec c2 3f 43 4b f7 d9 10 98 b3 bf
       0.14784239453523929 -0.07653909036097865
0005f0 7f 53 8f cc 68 25 99 3f 76 b0 3b 50 ce 97 90 bf
       0.024556767926543707 -0.016204093596499956
000600 d2 2e 21 ad e9 32 b2 3f 64 07 d0 4e b9 36 75 3f
       0.07108936764523868 0.005179141863665613
000610 d8 9e 9c 17 b3 ca 81 3f 1e c9 f7 f8 74 71 85 3f
       0.008687400014948762 0.010470308158776972
000620 7a 80 37 5e 52 bc 66 3f ba 70 83 6b 03 56 c0 3f
       0.002775345683161898 0.12762491941146498
000630 c7 3a 4d 80 f0 e7 a4 3f 08 bf 7a 60 fc 29 7b 3f
       0.040832057630372946 0.006631837699089045
000640 9e 82 10 82 69 88 b9 bf 4c 0d b5 39 cc 65 ad 3f
       -0.09973773408320105 0.057417280239429574
000650 fd ef 01 58 ac f5 a6 bf e2 57 f0 f4 78 8e bb bf
       -0.04484308790503631 -0.10764270763351605
000660 a6 15 0d 31 45 6d bf 3f 9c 3c 8e 16 99 55 64 bf
       0.12276108214890388 -0.002482222557268777
000670 18 7d b7 b2 98 d6 9f 3f 07 8a ef 74 03 58 99 bf
       0.031092058094029346 -0.02474980736941215
000680 19 c0 74 9c 2c 03 96 bf d5 64 2b 3b c9 cc a2 bf
       -0.02149648384983047 -0.036718643639412164
000690 a0 1b 31 23 0e 53 62 bf c2 ee de 36 4c ff 64 3f
       -0.002236869442217196 0.0025631416856109765
0006a0 ad c7 b8 07 07 18 a4 3f e3 5f 85 57 2a 0b ae 3f
       0.039245814983942175 0.05867893522616876
0006b0 a5 cf 13 85 b1 4b b4 bf 33 2c 93 6a e5 60 98 3f
       -0.07927999018630645 0.023807129506888635
0006c0 0e 88 a7 ad 91 24 b3 bf 3b 02 89 b9 01 1b b4 3f
       -0.07477674951181276 0.07853709010761005
0006d0 05 9f eb b2 40 cd 9f bf ac 13 09 74 a6 f2 c0 bf
       -0.031056414528307225 -0.13240509668153544
0006e0 aa 97 ed 03 97 f4 ad bf 64 55 64 69 8d a2 a4 bf
       -0.05850669787359604 -0.040302676310754376
0006f0 b8 a3 6e bc 55 83 bf 3f aa 70 5a ab e3 e6 b0 bf
       0.12309776163478048 -0.06602309163503386
000700 dd c8 40 01 a7 95 a2 3f b7 c7 2c 97 0e 3d 56 3f
       0.03629800691887095 0.0013573305593124038
000710 53 3b ba f6 27 7b b0 bf b8 55 13 03 e5 c7 a1 bf
       -0.06437921308154886 -0.034728199601583964
000720 4f a3 85 04 9a 3d 7f bf 8f c1 8e f6 fe 7c b3 bf
       -0.007627107268810842 -0.0761260368296972
000730 cb 4a ef 9e d0 ab aa bf 65 e8 9b 52 bb 26 a2 bf
       -0.052092093850338715 -0.035451749643429044
000740 2a b9 c2 75 5c 2f a0 bf 20 7e 41 db f4 57 a7 bf
       -0.031611337065770975 -0.04559292961561945
000750 0b 14 75 47 36 a3 a5 bf 1c 39 1d 53 4f d6 ad bf
       -0.04226083395273158 -0.05827567948891696
000760 1e 36 16 9a 4e e4 a9 bf a4 2f 8a 89 47 0e b0 3f
       -0.050569969472331375 0.06271788700013176
000770 fb 05 8b 4e 82 da a2 bf 26 c7 cb 8e 40 e0 b2 3f
       -0.03682334145333851 0.07373431669455197
000780 36 d5 80 54 db a1 ae bf 77 76 f7 58 db a8 c5 bf
       -0.05982861906560759 -0.16921560138773703
000790 0a 9e 40 e8 5b 26 96 bf 55 58 3b 32 d9 3c 99 3f
       -0.021630703020632004 0.024646180811793112
0007a0 90 ba 0e 65 e6 bb 7f 3f 85 89 3e 43 13 b3 a8 3f
       0.007747554759517286 0.0482412356934843
0007b0 5d b0 a4 be 85 b7 b0 3f a9 3a 99 3a 8f 36 a3 3f
       0.06530033020379862 0.03752563085855815
0007c0 93 6d 18 60 ad f0 92 3f 9e cb 14 9f 21 70 ad 3f
       0.018496235838126273 0.05749611918363161
0007d0 8c ee 23 7c 77 7b 86 bf 7f 16 82 73 5b 5d a5 3f
       -0.010977681613886923 0.04172788414966266
0007e0 ba 64 8f 46 38 0f a0 bf ee 65 88 98 df a5 bb 3f
       -0.031366118062302786 0.10799977754540865
0007f0 6f 72 9c 5c d1 ba 83 3f 6c 93 80 c5 c7 3d b5 3f
       0.00963367046238625 0.08297394344169867

fc1.bias f8 [200]
000000 b9 a2 fe ab b2 c7 df 3f da 43 61 96 81 fd df 3f
       0.4965635947833494 0.49984779058018847
000010 48 34 30 46 b8 68 e0 3f d8 1e 61 66 53 a4 98 bf
       0.5127831812730017 -0.024064353107205644
000020 c1 f3 63 1f 38 b8 e0 3f a5 cc 77 15 1e d9 c5 3f
       0.5224876988501067 0.17068840072861238
000030 24 e3 d2 ec 97 ae dc 3f 30 7b 7c dc cc ae dc 3f
       0.44815633895227536 0.4481689599214631
000040 85 91 35 fa f6 0a dc 3f 82 5b 43 51 fe 8b 7f bf
       0.43816923555848347 -0.0077018675112502395
000050 83 0e 1c 7c 74 e1 db 3f 45 c2 f2 3e e0 cd d5 3f
       0.43563568229749466 0.34069067141812
000060 6c e0 07 0c d0 3c d7 3f dc 33 74 44 76 77 dc 3f
       0.3630867116439791 0.44479138073876157
000070 7c a5 7a fb cc 25 a6 3f 8c 52 f1 2d 47 33 de 3f
       0.043257146547442255 0.471879763475308
000080 2f b5 46 e4 3b b4 d1 3f d5 18 bf fd 47 06 d6 3f
       0.2766256074199473 0.3441333749764344
000090 d1 06 f6 08 ce 36 ca 3f 7b 5e 87 94 40 16 dd 3f
       0.2047975105052076 0.45448317055477333
0000a0 b6 9f 32 e4 d8 35 e1 3f c1 c2 ff 4a c4 4a dc 3f
       0.537823148440103 0.44206340145232664
0000b0 53 2e cc 67 80 6f de 3f be a8 3d f7 ed 5e e2 3f
       0.47555551659090617 0.5740880803034754
0000c0 f5 90 cc 4c 27 7f d1 3f 04 58 b9 0c 2b 63 d4 3f
       0.27338583469305827 0.3185527443177991
0000d0 2e b4 2d 87 36 c5 d1 3f 3f 8d 13 ad df 31 de 3f
       0.2776619262793386 0.4717940511893239
0000e0 1f 1a e1 00 d8 8e d4 3f 49 22 2f 50 0d d3 d7 3f
       0.32121849141950237 0.3722565920875565
0000f0 26 6c ba ab 94 c9 e1 3f 35 40 3a 56 20 bc d5 3f
       0.5558570245806365 0.3396073190751879
000100 b6 40 77 e7 5a 34 db 3f 31 4b 25 22 b3 1a d2 3f
       0.42507050136647295 0.28287962278880047
000110 bd fc ab c7 c8 08 d4 3f b3 81 7e a7 aa 7b d5 3f
       0.31303615092469866 0.3356730113682957
000120 1c 70 24 5e c1 94 d8 3f 36 4e 59 00 01 a1 c7 3f
       0.384079305587649 0.18460094944986033
000130 13 bf d7 2e 31 45 e1 3f 96 f6 1b ce b3 4f de 3f
       0.5396963038346904 0.4736146462235892
000140 e0 e6 f3 4b bd ee c1 bf e1 c4 0f ea 3c 53 e3 3f
       -0.14009824951772654 0.6039108821406921
000150 b8 cd 0b 3d 5b 07 d7 3f e6 b6 3e 2a 77 d3 c3 3f
       0.3598239990380665 0.15489091456168252
000160 9f 1f 3f 40 f4 81 c9 3f 6e 2b 57 bc b5 50 d9 3f
       0.1992783845619188 0.39555114166858274
000170 21 fb 24 ab 41 70 c7 3f 41 16 49 a5 ea b5 d1 3f
       0.18311329704916893 0.2767283071628733
000180 a6 96 1a 6e a5 aa cd 3f 7e c8 a4 38 fb 5d d4 3f
       0.23177020908513163 0.31823616534814636
000190 ec a0 61 1a cf 3b dc 3f 04 f9 33 74 92 42 d5 3f
       0.44115045143418175 0.3321882376475431
0001a0 9b cc e1 7b 8e b0 ae 3f f1 9a 5e 82 0b 87 bf 3f
       0.059940769789045244 0.12315437252855667
0001b0 ad 0e 90 d9 56 e9 d2 3f e1 d5 a8 fa 9d 0d d3 3f
       0.29549189802512893 0.29770612219303244
0001c0 be fa 39 0e 7d 71 ce bf fe 8b d4 b9 19 9c d0 3f
       -0.2378383941140409 0.25952761790739476
0001d0 3e 4d 70 ba dc dc d3 3f 71 bd c8 1a 04 5e ad bf
       0.3103553600969525 -0.057357910413311404
0001e0 8e 5a 1b 31 70 25 cf 3f d5 8b 16 e2 3e 77 e1 3f
       0.2433300246982139 0.5458063522131577
0001f0 01 09 72 02 f2 1e e1 3f 1c 40 f4 1d 92 16 cd 3f
       0.5350275085222905 0.22725130522349068
000200 e0 96 10 e4 c5 7a c7 3f 76 d2 bc e9 a6 fa ca 3f
       0.18343423496224087 0.2107742921158608
000210 de 3d df 73 92 6d e3 3f 28 cf 49 89 67 10 e0 3f
       0.6071254981160867 0.502002494946713
000220 f9 ca 2f 83 57 a0 d1 3f 83 15 61 c0 45 c9 d3 3f
       0.27541148959350853 0.309159696455332
000230 e8 06 bf db 36 22 cf 3f 73 f7 b9 44 d5 58 d9 3f
       0.2432316372851837 0.39604694091382625
000240 24 83 07 96 66 3e d4 3f fb 8a 86 9c 23 81 e0 3f
       0.316308638108284 0.5157640511646088
000250 86 9a 6d 50 11 bc d3 3f af a3 56 93 aa fe d6 3f
       0.3083537373953863 0.359293598065558
000260 22 6e 88 c0 40 18 cc 3f 90 ce 7b b7 86 d7 da 3f
       0.2194901409246635 0.4194046775657876
000270 ff 98 e3 db fe 2d e1 3f b7 a3 bd 87 22 0c d2 3f
       0.5368646902759621 0.28199065452514155
000280 cc e9 55 24 99 61 e3 3f d4 89 f0 09 55 dd c6 3f
       0.6056638440780318 0.1786295221837252
000290 b4 3f 87 54 98 c3 df 3f 3c 4a d2 00 29 d1 c3 3f
       0.4963131738159021 0.15482056179151182
0002a0 c9 60 dd b3 7c 54 d3 3f 6e b3 fe 51 cc e6 da 3f
       0.30203168454091817 0.42033679969136173
0002b0 ff 3b 13 a5 85 df bc 3f e9 df 3c 02 4b 38 ab 3f
       0.11278567581324238 0.053163856528442306
0002c0 18 2f 9c 89 bc 72 9e 3f 36 3b 87 0b 74 4c e1 3f
       0.02973455991654736 0.5405826783333854
0002d0 03 f9 80 8f 55 d7 cb 3f c4 0c 77 a7 52 cc dd 3f
       0.21750897891065088 0.4655958781624572
0002e0 fe d8 f6 22 e8 7f dc 3f 30 47 12 bb 13 ca e3 3f
       0.44530681051709553 0.6184176114786393
0002f0 9d 9d d6 39 de a0 d4 3f 65 f2 50 d1 25 5e d3 3f
       0.3223186077907146 0.3026213211158278
000300 22 ac e4 ba 3c d5 d0 3f fd 95 11 11 81 4c d4 3f
       0.2630149674539003 0.31716944376816497
000310 dc 6d 8e 24 3b 6f c9 3f f0 43 07 d2 66 59 c5 3f
       0.19870700154284193 0.16679082160274517
000320 17 ea a5 76 e2 d9 de 3f 95 de a3 e9 95 84 cd 3f
       0.4820486220047839 0.23060869129379982
000330 c0 53 5d 93 1a cf b3 3f 78 aa a0 88 02 9b d4 3f
       0.07737890336768682 0.32196105330027747
000340 30 50 61 b1 0c 2d d1 3f 8d 91 48 44 a3 38 d9 3f
       0.2683746082523184 0.3940818945723315
000350 5d ed 2c bb 7d 3d dc 3f 9d 17 41 e9 c3 b9 d7 3f
       0.44125312117440335 0.3707132127641389
000360 7d 9c 2f 1d 82 db db 3f 4a 4e 55 33 e4 c1 ca 3f
       0.4352727208155967 0.2090420962000386
000370 b8 27 86 b9 55 86 d5 3f 04 44 c0 a8 51 9a d0 3f
       0.33632414929945353 0.25941888312905825
000380 4c bc 5a 2b fc a6 da 3f 6a ef 05 78 7b 13 cd 3f
       0.41644195779639825 0.2271570526171403
000390 e3 30 ca e7 3a 1b d4 3f 68 0e 2d 60 4d cf d4 3f
       0.31416199336741907 0.32515272514522175
0003a0 7d 4a ae f7 bc 73 ca 3f 72 4f b7 f5 5b a6 de 3f
       0.20665704816618194 0.47890376086910813
0003b0 7c cd 7c cc 6b ec dd 3f bd 0a 1a 8a 21 60 ce 3f
       0.46755499810679857 0.23730868571518285
0003c0 d5 cc d1 a3 04 c0 df 3f 4a e4 40 58 c9 c4 d3 3f
       0.4960948562431445 0.3088858949518608
0003d0 fe 3c 12 87 36 5e 96 bf b0 69 6b 2f 62 86 e1 3f
       -0.02184376906785434 0.5476542402423572
0003e0 ae 0c 38 50 88 53 d5 bf e5 c3 ba 7e 9e 11 d8 3f
       -0.3332234176052208 0.37607538581784034
0003f0 dd ad 9e 8b de ee d2 3f 6e 06 aa e0 73 6a c8 bf
       0.2958294261431698 -0.19074867696695058
000400 0d ca 89 a3 0e 8d d4 3f 2d 81 67 24 1b 44 ca 3f
       0.3211094471982115 0.20520343091539797
000410 ec ae 05 8e f8 85 e2 3f e4 eb ae ef 11 a6 d2 3f
       0.5788538717146969 0.2913861122758006
000420 9d af 35 99 64 62 db 3f eb 23 80 7e 66 f1 d6 3f
       0.42788042985807256 0.3584839091641345
000430 49 e2 31 46 e5 56 b4 3f db db 1d c5 09 2a df 3f
       0.07945092166654279 0.48694080590888483
000440 23 de 9e f0 32 29 cf 3f ff f1 28 a8 fe 83 e4 3f
       0.2434447932152902 0.6411126407979849
000450 a4 14 ce ed 1f 4d e1 3f b3 50 65 3d d5 9e d7 3f
       0.5406646389607386 0.36906939502410835
000460 6c b6 bc ef a5 90 d0 3f e2 3d 1b 2e f6 e2 dd 3f
       0.2588286248381795 0.46697763922290225
000470 b2 7b ef 27 e6 d3 d0 3f 30 ce d8 bb 14 7a df 3f
       0.2629332914347585 0.491826232380137
000480 de 5d ff c4 d3 ae e2 3f a8 bd 99 3f 56 44 d3 3f
       0.5838412139518672 0.30104595385543087
000490 a8 64 6b f4 1a 91 de 3f 2e 5c d7 ce ee fa db 3f
       0.477606524172709 0.43719072532025194
0004a0 8c ab 26 66 04 a7 e1 3f 3d a5 cf 70 47 69 da 3f
       0.5516378398073001 0.41267572418890436
0004b0 5f c0 59 40 f5 52 d6 3f 33 e4 6a e1 52 a6 c2 3f
       0.34881335529553853 0.14570079809871714
0004c0 ee 78 15 e8 07 4c 8a 3f 7b c5 86 fa 82 e8 d8 3f
       0.012840329904687722 0.3891913839862224
0004d0 09 6d e1 7d a7 f3 d9 3f 2a ae a9 b6 a8 ff d4 3f
       0.4054964761068765 0.3281041892830411
0004e0 83 c9 d3 fd ed e5 e2 3f 12 b7 21 70 6a 2b cd 3f
       0.5905675847591713 0.227887444259459
0004f0 6e d6 4d 0c 31 3f e3 3f f4 50 4a a3 55 84 da 3f
       0.6014638176263369 0.41432705828016414
000500 e2 19 34 36 cf 1d d7 3f a8 24 80 7d 3d cf d1 3f
       0.36119442265808577 0.2782739377585792
000510 12 0d 99 6b 49 ab b1 3f 5d cb 3d 6c fe 12 dd 3f
       0.0690198791208341 0.45428429193923653
000520 b3 55 00 fa e0 8f c8 3f 75 e6 30 1c 16 ae be 3f
       0.19189083296866513 0.11984384716279257
000530 e0 ce 45 81 58 e6 df 3f 87 04 3f 10 ac 01 d4 3f
       0.49843418716703347 0.31260205828227366
000540 0a df b2 fe e2 6f dc 3f 85 25 8e 2c 08 05 d1 3f
       0.4443290221492907 0.26593212462520227
000550 41 9f e2 7d c2 97 c4 3f 4b 06 90 68 59 e0 cc 3f
       0.16088133951893194 0.2255965958175231
000560 d6 a6 1a ec 1e d5 d7 3f d7 42 6d b4 f8 d3 c7 3f
       0.372382860727709 0.18615635690596008
000570 6b 2a 03 9b 46 7e dd 3f 6a d9 16 04 46 a4 e2 3f
       0.4608322633545529 0.5825529174679052
000580 86 76 50 9b 72 38 d8 3f 5c 5b 98 a4 0c c7 e2 3f
       0.37844529311573927 0.5867980208157451
000590 bf b9 e0 c8 09 d1 e2 3f 5d ab 6f 18 b6 79 d5 3f
       0.5880173610110474 0.33555366884563914
0005a0 80 5b 3a 67 10 2c db 3f 73 7b ac 4c 0d e0 dd 3f
       0.4245644577107939 0.46680004584953066
0005b0 3c f4 04 ab ad 51 cc 3f e3 24 d4 8d af cb e2 3f
       0.22124262667230876 0.587363984116703
0005c0 08 05 a9 11 60 18 da 3f ae 78 77 95 13 e5 bf 3f
       0.40773774838096744 0.12458917998398775
0005d0 8a d2 1f 31 54 5d dd 3f f2 a2 ef c7 76 a1 d9 3f
       0.45882134244246997 0.40047997975356886
0005e0 21 91 8f a1 1d 37 e0 3f 94 d6 f0 8d f0 58 d1 3f
       0.5067279963955437 0.27105344640163165
0005f0 94 c4 cc be b7 b3 de 3f bb 3f fd 1d 9e d9 d5 3f
       0.479719101264956 0.341407326971417
000600 20 7a e7 43 93 6a d3 3f 92 5d e7 27 a7 1a c7 3f
       0.30337983733434903 0.1805008835642466
000610 37 40 3b 63 68 0f ce 3f 58 db 86 65 bd 32 e1 3f
       0.23484520764623237 0.5374438269562729
000620 f1 d5 69 8f 08 97 e0 3f 71 4e 84 50 26 62 d9 3f
       0.5184366990130781 0.39661558020563975
000630 94 30 0e 6a c8 70 d0 3f 96 5f 77 5d 22 bd c1 3f
       0.25688371998763526 0.13858441890510836

fc2.weight f8 [100, 200]
000000 87 34 ba 5b 90 a6 b1 3f af f8 e6 f1 bf d3 68 3f
       0.06894781341016386 0.00303065766567475
000010 12 01 74 7e 6d 35 a2 bf 8b d8 50 eb b9 95 b4 3f
       -0.03556387108437965 0.0804096412183261
000020 3d e8 8c 29 81 70 b8 3f e9 cb ae b2 14 62 9d bf
       0.09546668304838675 -0.028694461255962898
000030 5d f9 3c 2f 63 d6 b5 3f 12 47 9f 8b 81 74 9a bf
       0.08530254271770361 -0.02583506025968691
000040 e9 de de 97 6e ef 22 3f 56 89 fb fe 50 28 b2 3f
       0.0001444647313613081 0.0709276793018366
000050 2b 81 1a 7d 44 57 9c 3f 00 81 e2 a3 b8 16 a4 3f
       0.02767664922305461 0.039235849385706345
000060 97 92 2f 2e 79 ce a1 3f d7 23 1f 37 ee 75 a4 bf
       0.03477839173118474 -0.039962238529888054
000070 28 50 b7 f4 ae 1c 82 3f ff 2f 5f 53 1e 61 88 3f
       0.008843771784917534 0.011903988761240212
000080 14 bf 5e e2 e1 f7 92 bf 6a de 06 3a 92 94 b0 3f
       -0.018523721162352194 0.06476701656981168
000090 79 73 f1 60 73 16 b5 3f cd 5d bc ad 0f a6 52 bf
       0.08237382046486443 -0.00113822489851666
0000a0 82 30 74 48 ad 6d 5c bf f9 46 82 56 40 b3 7d 3f
       -0.0017351333825131048 0.0072510255050859335
0000b0 c5 fa a0 9b 0b db 9e 3f db 25 d7 aa aa da 95 bf
       0.030132466672734965 -0.021341959645530522
0000c0 d0 c9 38 b7 63 26 94 3f cc 31 10 24 93 a7 76 3f
       0.01967769437596606 0.005530905503303218
0000d0 04 21 c8 c4 ac 4d b3 3f 2a eb 26 5a b8 71 8e 3f
       0.07540397457353626 0.014865341426106921
0000e0 b7 fc cc 67 de d3 95 bf 75 4b d9 42 ab 8a a0 bf
       -0.02131602772282967 -0.03230796042466625
0000f0 4b 3e 21 6f e4 80 99 3f 7e 5c bf b7 92 a4 97 bf
       0.024905747683361217 -0.02308873411660927
000100 54 8d a1 c4 ac 1a a5 3f a5 0a 3e 29 7a cd af 3f
       0.041219138148131634 0.06211454156347899
000110 d7 76 28 ce 43 70 a6 3f a6 43 4b bb ac 21 a2 3f
       0.04382526294305727 0.035413167822873334
000120 f3 2d 4d e4 3c 24 83 bf 3a 9d cd e9 8c 03 69 3f
       -0.009346461980064702 0.003053450795437532
000130 7b e0 cb b1 d8 49 ae 3f c2 ec 43 d5 92 54 ae 3f
       0.059157153800641425 0.05923899510704579
000140 51 98 5d ab 58 d2 8f 3f 47 3c 54 ab 8b f2 b0 3f
       0.01553792260137868 0.06620095188940055
000150 5d 52 ab a7 9c 91 b0 3f ea 73 a0 ba b5 36 a6 3f
       0.06472186177718116 0.043386153251255014
000160 4b 71 36 9a fb 29 b3 3f c8 c2 e5 e0 59 f1 6c bf
       0.07485935702283546 -0.0035330539168899368
000170 bb 91 9d 43 52 cb 77 3f 8d e6 ba e8 d5 a2 b6 3f
       0.005809136718970038 0.08842217380415658
000180 a0 9c 3b ce 02 d3 9b 3f c3 0e 41 fc d0 34 a9 3f
       0.02717213042970157 0.04923108176492754
000190 62 fb 50 92 5e 67 b4 3f 6b 06 da f5 56 bd b6 3f
       0.07970229217697303 0.08882659437406352
0001a0 ac 5d 98 3e 21 29 87 3f 25 4f 10 19 20 a4 70 3f
       0.011308917734864497 0.004062772161905125
0001b0 61 9e a5 1a 39 73 90 bf e1 7b 80 5f fb 25 80 3f
       -0.016064541102791433 0.007884944774614712
0001c0 fa 87 76 8c 2e f6 a7 bf e6 29 eb bc b4 e2 9c bf
       -0.04680009331356412 -0.02820856478755642
0001d0 34 3b b8 64 7c b4 ac 3f 48 06 99 f9 b3 a4 93 bf
       0.056064498228911935 -0.019182979687917517
0001e0 0e f5 b2 55 f3 1a 9e bf 5d 21 bc 21 19 cb aa 3f
       -0.0293996830994177 0.05233076607516083
0001f0 b6 23 ca 61 33 a9 b5 3f a2 62 ae fe 29 39 b3 3f
       0.08461304795686328 0.07509100406458427
000200 57 c8 66 ff 13 19 79 bf 19 24 5f 76 e5 6d 43 3f
       -0.006127431980006723 0.0005929346486875958
000210 0c ca c4 13 e3 36 7e bf 61 78 fd 06 c9 24 9d 3f
       -0.007376563091656251 0.028460637141840887
000220 25 f5 26 40 d2 dc 90 bf a3 0b 89 65 92 45 8a bf
       -0.016467366376436438 -0.012828010295498354
000230 d4 4c 87 2e 10 53 8c bf b4 ac ad 15 8f 57 87 bf
       -0.013830305499971031 -0.011397474145005006
000240 f7 d4 5e e3 3c 5d a4 3f 56 f9 36 ed 79 bb b5 3f
       0.03977384830015212 0.0848919109475664
000250 f2 43 94 11 94 a2 90 bf 69 57 4b 62 90 43 89 bf
       -0.016245187352129827 -0.01233589935274511
000260 8e 3b 21 17 00 75 b1 3f 51 71 0d ad dc 52 91 3f
       0.06819153370564221 0.016917656004225737
000270 6a 0b 72 94 af 5d a9 bf 59 3c 5f 87 80 c3 75 bf
       -0.0495428913791532 -0.005313398423779502
000280 17 3e 91 fe 14 19 b4 3f f6 e4 8f 57 cc 47 b0 3f
       0.07850772109053882 0.06359555375810885
000290 ae 4d 33 35 80 f5 ac 3f ea 77 af ef 17 51 90 bf
       0.056560522550764034 -0.01593434715675094
0002a0 f2 2c a3 72 9e 1a b2 3f 3f e6 e5 42 21 4a 9a bf
       0.0707186727406002 -0.02567340822995434
0002b0 05 cf 3e 4d 7e bc a6 bf 5e 99 c1 ac 3b bd 85 bf
       -0.04440684025703771 -0.010614839753725288
0002c0 70 4e 4f 50 79 1c 96 3f a5 a2 78 2c 8b a9 5e bf
       0.021592994238587015 -0.0018714770429914343
0002d0 27 8a d7 7a fa 00 85 bf 46 92 15 57 ad 29 97 bf
       -0.010255772470320569 -0.022619923057748424
0002e0 24 cf 08 10 5a 17 af 3f 44 52 be 4a bc f9 93 3f
       0.060725035149884726 0.01950735288808604
0002f0 11 8c da 56 22 af a5 3f 52 15 9a 86 26 a5 a9 3f
       0.04235179243303134 0.05008812325562907
000300 e3 40 f4 d8 6a ff a0 3f 2e c8 e6 69 54 07 92 bf
       0.033198679908424976 -0.017606085742677795
000310 f2 d8 0b da 6a 67 98 bf 3e 37 e7 53 23 ae b2 3f
       -0.0238320060334098 0.0729696349946751
000320 6a 22 2b e6 b2 66 a7 3f c7 e9 aa 35 d2 02 a2 3f
       0.0457054048507118 0.035177773524498294
000330 e6 e4 53 1b 19 2f 92 bf e7 59 c3 11 0c 94 77 3f
       -0.017757789891196384 0.005756423135798694
000340 fc 88 2e 25 de d0 b4 3f 57 6a cb ae 6b 65 99 bf
       0.08131206901319737 -0.02480095152246017
000350 10 6f b5 ce f5 af 89 bf 30 86 ce e8 ca 02 89 3f
       -0.012542648669004147 0.01221235774011395
000360 ac dd a5 48 20 aa ae 3f 6f 73 8d 96 14 e4 9d bf
       0.05989170920195916 -0.029190370263097728
000370 ec 9c 3d e0 e3 f6 b0 3f 4b ae ee 3c 25 ee b3 3f
       0.06626724457383987 0.07785256135564926
000380 89 db 58 d5 cd a6 9b bf f2 60 a2 b8 31 8b b6 3f
       -0.027003494402574133 0.08806143529580249
000390 ce f4 4a e1 9a 2b 72 3f 79 2b 13 e9 28 7b a3 bf
       0.004436116218753129 -0.038049009753726666
0003a0 c6 32 07 39 7f aa 9b bf 79 0f 24 2e 2d 5c b1 3f
       -0.027017581802101252 0.06781275154577128
0003b0 b6 06 fb 35 0d 98 af 3f 28 4b bc 59 69 ca a4 3f
       0.0617069366831066 0.04060677738575286
0003c0 2f e2 89 77 57 f2 8e bf 88 a2 06 96 e2 a2 58 3f
       -0.015110667548683924 0.0015036785845074247
0003d0 07 56 6f 38 e2 5d 91 bf 41 bf 8a df a7 21 a0 3f
       -0.01695970029307683 0.03150677303108163
0003e0 82 2e cd 8a 12 9a 47 3f 99 64 93 a6 a2 31 94 bf
       0.000720271161847433 -0.01972059385011402
0003f0 10 9a 12 83 20 81 a8 bf 92 b2 db 8e 35 d5 b4 3f
       -0.04786016082771394 0.08137831437825074
000400 f1 59 70 56 27 74 91 3f 60 66 e8 4a c0 4d 93 3f
       0.017044653559503634 0.01885128457261087
000410 a9 dc 09 d2 08 f4 a2 3f f2 b1 d3 38 0e 24 ae 3f
       0.03701808513590638 0.058868832051164235
000420 ac ae fc a5 03 43 90 3f 9d 5c f3 17 e4 7c 9c 3f
       0.015880639081997813 0.02782017131979996
000430 9a 3b 6e 7d dc cf 6a bf 9f 04 c6 6d 37 19 b8 3f
       -0.0032729441113085846 0.09413477354066167
000440 58 54 23 de a5 6f 90 3f 5c f2 f5 f9 e2 d9 b7 3f
       0.016050903018215074 0.09316843607479924
000450 50 08 aa 6d 6d 28 96 bf cb 2c 4f de 11 bf 92 3f
       -0.021638593500491077 0.018306998437577698
000460 d2 44 77 be d7 5f af 3f 26 7d 31 bc bc bf b1 3f
       0.061278097152930436 0.06933192820132614
000470 10 1a ce 2a b3 5e 91 bf ac cf c4 bb 66 54 95 3f
       -0.016962813842406332 0.020829777918336553
000480 27 3c 7f ed c5 0a a1 bf 11 b4 f8 f5 b3 8b b5 3f
       -0.033285317651113915 0.0841629481808044
000490 b3 90 92 c8 22 d8 aa bf 2d 96 7a e7 8b a2 b0 3f
       -0.0524302358474257 0.06498026276911935
0004a0 de 85 d4 01 7d 64 a0 3f 5e 5c 59 c3 1f 68 b5 3f
       0.03201666495648302 0.08362005728973673
0004b0 b9 2b 7c 5f 67 c9 a7 bf 76 08 8a a9 3f f4 93 3f
       -0.046458464055909095 0.01948642227444749
0004c0 60 f0 ef 28 bf 99 a4 bf d4 f4 ca 2d 3a be 9e 3f
       -0.04023549437258178 0.030022534413309668
0004d0 78 44 e5 dc ac 32 8d 3f 6d ce 06 3c b5 87 b8 3f
       0.014256811610410688 0.0958207389401708
0004e0 91 df 7b e1 5a 47 50 3f 2a 79 f5 aa 04 0e b2 3f
       0.0009935748584535035 0.07052640126992019
0004f0 c0 a3 96 c0 75 30 ba 3f f3 47 8f fe 55 25 8a bf
       0.10230194045892826 -0.012766525107426907
000500 0d fd 12 70 6c 26 9b bf 1f e5 be 9a 9d 1d ab 3f
       -0.026513761845078188 0.05296032442078968
000510 e4 02 0f e7 1d ed b5 3f 44 dc c4 c5 76 da 81 3f
       0.08564936534004236 0.0087174681762986
000520 ff b6 81 2a cf b3 b1 3f 52 c7 2e 93 30 4f 94 bf
       0.06914992130051799 -0.019833334906884055
000530 38 37 0e 30 cf ff 92 3f 61 17 b7 e4 48 d1 a4 bf
       0.0185539601403015 -0.040659215850196835
000540 3b 6a f0 1e 0b 4c b6 3f ce f2 a6 cb 87 40 8e 3f
       0.08709783082341797 0.01477151956793801
000550 b9 8e b3 24 b4 25 7f 3f 5c 3e 90 df b2 40 a0 bf
       0.007604316411036365 -0.03174361208959617
000560 25 28 61 4e f6 a3 8a 3f 8b be e1 eb 5a 10 b4 3f
       0.013008045451119507 0.0783745599635443
000570 4a 14 86 13 f6 35 62 bf 48 1a 44 03 f7 69 a3 3f
       -0.0022229963471454327 0.03791782297962648
000580 5b a9 8a 64 b0 6e b0 3f 84 b3 2e b6 10 67 a4 bf
       0.06418898062353177 -0.03984882568270279
000590 6d 9d d4 32 fd 9d aa 3f bd 8f c2 35 ff 8e a5 3f
       0.05198661084642251 0.042106604874134736
0005a0 6e d7 13 8d 89 f3 70 bf c1 eb 03 90 63 da 95 bf
       -0.004138505276605515 -0.021340900101659125
0005b0 8a 7b 89 36 62 0f 9f bf 8b d9 1b 77 ef 0b 97 bf
       -0.03033212144725498 -0.02250646748049116
0005c0 d0 7e 38 ac 4b bd 9a bf 81 85 60 fa 09 45 9d bf
       -0.0261127303948559 -0.028583675295640546
0005d0 b3 d4 5c 71 d5 2c a8 3f 95 5f 50 fa e7 c8 5d bf
       0.04721705445118953 -0.0018179192932219247
0005e0 0a 14 e3 69 68 c1 96 bf 2a dd 43 f4 c9 ed 9d bf
       -0.022222167456465804 -0.02922740510345282
0005f0 5b a1 d1 b4 b0 24 71 bf e4 fd 41 74 e7 e1 ad 3f
       -0.004185381182743998 0.05836413664018972
000600 f2 72 7b 0b fe 3d b8 3f 5d 1e 6a 9b ff 20 9b 3f
       0.09469592838599875 0.02649306665492045
000610 64 0f 7b 92 e9 ea ae 3f 25 cd 97 49 25 a6 a5 bf
       0.06038598931402708 -0.0422832157454656
000620 8e 31 98 3d c2 e3 9b bf 74 9d ef ec 89 14 98 3f
       -0.02723601818984061 0.023515849195886188
000630 fb 1c af 34 9f 04 b3 3f fd 6b fa 82 e2 d4 a2 3f
       0.07428927456122729 0.03678043221335512
000640 ac cc 79 3e 6a 20 c0 bf 06 7d b2 82 37 ff b7 bf
       -0.1259892277772442 -0.09373804989671805
000650 c7 02 a1 fa 47 af b0 3f 67 a6 3b a3 89 b7 90 3f
       0.06517457836981598 0.016325140560104503
000660 09 72 ba c9 57 3a 9c 3f 3b 27 f6 47 b3 fa b5 bf
       0.027566310584562746 -0.08585663325189057
000670 ab 8c 35 0f 7f bd 72 bf 67 6c ba 27 71 df b3 3f
       -0.00457524902899135 0.07762820453574336
000680 5c c8 c3 3f 9e 45 a7 bf 88 6a 36 91 8f 6e a4 3f
       -0.045453019412790424 0.0399060120355062
000690 ad a5 15 e3 29 e5 bd bf 6c 45 73 35 9b 87 bc bf
       -0.11677800935799239 -0.11144418768824033
0006a0 44 44 96 7d 82 99 c3 bf 6b 80 1d 8a cd 4e bb bf
       -0.15312224514176098 -0.10667118665651436
0006b0 ee 9b 6a 16 d9 e7 b4 3f d8 d7 d2 34 43 c7 a2 3f
       0.08166271970058833 0.03667650241679582
0006c0 a8 f0 f8 f1 0b 73 ae 3f 20 b6 c2 fc 3d ad c0 bf
       0.05947148636593741 -0.13028693048311002
0006d0 13 cc 09 dc 3a c4 75 3f 2f e4 05 b5 15 9c a8 bf
       0.00531409255983119 -0.048065832469497465
0006e0 52 2b a7 c5 a5 58 a2 bf ff 0f 94 08 82 95 b0 bf
       -0.03583257711178213 -0.0647813101714405
0006f0 2f 9a 6e b7 8f 10 a8 bf be 1e bd 1f 44 73 7c 3f
       -0.04700135339890143 0.0069458638279866185
000700 2a cd f4 dc cd e5 82 bf c3 84 0a 42 29 ac 60 bf
       -0.009227379136609832 -0.002035217840174215
000710 7a 8a e4 55 b8 8d ce bf 22 1b 28 86 8e 12 b8 3f
       -0.23869995302182528 0.09403315329846554
000720 f3 0e 18 31 67 25 cc bf 23 ef 06 23 4b e1 7e 3f
       -0.21989145180861377 0.007539075377674983
000730 58 56 90 0a 0e 1c 74 3f 4b 9f ab 23 f8 99 8d 3f
       0.00490956768864733 0.014453829372953605
000740 c3 d4 f8 8d 28 cb c3 3f c7 79 6e 45 e7 31 b2 bf
       0.15463740284181968 -0.07107396550279708
000750 00 83 01 48 75 7f b9 bf 97 4b 71 a8 d7 fc a3 3f
       -0.09960110671955746 0.03903840953048315
000760 f1 b1 b7 83 3f 2a 82 bf 9d c4 46 17 75 02 a3 3f
       -0.008869644362641234 0.03712812337051583
000770 4f 0b 7d 02 54 f8 a8 3f 98 b0 fa 84 16 cc b5 3f
       0.04876959352852472 0.08514538523258108
000780 83 ba a0 f8 33 38 ca bf cd f8 71 ae c2 e0 b3 3f
       -0.2048401798251299 0.07764832266727524
000790 2d d8 da 4e fd 81 99 bf e3 7c b4 44 55 1c c1 bf
       -0.024909933031004684 -0.13367715697038482
0007a0 b1 32 6e 18 f2 8c ba 3f df 06 40 00 3f 6c 9b 3f
       0.1037131604809456 0.02678011359240073
0007b0 c4 ff 6b 23 b8 32 b7 bf 5a 8c 8a a5 94 12 ac 3f
       -0.0906176649550608 0.05482925911680843
0007c0 ce c7 04 6c 29 06 a3 bf ee 62 eb b7 ac fd 63 bf
       -0.03715638583743407 -0.002440297451681387
0007d0 15 44 ce 2a 3c 86 7a 3f f3 6a a3 67 1f 1a be 3f
       0.006475672748721646 0.11758610038979693
0007e0 6c 90 f5 cf 04 48 8f 3f 34 fe 16 19 fb 2f a7 3f
       0.015274083706295204 0.045287939846727104
0007f0 33 bb b6 d2 dc d7 94 bf 5c b4 d5 a9 35 a8 9e 3f
       -0.02035470043272909 0.029938543787853752

fc2.bias f8 [100]
000000 60 09 67 d9 69 ec e7 3f b8 b8 87 69 e4 8b a0 3f
       0.7476090665952988 0.032317293054675955
000010 72 a1 2b 29 dc 1d e8 bf 70 07 60 a1 a6 a0 e4 3f
       -0.7536450199232105 0.6446107055528341
000020 90 c2 53 23 10 56 70 bf 30 4e 3c 09 56 be e5 3f
       -0.003988326109933951 0.6794843845731915
000030 e3 6e e4 fe fb 5e e6 3f 95 e8 c2 0e 36 05 e7 3f
       0.6990947702756468 0.7193861282642212
000040 d6 fc 1a d7 d5 0d e6 3f ec 37 5d e9 a8 a3 e3 3f
       0.6891888810422653 0.6137280042546513
000050 b1 1c 6f 39 93 82 c9 3f 55 40 f2 ba 9e 67 e4 3f
       0.19929733566661903 0.637648930673104
000060 61 73 7d 73 95 de e7 3f 00 4b f8 07 77 23 da 3f
       0.7459208732285384 0.40841460970220567
000070 f1 54 74 de 7c 57 e7 3f 55 b4 cb 07 61 44 e8 3f
       0.7294296593487656 0.7583470489750065
000080 72 33 6c e6 c0 35 c3 3f b8 18 fb 95 6e f6 e3 3f
       0.15007792712313123 0.6238320283234975
000090 d0 1c 06 63 c4 03 e2 3f 25 0a 77 91 3d 01 e6 3f
       0.5629598554668522 0.6876514283288243
0000a0 7c 37 fe e0 37 fd e7 3f c3 0d b4 2a 7f be e8 3f
       0.7496604341883848 0.7732539972352516
0000b0 57 36 0f e5 cc f1 7a 3f c1 a4 12 70 c9 58 e1 3f
       0.006578255052728097 0.5420882405207054
0000c0 87 49 09 43 22 71 e8 3f 8d 7c e2 7f 81 e4 e7 3f
       0.7638102826406773 0.7466437814472485
0000d0 cd ad a8 2a 87 8b e6 3f d5 c4 27 ab e9 b5 e4 3f
       0.7045322259122543 0.6472061484220385
0000e0 93 e5 0c 23 bb ee a8 bf a9 1c 56 34 4e 56 e4 bf
       -0.04869637301312504 -0.6355353376574345
0000f0 2f f8 a2 b6 d1 50 e6 3f 82 b1 be 69 42 72 e6 3f
       0.6973656241532405 0.7014476838426591
000100 2d 4a b0 d8 8f 3b e6 bf 15 a4 96 d2 6c 27 e7 3f
       -0.694770739765152 0.7235626328521244
000110 94 f7 ce fc 0e 48 e7 3f 1e 10 b4 ce 73 d3 e3 3f
       0.7275462091126763 0.6195620572257245
000120 ce 91 c9 2d b4 ba a1 bf b7 d5 d2 81 58 b8 e6 3f
       -0.034627562131194986 0.7100031409851714
000130 82 6d 85 51 51 01 e9 3f c2 b2 3c 2e 96 17 8a 3f
       0.7814108459673863 0.012740300451321022
000140 69 de 55 6e 40 01 e3 3f 0b 0c 83 6b 81 de e8 3f
       0.5939027934063691 0.7771613216249319
000150 f6 d9 2d be be 89 e8 3f 2d ee 5f fa 2d a6 de 3f
       0.7668145861087499 0.4788927979531959
000160 93 8a f8 95 a6 30 c7 3f 7f a5 05 87 42 02 e7 3f
       0.18117220232769124 0.71902586337562
000170 68 62 50 46 bb 3c e7 3f 80 c5 a9 83 b9 70 e3 3f
       0.7261635182686179 0.6075103351160323
000180 43 cc f8 55 14 e9 e6 3f 95 76 3f 71 76 ad e4 3f
       0.7159520796907447 0.6461746417878255
000190 81 54 0f ae 06 85 c2 bf 98 d3 c9 09 09 42 e6 3f
       -0.14468463419931157 0.6955609503917115
0001a0 7d 5a 96 fb af c4 e7 3f 01 15 ca 79 91 f7 b6 bf
       0.7427596963705835 -0.08971509192823036
0001b0 65 73 df ca d1 0d e5 3f 60 7f a4 28 39 65 e5 3f
       0.6579369509087029 0.6686063569832008
0001c0 55 95 7d a0 58 37 e6 3f c8 f3 12 37 e2 00 79 bf
       0.6942561277943847 -0.006104358342040102
0001d0 21 28 b6 0a be 77 e6 3f 48 19 82 54 18 b7 e5 3f
       0.7021169861993749 0.6786004686880824
0001e0 8b b9 be 14 ea 03 e6 3f f5 ba 8c de 7b 04 b8 bf
       0.6879778294731279 -0.09381841834395373
0001f0 99 e2 50 8b a7 8b e9 3f e0 31 c9 40 78 91 e8 3f
       0.7982976647391126 0.7677575364446589
000200 c7 8a 10 1d ef 64 b7 bf 1f b7 f2 37 c9 7d d9 3f
       -0.09138388118348494 0.3983023687713842
000210 a0 c9 d6 0e e3 b8 de 3f 80 1d be 10 c6 34 e8 3f
       0.4800346035873648 0.756442101192917
000220 b4 14 ab 39 96 e3 e7 bf de 74 f6 8d 09 68 e0 3f
       -0.7465315939267811 0.512699868460597
000230 c0 0a 9c 7b c5 3b e8 3f 1e dd e5 3a 45 bf df 3f
       0.7572963155983743 0.49604922057865675
000240 9f 8f 29 2d 0a 04 e3 bf 6c 84 c5 8f 5a 7c da 3f
       -0.59424313374301 0.41383995094481096
000250 a9 4a 0b 86 80 68 ba 3f d7 93 e0 80 99 bc 92 3f
       0.10315707466660719 0.018297575465243767
000260 ef 39 67 42 08 46 b2 bf 42 f7 5c 35 ec 31 e5 3f
       -0.07138110753223946 0.6623440782784444
000270 12 a5 d6 00 21 21 e7 3f d0 be c7 2b cb f6 e6 3f
       0.7227940575004672 0.7176261763651954
000280 7a 67 7a 24 13 80 e0 bf db 7b e4 38 7a 69 d8 3f
       -0.515634127851839 0.38143783145818383
000290 cc a6 9b 54 8c c4 e4 3f 91 57 46 f0 45 08 e8 3f
       0.648992696046855 0.7510099118105577
0002a0 fe b8 b4 b2 4f 8e d1 3f 74 59 3c ec 98 52 e9 3f
       0.2743109936881324 0.791332684896402
0002b0 62 db 76 ef af 18 e7 3f 4c 6d 86 05 ca d4 e3 3f
       0.7217635800396744 0.6197252376472675
0002c0 f0 9c bf e3 09 d0 e6 3f ae 01 11 de 64 23 e9 3f
       0.712895340749041 0.7855705582842825
0002d0 60 28 6f a6 f5 f1 e6 bf d7 67 ae 02 6c 4f e5 3f
       -0.7170360804241334 0.6659450580948442
0002e0 8e 16 78 5d 9c 17 e5 3f 7f 43 88 e5 ca f9 e4 3f
       0.6591321778839345 0.6554922564556448
0002f0 95 7f a7 e5 97 98 e8 3f 1d 56 7e c0 cf e0 df 3f
       0.7686271176753389 0.4980964069194174
000300 93 8d 2a ec bd a6 a7 3f 12 1c 46 7a 47 0d e8 3f
       0.0461940146244856 0.7516209972535555
000310 13 39 80 8c 78 81 e7 3f e4 0d 51 ae 18 1f e6 3f
       0.73455455247475 0.6912959484693002
