weights/numq/nyse/correlation/high/numq_2.pt (torch, 526847 bytes, 8 tensors)

fc1.weight f8 [200, 200]
0	0xbf910c214afd61c2	-0.01664783497048617
1	0xbfb25ed725b7e37c	-0.07175964995248124
2	0xbfb6b7a7464bb151	-0.0887398287411021
3	0x3fadefdb403b4f7d	0.058470584479123545
4	0x3f56c25f7cc0eda6	0.00138911557134134
5	0x3f99b0ff7adcb265	0.025089256166369717
6	0xbfa137b7c3cd74ee	-0.03362821831863437
7	0xbf97fc84f2a240a0	-0.023424222287360963
8	0x3fb67120a29df559	0.0876636883749219
9	0x3fab5c65b0fb7d63	0.053439309934897115
10	0xbfb0ae191550db29	-0.06515652437597609
11	0x3f730345e184be2f	0.0046417932247062995
12	0xbfb72c8d865f4313	-0.09052357225960987
13	0xbfadb281f20a7952	-0.058002529903421376
14	0xbfafc21e79d38a9b	-0.062027885791185976
15	0xbfabe361a1d2e422	-0.05446915722263436
16	0xbfb0018b312ba573	-0.06252355528308388
17	0x3f786dc2c2bd4169	0.005964051040635667
18	0xbfb8ed831af1cfcb	-0.09737414748980126
19	0x3f54129c4422b8eb	0.001225140193621461
20	0x3fb2a9ed66b48762	0.07290538556528994
21	0x3fa6d8d0fd28fcac	0.04462292757352179
22	0x3fa0c95e0ecc8a30	0.03278631144191413
23	0xbfa3f5b890cc004c	-0.038984077144050916
24	0xbfaab3f56c7a2754	-0.05215422581848253
25	0x3fb008f1274d1071	0.06263644418237548
26	0xbf92a8a2e47f914c	-0.018221421429090598
27	0x3fb4bbede6c9f7b9	0.08099257359023583
28	0xbfb01aabd6ff4951	-0.06290697096782095
29	0x3f93071e2e0ec76e	0.018581840096607953
30	0xbf8318f10350b7cc	-0.00932491580359942
31	0xbf9b01474a640759	-0.02637206450982119
32	0xbfb89e3cc5bb065d	-0.09616451098829644
33	0x3f803f3fbb289416	0.007933137797474326
34	0x3f98a7becabf2084	0.024077397465390962
35	0x3f9365674cac5836	0.01894151120639994
36	0x3fae2af9ec46d5d5	0.058921632854815144
37	0x3f9453b55b3acac2	0.019850572293487863
38	0x3f80ab85484f77bd	0.008139649647940556
39	0x3fbb091d587576b2	0.1056078282321902
40	0xbf97db5b083a9c7f	-0.023297712685828472
41	0x3faab8e94b67b581	0.05219201131317686
42	0x3f6cb852631dc171	0.0035058602451771216
43	0xbfa31de4862f5b26	-0.03733743799209881
44	0x3fb07becfe9666ed	0.06439095702662785
45	0x3fbe00d0a39650bc	0.11719993585421923
46	0x3fb3a643999f7afc	0.07675573826371002
47	0x3fb1a0a0f4d5f693	0.0688572499984395
48	0x3fb4fa00c84876de	0.08193974389765965
49	0xbf74013eb4183ebd	-0.004883999763037825
50	0xbfb485538a4d8649	-0.08015939833196585
51	0x3f8dd0a759010571	0.0145581316029417
52	0xbf95768436c8da4c	-0.02095991691950365
53	0x3faec92b956b0429	0.06012855719519223
54	0x3f9e4f0dfa6b42f8	0.029598444375383587
55	0xbfb354d12d107978	-0.07551295614437048
56	0x3fb474f1cf53e3cc	0.07990943252288146
57	0xbf9a7c74c3d7a2a6	-0.025865387395159666
58	0xbf73566bcb70748e	-0.0047210894327040075
59	0x3fb0ea2f9ce4c7ff	0.06607339458858517
60	0xbf4c1851f7df03d0	-0.0008573913798884895
61	0x3f7607469228580c	0.0053780323674086465
62	0xbf879aae52d1c188	-0.011525499250837581
63	0x3f8d4e67f38d8aca	0.014309703941483138
64	0xbf6428990b59ff0f	-0.0024607648036293404
65	0x3fb187472351264c	0.06847042667609421
66	0x3fb3198fa44ec3d2	0.07460878144662722
67	0x3fad99b728a951bb	0.057813380921888556
68	0xbf7472bf47eb9bcd	-0.004992243949096098
69	0xbf934698e46ec87e	-0.01882399458163108
70	0x3fb30cdcedfb7843	0.07441502390017356
71	0xbf7a425b75fd74fc	-0.006410939473281415
72	0x3fa9e36a14b4dbbc	0.05056315901531813
73	0x3fb151592b5b3981	0.0676475268221335
74	0x3fa1d2b27acadc6c	0.034810616959867285
75	0x3faa4a233b46d16d	0.05134687517730439
76	0x3fb005d3db25b5de	0.0625889215495685
77	0xbf9eaf0a4684c9d1	-0.02996460013782515
78	0x3f923a81dc2cc566	0.017801312507065424
79	0x3fab45ad83c39a9a	0.05326597436378684
80	0x3fbe930c271e0d5b	0.1194312663556522
81	0x3fb69b9035b7027e	0.08831120788000565
82	0xbfa916c6fa9b6074	-0.049001901714007895
83	0x3f93b5a7aef3dbc7	0.0192476463825775
84	0x3f8751930a23328f	0.011386059519645357
85	0x3fa2d15f6357e232	0.036753636242739765
86	0xbfa6e33c939904d7	-0.04470242788057426
87	0x3fa83931a2737997	0.047311354713872315
88	0x3f837a9c39f42157	0.009511204260448975
89	0x3fabd7df644f4a5a	0.054381352419700504
90	0x3fb14a6d89f5bba0	0.06754192941819648
91	0xbfa4a058ea5be9a5	-0.04028585301235247
92	0x3fac9a2b521e8023	0.0558637178176016
93	0xbfbd3b696e6c0df7	-0.11418780275203476
94	0x3fc4dfe4f0c4fa82	0.16308271175690342
95	0xbf97bc44966d8567	-0.023179122620950034
96	0x3fa5095085cfd549	0.04108668931432164
97	0xbf9421fc653d1ddc	-0.01966089599525654
98	0x3fbf6add5991fbbf	0.12272437512181876
99	0x3f9415cea6c7e4e5	0.01961443798970643
100	0x3fa11151757edea5	0.03333525237343097
101	0x3fa721c71688c64d	0.045179578305021374
102	0x3faae4f76179453f	0.05252812447418841
103	0xbf9f07d0bbd8ff44	-0.03030325075655972
104	0xbfa930a4374d85d6	-0.04919922995646757
105	0x3fb971235ffc6328	0.09938260167508572
106	0x3f8c232e8289971b	0.013738978727996056
107	0x3fb8d899c7ead983	0.09705506449504324
108	0x3fa0023383989b22	0.0312667940273086
109	0x3f98fddb94131b77	0.024405890381582886
110	0x3fb020bcc54f67c4	0.0629995328630733
111	0x3f96bfb755e6f572	0.02221571409039797
112	0xbfa464adffe5ff0f	-0.039830625045395356
113	0xbfa296d53e1bfed0	-0.03630701430483685
114	0x3f9c8eca2edc57f6	0.027888449773932643
115	0x3fa3b429dbe36f1f	0.038483913509223415
116	0x3fa0cc0003193c97	0.03280639684509728
117	0xbfb420e837581d08	-0.07862712241341197
118	0xbfb14448edc7a6ba	-0.06744819455311815
119	0x3fb0ba8a7838950d	0.06534638819774248
120	0xbf600b9f30fe8cc0	-0.001958666725799668
121	0x3fa28c86ad673624	0.03622837893236078
122	0xbfb236a52a50949b	-0.0711463192279375
123	0xbfb208f852d57aff	-0.07044937155067642
124	0x3fa4df0bce48a31d	0.04076420682060287
125	0x3f9258883920ed4a	0.017915848242620748
126	0xbf9a68b199b6883e	-0.025789999968431447
127	0xbfaefd5ae654eb5e	-0.060526695839562036
128	0x3f905ad6664c6a1f	0.0159715175569578
129	0x3fa35e0649d8e584	0.03782672549682345
130	0x3fb7c85ad630cdec	0.09290092210067485
131	0x3f428038ce7d15f1	0.0005646016479451938
132	0x3fc006709008de64	0.12519652398053716
133	0xbf8a523ae451da1f	-0.01285215386654409
134	0xbfb1a58657f1ba50	-0.06893195769382854
135	0xbf9c42ab76710496	-0.027598075012296684
136	0x3fa67246289349ef	0.043840591862721705
137	0xbfaa185f0e8d066e	-0.050967188383322135
138	0xbfc16e61575fa114	-0.13618103758131694
139	0x3fb5b2a73dfe293b	0.08475728286262989
140	0x3f95a6a2437acb4b	0.021143470162040583
141	0x3fa9efc813140b62	0.05065751297845257
142	0xbfa15d0d8ad4440a	-0.033913062283439
143	0xbf9b180f118b38ba	-0.026458964772978467
144	0xbf9d8e07c411d87c	-0.028862115232606275
145	0x3fa3395e2279328a	0.03754705591982084
146	0xbfa5c8d60dd879e1	-0.04254788321508208
147	0x3f92933b15446bed	0.01813976590447546
148	0x3fab0b1c698612a2	0.05281914508944864
149	0xbf9a819e10ef42cf	-0.025885076316458474
150	0x3fb3b68704c86f3d	0.07700389735003639
151	0x3fb47e7de59e2281	0.08005511146451207
152	0xbfa607ffc58dda78	-0.04302977835225347
153	0x3fa3a284c0e11ad1	0.038349293274725256
154	0x3fbd23a0daae8031	0.11382489527613938
155	0x3fa8799f95266c0d	0.04780291267089618
156	0x3fab43215578b5b8	0.05324653786042738
157	0x3fabfa85f1087d2e	0.054645715401642966
158	0x3fb39f9fd99a2584	0.07665442526390193
159	0x3f8b61356d06022b	0.013369004621155053
160	0x3fb0baa6b404469f	0.06534807105006245
161	0x3fa70b473e97f574	0.04500792159158609
162	0x3fb18ffaaba9f70f	0.06860319796575375
163	0x3fa6f158fe2c9b05	0.044810086276177365
164	0xbfb149dbb4a2d0ac	-0.06753323707636366
165	0x3faa32ee9b4731cd	0.05116983075604118
166	0xbf9cf359383468c5	-0.028272050910438624
167	0xbfa7113a6bc49be6	-0.045053315787576584
168	0x3fbbeae906f1ac8e	0.10905319613964279
169	0xbfa2da098f59299e	-0.03681974291665145
170	0x3fb22277147778d8	0.07083839654612534
171	0x3fc2ea81fc4d9392	0.1477816087673572
172	0x3fb0416213cbcb79	0.06349766715338302
173	0xbfa977ad31060822	-0.04974118445808552
174	0x3f7f8f41acf7242d	0.00770497946309327
175	0x3fbd6b44a4f06be1	0.11491803194841978
176	0x3f95b9d78bbbef4f	0.021216743377393595
177	0xbfa933eb391261f8	-0.04922423431088768
178	0x3fb120f950035796	0.06690939143604022
179	0xbf975ccc5af5d967	-0.02281493477991017
180	0xbfa1680615bb8c36	-0.033996763375192904
181	0x3fa6c1f99ccd75c2	0.04444866217702838
182	0x3fbc29ca70b81b22	0.11001267673428264
183	0xbfa4fcd4ffb9ed83	-0.04099145528467842
184	0x3fb697a2ee1a7e00	0.08825128853867881
185	0x3fa50cb16ab87ec4	0.04111246516936043
186	0x3fb6718db69b4c88	0.08767018993539655
187	0x3fa0b3663fa3606b	0.03261870886643766
188	0x3fbaa5ed52a93899	0.10409434574214273
189	0xbfb671d67bede504	-0.08767452741257747
190	0xbf98e9c9d1c645f0	-0.024329331806773824
191	0xbf6ce4c01d5d34a6	-0.0035270454635907998
192	0x3f96327da742687d	0.02167698224420932
193	0x3f9d69b85a51eeca	0.02872360278386913
194	0x3f9cf467f8278d52	0.028276085396908464
195	0xbf7978561b15a19a	-0.0062182773120657234
196	0xbf1d5fbe69b177f1	-0.00011205291450397372
197	0x3fb3471adcda839e	0.07530372516568071
198	0x3fb2fd539933d966	0.07417795648857392
199	0x3fa1a047cf22f70c	0.0344259682037614
200	0xbfb7c04deff1c446	-0.09277808292405706
201	0x3fa708cfdda5a13d	0.044989105040090106
202	0xbfb8c3342205eb54	-0.09672857123034123
203	0xbfbd4272b114e01c	-0.11429516623763941
204	0x3fc12b4c9e7693b1	0.13413388955555441
205	0xbf9af8865d1cc35e	-0.026338672097327424
206	0x3fa76a927e82335c	0.04573495668692004
207	0x3f863b51678bff88	0.010855327579974774
208	0xbf7915858c245c41	-0.006124040288589206
209	0xbf9d0de57416ac96	-0.02837332268761069
210	0xbf9d3850aea8617c	-0.028535137806188868
211	0x3f7fcbd4afa24a80	0.007762747578584084
212	0x3f802422d8e27c26	0.007881424182697282
213	0x3fad6e97f40c9ed8	0.0574843869601957
214	0xbfb4b862b723622f	-0.08093850108287691
215	0x3f9e420ca3416e61	0.02954883333619163
216	0xbfa2b71ce02eaa48	-0.03655328976249855
217	0x3fb1fab1a6830469	0.07023153605679656
218	0xbf81ef8bc8cbc1c5	-0.00875767904787573
219	0xbfc1f07c02a4e1ee	-0.14015150193314646
220	0xbfa991923ac051b0	-0.04993874518564512
221	0xbfa35f6ebddf0df7	-0.03783746783986069
222	0x3fbc0bcf89edeb31	0.10955521695534
223	0xbfacbe66e9ed0c7a	-0.056140152030388316
224	0x3fa2159ba4159bdb	0.03532110574706567
225	0xbf9069fbc1663bd0	-0.016029294661674076
226	0xbfb0d87ec3baccb8	-0.06580345419461053
227	0xbf9d6794cbe5f2e2	-0.028715443558655525
228	0x3f84b2195a91a33f	0.010105321957057377
229	0xbf9c6c1827021c40	-0.027756097203134766
230	0xbfacc3c027509982	-0.05618095855634221
231	0xbf96cc33d10f17e2	-0.022263345370241334
232	0xbf893e4a7148011e	-0.012325841505117337
233	0xbfa682bcbffbccc9	-0.04396619647550321
234	0xbfae06f95a657b3a	-0.05864695766898938
235	0xbfa376edc650af55	-0.038016729792018346
236	0xbf8b970e6180613a	-0.013471710539349691
237	0x3faacec8f9ce1a0f	0.05235889481905442
238	0xbf96e6564cb9c53d	-0.022363041336977963
239	0x3fb58b3a16dd3c7c	0.08415568407257185
240	0xbfab7cfb0a3991be	-0.05368790149512702
241	0xbfbf73f27500526f	-0.12286296230770131
242	0xbf961898a194b278	-0.021578202116119688
243	0xbf9f0c0b9ca08715	-0.0303193868968555
244	0xbf8ad65ae14dbd69	-0.013104162216875452
245	0x3fa3517355729ff2	0.03773079317153351
246	0x3fb261122af0d836	0.07179368542060235
247	0xbf730f8c3a12a17f	-0.0046534993754580025
248	0x3f9be70878a30ab6	0.027248508799639658
249	0x3fb6a1f6401bff3a	0.08840884270830154
250	0xbf874fccb91d0b01	-0.0113826745979444
251	0x3fa4f288599a83f2	0.04091287702363634
252	0x3f85bb8c35779320	0.010611625081716591
253	0x3faf2cc31dbc070d	0.06088838327378996
254	0x3f924898e6a6b194	0.017855061605290226
255	0x3fb703390b3ddebc	0.08989292644934727

fc1.bias f8 [200]
0	0x3fd42ae649139f20	0.3151183808936242
1	0x3fd4293d51f4c424	0.3150170612671579
2	0x3fd76214aea7215f	0.3653613763422267
3	0x3fab5beda01858ee	0.05343573169027303
4	0x3fd861da8c0dfef8	0.38097251584257164
5	0x3fc48ccea319b51b	0.16054709400069886
6	0x3fd3b4d9504f8031	0.30791313975169304
7	0x3fd1ffe6a067d59d	0.28124395050630274
8	0x3fcf0db8cfbaafd3	0.24260625975637015
9	0xbfa6f25e808fb00d	-0.04481787986136974
10	0x3fd1f471b36712a5	0.2805446865061561
11	0x3fcb0fdf293be483	0.21142186654450165
12	0x3fcef70677df44aa	0.24191361287242802
13	0x3fcfee3f69bc57eb	0.24945824301602157
14	0xbf93e0eed1ac0218	-0.0194127383683754
15	0x3fd36546d5deb13e	0.30305643926364556
16	0x3fc4fcdb05f112eb	0.16396653928872892
17	0x3fc9f4dcbee4f6fe	0.20278510399833033
18	0x3fc39c955f4e8ca8	0.15321604875234596
19	0x3fd55a456d1d63a2	0.3336347165655359
20	0x3fd5e68e017b4331	0.34219694275548124
21	0x3fd2f4c7c95b9931	0.29619021095131176
22	0x3fd4f60a1558dcc5	0.32751705250434454
23	0x3fd7c256931c788f	0.37123646131829785
24	0x3fc648b0d5be6cdf	0.1740933459921967
25	0x3fc7e222d0989905	0.18658862290721615
26	0x3fcab91aa6ed830b	0.20877392912645862
27	0x3fd48ce219cd5e00	0.3210988285040628
28	0x3fc74b1e573cfc57	0.18197993526152587
29	0x3fcdc638c57be761	0.23261174814961819
30	0x3fd9f58cfb612e1d	0.4056122259978297
31	0x3fcd4917d7e53048	0.22879312555085307
32	0x3fd2731bc7de00ff	0.28827566641122354
33	0x3fca3ccc48a7df9a	0.20498040721554106
34	0x3fc491a9e02d46ec	0.1606952995885459
35	0x3fccef7aec548ed2	0.2260583547550739
36	0x3fcf58921735c488	0.2448904622392869
37	0x3fb586270108dd1b	0.08407825255641337
38	0x3fd7769b7214ac7a	0.36661420956324486
39	0x3fd476d5e1a47f96	0.31975314174086955
40	0xbfbf472c77db6488	-0.12217977453419071
41	0x3fdab4043cd8e796	0.41723733846776534
42	0x3fcf999a254092e0	0.24687506503064238
43	0x3fbb22990ab609ea	0.10599667083264533
44	0x3fc21ce4613e97f0	0.14150671718851937
45	0x3fd06fbea4c98186	0.2568203553437559
46	0x3fa583289a24c655	0.04201628572117203
47	0x3fc5bcc0a18ef73b	0.16982276810261418
48	0x3fc48b23744e2391	0.1604961698433525
49	0x3fc65734c35bd9b6	0.17453631915095763
50	0x3fd01c02e53a125d	0.2517096746962915
51	0x3fcdcb8718df4ac3	0.2327736731955011
52	0xbf7016773e245a7b	-0.003927675048791652
53	0x3fa7b05a1a66a711	0.04626733371999426
54	0x3fc82184b0b9ed95	0.18852289799893343
55	0x3fc798e428a11d10	0.18435337051253287
56	0xbfbb81e6feea1abf	-0.10745090220926111
57	0x3fc25b75a50c5b3f	0.14341612395284106
58	0x3fc6692fa8090a94	0.17508502678727622
59	0xbfb99046608d4c6e	-0.09985771043038635
60	0x3fc33fb46f39eae6	0.15038161688774848
61	0x3fd6162d4f29e8a3	0.34510357600050606
62	0x3fd8408dd9b0aac0	0.3789400697593628
63	0x3fc3e989f4b5be71	0.1555645413277378
64	0x3fbdc6ec13e7895a	0.11631656156490547
65	0x3fbbce924948d57e	0.10862077988789129
66	0x3fd99f2fb66f169c	0.4003409654218133
67	0x3fd4afd840b3b2be	0.323232711015219
68	0x3fccd78890e437da	0.2253275592306057
69	0x3fc71cabcad22d68	0.18056247142190363
70	0x3fc175ee70a3ecdb	0.1364114809037805
71	0x3fd061f86c0d1fca	0.2559796385944507
72	0x3fc8474b875c32a0	0.18967575177557183
73	0x3fd5350b2ab4ea04	0.33136252565933
74	0x3fc814ec5bb0d154	0.18813852765164063
75	0x3fd02e03557d5769	0.25280841206164567
76	0x3fc4a3f536cb9369	0.16125359702632672
77	0x3fd20c45051b9c9f	0.28199887751402203
78	0x3fd6fd0d1d7cf775	0.35919502143575893
79	0x3fc8ee2fbd809823	0.19476887467425383
80	0x3fdb18ab0af5bce6	0.42338062353424133
81	0x3fbc05c1a5b2026b	0.109462836220709
82	0x3fd6ab5b77e45da2	0.3542088194676244
83	0x3fc07c5c777361fe	0.12879520256571192
84	0x3fc883eeacc97d72	0.19152625500553772
85	0x3fd0157822d3b2a4	0.2513103809458619
86	0x3fab4c1c08c3a4ac	0.05331504446969268
87	0xbf99091f47c65083	-0.024448860889223056
88	0xbf7e57690650fcf8	-0.0074075796629238175
89	0x3fd84ba6e6d1101a	0.3796174291676394
90	0x3fc4ee174e83bc82	0.16351596196861712
91	0x3fd41daa6b6167bf	0.314310650695571
92	0x3fd400054211b1c9	0.31250125362455755
93	0x3fd9ae949bcad026	0.4012805482300358
94	0x3fc9ec06ca3a173f	0.2025154578624839
95	0x3fc5c32893eb58b8	0.17001826498625916
96	0x3fc155274bdb8a54	0.1354111786268556
97	0x3fc89be4b7c1e594	0.19225748989610436
98	0x3fc0c630e23aeb77	0.13104830786127383
99	0x3fc43faa96a61027	0.15819294315235874
100	0x3fd526fcbf626916	0.33050459566006063
101	0x3fc3d4b6fd7e5ea2	0.154929040695369
102	0x3f934bd218489189	0.01884392045225661
103	0x3fca03d58a306897	0.2032420086623616
104	0x3fc1a10c6b05b047	0.13772731042570482
105	0x3fd0ee828073da6d	0.26455748123354433
106	0x3fd3f4ef0db403ed	0.3118245729274907
107	0x3fd0d6a272504d2b	0.2631002537102229
108	0x3fd27ee170f5eca5	0.28899417907059394
109	0x3fb902ed4b4848d5	0.09770091140697741
110	0x3fd02fc397e2431c	0.25291528541952046
111	0x3fcacb53d8ef8626	0.20933006374893742
112	0x3fd112c29be30b08	0.2667700311978227
113	0x3fbfda627311f669	0.12442603406267384
114	0x3fcb3d721c9be854	0.21281267544674398
115	0x3fce75261e56552f	0.2379501007205049
116	0x3fc05075cb2dc8b3	0.12745544834939934
117	0x3fd4091cd624702b	0.31305619156205705
118	0x3fd549b168cd5c3d	0.3326228640993952
119	0x3fbe9e9196cbd79f	0.11960706645535744
120	0x3fd554ca6e8cd325	0.3333002166357793
121	0x3fc5bc7ff1a33d3e	0.16981505678857362
122	0xbfbb84eebb681cbf	-0.10749713969572648
123	0x3fd75812c77aecc5	0.3647505710648143
124	0xbfc8a87e54e7134a	-0.19264201303135514
125	0x3fce31e0434b845c	0.2358970955456553
126	0x3fc9cc80a43a88f3	0.2015534212014881
127	0xbfc28069e6db56b3	-0.14454387447647363
128	0x3fcb09c73fa1306c	0.21123591048160806
129	0x3fbade4a4c47a7f1	0.10495437967588807
130	0x3fd7b3a2df4608f5	0.3703391247182844
131	0x3fc7b0f8e742875a	0.185088265342581
132	0x3fd13a645f07ace0	0.2691889694239773
133	0x3fcda0e95432dee0	0.23147312747254656
134	0x3f906fda85a6bbff	0.01605168762915454
135	0x3fd39c3242158f02	0.3064084668496748
136	0x3fc2227bfc4a14ef	0.1416773778802631
137	0x3fdaeb203001b0ba	0.42060093582291425
138	0x3fd34ee2d71ac6e3	0.3016898251181443
139	0x3fca5c9a7b9fe2d0	0.20595103298526007
140	0x3fc4e15d7e1a65fe	0.16312760026339385
141	0x3fd48e05536d348f	0.3211682619774558
142	0x3fc01b6dc51b5b31	0.1258370602069703
143	0x3fd6c0533e5cc8e8	0.35548859682161416
144	0x3fd924a99b1f626a	0.3928627028340431
145	0x3fc4717ef235840e	0.15971361948598467
146	0x3fd3a7e4f65dbefa	0.3071224599761845
147	0x3fd2f37b1b5962df	0.29611089392487416
148	0x3fd760cf0c9fadce	0.36528373940265346
149	0x3fd0968431fed80a	0.2591867912518643
150	0x3fd0231b0fe02c75	0.2521426825557634
151	0x3fbb8513ed113a09	0.10749935663009337
152	0xbf9dd81848f466e5	-0.029144648983765804
153	0x3fd1ede264ecf50b	0.2801443086244297
154	0x3fd0a810b3b595f2	0.2602578883146115
155	0x3fcd79dbada20622	0.23028131464165918
156	0x3fd9e27629c0935d	0.40444711758964563
157	0x3fc15333a7ce59e8	0.1353516167989277
158	0x3fdb011457238c8b	0.4219408846822225
159	0x3fd236573d290c83	0.2845666978138938
160	0x3fcfe44cf465be7c	0.24915468152493137
161	0x3fc9483fbc437677	0.19751736347727775
162	0xbf96a9bfb2eada98	-0.022131915374041883
163	0x3fd3ce2633d5ae26	0.30945735036832145
164	0x3fb256d878430771	0.0716376584632863
165	0x3fa23354af23c71d	0.03554787290512549
166	0x3fd570b44a77ff7d	0.335003922198659
167	0x3fccb266c46fdd74	0.22419437972687783
168	0x3fd3423f9194c782	0.30091847626601276
169	0x3fc565e42aec090e	0.16717197509576248
170	0x3fa4b9753a54f1d1	0.040477431650717606
171	0x3fc33d4bd9ce9066	0.15030811438657848
172	0x3fc9897aa5713d07	0.19950802877654203
173	0x3fb1e86560732f27	0.06995233158812351
174	0x3fd403e9a53df490	0.3127388108912976
175	0x3fda36b9d2460375	0.4095902017070821
176	0x3fcf6c3a8ae34314	0.2454903772509388
177	0x3fdab4f8fb8e2097	0.41729569021163954
178	0x3fd86ea25866e939	0.38175257332808915
179	0x3fcae4d4b073237e	0.2101083623477073
180	0x3fd1a5fcbbf72517	0.2757560573196129
181	0x3fd3d60d6e25256f	0.3099397254596487
182	0x3fc28372c773745b	0.1446364854699905
183	0x3fd8313133d3c23f	0.3780024534344512
184	0x3fd3da7ed8d538cc	0.31021090674483953
185	0x3fb37bc357dc84d9	0.0761072244172455
186	0x3fd6d825e65c82c8	0.3569426297781715
187	0x3fccb18ec79cfd32	0.2241686319993988
188	0x3fd6aacba8b3a033	0.3541745326497249
189	0x3fc8b615eb6dcafb	0.1930568122439452
190	0x3fd386bf8b81ca8a	0.3050993788121238
191	0x3fcb794aabaa818e	0.21463902837878063
192	0x3fc7d5e08b79ad2a	0.18621451196973143
193	0x3fc208cb5c7d130e	0.1408933831791263
194	0x3fc5f846b6385795	0.17163928887810856
195	0x3fd635dafa489e07	0.34703707162631797
196	0x3fd5faa61737114d	0.34342338816738477
197	0x3fd114ba19c260f1	0.26689007297092276
198	0x3fc1a316a2be0e27	0.1377895636215822
199	0x3fb56358c9b831d2	0.08354716229241113

fc2.weight f8 [100, 200]
0	0x3fb338b50e89bf2a	0.07508403401311328
1	0x3f893dbfd170ad5e	0.012324808673006057
2	0xbfa30cc67b16661b	-0.037206842923478166
3	0x3fb3bc74d4dae12b	0.0770943660417102
4	0x3fb95a69225b8335	0.09903580750279846
5	0xbf996a930d7b7f34	-0.02482061166563128
6	0x3fb85dea8ee7daf4	0.0951830481425125
7	0xbf9db4793f5a94cf	-0.029008764735995392
8	0xbf520cce8d76731e	-0.0011016862025378725
9	0x3fb13127603d8151	0.06715627765288913
10	0x3fa284ab9196c4d4	0.0361684432240367
11	0x3fa62f71743a5181	0.04333071273609602
12	0x3f9f5b232d401ebb	0.03062109912573761
13	0xbf9b25b33bb534b6	-0.02651100208213527
14	0xbf4d35917e7fb513	-0.000891395608957931
15	0x3f90d13edca7eacd	0.016423208444374993
16	0xbf8abe23421ff0b4	-0.013057971435039263
17	0x3fb16c06aae9be16	0.06805459664041566
18	0x3fb70e466c5dc357	0.09006157060299579
19	0x3f7538f5bad0ab5b	0.005181274301359585
20	0x3f871a0c3f57cddc	0.011280151064943782
21	0xbf6c418d1a23602e	-0.0034492259884295806
22	0x3fa1b6f00baa6dbd	0.03459882872013107
23	0xbf76cf1d93eee50d	-0.005568614519625881
24	0x3f8d7d7966d86247	0.014399479342544498
25	0x3f6f5a292c205a35	0.0038271717212510444
26	0x3fb28f138a64dc8e	0.0724956715465501
27	0x3f9833de9874c2b1	0.023635366492444635
28	0xbf9442c23ca91ea5	-0.01978591437571588
29	0xbfa1c7111933cea6	-0.03472188408514158
30	0x3f9f3a3682cef9bb	0.03049550221816742
31	0xbf89a76a811b0a24	-0.012526351990691138
32	0x3fa45045b3048c65	0.03967492876315574
33	0x3fb257e4ad35936e	0.07165364483587464
34	0x3fa7f57c6f815fba	0.0467947851290655
35	0x3f9fb8184c14ca95	0.030975703853253284
36	0xbf877e8f76342f73	-0.011471863550944516
37	0xbf77274dc519a13b	-0.005652717388877011
38	0x3fb1ce7472c5bdd6	0.06955650140820721
39	0x3fb13d5fbb1ecdee	0.06734274214141298
40	0x3f728e98fe7ae2bc	0.004530522950226764
41	0x3fb6cdcf8a1579f6	0.08907792206944251
42	0x3fb1014148f09326	0.06642540007358075
43	0x3fa5c5e2b533281d	0.04252537214195249
44	0x3fb16bdf1d05cd36	0.06805223902283761
45	0x3f73925cc6c88d3a	0.004778253944582029
46	0x3f70e1c3e7d218a7	0.004121556526234616
47	0x3fb4543e35d5052a	0.0794104463029909
48	0x3f9abd049e70bd3c	0.02611167161029225
49	0x3fa6c42bf9abe4c0	0.044465421893570944
50	0x3fb50d392d1af614	0.08223302222446477
51	0x3fb71ce75e999769	0.09028478679246423
52	0xbf4453cadea1d288	-0.0006203404020782158
53	0x3f78d88068b6b400	0.006065847013286607
54	0xbf96a0a08d151a96	-0.022097118960369665
55	0x3f7185b70bb5b883	0.004277911207607346
56	0xbfa826781ff094fa	-0.047168496989153
57	0xbf9b59e80c9c969a	-0.026710153360133583
58	0x3faad0ec6d8ddbdd	0.05237521016436351
59	0xbf9adce94081a4b0	-0.02623333412376344
60	0xbfa517123106524e	-0.041191643223247185
61	0x3fad0baa1176e5e4	0.056729616767778684
62	0x3fb7428cfcf95c3c	0.09085923362850762
63	0x3fb3952b6f390253	0.07649489846608874
64	0xbf639b706e5ef0c4	-0.002393455116331907
65	0x3f18816d59c5b671	9.348134921590715e-05
66	0xbf46d6af6af5c97a	-0.0006969791919984446
67	0x3fa12e6c9f9070b6	0.033557314374975375
68	0xbf8b5a01221c7e09	-0.01335526357030316
69	0xbf94bf96a2816b5b	-0.020262101810981075
70	0xbf7f1b9118d08820	-0.007594649109735868
71	0xbf839b10d0e30fe5	-0.009573108076786194
72	0x3fa4b6ec7c7931b4	0.04045809764338362
73	0x3fb989a5f4eeeacf	0.09975659589592144
74	0xbf76d55ae37abb7d	-0.0055745649657826775
75	0xbf6928b8dca3f531	-0.003071175630906219
76	0x3fb0ac7c7ef7439e	0.06513193225624866
77	0x3f92992344803197	0.018162299209551227
78	0xbfa4ea7e35ebbc37	-0.04085153969014537
79	0xbf7a15e1cf998c85	-0.006368524621936382
80	0x3fb557cb3c0d5d69	0.08337087837332081
81	0x3fb0a77ff070f8d8	0.06505584354542593
82	0x3fb24bcbb34a6d20	0.07146905066695242
83	0xbf8f734306dc4799	-0.015356563231339314
84	0x3fb106c25630889f	0.0665093861030379
85	0xbf940ade274cbe09	-0.019572707317989244
86	0xbfa716b3c9aaeffd	-0.04509507977260794
87	0xbf92115a0d530eb7	-0.017644316733607748
88	0x3f98479bc444986a	0.02371066461014274
89	0x3f86b08aab68c4d1	0.011078914028163219
90	0xbf8a7e551ac51e14	-0.01293627250619437
91	0xbf92ce2b97df605f	-0.018364602226796808
92	0x3faf0e8d1eaf5e81	0.06065789222310248
93	0x3fa630cbac56b639	0.04334103087181202
94	0x3fa4c0b92687f11d	0.04053286166524315
95	0x3fa983b76e4f7bd4	0.0498330423504211
96	0x3fa284512f9d53ff	0.03616574960930307
97	0xbf8a55c2fa0aa8d1	-0.012858889823594318
98	0xbf9bf34e099cd1db	-0.027295321785645626
99	0x3fb3e96621a17d26	0.0777801353556141
100	0x3faafe01f99b5675	0.05271917507131444
101	0x3fa77d941ce8c86f	0.04587996342560607
102	0xbf9a0887c40dc23d	-0.025423165646716085
103	0x3f81171d1e64525f	0.008344867219912176
104	0x3fb5854abaed9fd2	0.08406512321164364
105	0xbf905f6a7e498836	-0.015988983114205456
106	0xbf709844e6048977	-0.004051465163032445
107	0x3f967f3907a6e986	0.02196969136432749
108	0x3fb1e37e6a2d58d4	0.06987753002372027
109	0xbfa55fe2491f83f3	-0.04174716131797842
110	0x3fb2ad0b5115dd1d	0.0729529450380721
111	0x3fb4383ce5121c1f	0.07898312180087473
112	0xbf966d39d63bd0bf	-0.02190103883818106
113	0x3fb5c99a59915040	0.08510746657094703
114	0x3f894ec2c7c064ac	0.01235725566953002
115	0xbf9ac98f659d22c2	-0.026159515931143636
116	0xbfa07521c0264de7	-0.032143645005955616
117	0x3fb3940dad46b94e	0.0764778659856564
118	0x3fb44af190a0212b	0.07926854878326554
119	0x3fa6cc39639a676f	0.044526856812082787
120	0x3f801d37466572e3	0.007868224941085916
121	0x3f5ddb630b7602f5	0.001822325442702941
122	0xbfa0bc239d43073c	-0.03268538756084502
123	0x3fa5d6f43341be58	0.04265559316342821
124	0xbf7106ed6e3b7087	-0.004156997168788596
125	0xbf7f1bcf8d7e3218	-0.007594881775628191
126	0xbfa68d78f274f6a6	-0.044048099133289484
127	0x3fb410a55ff175a2	0.07837899772990523
128	0x3f99782ddf6ede34	0.024872509729645567
129	0x3f86fd20334f2183	0.01122498661597216
130	0x3fa4f41d5c602239	0.04092494728690039
131	0x3faefc48c76236f8	0.06051852640039884
132	0x3fa0e96a7e8047ba	0.03303082269861997
133	0x3fa0ae3d287cc4ec	0.0325793373034545
134	0xbf93b92fc97da798	-0.019261118577027142
135	0x3fb752e4243a13f2	0.09110856899685851
136	0x3f7fae113a6db05a	0.007734362886235935
137	0x3fbe604bd5bc305e	0.11865686386244209
138	0xbf95506e2c9b2f15	-0.02081463000540314
139	0x3f8e0811373f601d	0.014663824556848276
140	0x3fb2b4123d871a9d	0.07306016924040155
141	0x3fb5414f69c6e20c	0.08302780468410037
142	0xbf9344d1aa919367	-0.018817211185154472
143	0x3fa1df3adfcb21d4	0.03490623456815781
144	0xbf902cba655ac5e0	-0.015795624195282687
145	0x3fb46151be688f23	0.07960997484820757
146	0xbfa5851c109b3024	-0.04203117087089961
147	0x3fb2d7b32e9eae38	0.07360381973438102
148	0x3fa71133b9f72fb4	0.045053116274714894
149	0x3fb9f06c1244a904	0.10132480093003343
150	0xbfaab12a59f2f916	-0.0521329150010265
151	0x3f9113a2f847848d	0.016676470187921445
152	0xbfa4aea5319324ff	-0.04039493780289582
153	0x3fa095fc86eaedc4	0.03239430567688431
154	0x3f993aeebabcaee8	0.024638872287296915
155	0x3fb72494b378b5cb	0.0904019296801472
156	0x3f8424fa82afc33f	0.009836155999410344
157	0x3fb07f84b0d1c8e3	0.06444577519303922
158	0x3fbdb8a42e16f312	0.11609865308032521
159	0xbf71d05511755272	-0.004349071786539415
160	0xbf98fee404c6c6f8	-0.0244098308482483
161	0x3fae451492939900	0.059120791332860634
162	0x3fb355150d249da0	0.07551700182795296
163	0x3f8d75ee03a6c541	0.014385089384492235
164	0x3fb1bf898dc76f21	0.06932887755777674
165	0xbf975a2339cbcba0	-0.022804785158722418
166	0x3f9bb30fdc729e0f	0.027050254659711167
167	0xbfa3993b9fd3a3e5	-0.03827844930658112
168	0x3fb7011d5b87199d	0.08986075863422234
169	0x3f8b378e9ffb8a5c	0.013289560563355333
170	0xbf8119119f322970	-0.008348596258902247
171	0xbfa09f109c9f705f	-0.0324635688009216
172	0x3f9d9811aba5721c	0.028900409795243318
173	0x3fb231fedd284b29	0.07107537173605451
174	0x3f8b6cf063ec6b5a	0.013391378449843994
175	0x3fac7dcb7cf53b1d	0.055647238734868966
176	0x3fb29178e2da2e97	0.07253222978959638
177	0xbf9f429deb006187	-0.03052756068072562
178	0x3fafc09e94e23c70	0.062016444849285146
179	0x3fad271b51d41fb6	0.056938985575527054
180	0x3f7882645e49b9a8	0.005983726562233484
181	0xbf891c31d537d8ca	-0.012260808295632936
182	0xbf9aae1b202bc847	-0.026054786528171083
183	0xbf91146117289b24	-0.016679303205957244
184	0xbf89fb8e84010cfc	-0.012686837581105774
185	0xbfa05ebbf60c974a	-0.03197276476411888
186	0x3faea829ed2d0e01	0.059876737787387675
187	0xbf6fd3753b223662	-0.0038850106876171945
188	0xbf89156c58d4e06e	-0.012247892819331887
189	0xbf969a527b59429b	-0.022073067453961853
190	0xbf8794f26802ae11	-0.011514562415263748
191	0x3fb26f1bdfa1f82c	0.0720078869798903
192	0x3fb734cf3e4ecc52	0.09064955969988489
193	0x3f9d9b619eb5b9e4	0.028913045226937842
194	0x3fb20d5fcbee0816	0.07051657418017529
195	0xbfa4bcbc6b58322f	-0.04050244150503023
196	0xbf8b3e0bd4bba883	-0.013301937512967271
197	0x3fa2afda038c7e80	0.03649789136238457
198	0x3fb34be7b22652a8	0.07537696933133964
199	0x3fa3631e8b36e5cf	0.037865595334959694
200	0xbfaea649b5d776ba	-0.059862426230876634
201	0xbfc99576951f8da3	-0.19987375527771886
202	0x3f81dbe80db9f9b5	0.008720219534777177
203	0x3fa65d9a3ed95394	0.04368288056563255
204	0x3f868d17ad61cc26	0.011011300066661244
205	0xbfa55f1017d520b0	-0.041740897092098606
206	0xbfa6d9c2f4db2f04	-0.044630138768836175
207	0x3f96bfd5d832f962	0.022216168709513602
208	0x3f7872f1d18e5796	0.005968994716473738
209	0x3fb083d3149fce48	0.0645114827491905
210	0xbfc5231d6a59a1b8	-0.16513412182690757
211	0xbfc0ed82328f99a0	-0.13224818676753802
212	0xbf95b1c6a4f17b5e	-0.021185973946895025
213	0xbf9ee0c4f335042a	-0.0301543019716101
214	0x3f9ba2f790748d2a	0.026988857452250027
215	0x3fa91a565b7f370b	0.04902906290918282
216	0x3fb42e9a1d4cd287	0.07883609023412862
217	0xbfb02f8cafe78466	-0.06322554869213234
218	0xbf787be6f9475cc4	-0.005977537385169988
219	0xbfa1cc52c5c12a37	-0.03476198829647042
220	0xbfaadfb01041e689	-0.052487852081822224
221	0xbfb0ddce6e80764d	-0.06588449666784264
222	0x3f79b27df5e29284	0.006273738892705997
223	0x3fb4a69436815a74	0.08066679316230269
224	0xbf69cf28ae8506bc	-0.003150538879851476
225	0xbfa47995623c134e	-0.03999010872033769
226	0xbfc6784090c322cb	-0.17554480617970677
227	0x3fb7bfea847b01b5	0.09277215704333382
228	0xbfbdac754034bded	-0.11591275041131839
229	0xbf92cc515465d07d	-0.018357535148837634
230	0xbfadfd81d59e9213	-0.05857473118456737
231	0x3f9892f323df922b	0.02399806887105364
232	0x3fb12be2ae6f28ad	0.06707588919303716
233	0xbf95cfb6f33fd545	-0.02130018100429722
234	0xbfa16bdc4f74e363	-0.03402603597573408
235	0x3fb5646639a0306d	0.08356322199705497
236	0x3fb5ba27d1feb683	0.08487175824003583
237	0x3fb3f67667e35936	0.07797946964578703
238	0x3fb0f741f00fb35d	0.06627285109398202
239	0x3f9f768015a01d38	0.03072548038474318
240	0xbfba41992624a8f8	-0.1025634496806197
241	0x3fa9d4120dab2885	0.050446094673660936
242	0xbfbb3e4e485bfe02	-0.10641946093164026
243	0xbfb6caad8745e827	-0.08903011848988794
244	0x3fb94c5d92252694	0.09882149522777645
245	0x3fb16d2f384a5649	0.06807227253224214
246	0xbfb6e85f97e19983	-0.08948323686636254
247	0x3f75169192045743	0.0051484762518805875
248	0x3f64b219d3563127	0.0025263313679656676
249	0x3fa05e775aa31543	0.03197072011384219
250	0xbf90204ce44bd2ea	-0.015748216089337776
251	0x3fbf46f1cc406bf1	0.12217627750980832
252	0x3fad94b02938bea8	0.057775025398197954
253	0xbf886cf5a1b49bb8	-0.011926573750839484
254	0xbf91687795a9aaaa	-0.017000072965326275
255	0x3f740e79d7964348	0.004896617837759028

fc2.bias f8 [100]
0	0x3fdee3d1da5e1ca2	0.4826550133224804
1	0x3fb2785593dc5839	0.07214865550881279
2	0xbfdef3cc1dd6f9d7	-0.4836302081493193
3	0x3fd85ba72b91ba65	0.3805940556984864
4	0x3f85ac3bb17610da	0.01058241496389949
5	0x3fdab3b639ee19a3	0.4172187391017365
6	0x3fdbb9351e36e1ae	0.4331791682302776
7	0x3fdd2ff12b48f8f0	0.4560511515336563
8	0x3fdb7d41ca26c9a8	0.4295200800071606
9	0x3fd6fc8e34a4f3cc	0.3591647638420994
10	0x3fb3d1f830637302	0.07742263013228626
11	0x3fd7da506a6153e7	0.3726998366230973
12	0x3fdecf05ce5bd2b0	0.481385661623146
13	0x3fc6f1821d6d1ccd	0.17924524723841842
14	0x3fddf9f09e7aaf6e	0.4683801219605276
15	0x3fdf99d5160c15c6	0.49376418259666044
16	0x3fc220415994e8f4	0.14160935281854103
17	0x3fd7543e412e15e7	0.3645167957805299
18	0x3fd8e4e7ecfd3fe8	0.38897131103021687
19	0x3fdb2edb071e6ed3	0.42473483748629554
20	0x3fdefc199edb27da	0.484136967785728
21	0x3fe030a38d60746d	0.5059373627915541
22	0xbf88d36a4355e4b5	-0.0121219922827883
23	0x3fd46b81ba6ae8af	0.31906169133038537
24	0x3fdfd59d0a3399f6	0.4974129294991195
25	0x3fdec9e78ba2b0cc	0.48107327114372533
26	0x3fdc292e81359aa7	0.4400135289965114
27	0x3fd8b69def8f1d72	0.3861460532611637
28	0x3fabe0fee6f22cc8	0.0544509560505389
29	0xbfd7c8fdd6ec871b	-0.3716425513140266
30	0x3fdc515ac5f37aa3	0.44246548968468796
31	0x3fdbeb0fdc3f1f96	0.43622204311804447
32	0xbfdb98a85ab763dd	-0.43119248255749004
33	0x3fdd44f2d3575d8e	0.45733328474803947
34	0x3fddb3d5d35424be	0.46410127294127423
35	0x3fd6dd52a21aa83f	0.3572584708259718
36	0xbf9f57e9da26747d	-0.030608800830681283
37	0x3fdc69583b914307	0.4439297277177023
38	0x3fe07329cbab2b22	0.5140580156233663
39	0x3f7e9d6b2d03a6a5	0.007474344878781435
40	0x3fd7808f257aa92c	0.3672216287619843
41	0x3fe05812d0b6eb8b	0.5107511593299575
42	0x3fe00447a0a8b480	0.5005224359389473
43	0x3fd35d01f3fbf7b1	0.3025517351778673
44	0x3fc12b9327460254	0.13414229791307497
45	0x3fdcfc6ad183a9de	0.45290632686979204
46	0x3fdd6acf3e8dc0ca	0.45964413746606836
47	0x3fd685b2931e4c14	0.35191025130296905
48	0x3fdce64043386541	0.4515534073303407
49	0x3fd871369245ded3	0.38190998348680444
50	0x3f9c7916bd15ead5	0.027805667200918222
51	0x3fdba222c8ab40e3	0.43177098843172085
52	0x3fde85a29c647c2b	0.4769064452429485
53	0xbfb66e225202583b	-0.08761801244904259
54	0x3fd915bd371a012b	0.39195185071004585
55	0x3fd9d21c167b18f3	0.40344907946963743
56	0x3fdb99f3705a3567	0.431271419257277
57	0xbf6f5932e34c3be1	-0.003826712980646616
58	0x3fdbf7905120b749	0.43698509142528913
59	0x3fdb668b34dc9b52	0.42813377535133157
60	0x3fdb202e25e36af1	0.42383912754091485
61	0x3fb79b54b752b1d4	0.09221391177806676
62	0x3fe100df8541dfde	0.5313565828973841
63	0x3fe00bfddca71f2d	0.5014638242364292
64	0xbfae0f80701fdbca	-0.05871201866823801
65	0x3fd03ecc1cea24eb	0.2538328440064805
66	0x3fd456a7ee7e4c82	0.3177890614544553
67	0x3fdf6271b0343ca7	0.49038355071474843
68	0xbfdee80280895ee2	-0.4829107527961992
69	0x3fd66091c1a3655d	0.34964412603365763
70	0x3fdf5d00ae807dce	0.49005143204882706
71	0x3fd5e039538fb48e	0.3418105426815793
72	0xbfd64e48baf415d8	-0.34852808243917144
73	0x3fc389b1f1c7b9b4	0.15263962083504412
74	0x3fc090ed49c3aedd	0.12942281820084292
75	0xbfb0eab02113d1d3	-0.06608105475954255
76	0xbfb419370548a197	-0.07850974921223607
77	0x3fd97b7b7ea54dac	0.3981617676519942
78	0x3fdd375aba7150b3	0.45650356490410643
79	0x3fdccc03c3167ce2	0.4499520688204496
80	0xbfd08793026ebad4	-0.25827479589035574
81	0x3fd149188f351ee2	0.27008642182452836
82	0x3fd8b042fb191355	0.3857581569794111
83	0x3fdf159cc2681ea0	0.4856941126349543
84	0x3fc78e8a71aaf674	0.18403749990641283
85	0x3fe0caa20354bf71	0.5247354569491859
86	0x3fdd539aa1477d1d	0.4582277846329406
87	0x3fd780de1c715692	0.3672404554139145
88	0x3fdcb575f88a8bae	0.44857548972702943
89	0x3fe09ed875d13b40	0.5193903256530135
90	0xbfdcf32390a23c2c	-0.45234002231967696
91	0x3fd9b2e642f873bb	0.40154415645684666
92	0x3fd9440b9452e760	0.39477815136671346
93	0x3fd8fc51115ddf77	0.39040018745389865
94	0x3fe013be841942db	0.5024101810505174
95	0x3fd0054e3d662e13	0.25032382961282557
96	0x3fa7a6bdec2a8d93	0.0461940146244856
97	0x3fdf0b55e4a0314b	0.48506686522229775
98	0x3fde12ebf300a754	0.4699048874923524
99	0x3fdb3841a0c90660	0.4253086157005779

fc3.weight f8 [50, 100]
0	0xbfa4ea1b9d27d6b5	-0.04084860127833904
1	0xbfa5eaf8472d8c19	-0.04280830258246499
2	0xbfb65ade3a29bb2f	-0.08732403678889676
3	0xbfb0e2e614f6db0f	-0.06596220027755016
4	0xbf94b4f2e3c39d81	-0.020221514846438197
5	0x3fb5e405f4728f81	0.08551060884434315
6	0x3fb22c77cc61c9e8	0.07099102725786788
7	0xbf9dd1e3d9962e66	-0.029120979457316308
8	0x3fb2b4e33c154981	0.07307262627481316
9	0xbfb3ee0b801f295f	-0.07785102727863123
10	0xbf84d97948906e49	-0.010180423285468214
11	0xbfbc8c0c0938d0c2	-0.11151194787163646
12	0x3fb1c3866af1b59b	0.06938972578946905
13	0x3fb51c84191f9d8a	0.08246636975638047
14	0x3f983e21c081e377	0.023674514174192276
15	0xbfb67a642938ea5f	-0.08780504232792329
16	0xbf9b8f05cfefddf5	-0.0269127758183156
17	0x3fb2b53d5bbde67d	0.07307799806394573
18	0xbf9997d021f75a42	-0.02499318320573197
19	0xbfb87329eb04ea40	-0.09550725925229475
20	0x3f8a3a0a6252da72	0.012806016088103809
21	0xbf8c5569d2333c09	-0.013834788062380825
22	0x3fa266d5b8d2e3ff	0.03594081765317724
23	0x3f89beb0e5d50eba	0.012570745481418445
24	0xbf8f407df9e64389	-0.015259727658106364
25	0x3fb5d241a5249b98	0.08523950845538619
26	0x3fa11b870a6abe1d	0.033413143178560235
27	0xbfbbb1a5a0c060df	-0.10817942785832056
28	0x3fb0bab79e1f4b6c	0.06534907923132288
29	0x3f802893c8a9df9b	0.007889895020738716
30	0x3fb2815ac68b6429	0.07228629443433533
31	0x3faac2a03f0c5b2f	0.05226612825042875
32	0x3fb63611f32e5b75	0.08676254450834427
33	0x3fb0aebdbc26c632	0.06516633838216349
34	0x3f93bb294640c744	0.019268650925545985
35	0xbf9067971843e48a	-0.016020165306120528
36	0x3f95f4824a34037c	0.021440540102961134
37	0x3fa672035275eeea	0.04383859998321589
38	0xbf9819e097f43b74	-0.023536214136636827
39	0x3f76b6c489b7dde0	0.005545394636548434
40	0xbfb8f596f63f6581	-0.09749740135102593
41	0xbfb0d723a27c82f4	-0.06578276364281149
42	0xbfaf9d4e3bdf4d46	-0.0617470214926024
43	0xbfb4aa712156a2c1	-0.08072573722769062
44	0xbf942b2c229a21c9	-0.01969593964762043
45	0xbfb0889122696494	-0.06458384599808858
46	0xbfb8aa0383d95d9d	-0.09634420365306658
47	0x3f9baa2db2749b82	0.02701636697488708
48	0xbfb7488255265aca	-0.09095015124180886
49	0xbf900f32503a19b6	-0.01568297018686745
50	0x3f427dd134110526	0.0005643149853612791
51	0xbfa76e8218b759fe	-0.04576498557769425
52	0x3f96dbfd2b091299	0.02232356619994622
53	0xbf92e577aec9943a	-0.018453474085976952
54	0x3fa2e01f7363f7ab	0.03686617168021596
55	0x3fb058f5862646d2	0.06385740780958862
56	0xbfb49319412422c0	-0.08036954727516399
57	0xbfa036f7f4d6c7a5	-0.03166937698132636
58	0x3f9a33c30aed12f5	0.025588080922960683
59	0x3fb18968db1e2c32	0.06850295400197196
60	0x3fb44e6b5df11139	0.07932158511636524
61	0x3fb3fd1d53790302	0.07808097160251395
62	0x3f284686d2a51a97	0.00018520732676049055
63	0xbf8272827f0d96e7	-0.009007472517349636
64	0xbf99bc817bf660df	-0.02513315505129376
65	0x3fb631b84db5e780	0.08669616601210173
66	0xbfb9bb003f9d1696	-0.10050965836588896
67	0x3fa49793e17b5138	0.04021894576513535
68	0x3f712f706c9678c8	0.004195632130544698
69	0x3f924918c7321f44	0.017856967122980252
70	0xbfb1a6fdfe51a451	-0.0689543481727395
71	0x3fae304f99404033	0.05896233316173074
72	0xbfac60186275f892	-0.05542064859308583
73	0x3fb479597472afac	0.07997664540260868
74	0x3fa3ba48b563843e	0.03853060926645256
75	0xbfbb881029da2a61	-0.1075449087312932
76	0xbf991b0c5f7bbe78	-0.02451724369797012
77	0xbfbbc1366659ba16	-0.10841693877021216
78	0xbfa3c33e0261c487	-0.038598954954872026
79	0xbfb47b56d012e9f9	-0.0800070055001142
80	0xbfb69a107ec8a1de	-0.08828833670907651
81	0xbfb6c91da416591f	-0.08900628334081205
82	0x3f9b4e48410d2a0e	0.026665810556815876
83	0xbfb1b9df96c30e49	-0.06924245291434618
84	0xbfb9a3404c0ea82b	-0.10014726502291242
85	0x3fac97af5975c70a	0.055844764395159244
86	0x3fb394df6bdbe5a9	0.07649036772990904
87	0xbf768e053a47d9a3	-0.005506534977476471
88	0x3faafe2d7900a382	0.052720471401989336
89	0x3f93a7721fadb3b2	0.01919344251966821
90	0x3fad819319da2313	0.057629200845502514
91	0xbfa9234c2cd13320	-0.04909742400250239
92	0x3f93cdc558db2aee	0.019339641140315438
93	0x3f959b9968f2ab49	0.02110137656260783
94	0xbf9193095997e855	-0.017162462323519218
95	0xbf949bef6aeb3086	-0.020126095677185173
96	0xbfb4f24297b5bf3b	-0.0818215961824053
97	0xbfac0fc041a20bc0	-0.05480767060455305
98	0x3f97c660c2c08979	0.023217689406132423
99	0xbf87cac88d7912f1	-0.011617247407352123
100	0xbfb5e3d67e3c6670	-0.08550777990276415
101	0xbfb6cef8b44d5583	-0.08909563447863005
102	0xbfb96b0149165bac	-0.09928901705130383
103	0xbfb25cf20a9a025a	-0.07173073538616262
104	0xbf908258beee101f	-0.016122233060301135
105	0xbf8f66ef9d080a4d	-0.01533305356952499
106	0x3fabc7debac2952b	0.05425926236902464
107	0xbfb63b94d5cd7a28	-0.08684663982192176
108	0x3fb5c345696f5b10	0.08501085113617202
109	0xbfa6696e90e608be	-0.04377313154965766
110	0xbfb2fd475ad28e55	-0.07417722670884903
111	0x3fa1519c6157abc5	0.03382576645147809
112	0x3fb333bf9ab9fc38	0.0750083687544113
113	0x3f856fc7b925c7d0	0.010467110002284757
114	0xbfb1dc64941dcda1	-0.06976917854426869
115	0x3fb19d3b3fcd3ee9	0.06880541141185471
116	0xbfb883769512816c	-0.0957559694238676
117	0x3fb9024e8a1feeb9	0.09769144890008875
118	0x3fad3e5c38cf7a27	0.05711639588820488
119	0xbfb15de0df1ea2c3	-0.06783872077233881
120	0x3fa3cc499d2c52b5	0.03866796535127063
121	0xbfa6a11ef59e0e4d	-0.04419800518283221
122	0xbfb83b74de9e3c48	-0.09465723452579866
123	0x3fa30d056f5bcd79	0.03720871910436591
124	0xbfa8517c5935f6b0	-0.04749668683051078
125	0x3f9e223127c797b0	0.02942730717941061
126	0xbfad283de2122328	-0.056947645041026285
127	0xbf69de6637f79b5a	-0.003157806058641394
128	0xbfb534c62e2488cf	-0.08283651949435299
129	0xbf832cb3abac3f95	-0.00936260574010798
130	0xbf91488ed44331cf	-0.016878349023316915
131	0xbfb3d23124df31e7	-0.07742602491561677
132	0xbf9554ab30afa9b7	-0.020830798002785502
133	0xbfb88482dfb61945	-0.09577196084692215
134	0xbf9f3e669a4e2576	-0.030511477630658722
135	0x3f7f4793e378b35a	0.007636621179284509
136	0x3f900389025c27f6	0.015638485688249625
137	0x3fa489471bc15b3b	0.04010984624681276
138	0xbfb67115dc25434d	-0.08766304611823479
139	0x3fa77edb0f122126	0.04588970717401457
140	0xbfb6f70e1141c086	-0.08970725938138643
141	0x3f9715cb9dc70302	0.022544080262153272
142	0xbfab2d2b29d30990	-0.05307898412276579
143	0x3f88ba89f7d81e83	0.012074544788460933
144	0xbfb0877c82713504	-0.06456735787033457
145	0xbfadea1ec56eb6a5	-0.05842682037414918
146	0xbfb21140e7fb1cdc	-0.07057576812359251
147	0x3fb46b0af18c49b3	0.07975834271591146
148	0xbfb10d759ae94dc6	-0.06661162406935892
149	0xbfb6e6d3874abcbe	-0.08945962956453266
150	0x3f9fe61075ac439b	0.031151063139137496
151	0x3fb76460c4ef896e	0.09137539680481208
152	0xbfb47ac73dcda40c	-0.07999844797963379
153	0x3f9e7c6c16d68a69	0.029771508115695875
154	0xbfae84487e1c508c	-0.05960299052654347
155	0x3fb353250283e00e	0.07548743544964528
156	0x3fae03a2c825c73b	0.05862148946006448
157	0xbf7cc48e64d281d4	-0.007023388124395475
158	0x3fb4118dd291152f	0.07839285269536299
159	0xbfb6f34903b50f8e	-0.08964973774442184
160	0x3fa6d8d6255182f2	0.044623081260175015
161	0xbfb5ce166211a306	-0.08517589468250372
162	0xbfb2cc0c47fa6af0	-0.0734260249832166
163	0x3f87c6e04db30d7f	0.011609794970701469
164	0xbfb78824e58bcfbc	-0.0919211445250871
165	0x3fb5a9070728eb1a	0.08461040425110547
166	0xbf8f92d2c60dae2e	-0.01541676203642969
167	0x3faa73716b1c2c65	0.05166201050277478
168	0xbfaaa1fc3b366551	-0.05201709959801327
169	0xbfad7bfe813050bb	-0.05758662535677802
170	0xbfb2f667333693cd	-0.0740723133117875
171	0xbfb7d262c2311bef	-0.09305398217212234
172	0x3f7c29a72c4d3a1d	0.006875660915126616
173	0xbf9825dfae2c85cc	-0.02358197689603063
174	0xbfa0d88bf317e6f7	-0.03290212004135456
175	0xbfb2b343a02288a8	-0.07304785403769876
176	0x3fb0c732e878ae42	0.06553953338214405
177	0xbf337b22e36e769a	-0.000297256486584499
178	0xbfa5b28797e45b6a	-0.042377698222643215
179	0xbfb1e35951936e7e	-0.06987531892394291
180	0x3f706d92791b7a51	0.004010746155215531
181	0xbfae4b9db5f091a2	-0.05917065473502993
182	0x3fb588c7180c5934	0.0841183122359766
183	0xbfb843804677a109	-0.09477998466866579
184	0x3fb5ce66a60d698f	0.08518067888272739
185	0xbfa1cde25f8165af	-0.03477389732206448
186	0xbf9e44526e085719	-0.029557502714019444
187	0x3f8a479507b28777	0.012831844613461858
188	0xbfb3d7d40dcb7dd7	-0.07751202904500275
189	0xbfb92381191175b4	-0.09819800245300919
190	0x3fb8d3d501c5a06f	0.09698230069409573
191	0xbfa0e1943ea9594a	-0.032971031808005494
192	0xbf9f51c8ef5c69d0	-0.03058542214339771
193	0x3fa50a1427fb7fb1	0.041092519646326216
194	0x3fb4e382afac2b4a	0.08159653462295782
195	0x3f95b54419b739e9	0.021199287480891647
196	0xbf8d74798b1f3964	-0.01438231426064069
197	0x3fad45d27033860f	0.05717332477230396
198	0xbfb94abbf8f182d3	-0.09879660442085063
199	0x3f88afd5b359ac6b	0.012054128204189682
200	0xbfbe1dcf157495a3	-0.11764234803975752
201	0xbf93463349fc4c4b	-0.01882248057433981
202	0x3fb229816b1a7494	0.07094582428767843
203	0xbf935caa7231f1d0	-0.01890817949286988
204	0x3f6fd34c1bd81a8f	0.0038849340915050943
205	0xbfaee74a1bae21f1	-0.06035834873097546
206	0xbfbb1437ec82e063	-0.10577725910377604
207	0x3faebefdefb0309b	0.06005090285188538
208	0xbfa6e00dba8936ae	-0.04467814352083842
209	0xbfa3e27a3b2c80ec	-0.03883726093613568
210	0x3fae23e1dc5d4e9f	0.058867509984932946
211	0xbfb14561c7f8d257	-0.06746493465545576
212	0x3fb4fc1eb1ae8b3b	0.08197204435286391
213	0x3fb41798096bcd12	0.07848501424796364
214	0xbfb2c6492abc55d5	-0.07333810132362058
215	0x3fb3152d202829fb	0.07454187426643692
216	0x3fb4359872dae70f	0.07894280246810247
217	0xbfb778b80d24df99	-0.09168577500247323
218	0xbf58d5f3cf5c1e6a	-0.0015158539731049644
219	0x3f9b49a0716e7e96	0.02664805118877086
220	0xbfa3f713a7e2af86	-0.038994421237787555
221	0x3fafede677b20436	0.062361909972431226
222	0x3fb0db3f268d9c40	0.06584543887366667
223	0xbfb18f3a3bc91667	-0.06859172782523047
224	0xbf7a70ba41cfc449	-0.0064551616351176755
225	0xbfa547c33b63c804	-0.041563130378463625
226	0xbfacd8418813f595	-0.05633740221126541
227	0xbfbddcf8cd8c2b4b	-0.11665301340341931
228	0xbfb7866ecbd6e9e7	-0.09189503170538381
229	0xbfad66d2382eadf4	-0.05742508827037432
230	0x3fa95d94d24344e6	0.04954209391292767
231	0xbfaf2e2fd11b044c	-0.060899252200677795
232	0x3fafa85ecdab0353	0.06183143864246312
233	0x3f7550f60931a700	0.005204163625515568
234	0xbf4d76bd6dc044b5	-0.0008991646714112874
235	0xbfb45eb7642cc810	-0.0795702571456618
236	0xbf9c99ef6304928f	-0.02793096582276405
237	0x3fa6fb90a9321b2d	0.04488803925874261
238	0xbf92b140ab70adc4	-0.018254290069462234
239	0x3fb7b57a7797de96	0.09261289043194618
240	0xbfb662ba2ac2f839	-0.08744395774826409
241	0xbf7c5b8760ac8347	-0.0069232261837733405
242	0xbf608b637e9f8052	-0.002019590688163966
243	0x3f68aed80b2a540c	0.0030130595781181543
244	0x3faf3dc3e5328e8d	0.06101810620137114
245	0x3f9c9bad69500af5	0.027937612107062432
246	0xbfa7622e45ff8bcf	-0.045670934719758464
247	0x3fa04487b144bfb9	0.03177284277842269
248	0x3f9cf11744ea9ed6	0.02826343877919054
249	0xbf9fb771f458c490	-0.03097322515367701
250	0x3f6e04da40ff1e66	0.003664423253187543
251	0x3fadcf1efa9130a3	0.0582208329074956
252	0xbf9161d13d1483ee	-0.016974706032787105
253	0x3f98064d0ed1bb28	0.023461536435600255
254	0xbfb9784b856f29b4	-0.09949180610343583
255	0x3f92f6b9d77038ec	0.018519309782328117

fc3.bias f8 [50]
0	0xbfaab8c5f6c75ead	-0.052190958380092446
1	0x3f9ea60557a3dfd9	0.029930194353226944
2	0x3fb380ca76fee94a	0.07618394284410104
3	0x3fd6e439b0de66a6	0.35767977020587194
4	0x3fdf16a4a5bc4c6a	0.4857570284377234
5	0xbfb362c49d9aa15a	-0.07572583053354745
6	0xbfa9b5ce0b001ce3	-0.05021518596918797
7	0x3fde794ea1ae47ed	0.4761540011323849
8	0x3fd59ffce1c88d4c	0.3378898816028666
9	0x3fd6a95554a21854	0.3540852858062682
10	0xbfa5db99ced21dc4	-0.04269104623477518
11	0x3f9f1b6aaf7903ff	0.030378024063114847
12	0xbf8d2f2b86348f01	-0.014250125916596358
13	0x3fdb5a2de21de565	0.4273791034862227
14	0x3f9ab7ed70ccb2af	0.026092252740613272
15	0x3fd928ee4e9fc0b3	0.39312322309616404
16	0x3fd995c10a05469c	0.39976526239943566
17	0xbfb1ebdfcf269644	-0.0700054054965103
18	0xbfad9e0ddfc92009	-0.05784648281820643
19	0xbf82d69964d8b530	-0.00919837798127307
20	0xbf7bf1318a0ff042	-0.006821816933548832
21	0xbf97cd116e929e4a	-0.023243210195373266
22	0xbf7f7f945a473fa6	-0.007690028669870152
23	0xbfafbd7f5c86a2bf	-0.061992626232784336
24	0x3fb07bbcaf4312c3	0.06438807753427071
25	0x3fd606fec1be8d72	0.34417694969507473
26	0x3fdf4d9e6f9ba314	0.489112481109758
27	0x3fdbda5c0ebbbf24	0.4352026122933117
28	0xbf9b4a12e0154b20	-0.026649756361915355
29	0xbfb7d1b2e65db482	-0.09304350017710486
30	0x3fd50381b8ae57b2	0.32833903346306237
31	0xbfdab5b16d7950bf	-0.4173396653252545
32	0x3fd68966f4009ce0	0.3521363623462559
33	0x3fd2d2eb2ddbeaa4	0.2941234538881565
34	0xbfdac010cf3db408	-0.4179727577055137
35	0x3fdaa5c005d14413	0.41636658256635534
36	0x3fddbe7117022b47	0.46474864241524866
37	0x3fdf30786539f491	0.4873333920039125
38	0x3fdb1ea9d7cbea27	0.4237465484035589
39	0xbfd77cc6f659157e	-0.366990795683101
40	0x3fd80046d810726b	0.37501689052604686
41	0xbfe1c0ac3a17afaa	-0.5547696241969693
42	0xbfe27b968dfc1e7e	-0.5775864384786045
43	0x3fafbd77c8ac779d	0.06199240040426377
44	0x3fdac34ac157a0ae	0.41816967850764797
45	0x3fb09dd3e129cda4	0.0649082588877748
46	0xbfb47dcde7111317	-0.08004462138439937
47	0x3fd67a20bf808583	0.3512040968072016
48	0x3fdef10c6325ddcc	0.48346242601789124
49	0x3fa20a47a6cdb955	0.03523467932869787
