weights/numq/nyse/correlation/high/numq_8.pt (torch, 526847 bytes, 8 tensors)

fc1.weight f8 [200, 200]
0.002109818421368937 -0.07078611693660258 -0.05436964385804778 0.0006908123819700734 -0.01787435988439398 0.07599607076267481 -0.02562105499806718 -0.018836369861569
0.12917380493361919 0.005423058163895939 -0.06337850321709165 -0.017389668226095487 -0.11616213433189071 -0.0914584735575826 -0.07867381662011466 -0.048280832171027854
-0.0894835971326776 -0.021192067529586214 -0.09396525730373698 -0.025119193566940756 0.10554447137403077 0.02703194575438236 0.0870240875409355 -0.04844797936130734
0.04122631929072347 0.07098460773055013 -0.031821763393590274 0.11873936578345984 -0.0768629216721084 -0.016377919114621012 -0.05233690263352139 0.02342940362060992
-0.08636743981711704 -0.013796416583996102 0.0465274472863601 0.07594801478211212 0.05636435277887214 0.020448219354403954 0.05192494861662262 0.09322095482880864
0.023173700532928866 0.10553381405896552 0.01634520461089024 -0.04215525820641245 0.09844492190093997 0.1367934939801471 0.10624794631041887 0.09391190383712367
0.04971394122223764 0.03245350196732509 -0.1149115968712267 -0.023434250781324203 -0.04758381516420818 0.043280743911711606 0.05093853223637098 -0.13139360063190605
0.06963511737318635 -0.09042446181445418 -0.0019258019531703278 0.11539110781517073 -0.02059984542555753 0.021770185593472793 -0.03826163158235147 0.05479942768029486
0.038830998643261234 0.14723671551332096 0.045298749029993784 0.09987798549515953 -0.03934690545696446 0.02391183102259135 0.05903136002730719 0.025665692892620752
0.01532974418632135 0.07693434995347237 0.009155746864527619 0.045812881816323085 0.12869394132036505 0.011372971847164065 0.051302782392490975 0.014721922977212703
0.1138947123837083 0.05064899977372598 -0.03243825845552179 -0.03600380909656928 -0.039507313793222976 0.05228234677979375 -0.02304483847820741 0.09323989906671226
0.0189365923955824 0.04838202809462567 0.053933765454461526 -0.09809132488319552 0.04612954200960856 -0.09904320042639131 0.14497495619147346 -0.0640848522572642
0.08203062476248721 0.05869455027386485 0.11496686315668704 0.031197531935142752 0.03621483213306063 0.05369330212785349 0.061723344330309696 -0.04688019026405663
-0.029759212060491584 0.11704820240071975 0.06919570055430214 0.09610810775169285 -0.023557206902793736 0.06445903625194412 0.02756515879293192 0.06689245178605993
0.007840081377254822 0.003949896173201375 0.03537911647493993 -0.012928344713970323 0.012417120671988113 -0.011486795383573655 -0.05186217704269451 0.10095495096878282
0.040053927235924526 0.008495370815171877 -0.006523158339052982 -0.0491852379789383 0.02778826841908529 -0.006595908926934672 0.012490115140365916 0.018912506251784183
0.03692282395132166 0.05621561522084836 0.1267073207349781 0.0322348451042039 0.12668821110910058 0.01625549678120961 -0.041037056230692454 0.009395641001420795
0.09469317532526368 0.006864635824418837 -0.027813834116221757 0.10196866164391577 0.07560521734091848 0.1489506243992903 -0.0458787124124936 -0.009088817156754454
0.009794613482604728 0.06193565294693985 0.0559444282859386 -0.024858614208444537 0.11603389807437146 -0.014533506183560276 0.07867920842229359 0.09481218309459286
-0.04968339671814173 0.10625684984669925 0.0951277608161389 0.08170098780402962 0.09693285437714091 0.07684634608807901 0.12058423274929321 0.014997234387352924
0.09311405286849302 0.050245760498457095 0.08133743789583926 0.0051601569495586365 -0.029322846823935003 0.08104479652965182 -0.007738198218529567 -0.06641856519399143
0.19233589157156594 -0.02807483193866975 0.1299346718204306 0.16810999537595525 0.08789582411491431 0.01527226462917338 0.04784240480331918 0.08909386966788385
0.030784981777147908 -0.02565968119292711 0.059854924882949884 -0.03590438348680242 0.024430085490338795 0.042115837645264845 0.10093230101647827 0.005355261340929049
0.12915809651967117 0.10584206482534754 0.07164533818989784 0.030927077932583476 0.16431008639480152 -0.005702746183224119 0.05773881268922297 -0.052380424450850345
0.09580107142395826 0.020466873103266243 0.03391176937055563 -0.01724837688775997 0.06174733606439969 0.10865148821672059 0.03841584892369818 0.02101194159035617
-0.1255867403248023 0.08591210138492016 -0.05494893259807015 -0.1041878507837155 0.10886682437864516 -0.017978813583973477 0.0312828952566386 0.00164071727525381
-0.01860354574464287 -0.041633248859299136 0.022511634079738024 0.012504386487623942 0.0228910831359453 0.04189716562735359 -0.09817090189774927 0.05727903444838585
-0.053286915094360746 0.08869882584333375 -0.03348658009327495 -0.08438032969773601 -0.10526020422296578 -0.08561642805612768 0.10325245101832652 -0.04947485171534341
0.037095918070730066 0.012364681270919001 -0.06016476896074755 -0.014114097715889376 0.02910597679860265 -0.056002876737991966 -0.06868632305569543 -0.05683933347931941
-0.02409725940918003 -0.06382596503666081 -0.07523369325037989 -0.10024343376541164 -0.06527615791579976 0.05667301843764131 -0.041305008774527356 0.0880735837656087
-0.07333255535458436 -0.14367734829792803 -0.002699970392172519 0.05221292212046568 -0.002640641522016752 0.04919965394770645 0.061411414045570496 0.03256651829052673
-0.01747351060179734 0.05339703924915981 -0.00746026622726411 0.057371543095958016 -0.03470352768853755 0.16256109333586166 -0.016942151381550676 0.09579097873566239
00000000: 1b51 d923 9c48 613f fce7 40f9 091f b2bf
00000010: 52ed 8784 56d6 abbf c73a 4b4b f4a2 463f
00000020: b8c6 8ffc a74d 92bf 42d9 8c7e 7a74 b33f
00000030: 960d 39e5 673c 9abf bf89 1f62 d749 93bf
00000040: a44a d869 c488 c03f 47f2 5417 7d36 763f
00000050: 1c3b 96d6 9239 b0bf 0c09 47e1 98ce 91bf
00000060: 0831 fd37 cdbc bdbf b634 df90 d269 b7bf
00000070: 3255 6f9d f723 b4bf 507e 65e6 43b8 a8bf
00000080: 279a 36a3 65e8 b6bf b793 e593 5fb3 95bf
00000090: 2a6c 146b 1b0e b8bf 70d4 7c8b d8b8 99bf
000000a0: cf37 d364 f604 bb3f f769 d92b 43ae 9b3f
000000b0: e9da f3e9 3547 b63f a704 d46d 2cce a8bf
000000c0: ea1c 2dba 9d1b a53f a6db b818 0c2c b23f
000000d0: a82d 2732 f14a a0bf 6ca9 c9fc b365 be3f
000000e0: b051 dbd6 49ad b3bf d433 e58b 5fc5 90bf
000000f0: 9cac 5e0a e7cb aabf f2de 42a9 e0fd 973f
00000100: 012a 7431 2d1c b6bf 7df6 3db0 4b41 8cbf
00000110: f82c ec10 72d2 a73f 916f af3f 5471 b33f
00000120: 78e0 b0d7 c9db ac3f f4ec 8dc5 60f0 943f
00000130: b94b 4f28 e895 aa3f 07a8 4a18 54dd b73f
00000140: 7a37 aab7 d8ba 973f 0562 0198 4304 bb3f
00000150: f334 001d ccbc 903f 45b3 b3be 5f95 a5bf
00000160: 6d95 05b8 af33 b93f 95a3 79ff 7282 c13f
00000170: 2ea0 abbe 1033 bb3f c07f af4b 9c0a b83f
00000180: 86d8 680f 1b74 a93f 1e40 2ed3 be9d a03f
00000190: d438 7eae d86a bdbf 9c23 d9f2 25ff 97bf
000001a0: 51fb e5e3 e75c a8bf c871 4bc7 e428 a63f
000001b0: 0b77 1f84 9d14 aa3f 7f11 cf68 81d1 c0bf
000001c0: 6d5d c567 9bd3 b13f 1861 40ba 0e26 b7bf
000001d0: 0c7d 131a 668d 5fbf fabb 508a 458a bd3f
000001e0: ad27 9f39 2018 95bf a775 9b6c ec4a 963f
000001f0: 29f4 ac50 0797 a3bf 8ce8 73ab ab0e ac3f
00000200: f1d6 7c1a a8e1 a33f c038 f316 a7d8 c23f
00000210: b45e 44cb 6531 a73f 44c5 4a89 9a91 b93f
00000220: e9de 4510 4725 a4bf 2b04 ebd0 577c 983f
00000230: 48e9 82c1 5b39 ae3f 1a75 697e 1b48 9a3f
00000240: ee88 7d6f 3365 8f3f 183b fd34 f8b1 b33f
00000250: 962c d48a 3fc0 823f 27f3 453a c974 a73f
00000260: 2408 9506 0b79 c03f 9d9b 2271 b64a 873f
00000270: 809c 23b9 5b44 aa3f 2358 c50d 8726 8e3f
00000280: 2817 e030 3428 bd3f 15df 346b aaee a93f
00000290: 794c 6956 bf9b a0bf 7ccf 335d 176f a2bf
000002a0: 08b0 6379 4d3a a4bf c699 2773 c0c4 aa3f
000002b0: 0a09 6cee 1099 97bf c082 2ced 91de b73f
000002c0: f796 2534 1d64 933f 21da c278 87c5 a83f
000002d0: 15d9 8ddd 349d ab3f da06 6558 831c b9bf
000002e0: 9817 9f94 4a9e a73f 54f7 b82a e55a b9bf
000002f0: af6b ca13 8a8e c23f 452b 9d68 dd67 b0bf
00000300: a615 a082 f5ff b43f 1365 c24b 360d ae3f
00000310: a9b5 61e5 776e bd3f 0369 82ed 3ef2 9f3f
00000320: 1d83 481f c08a a23f 8e87 4e41 b07d ab3f
00000330: 72cb 98c2 339a af3f ed5c 0728 ae00 a8bf
00000340: 5ed9 37ea 3279 9ebf bede 5df9 def6 bd3f
00000350: b98f e736 cfb6 b13f f688 ac7b 8a9a b83f
00000360: e32f ee64 611f 98bf 4d3f a22c 6380 b03f
00000370: 3048 197e 0a3a 9c3f e637 c51c dd1f b13f
00000380: 9703 e8e8 750e 803f dc15 2f2e c42d 703f
00000390: 9b46 7128 361d a23f 0941 e70d 2d7a 8abf
000003a0: 13ca 92b9 256e 893f b9fb 1094 6386 87bf
000003b0: b670 98e4 ad8d aabf 90bb c704 2fd8 b93f
000003c0: 55fc 1bc7 f281 a43f 2067 8c5e 0566 813f
000003d0: c1cd b9fb 06b8 7abf 768b 21b9 ce2e a9bf
000003e0: f52d 4a20 8774 9c3f b8a8 0ed2 4f04 7bbf
000003f0: 44bf 68e0 6a94 893f 5be4 58cf cc5d 933f
00000400: d59b b162 8ce7 a23f fbce cb09 4bc8 ac3f
00000410: ca39 5c0b f237 c03f cb42 07eb 1581 a03f
00000420: 614c c0bd 5137 c03f 79dc 38ec 47a5 903f
00000430: 14b0 de1c cf02 a5bf d3c4 9b96 053e 833f
00000440: a928 2ddb cf3d b83f d556 d6a5 171e 7c3f
00000450: 4646 9fcf 3a7b 9cbf f43d fa42 9e1a ba3f
00000460: 1ddf e20f dd5a b33f f4c1 4166 d010 c33f
00000470: 0adb c922 6a7d a7bf f7a6 9463 289d 82bf
00000480: 5890 adc4 320f 843f 551e baa7 07b6 af3f
00000490: 1057 c383 bfa4 ac3f 6f54 325c 8974 99bf
000004a0: 57f2 74c5 65b4 bd3f 6e6e 092e bec3 8dbf
000004b0: f085 0c13 5224 b43f fa54 a779 9c45 b83f
000004c0: 7402 1e28 1a70 a9bf 584b 111f a633 bb3f
000004d0: 8da3 a5fd 4a5a b83f d450 ab1e 5bea b43f
000004e0: 262f 756f 97d0 b83f 0df1 43bf 33ac b33f
000004f0: a14b 12b8 9bde be3f 4f03 cbb9 deb6 8e3f
00000500: dd41 de93 52d6 b73f d200 35f4 cfb9 a93f
00000510: c9fb b3c3 87d2 b43f 8d05 7315 d122 753f
00000520: f4a4 89f0 ce06 9ebf 9a17 9b0e 5abf b43f
00000530: cbf0 74c4 16b2 7fbf edfd 5a9d ce00 b1bf
00000540: e4cc 1266 769e c83f 99b2 1114 a6bf 9cbf
00000550: 37e9 0a07 b3a1 c03f bf9d 22da a084 c53f
00000560: 6c4d 073a 5780 b63f 6cfc f1a8 1047 8f3f
00000570: 1608 fcb7 cc7e a83f d465 7f18 dbce b63f
00000580: b562 c327 1986 9f3f 1098 320e 8846 9abf
00000590: c4ec c001 4ea5 ae3f 59bc b731 0f62 a2bf
000005a0: cac1 e048 3304 993f 62fd a802 3590 a53f
000005b0: 24ce f903 b3d6 b93f b017 2205 66ef 753f
000005c0: 8d65 48a4 4088 c03f 714a f72e 7718 bb3f
000005d0: 91bc 6f50 5957 b23f 4f0a 2011 59ab 9f3f
000005e0: 51fb bbe7 1c08 c53f a95c ab45 c35b 77bf
000005f0: ee8f 6b10 f18f ad3f c11a ef63 9bd1 aabf
00000600: 8b0a b044 6b86 b83f 4507 859a 44f5 943f
00000610: 91c4 ca28 e25c a13f 6b6b 91fa 8ea9 91bf
00000620: e7ff 05ca 589d af3f 8b73 8d7c 95d0 bb3f
00000630: 0dfc 8cfd 3dab a33f abfc d287 2784 953f
00000640: 77cd 40ef 3913 c0bf eb63 c7e1 55fe b53f
00000650: 67ea ea38 4422 acbf 9faf c113 0eac babf
00000660: 395e 533a b2de bb3f a4c8 74c1 0969 92bf
00000670: 7b58 1ac8 4f04 a03f 9435 82c2 aae1 5a3f
00000680: e763 40d2 ce0c 93bf 57c8 8d04 f450 a5bf
00000690: 48a4 9b30 4a0d 973f edc7 2a58 e69b 893f
000006a0: 936f c195 c270 973f b343 5498 8b73 a53f
000006b0: 12d5 116d ba21 b9bf 8a90 6777 ad53 ad3f
000006c0: ca1f 452b 6c48 abbf e6d2 305c f7b4 b63f
000006d0: 2b04 b62c 2725 a1bf b83b 7a04 f399 b5bf
000006e0: 303a b52e 55f2 babf 185c 804e f5ea b5bf
000006f0: 9b05 5bac c06e ba3f e406 2f8c c454 a9bf
00000700: 4c96 db75 3cfe a23f e2f4 786d a752 893f
00000710: d598 1da6 eacd aebf 157f d120 dae7 8cbf
00000720: 4d5e df09 f5cd 9d3f 0ea8 24b8 68ac acbf
00000730: 77ea 3447 6d95 b1bf 4819 d78c 0b1a adbf
00000740: 57b6 57b4 f3ac 98bf 3fd5 7700 e656 b0bf
00000750: 5153 11ec 8342 b3bf 6e43 a9bd 8da9 b9bf
00000760: d7f6 7433 f0b5 b0bf 55b3 82f1 3e04 ad3f
00000770: 0ff7 b11b ee25 a5bf b830 ea89 fd8b b63f
00000780: 86e4 fa1e ecc5 b2bf 0dcc 0ef4 0464 c2bf
00000790: 0f07 1b91 3f1e 66bf bf3a dff1 a6bb aa3f
000007a0: 68db 479f d3a1 65bf 041e 5c71 b230 a93f
000007b0: d18a da1d 5171 af3f 543a 0106 8fac a03f
000007c0: 3af9 5272 93e4 91bf 7c86 8e52 db56 ab3f
000007d0: 58e7 72f7 a78e 7ebf 5cea a28a cd5f ad3f
000007e0: 6dc9 f428 a9c4 a1bf 3861 bd49 cdce c43f
000007f0: 8a39 6e88 4859 91bf 84e7 ebf0 c185 b83f

fc1.bias f8 [200]
0.5578336628857924 0.591174047157928 0.5937056088268947 -0.10450534588043049 0.5088889815173897 0.18389392579831332 0.4522652884925632 0.4753768928874649
0.5148461430311579 -0.06929688751681252 0.4439180247154069 0.41845926810575396 0.4182510696451804 0.4816213342761615 -0.029651882961812256 0.4763478617044466
0.25607117363179843 0.38409089830285864 0.23463605491362544 0.5215055252020246 0.6598002263670036 0.44500292541905384 0.544144647117997 0.6736356603413177
0.22716171312595718 0.3500221448600658 0.30262300849908336 0.5410370559142138 0.32141653479040444 0.3264411221907532 0.6698928293598794 0.3797612955233228
0.4262141021122558 0.2760503645481851 0.30874735990756685 0.35529160980748303 0.4221164296325299 0.1366824640454243 0.6178928459158185 0.5362685552668641
-0.1972826784237429 0.7350293392842842 0.36163245419706735 0.12925187567327195 0.1966645419661433 0.4455346103806191 0.18883562076536595 0.26508293549637924
0.2293506173564266 0.3086772316963065 0.5368527408858292 0.3400890034060537 0.019142528005496873 0.0008157588986747097 0.33794414356575786 0.31243429179717425
-0.2894061715253484 0.18958311965553198 0.31936668216610925 -0.17916257424067664 0.20632224251782794 0.6603398507541963 0.6179970675805349 0.16313773156250586
0.11942696455596959 0.18091841922714447 0.6921442682453366 0.5224009135262672 0.2605378443271833 0.2538031227614696 0.23720467437925405 0.4836378999709324
0.23887157687198002 0.5865000131609635 0.3211794330371824 0.41373593133028824 0.17174264512171522 0.4257916259206423 0.6525184545404732 0.25889361770603975
0.704941953878914 0.1743252534929981 0.6260587113293214 -0.018455952736419142 0.31584497543229756 0.40464334640557864 0.03867193063107885 -0.07253691866130876
-0.08846100150662574 0.6280447723933814 0.13687187788443617 0.5353850290170218 0.49581015534229145 0.7553680124891592 0.29201303671683004 0.2755906832842991
0.2839718471896951 0.33803426903533035 0.10399003866184509 0.02114981987051307 0.4408369834196686 0.27636757719308547 -0.08223976095602338 0.25706546393265484
0.30024468663477183 0.43767210903394815 0.44231474289072287 0.4322867913561331 0.4596391947480233 0.2367935752186605 0.3642971983974973 0.2308472425884465
0.47577126237576167 0.18625189719412893 0.2636197118928661 0.340258720091944 0.1830720413734183 0.5621022142586116 0.5539667400025935 0.26461148658187006
0.5974302072030417 0.3536671486346096 -0.033261156640791316 0.6004752777777778 -0.3943553322358164 0.37256224596295884 0.27346401852725016 -0.2738459065429761
0.2694105601974965 0.17701500542492773 0.723455606490971 0.22508402401914349 0.48123250173549015 0.42376467087287994 0.051658634508590685 0.5630910188968852
0.2423731858146363 0.7488117264768097 0.6723364114821879 0.33372091027053324 0.17731941977895915 0.5260104655395025 0.2912196781798846 0.5749348695880231
0.6705156440859568 0.32059322419516884 0.5324820419978569 0.4801416758497047 0.6283136250104322 0.4385766447505041 0.3365700580504931 0.13622641680855427
-0.08189661016069583 0.362648785760467 0.44164337741451476 0.29660883834436247 0.7268328556704974 0.16458695707950144 0.7236918450111283 0.5109030852338868
0.33622947169018097 0.3147657703527902 0.117033314125387 0.5301618591230786 0.2202839930768416 0.10602896543943349 0.5689477091461076 0.25717938687179004
0.427759978024725 0.2764336737166606 0.12827761593081521 0.2677271865366845 0.3870002337032075 0.2747411406910705 0.5238475813995065 0.6764027817675272
0.3530939788558388 0.6561287132237298 0.678761561955923 0.35162603302526635 0.5221672612055455 0.5512991927252904 0.1896216884320228 0.7157102890366455
0.4185053804401138 -0.026831882846881757 0.461572534680104 0.4459093025468767 0.6110274639722921 0.19266698776905772 0.5346547775274239 0.4151791815840885
0.32857215681528323 0.2028383978864588 0.22618258792124468 0.6127711380077483 0.5823731233872874 0.4224588415698048 0.30935974912793246 0.0912054768267458
00000000: cb79 56fb c5d9 e13f 4131 d9d5 e5ea e23f
00000010: 01a0 abe7 a2ff e23f 3949 d0c2 dcc0 babf
00000020: 972e 9d8b d148 e03f ac4f 9e0e d689 c73f
00000030: 9642 cc1b eaf1 dc3f cc72 0e34 936c de3f
00000040: 484c 599e 9e79 e03f c16b 99d9 70bd b1bf
00000050: 657c 9025 2769 dc3f 503a ce61 09c8 da3f
00000060: 0728 6922 a0c4 da3f 6868 f149 e2d2 de3f
00000070: cfdc 572e 105d 9ebf 7991 e2bd 7b7c de3f
00000080: 349a 0c59 7863 d03f 05bb b9fd f194 d83f
00000090: 7682 28e3 8d08 ce3f caa1 ed5a 2cb0 e03f
000000a0: 3d78 445d 151d e53f 7e25 d38c ed7a dc3f
000000b0: cb49 f508 a269 e13f f9ba 525f 6c8e e53f
000000c0: c2c0 6390 a213 cd3f 382f 4348 c366 d63f
000000d0: 0953 21e5 2c5e d33f e76b a2f1 2c50 e13f
000000e0: 3661 54a8 1692 d43f ab3e f84d 69e4 d43f
000000f0: 709e 3d16 c36f e53f f5ca 2352 024e d83f
00000100: 17a2 6a83 1747 db3f 2022 f225 cfaa d13f
00000110: bae0 6149 84c2 d33f 31a5 2a05 19bd d63f
00000120: 6710 18a1 f403 db3f 7182 819c cf7e c13f
00000130: 7f81 b437 c7c5 e33f b7d1 57ac 1c29 e13f
00000140: 6fd9 f20d 8f40 c9bf 9872 ba3f 5c85 e73f
00000150: 3ab6 fc72 fc24 d73f 6a4f 7b51 538b c03f
00000160: 0282 03c0 4d2c c93f fd88 3499 a383 dc3f
00000170: d3e8 c0ff c32b c83f ebd0 ab6a 1ef7 d03f
00000180: 607f 6e6c 5c5b cd3f e9f2 c925 5ec1 d33f
00000190: 54ec 9bcc e52d e13f 4bed d6aa 04c4 d53f
000001a0: 4049 fc4e 199a 933f b6fc 46e5 14bb 4a3f
000001b0: 9256 1f79 e0a0 d53f fbbc 5a66 ecfe d33f
000001c0: 6490 7d76 a185 d2bf 30a7 6579 4244 c83f
000001d0: 4578 d5f3 8070 d43f d1f3 839a ccee c6bf
000001e0: f895 066a c468 ca3f 6f83 e709 8121 e53f
000001f0: 9808 49c9 a1c6 e33f cbfc e67a b2e1 c43f
00000200: e147 07fb c392 be3f 988c e9b2 5528 c73f
00000210: 4548 87bc 0b26 e63f efdd df1e 82b7 e03f
00000220: 9c5b 30ec a6ac d03f 1b86 f873 4f3e d03f
00000230: a367 7507 b95c ce3f 31cd de60 ecf3 de3f
00000240: 20f7 4d05 5893 ce3f 3428 f4ac 9bc4 e23f
00000250: a7b8 422e 348e d43f 9d98 8f45 a67a da3f
00000260: a02a 10ba a9fb c53f 4959 0f85 2b40 db3f
00000270: 9e35 c961 6ee1 e43f 4132 4c89 b691 d03f
00000280: f59f af6d e28e e63f 6c46 4f37 4a50 c63f
00000290: 8221 5147 ac08 e43f 2f82 ad05 1ee6 92bf
000002a0: eb9b 05d8 cd36 d43f 0ac8 d634 ade5 d93f
000002b0: 0cd6 aaaa cecc a33f a226 678d c791 b2bf
000002c0: c93e 7154 61a5 b6bf 894e bb59 f118 e43f
000002d0: b6bc a087 0485 c13f 03ad ccc8 df21 e13f
000002e0: 8e11 8e84 5abb df3f 13bc c289 f92b e83f
000002f0: 6b15 ad72 57b0 d23f 7774 f21a 47a3 d13f
00000300: 5986 2a41 982c d23f cfc6 9b7c 5aa2 d53f
00000310: 1093 2957 179f ba3f f2fc a362 4ca8 953f
00000320: c4e7 a952 ac36 dc3f 0a05 6ea2 01b0 d13f
00000330: 99aa bc3b aa0d b5bf 8065 21b4 c273 d03f
00000340: 2739 797d 3537 d33f 9004 abe0 d102 dc3f
00000350: 8146 d07e e24e dc3f f282 d737 96aa db3f
00000360: 22c3 5983 ba6a dd3f b8c8 bb7a 404f ce3f
00000370: 3211 4932 a550 d73f 1103 a506 678c cd3f
00000380: 3bf4 114f 0973 de3f 7824 a227 1ad7 c73f
00000390: 954a 4a36 25df d03f 6451 be82 ccc6 d53f
000003a0: 9561 4197 e76e c73f 5cff 67c8 bdfc e13f
000003b0: 8140 ec74 18ba e13f fcf6 4004 65ef d03f
000003c0: d28b 32f4 251e e33f b688 4389 7ba2 d63f
000003d0: 6fa8 ff37 9b07 a1bf 1696 03ee 1737 e33f
000003e0: dc2f bd25 1e3d d9bf 62a7 8851 0fd8 d73f
000003f0: 0944 0d3a 6f80 d13f 2bb7 2ffb b086 d1bf
00000400: c7b2 4fca 053e d13f 17c5 997d 6da8 c63f
00000410: f291 3f5f 8c26 e73f 93d4 01a5 8dcf cc3f
00000420: f479 2e68 83cc de3f ac59 a6da f51e db3f
00000430: b573 8a23 0073 aa3f 8aab da74 d704 e23f
00000440: 2027 40a5 1506 cf3f c488 8202 44f6 e73f
00000450: 5c3b 67a6 c783 e53f 519c e6f2 ae5b d53f
00000460: c8ba 721a 67b2 c63f 9911 5be6 13d5 e03f
00000470: f0fd 6edc 57a3 d23f 1bbd c6cf dd65 e23f
00000480: 26c7 5939 dd74 e53f 5132 4f71 9984 d43f
00000490: aad1 82c7 170a e13f be26 ce26 a4ba de3f
000004a0: e8a1 e12c 251b e43f 738a 7fc6 a311 dc3f
000004b0: acf0 0824 5d8a d53f f7a1 8502 de6f c13f
000004c0: 881f 4b1e 2df7 b4bf c89e b140 a335 d73f
000004d0: 8061 9f95 e243 dc3f 8a30 19a3 a3fb d23f
000004e0: 1b6b 18fa 3642 e73f 3497 0077 2f11 c53f
000004f0: e08c d6cc 7b28 e73f 5329 506d 5159 e03f
00000500: 7715 379e c884 d53f d430 6454 1f25 d43f
00000510: 3206 b630 e5f5 bd3f 54a5 d000 16f7 e03f
00000520: 2675 0c11 4432 cc3f 7eb7 fdda b624 bb3f
00000530: 3755 7dd3 d134 e23f 7975 f487 a075 d03f
00000540: 0cd9 0963 6b60 db3f 8813 08dd 16b1 d13f
00000550: 58a8 9da2 666b c03f ae35 9b35 7122 d13f
00000560: 312d d3a0 9cc4 d83f 8891 88dd 5b95 d13f
00000570: f262 c600 5cc3 e03f b5ad 5372 17a5 e53f
00000580: 066c e67c 1799 d63f 4166 a8a4 01ff e43f
00000590: fd3d cc2a 6ab8 e53f cd01 117a 0a81 d63f
000005a0: 3e6e bd1d 98b5 e03f 521f 6234 3ea4 e13f
000005b0: 71c3 3603 8645 c83f d556 9a43 19e7 e63f
000005c0: 512e 8cca cac8 da3f 5f14 452d d179 9bbf
000005d0: 2fb4 4b87 678a dd3f bff1 da2b c789 dc3f
000005e0: 8400 d777 898d e33f e253 bed5 4fa9 c83f
000005f0: 932c 0456 e41b e13f a28e b8b3 4b92 da3f
00000600: f775 f982 5307 d53f e2ce a5ce 9bf6 c93f
00000610: 20f0 0511 8df3 cc3f a4a1 b537 d29b e33f
00000620: 9791 e0f5 cca2 e23f e1b1 1ccf 9009 db3f
00000630: cb01 4dd5 8ccc d33f 8ddc 2ffc 3d59 b73f

fc2.weight f8 [100, 200]
0.07407666742321499 0.015644897286795554 -0.04442812887948373 0.07842866217746468 0.09654664625966153 -0.021048566234765413 0.08762238448803479 -0.034931294272960815
0.0003320395720441764 0.07140430896416411 0.020012061954173065 0.044288072443623726 0.02516183855039601 -0.04235650611321772 0.0106013173257245 0.004195630159816345
-0.019944394558539684 0.06948167161008441 0.08077341124632706 -0.006814215607099346 0.010722848327038993 -0.0023184545755594354 0.032278264797462125 -0.018643736236830556
0.023022492055665436 -0.0013447087969922218 0.07917340670628996 0.017999933520862144 -0.02473751709000415 -0.028792755448860126 0.021338448021931397 -0.020034800421425303
0.04510632171887157 0.061407838901002945 0.043957834032657746 0.035311596056629396 -0.014064480143229285 0.0001785142711229073 0.04482747972289573 0.058885791161700896
-0.004363498388771592 0.0633550209143612 0.06536629167587615 0.039897735708300866 0.07394280989225625 -0.0017045710625300564 0.0019836950808017097 0.09651410382632841
0.03339836557874697 0.04482794619172791 0.07694563203362295 0.09903778872804823 0.0018184015797374081 0.009420937961332034 -0.020239325614002043 0.004721017156139336
-0.05976423664642969 -0.02282791569492619 0.057066984686825833 -0.028093193851211496 -0.04014317270122979 0.05279587281942104 0.07839984012638868 0.06496812435533701
-0.0032178968593381705 0.0019253745646294975 -0.016476701696461985 0.03213790160096751 -0.010328925278091107 -0.014762597387904799 -0.01349080521462363 -0.023001015714700885
0.03824289530019362 0.07725500822241038 -0.018099439080995372 -0.018341995251258052 0.06402955260177737 0.01580361279830195 -0.06108308709000565 0.0008231239958213803
0.06671017156617284 0.06994912062132926 0.06337706057595463 -0.005278136980553202 0.06684605784303096 -0.020401578903154367 -0.04984668282568757 -0.017822894711287517
0.02201633850110845 -0.004710022637506923 -0.011959549803501477 -0.025918081626129477 0.06795861737949707 0.027029991361062922 0.04331570053934817 0.0480037052080197
0.03424315048182645 -0.017431496848313792 -0.022735468927088588 0.06899361448835525 0.04591944512839487 0.03660894830723426 -0.01554151161019276 0.009434041914856096
0.0750275468692031 -0.03086087141261226 -0.014260947151122404 0.006142645662213347 0.06405598219088729 -0.032043210658776106 0.0624609706170502 0.07628726195936025
-0.02394461927522101 0.08346628174781272 0.00433348395056344 -0.03480641933843696 -0.030331475869148063 0.061354499385761256 0.06059574456737698 0.04633300850746441
-0.014102846001529612 0.0005999435350536586 -0.022335736756818846 0.03331098563940426 -0.017068820436783285 -0.014387292209378975 -0.04482230493242368 0.07471280968816879
0.02551837133719151 0.025904385763571326 0.034965389142803775 0.06683086325137923 0.009922082518414886 0.026443256487026657 -0.013760653299558926 0.09186320331362949
0.01748934794932993 0.09183440528076135 -0.022027285772746753 0.007806481398999349 0.05502992104872644 0.06531522111115619 -0.0125867020412491 0.034287956378166645
-0.03510434424640085 0.08020873593157807 -0.05224002997653072 0.05906304692552144 0.03413528473616942 0.0901760314104177 -0.04094307499686271 0.021991280281892154
-0.03595647681733377 0.037726858282276975 0.012341364886328044 0.08900475239447111 -0.004036123052477187 0.0717942741967457 0.10293325843541852 -0.012054723024612257
-0.02583046548128536 0.05557294974539378 0.08800695002458003 0.004238570703754392 0.06718873671891555 -0.016411079630081187 0.01990948360478153 -0.03689216583389049
0.07869343915306926 0.021691083910792337 0.0017623527857292623 -0.030868080954645716 0.0162899890446974 0.0773360284115308 -0.007288535904896355 0.037268944203923904
0.05660512251744099 -0.05872245947566679 0.051906925092261115 0.040626323244276966 -0.0028948370552965546 -0.026814633857974165 -0.027694167111266713 -0.016581379370969495
-0.01735414348995486 -0.03204703565831088 0.05199175470141721 -0.0035917716014558557 -0.025822402731658034 -0.020258098388919954 -0.009162044449526579 0.06078382143339793
0.08756626922597435 0.027168258553124176 0.06895850744068838 -0.04450026663561434 -0.042937662157873875 0.027273441837887148 0.0671412489914961 0.04130062078085837
-0.14130960459391967 -0.10274733987179735 0.041382960965549456 0.041737303106981156 0.049142916308523486 -0.10313290518571867 -0.030547937606010572 0.06464609655658168
-0.056836208834300045 0.04166669853787643 -0.10515908920243029 -0.12620459966806413 -0.16973701010851128 -0.157186716412054 0.0649859208282974 0.04231647622879004
0.059455761389692 -0.12739849383379828 -0.021467132243148463 -0.0353003684521406 -0.06113204767530964 -0.0783452165935497 -0.019858815117292268 -0.010320503421766544
-0.014063635123629998 0.0023869194055060956 -0.22033662516525002 0.12082069614301548 -0.2463284330544964 -0.00700570099281762 0.011365174359616306 -0.0069372913983146295
0.14007886587774462 -0.06381114125639037 -0.11533286581348957 0.023952811826530113 -0.05555257486277738 0.007230684250550976 0.02016442551987385 0.06834854088484464
-0.22844496066577502 0.059286136690806235 -0.04722757551412694 -0.11645109547177927 0.1225953195950816 0.0257512455772851 -0.12591099689904306 0.05620200193730099
-0.06323615884739056 -0.015363099067952449 -0.005488543320492178 0.12938390273079248 0.009258751275213785 0.056985898040142965 -0.03816185899259193 0.008399468270030686
00000000: 73b8 fa3f b0f6 b23f 89c5 c848 3705 903f
00000010: 6aa5 1ea1 48bf a6bf c709 1f9b e613 b43f
00000020: 2c46 39f0 47b7 b83f 2e8d 6c5e c18d 95bf
00000030: bd0d c6ab 6b6e b63f 6fc5 04bd 83e2 a1bf
00000040: 9726 581a b3c2 353f 9468 cb83 8d47 b23f
00000050: 468c 79be 0a7e 943f ab19 7f1d edac a63f
00000060: 0388 b966 06c4 993f 6fe5 0e81 c0af a5bf
00000070: 9f04 abb9 24b6 853f 4e0d 29e5 6f2f 713f
00000080: 5e44 78a9 4d6c 94bf f599 3c03 8dc9 b13f
00000090: 2678 b0f7 90ad b43f d5da e212 39e9 7bbf
000000a0: 94a9 1357 dcf5 853f ca89 89d2 26fe 62bf
000000b0: 147c 5ad7 c686 a03f fa55 a6f5 5717 93bf
000000c0: c456 ce49 3593 973f feff 9013 1e08 56bf
000000d0: 4334 8458 b544 b43f 1d88 3517 936e 923f
000000e0: 7e11 8bab ca54 99bf 12ee 0e1c d97b 9dbf
000000f0: bc3a 9b01 bfd9 953f 501d 5eb2 0084 94bf
00000100: 7735 4001 2d18 a73f 0a7f 9827 d970 af3f
00000110: 7182 2527 a481 a63f b42f 778c 5c14 a23f
00000120: 93d7 0092 d6cd 8cbf 1dae a5e9 f165 273f
00000130: f66e be9e a0f3 a63f a028 7a46 4726 ae3f
00000140: 80c7 03ae 75df 71bf f154 ddde 0838 b03f
00000150: 3039 0265 d8bb b03f ca6b 1adc 796d a43f
00000160: 4bf7 427e eaed b23f 92d3 e73d 7ded 5bbf
00000170: 88b6 e92f 1c40 603f a06d 89f7 25b5 b83f
00000180: 8f17 cd2f 9719 a13f 4f3e ae45 b0f3 a63f
00000190: ba8a 277d b5b2 b33f 3fb6 a75f 8a5a b93f
000001a0: 40cd 38d4 edca 5d3f c153 88e3 484b 833f
000001b0: 6fc2 6b26 9eb9 94bf d5ae a164 5856 733f
000001c0: ddcf bb03 6b99 aebf acd8 617d 3360 97bf
000001d0: 548f d241 e237 ad3f cd16 5353 76c4 9cbf
000001e0: fea4 d15b a58d a4bf 9612 3f86 0f08 ab3f
000001f0: 68be 5a0d 0312 b43f 7d7d 6341 c0a1 b03f
00000200: 2670 ba38 6b5c 6abf 2598 6832 9b8b 5f3f
00000210: 41a0 babb 44df 90bf 5e2b ad08 6174 a03f
00000220: 6786 2de2 5427 85bf 5b6a e147 da3b 8ebf
00000230: 7651 8c39 11a1 8bbf 75e3 1309 948d 97bf
00000240: 1cc4 3ca1 9294 a33f 8078 c4f5 fbc6 b33f
00000250: 701c b7cb a888 92bf 4b7b fd76 3ec8 92bf
00000260: 02f3 66a2 3d64 b03f 1169 8280 d22e 903f
00000270: a0d4 c74a 4846 afbf 0ee7 4052 ddf8 4a3f
00000280: 5ef0 2ff5 ea13 b13f 85db 7381 2fe8 b13f
00000290: aa86 7da2 7a39 b03f d6cd 711b 879e 75bf
000002a0: 4e66 4dc0 d21c b13f f207 b4c8 26e4 94bf
000002b0: bbcf 1921 8185 a9bf 83c0 9e37 2a40 92bf
000002c0: ae15 5c77 738b 963f c76e 1013 d14a 73bf
000002d0: 1254 3f9a 3f7e 88bf b44e d603 458a 9abf
000002e0: 5256 2067 bc65 b13f adb1 a003 c0ad 9b3f
000002f0: 8d8d 70ba 792d a63f 1519 e90f f193 a83f
00000300: 2de7 dc76 5188 a13f fe0b 89f3 8fd9 91bf
00000310: 6a18 017e f747 97bf c63d dcc5 90a9 b13f
00000320: 6262 27e6 c082 a73f bfe8 7077 68be a23f
00000330: 2dfb c460 3ad4 8fbf c77b f2ab 2752 833f
00000340: 9832 1a5c 0135 b33f 57de c505 fe99 9fbf
00000350: 9910 feec d734 8dbf 0695 aee3 0729 793f
00000360: 327e 9f0c f965 b03f 4c33 adbb f767 a0bf
00000370: 593e 2764 e2fa af3f a482 37df 8f87 b33f
00000380: 6f19 cf32 f084 98bf a3f2 6cd6 0b5e b53f
00000390: 89cd 86bd fcbf 713f bdb7 7fa1 25d2 a1bf
000003a0: 1af1 96e3 360f 9fbf 370a a660 db69 af3f
000003b0: 9726 63ca 6706 af3f 589a 87c8 f5b8 a73f
000003c0: 2054 dbf2 f3e1 8cbf f677 66ee b0a8 433f
000003d0: b643 9ceb 2ddf 96bf 9f68 d633 230e a13f
000003e0: c7a7 3a26 7d7a 91bf cc62 23ac 1577 8dbf
000003f0: c1d7 a1fb f2f2 a6bf fcf4 33f2 6020 b33f
00000400: 6897 5ce9 7c21 9a3f 5ac4 b5e6 ad86 9a3f
00000410: 6f73 b8c5 fbe6 a13f 0133 07d4 d31b b13f
00000420: 4c00 665f 0752 843f edfe 3ee7 f013 9b3f
00000430: 1546 259f 8b2e 8cbf 1e16 f0cd 5884 b73f
00000440: ce08 e245 bae8 913f 3f17 54a7 7582 b73f
00000450: 6deb 0d20 528e 96bf 2d78 e364 b0f9 7f3f
00000460: 0757 69be e12c ac3f 097a 9a92 7fb8 b03f
00000470: 74a4 0d8d 0ec7 89bf e4f0 94e6 308e a13f
00000480: 0fbd f854 32f9 a1bf 18fc ad49 8f88 b43f
00000490: e91f 9588 34bf aabf 0ffb e4fd 823d ae3f
000004a0: ccb9 2917 2e7a a13f b572 cac1 c615 b73f
000004b0: 26e9 37a0 7df6 a4bf 697c 6ed6 e184 963f
000004c0: 8808 0528 e368 a2bf 43a4 014d ef50 a33f
000004d0: 2727 99f4 6d46 893f 760b b9f4 03c9 b63f
000004e0: ba55 3588 2e88 70bf 720f b70b 1c61 b23f
000004f0: 5d9d a682 d559 ba3f 2671 3989 25b0 88bf
00000500: cd28 ee31 4d73 9abf 57be 65c3 0e74 ac3f
00000510: 8820 2d9c 9f87 b63f c8db dea8 765c 713f
00000520: 2707 def2 4733 b13f 4b87 36e9 10ce 90bf
00000530: 46e4 d9d3 2663 943f f867 78ab 87e3 a2bf
00000540: 987b 92d3 4025 b43f a2ec 0b00 3036 963f
00000550: a5c6 09e5 d7df 5c3f 300e c3d8 e19b 9fbf
00000560: 2bf4 cba8 52ae 903f 437e d440 4bcc b33f
00000570: b557 8e75 95da 7dbf 704c 0641 ea14 a33f
00000580: 1039 ffbb 58fb ac3f 8033 fac5 de10 aebf
00000590: ed13 6a63 8b93 aa3f e2bc 6133 f9cc a43f
000005a0: bc17 5acf e9b6 67bf 2f98 e59d 4b75 9bbf
000005b0: 41a3 2118 dc5b 9cbf c3c8 7b88 b5fa 90bf
000005c0: b531 f5da 48c5 91bf 3c21 2c14 7868 a0bf
000005d0: 195f 35cc a99e aa3f 0bb9 03b2 7d6c 6dbf
000005e0: 804a f21c 3071 9abf b0fd 3cf8 89be 94bf
000005f0: e9a3 33ca 8cc3 82bf b65c 5d9a 0e1f af3f
00000600: 2aec 8e36 be6a b63f d556 e6f7 fed1 9b3f
00000610: 5c1d 3dc6 43a7 b13f 0ffb b92b bdc8 a6bf
00000620: 2133 78dd ecfb a5bf ddea f8b2 91ed 9b3f
00000630: b88d a13c 2b30 b13f 7dd7 1ddf 5a25 a53f
00000640: c6b8 2be1 6e16 c2bf 0418 8050 a64d babf
00000650: 0ad8 eabf 2530 a53f 3946 bc7f 975e a53f
00000660: bb16 c0a4 4229 a93f 7504 ea06 eb66 babf
00000670: 9889 e963 f547 9fbf a64a 8686 a58c b03f
00000680: 2c09 58b4 a219 adbf 63dd 1a67 5655 a53f
00000690: dd67 00c1 b4eb babf 02ed 16ea 7827 c0bf
000006a0: cc1e ab3d f1b9 c5bf b27d 2dbf b11e c4bf
000006b0: 8c71 a8d4 eaa2 b03f 691f f852 81aa a53f
000006c0: c07b 744d fc70 ae3f 83b4 4906 984e c0bf
000006d0: 2563 b1db 7afb 95bf b4cf 13d0 e312 a2bf
000006e0: fd84 0123 b34c afbf b43c 119f 6e0e b4bf
000006f0: 4244 dd85 de55 94bf dedf 6585 ea22 85bf
00000700: 57d7 5927 65cd 8cbf 5161 1d99 bb8d 633f
00000710: a50e 9993 fd33 ccbf 873c 9dea 1aee be3f
00000720: 61a1 05aa b087 cfbf 8c32 658a 02b2 7cbf
00000730: 5bcc 80e1 9f46 873f 507a dbfa 466a 7cbf
00000740: a320 e7b1 1aee c13f dc0e d14c ed55 b0bf
00000750: 31a9 d266 7486 bdbf 28cd c4fd 1587 983f
00000760: 790a 7d18 6371 acbf 171f 2406 ec9d 7d3f
00000770: ff18 9ab0 fba5 943f f768 d43b 4a7f b13f
00000780: e06c 7f39 af3d cdbf e8ea 62a4 c05a ae3f
00000790: 42e7 9a78 362e a8bf 7379 a22e bdcf bdbf
000007a0: 06b5 4d28 6862 bf3f d4c2 57d6 885e 9a3f
000007b0: d0ae f1fe d91d c0bf 14b4 9440 82c6 ac3f
000007c0: 9a98 2cb2 3e30 b0bf 551b 7f40 b076 8fbf
000007d0: 66ef 06a1 277b 76bf ccc5 6dd7 a68f c03f
000007e0: 7444 6e8f 40f6 823f 1eca d470 412d ad3f
000007f0: 4ece a780 f389 a3bf 4046 308c bd33 813f

fc2.bias f8 [100]
0.8534628774802706 0.02397247075658524 -0.883620439310682 0.757474478104802 -0.003988326109933951 0.7735008993777623 0.8169112880133385 0.8254896334214855
0.81862865401179 0.6280961820760417 0.23214351413606346 0.7252210332933346 0.8549862242474754 0.5221823153095692 0.8420219976817576 0.8763414610337898
0.15501224045578596 0.747876432585307 0.5535110877804825 0.7784241719161223 0.8620500598735419 0.8862891643425569 -0.0439781682099354 0.6084517552779044
0.8805676153734346 0.8571390018486906 0.8179550812210589 0.7424374345750681 -0.0018607023915615478 -0.7515570194383078 0.8214365578930003 0.8144113868621996
-0.8120902179636535 0.8408471031499675 0.8416388271763618 0.7194462191240237 -0.034627562131194986 0.7935605177341729 0.8973780528787275 0.012740300451321022
0.5797510900654494 0.8948262320809324 0.8849049322754436 0.5097889486797417 0.11394043269445582 0.835692057506199 0.8430357603574486 0.7287549417295318
0.8142280286374448 0.749676230401668 -0.22350338140925627 0.787752281781087 0.8628464180133784 -0.11211652937536488 0.7798549833274432 0.771064802395407
0.815080678516658 -0.006104358342040102 0.8081224299937928 0.8011584406724293 0.8110827869892647 -0.23773276838327165 0.9179890891754652 0.8855694412760567
-0.09521273484554213 0.37875809756062645 0.5917036316118762 0.8776093892871273 -0.8655589531388966 0.6192415962095146 0.8769027164031754 0.47076806633938695
-0.7474247580235219 0.4224010230639195 0.12286979765999027 0.11802736253832159 -0.07138110753223946 0.7506826610788733 0.8297730575078474 0.8395000628417445
-0.6510728150185041 0.36133688272460446 0.7687998622685533 0.8652848235895425 0.310244234900444 0.9143437939723865 0.8427372600933323 0.6735332477062833
0.8281231482765878 0.9022810137370108 -0.835468353503047 0.7343526420772342 0.7760963601156381 0.778077432751217 0.8846570536068037 0.5620814846284536
0.0461940146244856 0.867518195406796 0.8600426339453664 0.8110611719125619
00000000: 1417 6461 914f eb3f da8a 9d47 3d8c 983f
00000010: 3b54 1d5f 9e46 ecbf 2e79 e01d 3b3d e83f
00000020: 90c2 5323 1056 70bf 6421 48f5 84c0 e83f
00000030: 4e04 3824 2324 ea3f 136f 573c 696a ea3f
00000040: 8892 11b8 3432 ea3f 394a 182a 5d19 e43f
00000050: 27b1 98f0 e0b6 cd3f e8b7 8bbd 0235 e73f
00000060: bb8c f511 0c5c eb3f adbb d9af b7b5 e03f
00000070: 98c8 d11d d8f1 ea3f 889b 683f fd0a ec3f
00000080: 7b5f 9eeb 70d7 c33f b9e5 6c8e 9aee e73f
00000090: a6b2 7fe2 5cb6 e13f c775 19cf d9e8 e83f
000000a0: 9a7e d501 ea95 eb3f 7fd0 f417 7b5c ec3f
000000b0: c239 6674 4e84 a6bf bd98 c3d0 6f78 e33f
000000c0: 6d42 be22 9c2d ec3f 641e a2c5 ae6d eb3f
000000d0: 8920 6e22 b02c ea3f 0f6f 9a26 0cc2 e73f
000000e0: e98f d6fa 597c 5ebf f722 724e c10c e8bf
000000f0: b674 fc51 3549 ea3f 5605 0278 a80f ea3f
00000100: dec5 f19f a4fc e9bf f5e4 1e2f 38e8 ea3f
00000110: 4985 b88c b4ee ea3f 03cb cb13 b405 e73f
00000120: ce91 c92d b4ba a1bf 4e15 e206 d964 e93f
00000130: b564 a82d 52b7 ec3f c2b2 3c2e 9617 8a3f
00000140: bad8 7428 528d e23f 107f 4c9f 6aa2 ec3f
00000150: e425 0626 2451 ec3f 8322 cee9 3050 e03f
00000160: 0562 1d40 332b bd3f b283 1045 fdbd ea3f
00000170: e1ff 8221 26fa ea3f eeda 30e2 f551 e73f
00000180: 0480 4ff0 270e ea3f 3c3d 8501 59fd e73f
00000190: a35d d940 c29b ccbf 332c f345 4435 e93f
000001a0: 94d2 5a17 709c eb3f 691a 023b abb3 bcbf
000001b0: a372 2070 92f4 e83f b851 ac17 90ac e83f
000001c0: c093 3a13 2415 ea3f c8f3 1237 e200 79bf
000001d0: b298 ff91 23dc e93f 3047 b306 17a3 e93f
000001e0: 28f5 8ee3 63f4 e93f 9564 b200 076e cebf
000001f0: 8cfd 82a7 2a60 ed3f d7c3 93b9 9556 ec3f
00000200: d606 539e dc5f b8bf 6d8e 879a 923d d83f
00000210: 6e51 5674 3cef e23f e6d2 3449 6015 ec3f
00000220: d7ba 8fb0 a8b2 ebbf d25d 81c0 d3d0 e33f
00000230: d934 1749 960f ec3f e071 3b62 1021 de3f
00000240: d1d0 7d53 e7ea e7bf 81d0 f64c 9e08 db3f
00000250: c7a4 9d22 6574 bf3f 399e 228e 0a37 be3f
00000260: ef39 6742 0846 b2bf a441 e0a4 9705 e83f
00000270: e523 233a 808d ea3f c9a5 5c3c 2fdd ea3f
00000280: 5636 faa7 96d5 e4bf 4502 89bb 2420 d73f
00000290: 939b 332b 029a e83f d259 61cc 69b0 eb3f
000002a0: 71e0 aaa2 0adb d33f cb2e 8dea 4d42 ed3f
000002b0: 9816 6721 b4f7 ea3f 5359 f598 958d e53f
000002c0: 7612 dd1d fc7f ea3f 86ab b96e 7cdf ec3f
000002d0: 096f e420 28bc eabf 467e ae1c d17f e73f
000002e0: c4b8 a708 c8d5 e83f fa81 eda4 02e6 e83f
000002f0: 9457 2d4f 1c4f ec3f 9e52 454f 92fc e13f
00000300: 938d 2aec bda6 a73f c7a0 be84 b5c2 eb3f
00000310: e8c0 3e21 7885 eb3f b76f 0d8f 36f4 e93f

fc3.weight f8 [50, 100]
-0.04084860127833904 -0.04280830258246499 -0.08732403678889676 -0.06596220027755016 -0.020221514846438197 0.08551060884435172 0.07099102725786788 -0.029120979457318764
0.07307262627481316 -0.07785102727863123 -0.010180423285468214 -0.11151194787163646 0.06938972578946905 0.08246636975638047 0.023674514174192276 -0.08780504232792961
-0.0269127758183156 0.07307799806394573 -0.02499318320573197 -0.09550725925229475 0.012806016088103809 -0.013834788062382107 0.03594081765317724 0.012570745481418445
-0.015259727658106364 0.08523950845538619 0.033413143178560235 -0.10817942785832056 0.06534907923132288 0.007889895020738716 0.07228629443433685 0.05226612825042875
0.08676254450834427 0.06516633838216349 0.019268650925545985 -0.016020165306120528 0.021440540102961134 0.04383859998321589 -0.023536214136636827 0.005545394636548434
-0.09749740135103455 -0.06578276364281149 -0.0617470214926024 -0.08072573722769429 -0.01969593964762243 -0.06458384599808858 -0.09634420365306658 0.02701636697488708
-0.09095015124180886 -0.01568297018686745 0.0005643149853612791 -0.04576498557769425 0.02232356619994622 -0.018453474085976952 0.03686617168021596 0.06385740780958862
-0.08036954727516399 -0.03166937698132636 0.025588080922962126 0.06850295400197196 0.07932158511636524 0.07808097160251395 0.00018520732676049055 -0.009007472517349636
-0.02513315505129376 0.08669616601210173 -0.10050965836588896 0.040218945765138896 0.004195632130544698 0.017856967122981012 -0.0689543481727395 0.05896233316173074
-0.055420648593090906 0.07997664540260868 0.03853060926645362 -0.1075449087312976 -0.02451724369797012 -0.1084169387702171 -0.038598954954872026 -0.0800070055001142
-0.08828833670907651 -0.08900628334081205 0.026665810556815876 -0.06924245291434618 -0.10014726502291242 0.055844764395159244 0.07649036772990904 -0.005506534977476471
0.052720471401991854 0.01919344251966821 0.057629200845502514 -0.04909742400250239 0.019339641140315587 0.02110137656260783 -0.017162462323519218 -0.020126095677185173
-0.0818215961824053 -0.05480767060455305 0.023217689406132423 -0.011617247407352123 -0.08550777990276415 -0.08909563447863005 -0.09928901705130383 -0.07173073538616262
-0.016122233060301135 -0.01533305356952499 0.05425926236902464 -0.08684663982192176 0.08501085113617202 -0.04377313154965766 -0.07417722670884903 0.03382576645147809
0.0750083687544113 0.010467110002284757 -0.06976917854426869 0.06880541141185471 -0.0957559694238676 0.09769144890008875 0.05711639588820488 -0.06783872077233881
0.03866796535127063 -0.04419800518283221 -0.09465723452579866 0.03720871910436591 -0.04749668683051078 0.02942730717941061 -0.056947645041026285 -0.003157806058641394
-0.08283651949435299 -0.00936260574010798 -0.016878349023316915 -0.07742602491561677 -0.020830798002785502 -0.09577196084692215 -0.030511477630658722 0.007636621179284509
0.015638485688249625 0.04010984624681276 -0.08766304611823479 0.04588970717401457 -0.08970725938138643 0.022544080262153272 -0.05307898412276579 0.012074544788460933
-0.06456735787033457 -0.05842682037414918 -0.07057576812359251 0.07975834271591146 -0.06661162406935892 -0.08945962956453266 0.031151063139137496 0.09137539680481208
-0.07999844797963379 0.029771508115695875 -0.05960299052654347 0.07548743544964528 0.05862148946006448 -0.007023388124395475 0.07839285269536299 -0.08964973774442184
0.044623081260175015 -0.08517589468250372 -0.0734260249832166 0.011609794970701469 -0.0919211445250871 0.08461040425110547 -0.01541676203642969 0.05166201050277478
-0.05201709959801327 -0.05758662535677802 -0.0740723133117875 -0.09305398217212234 0.006875660915126616 -0.02358197689603063 -0.03290212004135456 -0.07304785403769876
0.06553953338214405 -0.000297256486584499 -0.042377698222643215 -0.06987531892394291 0.004010746155215531 -0.05917065473502993 0.0841183122359766 -0.09477998466866579
0.08518067888272739 -0.03477389732206448 -0.029557502714019444 0.012831844613461858 -0.07751202904500275 -0.09819800245300919 0.09698230069409573 -0.032971031808005494
-0.03058542214339771 0.041092519646326216 0.08159653462295782 0.021199287480891647 -0.01438231426064069 0.05717332477230396 -0.09879660442085063 0.012054128204189682
-0.11764234803975752 -0.01882248057433981 0.07094582428767843 -0.01890817949286988 0.0038849340915050943 -0.06035834873097546 -0.10577725910377604 0.06005090285188538
-0.04467814352083842 -0.03883726093613568 0.058867509984932946 -0.06746493465545576 0.08197204435286391 0.07848501424796364 -0.07333810132362058 0.07454187426643692
0.07894280246810247 -0.09168577500247323 -0.0015158539731049644 0.02664805118877086 -0.038994421237787555 0.062361909972431226 0.06584543887366667 -0.06859172782523047
-0.0064551616351176755 -0.041563130378463625 -0.05633740221126541 -0.11665301340341931 -0.09189503170538381 -0.05742508827037432 0.04954209391292767 -0.060899252200677795
0.06183143864246312 0.005204163625515568 -0.0008991646714112874 -0.0795702571456618 -0.02793096582276405 0.04488803925874261 -0.018254290069462234 0.09261289043194618
-0.08744395774826409 -0.0069232261837733405 -0.002019590688163966 0.0030130595781181543 0.06101810620137114 0.027937612107062432 -0.045670934719758464 0.03177284277842269
0.02826343877919054 -0.03097322515367701 0.003664423253187543 0.0582208329074956 -0.016974706032787105 0.023461536435600255 -0.09949180610343583 0.018519309782328117
00000000: b5d6 279d 1bea a4bf 198c 2d47 f8ea a5bf
00000010: 2fbb 293a de5a b6bf 0fdb f614 e6e2 b0bf
00000020: 819d c3e3 f2b4 94bf ea91 72f4 05e4 b53f
00000030: e8c9 61cc 772c b23f 2a31 96d9 e3d1 9dbf
00000040: 8149 153c e3b4 b23f 5f29 1f80 0bee b3bf
00000050: 496e 9048 79d9 84bf c2d0 3809 0c8c bcbf
00000060: 9bb5 f16a 86c3 b13f 8a9d 1f19 841c b53f
00000070: 77e3 81c0 213e 983f 27ec 3829 647a b6bf
00000080: f5dd efcf 058f 9bbf 7de6 bd5b 3db5 b23f
00000090: 425a f721 d097 99bf 40ea 04eb 2973 b8bf
000000a0: 72da 5262 0a3a 8a3f ec3e 33d2 6955 8cbf
000000b0: ffe3 d2b8 d566 a23f ba0e d5e5 b0be 893f
000000c0: 8943 e6f9 7d40 8fbf 989b 24a5 41d2 b53f
000000d0: 1dbe 6a0a 871b a13f df60 c0a0 a5b1 bbbf
000000e0: 6c4b 1f9e b7ba b03f 9bdf a9c8 9328 803f
000000f0: 9664 8bc6 5a81 b23f 2f5b 0c3f a0c2 aa3f
00000100: 755b 2ef3 1136 b63f 32c6 26bc bdae b03f
00000110: 44c7 4046 29bb 933f 8ae4 4318 9767 90bf
00000120: 7c03 344a 82f4 953f eaee 7552 0372 a63f
00000130: 743b f497 e019 98bf e0dd b789 c4b6 763f
00000140: ee67 3ff6 96f5 b8bf f482 7ca2 23d7 b0bf
00000150: 464d df3b 4e9d afbf c9a3 5621 71aa b4bf
00000160: 0a24 9a22 2c2b 94bf 9464 6922 9188 b0bf
00000170: 9d5d d983 03aa b8bf 829b 74b2 2daa 9b3f
00000180: ca5a 2655 8248 b7bf b619 3a50 320f 90bf
00000190: 2605 1134 d17d 423f fe59 b718 826e a7bf
000001a0: 9912 092b fddb 963f 3a94 c9ae 77e5 92bf
000001b0: abf7 6373 1fe0 a23f d246 2686 f558 b03f
000001c0: c022 2441 1993 b4bf a5c7 d6f4 f736 a0bf
000001d0: 9514 ed0a c333 9a3f 322c 1edb 6889 b13f
000001e0: 3911 f15d 6b4e b43f 0203 7953 1dfd b33f
000001f0: 971a a5d2 8646 283f e796 0d7f 8272 82bf
00000200: df60 f67b 81bc 99bf 80e7 b54d b831 b63f
00000210: 9616 9d3f 00bb b9bf 3753 7be1 9397 a43f
00000220: c878 966c 702f 713f 1f20 32c7 1849 923f
00000230: 51a4 51fe fda6 b1bf 3340 4099 4f30 ae3f
00000240: 6dfb 7562 1860 acbf acaf 7274 5979 b43f
00000250: d784 63b5 48ba a33f 9e2b da29 1088 bbbf
00000260: 78be 7b5f 0c1b 99bf 7abb 5966 36c1 bbbf
00000270: 87c4 6102 3ec3 a3bf f9e9 12d0 567b b4bf
00000280: dea1 c87e 109a b6bf 1f59 16a4 1dc9 b6bf
00000290: 0e2a 0d41 484e 9b3f 490e c396 dfb9 b1bf
000002a0: 2ba8 0e4c 40a3 b9bf 0ac7 7559 af97 ac3f
000002b0: a9e5 db6b df94 b33f a3d9 473a 058e 76bf
000002c0: eda4 0079 2dfe aa3f b2b3 ad1f 72a7 933f
000002d0: 1323 da19 9381 ad3f 2033 d12c 4c23 a9bf
000002e0: 192b db58 c5cd 933f 49ab f268 999b 953f
000002f0: 55e8 9759 0993 91bf 8630 eb6a ef9b 94bf
00000300: 3bbf b597 42f2 b4bf c00b a241 c00f acbf
00000310: 7989 c0c2 60c6 973f f112 798d c8ca 87bf
00000320: 7066 3c7e d6e3 b5bf 8355 4db4 f8ce b6bf
00000330: ac5b 1649 016b b9bf 5a02 9a0a f25c b2bf
00000340: 1f10 eebe 5882 90bf 4d0a 089d ef66 8fbf
00000350: 2b95 c2ba dec7 ab3f 287a cdd5 943b b6bf
00000360: 105b 6f69 45c3 b53f be08 e690 6e69 a6bf
00000370: 558e d25a 47fd b2bf c5ab 5761 9c51 a13f
00000380: 38fc b99a bf33 b33f d0c7 25b9 c76f 853f
00000390: a1cd 1d94 64dc b1bf e93e cd3f 3b9d b13f
000003a0: 6c81 1295 7683 b8bf b9ee 1f8a 4e02 b93f
000003b0: 277a cf38 5c3e ad3f c3a2 1edf e05d b1bf
000003c0: b552 2c9d 49cc a33f 4d0e 9ef5 1ea1 a6bf
000003d0: 483c 9ede 743b b8bf 79cd 5b6f 050d a33f
000003e0: b0f6 3559 7c51 a8bf b097 c727 3122 9e3f
000003f0: 2823 12e2 3d28 adbf 5a9b f737 66de 69bf
00000400: cf88 242e c634 b5bf 953f acab b32c 83bf
00000410: cf31 43d4 8e48 91bf e731 df24 31d2 b3bf
00000420: b7a9 af30 ab54 95bf 4519 b6df 8284 b8bf
00000430: 7625 4e9a 663e 9fbf 5ab3 78e3 9347 7f3f
00000440: f627 5c02 8903 903f 3b5b c11b 4789 a43f
00000450: 4d43 25dc 1571 b6bf 2621 120f db7e a73f
00000460: 86c0 4111 0ef7 b6bf 0203 c79d cb15 973f
00000470: 9009 d329 2b2d abbf 831e d8f7 89ba 883f
00000480: 0435 7182 7c87 b0bf a5b6 6ec5 1eea adbf
00000490: dc1c fbe7 4011 b2bf b349 8cf1 0a6b b43f
000004a0: c64d e99a 750d b1bf bebc 4a87 d3e6 b6bf
000004b0: 9b43 ac75 10e6 9f3f 6e89 efc4 6064 b73f
000004c0: 0ca4 cd3d c77a b4bf 698a d616 6c7c 9e3f
000004d0: 8c50 1c7e 4884 aebf 0ee0 8302 2553 b33f
000004e0: 3bc7 25c8 a203 ae3f d481 d264 8ec4 7cbf
000004f0: 2f15 91d2 8d11 b43f 8e0f b503 49f3 b6bf
00000500: f282 5125 d6d8 a63f 06a3 1162 16ce b5bf
00000510: f06a fa47 0ccc b2bf 7f0d b34d e0c6 873f
00000520: bccf 8be5 2488 b7bf 1aeb 2807 07a9 b53f
00000530: 2eae 0dc6 d292 8fbf 652c 1c6b 7173 aa3f
00000540: 5165 363b fca1 aabf bb50 3081 fe7b adbf
00000550: cd93 3633 67f6 b2bf ef1b 31c2 62d2 b7bf
00000560: 1d3a 4d2c a729 7c3f cc85 2cae df25 98bf
00000570: f7e6 17f3 8bd8 a0bf a888 22a0 43b3 b2bf
00000580: 42ae 78e8 32c7 b03f 9a76 6ee3 227b 33bf
00000590: 6a5b e497 87b2 a5bf 7e6e 9351 59e3 b1bf
000005a0: 517a 1b79 926d 703f a291 f0b5 9d4b aebf
000005b0: 3459 0c18 c788 b53f 09a1 7746 8043 b8bf
000005c0: 8f69 0da6 66ce b53f af65 815f e2cd a1bf
000005d0: 1957 086e 5244 9ebf 7787 b207 9547 8a3f
000005e0: d77d cb0d d4d7 b3bf b475 1119 8123 b9bf
000005f0: 6fa0 c501 d5d3 b83f 4a59 a93e 94e1 a0bf
00000600: d069 5cef c851 9fbf b17f fb27 140a a53f
00000610: 4a2b acaf 82e3 b43f e939 b719 44b5 953f
00000620: 6439 1f8b 7974 8dbf 0f86 3370 d245 ad3f
00000630: d382 f1f8 bb4a b9bf 6bac 59b3 d5af 883f
00000640: a395 7415 cf1d bebf 4b4c fc49 3346 93bf
00000650: 9474 1a6b 8129 b23f d0f1 3172 aa5c 93bf
00000660: 8f1a d81b 4cd3 6f3f f121 ae1b 4ae7 aebf
00000670: 63e0 82ec 3714 bbbf 9b30 b0ef fdbe ae3f
00000680: ae36 89ba 0de0 a6bf ec80 2c3b 7ae2 a3bf
00000690: 9f4e 5ddc e123 ae3f 57d2 f8c7 6145 b1bf
000006a0: 3b8b aeb1 1efc b43f 12cd 6b09 9817 b43f
000006b0: d555 bc2a 49c6 b2bf fb29 2820 2d15 b33f
000006c0: 0fe7 da72 9835 b43f 99df 240d b878 b7bf
000006d0: 6a1e 5ccf f3d5 58bf 967e 6e71 a049 9b3f
000006e0: 86af e2a7 13f7 a3bf 3604 b277 e6ed af3f
000006f0: 409c 8d26 3fdb b03f 6716 c93b 3a8f b1bf
00000700: 49c4 cf41 ba70 7abf 04c8 633b c347 a5bf
00000710: 95f5 1388 41d8 acbf 4b2b 8ccd f8dc bdbf
00000720: e7e9 d6cb 6e86 b7bf f4ad 2e38 d266 adbf
00000730: e644 43d2 945d a93f 4c04 1bd1 2f2e afbf
00000740: 5303 abcd 5ea8 af3f 00a7 3109 f650 753f
00000750: b544 c06d bd76 4dbf 10c8 2c64 b75e b4bf
00000760: 8f92 0463 ef99 9cbf 2d1b 32a9 90fb a63f
00000770: c4ad 70ab 40b1 92bf 96de 9777 7ab5 b73f
00000780: 39f8 c22a ba62 b6bf 4783 ac60 875b 7cbf
00000790: 5280 9f7e 638b 60bf 0c54 2a0b d8ae 683f
000007a0: 8d8e 32e5 c33d af3f f50a 5069 ad9b 9c3f
000007b0: cf8b ff45 2e62 a7bf b9bf 44b1 8744 a03f
000007c0: d69e ea44 17f1 9c3f 90c4 58f4 71b7 9fbf
000007d0: 661e ff40 da04 6e3f a330 91fa 1ecf ad3f
000007e0: ee83 143d d161 91bf 28bb d10e 4d06 983f
000007f0: b429 6f85 4b78 b9bf ec38 70d7 b9f6 923f
