weights/numq/nasdaq/mse/high/numq_5.pt (torch, 526847 bytes, 8 tensors)

fc1.weight f8 [200, 200]
000000 5c 4f 03 49 22 19 67 bf d5 e5 b1 59 de 17 90 3f
       -0.0028196019776291336 0.015716051315825503
000010 02 41 80 ee 07 04 96 bf bb a3 84 75 f5 cb 92 bf
       -0.021499751979775723 -0.01835616616986944
000020 81 cc 3e f1 65 30 a7 bf 2b 66 34 d7 64 a2 b2 3f
       -0.045291124056711325 0.07279043439884762
000030 52 87 5a 97 22 d9 9f bf 8b 9e 95 77 44 62 b3 3f
       -0.031101742256061833 0.07571819228689429
000040 cb 6c 3c cb 1f 6d ab bf f6 26 91 ce 9e 66 7d bf
       -0.053566926535688696 -0.007177944507086078
000050 4e ef 47 5c 2e ba 9d 3f 0d b9 e5 0b d1 56 a0 3f
       0.029030537016282047 0.03191235800010093
000060 e4 29 e0 90 1b b4 21 3f 7d bd 24 5f 83 ad 99 bf
       0.00013506733415653762 -0.025075962717151058
000070 6b a2 fe 7e 03 86 b0 3f 27 04 9f 92 8f a3 a8 3f
       0.0645448861165591 0.04812287010964438
000080 a3 f3 d3 db 56 cf a2 bf 02 67 e1 f8 7b b9 a7 bf
       -0.03673812325903405 -0.04633700764743588
000090 a6 69 19 03 98 21 a2 bf c6 b7 3b 4e 8d ed 95 3f
       -0.0354125503333365 0.02141400136945728
0000a0 ae 75 26 8b c2 5c 6e 3f a6 73 a0 09 ce 76 b1 3f
       0.0037063407591648367 0.06821906790760454
0000b0 ec 5f fb 76 74 eb a5 3f 94 67 67 75 83 c4 ab 3f
       0.042812003635560675 0.05423365409997341
0000c0 25 9a d0 e8 44 a1 a6 3f 13 bf ed 4d c2 45 a8 3f
       0.04419913618066954 0.04740721894529378
0000d0 4e 96 aa 32 2a 12 a0 bf c4 bc 21 9c b2 c0 90 3f
       -0.03138858669744292 0.016360083369758596
0000e0 f2 21 20 9f 90 9f 97 3f 26 65 08 c9 eb 43 b6 3f
       0.02306962939477048 0.0869738927653044
0000f0 99 38 03 6d 01 9e 66 bf db 95 02 84 11 d8 af 3f
       -0.0027608898018121717 0.06219534622622876
000100 65 5c 4f 88 c7 c2 b0 3f 0d 71 7b 35 19 48 ba 3f
       0.06547209813958117 0.10266263538091298
000110 59 bf 05 c4 bb ea 89 3f c3 5f 31 4e aa b1 af bf
       0.012654749793653929 -0.06190235332968499
000120 9f c1 63 32 b2 84 a0 3f ac 90 56 73 de be 97 3f
       0.03226239075764003 0.02318904475181742
000130 25 38 83 ae 4a 01 b0 bf bb 04 cd 46 7b 72 b1 3f
       -0.06251971016465115 0.06815309980904065
000140 65 85 23 ef d5 66 b3 3f d4 7b 85 d8 9f 4e b1 bf
       0.07578789795254222 -0.06760596309821604
000150 64 ff 29 56 ae cd a8 bf c9 79 79 95 40 d0 b4 3f
       -0.04844422151381769 0.08130267762451306
000160 5c ec ec 32 36 a0 a9 3f 7c 05 c1 81 0f 59 61 bf
       0.05005044337891526 -0.0021176627033418476
000170 cd b4 bd 1c 4e 28 a0 3f 2e 3a 15 ec e6 9d 97 bf
       0.03155750370829367 -0.023063285979612207
000180 2c 0b 48 b3 da 3b 98 bf 44 cd d7 68 e0 82 97 3f
       -0.023665826027364265 0.02296019210730306
000190 5d b7 ed 2a c9 5a 9d 3f b1 2e 5e d2 26 eb 9a 3f
       0.028666632886078392 0.02628765734657063
0001a0 56 81 3b 69 d6 48 a4 3f 7a 83 8a 4a be ba a6 3f
       0.0396182063539096 0.04439348850178866
0001b0 95 a0 cf ad 44 9d aa bf a9 75 37 32 9f ab 7e 3f
       -0.05198111173359724 0.0074878901100111995
0001c0 7f 0e 90 df f1 77 74 bf dc b7 6a 2b 64 12 85 bf
       -0.00499720079188004 -0.010288984847047482
0001d0 8c 11 68 94 f3 e0 9a bf 48 a5 8b 2c b2 db a9 3f
       -0.026248746808066367 0.0505042724015064
0001e0 29 fd da 48 83 c1 ad 3f 6a d3 50 05 ca 95 b1 bf
       0.058117010730251835 -0.06869185094622102
0001f0 7c 14 0b 83 0e ff ae 3f 8f 09 33 bf 5f 80 4b bf
       0.060539678093427945 -0.0008392779840494124
000200 1e f1 d4 a1 8f 39 76 bf 82 37 42 7e f3 b1 a3 bf
       -0.005425988257510532 -0.03846703449481394
000210 16 c2 49 07 6e 3e ac 3f b1 66 79 78 04 a7 a6 bf
       0.05516380156484872 -0.044242992121053766
000220 3d a1 bd 9b 96 e7 89 bf 75 0e 7f 91 ba 29 aa bf
       -0.012648750903921363 -0.05109961534574562
000230 38 66 d6 6c 25 00 ac 3f 75 f4 14 4f f7 ff b4 bf
       0.05468861535628061 -0.08203073197087625
000240 45 75 ce 70 07 e3 90 bf 9f 55 bd f0 d9 0e b4 3f
       -0.016491047153626388 0.07835161330634442
000250 d2 62 5b 7e 14 d4 79 3f 4c 02 f6 fb f1 a6 a9 bf
       0.006305770924620107 -0.05010181618400064
000260 47 9d 8f 08 a2 32 70 bf f6 ac b2 82 09 6c 06 3f
       -0.003954537337427517 4.2766609419453707e-05
000270 1a a2 68 05 d4 67 a6 3f 40 c9 a7 86 62 b9 6a 3f
       0.043760896358723225 0.0032622265182392918
000280 9b 48 06 3c 40 9e 9b 3f 28 1a a8 be 82 91 85 3f
       0.02697086683617354 0.010531445926074204
000290 cd b6 76 a5 49 ad a9 bf 05 9f 51 96 ca 4d a8 3f
       -0.05015020508595356 0.04746850094744385
0002a0 18 cc 3d da f4 cc a6 bf 58 49 b4 2e 4a d4 a9 bf
       -0.04453244365767989 -0.0504477674495713
0002b0 4e dc 8d e7 05 31 81 bf cf 02 a9 25 25 1c a6 3f
       -0.008394285325023312 0.043183480117027544
0002c0 a2 ea c3 3f 4e bb b0 3f 59 3b d5 21 f9 d8 97 bf
       0.06535805756349558 -0.023288624467848382
0002d0 ec 8e e5 89 e6 3e 92 bf c3 a8 65 0f 52 03 a7 bf
       -0.017818071524188392 -0.04494720876648863
0002e0 92 42 d7 83 8d e2 97 3f f5 fb 16 85 23 fe 9a 3f
       0.02332516781990763 0.02636008739295544
0002f0 c4 e3 94 71 c7 3d 95 3f b8 25 c5 7c a6 b0 96 3f
       0.020743480975599984 0.022158242574084247
000300 cc 90 00 60 fa 30 b0 3f f6 b7 ff ee 3b 0d 9f 3f
       0.06324734538845006 0.030323921644530537
000310 5b 55 43 c7 a8 86 a2 bf 09 12 df c7 87 38 94 bf
       -0.03618361885461737 -0.01974689633768104
000320 9e 97 63 c1 0e 22 7d bf bb aa be 9c cb 07 ac bf
       -0.007112558020002794 -0.05474697388065893
000330 ca 5a bc 38 53 2a 94 3f 8a ad 75 d8 be d3 94 bf
       0.01969270738399124 -0.020338994943285317
000340 3c 9c fa d4 f3 99 b8 bf e8 ff 14 31 d9 63 8a 3f
       -0.0960991282432681 0.012885758219113044
000350 2a 29 45 43 c0 b8 a9 3f 19 b2 69 fc 41 2b 79 bf
       0.05023766347092569 -0.006144769437565611
000360 dd fb 10 bf 93 d9 84 3f 5a d3 b8 9e b8 65 6b 3f
       0.010180620449430517 0.0033444028720403364
000370 77 26 97 81 8d 2e a3 3f e6 3d da 94 3b 81 aa bf
       0.03746454436220586 -0.05176721756026463
000380 38 76 aa 67 cf e9 82 3f cb c4 55 93 21 09 8d 3f
       0.009235020018702675 0.014177572544868863
000390 f1 e7 9d 9e 24 a8 80 bf d3 d7 c6 f4 c1 d5 8a 3f
       -0.008133207407571038 0.01310302284478474
0003a0 d6 de ce 45 40 9f 7d 3f b6 c2 0d ae ed 9d b8 bf
       0.00723195177572907 -0.09615979670867145
0003b0 58 36 a2 82 9c 3d 97 bf 6f 3a 4e 2a 70 d5 99 bf
       -0.022695966218228086 -0.02522826441014064
0003c0 c3 de 8d 0d 37 06 9b 3f 81 c7 cb d6 69 5f 74 bf
       0.026390896036416544 -0.004973805841233304
0003d0 31 ea 57 ca 95 5c a0 3f 18 d8 3a 8e 72 53 91 bf
       0.0319563683987848 -0.016919889384290426
0003e0 bd 44 3a a1 4a 40 9f 3f 6a ed 9a b3 b3 82 b1 bf
       0.030518690195610477 -0.06840060362713066
0003f0 0e bb 55 66 d8 82 94 bf a3 d2 84 53 5e fe 98 3f
       -0.020030385252023435 0.024407838676057236
000400 be 39 28 20 9c e3 aa bf 91 15 85 6a ec 31 89 3f
       -0.052517775464468994 0.012302252770164642
000410 46 4a 4b 85 3b ab 58 bf 8e 86 5f 5b 8d 08 a8 bf
       -0.001505668759979388 -0.04694024792094097
000420 40 50 f5 79 30 2e 9f 3f bc be 10 55 a1 30 9b bf
       0.030449635928860852 -0.026552697007160772
000430 5e 84 99 da fc be 8a bf 9d 28 50 f6 40 78 b6 bf
       -0.013059592648632708 -0.08777242673400783
000440 27 b2 f5 15 5a 22 7f bf ae 4d 5c 38 1e 68 a3 bf
       -0.007601119897441089 -0.037903732662154396
000450 e4 6b 96 7e f4 c4 8a bf da ec 06 1f 9e d3 ad bf
       -0.013070974457880476 -0.0582551396250552
000460 12 8c d7 8b 73 95 b0 bf b2 d1 4a c4 79 e0 80 3f
       -0.06478044666396013 0.008240653326858947
000470 ed 65 e4 94 4a 63 68 3f 7a 37 0b 31 63 25 94 3f
       0.002977033297736345 0.019673871868512084
000480 26 8e 09 d9 c6 2f 7f bf b1 c1 d8 19 38 68 aa bf
       -0.007613922833658948 -0.05157637897025625
000490 fd 1d f4 fa 12 20 63 bf 9b b5 be e7 68 9e 85 bf
       -0.002334630080102816 -0.010556048939032439
0004a0 1a 93 54 5f ad 5f 86 3f 45 1f c3 fc 4f 05 ae bf
       0.01092467734503937 -0.05863428078151726
0004b0 95 38 94 d6 50 a9 a7 bf d4 7b 56 df 66 4a a3 bf
       -0.046213651841854254 -0.03767701603214105
0004c0 90 1a e1 32 1a cd a1 3f 3e 50 40 0d d7 24 99 bf
       0.03476793166241976 -0.024554596122541954
0004d0 cd 09 8a 22 41 84 4a bf d0 3d 24 c6 a4 60 6f 3f
       -0.0008092229882808389 0.0038302629701616256
0004e0 b3 7b d2 98 97 de 9d bf 86 c1 58 23 b7 49 a7 bf
       -0.02916943426373182 -0.045484278740675996
0004f0 d3 6f 5d 71 cb b1 99 bf 58 9e 42 90 75 ed 79 bf
       -0.02509229545044873 -0.006329974396215819
000500 af 73 5c 86 33 ab 89 3f 60 8c d8 aa 18 25 97 3f
       0.012533571756245225 0.022602448871236525
000510 da 32 86 9b a0 8b 90 bf 26 d0 8c 22 2d 33 9b bf
       -0.01615763615841357 -0.026562409623878257
000520 57 67 57 db 98 4b 8d 3f 3a f7 6d 4b 3d 82 a4 3f
       0.014304346269387187 0.04005614801188391
000530 a8 48 fe 34 e5 ce 95 3f 54 1d c6 fa 99 26 83 bf
       0.021297055587247954 -0.009350970235358837
000540 4e 10 6f 36 b9 8f a5 bf 3d f7 48 93 c5 46 a8 bf
       -0.04211214818454377 -0.04741494582093118
000550 cd d3 2f d8 d7 34 90 bf 93 cc a2 df 90 bd 84 bf
       -0.015826580591198614 -0.010127193283869828
000560 fe e2 96 d7 83 ff 81 3f 4f ea 66 7e 48 1a b4 bf
       0.008788137451902763 -0.07852604948031082
000570 0a 6e b5 15 c1 1a 9f 3f 81 15 78 fb 86 fe a5 3f
       0.03037549681662991 0.04295751399699111
000580 1f ea bd 92 d0 ef 94 3f 13 2e dd 6a e4 63 aa bf
       0.020446070629512755 -0.05154336742870327
000590 ea d4 7f e7 2c 64 84 3f ab 4a 7f a7 d7 30 57 3f
       0.009956694426345131 0.0014154535292518016
0005a0 0a 34 08 90 5d eb a7 3f 3d c4 c6 c6 d4 b9 a8 bf
       0.04671757109836257 -0.04829277922124973
0005b0 13 c5 f1 47 37 42 86 bf 73 33 cd fe 92 db 7e 3f
       -0.010868484385556465 0.007533621025527337
0005c0 dc 49 32 99 85 ac 85 bf f0 21 2b 08 42 ee 91 3f
       -0.010582965600666343 0.017510444401326042
0005d0 97 83 52 3e 19 6e a6 3f 89 95 f5 c9 41 f2 83 3f
       0.04380873571177018 0.009739412284669029
0005e0 42 37 c5 83 ae 34 9a 3f e3 5a da 7c 5a b8 72 3f
       0.025591589729905502 0.004570344417195146
0005f0 7b 03 6d 39 94 5f 97 bf a4 90 20 6f 1d 45 ac bf
       -0.02282554245471456 -0.055214805426915065
000600 db 9a 40 b4 a8 cd 9c bf a6 bd 5b 09 50 af 8e 3f
       -0.02812827682660211 0.014982819829554139
000610 58 68 f6 0e 57 1a a8 bf 3e 9c 30 9e 5c 9a 8f bf
       -0.047075958801727935 -0.015431140496799608
000620 51 3e 6c 92 e6 4c 83 3f 9e 7a 40 f4 2c a8 a9 bf
       0.009424020141096142 -0.05011120301809523
000630 74 b2 18 67 65 ba 9a bf 97 69 49 7d 05 e6 88 3f
       -0.02610166970969137 0.012157481084774697
000640 b2 c8 f9 68 e2 a8 b0 3f e4 97 31 9d 7a db 93 bf
       0.06507697165378337 -0.019391933292716504
000650 f4 c7 df c2 ae 2a a4 bf d1 4b c7 e1 1a 1c a2 3f
       -0.03938814286074424 0.03537067419133389
000660 ed 6e 7b 3f 60 cc a2 bf 71 b3 8d 9e 1a 2d 93 bf
       -0.03671551489762046 -0.018726745536173654
000670 2b bc c8 a3 da 69 a3 bf 2f 91 6f 49 47 da 6e 3f
       -0.03791697739904295 0.003766192657609711
000680 81 17 4f cc 49 da a5 bf 39 0c 03 1e 66 19 8f bf
       -0.042681032362039246 -0.015185163298502601
000690 94 16 ba a6 61 96 b4 3f 68 98 6d 60 91 90 96 3f
       0.08041963882905129 0.02203585768747765
0006a0 77 05 27 9c fb 97 84 3f c7 26 6a 97 c7 b2 80 bf
       0.01005550928391828 -0.008153495128925837
0006b0 4c 00 e9 a8 2c e4 95 3f 39 b6 07 19 ad bb 92 bf
       0.021378228959520393 -0.018294052746503395
0006c0 6f 44 ff 3c 0a 88 b3 bf 48 6b ab a8 96 4e a3 3f
       -0.07629455556095065 0.03770895775752209
0006d0 88 21 9d 87 ac 6c 7d bf 8e f2 5c 40 cb 99 97 3f
       -0.0071837176745436285 0.023047614863787085
0006e0 e0 66 b5 0a 9c bd 81 bf 3f 95 65 10 a9 99 91 3f
       -0.00866243274383599 0.017187730432302258
0006f0 ba 59 73 7a c4 45 91 3f f1 7a 5d b7 31 ea b0 bf
       0.016867704366484416 -0.06607351996124657
000700 e8 00 01 0e 1b 33 aa 3f 85 7a 5f 22 5c 57 ac 3f
       0.05117115541406908 0.055354003139418
000710 62 f9 f0 b2 6c 72 77 3f db 07 0a 20 86 f7 b0 3f
       0.005724358182361252 0.06627691538054085
000720 f3 b8 7a 91 13 20 85 bf b0 c1 a2 f3 a3 56 89 bf
       -0.010315087201288686 -0.012372284767793257
000730 3d 23 2e 64 15 3a a8 3f ba 34 4b ce 44 8c 7b bf
       0.0473181423940958 -0.0067255676010066715
000740 ed d8 c4 5d 23 09 97 3f 62 44 08 cd a6 23 b0 bf
       0.022495796774102784 -0.06304399972602107
000750 72 65 fa 4f 82 00 a8 3f 76 3c a8 68 f5 44 91 3f
       0.046878883612587866 0.016864618790404205
000760 d2 c2 dd 47 d8 e9 a0 3f a1 49 80 7b bc ad a1 bf
       0.03303409459375008 -0.034528627467938174
000770 99 ad b2 b7 7d 7e 97 bf e1 7f 23 f5 cd 18 86 bf
       -0.022943462693246628 -0.01078949837068416
000780 a3 72 c6 99 e4 71 a1 3f e2 8c 53 71 3c 54 9d 3f
       0.034072059413323495 0.028641647736446958
000790 f1 4d 45 54 7b 33 90 bf b6 72 b5 ba de 8c ab 3f
       -0.015821387308575244 0.053809128085707966
0007a0 17 b0 cb 8b 69 b8 b6 bf fc 8e aa 0e 14 75 81 3f
       -0.0887514082239139 0.008524090478494888
0007b0 73 db e3 85 e1 4f 3a bf b4 fd c8 02 8b dd 99 bf
       -0.0004014897912293848 -0.02525918201922446
0007c0 44 b2 a2 e0 cb f4 b0 3f 7a be 28 20 ea 7c 8e bf
       0.06623529657617505 -0.014886693102283067
0007d0 29 6b 31 69 7e 38 94 bf 49 0b 14 50 35 24 af bf
       -0.019746756716226308 -0.06082312204855229
0007e0 73 e9 60 2c 32 39 ad 3f e8 c0 6c 53 fa 86 a2 bf
       0.05707699577074523 -0.03618604915971152
0007f0 7e 6f 96 df 43 33 9d bf b5 57 8a 95 3f 57 a9 3f
       -0.028515873452860323 0.04949377727932306

fc1.bias f8 [200]
000000 07 e2 22 b7 dc 08 99 bf 40 19 9e 6a 67 60 ab 3f
       -0.02444786899352105 0.05346987892612498
000010 97 53 f9 60 99 70 9a 3f f7 b6 14 88 9d ef 75 bf
       0.025820156616038394 -0.005355468137435918
000020 c2 37 d8 16 01 59 a7 3f 54 4e 37 bd 7c 16 bb 3f
       0.04560092357506519 0.10581187839061929
000030 27 17 04 2d d2 da be 3f f4 b3 90 88 e9 b4 c2 3f
       0.12052644347212703 0.14614600342011352
000040 a7 5b 60 21 85 8e 97 3f 06 9f d3 10 33 ab ad 3f
       0.02300460830891962 0.057946773342164845
000050 cc 70 24 90 87 9e bf 3f 50 f3 c5 34 f2 e0 ad 3f
       0.12351271885967491 0.058356827680631995
000060 71 d1 3f 38 e9 44 b1 3f a2 7c d9 ce 85 db 90 3f
       0.06745774863504096 0.01646241259583959
000070 ac 9d 29 e2 dd c8 c1 3f 4c 31 cb b0 d7 31 b0 3f
       0.13894246619314055 0.06326053682568505
000080 30 d3 79 f1 45 45 a3 3f 7c 1b 37 90 8b a9 a6 3f
       0.037637887694393135 0.04426227698745941
000090 49 c5 d4 fd 09 ce bc 3f c5 2c 66 30 13 aa b7 3f
       0.1125189060883446 0.09243888789767414
0000a0 8a 90 ba e5 90 63 b2 3f 9a 89 3c d3 13 85 a9 3f
       0.07183175667393207 0.04984342530794379
0000b0 2d 72 ee dd f3 d5 b7 3f f8 78 c8 66 e2 5f ba 3f
       0.09310840767143054 0.1030255795417111
0000c0 7a 9b a8 a2 b5 76 a0 3f fd b8 70 5e 51 f9 b8 3f
       0.032155681710995546 0.09755428844139043
0000d0 bf 57 21 0d 28 b3 b4 3f c7 ed 41 36 89 9a a2 3f
       0.08085871048510195 0.03633526599238795
0000e0 71 09 1a 06 3c c6 b2 3f 0a 44 b3 f8 e4 d3 b0 3f
       0.07333731793372579 0.06573325225623719
0000f0 82 8f 29 f0 11 ec a6 3f 3f ae 30 7c 54 8d ab 3f
       0.04476982170743239 0.05381263748162412
000100 57 48 08 18 a6 87 bd 3f 1c ce d3 3d bb 3f 82 3f
       0.11535108648993862 0.008910620521851924
000110 6c 23 52 75 ce 16 bc 3f 12 78 71 70 15 85 b7 3f
       0.10972299923208845 0.09187444682308435
000120 0c b1 ce 49 8e 6c 89 3f b3 f1 92 45 2a 28 b0 3f
       0.01241408503286625 0.0631128711565399
000130 86 e4 a0 8d 00 95 ac 3f 7f 50 96 f7 16 37 a0 3f
       0.05582429627288214 0.03167030117325086
000140 b3 37 ac 9f 11 98 9c 3f 4a f6 56 69 e1 29 b1 3f
       0.027923846598291124 0.06704529592294609
000150 10 21 e3 59 53 ac b2 3f f8 3a e1 a1 30 2d b2 3f
       0.0729419798327664 0.07100204422134115
000160 3e ac 78 67 dd b7 97 3f 5d 33 53 04 8d 5b a4 3f
       0.023162326279060112 0.03976097753329697
000170 fc 75 ad 3e 1c ab b2 3f 29 23 ef f6 38 b1 be 3f
       0.07292343645300287 0.11989170101800241
000180 16 29 9c 6f 5e 8f aa 3f 7a d6 81 93 86 71 bc 3f
       0.051875067829387486 0.11110726453065381
000190 75 9a 87 cb c5 cd b8 3f 7a ca 5a 20 7a 4a 93 3f
       0.09688984126078444 0.018838794922610515
0001a0 3c bf cc 84 58 d0 a7 3f 1e 92 90 63 a2 9e aa 3f
       0.04651142712680076 0.05199153390302434
0001b0 65 5f 82 b2 2e df a0 3f ca 54 ef 42 1a b4 77 bf
       0.03295274666851248 -0.005786993583531694
0001c0 98 fc 70 4a f2 fe a0 3f 83 97 e4 e1 b0 73 65 3f
       0.03319508703906954 0.002618642304827058
0001d0 97 3f 90 e8 67 79 b2 3f 9c 00 83 18 4e 8c 72 3f
       0.07216500690287685 0.004528336583632744
0001e0 5e 45 fb 6a fc 56 84 3f 62 25 38 1d df 6d b1 3f
       0.00993153764230453 0.06808275664675059
0001f0 f3 0a a2 51 da f7 b3 3f 51 8a 98 79 ec 68 8b 3f
       0.07800068371765771 0.013383719883738683
000200 5c 01 83 09 9b ad b2 3f 8c 97 34 84 1a 35 bc 3f
       0.07296151144237711 0.11018529632255375
000210 e5 a0 81 ea 57 22 bb 3f fd 1b 3b df 58 3c 9f 3f
       0.1059927890324875 0.030503643631870848
000220 cf b6 28 dd 92 08 83 bf 5f a0 9b c2 76 b1 c0 3f
       -0.009293696760404839 0.1304157686456646
000230 98 a8 41 5e 08 54 bf 3f 27 78 85 84 a5 bc bb 3f
       0.12237598706420483 0.10834726796517256
000240 22 46 ad c9 6b 0f b0 3f 5c a8 14 3b 53 a2 b9 3f
       0.06273530648947959 0.10013313476943736
000250 7f d0 8f d5 6c bd b4 3f 61 cf dc c8 54 74 b2 3f
       0.08101539815817381 0.07208757308836546
000260 21 da b9 1c 7b 3d a8 3f 69 a5 15 98 a6 6b b7 3f
       0.04734406209620468 0.0914863702106651
000270 fe 75 a4 47 72 5a b7 3f 3a 13 42 22 98 62 be 3f
       0.09122385262568142 0.1186919292104677
000280 ea 9c 74 ba 0b 7c 9d 3f a6 e1 24 36 12 db 81 3f
       0.028793509726850276 0.008718626286836461
000290 37 5b f7 54 2a 45 b3 3f 8c d0 25 d8 a7 59 be 3f
       0.07527412962313638 0.11855553652805123
0002a0 05 e8 69 c7 57 27 a4 3f 5f ed 06 98 86 27 b2 3f
       0.039362662403576144 0.07091561519239552
0002b0 d9 12 14 95 3a 54 a7 3f f3 be 5a 26 d5 f8 ab 3f
       0.045564490030334866 0.054632817203467264
0002c0 ab 9a 64 c9 00 59 ba 3f fd 95 09 7f f9 96 ba 3f
       0.10292057911702084 0.10386618949413413
0002d0 03 1c 37 ca 2f 87 bd 3f 0f af 72 60 b8 44 b1 3f
       0.11534403502365369 0.06745483736693479
0002e0 05 c1 ee 4e b3 b9 69 3f 9e 48 cd ce ff ba b9 3f
       0.0031403066745597807 0.10050963209985972
0002f0 ef cf ac 9b 57 48 b8 3f 36 f5 62 90 67 ca ae 3f
       0.09485385466251704 0.0601379741433256
000300 f6 88 a8 79 62 6c 97 3f 42 75 fc 3d a9 ce be 3f
       0.02287439219993189 0.12034089816412055
000310 75 79 e5 4b 5b f7 bc 3f aa fd 17 cb 25 46 ae 3f
       0.11314936259211612 0.05912893394633596
000320 55 93 bf e8 2c 87 bd 3f 47 01 0d 99 3a 0f ac 3f
       0.11534386331875386 0.05480368727012546
000330 33 e3 79 a4 46 1f c1 3f 46 97 97 5a 67 6b c2 3f
       0.13376696616230674 0.14390270160145685
000340 46 27 08 d7 06 e7 b9 3f ae bb a6 87 58 10 bb 3f
       0.10118143796731002 0.10571816741752002
000350 ac 43 eb f6 6d fb b8 3f 3c 81 10 f9 27 ed bf 3f
       0.09758651045127803 0.12471246557880006
000360 d6 a6 24 23 65 70 b8 3f 8e 47 55 bd 2f 90 c3 3f
       0.09546501262652937 0.1528377222517147
000370 7b 67 bf 07 84 29 bd 3f e1 0a 4f d7 e8 00 86 3f
       0.11391472996856848 0.010743922301008126
000380 2a a4 2f c0 d4 e1 af 3f 36 af 24 d7 ec 49 af 3f
       0.06226982923528397 0.06111087919484108
000390 5e 0e 0a 24 66 84 42 3f d4 e0 14 7e ee 5b bd 3f
       0.0005650995954770801 0.11468401506579379
0003a0 5a 06 73 f9 aa 5d a5 3f 92 52 86 13 d7 d4 ae 3f
       0.04173025412593452 0.06021759141291229
0003b0 ae aa 7f fa f3 ee 90 3f 03 e6 61 78 67 8d c2 3f
       0.016536533512332134 0.1449403131298795
0003c0 c8 c9 0e 4e 58 c4 a0 3f 2b 00 f5 00 6b f7 af 3f
       0.03274799301961512 0.06243452440912763
0003d0 67 49 69 f6 91 c9 a1 3f 89 cf a6 0b d3 da ba 3f
       0.034740983323575496 0.10490149530852312
0003e0 12 66 c7 3f 50 fb b3 3f 2d 44 81 3d f4 72 a0 3f
       0.07805348927595215 0.03212702990334324
0003f0 0c 1d 9f 40 b1 81 96 3f 0c 62 33 6f 30 3c ae 3f
       0.021979112214265448 0.05905295712881661
000400 14 53 36 04 01 31 ac 3f ba fa 48 6c 1c 61 b8 3f
       0.05506137062471886 0.0952317966812001
000410 96 ca a2 c2 18 f8 b7 3f f7 bd 18 69 54 9d b3 3f
       0.09362940551617735 0.07661941114269398
000420 38 80 d9 24 92 0f bc 3f 0d 87 70 06 30 60 61 bf
       0.10961259269379375 -0.002121061133508634
000430 8c 3f 83 18 99 80 b6 3f b8 92 22 46 99 36 b7 3f
       0.08789975021795565 0.09067686044961476
000440 9a 07 db 58 a1 9e bc 3f c2 f2 b7 15 a1 ba be 3f
       0.11179550570798683 0.12003523617017733
000450 32 15 f6 e5 a6 f2 b4 3f ae 03 a0 74 8c ac a2 3f
       0.08182757486618611 0.03647269176145272
000460 ac e1 bb 25 a7 51 b4 3f 98 a5 f1 15 d9 50 bb 3f
       0.07937092467535106 0.1067023924421363
000470 90 c7 2b f4 35 28 b7 3f 3b f1 0f 64 dc 3e b2 3f
       0.09045731745916741 0.0712716812412894
000480 18 0c 62 e1 5d 4a bb 3f 0e 69 07 22 63 c2 98 3f
       0.10660349609865738 0.024179028465234835
000490 85 ef 4a c2 13 c2 aa 3f 7f 0b 54 40 ac 55 a9 3f
       0.05226194140183708 0.04948175702340673
0004a0 e5 61 44 2b 36 3f be 3f 0e 3a 6d 4f 98 79 b0 3f
       0.11815203243566648 0.06435539187553038
0004b0 98 ca fc 95 45 7f b1 3f f6 c5 fc 03 85 ec c4 3f
       0.06834826385310533 0.16346800512978604
0004c0 84 d5 6c e2 7a f9 b3 3f 83 87 74 93 d4 43 a4 3f
       0.07802551296193455 0.03958000469198366
0004d0 54 a9 a2 55 6b b6 b9 3f d4 a3 bc b9 3a 7c 64 3f
       0.1004397472449104 0.0025006434424494715
0004e0 65 ac d4 1b 03 bc 55 3f 20 b5 24 c0 2a b5 bb 3f
       0.0013265638693365164 0.10823313895226194
0004f0 28 0b ba 23 b7 2c b6 3f 7f ba 54 bd a6 d5 a6 3f
       0.08661980268702207 0.044598780261698494
000500 8e 08 a2 f3 b3 a3 ac 3f ed ee ad e4 e6 63 b0 3f
       0.05593645428690862 0.06402438242906401
000510 7c 29 dc 07 85 ff b9 3f d4 ee a5 e3 a8 6b b4 3f
       0.10155517045874335 0.07976775701348099
000520 c9 6f a3 ab 67 bf a8 3f 75 7c 23 24 e6 07 b0 3f
       0.048335303976017104 0.06262052900591349
000530 24 56 0c 0a 33 1f af 3f 97 68 90 a8 0f fb b1 3f
       0.060784907318673725 0.07023713937124608
000540 1a 18 07 da 46 c4 b3 3f 77 c1 f5 cb 88 52 b7 3f
       0.07721369574491668 0.09110312442294864
000550 01 f7 ba 03 ad 31 b3 3f b9 25 f9 24 d4 c2 83 bf
       0.07497674313614412 -0.009648949983914844
000560 04 42 7f 07 96 4e 9d 3f e0 93 f3 af b0 30 b1 3f
       0.028620094497286544 0.06714920325937568
000570 a1 d3 cd 88 c6 6e a1 3f 6f f4 a6 a1 a7 1b b8 3f
       0.03404827518435317 0.09417197891794314
000580 95 56 0a 4c 1d b9 b1 3f 9d 7d 65 f3 28 74 a3 3f
       0.06923087221579245 0.03799560519359633
000590 e0 f2 ac 44 db 13 bc 3f 77 5d 57 ae a5 84 b5 3f
       0.10967798639917303 0.08405528551462803
0005a0 5d bb ff db b8 66 ab 3f 32 fc 91 32 a6 93 b1 3f
       0.053518082480755715 0.06865919813752511
0005b0 6c 6c bc 89 6b 74 a3 3f db a6 e5 d5 e8 2b 88 3f
       0.03799758964870467 0.011802500751133696
0005c0 50 1e 18 6b b4 4a b3 3f 5e 42 9d d3 9b e1 a9 3f
       0.075358654161499 0.050549382764647474
0005d0 f8 01 45 2f 59 99 93 3f 55 1a 35 99 d7 7d bb 3f
       0.019139665136437473 0.10738894930282446
0005e0 ab d1 a3 28 89 dc b1 3f 4a 12 23 cf 8e 04 b7 3f
       0.0697713588923025 0.08991329724364863
0005f0 32 7a ba 0d f9 6a 91 3f 3a 99 82 d6 28 bf b4 3f
       0.017009631598393145 0.08104186284126494
000600 5f 1f 9f f8 1e eb b2 3f af c8 60 a2 73 a4 a3 3f
       0.0739001614557515 0.03836404187349395
000610 99 a8 e0 8f 59 c7 b0 3f 12 08 8b ab f9 f9 aa 3f
       0.06554183733593034 0.052688409986800036
000620 83 37 bf 2c ab e0 b2 3f 31 5c 4b e8 16 df a9 3f
       0.07374067156271562 0.05053016267418576
000630 08 fe 02 ef 3f 49 7b bf 85 b3 cf 38 f7 61 b7 3f
       -0.006661653271464292 0.09133858811374125

fc2.weight f8 [100, 200]
000000 5e b8 29 59 a9 43 5d bf 65 0e 56 ad 87 54 ad 3f
       -0.001786151293937908 0.05728553763313186
000010 0a 41 cb bd fa f2 99 3f 5b 9c cd 89 8d 4c a2 3f
       0.025340955576042247 0.035740302154231705
000020 29 89 44 4f ac 97 b4 3f 21 43 d0 eb fb b8 7d bf
       0.08043934760329265 -0.007256492678622079
000030 39 5f 0e 33 a9 ec 80 bf 6c 02 bf 41 4b a0 a0 3f
       -0.008263894911393887 0.03247294595303604
000040 6d 41 94 67 b3 6a 87 3f 3d ff d4 f5 2b 82 94 3f
       0.011433984373554218 0.020027815703769426
000050 6a c8 23 ce 80 f5 a2 3f ff 7b 07 6c 8b f3 ab 3f
       0.037029290355250336 0.05459247297016389
000060 1b 75 99 bf c1 3a a7 3f 7d a5 58 e5 ad d5 85 bf
       0.04537015403614416 -0.010661467134087438
000070 95 aa 64 ae 2f 7e a5 3f 49 af cf 06 73 e6 a8 3f
       0.04197834972213347 0.04863318880219809
000080 41 2e bf 46 d4 e0 87 bf 12 ef 97 e9 3f f8 94 3f
       -0.011659296425839407 0.020478247291960967
000090 1c 8c 1d df c9 f1 97 3f e4 62 13 40 46 c1 a7 3f
       0.02338328766144225 0.04639644176649485
0000a0 38 ea 8d f3 b4 30 62 3f d7 43 fe 0d 82 2f 49 bf
       0.0022204908568117764 -0.0007686028511547605
0000b0 c7 4d 75 53 0b 6c a9 3f e4 0c ee c5 2e e0 af 3f
       0.04965243715073658 0.062257253323901
0000c0 7a 20 be 9f c2 44 8e bf 65 40 0e 2c f2 95 8e 3f
       -0.014779587268791018 0.01493443676898227
0000d0 92 78 21 40 51 55 82 3f af b1 d5 37 98 33 8c 3f
       0.008951792497267772 0.013770283893529049
0000e0 f4 9a 99 ea 49 c8 a3 3f c6 9b cf ed 3c de a1 bf
       0.038637456786821206 -0.034898666410121446
0000f0 d2 ca 9e b9 0b 6e ae 3f 8f 86 82 57 6f 76 7c 3f
       0.059433332833028665 0.006948885849995214
000100 c2 15 ea 2d a6 35 ab 3f 10 b1 75 a7 26 d1 76 3f
       0.05314368544081162 0.005570555680020087
000110 bf a8 ac e3 5c c5 80 3f 82 56 d6 d0 16 63 95 3f
       0.008188939760277568 0.02088580751077141
000120 8d 5f d8 f0 1a a6 76 bf 6d 78 58 f5 b5 47 80 bf
       -0.005529504048830247 -0.007949277448514114
000130 d6 b5 eb 45 32 9c a8 3f 0d 60 df f9 03 03 6e 3f
       0.048066683802840224 0.003663547292472208
000140 1e 61 bf a7 1b 42 a1 3f 42 41 73 28 05 38 7a bf
       0.03370748923015497 -0.006401081226798335
000150 02 72 30 64 a2 3a 9b 3f 74 c4 61 63 cc b1 a1 3f
       0.02659085976130094 0.034559619075374665
000160 cf e4 41 90 3c 5f a2 3f 11 21 71 36 21 ec 99 3f
       0.03588284741358338 0.02531482596194318
000170 0f 89 3e 26 76 da 94 bf e9 e5 39 6c 49 81 99 3f
       -0.02036461456703714 0.024907252531624655
000180 a8 99 39 a4 22 da 8b 3f 74 92 7d b5 fc 92 ab 3f
       0.013599653851270002 0.05385579791508102
000190 75 eb ac 7a 30 40 a9 3f 55 1c 0f 7b 02 5a 84 bf
       0.04931785104277867 -0.00993730485960335
0001a0 d8 d5 f4 28 c7 3d 71 3f 53 f9 34 5d a7 88 ac 3f
       0.004209306687064061 0.055730085494803426
0001b0 75 46 aa 29 44 4d 9b 3f 62 c8 b9 6c b6 f8 66 bf
       0.026661934893644507 -0.0028041422827352206
0001c0 6e e7 03 38 30 1b a8 3f 97 2a ce c6 b4 90 a7 3f
       0.047082430684851725 0.046025895374517116
0001d0 7c 87 22 f5 2b cf 99 3f c5 e3 e8 64 e0 e9 af 3f
       0.025204359852643674 0.06233121139343426
0001e0 d1 05 65 5e 8c 22 a7 bf 08 aa 6b 07 63 02 84 3f
       -0.045185457728176844 0.009770177520711534
0001f0 f0 01 ff 6c 6d 52 6a 3f e0 74 ee 05 4b 44 a5 3f
       0.0032131325933450958 0.04153665969281817
000200 73 e2 e8 9a 37 be a3 3f 8a b2 97 34 56 83 9c 3f
       0.038560617122532025 0.027844759902949913
000210 f8 6f 98 f8 aa 99 a3 3f 49 6e 15 03 ad 71 a6 3f
       0.038281767698407465 0.04383602774279589
000220 ab e1 6d 1d 71 e9 7b bf 2a 15 cf ec 56 cc aa 3f
       -0.006814424376777965 0.05234023705228659
000230 cd 67 7e fe 0d 74 98 3f 3d ca d0 5d 44 5b a7 3f
       0.02388021341139517 0.04561818738183774
000240 2f bf 3e 56 4b ad 41 bf 50 f0 35 8a 95 2a aa 3f
       -0.0005394571166927648 0.05110614120619117
000250 1b 90 c5 75 b5 7c 92 bf cf a4 a8 72 39 3d 91 3f
       -0.01805385142633052 0.016835115073409675
000260 1c 4b 48 17 69 d7 b1 3f 04 db 33 8a 44 a7 a7 3f
       0.06969315355699418 0.04619802653353669
000270 12 85 b3 3c bd 79 b8 3f 3f c0 3a 04 34 f7 a1 3f
       0.09560759288753598 0.03508913566236104
000280 07 14 83 91 b9 2a 83 3f 21 2d 4e b2 5b e8 37 bf
       0.009358834984945842 -0.000364801775781758
000290 af 03 08 35 9e c0 a7 3f b3 aa de c5 a3 24 a9 3f
       0.046391433690593835 0.04910766401674973
0002a0 74 51 b8 39 ff b6 aa 3f 11 d5 0c 07 35 fb a0 3f
       0.05217740611638791 0.033166558371173
0002b0 39 ad 35 fe ac 6c 9e bf f5 dc 44 b9 38 41 a5 3f
       -0.02971144010136337 0.04151322614273482
0002c0 75 48 6e 76 6e 9b 79 3f de 99 9f d5 75 fd a8 3f
       0.006251746649370661 0.04880874855716731
0002d0 1a 47 88 2e 55 a3 b4 3f 4f 5c bc 91 fd 20 a1 3f
       0.0806172598461469 0.03345482257844223
0002e0 ce 77 b0 9c c9 0a 79 bf f8 3a 43 e1 75 f0 ab 3f
       -0.006113803431643873 0.05456894278323959
0002f0 43 0d cf 94 cd 81 90 bf 99 91 77 f2 ea 83 84 3f
       -0.01612015934712231 0.01001723816347848
000300 24 b0 ce cf 98 e8 8a 3f 55 34 52 3e a7 4d b3 3f
       0.013138955919053848 0.07540364524375438
000310 77 5f 28 f3 05 b4 aa 3f c9 8c 3a 06 b1 3d ad 3f
       0.052154718334519616 0.057111293802586234
000320 1d 43 75 5a 31 1c a1 bf 9a b6 f3 18 7e fc a9 3f
       -0.03341821889137562 0.050754490419291545
000330 79 cf 73 7a 45 73 bc 3f ae bb 93 04 f8 97 86 bf
       0.11113390197334451 -0.011032045020753358
000340 be 00 94 f3 ac 9a a2 3f 71 43 6f a2 fc 89 7b 3f
       0.036336331113490314 0.00672339139323773
000350 51 a8 0d d1 be 99 a4 3f c0 8d 53 af 34 a7 83 bf
       0.04023548414154788 -0.009596263504540015
000360 90 be 43 bb d6 04 b5 3f 81 7e b6 22 12 f7 a0 3f
       0.08210508415117546 0.033135000932131405
000370 2e 3e db 50 bf 7c ab 3f 88 07 68 f2 31 84 84 bf
       0.05368612157837692 -0.010017767152934245
000380 a7 b2 36 64 34 7b 9d 3f 7e ff 4a 76 1d 3e 79 bf
       0.0287903009572569 -0.0061627531874249835
000390 8d c3 42 03 dc 4d 86 3f af 61 35 e5 c9 d3 84 bf
       0.01089069256735955 -0.010169579799069376
0003a0 46 48 46 3b a3 e0 88 bf c8 38 1e 8a 70 97 9a 3f
       -0.01214721226350347 0.025968321256691934
0003b0 e8 bf f5 61 26 af 71 bf 82 b4 bd e5 59 1a af 3f
       -0.004317426616907462 0.0607479184098816
0003c0 31 7a 6e ff 2d 7d a5 3f 6f 66 f7 03 35 79 8a 3f
       0.041970670157060026 0.01292649668077958
0003d0 d2 2e dd be 65 ad a0 bf 30 34 62 f4 53 4f 81 3f
       -0.03257291750796089 0.00845208730268085
0003e0 fb 90 b6 c9 d1 55 b1 3f 8f 11 8a 4d 62 67 57 3f
       0.06771575140607304 0.001428457259096214
0003f0 89 e3 b6 b1 10 1b ad 3f 97 bd c3 7b 5e 34 7e 3f
       0.05684711617818212 0.007374161792753318
000400 f0 7e 42 50 cd 22 b1 3f 6c e6 fb 43 17 eb a6 3f
       0.06693728646723307 0.044762351082636126
000410 39 25 46 2b f7 f4 b4 3f 82 09 4e b3 b0 de 8f 3f
       0.08186287695402407 0.015561466667126881
000420 4e e0 00 26 fa e7 a0 3f 73 cf b0 5e 68 6c 6f bf
       0.03301984514149635 -0.0038358725046467256
000430 34 ad 25 9a 89 1d 9a 3f 2f 28 db d7 59 a4 b4 3f
       0.025503301652333124 0.0806327964775455
000440 5c 83 c4 3e 86 fd 81 bf 18 4c 7c fc a2 32 ac 3f
       -0.008784340658679994 0.05507382709597425
000450 c6 f6 c1 86 a4 51 a4 3f c6 63 b9 56 dd 8e 85 bf
       0.03968538422576055 -0.010526398858177088
000460 17 72 77 31 4a f7 ac 3f 7a 73 a4 f1 70 d6 30 bf
       0.05657417157974381 -0.00025692231578649356
000470 f1 81 b0 34 3a 31 b1 3f fe 09 f4 e4 0f 4e 48 3f
       0.06715740000118565 0.0007417276009678562
000480 a1 95 e8 5b 2d b5 7a bf 92 c6 2d 60 1b 99 a4 bf
       -0.006520440276778145 -0.040230613222672976
000490 a7 35 aa 31 96 66 a2 3f cb 19 69 fa 48 a3 97 3f
       0.03593892437229878 0.023083820613715205
0004a0 3b 3f 32 7e d3 cd 9e 3f 9a 24 f6 0a 82 62 9a 3f
       0.030082039430055146 0.025766403121029492
0004b0 be 0a 9b 76 b7 62 b2 3f 6e 02 70 1a 85 20 94 3f
       0.07181879659314469 0.019655303705805975
0004c0 9b e7 56 02 18 1d 9f 3f c4 8e 81 a7 c5 e4 90 bf
       0.030384421484746942 -0.016497696255455066
0004d0 22 2b 91 af 32 f1 b5 3f 52 7d 3b 81 d5 8e a6 3f
       0.08571163927369388 0.0440584869627353
0004e0 50 9b 1d d6 70 38 9e bf bc 02 cc 77 55 0a 98 3f
       -0.029512179440099928 0.023476920544456034
0004f0 e8 51 a3 c7 b0 98 7e bf db 0d ca e9 4c 72 9a bf
       -0.007469835802301074 -0.025826646584858764
000500 af cb b0 ab 08 8c 81 bf e4 13 c2 ff 0f a1 97 bf
       -0.00856787466009287 -0.023075342164265225
000510 5c 06 14 31 f3 52 8b bf f1 7a a0 b4 d4 6f 99 3f
       -0.01334180825733993 0.024840663456525417
000520 8e 6a 1a ff b9 1b a1 3f 1e c4 1f 45 ae 24 9f 3f
       0.03341466177990525 0.030413363427161604
000530 2d 9e 38 b1 31 1f 9b 3f 1d 1f 36 6b be 9d b1 3f
       0.02648618358776227 0.06881322972742195
000540 5b 9a f5 8f f6 a1 ab 3f 09 8d d4 5e bf dc a3 3f
       0.053970055649916936 0.03879354508014827
000550 ce 4c 50 98 ce 3d 8e bf 41 18 86 35 01 ff 50 bf
       -0.014766325019115813 -0.0010373603637119507
000560 56 50 e3 34 02 f1 7a bf e8 5e 9c 4d 49 1c b3 3f
       -0.006577499980455389 0.07465036530299651
000570 f2 59 0e 19 29 4f a6 3f 3d 7d da be 2c a8 a1 3f
       0.04357269698009593 0.034486196801703596
000580 b9 03 c2 dd 3f 31 a9 3f 5f ab b8 15 a6 5f 87 3f
       0.0492038686943554 0.011412904298671199
000590 29 78 e8 66 1a 89 94 3f 1c f4 ec 61 44 e9 ad 3f
       0.020054256945620495 0.05842031188374383
0005a0 c2 f8 cc 62 2b 11 a9 3f a0 a9 32 34 f4 54 86 3f
       0.0489591177088058 0.010904224245980754
0005b0 4f f1 34 85 dd 24 b7 3f d3 11 d5 0f 0d 46 86 3f
       0.09040627004737199 0.010875799222625304
0005c0 bb cb a7 f7 11 81 71 bf 08 9f 0b 37 39 e5 a6 3f
       -0.00427348154561263 0.044717586488159766
0005d0 e2 2e 54 df 4d 9c 90 3f 7a 55 3b 4b 37 59 83 3f
       0.01622125316229884 0.00944750974978591
0005e0 43 f7 ab 18 95 78 b4 3f 06 ca 23 3b db 43 3d 3f
       0.07996494152390902 0.0004465494377107474
0005f0 95 d5 93 20 ca c1 a6 3f 07 43 5c ea 20 d8 96 3f
       0.04444724700617112 0.022308840088103767
000600 94 75 62 73 24 d4 a2 bf ad 53 17 58 fe 41 7f bf
       -0.03677476795676707 -0.007631295711196734
000610 60 3b 00 65 5a 18 af 3f 10 39 7d c8 af 34 b5 3f
       0.06073267443581787 0.08283518452410399
000620 3c ee c4 43 38 32 8c 3f 0c b2 77 8c c0 3e b0 3f
       0.01376766163649911 0.0634575217188244
000630 0c 79 94 8a 1d 62 88 bf 79 73 f9 01 d7 21 97 3f
       -0.011905890266060946 0.02259002637434857
000640 be 66 7e 7c 84 34 85 bf ab 14 4f 6e 9e f2 a5 bf
       -0.010354075478790189 -0.04286666008514691
000650 bc 0a 40 07 50 2a 61 3f ce 02 86 c7 5d 67 89 bf
       0.002095371537508354 -0.012404186870072744
000660 d1 45 5e 0c ac c4 a2 bf 4f d1 dd 5c 72 15 a2 3f
       -0.036656738767429815 0.03531987556098903
000670 9f 97 57 3b 5d 73 36 3f b0 ed 5f 5f 3a fc b4 3f
       0.0003425696007454074 0.08197369411930455
000680 bf 31 fe 70 06 c7 65 3f 12 15 2f e6 0b 5d 93 3f
       0.002658379154985207 0.018909631656943544
000690 71 21 e4 06 9a 64 aa 3f 33 c6 d9 4d 6b aa a3 3f
       0.051548779813006436 0.03840956998182001
0006a0 70 49 61 03 16 b5 ab 3f a9 4f 27 84 57 07 a3 3f
       0.05411595145473569 0.03716538894846561
0006b0 a3 21 11 be 9e dd 8d 3f df 26 e8 68 15 39 7a 3f
       0.014582863021261277 0.006402095443726912
0006c0 8d 39 4e 4b 22 7e af 3f 56 ee b5 a7 ab 90 a1 3f
       0.06150920075662034 0.03430687353371968
0006d0 de e7 59 c1 0c 59 53 3f a3 3f c6 33 6b f5 86 bf
       0.0011808991015684815 -0.011210286633996541
0006e0 61 44 c6 e3 4c f2 a3 3f af 36 76 ab 84 68 b2 3f
       0.03895797996950346 0.07190732179716507
0006f0 30 66 dd 1a cc ac a6 3f fe e0 14 1f 17 da 66 bf
       0.04428708866062114 -0.002789540442474813
000700 7e c5 30 f6 f4 db 86 3f 5b 22 9e 12 05 5e 3d 3f
       0.011161721957338552 0.00044810890050731516
000710 57 34 43 c6 c3 cf a7 3f 54 16 c2 1c aa 75 a1 3f
       0.04650699420162912 0.03410083390285182
000720 45 1d fd 2b bc 68 51 bf 7a 75 66 40 44 d7 9b 3f
       -0.00106256843715065 0.02718836443965731
000730 78 e5 ca 92 cf 25 98 3f e5 c8 1a b4 ab 98 ae 3f
       0.023581736883647036 0.059758535132816516
000740 f5 44 98 65 60 87 81 bf c2 a9 7a 89 e3 56 b0 3f
       -0.00855899152796489 0.06382581812309865
000750 7e ed bf 93 b5 23 86 3f ea f5 a0 ea e9 12 a2 3f
       0.010810297557319212 0.03530055035706055
000760 c0 8f 9f fd 30 8f 78 3f 3d e0 36 c8 b3 10 7f 3f
       0.005995932931884995 0.007584287904528306
000770 81 38 8a 1e 73 d5 95 bf 07 bb 08 ab fa 22 b0 3f
       -0.021322058428772998 0.06303373981129932
000780 d4 14 04 8d 3c 2f 35 bf 57 ba 76 52 72 6e 97 bf
       -0.00032325008670881544 -0.02288225773161864
000790 40 2a 95 9d 0f fc aa 3f 3a c2 3c d8 95 2b 97 3f
       0.05270432280174875 0.022627202342109444
0007a0 f7 49 7c fc a5 fc ac 3f 93 2b 04 a4 a4 b7 aa 3f
       0.05661505419825013 0.052182335874099504
0007b0 b5 ba 5a 6b 11 1f 94 bf d7 14 60 73 41 ab 95 3f
       -0.019649765183823848 0.021161101023626862
0007c0 ee c3 6f 15 2d 30 9a 3f e4 e7 05 15 0e 93 a2 3f
       0.0255744022687771 0.03627819067601459
0007d0 6c 81 51 ab ad ea 5b bf 11 e6 6c 92 e2 b9 b3 3f
       -0.0017039009083178137 0.0770551307185985
0007e0 60 70 3f c5 05 64 ab 3f f6 a3 f0 41 15 2e 5d 3f
       0.05349748642740404 0.001781006583551068
0007f0 33 e2 e5 de 8f 9f 5c bf 50 60 ee cb 68 67 84 3f
       -0.001747026919103456 0.009962862704739589

fc2.bias f8 [100]
000000 46 41 50 c0 d8 27 b3 3f 46 03 b5 d3 28 01 b4 3f
       0.07482676215318404 0.0781426922667495
000010 fb ae 15 bf dc 92 a4 3f 2a 7b 48 a8 87 da a6 bf
       0.040182970357674784 -0.0446360009120695
000020 02 f6 27 c5 45 96 ba 3f 5a 55 5e 34 3b 2b b4 3f
       0.10385547698384559 0.07878465679671845
000030 90 74 3e 37 9e cf aa 3f b6 b7 dc 3e 6e b3 b5 3f
       0.0523652498661501 0.0847691443893542
000040 b0 7a be b5 be 46 b1 3f 44 f3 45 56 64 68 79 bf
       0.06748573243246869 -0.0062030715383770176
000050 a6 78 85 74 f2 b1 b2 3f d4 81 4d be 7a 50 bb 3f
       0.07302775711784423 0.10669676919997723
000060 c0 bc 8e 99 9b 18 b8 3f 7b ee 4c db 4a 0f a4 3f
       0.09412548541034749 0.039179171819765345
000070 05 e5 ac ae f3 50 a0 bf b6 20 14 f3 46 c1 a9 3f
       -0.03186761386172957 0.050302712605174646
000080 1e b4 67 71 82 d6 bc 3f c8 c1 44 19 88 3f b8 bf
       0.11264815586737639 -0.09471941582592713
000090 b4 08 71 f9 08 12 a9 3f 5a ba 76 1d d9 9d a5 3f
       0.04896572155895865 0.04221991047539993
0000a0 aa 45 ff c4 e1 41 b1 3f c7 36 f3 4b 6d 2b b8 3f
       0.06741152820111176 0.09441264251946811
0000b0 35 5e 63 59 01 ee 97 3f bf 37 00 d3 54 60 ac 3f
       0.02336885555345543 0.0554224498338125
0000c0 2c 1b 93 73 61 d8 b0 3f 3b 46 8e 72 9c 1a b9 3f
       0.06580170699735949 0.0980623035123011
0000d0 f5 81 d6 db 09 27 bc 3f 44 77 19 33 ec da a6 3f
       0.109970680400245 0.04463899730465795
0000e0 cc 5a 89 6f 2b e0 9c 3f d1 d3 90 20 b2 1c a7 3f
       0.028198889429712534 0.04514080665141019
0000f0 c4 01 8b 1e 67 a5 af 3f cf 09 e5 12 11 75 b8 3f
       0.061808798292534856 0.0955362959985344
000100 7f 40 7b 64 ef 8c ae 3f 76 1f 4f dd 3d 65 bd 3f
       0.059668999687006334 0.1148260751061779
000110 25 e4 18 79 d6 45 bc 3f e8 bb 03 04 f0 72 8d 3f
       0.11044064003444072 0.014379382250323716
000120 22 9b 01 3c f0 90 8a bf be 5e b7 f4 d1 93 b5 3f
       -0.012971760588880669 0.08428680634039673
000130 65 c9 6e 84 29 f7 b0 3f b5 f1 47 5a f3 d5 ae 3f
       0.06627139552327817 0.060226063509591844
000140 1a a8 69 49 85 60 bd 3f ef b9 25 3d 92 7f ab 3f
       0.11475403826048627 0.05370766636302792
000150 e1 fe eb fd c8 03 b1 3f 37 81 aa 73 5b 72 b3 3f
       0.06646400641693219 0.07596370290639674
000160 0d 32 7a 33 21 7b b4 3f 53 9e d0 0f a5 24 b8 3f
       0.08000380999346408 0.09430915485483497
000170 ea 05 59 ca 2d 29 b1 3f 35 96 74 e1 ab 17 af 3f
       0.06703458967333345 0.06072747351781197
000180 e3 08 7d a5 4d a6 b2 3f 10 76 f2 2b e0 4c ab 3f
       0.07285008707279732 0.05332088982070726
000190 18 7a d4 c2 91 c3 b6 3f 87 0d a1 5b 32 81 9e 3f
       0.08892165190307144 0.029789721338841637
0001a0 5b dd e7 13 a9 2e ab 3f e6 de f7 d2 ad e1 b9 3f
       0.05309036605825198 0.1010998382624809
0001b0 39 f9 22 a5 d1 56 b5 3f 00 af a5 bd 05 18 ad 3f
       0.0833560016789975 0.05682390155820194
0001c0 4f e3 dc e8 d8 59 b6 3f d3 d1 be 5a 00 37 ac 3f
       0.08730846104743971 0.055107127263372434
0001d0 33 07 3b 55 33 8e af 3f 1b c8 c2 10 26 b7 a3 bf
       0.06163177886402451 -0.038506688638691076
0001e0 1c 70 9f c2 27 59 49 bf 5e 6d 7e 76 74 b3 24 3f
       -0.0007735675947020434 0.00015793606439449664
0001f0 41 0e 19 3f 92 d0 b5 3f 25 12 9f 2e fa 8d 96 3f
       0.08521379509425576 0.02202597531847252
000200 09 1b 52 99 1e 4a a5 bf 2c 6b 78 e7 b5 9d a3 3f
       -0.04158111211386568 0.03831261110845782
000210 c2 49 44 22 b1 af b8 3f ec 23 df 46 8f 32 be 3f
       0.09643084608641231 0.11795897941841788
000220 d9 8a b1 2b d5 cd be 3f 67 2a 3b 24 1d 41 b7 3f
       0.12032825772034118 0.09083730825947499
000230 51 7e 4a 81 18 48 a1 3f 22 ef 24 55 ba 52 c2 3f
       0.03375317171343951 0.14314965398249863
000240 24 37 72 3d 94 2b bf 3f 36 2c e6 59 0d af aa 3f
       0.12175871372366182 0.05211679193879386
000250 6c 48 7b 91 c1 8f bc 3f de 1c de e1 a9 08 a6 3f
       0.11156854440494762 0.04303484804318612
000260 85 fa d1 af c0 e6 b4 3f 17 e2 1e 92 e2 07 ae bf
       0.08164600651250893 -0.05865390809725939
000270 5d d0 7d 8f 67 a8 be 3f 85 84 0a d1 26 72 a3 3f
       0.119757149250121 0.03798028280039837
000280 f3 a2 b3 20 84 ed b9 3f 4e b6 69 ef 42 60 81 bf
       0.10128045843488191 -0.008484385424902954
000290 6a 04 11 32 7d a3 b5 3f 70 ec eb aa d0 1f a3 3f
       0.0845258948547937 0.037352105011415726
0002a0 fe 8c 2c 51 a9 b1 b5 3f e6 e2 a5 64 84 ab bb 3f
       0.08474214774883035 0.10808589417673495
0002b0 8d e4 a3 85 b3 63 c2 3f 92 49 65 1e 07 ba b2 3f
       0.14366764092827503 0.07315105907517808
0002c0 6f b5 14 d3 8b 28 b0 3f 6d 52 4f b2 c0 9b a4 3f
       0.06311868575422407 0.04025079895624093
0002d0 d2 13 85 d3 54 f4 7e 3f 4d 61 c9 d6 2e 2b b7 3f
       0.007557231285606885 0.09050266975225903
0002e0 6b c9 99 5a f9 28 ae 3f 74 a5 73 66 f1 5e a0 3f
       0.058906357106837635 0.03197435737258561
0002f0 bd 5b 30 8b 80 ff ba 3f 4a df 12 40 64 73 a0 3f
       0.10546115301290988 0.03213036806249521
000300 dd 57 69 4e 2e 45 b6 3f af 9a 63 e7 60 8b b1 3f
       0.08699311651557147 0.06853299760005414
000310 c4 bd 3c 32 6f 01 a2 3f a4 38 0d 03 07 00 c0 3f
       0.03516719330070431 0.12500083588606004
