weights/numq/nasdaq/mse/high/numq_3.pt (torch, 526847 bytes, 8 tensors)

fc1.weight f8 [200, 200]
000000 b2 05 6c c4 7c e0 7d bf d1 70 c9 bf 4d 62 87 3f
       -0.007294165966187748 0.01141796819245436
000010 c7 03 70 91 35 7c 92 bf a2 b3 88 c0 38 2e 92 bf
       -0.018051945688060813 -0.017754446746198867
000020 26 be 8b cf 3c d6 a0 bf 38 1e f3 df b4 e6 ae 3f
       -0.03288450273055003 0.06035390123139134
000030 d5 01 e9 de 43 ba 9a bf 20 06 24 5e bb d7 b0 3f
       -0.026101170044286654 0.06579180763585457
000040 31 b2 6b 08 59 53 a8 bf b9 e5 ed 50 ee 10 7d bf
       -0.04751089313308333 -0.007096224710829651
000050 b8 24 d6 81 15 3e 9b 3f 56 db 35 c5 b8 8b 9a 3f
       0.026604019212332658 0.025923621212736357
000060 4c 83 1d a4 56 21 86 bf 14 58 42 d5 bb e2 9a bf
       -0.010805775531197569 -0.026255545512491166
000070 e6 a3 33 89 bb eb ae 3f 38 83 ca 88 68 5b a3 3f
       0.060392246721512596 0.037806765268447895
000080 0a ac 65 92 12 16 a3 bf 5f e1 ec b3 5a 21 a6 bf
       -0.03727777516436255 -0.043223223174609464
000090 dd 1f 92 a2 03 19 99 bf ec 71 0d 10 59 86 8c 3f
       -0.02450948409799013 0.013928123285659809
0000a0 ae 1d 53 ea 55 e9 87 3f 38 17 3e d4 f7 c4 b0 3f
       0.011675521100541566 0.06550549442007714
0000b0 3e 46 eb 4e 3e 2d a3 3f d4 18 ee b2 43 43 ad 3f
       0.03745455468527979 0.057153812019394984
0000c0 a1 39 46 e0 67 34 a4 3f 2e 04 65 cd 24 bf a1 3f
       0.039462324263797706 0.03466143615015259
0000d0 44 b0 52 43 86 c9 a3 bf a9 52 ae 2c 91 45 93 3f
       -0.03864688464941016 0.01882006488047475
0000e0 a5 32 09 c7 c1 35 94 3f e9 6f a5 9e d7 33 b4 3f
       0.019736316464604404 0.07891605017852012
0000f0 0c 64 26 81 d0 02 7f bf 8d b5 58 e7 87 b1 aa 3f
       -0.007571043463394222 0.0521357030778332
000100 fa be dc 46 69 dd ae 3f 88 77 af 5f 35 fc b6 3f
       0.060282983684713146 0.08978589616842048
000110 4c 69 68 bd fc 1e 95 3f 72 a7 0e 6d c2 0f af bf
       0.020626019535577897 -0.06066711026444595
000120 dd a8 0b c4 3b fe 99 3f 70 75 df 7a 28 9d 96 3f
       0.025383886185331817 0.022083885669294145
000130 90 f8 cc 88 1e 6f af bf 2b e6 78 82 7c da ae 3f
       -0.061394647788334145 0.060260668684758954
000140 8c d0 f0 89 ef f9 b0 3f 2f d3 a7 de 9e a6 ac bf
       0.06631371610348163 -0.055958714179644146
000150 56 2f 00 b8 ac cf a6 bf c8 55 ac f6 68 aa b0 3f
       -0.044553182087922735 0.06510025045675782
000160 79 53 77 73 dc be a3 3f a2 ab a2 a7 ba ba 82 bf
       0.038565529913888015 -0.009145220032527327
000170 65 a1 84 13 c1 1b 96 3f cc cb 05 b6 45 ad 9e bf
       0.021590248886384517 -0.029957856402187663
000180 58 b0 ed 84 2b 3a 91 bf 6b cf 2a 2f cb 6b 98 3f
       -0.016823463428793012 0.023848700288638208
000190 52 d7 ea 54 c3 92 9c 3f e5 5f f6 20 0a c2 95 3f
       0.02790360647005425 0.021248014699807433
0001a0 87 e0 5f 71 87 c6 a0 3f 85 2c f9 66 41 6f a4 3f
       0.032764656629241044 0.03991131193159795
0001b0 c5 19 61 71 83 57 a9 bf 3e 4e 0e ad aa 2e 88 3f
       -0.04949579962753917 0.011807759672399883
0001c0 0a e4 af 4c 88 10 75 bf f8 6e 3f 95 1d c4 8e bf
       -0.005142719669486881 -0.01502249824255085
0001d0 64 04 e0 58 53 72 9b bf b5 c3 fb 34 7a 6b a5 3f
       -0.026803304957870103 0.041835612266261014
0001e0 a1 69 ff cd 4d 55 ab 3f dc 38 16 fb b2 c5 b1 bf
       0.053385192295269286 -0.06942289953278497
0001f0 ac c2 5f 9a 77 50 ab 3f 44 8b e7 d2 bd 56 83 bf
       0.0533482910103705 -0.009442790030282595
000200 3b b9 bd 91 cd 14 83 bf 3f 47 fd a1 fe 84 a3 bf
       -0.009317022333303107 -0.03812404372605593
000210 bb 28 fe b2 d2 a9 a9 3f f4 b9 9b 05 90 5e a8 bf
       0.05012377200098813 -0.047596455273254096
000220 23 21 a1 a4 5b bd 7d bf a1 21 62 e9 e3 80 a2 bf
       -0.007260663967891187 -0.03613960479657697
000230 38 a2 34 93 48 38 ad 3f a7 60 17 05 d2 88 b3 bf
       0.05707003399794924 -0.0763064634733178
000240 b5 cf 5d 99 3d c2 98 bf c1 46 a0 2a 05 e0 b0 3f
       -0.024178469167466427 0.06591827669788143
000250 2b fc fe 6b f5 69 77 bf 6d 77 0f 95 47 b5 a7 bf
       -0.00571628444589493 -0.04630492872796208
000260 6f 51 90 28 34 b2 6b 3f 24 02 cf d6 3a 67 7e bf
       0.003380872604347988 -0.007422666397304076
000270 4c 35 42 a0 e7 db a4 3f e1 09 7f aa e4 03 63 bf
       0.0407402403953748 -0.0023211923725920823
000280 e0 16 7c 3a 46 6a 94 3f 8b 2c 68 f9 b7 04 75 3f
       0.019936654395698805 0.0051314531797387415
000290 69 40 9a 81 42 38 ae bf 00 33 a2 2e 3a 07 a6 3f
       -0.05902297813474961 0.043023889725281705
0002a0 e5 82 bc 5b b9 6f a6 bf 34 09 31 cb 9f bc aa bf
       -0.04382113690212978 -0.05222033839574394
0002b0 db c7 c7 cf cc b6 54 3f 4f 74 39 c8 be 08 a6 3f
       0.0012642860521023733 0.04303547090669523
0002c0 c5 c1 4c bc 77 8e ad 3f e8 f5 1b ae 08 d2 8e bf
       0.05772756742078714 -0.015049045384780649
0002d0 e5 56 46 ee b0 59 93 bf 3e 0d d0 86 33 89 a9 bf
       -0.018896832030427375 -0.04987488766348712
0002e0 74 23 19 05 90 3a 9a 3f 8c 81 fc a0 a4 4f 91 3f
       0.0256140235053723 0.01690537674505914
0002f0 68 e7 ab e6 15 b0 81 3f 3b fb 85 97 ce bd 90 3f
       0.008636637784991755 0.016349056242229692
000300 69 64 d5 1a 64 1d b0 3f 42 03 74 17 fe c0 9b 3f
       0.06294847159496587 0.027103395635097678
000310 81 6b 79 b6 a9 15 a0 bf e6 5d 06 8a ee 99 95 bf
       -0.03141527512044374 -0.021095015692109607
000320 40 11 38 99 14 cc 70 bf 5a 8c e8 eb fd 4f ab bf
       -0.004100876295982936 -0.053344664618884166
000330 54 cf 23 cf fb 1c 8a 3f 4f 2e 9f a8 57 06 8f bf
       0.012750594386012594 -0.015148815949849096
000340 e8 af 6b 72 7f c0 b7 bf c0 49 aa d2 41 50 82 3f
       -0.09278103393052073 0.00894214080952771
000350 31 51 b2 2b cc be a5 3f 20 bd d2 0b 3c e4 68 bf
       0.04247129472165268 -0.003038518216804356
000360 1f d8 56 14 d7 a5 83 3f 35 12 25 fc 02 65 60 bf
       0.009593658741192055 -0.0020012911128637575
000370 10 04 a9 0b 4a d6 a1 3f 6b 62 35 6a b6 b0 ab bf
       0.03483802215897225 -0.05408258482447511
000380 4a dd 38 98 40 98 74 3f 0a 0d 13 59 7a b7 7d 3f
       0.005028011629796334 0.007255056306522132
000390 cd 55 4f e5 a0 c4 76 bf 25 d5 99 49 68 30 88 3f
       -0.005558613299361648 0.011811079736825445
0003a0 66 32 00 5c 64 9e 6a 3f 7a f0 9b f3 7a c8 b5 bf
       0.0032493553299047127 -0.08509033629883503
0003b0 9c a5 a2 72 51 d0 95 bf 38 4b ef 44 37 f7 94 bf
       -0.021302483197961672 -0.020474303801005095
0003c0 3c 9f f8 4c 1e e4 96 3f fc 86 a7 56 52 be 63 3f
       0.022354577491710645 0.0024100883649545973
0003d0 50 34 fb 5d a5 6f a1 3f db 60 0d c1 60 f5 93 bf
       0.03405491611702216 -0.019490730078673173
0003e0 a9 5d fc 79 2e 04 90 3f 6a 6e 28 0a 79 4d af bf
       0.01564095134298574 -0.06113794564245441
0003f0 e2 25 25 d5 28 d6 96 bf 2e b2 c1 65 5d 8f 92 3f
       -0.02230132866796975 0.01812501843999053
000400 6b d0 b1 b9 67 33 aa bf a1 15 6e 77 0c 5a 7a 3f
       -0.051173440377994726 0.006433533379895635
000410 0c ad dc 87 a7 79 88 bf 5f 73 97 b7 4b 31 ac bf
       -0.011950787385635063 -0.05506359687908601
000420 45 aa 56 d3 b6 7d 9e 3f af cb bb 53 58 22 9b bf
       0.029776436471062224 -0.02649820338315195
000430 a9 5f 0b e0 e1 a2 89 bf bc e4 6b 6b 44 e5 b4 bf
       -0.012517704629700992 -0.08162334082216466
000440 c3 23 6e 8b 72 dc 94 bf 11 cb 8f 96 35 f3 a3 bf
       -0.020372190246721333 -0.03896491492186816
000450 a8 40 1c 5d c3 8b 94 bf b3 fd 4d fc ea 6c ae bf
       -0.02006440406609103 -0.05942472772494103
000460 e4 19 90 7f eb c6 ae bf 49 81 46 c9 46 ac 3a 3f
       -0.06011138851322409 0.00040699699573034216
000470 3d 59 3b b4 73 7c 8f 3f 90 be 21 c3 dd ad 94 3f
       0.015374092042674032 0.020194497141743428
000480 59 34 c1 46 89 61 8a bf 2e f8 f2 c1 c2 f6 a6 bf
       -0.01288134810615753 -0.04485138528387754
000490 78 5e 1e 0a ed 69 91 bf af c6 9b c5 33 43 91 bf
       -0.01700563787707529 -0.016857918678346347
0004a0 05 6a 04 85 ed 26 90 3f 8f 06 ad 72 c6 c5 b1 bf
       0.015773497813919252 -0.06942405986503729
0004b0 13 61 dd a3 36 bb a6 bf ed 6d ab 5e 5e e3 a6 bf
       -0.044397075179121746 -0.04470343499789551
0004c0 6a 7b 38 2d 0c ce 9e 3f eb 23 6e 89 a3 c6 9a bf
       0.030082884082840357 -0.026148371947360898
0004d0 3d 63 36 c1 02 0d 72 bf e7 89 6b ce c0 f7 6f bf
       -0.004406939278305097 -0.003902317595348526
0004e0 db 9f 86 45 31 b2 9d bf b0 c4 a4 5b 5a 4d aa bf
       -0.029000062817118404 -0.05137140625664338
0004f0 18 6f a0 88 41 93 98 bf 7d 07 94 ee 10 81 7b bf
       -0.02399923702624482 -0.006714883938231495
000500 1a 12 38 56 13 26 82 3f de 2a b0 5a a7 e4 94 3f
       0.008861685818382137 0.020403494749227195
000510 8e ee 5c f9 af 3c 83 bf d6 01 dd 85 19 5b a3 bf
       -0.009393095776992124 -0.03780441054414367
000520 9b b9 ed 35 fc 80 82 3f ca 58 25 63 82 46 a1 3f
       0.009035082240839645 0.033741068461198134
000530 26 0d bb be e3 df 96 3f 28 9d 03 5c 90 12 8e bf
       0.022338446155811507 -0.014683845336959836
000540 d2 fa 16 72 e2 f8 a7 bf 33 7c a6 e1 7f 8e a9 bf
       -0.046820713450406296 -0.04991531018753683
000550 f6 a0 4f c3 d1 5b 97 bf bc 09 a0 8e f2 49 84 bf
       -0.02281120066246075 -0.00990666864163791
000560 0e 02 cf cb 1a f9 67 3f aa 70 13 f0 e7 f8 b0 bf
       0.0029263995515693758 -0.06629800425747825
000570 6a 33 4e c7 18 29 9c 3f 5d e9 12 fb d8 6a 9d 3f
       0.02750052181686461 0.028727903675397005
000580 38 96 7a 85 af 8c 82 3f 9e 43 04 92 97 2f ab bf
       0.009057399044944167 -0.05309747369222538
000590 20 b6 2a e2 0c da 88 3f 73 a7 fd 7c ed cc 7b bf
       0.012134647991241698 -0.006787231148203665
0005a0 56 7d 28 68 f2 8b a5 3f 51 b6 5e c3 3a 86 aa bf
       0.04208333512746758 -0.05180534014594385
0005b0 9e 38 f3 81 ee e5 8c bf 62 33 f8 f2 95 0e 7b 3f
       -0.014110434857141304 0.006605706919356221
0005c0 37 51 eb 80 81 a1 80 bf dc 8d 18 cb 36 ea 89 3f
       -0.008120548006822588 0.012653759072299424
0005d0 9d 65 95 95 c6 e6 a7 3f 4c bb 8d 09 24 fb 82 3f
       0.04668255401584107 0.009268075505784922
0005e0 f5 e3 d5 0b f0 ab 90 3f 57 e1 cb b0 56 69 6b bf
       0.016280890200025728 -0.003346127812957327
0005f0 07 a3 15 d2 b0 6e 84 bf c9 ba 3b 9a ad 49 ab bf
       -0.009976750766058652 -0.05329649455767577
000600 05 4b 22 2e 80 f7 9a bf 21 da 5f 65 b3 9b 30 bf
       -0.026334765258591925 -0.0002534211138248994
000610 1d 86 d1 3b a3 c7 a7 bf 77 56 d6 11 2b 46 8e bf
       -0.04644498925405236 -0.014782272798395042
000620 cc e4 39 c8 65 5c 53 bf 3b ad 8a 42 43 5f a9 bf
       -0.0011816972700258608 -0.04955492198254282
000630 a0 79 e3 b4 1a 97 97 bf 58 0b b0 91 6c c4 85 3f
       -0.02303735474640123 0.010628555484805055
000640 89 1b 4a 65 06 cf a9 3f 57 cd d1 78 19 8b 8e bf
       0.0504076002735508 -0.014913748740787254
000650 c5 06 f6 94 5a 32 a0 bf 01 47 6c 05 aa 93 9f 3f
       -0.031634169276924896 0.030836731511107555
000660 6f f6 43 17 09 03 a1 bf 2b ab d8 ea ed dc 87 bf
       -0.03322628411295347 -0.011651858071748919
000670 f8 ea 35 f2 5e 11 a5 bf 0a 8b 6e 06 42 a6 4b bf
       -0.04114815432236257 -0.0008437940967847845
000680 cf 1e 3a b5 ac a4 a4 bf 91 a2 1a c7 b3 7c 89 bf
       -0.04031886780017901 -0.012444881929085912
000690 4a da 5e ea ec b5 b3 3f 20 56 b2 d5 b1 da 95 3f
       0.07699471208511813 0.021342066448218344
0006a0 ab 90 a7 94 03 5c 82 3f 0b 78 83 66 8c 61 7f bf
       0.008964565252377396 -0.007661388816101687
0006b0 2d fe 89 95 60 d7 8f 3f 47 22 24 36 50 d5 96 bf
       0.015547518313950704 -0.02229810076190322
0006c0 a4 e9 c7 96 e9 b5 b1 bf b0 ae b6 99 77 18 9a 3f
       -0.06918201380896122 0.02548395991986635
0006d0 85 34 d0 bf e5 23 6d bf 54 82 3f da 8d e3 9a 3f
       -0.003557156304401734 0.026258675046735583
0006e0 f1 ab e3 ac 1f c7 77 bf e4 f1 13 3e d7 38 8f 3f
       -0.00580513356383515 0.015245133954970798
0006f0 c0 06 7e 11 f2 37 83 3f 9d 83 ba 03 48 c8 ae bf
       0.0093840514744018 -0.06012177510752468
000700 5c a4 12 e7 39 97 a7 3f 17 ed 80 59 d1 0b a6 3f
       0.046075639207011604 0.04305891244481524
000710 b3 5f d2 88 a5 7b 64 3f e8 b1 8f d3 3f f4 ae 3f
       0.0025003655524180267 0.060457224440913226
000720 31 1e 6c cf c6 41 81 bf f0 ab f6 1d c6 09 70 bf
       -0.008426240162875494 -0.003915571112353952
000730 bc 4b f4 06 a8 cd a3 3f a8 44 bb e0 51 37 5a bf
       0.0386784084786522 -0.0016001033390476236
000740 60 9e de 98 15 68 87 3f 7b 6b fd f6 30 03 b1 bf
       0.011428993919096075 -0.06645494489695906
000750 24 1d 83 72 3b 40 a6 3f 6e 22 87 d6 6e 45 92 3f
       0.04345880291799123 0.01784299072622491
000760 96 e8 aa 25 5c 35 a0 3f 61 a8 f7 f3 83 7e a1 bf
       0.03165710410890303 -0.03416836121671519
000770 f5 8e bf e4 ff 16 93 bf 7a 98 87 c6 77 35 80 bf
       -0.018642423950850213 -0.007914481874603963
000780 f3 32 05 60 c0 9c 9c 3f 97 7f 69 14 be 8b 99 3f
       0.027941709385504287 0.024947137828689483
000790 12 bb ae 88 81 86 93 bf df 03 d8 17 ec 1c ae 3f
       -0.019067787139358812 0.0588144091707432
0007a0 bf 80 17 76 32 3c b5 bf 7c 04 da 58 92 12 7b 3f
       -0.0829497850713805 0.006609508198040289
0007b0 d4 fc b3 84 d1 7b 6d 3f 42 6e ae 94 fd b9 99 bf
       0.0035990802913371343 -0.025123560142317432
0007c0 ca 3c d0 25 00 95 ae 3f 60 ef 12 04 b8 ec 88 bf
       0.05973053418721859 -0.012170255302741573
0007d0 d4 1c e8 ad 15 fb 8e bf ff fa 93 92 02 c2 aa bf
       -0.01512734353037929 -0.05226142920763798
0007e0 07 70 61 d8 35 66 aa 3f eb 55 6c 2d 44 79 a1 bf
       0.051561052955293056 -0.03412831358415843
0007f0 5e 20 29 8d 8d 8b 9d bf 7c 6d 3f 86 ff af a5 3f
       -0.028852664700281465 0.042358384263674304

fc1.bias f8 [200]
000000 96 37 c6 28 4d 3b a7 bf 9f 83 ce 79 a6 b6 a1 3f
       -0.04537430880291919 0.03459663617036956
000010 db b8 3a 37 98 3d 81 3f 4e 41 1f b2 9e 6d 9b bf
       0.008418263612238899 -0.02678535425349198
000020 05 d9 3c 2d eb 67 9f 3f d6 2b 8d 21 81 32 b6 3f
       0.030669855724419843 0.08670813626410676
000030 9e 6d d2 a0 64 6d b9 3f 23 69 da 5b d6 5a c0 3f
       0.09932545591657635 0.12777213559167774
000040 6f 2a e3 44 97 9f 51 3f cd a7 0a e1 2b 57 a3 3f
       0.0010756470906466938 0.03777444002237438
000050 89 da ac 3a 29 97 ba 3f 86 6d b1 6b c9 5d a3 3f
       0.1038690346002601 0.037824911495330446
000060 6f 4c c7 6b b3 19 a8 3f 55 9d 14 dd 79 26 42 bf
       0.04707108202605858 -0.0005539031064118275
000070 5b 29 ea 1b d1 10 be 3f ec 08 b0 76 71 70 a6 3f
       0.11744410449515412 0.04382662366698917
000080 d0 5c 4a 00 e0 ba 92 3f 93 5a ee ac 5d bc 9a 3f
       0.018290996568421758 0.026109183959841586
000090 04 c0 dd d1 d3 19 b8 3f 0a da e1 1c e9 f6 b2 3f
       0.09414409516989514 0.07408005671627663
0000a0 54 4e ee d1 78 0d aa 3f 31 1c 0d f0 03 1b a0 3f
       0.050884032846764043 0.031456111004949945
0000b0 91 75 98 40 4f 1b b3 3f 69 9c fe 7d 47 f2 b4 3f
       0.07463546111144682 0.08182188821830184
0000c0 0e e8 59 91 13 6f 86 3f 2a 5c 3a 60 75 34 b4 3f
       0.010954048989550127 0.07892545317950864
0000d0 3a 33 4b dc 22 14 ae 3f af 30 bd 76 a7 2c 94 3f
       0.05874737681515403 0.019701592085127725
0000e0 66 0a ec ac b4 36 ac 3f 58 c8 c9 8d ea 00 a8 3f
       0.055104871853491486 0.0468819902497592
0000f0 3a 3d 18 e3 95 92 9a 3f db 58 10 5f cf 0e a2 3f
       0.02594980429244951 0.03526924167106112
000100 78 de 4e 6a b8 b5 b8 3f 93 ab 79 f7 51 b7 85 bf
       0.09652283282673035 -0.010603561749311463
000110 97 4a 27 fd 8d 9a b6 3f 17 16 cc 42 72 8c b2 3f
       0.08829581671242646 0.07245554095069227
000120 a7 b8 99 f6 55 e2 84 bf ed 8f a4 10 ca cb a5 3f
       -0.010197326267384744 0.04257041409644544
000130 9a 94 19 f1 46 10 a2 3f 8c a7 33 de 93 30 87 3f
       0.03528043454279235 0.011323123186645544
000140 8b eb 11 73 37 0e 43 3f 67 d8 cf ec 75 3a a7 3f
       0.0005815287351106242 0.04536789432306492
000150 7e de d5 89 26 40 ab 3f 40 b4 9e d5 b4 6c ab 3f
       0.053223804784406234 0.053563738896038604
000160 b8 0b aa 7a d5 ad 63 3f f1 7d 8f de ad d0 93 3f
       0.0024022264017857474 0.019350735386863552
000170 49 9a 21 ea 76 a3 aa 3f 87 38 29 1d 76 73 b9 3f
       0.052028385239101534 0.09941805087984977
000180 d3 a3 88 e0 dd de a0 3f 5d f7 43 18 38 35 b7 3f
       0.03295033803835392 0.09065580933017033
000190 79 aa b9 dc 75 cc b3 3f fe ad 60 2d 73 36 63 bf
       0.07733856810379248 -0.002345299678401024
0001a0 c4 80 26 b6 b6 35 9c 3f 77 2c 35 a0 f7 69 9d 3f
       0.027548651568964258 0.02872454562502155
0001b0 b4 f7 a8 23 1f c1 89 3f 47 2e 65 f6 55 31 9e bf
       0.012575381541974774 -0.02948507610680753
0001c0 f3 5c 69 1a d4 21 89 3f c3 9b 5c 54 f6 f1 92 bf
       0.012271554046647348 -0.01850113763716955
0001d0 ac a6 02 2a 7d 7b ac 3f 8b 05 eb ad 16 82 8d bf
       0.05562964570829129 -0.014408280546720295
0001e0 a5 51 ac 61 d0 b9 8a bf 20 87 8c 85 c6 71 a9 3f
       -0.01304972456049642 0.049696162989006476
0001f0 b6 2c 60 b6 d9 bb ae 3f 28 65 b2 c0 7f 63 72 bf
       0.06002693511262562 -0.004489420923300437
000200 12 b0 61 71 46 e9 a6 3f 1c 98 8b 87 20 f1 b6 3f
       0.04474849828770301 0.08961680707179237
000210 c7 42 a6 ec 64 6a b6 3f 14 1b 71 a8 86 ec 8c 3f
       0.0875609472043478 0.014123012557445892
000220 28 2a 8a b7 3b 62 9f bf 66 d0 6e 4e 2d b2 bc 3f
       -0.030648167683958644 0.1120937649237149
000230 af 03 fe df ca 7e ba 3f 68 56 7a 3e 42 65 b6 3f
       0.1034971997123779 0.08748258614863291
000240 41 08 a9 cf ae 2a a6 3f ea e6 9b e7 5e 05 b5 3f
       0.04329439434924654 0.08211320070759212
000250 83 13 5a 9a 82 d0 ac 3f 3a 7e 62 f8 b4 63 aa 3f
       0.05627830633333188 0.05154195339241281
000260 50 60 b1 8e dd b2 9a 3f 0c 18 7a 58 8d 99 b1 3f
       0.026072942575723623 0.06874926958161626
000270 86 75 a3 1e 5b 5e b2 3f 62 b3 b0 43 1f 67 b9 3f
       0.07175225732813403 0.09922976877778703
000280 42 f0 71 26 49 6a 7f 3f 4a 30 7d 48 13 a5 8a bf
       0.007669721358180283 -0.013010168695153496
000290 0a 80 c6 46 63 6d ad 3f 1c cf bb 4c 22 d1 b8 3f
       0.05747518767316258 0.09694113133792509
0002a0 ca 93 90 53 b2 f4 94 3f 94 3d a6 d0 64 10 a8 3f
       0.020464693403613933 0.047000074834723155
0002b0 fd 8d 3b 24 e4 a1 98 3f f9 a2 0e 19 3e 09 a2 3f
       0.024055065833534773 0.03522676521180829
0002c0 12 4a ab c8 2b 55 b5 3f 36 39 3d 0c b0 b7 b5 3f
       0.08333085679195332 0.08483410166556812
0002d0 4e 8f 3b 7f 2c 5c b8 3f fc ce f4 38 0d 8c a9 3f
       0.09515646082178117 0.049896634295150094
0002e0 a2 76 65 9d 51 f9 96 bf 57 3f 2c a8 bf f3 b4 3f
       -0.0224354507748702 0.08184430938513053
0002f0 72 aa 38 98 eb 9e b3 3f a2 86 6b bd 54 f4 a5 3f
       0.0766436812051923 0.042879722712098514
000300 fd 1a ac 43 e3 4b 55 3f c8 c0 de 0b 37 72 ba 3f
       0.0012998313310974001 0.10330528297231745
000310 b7 68 26 3f a8 80 b6 3f d7 15 d4 44 4c 42 a4 3f
       0.08790065328358564 0.03956831302825108
000320 cb dd c6 75 59 a0 b8 3f 10 fe 4b 5e ee 81 a2 3f
       0.09619673848543824 0.03614754582485713
000330 25 da 74 d5 ae 30 bd 3f ac e1 c3 9b 02 99 bf 3f
       0.1140240927823944 0.12342850020275503
000340 4d f9 86 dd 72 25 b4 3f ea cd ac 9d d8 93 b6 3f
       0.07869642170314713 0.08819345330703468
000350 78 33 e4 2d 44 f1 b3 3f dd 65 76 97 e0 15 bb 3f
       0.07790018196483384 0.10580257127585165
000360 7d 8a 67 1b 42 c6 b3 3f 89 78 c6 29 b3 3c c1 3f
       0.07724393052152752 0.13466491260345873
000370 09 c4 5e 3c 63 65 b7 3f a0 32 70 9f 6d bd 87 bf
       0.09139080261117284 -0.011591774395151078
000380 d7 4f 99 b4 f8 ae a6 3f cd 4c 9a 9c a0 e0 a2 3f
       0.044303676648865746 0.036870020977539754
000390 ca 5c ad b8 3d a0 95 bf 8f 89 be a9 a0 79 b8 3f
       -0.021119083782960492 0.09560588974139804
0003a0 30 95 7f 3f 8c dc 97 3f 38 d2 cd 28 bf 05 a3 3f
       0.023302260757096238 0.0371532189664418
0003b0 fe df 05 64 4e 0c 81 bf cd f3 a7 b0 7c 17 c0 3f
       -0.008324253489931262 0.1257167685106694
0003c0 87 ed 7d 66 0b 83 84 3f d9 95 52 67 75 a0 a6 3f
       0.010015572610192048 0.044192952025052974
0003d0 99 51 92 66 4f 56 83 3f 3c 2a b3 e9 0a ef b5 3f
       0.009441967313514254 0.08567875104487482
0003e0 47 51 38 43 f2 07 ae 3f 4a e2 71 09 59 c8 8b 3f
       0.058654375749173364 0.013565726853117206
0003f0 7f ef 12 45 fd 0c 62 3f 25 5d 15 13 ff f3 a2 3f
       0.0022034594227004485 0.03701779468490888
000400 61 f8 6b 3a ca 85 a2 3f 30 62 07 37 b6 ab b3 3f
       0.036176986342966407 0.07683886378743732
000410 73 0f ef d5 02 65 b3 3f e2 06 61 c0 e4 f1 ac 3f
       0.07576005671495327 0.056533001407400155
000420 80 64 9a 8a 88 13 b7 3f d6 61 ba c6 97 34 93 bf
       0.09014180549492501 -0.01875531340064803
000430 51 2e e8 bf 01 b6 b1 3f 14 7a 09 84 4d ef b1 3f
       0.06918345389584003 0.07005772088584933
000440 61 b0 96 e5 a0 ec b6 3f 96 cf a1 a3 c6 e8 b9 3f
       0.08954816441718229 0.10120812888072658
000450 82 4e cf 01 b9 28 ae 3f be 15 d0 f0 47 68 8c 3f
       0.058904439421579205 0.013870775257610709
000460 ff ce 75 8f 1b 37 ae 3f 96 16 5f bd 67 70 b6 3f
       0.05901418806288738 0.08765266774488575
000470 72 d7 91 81 5a 92 b2 3f 37 df 3c 24 71 1a aa 3f
       0.07254567778894996 0.050982986138875246
000480 73 42 a1 1d 36 c5 b6 3f 88 8c d6 43 6e 1d 65 3f
       0.08894670699488376 0.002577510224641314
000490 89 ee cb e0 70 ea a1 3f 20 a7 4a 66 9e 64 a0 3f
       0.03499176735018945 0.03201766012837326
0004a0 51 1d 1a 86 5b a0 b8 3f bc 5a b9 c8 4b a8 a6 3f
       0.09619686149573183 0.04425274682278288
0004b0 91 4d ab cb 9c 1d a9 3f 31 ee 26 2f f0 58 c2 3f
       0.049054050313908644 0.14333917906138674
0004c0 5c fc 09 bf f2 8a ad 3f b4 a6 c4 25 1d 46 90 3f
       0.0577007158471978 0.015892463140665128
0004d0 08 bc ce 45 ec 89 b5 3f 6a be ba df 69 f1 90 bf
       0.08413578705106783 -0.016545919685709988
0004e0 9a c2 ae 53 70 6a 94 bf 5f cc 0b 20 03 14 b7 3f
       -0.019937281711181677 0.09014911205649544
0004f0 7a 62 25 cc a8 be b0 3f 25 e5 c4 4f b5 25 99 3f
       0.06540923103364973 0.024557908052178185
000500 af c0 0d 96 c4 07 a3 3f ff e6 41 43 bc 6e a4 3f
       0.037168639485459 0.03990734406484186
000510 9f 7d 25 5c 22 14 b5 3f 1f c8 4a c1 34 6c ae 3f
       0.08233847379368918 0.05941929683230306
000520 4e 63 80 3a 0b 56 9e 3f e8 5f c5 11 8b 4a a4 3f
       0.029625106282853246 0.03963121978694045
000530 21 69 43 81 8e 96 a5 3f 8b f1 e5 b0 c1 be a8 3f
       0.04216428115769789 0.04833035740282118
000540 5f ba 5f 23 fb 72 ae 3f e8 29 9b 6f ba bd b1 3f
       0.059470985477550135 0.06930127358206273
000550 54 e5 46 0b 05 ef ab 3f bb ae 08 f5 a1 2d 9c bf
       0.05455795061738891 -0.02751782472675644
000560 ea 04 70 8e 76 56 83 3f 94 21 48 0e b8 41 a7 3f
       0.009442259046411345 0.04542327093446655
000570 1a 62 c0 f9 9f 8c 90 3f 6e bb f8 77 b6 31 b3 3f
       0.016161441439267767 0.07497730664247879
000580 27 7a 7b 0a d5 71 a9 3f c9 53 db 73 1b 0e 93 3f
       0.04969659569700396 0.01860850233682124
000590 56 85 d9 57 26 1a b7 3f 4a b4 f2 4f 59 7a b0 3f
       0.09024276394622652 0.06436689569336909
0005a0 55 79 16 27 f9 6b a1 3f 10 40 30 9f 38 fd a7 3f
       0.03402689554353581 0.0468537992784378
0005b0 88 0d be b5 43 4e 94 3f a6 89 84 b7 b9 3d 80 bf
       0.01982980534331838 -0.007930231965080758
0005c0 ec a1 9c f3 7c d2 ac 3f 92 6b 8d 4b 37 6c 9f 3f
       0.056293396699689996 0.03068624876628296
0005d0 d9 83 54 50 9f 2d 45 3f 23 5e 25 26 88 42 b6 3f
       0.0006463077449191348 0.08695269519136466
0005e0 24 c2 c9 e3 6b 65 a9 3f 05 d5 25 8d 85 f7 b1 3f
       0.04960190921417887 0.07018313117972148
0005f0 38 70 a5 b7 56 cb 62 bf e2 d9 b1 a1 f1 51 ae 3f
       -0.0022942250918003525 0.05921893214047082
000600 2f d1 68 a7 a8 80 ab 3f ec ee 8b 73 d3 7e 90 3f
       0.05371596377918519 0.016108802726178803
000610 fc 67 11 c8 c7 67 a7 3f f1 cd 78 f5 da 73 a1 3f
       0.045713656589853685 0.03408703085406362
000620 9e 0c a5 41 14 87 aa 3f 96 04 ba 81 ed 4f a0 3f
       0.05181182195021815 0.0318598004205423
000630 c5 c1 35 70 45 ab 9b bf 2d 05 13 e9 4f 43 b1 3f
       -0.02702053544402518 0.06743335190096351

fc2.weight f8 [100, 200]
000000 fa 5d 0d 0a 0d 22 80 bf c1 87 3e 9a 21 79 a9 3f
       -0.007877447003621352 0.04975228317131509
000010 3d 7a 51 9a 85 e8 96 3f d1 30 a4 7d f8 49 9d 3f
       0.0223713756025694 0.028602488201656954
000020 64 7a 03 b4 d4 f0 b3 3f b7 de 61 8f 71 20 88 bf
       0.07789353747237154 -0.011780631244831736
000030 07 72 1a fa c4 8b 90 bf dc a8 cc 06 5d 3f 98 3f
       -0.01615817810544409 0.023679212131505575
000040 e9 fd e9 d3 23 b4 78 3f 7a f8 4c 5b e3 b8 8d 3f
       0.00603116984586858 0.014512802337432119
000050 22 70 8f 0b 53 21 9f 3f 6f 46 f3 bf 7a bd a8 3f
       0.030400559979043014 0.04832061379569274
000060 fb 58 20 e8 d6 f7 a3 3f c0 e2 45 b1 17 b5 90 bf
       0.03900024016927436 -0.016315813250431743
000070 d8 6c b4 40 d8 c5 a1 3f 81 ea b3 8f a4 79 a6 3f
       0.03471256055692046 0.04389681104836019
000080 63 4f 76 94 6a 65 91 bf 8b 71 9a d2 00 aa 90 3f
       -0.01698843508854909 0.016273510793881434
000090 31 cd e7 8d 2c c3 91 3f a1 5e cc e7 d7 0b a5 3f
       0.01734609237787516 0.041105982824033
0000a0 ac f2 27 6b 4c 6f 73 bf d4 6d 9d dd 2b ae 75 bf
       -0.004744814405509484 -0.00529305586845959
0000b0 b7 92 77 4e 36 4e a6 3f 78 71 46 2d e0 9c ac 3f
       0.04356546123361709 0.0558843665378132
0000c0 8d 0e 3f e2 88 e7 95 bf a5 07 50 8e f5 ae 84 3f
       -0.02139104729555057 0.010099333196197888
0000d0 df 72 a2 d1 d3 3c 36 bf 45 80 07 72 74 77 7d 3f
       -0.00033931895598886085 0.007193999161671687
0000e0 b6 e0 c0 96 22 a0 a0 3f 1d cd 03 b8 8c 3b a5 bf
       0.032471733953970114 -0.04146995302462584
0000f0 be 52 a4 37 13 34 ab 3f 15 37 f3 c7 92 c8 3f 3f
       0.05313167623731861 0.0004849775650200711
000100 e2 15 e7 dc 59 da a7 3f f5 dc fc 2b 60 74 4a 3f
       0.04658776113096132 0.000807330092334717
000110 a0 22 90 05 02 a7 3e 3f a5 3e 1d 97 cd 39 8d 3f
       0.00046771811827332234 0.014270406889095819
000120 51 7d e0 1f bf 7b 87 bf f3 f9 f0 90 c3 96 8f bf
       -0.011466496620470197 -0.015424278126485702
000130 37 0e 45 78 69 83 a5 3f 78 f7 fe 2a 8c 38 67 bf
       0.042018218928685895 -0.002834581151517076
000140 65 e6 b3 ec 5f 78 97 3f 25 cf b3 3a ec 00 89 bf
       0.02292013056010091 -0.012208791295484975
000150 45 23 94 0b 86 dc 95 3f 16 97 9e 7f ec 6f 9d 3f
       0.021349043328004375 0.02874726799895829
000160 b8 8e 91 27 4c 61 a0 3f 2f 52 17 07 22 3e 91 3f
       0.03199232085242215 0.016838580782705555
000170 66 65 06 1d 92 c1 9a bf 69 54 57 08 d9 8a 92 3f
       -0.026129038831276395 0.018107787260153083
000180 9d 9c c6 e8 c5 ab 80 3f c8 f2 99 3f 2c 91 a8 3f
       0.008140131155256742 0.047982580913389195
000190 60 61 66 9e df d3 a5 3f 30 a7 10 da 9f 59 8f bf
       0.04263209160416426 -0.015307663767163499
0001a0 26 cd 9b 14 ef d3 64 bf 70 93 12 cb 83 ae a9 3f
       -0.002542464212518819 0.05015956739342797
0001b0 fb 53 83 ce 71 35 96 3f 48 15 ec 40 0a 8b 82 bf
       0.02168824980693172 -0.0090542603552516
0001c0 3a 46 60 cc bd f1 a4 3f 1e c5 28 06 03 7d a4 3f
       0.04090684051346867 0.04001626444040539
0001d0 60 2e ee 1c 3b fb 92 3f d8 81 dc 61 c0 54 ac 3f
       0.01853649486615294 0.05533410257908472
0001e0 3d 53 24 6b 8e 6a aa bf 09 76 0a 6b be 20 64 3f
       -0.051594210223049754 0.0024570197204656402
0001f0 93 b8 6f 22 e6 dc 66 bf 9a 1a d0 d1 97 5e a3 3f
       -0.002790879708746871 0.03783106266205501
000200 af 8c fa 94 58 1b 9f 3f 0a ed 7c 09 1d ba 94 3f
       0.03037775430005912 0.02024121637735469
000210 a3 69 1a 39 7c 5d a0 3f 20 ec c9 8c 07 66 a3 3f
       0.03196323582706675 0.03788779824841293
000220 c9 45 a5 24 60 99 87 bf 81 48 ed 7a 0d e1 a7 3f
       -0.011523009413084833 0.04663889051029547
000230 d9 dd 13 2b dd 49 91 3f ce 9e 90 79 f1 42 a3 3f
       0.016883331064461025 0.03762011155077759
000240 2f 36 04 3b 41 f4 79 bf 08 3b 9b e2 94 78 a7 3f
       -0.006336455160874928 0.04584183946791681
000250 e6 c2 a8 ca 61 5f 99 bf ec a5 6c ec 2a 53 85 3f
       -0.024777915949189565 0.010412535991764359
000260 47 fe 4a 4d 4c a8 af 3f 0f 95 e0 ea a4 a3 a4 3f
       0.06183088725583424 0.04031100623277883
000270 bf 14 3e ed c7 68 b6 3f 1a 57 53 c1 3f d3 9b 3f
       0.08753633062413523 0.02717303864923002
000280 74 83 d9 6d 94 df 65 3f 51 44 57 ac d0 36 73 bf
       0.002670087719522868 -0.004690947656357984
000290 73 be ea 8c 37 f4 a4 3f 1a b4 c8 7a 95 a8 a5 3f
       0.040925727798250565 0.042301818121224424
0002a0 a9 ea fa 3c 0c ea a7 3f 33 73 89 c0 04 3b 9d 3f
       0.04670751804720414 0.028545450450440057
0002b0 a8 26 21 29 06 63 a2 bf 5b af c8 49 b3 4b a1 3f
       -0.0359117436606316 0.033780672795130605
0002c0 4d d4 d3 3b b8 9d 33 bf d7 4e 88 fd d3 6f a5 3f
       -0.0002993178166684249 0.04186880559805466
0002d0 1c c0 16 68 f2 94 b2 3f 0b 74 f6 41 89 1c 9b 3f
       0.07258524934036398 0.026476044322056008
0002e0 fd d4 37 a9 90 2a 8d bf ac 1e 44 52 a4 a6 a8 3f
       -0.014241342701078791 0.048146376650092776
0002f0 aa 77 fa 7c f7 c1 95 bf ec 32 9e 54 c4 2b 71 3f
       -0.02124773693378016 0.004192130008857414
000300 78 9f c8 ad be 9d 77 3f 6b 38 e0 32 99 8b b1 3f
       0.0057656715767179165 0.06853635303579757
000310 7f 93 b2 6a 42 ef a5 3f b0 02 62 9a 8e d2 a9 3f
       0.042841029667477486 0.05043454775387113
000320 4c d3 64 ec 15 3d a5 bf 92 88 3c fa 41 2e a6 3f
       -0.041481671435042416 0.043321668430750596
000330 39 cf 3e 7b 5c f5 b9 3f 28 16 3c b7 98 fc 93 bf
       0.10140016564292588 -0.01951826685310301
000340 44 93 38 4c f7 18 9e 3f af 54 ac 5d 7f b7 50 bf
       0.029392112757835834 -0.001020311718723559
000350 cc e9 3c 9d de b4 a1 3f 8d 0b c2 fc 4d 7c 90 bf
       0.03458305043610074 -0.01609918456280073
000360 3a 2f 9e f8 98 23 b3 3f 9a b3 7c 2b ed 76 9a 3f
       0.07476192540906093 0.025844293383829965
000370 70 9b b9 bd 76 1f a7 3f 4b c3 3b be 81 6c 93 bf
       0.045161924991410696 -0.018968608127525582
000380 52 af f0 18 ee 5d 95 3f 68 bb 29 f1 8b 3a 8e bf
       0.02086612727377652 -0.014760106370173623
000390 1b 09 fb 60 c8 5f 6f 3f 15 d2 0c 6d b0 5d 92 bf
       0.003829852452185934 -0.017935520797623356
0003a0 69 a6 83 fb 1b c3 92 bf a7 76 a8 c4 a3 a8 93 3f
       -0.01832240793820575 0.019197996976905298
0003b0 ab 16 6d c0 9f d9 89 bf f6 fe d1 c9 21 ca aa 3f
       -0.012622116145972603 0.05232339466692608
0003c0 f9 81 ec 04 22 73 a1 3f 75 f4 6d 16 92 7d 80 3f
       0.03408151922326747 0.00805200701665341
0003d0 c1 e8 fb 39 95 9a a4 bf 16 d9 0c 01 51 6e 62 3f
       -0.04024187405407665 0.002249868594300551
0003e0 af e2 4f 54 ba df af 3f 12 4d 30 f6 6a 94 67 bf
       0.062253783027647606 -0.0028783883185582526
0003f0 0f c1 2c 48 2c fe aa 3f aa af 43 ab 2a 36 49 3f
       0.052720435915377555 0.0007693966240629364
000400 5d 37 ed 20 b1 b2 ae 3f be 77 6a 23 8f 57 a3 3f
       0.05995706107078889 0.03777739817927238
000410 3a ab 2f d7 88 8c b3 3f 7f 85 aa 02 6a 1a 7f 3f
       0.07636313680238241 0.007593549826795053
000420 1e 85 e5 6d 2b de 99 3f cc 6a f0 27 e3 7b 82 bf
       0.02526157243972193 -0.009025358826013095
000430 1d 78 29 4d ab 7a 93 3f fa 06 07 df 8e bd b2 3f
       0.01902263315638929 0.07320492691999539
000440 79 83 3c 8b 74 a9 8e bf a0 8b 05 76 d0 aa a8 3f
       -0.014971647738606585 0.04817820969289888
000450 88 7e 16 24 1c a8 a0 3f 7e 2c 02 b1 69 4f 93 bf
       0.03253257694745765 -0.018857623509159975
000460 6e 02 b4 15 8e ce a9 3f a2 37 ee b1 30 64 81 bf
       0.05040401472979715 -0.008491878919610066
000470 80 61 5f 99 6d 25 af 3f c7 0f 7c bd b4 c0 7a bf
       0.06083242890571494 -0.0065314350283677885
000480 68 ae f1 6e f2 1c 8b bf c8 f1 5b d5 c2 61 a8 bf
       -0.013238805781120536 -0.04762085775834951
000490 b2 90 90 aa de e9 9f 3f b0 27 5c 9d e4 31 93 3f
       0.03116557994884834 0.018745014290324213
0004a0 e3 0d 28 b8 66 fe 95 3f c4 ba 06 dd 64 00 96 3f
       0.02147827624322741 0.02148587798154257
0004b0 c5 86 60 71 f9 13 b1 3f 85 8c e4 34 62 fd 89 3f
       0.0667110349463896 0.012690322150382247
0004c0 1e a1 e1 d0 4b 74 98 3f 02 5e 37 1c 9e 00 98 bf
       0.023881134628397686 -0.02343985602587218
0004d0 eb af c9 40 40 7e b4 3f 4f 29 2f 2d 51 27 a4 3f
       0.08005143720373524 0.03936246563496814
0004e0 a3 4c f5 8b 9a de a1 bf 9a d0 43 80 c7 22 92 3f
       -0.034901456436864174 0.017710797504108734
0004f0 fd 85 d7 75 ad c7 8e bf a4 3d bf b6 a3 b5 a0 bf
       -0.015029292258023292 -0.03263579946326026
000500 5b 25 76 87 81 11 90 bf 5d a6 71 0d 54 a7 9f bf
       -0.015691779988207127 -0.030911744423440236
000510 2d 3d 4d f7 11 11 94 bf 3a 5c 0d 43 5b 12 94 3f
       -0.019596367568110274 0.019601274459400943
000520 70 67 95 40 0a 38 9d 3f 60 43 7e 1f f1 87 98 3f
       0.028534088317747786 0.023956077143853505
000530 dc e0 3b 01 92 dd 93 3f dc 55 45 d4 90 c7 b0 3f
       0.01939991123705985 0.06554513151544178
000540 09 80 4b 6f 7c d8 a8 3f 8f d0 fe 23 7b e3 9e 3f
       0.048526657663160284 0.03016464621733
000550 0f 5b b6 09 a5 b0 95 bf d1 66 9a 5a 83 9f 71 bf
       -0.02118165847567882 -0.004302514172786779
000560 67 15 3f 43 78 0f 83 bf 16 70 e3 ea b6 6a b1 3f
       -0.009306850006292234 0.06803458437519824
000570 cc aa bd 2f 3b 9b a3 3f 8f 7e c8 d2 3d cd 9c 3f
       0.038293695047135395 0.028126684179481883
000580 22 39 3e c3 a2 7d a5 3f 40 ac 8c 78 61 2b 76 3f
       0.04197415002191664 0.005412464852990573
000590 00 99 0a 84 74 ab 8c 3f c4 e4 83 b0 41 59 aa 3f
       0.013998899726470615 0.051462223813311364
0005a0 2f 5a 53 65 49 62 a6 3f 8f fb 79 fb 66 0e 6e 3f
       0.043718618029448535 0.003668976914752382
0005b0 71 0a 22 27 f1 64 b5 3f ef 05 43 cb c4 1f 75 3f
       0.08357150273699589 0.00515725014355571
0005c0 d6 a8 d9 5b 49 80 80 bf 7d a0 a6 25 1e fb a3 3f
       -0.008057187190577169 0.03902525148015543
0005d0 29 cb e5 21 53 25 82 3f 7a a6 e0 24 e6 0b 5f 3f
       0.00886025378415452 0.0018949267864719886
0005e0 63 80 b5 f2 ae 37 b3 3f 70 60 d7 f1 95 17 7b bf
       0.07506841111671884 -0.006614289971786133
0005f0 25 b0 cd 44 42 56 a4 3f 46 39 73 9f 34 c7 8c 3f
       0.039720602892743075 0.014051829448729191
000600 e8 70 40 a6 33 e3 a5 bf 53 65 7f c3 4f a2 8c bf
       -0.04274903683128334 -0.013981459764112946
000610 68 78 c6 a2 18 bc ab 3f 46 24 b4 f7 79 63 b3 3f
       0.0541694353771483 0.07573663995221222
000620 ac d3 ef ee 7d c1 7a 3f b1 74 64 3e ae ae ad 3f
       0.006532184531342116 0.05797333251596493
000630 23 de ea 1e 05 79 91 bf c0 29 fd f3 9c 05 8e 3f
       -0.01706321717457916 0.014659143634749294
000640 2f c8 65 a6 0d 82 90 bf 2d 9d a3 da d8 32 aa bf
       -0.01612111404524102 -0.05116918248114142
000650 2f da 4f 48 41 f1 43 bf f7 76 78 c6 16 70 94 bf
       -0.0006085938226750349 -0.01995883547180363
000660 f6 bc 6b a2 80 fd a3 bf 44 69 ab 19 e5 9e 9f 3f
       -0.03904344542194764 0.030879573528048057
000670 8d ed ff e8 0e 27 7f bf c8 0d 85 a3 ba 8f b2 3f
       -0.007605608217996174 0.0725056313722724
000680 c8 f2 03 4b 5b 1c 67 bf a8 7a 0e f2 fc c3 8c 3f
       -0.002821138674447308 0.014045692574481919
000690 ee fb f0 e2 59 9b a6 3f 36 77 de 86 84 af a0 3f
       0.04415398497848587 0.032589093650342724
0006a0 ae 5d 85 6f 68 4f a8 3f 57 8d 43 60 63 1b a0 3f
       0.0474808345922456 0.03145895528885017
0006b0 8a da a9 64 bb 23 7f 3f 8e d3 8b 96 35 ae 62 3f
       0.007602436070206617 0.002280335106088
0006c0 01 af a5 2e 73 cc ac 3f f2 f8 3d e9 f9 4a 9f 3f
       0.05624732918189857 0.030559449063269413
0006d0 95 c3 4b fa 11 ac 73 bf 7c 11 6f a5 37 07 91 bf
       -0.00480277082964244 -0.016629094574243095
0006e0 de 7f 63 73 08 c4 9f 3f 09 11 0b 48 b5 4a b1 3f
       0.03102124408985662 0.06754620560520065
0006f0 bf 04 a3 0d 24 71 a3 3f fe 19 28 bf ef e6 81 bf
       0.03797257105316864 -0.008741257687700173
000700 d3 dd 15 af f1 5c 73 3f 3c e9 75 b5 28 8d 72 bf
       0.004727310254899436 -0.0045291509808243445
000710 d2 5b ce b8 fc da a2 3f 66 1e 7e cb 4a 54 9b 3f
       0.036826989707314475 0.026688736601072093
000720 f2 59 f7 59 56 fe 7e bf 1c 67 fa 77 ba da 94 3f
       -0.007566773710513607 0.020365632603534953
000730 c7 9b 67 b4 02 dd 91 3f c0 42 cb e0 25 63 ab 3f
       0.017444650898962324 0.05349081391398647
000740 c7 69 4b 8c 47 ec 8f bf 7d 17 0a ca 00 fc ad 3f
       -0.015587386101675883 0.058563255942359206
000750 a5 4b 16 13 44 f2 62 3f d5 67 f7 fa 54 75 9d 3f
       0.0023127870160321745 0.028767898385787156
000760 50 2a fa aa 9f 93 55 bf d6 3c 46 a6 ef d0 33 bf
       -0.0013169345146787532 -0.00030237055605026924
000770 5a 14 28 3a 81 7b 9c bf b0 58 6d f2 ea ce ac 3f
       -0.027814883398623237 0.056266157239109105
000780 bb 7c e7 42 65 47 88 bf fd 25 1b f1 a8 df 9c bf
       -0.011854926208739838 -0.02819694491953405
000790 b5 5b 29 5d cc 69 a8 3f 8a 43 95 3d d6 c4 90 3f
       0.047682176944980816 0.016375873097163963
0007a0 98 e0 d8 56 ec e0 aa 3f 40 f2 49 78 29 16 a6 3f
       0.05249727783342556 0.043137832578370894
0007b0 a7 8e ba e1 ea 65 9a bf cb a1 ab 0c 25 b6 8d 3f
       -0.025779409434689395 0.014507569741412226
0007c0 46 24 e8 7b 6d df 93 3f 15 f2 a3 1e b7 c5 9e 3f
       0.019406996429129707 0.030051099057333348
0007d0 cb 0d ad 50 48 64 81 bf 71 c7 0a d5 e4 47 b2 3f
       -0.008492054903064613 0.07140951348517689
0007e0 e9 75 76 8d dc 88 a7 3f 74 c4 d4 52 2e 4c 6f bf
       0.04596604563560531 -0.0038205055958760396
0007f0 35 b0 31 bf 49 84 7e bf 85 67 ab 0c c1 dd 71 3f
       -0.007450378488197675 0.004361871814319578

fc2.bias f8 [100]
000000 89 d8 38 0b a1 2a ab 3f bd 0a 2f 03 09 44 ac 3f
       0.053059609050635954 0.055206567419664655
000010 92 be f6 f9 30 ac 91 3f 2a 7b 48 a8 87 da a6 bf
       0.017258420235235557 -0.0446360009120695
000020 be 83 c7 a3 0a af b4 3f 97 21 02 da ef e5 ac 3f
       0.08079592226523766 0.05644177948221623
000030 3a 8b 91 2e 8c b2 9e 3f eb db b3 e8 59 e1 ae 3f
       0.02997797998649363 0.06031304326636885
000040 9e 21 b0 f7 9f 85 a5 3f 33 89 30 5f 8c 12 b0 bf
       0.042035101876595635 -0.06278302501644788
000050 00 04 39 c0 19 d6 a9 3f 85 43 e4 a9 65 94 b5 3f
       0.05046158286541669 0.08429561040635576
000060 3a 4e 60 a7 85 36 b2 3f 0e d3 b1 1b 8c 7a 90 3f
       0.07114444099743703 0.016092480841012828
000070 7f 15 69 b5 21 87 98 bf 4a 3b 81 ee f3 bd 9c 3f
       -0.023952986428658726 0.02806836264818039
000080 25 1b 58 6e 7a 03 b7 3f 98 7a e4 e8 32 8c b1 bf
       0.08989682382535287 -0.06854551492549843
000090 dd fc 02 91 7c 5f 9b 3f d1 ef ba 7f b2 85 94 3f
       0.02673143992501258 0.02004126457789807
0000a0 f4 b0 a9 29 da f6 a6 3f 92 62 aa 9f 74 84 b2 3f
       0.04485208281116285 0.07233361147008058
0000b0 ef 18 32 43 fa ae 4e 3f 6a 78 a5 82 dd ef a0 3f
       0.0009363862976819163 0.03308002681545548
0000c0 7d ee f4 df bb 4c a6 3f 57 dd ce 4d a0 63 b3 3f
       0.04355418309066026 0.07573892497645339
0000d0 71 2b bf 08 36 6f b6 3f 41 d0 41 b3 a8 df 95 3f
       0.08763444627326834 0.0213610038194505
0000e0 d6 84 c1 c8 bd cf 77 3f af b0 b4 58 3f 94 96 3f
       0.005813351959745824 0.02204989413182606
0000f0 1e 22 2f 47 3d 2e a4 3f 36 4b 82 d2 95 c5 b2 3f
       0.03941527837702473 0.07332741155032071
000100 03 86 1e 4a 78 fe a2 3f 0a 36 2c 54 cb b3 b7 3f
       0.03709770111823831 0.09258719258306072
000110 b3 ec 0d 8a 71 8f b6 3f 55 14 e8 e3 5f 3c 83 bf
       0.0881262743040903 -0.009392499106079347
000120 d2 2b a5 82 e6 11 85 bf 7d db 44 e6 93 c2 af 3f
       -0.010288048612570853 0.06203138528729022
000130 d8 a5 f2 a3 f7 13 a6 3f d7 ee 53 c7 c7 6f a3 3f
       0.043121088755764425 0.03796219165994124
000140 03 a2 00 52 bb 71 b7 3f 1d 3e e7 38 36 28 a0 3f
       0.09157915832532386 0.03155679173107393
000150 b8 e0 01 3a 94 76 a5 3f dc 70 ae d5 e2 a9 ab 3f
       0.04192031105134347 0.054030502876430936
000160 93 a1 a1 77 9b a0 ad 3f 41 63 34 da de 5f b2 3f
       0.05786596141189473 0.0717753679968043
000170 e3 44 36 3b 2d a0 a6 3f 71 4f b6 97 6b fc a2 3f
       0.04419080112269016 0.03708206393198921
000180 9a 6d 97 8f a0 a2 a9 3f 94 b9 5c c4 5b a2 9f 3f
       0.050068872001897094 0.030892785892484634
000190 2d af 36 da 3f 11 b1 3f 53 3d 10 da 77 08 7d 3f
       0.06666945531349873 0.007088154002317398
0001a0 48 b8 8f dd 1d 91 9f 3f b4 52 6b 45 fc 19 b4 3f
       0.03082701363376142 0.07852150625997006
0001b0 a8 25 a0 a1 a4 b4 ae 3f b3 05 fa 23 20 94 a1 3f
       0.05997194741218986 0.03433323325317463
0001c0 3d 44 70 35 93 89 b0 3f e5 f5 8e 89 77 5f a0 3f
       0.06459922842647443 0.031978354970742896
0001d0 60 d9 d2 f9 4c 36 a4 3f 3a 53 f4 c7 35 0a 95 bf
       0.03947678136448718 -0.020546760873077143
0001e0 5b 56 7c 44 bf f1 97 bf c3 db c4 79 18 77 71 3f
       -0.023383129649195627 0.0042639690475913565
0001f0 da e8 34 86 08 1c b0 3f 56 fc 1f e9 a3 02 45 bf
       0.06292775417833543 -0.0006411838860457357
000200 0d b3 8f 0b c7 a1 ad bf 51 9c 20 4d ac d3 8f 3f
       -0.05787488952760187 0.01554045305608845
000210 da fb b6 ea 4d c3 b2 3f 5e 8b 67 34 ad 60 b8 3f
       0.07329260807362861 0.0952251675549127
000220 29 ef a0 7c bb 23 b8 3f 26 59 f9 cf 39 3f b1 3f
       0.09429523270312913 0.06737099959841383
000230 b7 52 23 ab 87 23 88 3f e2 d7 b2 e1 56 eb be 3f
       0.011786518011299802 0.12077849397869003
000240 c3 54 14 64 ce 46 b9 3f 7f fe 99 e8 c2 9c 9e 3f
       0.09873666709275412 0.02989487213790065
000250 6f 23 33 31 2d d2 b6 3f 23 a1 67 a9 af af 95 3f
       0.08914453936735155 0.0211780020853506
000260 9b 5c 4a af 31 53 ae 3f e0 62 05 1d 55 74 a8 bf
       0.05922847046638787 -0.04776254634152166
000270 e6 6d 8a 4a f9 eb b8 3f 1a e6 c6 69 d6 cc 8e 3f
       0.09735067434160491 0.01503913412385587
000280 99 55 f5 d8 e2 a1 9a 3f 5d ed 73 38 3f c7 71 bf
       0.02600817155083277 -0.004340407328750598
000290 05 0b e4 0b 90 e9 af 3f c1 ef b8 25 12 22 a0 3f
       0.06232881684447559 0.03150994024733179
0002a0 a2 0c e5 e2 bc dc af 3f 18 17 7c d5 ac ee b5 3f
       0.0622309710475062 0.08567314350156285
0002b0 ca e7 0a 56 46 9f be 3f 2e 02 3d 4a 7a 3c aa 3f
       0.11961783981942556 0.051242658197683574
0002c0 c8 a1 1d be 6f db a4 3f ec c6 76 14 6b 2d 92 3f
       0.040736667592514986 0.017751381992360857
0002d0 be 5a c2 8f 20 7a 90 bf d6 c7 24 3f dc 6c b1 3f
       -0.016090878271451052 0.0680673269423829
0002e0 45 02 3b c9 b7 52 a2 3f ac 13 f9 1e 1a 7e 82 3f
       0.03578733760287326 0.009029583044261567
0002f0 16 2c 1c 0c 21 13 b5 3f c7 ec 8b d2 ee 0f 82 3f
       0.08232313676505529 0.008819452095386272
000300 05 be aa 2d 95 87 b0 3f 49 af 41 f9 a2 84 a7 3f
       0.06456882824817718 0.04593381207163689
000310 23 db 7e 20 55 8a 89 3f f2 99 4f a3 37 2c ba 3f
       0.012470879606423296 0.10223720299800457
