weights/numq/gspc/correlation/high/numq_pretrain.pt (torch, 526847 bytes, 8 tensors)

fc1.weight f8 [200, 200]
0	0x3fb4fdfbff4b5200	0.08200049383896868
1	0x3fc21b533c3d680f	0.1414588970317827
2	0xbfb24bbf8316dfa4	-0.07146832418845733
3	0x3f80c67135e78b18	0.008190998513730771
4	0xbf885e1f80c641db	-0.011898275487312418
5	0xbfc824601e082da2	-0.18861009088901165
6	0xbfb81be355ba93c2	-0.09417553751934718
7	0x3f90bd7bac07beaa	0.016347820639508605
8	0x3f9169bf8f9c4607	0.01700496019390665
9	0xbf8d96ca74d3ac63	-0.014447766962311264
10	0x3fc0dee12af50711	0.1318017444373756
11	0xbfa3d1fb8476217a	-0.038711414260492696
12	0x3fa23fc5312d7dc2	0.03564277863801692
13	0xbfc14e8b1a54594b	-0.1352094534456206
14	0x3fc1c88b8ff2b886	0.1389326527473182
15	0x3fc8cce5fe77af5a	0.1937530033604798
16	0xbfb735b502e8b24f	-0.09066325493831438
17	0x3fb30b1f3154b8ca	0.07438845590943113
18	0x3f9058bdd85cf497	0.015963522272831012
19	0xbfa2cc5633f525fd	-0.03671521553276234
20	0x3fb829167de5097f	0.09437695096588604
21	0x3fb5bbb5264edf0f	0.08489544091468935
22	0xbfb13c1af10ac248	-0.06732338318648445
23	0xbf9f74a7567f9fee	-0.030718435911609214
24	0xbfbfcbb4fcbfc08e	-0.12420207186346685
25	0xbfb8607ccd4988d9	-0.09522228252311339
26	0xbfc1dac3bac7f182	-0.13948866481940675
27	0x3fb8efa05e674afa	0.09740640930912639
28	0xbfc9308a8f9566d1	-0.19679386149328207
29	0xbf9f0b940cc4b6a4	-0.030317605284997953
30	0x3f5c48712b5d90d3	0.0017262559099089816
31	0xbf5a59807f47f58f	-0.0016082529883755003
32	0x3fa996b5be2370e0	0.049977950535067484
33	0xbf79d4fbe04a44c4	-0.006306632891793732
34	0xbfbb0e7b1366539c	-0.1056897089350301
35	0xbf786fd99cc69827	-0.005966043518503417
36	0x3fa17aad4e02aac8	0.03413907601619354
37	0x3fad4df96415c09a	0.05723552080860479
38	0x3f94f278dc67ef6e	0.020456207706942058
39	0x3fadf8e6f03f92a8	0.058539597346486005
40	0x3f4a93151bbbe4ab	0.0008109906261487739
41	0x3f876deadd40d6a4	0.01144011962615405
42	0x3fa67847780eb1f7	0.04388640728516074
43	0x3faa7a75138b5d60	0.051715525279798724
44	0xbfa79ec9bf222558	-0.04613333185359164
45	0x3fc97300e50362af	0.19882212812696795
46	0x3faac55134bf55d2	0.05228666085137558
47	0xbfb6937ff80764db	-0.08818816953079837
48	0xbfbd3921900c5acd	-0.1141530014686893
49	0xbfb192a384ace308	-0.06864377965110802
50	0xbfa8d39817c351df	-0.04848933496547025
51	0x3fb0053ad8d33ea3	0.06257980149825441
52	0xbf79a2beac782666	-0.006258721179173676
53	0xbfa4d6bfbafc02c1	-0.040700904441114634
54	0xbf993ee0415ea436	-0.024653915395593105
55	0xbf9797c82ff46cc5	-0.02303993981068399
56	0x3fb945692e6b7179	0.09871537574094259
57	0x3f9643594917cd24	0.02174129017471417
58	0x3f9d68d8d29c09a1	0.02872027192553051
59	0x3f9a4ae1c82aa5b1	0.025676277010153906
60	0xbf9b642dfaaaff7a	-0.026749342369611885
61	0x3fc0a8c7f038f995	0.13015078763596635
62	0x3fb169456b3184c6	0.06801256052996782
63	0x3fb7281bf841c4d6	0.09045576868972502
64	0x3f90ff967d5ce81b	0.016599990273995596
65	0x3f72ad4b2000cc67	0.00455979676921734
66	0xbfa8fe4bf287bfdc	-0.04881512961935616
67	0x3f69d47d70769b5a	0.0031530809389609784
68	0xbfb8c86ce836db4c	-0.09680824918073688
69	0x3fb6de35572fcfd6	0.08932813051779873
70	0xbfa87f05bce3fc51	-0.047844104106837045
71	0xbfb30464329abef9	-0.07428575740300038
72	0xbf62e6f88ee01b70	-0.0023074011469392183
73	0xbfbaf092c8940a83	-0.1052333583539085
74	0xbf8d5a47951f3c2e	-0.014332350958197262
75	0xbfbcdffce1d234a2	-0.1127927829094966
76	0xbfad00443ed7cd2b	-0.05664265887380745
77	0x3f9bb33b22f7614b	0.027050899514365494
78	0x3fc4ad3d56622724	0.16153685300769738
79	0xbf9d951b673abb5a	-0.028889110732673508
80	0xbfab106385e1c6b8	-0.052859411328325334
81	0x3fb0d01827ef9e6c	0.06567526793480177
82	0xbfb85928d929a978	-0.09511046697449455
83	0x3fbc9290e66bb876	0.11161141992099197
84	0x3f8ac945421083aa	0.01307920558798677
85	0xbfaec967eeb076af	-0.060130355727080136
86	0x3fb250a918b8ad81	0.07154328206586592
87	0x3f9c2a1cf451fc9c	0.02750439873898057
88	0x3fb0bee50628764e	0.06541282081931252
89	0x3fa3469a699294df	0.03764803446510156
90	0xbfb0e146ed779056	-0.06593745515380198
91	0x3fb1059f8fa7ea39	0.06649205453133157
92	0xbf9a11cbf9639ba6	-0.02545851430559378
93	0x3f879985aa42d7d8	0.011523288973290066
94	0x3fb0de01c34f86d5	0.06588755625082439
95	0x3fa53ed83b042103	0.04149509163295486
96	0x3f96a230341d0853	0.022103074246168152
97	0xbfabe325f298a6d1	-0.0544673784864479
98	0xbf94c2e619e520d3	-0.020274730043895083
99	0xbf898e8ff6fcaab3	-0.012478947377151916
100	0xbf9b1c0a03d2877d	-0.02647414825754123
101	0xbf8247082df2cf8b	-0.008924545194851216
102	0x3fc5e56dd7d0a7a2	0.1710641196999037
103	0x3fad5093a827f538	0.0572553770798358
104	0x3fb68748de42976d	0.08800177980682884
105	0x3fb75834d95d8846	0.09118967348834514
106	0xbfbd6d16ffe840b2	-0.1149458288930443
107	0x3fb30c1e6506a480	0.07440366713002966
108	0xbf909d0fa47f7dd9	-0.016224140563165654
109	0x3f9e30e87e0fede5	0.029483444875934146
110	0x3fb70cdf7da8e7d5	0.09004017656198411
111	0x3fb97040d40d6706	0.09936909844455152
112	0x3f85a6a136780e87	0.010571727251778696
113	0x3fa07efad4a0fec1	0.03221877904479476
114	0x3fb035fa5a001711	0.06332363793634622
115	0x3f986aabd34bc399	0.023844418307763602
116	0x3fb76d54ac260ca2	0.09151200487945002
117	0x3f8ef47dbf279260	0.015114767452311273
118	0x3f72da846f5143ed	0.004602925609177949
119	0x3f962ea2de82a8a1	0.021662278014141226
120	0x3fad4e78d53b8c02	0.05723931887566637
121	0x3fbbb0ce6fc7eb1b	0.10816660145784988
122	0x3fbe2c9eb9856236	0.1178683474476053
123	0x3fb52944e0519f63	0.08266096569570673
124	0x3fc1cf23397d74ce	0.13913383776790628
125	0x3fbf21d92c6d4ab6	0.12161023459092743
126	0x3f87f8319b72d1b4	0.011703860813533896
127	0xbf94383dc41fc6b4	-0.01974579343363443
128	0xbf9649b28b06742b	-0.021765508399415417
129	0x3fae2d088b9561a4	0.058937327422145885
130	0x3fc19a601c0b6ab6	0.13752366418233003
131	0x3fc556e6e27fec7d	0.16671453532748962
132	0x3fae0f1e64ec0431	0.058709096736500384
133	0x3fb9691ccc0a327d	0.09926013928834183
134	0x3faced601caeac90	0.05649853086591705
135	0x3fb72ef712f7a464	0.09056038106031533
136	0xbf81e07d9b1b1750	-0.008728963180498234
137	0x3f91bd964453f8f5	0.017324779434596278
138	0x3fb587bb79e782c5	0.08410236097507624
139	0x3fc2b1434dae08f0	0.14603463452301169
140	0x3f94c99e40c3d3ce	0.02030036230367554
141	0x3fb388780d7426cb	0.07630110100231062
142	0x3fc60281bcec7f85	0.17195150112911164
143	0x3fb655fc3fac260f	0.08724953226569475
144	0x3f9713177b14e38e	0.02253376663904621
145	0x3f9720a0bcbefd3b	0.02258540298475718
146	0x3fab56d98e1f2c12	0.05339698657879678
147	0xbf9b23aa9d76c361	-0.026503244267306218
148	0xbfb308584f15c833	-0.07434608393467172
149	0x3fb67a4f31f74962	0.0878037926661697
150	0x3fa1268ff358297b	0.033497332053303595
151	0x3fc4e0d2ce5bda74	0.1631110675441111
152	0x3fb722da2ba60428	0.0903755528033946
153	0x3fb998f1edea9a94	0.09999000605112435
154	0x3fb7a2004e573804	0.09231569206824025
155	0xbfb977ef59d53434	-0.09948631232437394
156	0x3fbaa759f8aaf16e	0.10411608048429397
157	0xbfa3473f23ec6169	-0.03765294374005885
158	0x3fa2c452969b0edb	0.03665407265137129
159	0x3f89c835b918fa65	0.012588901244382453
160	0x3fc153bf60c86b78	0.13536827302672427
161	0x3fb66d43b44c8c92	0.08760474349814931
162	0x3fbfb57edf8ee55b	0.12386315305675082
163	0xbfaf7d89a9905f13	-0.06150465197441526
164	0x3fc14cdb3fe73ba4	0.13515797252918305
165	0x3fb17a099ff57e3d	0.06826839595077501
166	0x3fc76e449c78d008	0.18305261268835715
167	0x3f92504463389de6	0.01788431983564278
168	0x3fb48ed7dbe4b7ea	0.08030461424343086
169	0x3fae6ed36d46f825	0.05943928441000449
170	0x3f8d6d85a9ac99dc	0.014369053116365764
171	0xbfa9b7ef3196ccb8	-0.050231432727195935
172	0x3fc146e364f5ef71	0.1349758379909605
173	0xbf7df66134d9b0ee	-0.007315044129068788
174	0x3fb80b5628daa0c7	0.09392298219120497
175	0x3fa6b039a22e9cdb	0.044313241050355244
176	0xbf8a08505025a4b4	-0.012711169668096246
177	0x3fb51f1c952e9e13	0.08250597612515546
178	0x3fc5130bd3e68191	0.16464374396037987
179	0x3fc241ccd970aabe	0.14263306252663271
180	0x3f9de1c7107d8e2f	0.02918158567571377
181	0xbf88eae51b0f0743	-0.01216677655054677
182	0xbfab5c63b7319da4	-0.05343925105335792
183	0x3fb6860dd802e5ff	0.08798300288881221
184	0x3f8fa66840af197b	0.015454115365980617
185	0xbf9a90b9b10cb6e9	-0.025942708426717784
186	0x3f993813d421c1c8	0.02462798101663724
187	0x3f692a09cf3ac7a9	0.0030718032447447263
188	0xbf4adc050968533e	-0.0008196854203697879
189	0x3fb0ae5d1f7623d8	0.06516057985403678
190	0xbfa2d9b2a100f1d7	-0.03681715216996267
191	0x3fabaf0b86d4de91	0.054069862564969935
192	0x3f98474b5fe16ea5	0.02370946667393405
193	0x3fc90d5efa6ce0b0	0.19572055080221196
194	0x3fa6b4fc319a251e	0.044349556975314494
195	0x3fac49216bb3e22e	0.05524544181566103
196	0xbf7b8d7d42c29940	-0.006726731586388646
197	0x3f84ae411ba60fae	0.010097988754530576
198	0x3f951798fe328504	0.020597830309843537
199	0x3fc112e7c376e64c	0.13338944477236436
200	0x3fbf1d32498da7c9	0.1215392522405231
201	0x3fabfe60f380f869	0.05467513058145885
202	0xbf9b940419ec36e2	-0.02693182380885773
203	0x3f9a8c0c1e1510dc	0.025924863182141475
204	0x3fb7bb7c2ec7c708	0.0927045454225458
205	0x3f9224bc097b7050	0.017718256071802607
206	0xbfb1f65b67e9dcdf	-0.07016536032630281
207	0xbf8c896366940caa	-0.01393392235559639
208	0xbfaec3d0f6d381ac	-0.060087709551001595
209	0xbfac8b0d79e64454	-0.055748387461002
210	0x3fae4ffd216ce80d	0.059204016046763376
211	0x3fbb25ed1aeb9e7a	0.10604745776401528
212	0x3fbad604c9e88d80	0.10482816628841896
213	0xbfa08ceef499ab67	-0.032325236662322614
214	0xbf98d6b612a65bc6	-0.024256558311744468
215	0xbf9f9bc62abc6431	-0.030867668493645254
216	0x3faa3229064743a3	0.051163942352679535
217	0xbfb0b0651ffa7a3c	-0.0651915743896802
218	0x3fae57090172c32c	0.059257775713723454
219	0x3fba8238ee10c527	0.10354953586717795
220	0xbfbca4e40513639e	-0.11189103244704632
221	0x3fb5276be2526308	0.08263277316508433
222	0x3fbc4d020fb9ea27	0.1105500496286501
223	0xbfa0ad3c8d548d6f	-0.0325716898462599
224	0x3f6550a29ed4aacb	0.0026019264393160927
225	0x3f86eee6be425d80	0.011197855645419308
226	0x3fb07c7dd9c37b19	0.0643995911263854
227	0xbf87bc3c94f2fcdf	-0.011589501662795985
228	0xbfa1a1342cd6d1f3	-0.03443301246025845
229	0x3f952643ec40397a	0.020653783125504678
230	0xbfc0b918a3af3a7c	-0.13064868919760275
231	0x3f9c2e097b8fdf82	0.027519367376924737
232	0x3fa7de476bbf35c4	0.04661772909421871
233	0x3f9977c6dc651a18	0.024870974733199075
234	0x3fbc9c62473ba4eb	0.11176122893415978
235	0xbfb0a0fd1ee3e6d4	-0.06495649341732285
236	0xbfacbc8a3ce6df43	-0.056125945982272295
237	0xbfaa6299999f0e71	-0.05153350830326254
238	0xbf9617426a7ff02e	-0.021573102712850005
239	0xbf843959004eac0d	-0.009875006982687418
240	0x3f9374a465387f53	0.018999642065068056
241	0xbfbb517a7100637a	-0.10671200999094124
242	0xbf909561deb0ecee	-0.016194848267542854
243	0xbf94ad88c0decbab	-0.020193230411404233
244	0x3f93d2cc0339008d	0.019358813950248566
245	0x3fbdb6b87b317c78	0.11606934554719028
246	0x3f95b7b911670f63	0.021208659827393627
247	0x3fbbef703cb1787b	0.10912229043739956
248	0x3fb043c0ed5cac36	0.06353383822413225
249	0xbfaefd6500198888	-0.06052699686257862
250	0xbfabd2a83340ac6f	-0.05434156060831518
251	0x3fc39a3db87d614d	0.1531445647076545
252	0xbf8a8535780b3ad1	-0.01294938824267203
253	0x3f9eeb6801e55660	0.030194878688538984
254	0x3f849cd67e7108b8	0.010064769490899614
255	0x3fb866f6e5e55cf0	0.09532111275381161

fc1.bias f8 [200]
0	0x3fbf40de5e3f8b60	0.12208356667501397
1	0x3fbcd7ef198f62a4	0.1126698911097131
2	0x3fe28769b78b9930	0.5790299019688856
3	0x3fe4071479c31fb2	0.6258642557304397
4	0x3fd136483b84cb5e	0.26893812000633044
5	0x3fd0149deeb6c604	0.2512583571616178
6	0x3fe2b25bcd0a9f55	0.5842722897259401
7	0x3fe35a2693fb7af6	0.6047547235756088
8	0x3fd98d76dff2b5d2	0.3992592989914928
9	0x3f865be6037781e3	0.010917469960021136
10	0x3fda0af6a580eb58	0.4069191566701895
11	0x3fcdb41a40ce8a7a	0.23205879368204646
12	0xbfcd0bf3c5ec427e	-0.2269272533817634
13	0xbfd26c8fea166b09	-0.2878761087428506
14	0xbfa62c53f77f0751	-0.04330694576448358
15	0x3fe13d03271b80f2	0.5386977924172511
16	0x3fc6b32f14aebe48	0.17734325895206582
17	0xbfa226321e683316	-0.03544766064815101
18	0x3fe11f35c7e356a6	0.5350598243773745
19	0x3fd5f468aafe303c	0.3430425329067963
20	0x3fe0f594ace18d96	0.5299781204779943
21	0xbfc76c70f5276841	-0.18299686403662643
22	0x3fda44a0cfa6bf89	0.41043873098805556
23	0x3fdbc27e0aef0061	0.43374587123617486
24	0x3fd3e929b725dbd9	0.31110613713775376
25	0x3fe3e621f17e3d35	0.6218423573172119
26	0x3fe41e6a837bb566	0.6287128990203825
27	0x3fc9ec645edb31cd	0.20252661353732862
28	0x3fcfb3cae96e3725	0.24767433546042486
29	0xbfce6f7919d1e076	-0.2377768875192065
30	0xbfc477ed0f774f02	-0.15990985160043897
31	0xbfa25f53967ae017	-0.03588353359140244
32	0x3fda4af12a8670a3	0.41082410004470143
33	0x3fd847b0c24b46b0	0.3793756387141043
34	0xbfc08e1b84caa4f4	-0.12933677658046572
35	0xbfa43ed2ebeb072f	-0.03954180841311793
36	0x3fe36f92ac94660b	0.6073697443673053
37	0x3fda4c63de362385	0.41091248226489824
38	0xbf8b430239068286	-0.013311402669218052
39	0x3fdbb05c5ac18449	0.43263920653231885
40	0x3fc870b21ab49226	0.19093920043919005
41	0x3fe0eaf3624d5cd3	0.5286805076565549
42	0x3fd3a859cc6fd186	0.3071503159001384
43	0x3fd1293361692a9b	0.26813969147466715
44	0x3fd725ef9c893fbc	0.36169042860728573
45	0x3fe76c52f843d7e2	0.7319731568265946
46	0x3fd942d41a32b385	0.39470388945010654
47	0x3fd571217458a13d	0.3350299488252125
48	0xbf704e9749951f8b	-0.00398120018628124
49	0x3fbed79e2e82ed84	0.12047756801159976
50	0x3fc055fe8c0e7a2e	0.1276243385190851
51	0xbf954cdc3b906031	-0.020801011214729385
52	0x3fd4ae28e440293a	0.3231298665056276
53	0xbfcf4d8b11ecdd07	-0.24455393195396644
54	0xbfd12e0d368f7767	-0.26843576744237513
55	0x3fb57becba63b2e0	0.08392219114802968
56	0x3fe6107469775c19	0.6895086345565488
57	0x3fe2782616be58a8	0.5771665996751567
58	0x3fbc2e3663af51f1	0.11008014615737928
59	0xbfca7b4ff602f154	-0.2068881942012789
60	0x3fcedeb53bc1fc1e	0.241171507052031
61	0x3fb1ac3fdb208ddf	0.06903456783088967
62	0xbfb892eebaef919c	-0.0959920126329678
63	0xbf86e6c12e4fe028	-0.011182316995459088
64	0x3fe0646bf004375e	0.512258499891441
65	0x3fd9a5268a4a57aa	0.40070498948022737
66	0x3fd5d84ea849172c	0.3413273471272642
67	0xbfc11133c897e65f	-0.13333747191045384
68	0x3fe2e68497582c21	0.5906393962808388
69	0xbf531383832a8435	-0.001164320402189623
70	0x3fcfe0493d3a8b59	0.24903216828996724
71	0x3fdd8e15970c128b	0.46179713965128916
72	0x3fe146853a037ee1	0.5398584492758937
73	0x3fd489f79af01472	0.32092085009237004
74	0x3fd6f4cb79d81e9b	0.3586910905728275
75	0xbfad88f4c49d5fc4	-0.057685517311881124
76	0x3fdf42c774638c62	0.48845087400531473
77	0xbfce5e799cfef4e4	-0.23725814977470983
78	0xbfcc506420be1f3f	-0.22120334242594628
79	0x3fe1fd79a8d13513	0.5621918008052113
80	0x3fe55b6cc397b5f2	0.6674102611702308
81	0x3fc7e883c5c70fe4	0.18678328663929655
82	0x3fdeb309aa0aec82	0.47967759710054036
83	0xbfc7066ce2d9956f	-0.1798835857072549
84	0x3fd451c345854504	0.3174904040252644
85	0x3fd6f6c29f84ee40	0.358811050205734
86	0x3fe15b75620fdd68	0.5424143710396665
87	0x3fe6bb37ab80f439	0.7103536939317855
88	0xbfc98a2e00b3e45f	-0.1995294097357911
89	0x3fb60fd01048788b	0.08617878339325295
90	0xbfb4b85e6d1cd062	-0.08093824542885522
91	0x3fe0ed4fb1cbf1ba	0.5289686653700791
92	0x3fe2b48854fc2b44	0.5845376644004792
93	0x3fe343027f09f33c	0.6019299012401471
94	0xbfbd36a1fe027cce	-0.11411488009842971
95	0x3fca4a9170ed3d63	0.2054006387138357
96	0x3fb334ae3c7bf2ad	0.07502259232200954
97	0x3fd011b18d2006af	0.2510799291777443
98	0x3fcc02520d5ca198	0.21882081654008512
99	0xbfd60281b559dc9b	-0.3439029952055052
100	0xbf9e6da6b0c6e3fe	-0.02971516088448211
101	0x3fe1c691b8fcbf15	0.5554894078286191
102	0x3fd5195b6a02feac	0.3296726737280362
103	0xbfd5a471f55cf56c	-0.33816193543665096
104	0x3fb424fdc2551814	0.07868944162791564
105	0xbfc53c729873d21a	-0.1659072155377011
106	0xbfb4d1d5272770df	-0.08132679181966605
107	0x3fe052e5e6227ef0	0.5101193899936032
108	0xbfc86e8134d9e06d	-0.19087233620280433
109	0x3fded9e44551695f	0.4820490528997165
110	0x3fe15952474b0fb6	0.5421534912534216
111	0x3fd9df980fe98d12	0.40427209428726585
112	0xbfa1a98f7b1d5afc	-0.03449676874031657
113	0xbfa93b98dabb3acc	-0.04928281469402904
114	0x3fd604c0da84db97	0.34404012050384253
115	0xbfc7a6b7ede0ea71	-0.18477534403958232
116	0xbfcdb8697dc414c9	-0.23219030991473336
117	0x3fe16d7812566cd8	0.5446129186779229
118	0x3fdd4be20cec5225	0.4577565313532282
119	0x3fe24a230059a62b	0.5715498930778201
120	0xbfc8e3454187f667	-0.19443574619065204
121	0x3fe518c36fbaedf2	0.6592728788595521
122	0xbf85d74272a50061	-0.010664481280969253
123	0x3fe4ab4ef00788cd	0.6459116638254955
124	0xbfb5718847ee4363	-0.0837636161434268
125	0xbfd6e9a22590d478	-0.358009850201888
126	0xbfd27ed84aeed819	-0.28899199788736635
127	0x3fdb6239fea45cee	0.4278702723253919
128	0x3fe34e7421b3249f	0.6033268602560787
129	0x3fa66f1b4ecbf780	0.04381642662882168
130	0x3fe2799577b0def4	0.5773417794907503
131	0xbfb0ae596aabfdad	-0.06516035894673307
132	0x3fc8933dee49b2e7	0.19199346671248138
133	0x3fe1a443893a57c2	0.5513017349464848
134	0x3fe2e71863b2641a	0.5907098719791322
135	0x3fdbdeee41ff521e	0.4354816097741451
136	0xbfaf6c981ab1b6db	-0.061375382669991395
137	0x3fcc973d4a34be53	0.22336546061841264
138	0xbfd159142b79667f	-0.27106193776635473
139	0xbfcea3825b80eebb	-0.23936490505172067
140	0xbf6cb6f866e7c2a8	-0.0035052157975246807
141	0xbfcd5e92d2f8a13b	-0.22944865514114973
142	0x3fe37c2a899be954	0.608907002227435
143	0xbfcaf3c63df16f1a	-0.21056440376821045
144	0xbfcbe7bc6407f250	-0.21800951847389394
145	0x3fd49e3a24e2ee16	0.3221574173182672
146	0xbfd0d161bd9806a9	-0.2627796508314569
147	0xbfd32466916a0ccb	-0.29909671974764923
148	0x3fdf8aba95ca261e	0.4928423369206899
149	0x3fbcea2da276b593	0.11294827667616962
150	0xbfb7771f573bfbe6	-0.09166141395324665
151	0xbfd2c6a3316c7c2d	-0.29337386919536607
152	0x3fca7611e19d6890	0.2067282058367863
153	0x3fde1e72bde322d0	0.4706084112518001
154	0x3fe31bfc706fe141	0.5971662708316573
155	0xbfc7cb868d173409	-0.1858986081046228
156	0xbfc89123e64bea7d	-0.1919293283934457
157	0xbfc008e39ab251a8	-0.1252712731699266
158	0x3fdb047b009f3581	0.42214846668942846
159	0x3fe106ff866841b0	0.5321042657033583
160	0xbfd052267a99863b	-0.25501405689837825
161	0xbfc2e7993c6ab15c	-0.1476928277019266
162	0x3fd5dcdcba157561	0.34160535976646683
163	0x3fd70a0a90226dde	0.35998786998399435
164	0x3fda7fc7a0e64751	0.41404905999035174
165	0x3fba58b29aae76d8	0.10291591907886344
166	0x3fe3b7e50a10b4f8	0.6161980816447388
167	0x3fdf048f7c3f697b	0.4846533501965024
168	0x3fc7bd2817e6ea8a	0.1854601017674507
169	0xbfbe9a2961f4d74d	-0.11953982011331483
170	0xbfbe99b3e15cf85d	-0.119532816429428
171	0xbfd78f3a5f2a1b38	-0.3681169442501644
172	0xbfb388f34996e49f	-0.07630844637505384
173	0xbfa8a763af1977d3	-0.048152079700897986
174	0x3fbf10cfbbb6a373	0.1213502724919076
175	0x3fd966885755c770	0.3968830922013842
176	0xbfdd2125128286ee	-0.4551479988823378
177	0x3fe10bedfceaffa6	0.5327062549404118
178	0x3fe2c5fa0a27875f	0.5866670797661121
179	0x3fdf09b175c3c101	0.4849666261716408
180	0x3fdb070164f389dc	0.4223025785305745
181	0x3fc55e8cac8cf59a	0.16694792199443215
182	0xbfc414dbdc6726e8	-0.15688656103002718
183	0x3fcd56470565da53	0.22919547809188376
184	0x3fd173cf3d617631	0.2726934527798646
185	0xbfc0da35d57b6e0e	-0.13165924953396807
186	0x3fe2789d53d2965f	0.5772234570656102
187	0x3fd6e6f0b7553040	0.3578454771384294
188	0xbfd09ae7234e882b	-0.25945452163626
189	0xbfc59972b9d442fd	-0.16874536584557367
190	0xbfc49c251e1fd8bc	-0.16101516695898066
191	0x3fe268dcf6b03fcd	0.5753006761678933
192	0xbfc4545d295b5dd9	-0.15882458228473587
193	0x3fcf1503cd52af71	0.24282882237946127
194	0xbfb4e35bde6ceac9	-0.0815942209273245
195	0x3fd65463da58b508	0.34890075991536706
196	0x3fd9d36828361cae	0.40352825095073797
197	0xbfbbd120085fceb4	-0.10865974621247682
198	0x3fd61fbce21ffcdb	0.3456871231318936
199	0xbfc391ca4c1f6da7	-0.1528866645520399

fc2.weight f8 [100, 200]
0	0x3fa6eaa201f463be	0.04475885652409016
1	0x3fa9eeda1b06600e	0.05065042095083082
2	0xbf8ed4995f514817	-0.015053938123092121
3	0x3fb420d33527851f	0.07862587020601496
4	0x3f99a88815b129d3	0.02505695946119053
5	0x3fab17318caea2f0	0.05291132776557628
6	0x3fa6aa3f90bd6917	0.044267641466563194
7	0xbfb76feb513d8347	-0.09155150159268742
8	0x3f808da27fa6bbe4	0.008082646866425187
9	0x3fa75cd7df9d3935	0.045630212828302076
10	0x3f91ad0b6c3b0a94	0.017261675339578078
11	0x3fb3b1ae668ee1f3	0.07692995075093005
12	0xbfa75d7e9ef5f969	-0.04563518228950409
13	0xbfabecd3b6ef6d93	-0.054541221695866636
14	0x3fa5e79771fd79a4	0.042782528557597815
15	0xbf9a127b5b75e7a3	-0.02546112771731369
16	0x3fa344e48688f4fa	0.037634984419563325
17	0x3fa18a4e1fe6e2d2	0.03425830974032852
18	0x3f6171ddcd9687d0	0.0021294910518045787
19	0x3f92455599566747	0.017842614635447587
20	0xbfac41d2541de7e2	-0.05518967892471928
21	0x3f9d92afedee3dff	0.028879879853375808
22	0xbfb5b079043031e1	-0.08472401001217335
23	0x3f9190b2942f6b16	0.017153539938457994
24	0x3f97c471748b68ff	0.023210308779064267
25	0xbfa626268bfc7a9b	-0.04325981577698209
26	0x3f7e65ac7fed8b95	0.007421182467484484
27	0xbf94285ff31e90c1	-0.019685267652349795
28	0x3f880e94dab59646	0.011746561932066812
29	0xbf8cad52713fb36b	-0.0140024605570603
30	0x3f9c6e8efdc63f10	0.027765497435722486
31	0xbfa099fddddb1f1c	-0.03242486317827639
32	0xbfa4537b1dc478d5	-0.03969940889713689
33	0xbf9f8023586091e1	-0.030762245434873384
34	0x3faaaed2e8b70607	0.05211505022772305
35	0x3fac71555a6bf7da	0.05555216530591141
36	0xbfa5b8a3eb333ec7	-0.042424318753203454
37	0xbf91803d4d42a414	-0.01709075721797511
38	0xbfb4582c404acde9	-0.07947041101106546
39	0x3fb6b9e1c260699c	0.08877383227846852
40	0x3fafdb4a1bc322df	0.062219921006151806
41	0xbfaa9d14fa37e923	-0.0519796901171097
42	0x3fa997fd36255db0	0.04998770986520229
43	0xbf9a277d4cfa4d33	-0.02554126531920282
44	0xbf962ac7919298a1	-0.021647566089676776
45	0xbf4ecc9490478390	-0.000939915219131492
46	0xbfb2197c119efcab	-0.07070136480523341
47	0xbfb033d961cde985	-0.06329115522195224
48	0xbfb19b8173644c53	-0.06877907817060817
49	0xbfaaaec7661701a0	-0.05211470719541755
50	0xbf93aab5036b951b	-0.019205883344416735
51	0x3fb117405b76895d	0.06676103814110008
52	0x3fa57c93bd779c6a	0.0419660729201546
53	0x3faf7e8f27d3c94f	0.06151244507954578
54	0x3f51eb3e08cd6b7d	0.0010936837963615158
55	0xbfa370ad74dc54b8	-0.03796903659364531
56	0x3f86a00ae5626ac2	0.011047444463021864
57	0x3fafeba3db671631	0.06234466603522682
58	0xbf8ee67ae84a030d	-0.015088043416882546
59	0x3f9247df6a508920	0.017852297653129345
60	0xbf63e7ac0fd1bdb9	-0.0024298058111111545
61	0x3fafafc3225469a2	0.06188783449234171
62	0xbfa3edb6cdb8a60a	-0.03892298947569024
63	0xbfadf687e7399da1	-0.058521506286349785
64	0x3f7d2bfa996a2d72	0.0071220196756586075
65	0xbfb1dbd7e497213f	-0.06976079302615278
66	0x3f7ebae7549e4136	0.007502463946267126
67	0xbf9915bb3aaf9946	-0.024496961075692235
68	0x3fa243686d1cbb43	0.03567053157745772
69	0xbfa08a7af6a1ed52	-0.03230652104044886
70	0xbf95b22443358f67	-0.02118736896717568
71	0xbfb076f82fab8dbd	-0.0643153301603467
72	0xbfaeea54f485604b	-0.06038156018138404
73	0xbfaf0c55fd54540b	-0.060640990423202444
74	0xbfa3de0b1b812d09	-0.03880343161343986
75	0x3f944567220abe79	0.019796000912434473
76	0xbf9d3862a4a30ae7	-0.02853540544379998
77	0xbfaddcd549bb38fc	-0.05832544827500105
78	0xbfb3ddb87bbbadf5	-0.07760193844631387
79	0x3f9782dc670ea548	0.022960132398713
80	0xbf84afa7fd58cd30	-0.010100662631066543
81	0x3f8cda7fcbad2e4e	0.014088629153454903
82	0xbfa42d02f245f006	-0.03940591056286284
83	0xbfa153619db60d23	-0.03383927393135824
84	0xbf929abe3c313a1c	-0.018168423103185657
85	0x3f9bf9134cceaeb0	0.02731733471197967
86	0xbf97aa54bdaecb5a	-0.023110698773688078
87	0x3fb2193cebf1e3d5	0.07069760094044793
88	0xbfa8d40b27fbe9b4	-0.04849276412092554
89	0x3f90d2ce71a1aa15	0.01642916267921109
90	0x3fa5b3115a994c51	0.042381803807665215
91	0xbf716ed1856c261c	-0.004256075327029343
92	0x3f95f5416cf308a1	0.02144338824724257
93	0x3f95fea0dbfbffb6	0.021479142596035415
94	0x3f5fd52d7038ffc5	0.0019429153188781228
95	0xbf7e0c33c595cdce	-0.007335855706844764
96	0xbfb3dd5bef826e62	-0.07759642217063736
97	0x3fa687e0d4cf6750	0.04400541875629804
98	0x3f7ffb411b85e78c	0.007807974172800668
99	0x3f722fa07efbee82	0.004439951837180824
100	0x3faf5a2adcee5c1c	0.061234797925117074
101	0xbfa84944f23e6d93	-0.047434000559600474
102	0x3fa6c611bdb431f5	0.04447989884110718
103	0xbfb4e21ad6d1da71	-0.08157508606550735
104	0xbf88ed700f6ee0e6	-0.012171626540166302
105	0x3fac573ed387b919	0.055353129693559384
106	0x3fb2105026877d4f	0.07056141796737346
107	0x3fa559e9c19115bd	0.041701607588531676
108	0x3fa14ed93ba6068e	0.03380469182139932
109	0xbf98f8732c757c82	-0.024385261143262678
110	0x3fa83995c28f26b8	0.0473143386839871
111	0xbfa804440794095f	-0.04690754501827387
112	0xbfb538146f84841a	-0.08288696024511957
113	0xbfaddccfe8d80474	-0.058325287984197255
114	0xbf66de1a8a24433f	-0.002791454158007772
115	0xbfa84ad97faa6b20	-0.047446057161513844
116	0x3f9edcc9244bafe9	0.03013910564452252
117	0xbf66e164e7455a64	-0.0027930231828279684
118	0x3f8ce1034b9a378e	0.014101052994444332
119	0xbf75f7f70b3d70dc	-0.00536343099141964
120	0x3f9b9539bd00cc41	0.0269364377601955
121	0x3f98e1bab43eab30	0.024298588992375858
122	0x3f4125fad272f7ae	0.0005233263699648738
123	0x3f89354d4c6d6085	0.012308696646570869
124	0xbf6ec82d7d8e5d36	-0.0037575615392132734
125	0xbf930043ff6b8f54	-0.018555700745209805
126	0x3f9ed0fdc42ddc9c	0.03009411344416134
127	0xbf8d42fc223a7dee	-0.014287919802256046
128	0x3f9f82ced3f88b8f	0.03077243012206626
129	0xbf94b56c90a32d01	-0.020223327949492113
130	0x3fa0ab7d94dceb99	0.032558369085072765
131	0x3f994ca917e699d6	0.02470649917963804
132	0xbf99e204a9c221b4	-0.025276253567911147
133	0x3f9037ce238334de	0.015837880055916347
134	0x3f9ecab415ebcd56	0.03007012733264721
135	0xbf7dabaef24fa96f	-0.007243808159709138
136	0x3f80df52dd513a54	0.008238456133907203
137	0x3fae0bc8b488b2b5	0.058683654821242305
138	0xbfa48be4ddc02bec	-0.04012980658452378
139	0x3f87b1b71546bed2	0.011569433533480309
140	0x3fb34970d2d9b9b9	0.07533936641423268
141	0xbf9cca479f533de6	-0.02811538610404609
142	0xbf7de7e73fe0b61d	-0.007301238363692811
143	0x3f953b54a20a6cc8	0.02073414076822358
144	0xbf92b12848ac58fa	-0.018253926692602264
145	0xbf7dd06fcea76ab1	-0.0072788588972467075
146	0x3fa3e89fd0558a24	0.038884157353795495
147	0xbf7f6de2beb3fd86	-0.0076731545661908925
148	0xbf93eec5686b5338	-0.01946552705597357
149	0x3faa13cac664f41a	0.05093225166135813
150	0x3fb46414bed70dfa	0.07965211543255882
151	0xbfab825dfcaf072d	-0.05372899732129919
152	0x3fa178b7a4a50d4e	0.034124125335916675
153	0x3f66ab822caa1255	0.0027673284978979953
154	0xbfa4853ceef62318	-0.040079025430776294
155	0xbfa49b19b5051778	-0.04024582228389212
156	0xbf9818be2d250a73	-0.02353188658276868
157	0x3fa8a3eb24125ac7	0.04812559905365315
158	0x3fadb333cf1337e1	0.0580078306462466
159	0xbfa4890c43815a8b	-0.04010809253729971
160	0xbfb0a96f9c7071ba	-0.06508538789098042
161	0xbf9c0843a6637bf8	-0.0273752756410168
162	0x3fb077b0d11e0850	0.06432633500483687
163	0xbf9a327042c8852f	-0.025583032680633607
164	0xbfa539d55fde33f0	-0.041456859543451574
165	0x3f9bd7e10a2a8453	0.027190700765121822
166	0x3f44da028edf5806	0.0006363403788280937
167	0xbfb1f550bfc8eb7f	-0.07014946634528306
168	0x3f8fe2f5487d7ad3	0.015569607043003064
169	0x3f9b40e3f3113eb9	0.026614724836973667
170	0xbf71a2d4b1f35231	-0.004305678215321283
171	0xbfa80924b4970f24	-0.04694475845783888
172	0x3f677f0d4a3fe5c9	0.0028682002612156793
173	0x3f9ad81548a54ac3	0.026214916762294715
174	0x3f7b7e0bd1f5b5d1	0.006712003872377762
175	0x3fa155592c97c0c8	0.033854281133132214
176	0xbfb0087f7e060c15	-0.06262966944454747
177	0x3fac21f9ac21397e	0.05494671083634993
178	0xbf5f1a46f636f7f5	-0.0018983548151108008
179	0xbf93e48b482b9214	-0.019426513938826842
180	0xbf930cbe924a0481	-0.018603303602962477
181	0x3fabbf0bccd01401	0.05419194102436365
182	0xbfa2cbfe0469a5f0	-0.03671258739343475
183	0x3f9ad70e51297412	0.026210998252612035
184	0xbfa7468eb249237d	-0.045460185302153434
185	0xbfafbbd60b5bb096	-0.061979950796598945
186	0xbf9fa512c28a16d7	-0.030903142093413685
187	0x3f8f8194a57058aa	0.015383874224465483
188	0xbfb5bfc771a8108a	-0.0849575664979644
189	0x3fa55ba6d0fa7cd8	0.04171487141615565
190	0x3fb15d35821b3c30	0.06782850672173946
191	0x3f9ab73080c81a91	0.026089437351425607
192	0xbfaa90b9ce770fda	-0.05188542027784111
193	0xbf9418cb2a45946d	-0.01962583013063972
194	0x3f9c9bea46abf19b	0.027938519061522987
195	0x3fac9aa5a7db0f2e	0.05586736368198185
196	0xbfa272dce7a7093d	-0.03603258445538635
197	0x3f864f01d656c2a2	0.010892881730656005
198	0x3fb628eb275deee0	0.08656186781984898
199	0x3f9934beb3d6c34f	0.02461526844644207
200	0x3f8a63c9ff51af5d	0.012885645012111696
201	0xbf948caf1269fd09	-0.020067916392233296
202	0xbf95a236e2bc0f00	-0.021126611317426658
203	0x3f97e7a7ccee991e	0.023344632990892504
204	0xbf8a65e5805fb879	-0.012889664631043228
205	0x3fa433adce2bf47a	0.03945677892441153
206	0x3fa67f8d5454772d	0.043941895050222925
207	0xbf9d5c955aa854d3	-0.028673490198418982
208	0x3fa07a56ebade591	0.032183376569217555
209	0x3f8571475dcaf0e6	0.010469968366458148
210	0x3fa70bfb24e1f3ab	0.04501328301646564
211	0xbf81c0d16915bfc3	-0.008668552417219538
212	0xbf89c36b71128138	-0.012579764736358898
213	0xbf98e86840e4ee5c	-0.024324063263732362
214	0x3f7a1ad1343cbc53	0.006373231128050954
215	0x3fb4e94f691f49aa	0.08168503109417338
216	0x3fb3086e35fdab17	0.0743473893941594
217	0xbfac0182656976da	-0.05469901550234875
218	0x3fb10a8733f8cbae	0.0665668966183108
219	0xbfa76b99c85c3d44	-0.04574280329517902
220	0x3f8b842bbf4124b6	0.013435689710734482
221	0xbf8f21652fa5ec8f	-0.015200415150266515
222	0xbf76723cb0262ff1	-0.0054800387027959955
223	0xbf9dfe5a66db6173	-0.029290592697038997
224	0xbf9bb234991f109e	-0.027046987386498793
225	0x3f9ef1d702f471c2	0.030219420962667838
226	0x3fb3f5d4418dfb5c	0.07796980476812848
227	0xbfa7766418a62977	-0.04582512665645571
228	0xbf8b5e727b95c645	-0.013363737484470959
229	0xbfa12f6a9fe4d8ef	-0.033564884203245764
230	0xbf9863cc255d1916	-0.023818197041031906
231	0xbf800f8ceea6062e	-0.007842160256362165
232	0xbfa7038607f0b1e8	-0.04494875761915634
233	0x3f8a6b6d83fc4e04	0.012900214758281521
234	0x3f9ed99ffebc54b7	0.03012704841883781
235	0x3fa2bf01fa3231e4	0.036613523284447586
236	0xbf9751dd0fa3f54a	-0.02277322204553415
237	0x3f7de7a8b30d1831	0.007301005346397147
238	0x3fb37c997b047efc	0.07611998799665892
239	0xbf93409da986534e	-0.01880117747494419
240	0x3f92a474c270dcaf	0.01820547520420906
241	0x3fb0a4cecef33943	0.06501476814739697
242	0x3f6dab985ca285b4	0.003621862012622679
243	0xbf9867bb44f9c4d6	-0.023833204350414437
244	0xbf7e8f0c0f95f66b	-0.007460639107532789
245	0x3f93d30deacfc3e1	0.019359796005975375
246	0xbf95ea48c00e2b39	-0.021401535722854723
247	0x3fa4feeacbbde6b0	0.041007363673043584
248	0x3f9007901edd154f	0.015653850444569625
249	0x3fb14b96e5b43de1	0.06755965335855009
250	0x3f78f7b0a790048b	0.006095590645601177
251	0xbfa6fbedf63ed995	-0.04489081984449964
252	0xbfa98ea0cb2c47f0	-0.04991629104746653
253	0x3f9904dc51bd050c	0.024432604302323788
254	0x3fb15028d37555b5	0.0676293865447722
255	0x3fb3f657d8ea0e8e	0.07797764821776296

fc2.bias f8 [100]
0	0x3fe807bfdf0e09c1	0.7509459835567257
1	0x3fe7cf852541d0db	0.7440820434262848
2	0x3fcba65abbf95ce9	0.21601423433705882
3	0x3fe4dba200df8a95	0.6518106476836062
4	0x3fe7d7649d5aa610	0.7450430939981647
5	0x3fe80606706c03ae	0.7507354923001139
6	0x3fe57b1ef6d36bec	0.6712794133012472
7	0x3fdb7d22db467a10	0.4295127049789764
8	0x3fe55d462f151a91	0.6676360053614464
9	0x3fc6daea83c7599c	0.17855578836924912
10	0x3fe7b6331300a344	0.7409911509649665
11	0x3fe6353fb8cf0b83	0.6940001115366247
12	0x3fe79dd776c9c67b	0.7380177803117499
13	0x3fe625151b9c0f25	0.6920266665697211
14	0x3fe39138f481d407	0.6114773536234005
15	0x3fe04cfe7de33d9d	0.5093986948722208
16	0xbf91fddc6e21d0c1	-0.017569965574197214
17	0x3fe535a55944acce	0.6627985709686983
18	0x3fe4b0bd1c593e2e	0.646574550026292
19	0x3fe53032f4e79b6a	0.6621336730284899
20	0x3fe4328178e5c899	0.6311652528077217
21	0x3fe56f5ddfb98e85	0.669844567263184
22	0x3fe62485ea437667	0.6919583869418603
23	0x3fe5f6b2e98f1d4b	0.6863646089267744
24	0xbfe28f720b073dc5	-0.5800104346653191
25	0x3fe468bc5ba83bb8	0.637785128610509
26	0x3fe63c27c830c024	0.6948431882829067
27	0x3fe4785a4aa88802	0.6396914919062058
28	0x3fe7ac33d1798d18	0.7397708026223055
29	0x3fe43e5f4eea897e	0.6326138058978328
30	0xbfe503fe2039fcf9	-0.6567373876022479
31	0x3fe7789673c2fe66	0.7334701786966888
32	0x3fe61d3b63d19c7d	0.6910683583818266
33	0xbfe54ff4af4a7b5d	-0.6660102294589297
34	0xbf3b8c8ea3849ba4	-0.0004203651656262081
35	0x3fe65263b11b8cd3	0.6975573023923068
36	0x3fe645da690852f6	0.6960269977012945
37	0x3fe6a746c8665281	0.7079194940620966
38	0x3fe59fa5a812ac05	0.6757381708788449
39	0x3fe64a6c922cf5fc	0.6965849738114112
40	0x3fe4c9630ea971ea	0.6495833670010687
41	0x3fe78cacf1a50355	0.7359223098393196
42	0x3fe83f4e5faeffac	0.7577278012104123
43	0x3fe7ceb2a0a24f64	0.7439816605933456
44	0x3fe34e6c3987af42	0.6033230899460948
45	0x3fe3aef02387c690	0.6151047414734467
46	0x3fe766e586566fb5	0.7313106178075858
47	0x3fe6de4ed049c57d	0.7146371906402887
48	0x3fe5180a3846e3df	0.6591845606955039
49	0xbf99f32f8de64f5a	-0.0253417425497696
50	0xbfe87c27b5c32b49	-0.7651556539579839
51	0x3fe58c7dc8cf6432	0.6733998224327762
52	0x3fe40a4030edf0cd	0.6262513118413381
53	0x3fe63dafdf87a1e9	0.6950301519219099
54	0x3fc424da672e4767	0.15737466848491552
55	0x3fe56269425886e6	0.6682630821053095
56	0x3fc12cdfe5a508e4	0.13418196404570104
57	0x3fe48659183ba6de	0.6413999055195878
58	0x3fc2395d56d87db2	0.14237562885771876
59	0xbfbc3cbcc37a4b0a	-0.11030177853016823
60	0x3fe3b88d458f03ed	0.6162783011023955
61	0x3fc037a9e5070b7d	0.12669871981605843
62	0x3fd34836113046b8	0.3012824218613832
63	0xbfcccd2a170fd92b	-0.22501112104482365
64	0x3fbfcc96febe31a4	0.12421554297743015
65	0x3fe69c4cde244d42	0.7065796221453768
66	0x3fe3010d7368b766	0.5938784841616609
67	0x3fe5114234c2b552	0.6583567648391784
68	0x3fe66c46bf93a35e	0.7007173291905067
69	0x3fe756820d0904b7	0.729310059985571
70	0x3fe71fee226f679a	0.7226477310716632
71	0x3fe57f63cf8dd2c4	0.6718005231656083
72	0x3fe79667be13d2c4	0.7371100151491068
73	0x3fe068e3e96141e6	0.5128039892388727
74	0xbfa84d7ea4a02f3b	-0.047466237636483354
75	0xbf6de069d7e5b18c	-0.0036470477345373394
76	0x3fe562f34f5df5cc	0.6683289098870602
77	0x3fe537174e33830e	0.662974980103259
78	0x3fca3ffd349198e9	0.20507779185135824
79	0x3fe867dfcf904886	0.7626799634911243
80	0x3fe77e10cd17a3ac	0.7341388707837857
81	0x3fe53a6229bea427	0.6633768859220525
82	0x3fe5a451f7ec5ad4	0.6763086168528738
83	0x3fe337cb12c8b4a5	0.6005607001185537
84	0x3f82715e614bbde6	0.009005296081766322
85	0xbfe6e767e4f78fc3	-0.7157477828991364
86	0x3fc7c0828d7f7222	0.18556243809770573
87	0x3fe47413b298e09c	0.6391695488191718
88	0xbfe7a5c1dcd039e4	-0.7389840424310106
89	0xbfe7b41c267dbe0b	-0.7407360793858414
90	0x3fe5983d8691f690	0.674834025223122
91	0x3fd264f57218d53d	0.2874120344379952
92	0x3fe7b9e0d9166aac	0.7414402236930377
93	0x3fe6efee91f1023c	0.7167885637682683
94	0x3fe37f35ee3b27d7	0.6092786457968441
95	0x3fe69836b1d837c2	0.706080767967926
96	0x3fe643319bed94b0	0.695702366396878
97	0x3fe2a593486ba743	0.5827118315184879
98	0x3fe5b24a5d1ea6fb	0.6780139750237305
99	0x3fe710da10455d2a	0.7208071058074996

fc3.weight f8 [50, 100]
0	0xbfc5474bb85e287c	-0.16623827459654084
1	0x3f8d9111de0273c9	0.014436854922957114
2	0xbf758335d17de0aa	-0.005252084949340633
3	0xbfa22126d672e63b	-0.03540917747291102
4	0xbfb740e7a80b4303	-0.09083412029873376
5	0xbfc5d4c233dd61b8	-0.1705553773160895
6	0x3fa05e25136240c7	0.03196826802843727
7	0x3fb332c0dca1c41c	0.07499318491478885
8	0xbfbf66c7fc205464	-0.12266206651141115
9	0xbfa00c3407c6d194	-0.031343103360458674
10	0xbf9fb9e6165e0ab5	-0.030982585063166385
11	0xbfc1594998f1f8be	-0.13553733795192174
12	0x3f7a381a08cfe34f	0.006401158997498892
13	0xbfa71319dd252294	-0.04506760429882664
14	0x3fb72383f515fd30	0.09038567288915966
15	0x3fb7d8779bcccc19	0.09314677766524006
16	0x3fac21d768660eca	0.054945689672448575
17	0xbf831417ac42072a	-0.00931566709937533
18	0x3fb4614f3c7ed949	0.07960982539120666
19	0xbf941aa311ad1846	-0.019632862047068288
20	0x3fb25a4d7ee9b644	0.07169041012249361
21	0xbfa20867d5c8f18c	-0.035220379683298025
22	0xbf7a23d5b88bfe91	-0.0063818310234179535
23	0x3fb1df474bbdcea8	0.06981320952564352
24	0x3fc305e7f24f628c	0.14861773807094314
25	0xbf968599c7c91f73	-0.021994021243045347
26	0xbfa53243bb97c23e	-0.04139911332083955
27	0x3fb0311e55be59f2	0.06324948876713402
28	0xbfc2d06d4f338d0c	-0.1469856869435734
29	0xbfa4e3ca0df2dd50	-0.04080039425155724
30	0x3fb044a5646177ca	0.06354745579434887
31	0xbfafc25e51dc4b79	-0.062029788487186495
32	0x3fb09e18d9a7e08e	0.06491236986028268
33	0x3fbb8405f65f082c	0.10748326554224324
34	0x3fb2007a94a1fb77	0.07031980637291989
35	0xbf8da82966c80d36	-0.014480899285450915
36	0xbfb1a0504b71fa57	-0.06885244218754259
37	0xbfbaeef2d7d448ff	-0.10520856637257124
38	0xbf3853a0d276fcc3	-0.0003711955673359574
39	0x3fb0bf2b436b9209	0.06541700740815072
40	0x3f9b46f2ff0b0fbe	0.026637837235071286
41	0xbf92a9ef95b8117d	-0.01822637893020972
42	0xbf82ab3d08ba1fa2	-0.009115673855617793
43	0xbf8da1043a2485a4	-0.014467270874379441
44	0xbfbf3b1d3ef44d43	-0.12199576174707709
45	0xbf909696f1453d78	-0.016199453807812486
46	0xbfc11c1fcb7f06b3	-0.13367078243577665
47	0xbfb20e95f202edc5	-0.07053506048662601
48	0xbf9315d78377f663	-0.018638007544714685
49	0xbfbad4a42a530488	-0.10480714829738436
50	0x3fbbbec51dfe7ab6	0.10837966902043203
51	0x3fab5e4d05a7771a	0.053453833522992336
52	0xbf9cc340d1f15c9b	-0.028088581861393718
53	0x3f96728cb46282de	0.021921347150626207
54	0x3fb643bb46484a7e	0.08697100129965382
55	0x3fa8fa3610d587a4	0.04878395991796872
56	0xbfb5b0e7ae6e9c83	-0.08473060616107557
57	0x3f7ac5d1170f8d73	0.006536309011582519
58	0x3fbf48cd5324214c	0.12220462112248248
59	0x3fa10e9910a6fd18	0.03331449821734561
60	0x3fb8d5db3c47d26c	0.09701318952267862
61	0xbf5981f9c7440ee9	-0.0015568675272001292
62	0xbfb78e93b66f67f4	-0.09201930240615736
63	0x3fbae39f7dfa7070	0.10503575158731038
64	0x3fa15864e935268e	0.03387751909992885
65	0xbfbc938e005ffae4	-0.11162650593903894
66	0xbfa36a5daaa05625	-0.037920882299811866
67	0x3fb889de79a0412f	0.09585371465096125
68	0x3fa6097420b5bdcd	0.043040875428114946
69	0xbfab6be8feb8dabf	-0.05355766400719152
70	0xbfab81afb5037120	-0.05372380337368754
71	0xbfb0630e8542cedc	-0.06401148560945152
72	0xbfa2239f687d0a48	-0.035428029541908546
73	0xbfb264c4670ba00b	-0.0718500854087553
74	0xbfc5bcba63c17268	-0.16982202406770175
75	0x3fc0bfeac5a362c9	0.13085684442810067
76	0x3fa28e0030bb19c7	0.03623962969645649
77	0xbf85f64675e49c42	-0.010723638985451815
78	0xbfa5fbda883ddf6d	-0.04293711579424451
79	0xbf8c0578dd94f0bd	-0.013682312261714786
80	0xbfaa0961b95c0e98	-0.050852826954750074
81	0xbfb6496097f135c9	-0.08705714902426744
82	0xbfb7527c452c4bdb	-0.09110237778467882
83	0x3fabd717a0d00992	0.05437539899868961
84	0xbfac0e5efef646ad	-0.05479714262322708
85	0x3fc0c6cc7598c799	0.1310668539240936
86	0xbfbc97539307e39e	-0.1116840585672336
87	0xbfb031c6dd2bca32	-0.06325953387912689
88	0x3fceaf6c57910e9b	0.23972849155153572
89	0x3fa793624a7b3325	0.046046325294446334
90	0x3f95e431ca5d9c3d	0.021378305412693022
91	0x3fb5d59f0e33fe7b	0.08529085251574912
92	0xbf82cbbac747efcf	-0.009177645880292488
93	0xbf90eaa4235bee3a	-0.016520085008762765
94	0x3fabf268441937f5	0.05458379584580079
95	0xbfb685145715d58c	-0.08796813131433207
96	0x3f9214064d962876	0.01765451286841154
97	0xbfc0a8cb551b9143	-0.1301511922421331
98	0xbfb1758459874cca	-0.06819941697840473
99	0x3fb36b557a668ff2	0.07585653532311179
100	0x3fbf44594bfccdc9	0.12213667016185704
101	0x3f752875a17cffd2	0.005165538306584909
102	0x3f8b0be960b2877a	0.013206313384504165
103	0xbf85351c4151972f	-0.010355206244820529
104	0x3fc247878276858f	0.14280790205252145
105	0x3fc44c4bb4752790	0.1585783606663509
106	0xbfa6b09c5d9941df	-0.044316183496110766
107	0xbfc1ebd9c196e34c	-0.14001008942229942
108	0x3fb4328ec31ba04f	0.0788964487397845
109	0x3fb9d5715731fa74	0.10091312769689315
110	0x3fc2724f56e5411b	0.1441134619040064
111	0x3f64c4718dd877a1	0.00253507784397207
112	0xbf913eb1d0780e9a	-0.01684072337049134
113	0xbf6e5ca0a585cb8d	-0.003706277621114257
114	0x3fb21cd22575bcdb	0.07075227179096848
115	0xbfb07ff3917e515f	-0.06445238401494667
116	0x3fb77dd7f6cbf9eb	0.09176397109329286
117	0x3fa3ed1009ce5581	0.03891801948263219
118	0x3f74e3ec201c3e92	0.005100176205601452
119	0x3fb46138f5f19833	0.07960849766240656
120	0x3f58ec08fbcf5936	0.0015211189013278454
121	0x3f65fbde45f6c282	0.0026835767054865243
122	0x3fa4b45ad2b2c5ca	0.04043849775315385
123	0x3fb9f9a503445793	0.10146552400359914
124	0xbfa0b72771557fb5	-0.032647354683603615
125	0x3fb74573c1778c32	0.09090350602450384
126	0xbfa6a2d629824391	-0.04421109444331884
127	0x3fbec2c6e699c577	0.1201595604886928
128	0x3fcb4fdfd1e8860e	0.21337507008961193
129	0xbfa9cf3305a20544	-0.050408930242165556
130	0xbfc2415cedf62d7f	-0.14261972064228343
131	0x3fa7e243b8016b4b	0.04664813634072703
132	0x3f9af1947b334212	0.026312179584069346
133	0xbfa2874245f77531	-0.03618819336018431
134	0xbfa9637e1a87ff0c	-0.049587193239856914
135	0x3fa180e6ccd646fd	0.034186565880316856
136	0x3fbde2f09afe1db1	0.11674407752990736
137	0x3fb6ddb818ad1e05	0.08932066538283585
138	0x3fb60b06e34ef1d7	0.08610575723191204
139	0x3fb465eea6ce2814	0.07968036243815418
140	0xbfafb47ad2765ccb	-0.0619238263999989
141	0x3fc3ce4fb9629e95	0.15473362495435042
142	0x3fb1675a8fa2d724	0.0679833031343518
143	0x3fb7e8e76c064f8b	0.09339758288689219
144	0xbf6344bbe3189cfe	-0.0023521108312426478
145	0x3fbff29fbd5710a6	0.12479589817582112
146	0xbf981505f0921dc0	-0.023517697151445693
147	0x3fc1071437c9c405	0.1330285332110465
148	0x3fa5aa1c1cee636a	0.04231345990337483
149	0x3f82be1321c658fb	0.00915160128424163
150	0xbfd018550a3b5448	-0.25148511885828784
151	0x3fa90d92237b213b	0.04893166239850407
152	0x3fbd063bb4b1f016	0.11337636147976612
153	0x3fae2cb8cb03a1a7	0.05893495062065606
154	0x3fa83126bf0b9a3f	0.04724999506088467
155	0x3facb1b2466339ec	0.056043215839611665
156	0x3fb6bd4b558fe102	0.0888259014026325
157	0x3fa1f940443d6312	0.03510475953107152
158	0x3fb1b19f30a8c681	0.06911654413195302
159	0xbf9a2388b00cbed2	-0.025526176209665526
160	0xbfa04aeb6134ed6a	-0.03182159005742842
161	0x3fa8be3b8bd5ace3	0.0483263595768564
162	0x3fc160e32a448623	0.13576926769114647
163	0x3fb7112c331ccad3	0.09010578391898187
164	0xbfbcda03c0f8edc8	-0.11270163975944236
165	0x3fc26b15f658dbef	0.14389299896876603
166	0x3fb475e47c2692a8	0.07992389708540293
167	0x3f91619e025c3fec	0.016973942655624727
168	0x3fc0cf2fcf76fff2	0.1313228381168297
169	0xbf8c18a8b9e9c927	-0.01371890847551478
170	0x3fa3aa95fc7e6ae7	0.03841084201049743
171	0x3fb2fa177fc567df	0.07412859792148606
172	0x3fb68f9708eacffe	0.08812850921350443
173	0xbfb1e1823cd02fd8	-0.0698472403020668
174	0xbf82c8ca7ab793cb	-0.009172040815380719
175	0x3fbbbad68aa511c8	0.10831967244036556
176	0x3fa624d78d38781e	0.043249832142677955
177	0xbfaa52e2c8204974	-0.05141361897416888
178	0xbfb4e31a441ef770	-0.08159031069859934
179	0x3fbcd7357f0ed6d4	0.11265882827759849
180	0x3faa9cc0e0c53d7e	0.05197718375949999
181	0x3fb450ca319743e9	0.07935775480952113
182	0x3fa68716d19a4008	0.043999398313758376
183	0x3fa8ff080009c2cf	0.04882073402848663
184	0xbfb879e8e13731f9	-0.09561019419124496
185	0xbfc8a1a95d640af8	-0.19243351993653568
186	0xbfa81a276d68ac45	-0.047074539285255436
187	0x3f65e741f2bcd715	0.002673748784128525
188	0xbfb90e0a34338955	-0.09787048124738836
189	0xbfada4b8faa56263	-0.057897358509482875
190	0x3f59aa8a3c014dfd	0.001566538805509831
191	0x3faa32d1424fc2d3	0.05116895613162389
192	0x3fc2ab949a040cd1	0.14586122055343378
193	0x3fc11bfe982015b2	0.13366682460779838
194	0x3f86d55ee2682b0f	0.01114915970267341
195	0xbf921157880f6781	-0.01764427917428391
196	0x3f9e43b24bd7ec55	0.029555116538159194
197	0x3f982d37bc3177fd	0.02360999189510692
198	0x3fa9d63cb0d111b3	0.05046262415320104
199	0x3fbb4dfcac6af2fe	0.10665873727243633
200	0x3fb1bb6962aff083	0.06926592501980804
201	0x3fa92a527e8a5354	0.049151018091981996
202	0x3f8e2109e25d2d84	0.014711453648166957
203	0x3f9ca8f07129112b	0.027988202006114776
204	0x3f8a1418b4d7644b	0.012733643549767268
205	0xbfa6770866f5b091	-0.043876898353887424
206	0xbfad79c91aa6b4a0	-0.05756977510768846
207	0x3f9b5b7ce7a2152d	0.026716186177982926
208	0x3fafda1401dd504e	0.06221067927131739
209	0x3fa8e8669f521c07	0.048648077915508785
210	0x3f838e919a92bc30	0.00954927208871767
211	0xbf9c3a0ecb0659ae	-0.027565222875262023
212	0x3fac165a33c89414	0.054858034917096316
213	0x3f83b0a8331cbfff	0.009614290294479131
214	0xbfad037de909018c	-0.05666726560275767
215	0xbfb18a7b67287218	-0.0685193182802738
216	0xbfb8bb3ab6687692	-0.09660689309427031
217	0x3f9ad1db7635acac	0.026191166963525234
218	0xbfba72b4837b801c	-0.10331276140232187
219	0x3f86509b9d9b0f86	0.010895934817547259
220	0xbf6828d02af3e960	-0.00294914872904177
221	0xbfb223f39df9c5c0	-0.0708610783274457
222	0xbfb5ce4167e0a5fc	-0.0851784590346582
223	0x3faf561e61abaec8	0.06120390836971762
224	0x3faf8f68545c7fff	0.06164098768044823
225	0xbfb3b44d81f3cc06	-0.07696995184578279
226	0x3f98d05f097575de	0.02423237319213977
227	0x3fb077412a66c74b	0.06431968007271142
228	0xbfb65c653212b088	-0.08734734032140257
229	0x3f913a7b460114be	0.016824651859015154
230	0x3fb5c5696efcbd40	0.08504351577424973
231	0x3fa6c2b14b0d12e4	0.04445413628721953
232	0x3fb47750be17e457	0.07994560852957143
233	0x3fa00c9d77198bc4	0.03134624556403012
234	0xbfae038abbbb87df	-0.058620772759027544
235	0xbfae80d494210dca	-0.05957664783684498
236	0x3f98586af62c5c4a	0.023774787211632543
237	0xbfa307e53031f87c	-0.037169611104205
238	0xbf9f28f081f1ca84	-0.030429609233076707
239	0xbfb16063d06da113	-0.06787704313831382
240	0xbfae2d3d91812a40	-0.058938907634531024
241	0xbf4e49352e2b2ea3	-0.0009242543859157747
242	0x3f9c8221c8a942bb	0.02784016406286825
243	0x3fa6cd82f864f305	0.04453667909772289
244	0x3faa70c58d0d1160	0.05164162966551333
245	0x3f627cbbdc85608a	0.002256743351761574
246	0xbf996827a50af7f1	-0.024811381767669564
247	0xbfb217c2335d40e9	-0.07067502740870037
248	0xbfa8171023a16a5e	-0.04705095705931649
249	0x3fad226eca780525	0.056903326239998976
250	0xbf82a9144c55fcdb	-0.009111555652224037
251	0xbfa28659fd3da5bc	-0.03618127075499042
252	0x3f8c48612c052c8f	0.013809928089037164
253	0x3f5d4b5734f6213e	0.0017879821424192223
254	0x3fac552458b36021	0.05533708174488106
255	0x3fabaccddc3d8157	0.05405276597480462

fc3.bias f8 [50]
0	0xbfe4da347f0181e9	-0.6516363602241287
1	0x3fe6b6ac0d481abc	0.7097988376052267
2	0x3fb33eb15cfb8077	0.07517536659315903
3	0xbfe1dc45aff72906	-0.5581386982751446
4	0xbfb49295d5d7f596	-0.08036171408453749
5	0xbfa287b44f8c8b27	-0.03619159194047077
6	0x3fe4f3553e3f6b4a	0.6547037330413812
7	0xbfaebc470bd7ddb1	-0.06003019351549755
8	0x3fe7cc07f99a2434	0.743656146530276
9	0x3f82744bfbedfc79	0.009010881067068365
10	0x3fe74a3ae226ff0e	0.727811280921715
11	0x3f8db82435be3ddb	0.014511378183469972
12	0xbfa50fe5b526534a	-0.04113691173839713
13	0x3fb5c27a992419a6	0.08499876250070901
14	0x3fe748a949e4abc1	0.7276197856166321
15	0x3fe77b42b4d8b101	0.7337964565427059
16	0x3fe7a300272854ad	0.7386475338741058
17	0x3fe43f86856f1d4b	0.6327545744069679
18	0xbfb0391824360505	-0.06337118991907083
19	0xbfa9e7426f3b4805	-0.05059249503905509
20	0x3fe2f6559f4a2995	0.5925701247336287
21	0xbfb9b220bae896ca	-0.10037426531979601
22	0x3fe39a1239132e25	0.6125575175041759
23	0x3fe862d29e00d33a	0.7620633207321597
24	0x3fe7f6eadc8aafb3	0.7488912875610282
25	0x3fe889d9fd5e54c3	0.7668275784114019
26	0xbfa927a7869d2d44	-0.04913066404568636
27	0x3fe978850c15fdd2	0.7959618793537919
28	0x3fe3b27855d74d2c	0.6155358959753463
29	0x3fe28b090b07a81b	0.57947208551673
30	0x3fe894a744124f90	0.7681461648485186
31	0x3fe594232f3d9ed4	0.6743331835432067
32	0x3fe43857a6b23bd6	0.6318777328286795
33	0xbfb960be1810613b	-0.09913242423534012
34	0xbfa371eb74a11309	-0.03797851370521783
35	0x3fe7a1bcc3f375a7	0.7384933306854479
36	0x3fe1f507ee42d0ec	0.5611610082183041
37	0x3fe6fbdc246d5241	0.7182446204629472
38	0xbfb6b1a30faa66c8	-0.0886480248685998
39	0xbfb854ec26716f70	-0.09504581392815026
40	0x3fe556df9d8a73ee	0.6668546750039448
41	0x3f91c4283deda7aa	0.017349842815214046
42	0xbfe34ce55fad6709	-0.6031367176721868
43	0x3fe592f6def8d85f	0.6741899828837282
44	0x3f7a6c2dfdc07046	0.006450824406808725
45	0xbfb233f91be4eac7	-0.07110554629336284
46	0x3fe3160857901d32	0.5964395246709613
47	0x3fb3c9137425b4f8	0.07728692613246213
48	0x3fe470b540302852	0.6387583020853163
49	0x3fa00c635e1f590f	0.031344514121587
