weights/numq/gspc/correlation/high/numq_pretrain.pt (torch, 526847 bytes, 8 tensors)

fc1.weight f8 [200, 200]
0	0x3fa19317bc83a534	0.03432535339545453
1	0xbf8779a009669f52	-0.011462450301067104
2	0x3fb03a09a3cfaa8c	0.0633855843476942
3	0x3f9ed85b815d3a0d	0.03012221314502921
4	0xbfabcc2e5f136f53	-0.05429215345949836
5	0x3f98b78eca34d0a7	0.024137717334455158
6	0x3f7fecb231ef31be	0.0077940903419854695
7	0x3fb0c73cb1d9c01d	0.06554011671119082
8	0xbf8e1d022d3815d7	-0.014703766827561289
9	0xbfaa6753264709bf	-0.05156955568556353
10	0xbfbb2611f5e56993	-0.10604965451549324
11	0xbf8194b200b50b22	-0.008584395071584764
12	0xbfa722bba2f1980e	-0.04518686641749535
13	0x3f73e93efb10586d	0.004861112612181012
14	0xbfb858fb81476092	-0.09510776430340886
15	0xbfb9c6ef14410d64	-0.10069174046025392
16	0x3f9625f646870032	0.021629188589713695
17	0x3fa33a97512c9e3a	0.03755638948342406
18	0xbfa84b4484c323f0	-0.047449246603328166
19	0x3f9c306f40bbf139	0.02752851326566594
20	0x3f8928331cb7f133	0.012283706010742001
21	0xbfaae66dafac9c54	-0.05253927964650332
22	0xbfa201ec74c32faf	-0.035170926335552515
23	0x3f63f8b19472c3f9	0.002437922321029348
24	0x3f834772160f7127	0.00941361551115756
25	0xbfb461d8701fcfb3	-0.0796180032482983
26	0xbfb26a8503cfd1d4	-0.07193785994588292
27	0x3fa371578554b59f	0.037974104905838184
28	0xbfb30084f5634314	-0.07422667494689633
29	0x3f8709abee87342a	0.011248915879059924
30	0xbfb37b5926577987	-0.07610089479519476
31	0x3fa1cbe0c8ed7ca3	0.03475859120111948
32	0x3f9665afe5d29b8a	0.021872280504478016
33	0x3fab3ee3f6a73917	0.053214191302332896
34	0xbfae33df4a93d3fa	-0.05898950372094443
35	0xbf9bc15d343767a1	-0.027104812919652613
36	0x3fb6894a58fe9f03	0.0880323855659491
37	0xbf99d80d74c8c180	-0.025238237622205784
38	0xbfa5192d719c19ed	-0.0412077141937067
39	0xbfa38e3ca362aa9a	-0.03819455618334651
40	0x3f8ad34c846cae18	0.013098333159709916
41	0x3f93256798259d62	0.01869737497454816
42	0xbfb46914567c7843	-0.07972838508109796
43	0x3fa4099801fa70d0	0.039135694734086734
44	0x3f970b18b7c741f4	0.022503267495098414
45	0xbf94b435eeae8ed7	-0.020218699162468958
46	0x3f9357b904204a5b	0.01888932311710288
47	0x3f955a401d6ef4f8	0.020852090641473503
48	0x3fab987ca20180db	0.05389775731669185
49	0xbf97d8dc2e6d7bd5	-0.023288193067283764
50	0xbfb47267d7eef61e	-0.07987069150745937
51	0xbfb6a4d3530ecbbd	-0.08845253732469778
52	0xbf976953da918127	-0.022862730231623687
53	0xbf9d02f30bb47e4c	-0.02833156355802506
54	0xbfadc394efcde39c	-0.05813279559419657
55	0x3fb7e844d1927f8b	0.0933878909731886
56	0xbfbe572c8db59471	-0.11851767024707428
57	0x3fb12b1585467292	0.06706366065777505
58	0xbfa2b37fff9d99d4	-0.03652572627361264
59	0x3fb8ebb5f8782e1f	0.09734666172169469
60	0x3faa9f989d3e82f0	0.051998871989104134
61	0x3f97bd21354987fa	0.0231824101232476
62	0xbfbea70c99329f49	-0.11973646869830391
63	0x3fb2fa919311ef6f	0.0741358741815341
64	0x3fb10e16f3ad6a34	0.06662124108462636
65	0x3fb2ebcb2f68486a	0.07391042621046187
66	0x3fb00531f2afe088	0.06257927107788153
67	0xbf81d86e5ceced0e	-0.00871359082304093
68	0x3f911c1d48a9be45	0.016708810386658852
69	0x3f9dc25f6b9e6ee7	0.029061785644087925
70	0x3fb465c4404a1a88	0.07967783517424654
71	0xbfa429ac9e3656a6	-0.03938044959356306
72	0x3f94c1d3fd6594b6	0.02027064546691256
73	0x3fa9895c137714a3	0.049876096130483626
74	0x3fb60de6e95b5b13	0.08614962765873839
75	0xbfb110a886c79928	-0.06666043558616208
76	0xbfafdab7644a462f	-0.062215548508117606
77	0x3fa5481f5245525c	0.041565874855824275
78	0x3fbf0caf5cb9c34f	0.1212873078709553
79	0xbfc019b431c329d6	-0.12578442029764741
80	0x3f86c7ce13495e68	0.011123285258846496
81	0xbfb40cfb864d81cf	-0.07832309750438714
82	0x3fbb901e073dd462	0.10766780545039148
83	0xbf8baf2c3d6398fc	-0.013517709372945046
84	0x3fb54d5ebbe774b2	0.08321182334425961
85	0xbfb07dd3adf84aa3	-0.06441996571838131
86	0x3fa5366b2731f4c5	0.04143080571609795
87	0x3fb485baa7c333eb	0.08016554446949413
88	0xbf9b409abafeb317	-0.02661363378836076
89	0x3fb1db8d1837aa78	0.06975633469816411
90	0xbf95d48c586f9380	-0.021318619630523283
91	0xbfb66258c5314aae	-0.08743815244933259
92	0x3faaae08ae21cb2d	0.052109023338650175
93	0x3fb5a211a650e137	0.08450422583053273
94	0xbfb34fd1fca93507	-0.07543671053391075
95	0xbfada31ff29b9290	-0.05788516842384184
96	0x3f9a96709d7facf5	0.025964507687530298
97	0xbfb9fd24520eec78	-0.10151888850571023
98	0x3fa761655992bf21	0.045664946731788676
99	0x3f9d5f6b6f9a2ba5	0.028684309660586788
100	0x3faf46890203c0c2	0.06108501576989191
101	0x3fbba9ecd6f3c17d	0.10806160209518186
102	0xbfb3c01e03945377	-0.07715022647273694
103	0xbfb8853c677b02a5	-0.09578301931743256
104	0x3fb29e7a04c1e747	0.07273066154621431
105	0x3f79132359b4a79a	0.006121767127561651
106	0x3f9af5756df678da	0.026326975666614107
107	0x3fb25b6750bb5452	0.07170720787992593
108	0xbfab89bc9e140e6c	-0.05378522329013155
109	0x3fb23ad40085a580	0.07121014607186815
110	0x3f7b20b3f5cf0c3b	0.006622984857076959
111	0xbfa1402c171aafb3	-0.033692720241872996
112	0xbfa6dc951be78586	-0.04465166059140828
113	0xbf907e5590bcabf6	-0.01610692687897238
114	0x3fb45ef1bc88d055	0.0795737347878583
115	0xbfb089b44a34b195	-0.06460120021501432
116	0x3fb55e59e3bc7e13	0.08347093400924903
117	0xbf6c31245eed2d54	-0.0034414015166583187
118	0xbfa2b4f65efafb2d	-0.03653688344410564
119	0x3f9cb454f19f7281	0.028031661269653178
120	0xbfa8cc68fac3767d	-0.04843452511861999
121	0x3f8dc1c8e9eef8a0	0.014529771460612573
122	0x3f107716fe54a4f4	6.280973282870081e-05
123	0x3f836dd72934fa10	0.009486847825084715
124	0x3fb64620c7425d6a	0.08700756897666442
125	0xbfacc9fdea95e5d0	-0.05622857559769623
126	0x3fa0652fd2e38163	0.03202199410748354
127	0xbfb6e474749b8170	-0.08942344519483014
128	0x3fba070bfa76b209	0.10167002549014383
129	0x3fb54ff3e880a56a	0.08325123239833024
130	0x3fb7fe9b9455b6ce	0.09372875567870695
131	0xbf838426e8c6421d	-0.009529403666221953
132	0x3f721c0a206f7322	0.004421271855758831
133	0xbfa0e09bfca348b7	-0.03296363314588418
134	0x3fac38606e2f1d1e	0.05511761994380947
135	0x3fbf0c2b01b18ccb	0.12127941886278674
136	0x3fac524342eba1eb	0.05531511489772697
137	0xbfb7b40fa609ba9f	-0.09259126475965694
138	0x3fa06bb488c55e7b	0.03207172555511036
139	0x3fae7d1d93c3ce07	0.05954830578584951
140	0x3fbd06b4932d0a1f	0.1133835658375024
141	0xbf9014b2b6f84341	-0.015703957002247696
142	0xbf96d99ca35ec64c	-0.022314498397184843
143	0x3fab5fb021a599a0	0.05346441660622081
144	0x3f84d86797b28986	0.010178384129464712
145	0x3fc155e5ff11aeec	0.1354339118437261
146	0x3f8c7ca12fc474ad	0.01390958716415932
147	0xbfb01b38a2efdb72	-0.06291536310150805
148	0xbfbfb8df10d5ecfa	-0.12391466294313949
149	0xbfa5982f63ddc4f4	-0.042176705303868106
150	0xbf9b896104948832	-0.02689124670462934
151	0x3faaed327cf7acdf	0.05259092116815522
152	0xbfa0f01cca7b6781	-0.03308191272453965
153	0xbf448ef7db35d490	-0.0006273946986953428
154	0x3fbe22bcee17aef4	0.1177175599365759
155	0x3f989db7f207d87f	0.024039148471239443
156	0xbfab0846d39406cd	-0.05279752094976473
157	0xbfb61b5c49a91de6	-0.08635498808245465
158	0x3fb3062dbe0e6b99	0.07431302919432738
159	0x3fab5033ff5bb2ce	0.05334627620854847
160	0x3f8dbefbc03be5ca	0.01452442818070922
161	0xbfc038e54380cb26	-0.12673631473588748
162	0x3fa268b4a5f42b75	0.035955090768843435
163	0x3fa9af086ad42b00	0.05016351989805479
164	0x3fa8db1490de0dfc	0.0485464503135766
165	0x3fb8bf7ffe6778ef	0.09667205773391506
166	0xbfbf639573666a0a	-0.12261327807792824
167	0x3fa6653d3c473891	0.04374114380662875
168	0xbf9dd411998be0a2	-0.02912929057762937
169	0xbfa903341db9b69a	-0.04885256636485487
170	0x3face51329997fad	0.056435202434612954
171	0xbfa345b63cc7f7c0	-0.037641234321184935
172	0x3fb1c5138485af8e	0.06941339478879469
173	0x3fac4d1c0ec4ddc5	0.055275799563272034
174	0xbfb359ed9bae1e1d	-0.0755909447744831
175	0xbf8aeb9ce564d2df	-0.013144708395523562
176	0x3f856dbd4b936426	0.010463217610253105
177	0x3fab12638d69d86c	0.052874670994172174
178	0x3fa6dccf58992405	0.0446533961917979
179	0xbf9c18e990d7e6de	-0.02743878313592673
180	0x3faf60db130fd096	0.06128582580268575
181	0x3fb6f3021648122c	0.08964551013929939
182	0xbf96ab39c338ad5d	-0.022137548961990706
183	0x3f982660e492b783	0.023583902312274595
184	0x3fa5a9024fd762ce	0.04230506157518264
185	0x3fba0c188a5e3814	0.10174706819654517
186	0x3f9d624831211ed1	0.028695228575343294
187	0x3fafc390e349dbea	0.062038924927882835
188	0xbfa4559ca0441a13	-0.03971566635486936
189	0xbfa5b17561b20f43	-0.042369526077008966
190	0xbf8276655f608a95	-0.009014884923151537
191	0xbfa49c29afbc639d	-0.040253927900443666
192	0xbf8c82d5644353ad	-0.013921420213969993
193	0xbfaa69a651b6950d	-0.05158729312396746
194	0xbfa21813111dff40	-0.035339923705576926
195	0xbf65d274c6ae7d08	-0.0026638298781588333
196	0xbf9f2a1105a2e5ef	-0.030433908432973607
197	0xbf735f829fc6e136	-0.004729757547856919
198	0xbf9fd16a6c5dcf2c	-0.03107229505935931
199	0x3fac1760805000a6	0.0548658520347101
200	0x3fa59a4b87ed30e5	0.042192802755922
201	0xbfa40d84f2b239bf	-0.039165644289016914
202	0xbf98facb92cc9245	-0.024394207796961238
203	0xbfa9d2d5fadb3794	-0.05043667494974993
204	0xbf7517599b05c7d2	-0.005149221440989353
205	0x3faa0c1fe104e6ea	0.050873752802045605
206	0xbfaffb62fa53f002	-0.06246480279693857
207	0x3fbd76a6a85e2bc7	0.11509172068160388
208	0xbfa924b9c52aac17	-0.049108319585990205
209	0xbfab0be35309b5ec	-0.05282507313391335
210	0x3f7efe0a2454fa19	0.0075664898079695
211	0xbf525d7ae171d729	-0.0011209201818735504
212	0xbf9477817b9cb01a	-0.019987128419572377
213	0x3fbad786930773c9	0.10485116090371983
214	0x3fb7b5cb57128073	0.09261771083629515
215	0x3fa4b9a0d75098df	0.040478731425808816
216	0x3fad844899cf4628	0.05764986875113848
217	0x3fa22932fc318822	0.035470574651086176
218	0xbfa090ab2690e0be	-0.032353733499293366
219	0xbfb03cfe6d64a93e	-0.06343069239361385
220	0x3f87c555be17db0f	0.011606855262454667
221	0x3f70abeb4a65471f	0.0040702048339243116
222	0x3fa21ddd5a15432e	0.035384099241701925
223	0x3f7ae98b696a8b8e	0.006570381715081631
224	0x3fa882e1ee069eed	0.04787355452145712
225	0x3fa1d0695fab6019	0.03479317944373878
226	0xbf98e246fbe76eec	-0.024300679326059546
227	0xbfad67c497e7e284	-0.057432311576069345
228	0x3fba60159c80d2c0	0.10302863188628475
229	0xbf4f9f9fd2f654cf	-0.0009650736227963199
230	0x3fb702e5f79fdcb5	0.08988797469634131
231	0x3fa37d740d58af57	0.03806650793953164
232	0xbfa281219956e09a	-0.03614144322222153
233	0x3faece6d9c5a4ff6	0.060168671928437265
234	0xbfa93a736eee93f6	-0.04927407006406519
235	0xbfa1b0f994c5a3e5	-0.03455333653511853
236	0x3fa6ec9a6acc13fd	0.044773889099850785
237	0xbf9ea6a0702bf254	-0.029932505461135087
238	0xbf481f013b484493	-0.0007361179364712304
239	0x3f8825f7bcceede6	0.011791167687866765
240	0xbfad5e7c313aed38	-0.057361489305061075
241	0x3fb42b3ddf13ff0f	0.07878481575243888
242	0xbf6faaf97b62552e	-0.0038657067007742607
243	0xbfac118769dbb878	-0.05482123534407973
244	0x3fa5a66cb3d5926d	0.04228534407846927
245	0xbfb1c7d859d841f4	-0.06945564454532144
246	0xbfb3149b0e431c57	-0.07453316782185603
247	0xbfa863e03e77d3ba	-0.047636993051049584
248	0xbf8239a28f44bb1b	-0.008898992535788566
249	0xbfa89d2a36db23d0	-0.0480740730250272
250	0x3faf1c719c2b755a	0.06076388388985761
251	0xbf5abb92c5ba2bd0	-0.001631635029215362
252	0xbfa8fa2c3d2ee0b1	-0.0487836670576497
253	0x3f90e47eb1d7c5fa	0.016496638874690085
254	0x3f709f8ee7774c2e	0.004058416575804675
255	0x3fc1818dd923cc8f	0.1367661772015691

fc1.bias f8 [200]
0	0x3fbaa652c5f07b59	0.10410039265160033
1	0x3fbcd31f0fa2ec33	0.11259645587681248
2	0x3fbd65f16933b4cf	0.11483677690894754
3	0x3f8de9df513b597a	0.014606232325075953
4	0x3fbf01fa949e5a09	0.12112394455321164
5	0x3faf4d82b784566b	0.061138234045000704
6	0x3fbc10cd0536d46e	0.10963136079119959
7	0x3fb398aa0286374c	0.07654821931484185
8	0xbf80dfa68145fda9	-0.008239079303847445
9	0x3fbdacc7e67a0b3e	0.11591767670510664
10	0x3fb3108c5c196bc0	0.07447125671880794
11	0x3fbae57322c4d053	0.10506362532470463
12	0x3fa353885c985457	0.0377466786414195
13	0x3f98f350c10d1095	0.024365674765491525
14	0x3fb36073751b905b	0.07569047555040369
15	0x3fb31c1ce6348978	0.07464771862263386
16	0x3fa37f859e7008b1	0.038082290258914304
17	0x3f7a7d20889ad775	0.006466986736702531
18	0xbf97de9cfbc576ae	-0.023310139529135902
19	0x3fb4dc698f3884cc	0.08148822542763695
20	0x3f8cb8cfcf2e8bc9	0.01402437544840564
21	0x3fb8ab6393e52316	0.09636518822402382
22	0x3f9debe11ae17ed8	0.02922012068336141
23	0xbf86ad7ddd291d3d	-0.011073096572671854
24	0x3f843964bf3bccff	0.009875094495760182
25	0xbf89b2877d1b575e	-0.01254754877610836
26	0xbf926ea1778196c1	-0.01800014774234771
27	0x3fbe5976d540d757	0.1185526152265458
28	0xbf7936805b3906bf	-0.006155492202709999
29	0x3f76e93158596019	0.005593483690596223
30	0x3fae7e133eca4388	0.059555627264791744
31	0xbf9ef8dd8c7c4457	-0.030246221255826402
32	0x3f8f2040996ea1d8	0.015198235208871688
33	0xbf737761e5d8681d	-0.004752523816501178
34	0x3fb70988ff2672a8	0.08998924474003422
35	0xbfa10fd1cb3b0c74	-0.033323818262510324
36	0x3fad1d9315af737c	0.05686626090730493
37	0x3fb29905c97770b4	0.07264743965737602
38	0x3fb238c82368dce0	0.07117892136089976
39	0xbf7a127872ed3dab	-0.006365271094935047
40	0x3fb48516296c76da	0.08015573989220162
41	0x3f9e6d98fdd97d2e	0.02971495675444407
42	0xbf95a7753e2f06a9	-0.02114661399878651
43	0x3f7f2f03ccbce393	0.00761319622306979
44	0x3f5e805b6cd23a8e	0.001861657411868531
45	0xbfa9599560302f4c	-0.0495115928570998
46	0x3f7043fcb4552e9a	0.0039710875765412105
47	0xbf96f768b815298c	-0.02242816566039489
48	0xbf71d68c4f03b15b	-0.004354999619163936
49	0xbf82bc36a78b5885	-0.009148051250502451
50	0xbf99bfdb48115615	-0.025145937226929222
51	0x3f78f1a951643c7a	0.00608984126871725
52	0x3fa9a6276ff66076	0.05009577981690054
53	0x3fbd0353cee7c4b2	0.11333202172660853
54	0x3fb360282498264d	0.07568598645607345
55	0x3fae19d4981181e9	0.05879082065871783
56	0x3fa6d037889b2323	0.044557319093263346
57	0x3fb2065fba5c1db0	0.07040975856590737
58	0xbf9c0785e0128346	-0.027372447778023522
59	0x3f7daed570958bb7	0.007246812581203458
60	0xbf947f5d175700b5	-0.02001710371928374
61	0xbf983783429b7dfd	-0.02364926427878621
62	0x3f9f4bea66923896	0.030563032637069464
63	0x3fb5eee397091398	0.08567640721692127
64	0x3fbca23d68526cf5	0.1118505840008089
65	0x3fae58230b9134ee	0.0592661811466345
66	0x3fb502ac498f5fa3	0.08207203670406087
67	0x3fb07caec193c0ee	0.06440250612263629
68	0x3fba24f49a5da03a	0.10212639588064656
69	0x3fb5d3368ff14643	0.08525410665722526
70	0x3fb1500b85966565	0.06762763987935257
71	0xbfb9bcff36659519	-0.10054011419341115
72	0xbf737235b628391e	-0.004747590838191122
73	0x3fb102088e2552b8	0.06643727751117978
74	0xbfaabb30ebd24822	-0.052209404742044066
75	0x3fb1f22b7dd4d760	0.07010146925025884
76	0x3fabd20e6fcc49f2	0.05433697809907646
77	0x3f81a6ab5f871d11	0.008618677952553474
78	0x3fac9763f2ff5405	0.05584251729275284
79	0x3fb72be81e802e06	0.09051371330877353
80	0xbf90bf7bc56133d1	-0.016355451509571687
81	0x3fbca9d62b59fc67	0.11196650083910385
82	0x3f7fe38abf2f4871	0.007785360316988941
83	0xbf6a19cfc9fb7f73	-0.003186136091116448
84	0x3f9b9245d56211d8	0.02692517390143387
85	0x3fb8f0ce5ae33b0d	0.09742440909324675
86	0x3f9b7191a4812e6c	0.026800418534817558
87	0x3fad2ab85e5824f5	0.0569665541807555
88	0x3fa695ef23055558	0.04411265661716851
89	0x3fa8baca9a245442	0.04830010539641495
90	0x3fb4e2597782bff4	0.08157881896727287
91	0x3fba6e98a15a783c	0.10325006427089617
92	0x3fa7797d1742b6e7	0.04584875973647034
93	0x3f76f4c9bdc3ce19	0.0056045418279953236
94	0x3f964f11555b70d5	0.021785994372167067
95	0x3fbd4487685b65d5	0.11432691858080742
96	0x3fa17663970f19e6	0.03410636157018469
97	0x3fad755c891519c2	0.05753602193231046
98	0xbfa9d7a71e05fcc8	-0.050473425307239916
99	0x3f866200225e3483	0.010929108666255743
100	0xbfa72dcbf1fa8db2	-0.04527127579538205
101	0x3f357946f8251a78	0.0003276632561618818
102	0x3faa7cc189e6495a	0.051733062823717105
103	0x3f7701d20e059fcf	0.005616970564325598
104	0x3fb8c7f6cd41c7eb	0.0968012095561616
105	0x3fa8b259703c34c6	0.048235697699149635
106	0x3fa86c964c9de802	0.047703453877105076
107	0x3fb93ae7ce616b0d	0.09855507649028201
108	0x3f82ac3ec66d9bff	0.009117594175860331
109	0xbfa687fc6f377550	-0.044006241394280665
110	0xbfa3bbae24bceccb	-0.038541261658303926
111	0x3fa5acc2e1c7d84e	0.04233368879424458
112	0xbf940cc65edb654a	-0.019579982318508805
113	0xbf8af67399476622	-0.013165381541443703
114	0x3fc29c83c34fba22	0.1454014495534049
115	0x3fb1c98541ca8c1a	0.06948120933752513
116	0x3fb6dd06cd4ffa96	0.08931009781370344
117	0x3f831c4fb188b1cf	0.00933134327450427
118	0x3f96d2e4ac664a44	0.0222888689255092
119	0xbf34ac114cedff33	-0.0003154318082394414
120	0x3fbb2a00f2f6d38e	0.10610967571012805
121	0x3fa695dbb7d25817	0.04411207789341647
122	0x3fb0fb57130defdf	0.06633514609524081
123	0x3fbb47206db2ea41	0.10655405691333276
124	0x3fa5ab85df3ddd0e	0.04232424116247034
125	0xbf6746ff6e640cbb	-0.0028414715662861945
126	0x3fc1caef4b128f08	0.1390055767598073
127	0x3fa24f2411d52a00	0.03576004712757097
128	0xbf87f42bbcaad951	-0.011696187682315314
129	0x3fc11287ea9ddbac	0.13337801891222278
130	0x3f9d48099297e349	0.028595113346429533
131	0x3fa20d8b41968ab0	0.03525958228717252
132	0x3f812024d9b8c594	0.008362090963688819
133	0x3fbe80b70a05de45	0.11915153498363747
134	0x3f979cbd4a792cc4	0.02305885092782202
135	0xbf942f845953b59e	-0.019712512924277108
136	0x3fa0baad484a3028	0.03267423160022559
137	0xbf7c8d81212ef2d9	-0.006970886623943706
138	0x3fb32e0cb23394f2	0.07492141104338026
139	0x3f8f62826fc35142	0.015324610744223425
140	0x3f94fdf012136966	0.020499945739041257
141	0x3fb48387b4078e97	0.08013198991062108
142	0x3fb8eacd27a1e6fa	0.0973327848204483
143	0x3fc000064c368b8b	0.12500075074521208
144	0x3fb11c0468462c39	0.06683375879053778
145	0xbf744eef4bf6a1bb	-0.0049580905464740544
146	0x3fa7c757bd94a93d	0.04644273938386554
147	0x3fb7629c4d6b6563	0.09134842767834565
148	0x3f71f6877c9f6b2c	0.004385499234525619
149	0x3f70655e1761e96c	0.004002921623504779
150	0x3fb2eaf195cd52cc	0.07389745623852234
151	0x3fb365adff588ab8	0.07577025875120114
152	0x3fb2580b614e0675	0.07165595174412849
153	0x3fa132c8820b7ee5	0.03359057033025951
154	0x3fb70f431873e414	0.09007663104047509
155	0x3fbe923926f7c997	0.11941868974080304
156	0x3fb2c0a57d833fdf	0.07325205148958912
157	0x3f78e93e612ad54a	0.006081813497691721
158	0x3fae3eade1fbe205	0.05907195457070106
159	0x3fa0f55a1c633637	0.033121887173916446
160	0x3fba0f77943efbbe	0.10179850930488407
161	0x3f947d1f9d3b2484	0.020008558246250377
162	0x3fc04c18fd2a9659	0.12732231485022075
163	0x3fbbb8038bdab2f4	0.10827657856379941
164	0x3f8f4ff2d1ceb19a	0.015289208438695568
165	0x3fc0361469a5fd63	0.12665038260090986
166	0x3fb81abd93ac4e75	0.09415802817630399
167	0x3f83c48156cb4b6f	0.0096521477329696
168	0x3f80ee0103a253f1	0.008266456530956008
169	0x3fb52477a6b05602	0.08258769816924175
170	0x3f928239a8a8c206	0.018074894827977438
171	0x3fb804f45655ed16	0.0938255987911599
172	0x3facf9c19ef55d51	0.05659298959170179
173	0xbf857ae11b16c495	-0.010488279952229266
174	0x3fb0b2e207890b23	0.06522953685729908
175	0x3fc2615df8e80609	0.1435964074481009
176	0x3fb5776c068e88ea	0.08385348472669177
177	0xbf38f4db24d301ac	-0.00038080549422761056
178	0x3f95e649775f09eb	0.021386287604181858
179	0x3fa28fb02211c3db	0.03625250259290854
180	0xbfbab8fe1f64773c	-0.10438526407639598
181	0x3fb49a63abe65635	0.08048079439898788
182	0x3fbb255ce410ac56	0.10603886192318276
183	0x3fa402a05e77a193	0.03908253815808673
184	0x3fb3f243abca758a	0.07791541046250053
185	0x3fa198c5454b7a63	0.034368672093241036
186	0x3fb49cb20c10f59c	0.08051598352991224
187	0x3fa2d886500972c0	0.03680820204747226
188	0x3fb9b45300993e13	0.10040777935613958
189	0x3fb6458de2c19e88	0.08699881349604699
190	0x3fbce64d5cb4b793	0.11288913262680315
191	0x3f952e284eaf9459	0.020683889200786208
192	0x3fb922bfacc5bc65	0.09818647354198758
193	0xbf4e254faae25fa8	-0.0009199751855417564
194	0x3fb7cb8e7c0dfc41	0.09294977692296504
195	0x3fa6c077f18ed14a	0.04443716834740259
196	0x3fb0ba444b790cb8	0.06534220545386205
197	0x3fb16a8116dddb8a	0.06803137596385347
198	0x3fb056fca038a73d	0.06382731353428724
199	0x3fb2f8ee525585a2	0.07411088476285113

fc2.weight f8 [100, 200]
0	0x3fa0a59fe4a69833	0.03251361528536769
1	0x3fa3f95c2955613e	0.039011840863795375
2	0xbf82cc1c7c07d243	-0.009178373847114623
3	0x3fb367319e62fc12	0.0757933627782992
4	0x3fa5a0c570ae1312	0.042242212300186335
5	0xbf69589cdbd89981	-0.003094011654656004
6	0x3fabd6308bc530cd	0.05436851221256376
7	0xbf8168880304dbfe	-0.008500158874637617
8	0x3fa5758f9c53791f	0.04191254409100708
9	0x3fa9daa939c7aca1	0.05049637632677074
10	0x3f97d02c70d0e2c0	0.02325505674909567
11	0x3fb376adef34a7a3	0.07602965440733427
12	0x3f7cd9c1d9dc3037	0.007043606977969622
13	0x3fb1171203764385	0.06675827583809564
14	0xbfa28b9c1e50bb9a	-0.03622138853130892
15	0x3fa7eed8e7189686	0.046744135103193904
16	0xbf92026bf86d9773	-0.017587363279197143
17	0x3f8ffc846b29b932	0.015618357200960806
18	0x3fb19579a249165f	0.06868705951736719
19	0x3fb1e697477db95a	0.06992478843105712
20	0x3f9f54dc091c6964	0.030597150856104163
21	0x3f87576d4bc0b618	0.011397222399035775
22	0x3fac26cb91edbcd4	0.054983483851964415
23	0x3fb03ce75f397459	0.06342931818785881
24	0x3fa3b8808ee956b5	0.03851701492810148
25	0xbf93417bbe2b341e	-0.0188044867343714
26	0xbfa06c2a35f9b815	-0.032075232590486426
27	0x3fb17c61af27c269	0.06830416227581683
28	0xbf7fd689148bd808	-0.007772956342469335
29	0x3fb776944242bfe9	0.09165312402433269
30	0x3fb43e2726880a0c	0.07907337847431267
31	0x3f832b4aa84a3e4a	0.009359915982059114
32	0x3fb55f64d17be494	0.08348684419969948
33	0xbfac0fe412a31cba	-0.054808738017123784
34	0x3fa46348f428cc49	0.03981998424969697
35	0x3f94bb83a1dd9a82	0.02024655986260849
36	0xbf9bf0c3094e6b89	-0.027285621111882406
37	0x3fb02a72d10b723c	0.0631477127421442
38	0x3f9a12bba11961b8	0.02546208544512904
39	0x3fadbbb7445b34d9	0.05807278356005847
40	0x3f8a69af7a8c56c1	0.012896891524671774
41	0x3facd027b5a14d96	0.056275597497598515
42	0x3fac2f18852bc92b	0.05504681230185534
43	0x3fa23c7402dc8b2b	0.035617471074394245
44	0xbf8661afa8053e60	-0.010928509059026925
45	0x3fa685b82d9f3fdb	0.04398894841108333
46	0x3f98e129e06d7ef8	0.02429643089578712
47	0x3fae9fcf816c2f2e	0.05981300787797604
48	0xbf5cea15205884be	-0.0017647939979570783
49	0x3f94df877c5d8beb	0.02038394638601552
50	0xbf51c361765c6ebe	-0.0010841800480595877
51	0x3fa474fecbd957e9	0.03995510328665814
52	0x3fab5860c5a186ff	0.05340864574897174
53	0x3fa8492b39fafaf0	0.04743323405044986
54	0x3fabb8f3d01ec8d9	0.05414544978647635
55	0xbf8d677e36a67ea2	-0.014357553522869996
56	0x3f923db5f1085800	0.01781353267332264
57	0x3fb237dc2e8b6213	0.07116485725726589
58	0xbfa7cf0b79f6aa98	-0.04650150169193984
59	0xbf9a268be9b97889	-0.025537668362055874
60	0x3fb573bcfcb91595	0.08379727525706067
61	0x3fa9b3ee1cf9eee1	0.05020088294710746
62	0xbf9b3d93a5a2d938	-0.026602084145190136
63	0x3f966bcac630f92f	0.02189556917823515
64	0x3fb261f8f4361677	0.07180744135083637
65	0x3fa90f8cd34b5931	0.04894676284100042
66	0x3f708f7d903addd4	0.004043093187355368
67	0x3f939acd73a68109	0.01914521234869063
68	0xbf9903bdce9c0b06	-0.024428334937520745
69	0x3f93a12990667bde	0.019169473112579875
70	0x3fb3b641b4b47962	0.07699976598494154
71	0xbf536e4e579703ca	-0.0011859669742621975
72	0x3f90fb459fa0800f	0.016583526485305863
73	0x3f9c1902736137ee	0.02743915394994894
74	0x3fa82af65633cd3a	0.04720277597689422
75	0x3f760bd1180b493a	0.00538236310304035
76	0xbf9efc45c16e341d	-0.030259218150195822
77	0x3f91188faa5f31f3	0.01669525601737294
78	0x3fb751718d80447b	0.09108648018470149
79	0xbf753971628ec237	-0.005181734953041465
80	0xbf85b2e9e92da5bf	-0.010595157078301718
81	0x3f82d59b2a91a0f7	0.009196483837698539
82	0x3fb8a74012743c7b	0.09630203676737097
83	0x3fba2eaaa6868c7f	0.1022745758587451
84	0x3fb79e7af5ddd6ff	0.09226196768380744
85	0x3f700f04002ab1f8	0.003920570018334228
86	0x3fb26680c855df85	0.07187657252313613
87	0x3fa50fd6955d865f	0.041136461003372864
88	0x3fb20d227c62b931	0.07051291977652309
89	0xbf876b26bf98f667	-0.011434843751995062
90	0x3fb777a5f213c8ba	0.09166943702783473
91	0x3fa6ee0da12fc8d6	0.044784952093225236
92	0x3fa79e17d6d17efb	0.04612802979749905
93	0x3fac79fda246ff95	0.05561821561741379
94	0x3fa39a6f63de5177	0.03828762144181302
95	0x3fb26c84fe541ca2	0.07196837624734312
96	0x3faac1c8b917580e	0.05225970515645893
97	0x3fb12f477880dc30	0.06712767307259138
98	0x3fa00a99edb66ad7	0.031330881374022894
99	0x3f8c0563b130f6c3	0.013682154507587701
100	0x3fa58db79dad7a02	0.042096841809996746
101	0x3f9bb65b783abef2	0.027062825406288966
102	0x3faae9d87e494c5d	0.05256535092907975
103	0xbf991f4990e30b90	-0.02453341433352879
104	0xbf9b4d58a8b3a80d	-0.026662240311374364
105	0x3fa219fe5d60c974	0.03535456552380625
106	0xbf7afdfbd963a045	-0.006589874063344385
107	0xbf8807c9182d35d5	-0.011733599710761414
108	0x3fa5c8ef1dcc82a3	0.04254863013034551
109	0xbfa17eb37f3cbceb	-0.034169778139011196
110	0xbfa083082056bf76	-0.032249692866911525
111	0xbfa2082229360a32	-0.035218303232813844
112	0xbfa54981e330c9d2	-0.041576441748833695
113	0xbf89b199ce645482	-0.012545777903634429
114	0x3fb2db6583fa3bd3	0.07366022560221035
115	0xbf97834b4869e057	-0.02296178464391149
116	0x3fa88f1b4a5e164c	0.04796681673819289
117	0x3faa9f5ab0972776	0.05199702649731723
118	0xbf8c53a405e9ad54	-0.013831407003826492
119	0x3fa88b6dad8f1ff5	0.04793875449792032
120	0x3fbcb59c7935d6a9	0.11214616736637119
121	0x3fbd4210281c87d3	0.11428929309161555
122	0x3fa1857d58129c2e	0.034221570015965916
123	0x3fb2becced435328	0.0732238845115033
124	0x3f6344f0dbd20cef	0.0023522094984983403
125	0x3fb541403c10b700	0.0830268999713688
126	0x3f81a8faef6e3156	0.008623085433804672
127	0x3f80a2467cca10e3	0.008122015651004627
128	0x3fa39169f6acd110	0.03821879516763904
129	0x3faffa23b4944c95	0.06245528773629264
130	0x3fb0410a3ed94804	0.06349243196862636
131	0xbf9906a714419fd0	-0.024439440356587572
132	0x3fba3a868f0b85c1	0.10245553009328658
133	0x3fa49c0376f38441	0.040252788801588675
134	0x3fae6f8a449a9bce	0.05944473350000799
135	0x3f8af1c32099d2c3	0.01315643733253447
136	0xbf94fb99dc86090a	-0.020491031727496035
137	0xbf8f1c162448fdd3	-0.015190289480527952
138	0x3faa769a978b12c6	0.05168612575429203
139	0x3fb745b3a49bf1d6	0.0909073140027837
140	0x3fb5589b5a03c466	0.08338328311562435
141	0x3fb96428d66acbc8	0.09918456301492917
142	0x3f9833f1395ee04c	0.023635644079803605
143	0x3fb33da669a2424f	0.07515945509863652
144	0xbf7c226918957db7	-0.0068687539399827
145	0x3fb5e9bc8f35cbac	0.08559778686848912
146	0x3fa2354ca0c7d8fa	0.03556289160398936
147	0x3f606229db01ce04	0.0019999330034410363
148	0xbf71cea812946923	-0.004347473653320474
149	0x3fb9a02a4290faf7	0.10010017514376189
150	0xbf97abe68b6aeea3	-0.02311668611467489
151	0x3fa1405028632393	0.03369379513748707
152	0x3f9260dd103965a8	0.017947630038497003
153	0x3fb58c2c7499f3d1	0.08417013022149368
154	0x3fb6e2357ee823a9	0.08938917492208866
155	0x3f75bcb0cb394b55	0.005306902504872498
156	0xbfa0dca2b8fbe872	-0.032933316308075514
157	0x3fa301645e7cc6a5	0.037119995626551806
158	0x3fa5cc700ea745b3	0.042575361050363546
159	0x3fb8c321b0b31b23	0.09672747196155433
160	0x3fb85f7f38768d0d	0.09520716789716151
161	0x3fb6732bb8882b17	0.08769486670659564
162	0x3f88555163d7f8bf	0.011881481036649764
163	0x3faafce7cd62eb5c	0.052710765668470855
164	0x3fb95ea61d4246ae	0.09910047735527414
165	0x3fb7a95dc350e918	0.09242807405908982
166	0x3fb3c19ebebfe247	0.07717315823527669
167	0xbf870409eb54d0ad	-0.011238172048799145
168	0x3f85dc19c452cf94	0.010673714927498947
169	0xbf4a8e7c0a77b829	-0.0008104425114063885
170	0x3fabb495c5f4f566	0.054112129606873435
171	0x3fb38f2b97030f3f	0.07640335499587268
172	0xbf740b4d36c9289b	-0.004893590562071416
173	0x3fa3c347c5d1ad0d	0.03859924592765127
174	0xbf8789b813f024cf	-0.011493146999799113
175	0x3fabf7f151a3ced9	0.054626027313046506
176	0xbf90b2466f40c565	-0.016305065670342418
177	0x3f90136755e2e9c7	0.015699019066895106
178	0x3fb7cfcb38382a1c	0.09301443216842425
179	0xbfa423f4cd0261d5	-0.0393368244414806
180	0xbf807ce8090f0931	-0.008050740028811095
181	0x3fb670607084ff2e	0.08765223261889041
182	0xbfa850721b0b0156	-0.04748875217547048
183	0x3fac35e82e56101b	0.05509877744319188
184	0x3faab24720f03cb8	0.05214140202598955
185	0xbfa362c6e4540661	-0.03786298310479875
186	0x3fb05230be35bf9b	0.06375412601278045
187	0xbf97fed6308dbdf1	-0.023433062280160347
188	0x3fb22ae50c8595cf	0.07096702151974131
189	0x3fb4dd84f14973d9	0.08150511637491266
190	0x3fb7a0722e165642	0.09229196191002934
191	0x3fb161aa301e44e6	0.06789649653207483
192	0xbf9b6a9bab82a9ac	-0.02677386507336059
193	0x3fa9bc088e7e854e	0.050262706178964764
194	0xbf93a62de692f00b	-0.01918861121951924
195	0x3fa972ea133d52bd	0.0497048519597789
196	0x3f8ee6df5f653d37	0.015088791941393438
197	0x3f92ee73af77cd76	0.018487746796336656
198	0xbf966c9814e1d0b9	-0.021898628496686643
199	0xbf6e7ea277401542	-0.0037224934731080747
200	0x3fa3daab5a3093e6	0.038777689704410354
201	0x3f892f25c865959c	0.012296958139539176
202	0x3f84161a6ade2ef7	0.009807783495282758
203	0xbf6767f0f0d5be31	-0.0028571802019355043
204	0x3fac37573e45f01c	0.05510971675082052
205	0xbfa30cdf6a8549b3	-0.037207586052903883
206	0xbf9149ae5568651f	-0.016882633173826208
207	0x3fae5d4a10f30551	0.05930549103642114
208	0x3f8ec37da862871f	0.015021306706617886
209	0x3f9d73d6faa494f6	0.028762206123379173
210	0xbf92a10b973f4806	-0.018192463976284066
211	0xbf9cb3f6a3d30153	-0.028030256032026312
212	0x3f7543c896fb823c	0.005191596559342811
213	0x3fada6aad64e9a0f	0.057912195835616236
214	0x3f9272fcc6eb4b6c	0.018016767159518762
215	0xbf84441eef85a820	-0.009895555195459649
216	0x3f7a25e93d09d6f6	0.0063838110805727235
217	0xbfa1273c302b5dba	-0.03350246513371809
218	0x3fb0500851b884eb	0.06372119898925958
219	0x3f9ad8d9c847c491	0.026217844819204365
220	0xbf74a7d5052c4295	-0.005042869672948887
221	0x3f60c157357fb980	0.0020453170109170915
222	0x3f98a744dfe58cc7	0.024075580754822547
223	0x3fa79d3910c1da9c	0.046121390624582065
224	0x3f97dbb94873b301	0.023299117133251283
225	0x3fae77db26562718	0.0595081791207816
226	0xbf9ca578fe4186c0	-0.02797497798781623
227	0x3f9612efef997183	0.02155661487482653
228	0x3f81ee4595b2cbb2	0.008755248671468017
229	0x3fb0f5e18639621f	0.066251845616883
230	0x3faa3604cebfafa1	0.05119338058270207
231	0x3fa0d8d5952d4a83	0.03290431447989752
232	0x3f82311d805035e7	0.008882742384254306
233	0x3fae374363697018	0.05901537502788318
234	0xbfabb3d552f4ee1f	-0.05410639417320006
235	0x3f900c889b0b85fe	0.015672811949917424
236	0xbf984d8a246fc77f	-0.023733290170589335
237	0x3fa8ce882ead7ad4	0.04845071382327651
238	0xbfb376eac67bd2c9	-0.07603328080933659
239	0x3fa3e1a6a9fa558d	0.0388309557430758
240	0xbf70d8487267766f	-0.004112513538044745
241	0xbfa50022b569d64a	-0.04101665939826356
242	0x3fbeafbf11a6b371	0.11986917668282417
243	0x3fab7ddbfcb31797	0.053694605443111935
244	0x3f596644a0bcbe81	0.0015502615160122581
245	0xbfa4340fd5c44a36	-0.03945970043618667
246	0x3fb3597b31014190	0.07558412500771383
247	0x3fb268e28dcc42af	0.07191291772711382
248	0x3fa331913a1b8762	0.0374875434333848
249	0xbf481ed3c2b8ad2a	-0.0007360967624142946
250	0xbf9b00e7aa9d4bba	-0.02637063959930306
251	0xbf933387a3b5b84b	-0.018751258246475094
252	0xbf7da4a2fd5512ca	-0.007237087896389391
253	0xbfa1b0dec7b53d53	-0.034552537802137316
254	0xbfa183e9bf34b97b	-0.034209541884012894
255	0x3fa75bdc746cc544	0.0456227199669095

fc2.bias f8 [100]
0	0x3fc20ba74bba3809	0.1409806365740567
1	0x3f6b57c91dd12427	0.003337757878885589
2	0x3fc2bdfb29359087	0.1464227629868484
3	0x3fc051548afd2a3f	0.1274820021302094
4	0x3fb5bbba567854a1	0.0848957501514911
5	0x3fc164b344d1880d	0.1358856283214326
6	0x3fa332b4a1d412c1	0.03749622798389885
7	0xbfb4ccc5930165bb	-0.08124956931114628
8	0x3fb25c95f0cacc10	0.07172524574961892
9	0x3fba9bfce1ae7939	0.10394268522074847
10	0x3fb9ccb5530ebb5b	0.10077985074779632
11	0x3fc2393e5bb9b7ef	0.14237193564207426
12	0x3fb7605907ee871d	0.09131390041013927
13	0x3f9ae06c657d7fc1	0.026246732420417866
14	0xbf892bbf8e8eaee4	-0.012290474451070073
15	0x3fb3a0606007727d	0.07666590065441344
16	0x3fb51f3671f15494	0.08250751764110681
17	0x3fc32a38ca8745f5	0.14972600831110552
18	0x3f9f268b1b200c5c	0.030420468836393474
19	0xbfacab8d8020657b	-0.05599634350819379
20	0xbfb130a166d42e19	-0.06714829216451114
21	0x3f95390967ad1f89	0.0207253903893441
22	0xbfa3a8887dd16775	-0.03839518104423593
23	0x3fa3e3d8625dc6be	0.03884769631157557
24	0xbfb0adc78322b517	-0.0651516623645033
25	0x3fbc58d390b3038f	0.11073038370797249
26	0x3fb79f60603fc545	0.09227564191657674
27	0x3faf2805d05973c2	0.06085222404792702
28	0x3fc280c5dc0cf0b1	0.1445548366990628
29	0x3fb63e739f51fda7	0.08689043655066674
30	0x3fbbc344ef437c2a	0.10844832269093332
31	0x3f239a17c6da8341	0.00014955082172198912
32	0x3fbb12e3341e3ca1	0.10575695059218272
33	0x3fb7e1cbb0faa7c6	0.09328911848811491
34	0x3fb089883de195ed	0.06459857474109017
35	0x3fae9022942fc0d1	0.05969341334264445
36	0x3fb70f680ca49a45	0.09007883366266707
37	0x3fb5cf6dfdd9823a	0.08519637534619387
38	0x3fbd9bfd6f50d770	0.11566146819754208
39	0x3fbbcca964b9f061	0.10859163960589192
40	0x3fc2a1dbd36ad455	0.14556453536138983
41	0x3fc36734a7178503	0.15158708723814848
42	0xbfb00b3136412f13	-0.06267077993942065
43	0xbf9e55957b2e97be	-0.029623351710732264
44	0x3faf840cdf31930d	0.061554338689154255
45	0x3fbfcf0aa7e3f0a6	0.124252954472413
46	0x3fad45038b2e0fd7	0.05716715883229966
47	0x3fb030055e61aa01	0.06323274187312934
48	0x3fbca8e39afd421e	0.11195204290312019
49	0x3fbd161f2cc784d8	0.11361880152937276
50	0x3f9af95d0add7ad2	0.02634187105956693
51	0x3fb81d1f38de2ac2	0.09419436586737631
52	0x3fc0f6be7caf92fd	0.13253003204513183
53	0x3fb98c475f353b40	0.09979673456585392
54	0x3fb077c335b98ba9	0.06432743131294551
55	0x3fbc276361f59386	0.10997601644119301
56	0xbfb958f0bf5cb904	-0.09901337310722985
57	0xbfaf2f3d113b5e84	-0.06090727649069286
58	0x3faaf40f8a6a8c1f	0.05264328541422735
59	0xbfbb331ed53f4b1c	-0.10624878603202287
60	0x3f9eb235c08d2eda	0.02997669208279672
61	0x3fb255357ccf6176	0.07161268517609706
62	0x3faf79ad6f9deb8e	0.06147520053396881
63	0x3fb218324ddaa91e	0.070681709296569
64	0x3f58e00a9a83cc84	0.0015182593870662073
65	0x3fbbd409b630ea48	0.1087041921427182
66	0x3fb25f6238908b2f	0.07176793938610325
67	0xbfb5af1f09127f53	-0.08470338794222458
68	0x3fb5b5c5ea987f91	0.08480488755640027
69	0x3fb6b65a2795128d	0.0887199732433805
70	0x3fabb805fcc4dc9b	0.054138362031545394
71	0x3fa5decf9a41f956	0.0427155376246328
72	0x3fb99cf68b6ef22d	0.10005131630072901
73	0x3fbda3b3bc817cb4	0.11577914573853115
74	0xbfc070b6460dce6d	-0.12843969746210196
75	0x3fb59de360b3bd8c	0.08444043265239126
76	0x3fb77654e7894029	0.09164934780824353
77	0xbfad8f1473711c1a	-0.05773223790361488
78	0x3fa210602f363cde	0.03528118683163382
79	0x3fc094919dda23e5	0.1295339604151017
80	0x3fbc2d1b6a09a2ef	0.11006327952203397
81	0x3faf1f057ad8ebf7	0.06078354954339454
82	0xbfa3cfcffa242a27	-0.03869485786897924
83	0x3f980938e38ee9b4	0.02347267998605114
84	0x3fb034aa59c58138	0.06330361072241864
85	0xbf91f31466e56bd9	-0.017528837948116525
86	0x3fb55e20ecebd6f3	0.08346753868303462
87	0x3fba3ec8151b1b50	0.10252047076492699
88	0x3fb88e417ac98efd	0.09592065093744036
89	0x3fa64a963eb8be2f	0.043537802845431954
90	0x3fb21dd3ca5a9bb0	0.07076762857705776
91	0x3fba50568dbdcd22	0.10278836212619472
92	0x3fb0c2bf48118c04	0.06547160634504229
93	0xbfa2285a22513bd7	-0.03546411198532667
94	0xbfa4d8a38c8218dd	-0.04071532335460557
95	0x3fabfecf5ea228cf	0.054678421308453566
96	0x3fb1c3d155807b1d	0.06939419114540298
97	0x3f759210765680f5	0.005266250901883253
98	0x3fbcdccf429e2504	0.11274428726587266
99	0x3fa8fbb25ffdff41	0.048795294015688835

fc3.weight f8 [50, 100]
0	0x3f9244e6817dd4bb	0.017840959218535995
1	0x3f8c7ff900155d92	0.013915963473364799
2	0x3fb349c68cfb8ba7	0.07534447614629745
3	0xbf91c5eb309127ea	-0.017356562461181037
4	0x3fa93eaeea233e88	0.0493063603222455
5	0xbf68ba0034c38d7c	-0.0030183795953335184
6	0xbf9e136bfd76aad7	-0.029370963425814658
7	0xbfb7aa067e2f82d8	-0.09243813114836585
8	0x3fb6e5a7cc69c18f	0.0894417642646259
9	0x3f7ed678435dcfeb	0.007528753068857678
10	0x3fc01355c2628f24	0.1255900572915546
11	0x3fa76bc7ecd8f208	0.045744178449670214
12	0xbf7db68c15c1ad24	-0.007254168707827167
13	0xbf9292a4b037b64d	-0.01813752484843283
14	0xbfaf4cbaaa108c24	-0.06113227201446872
15	0x3fb34d60e491b986	0.07539945202163353
16	0x3fa1381a1e5db388	0.03363114948920215
17	0x3fade570312c0700	0.05839109993213576
18	0xbf8108917424ef8e	-0.008317123753492497
19	0xbfb7d4fe4de9fa09	-0.09309377100178308
20	0x3f9de4d5a7634c05	0.029193247167153675
21	0x3fb11bbf31f5575a	0.06682963342367768
22	0xbfc25bbf718d0fb4	-0.14342492145999375
23	0xbf9e8811269a7170	-0.02981592939487271
24	0xbfbc7bf0a63c3b67	-0.11126617487410116
25	0x3fb53c1e9d77b12b	0.08294860214636361
26	0xbf9c1ee49d917be3	-0.027461597554402927
27	0xbfa6b8d50b7620b4	-0.0443789078227054
28	0xbfa652c070748aea	-0.043600095488974436
29	0xbf74bc2ed3b417c7	-0.0050622777155293125
30	0x3f9e0460f59e80f5	0.02931357859745361
31	0xbf87a14f6f800732	-0.01153814372083026
32	0x3fba056337d7b98f	0.10164470780703126
33	0x3fbcfe0c2e225d2a	0.11325145841907572
34	0xbf9b009619ba73c9	-0.02636942417176494
35	0x3fa52472c318a683	0.041293703380074674
36	0x3fb5edb83a950bde	0.08565856390218538
37	0x3fb5de797785a7d9	0.08542594116229853
38	0x3fb466193b7514c3	0.079682900443987
39	0x3fb2d8a52dafc3aa	0.07361824384112362
40	0xbfa2a967491cc6ec	-0.03644869582639196
41	0x3f72750e8d5d510d	0.004506165356208192
42	0xbfbab9f8127091a2	-0.10440016222179918
43	0x3fb01cd0001773fc	0.06293964388119372
44	0x3f84b5667a68223d	0.0101116186242659
45	0x3fc173acf8703225	0.1363426411702601
46	0x3fb6ec2679ab88ba	0.08954086752376869
47	0x3fb8fbd7f9d06247	0.09759282921766853
48	0x3fbfca8684f71b6f	0.12418404337141252
49	0xbf6df0eb57626546	-0.003654918337883703
50	0x3fa038bfe94177be	0.03168296549186732
51	0x3fbd801990361d04	0.11523589869294787
52	0x3f9c527eaa6775c8	0.02765844264091813
53	0x3fb8453b80a0942e	0.09480640306772223
54	0x3fb2aa25fae4b8ea	0.07290875792816434
55	0x3f95381280cc68c9	0.020721711264834384
56	0xbfb509aae0f9bf3e	-0.0821787642723821
57	0xbfcb77727b85f69c	-0.21458273917589998
58	0x3fb6806f9bfea2df	0.08789727743591012
59	0xbfaf0c41a72eab5e	-0.06064038434791173
60	0x3f75af202132fb5d	0.005293965822771832
61	0xbf885eee0e51b6d6	-0.011899814426409899
62	0x3fbe6f6ff1045eb7	0.11888789781766716
63	0x3fbf5e65c75af191	0.12253414265700814
64	0x3fb4813678c1d163	0.08009663055583398
65	0x3fbdb3467b4068f4	0.11601677426407148
66	0x3faf313074e22870	0.060922159450527924
67	0xbfc511b4b113f146	-0.16460283895856714
68	0x3f99920e94d4a2a3	0.02497122558011945
69	0xbfaa0fdc3291d5f1	-0.050902253315978536
70	0x3fba376b9e8b14bc	0.10240814800916359
71	0xbf83b516ebe1373e	-0.009622744630316423
72	0xbf7ed6aca45fe516	-0.0075289481956073625
73	0x3fb2cb324f20eed4	0.07341303283549944
74	0xbfb1cd46fc1eeef7	-0.06953853278440279
75	0x3fac713d418a9ea7	0.055551447153729776
76	0x3fb9c817fbd06ec9	0.10070943734938988
77	0xbfbaf8bc6020fb87	-0.105357907742457
78	0x3fbc1aadcdb91225	0.10978208801777407
79	0x3fad8103e0047c07	0.05762493238056981
80	0x3fb109ecfcb64871	0.06655770463683709
81	0x3f9ff6d570fa7a9a	0.031215033550888373
82	0x3f922942f40b72b2	0.017735525269801662
83	0x3fb828676c8feca7	0.09436651611751988
84	0x3fc00ce7dac9f83e	0.1253938501649276
85	0xbfbd67ef6a50796e	-0.11486717553677803
86	0x3fa634174536ba12	0.04336617202658401
87	0x3fa3202c44c0cfe6	0.037354834931107736
88	0x3f9921c4e8caf5ed	0.02454288168768486
89	0x3f84752ec5475ce6	0.009989133258314142
90	0x3f960a8ad6a9e456	0.02152459082796939
91	0xbfa3aa6e0fa77292	-0.0384096521481513
92	0x3fbe8938fbbe1422	0.119281350575037
93	0x3fa398a4c09e08ea	0.03827395297322929
94	0xbfb85d700d9add28	-0.0951757462706736
95	0x3fb8b5d9a46655ad	0.09652481330552716
96	0x3fba15fccd102ffd	0.10189800268580025
97	0xbfbbfe652faf2212	-0.10935051359332018
98	0x3fc15a0639be70c8	0.13555982417609003
99	0x3f9791fb3b94462c	0.023017812262940904
100	0xbfb2f04867cceb83	-0.07397892507735375
101	0x3f9d0d6585aaaa97	0.028371416362157644
102	0xbfa4220e161fa715	-0.03932231922210697
103	0xbf80b9a0a7c96028	-0.008166556473199263
104	0xbfa33468b9e0dce3	-0.03750922459624364
105	0xbf9e4df4299e0c83	-0.029594244995234675
106	0x3fa4730b1c2eb28a	0.03994021147750455
107	0x3faa55e01486c94f	0.05143642664497127
108	0x3fac3ac40dc1ad91	0.05513584773947423
109	0xbfb0cc49d97cf464	-0.06561719474571387
110	0xbfb60b419b32b134	-0.08610925711645195
111	0xbfacb82c4649264f	-0.05609262807827219
112	0xbfb7cba29eeb542f	-0.09295097713341315
113	0xbfb05fe6b4d2f80c	-0.06396333613062682
114	0x3fb675b81c00f4c5	0.08773375209507879
115	0x3fac3fa44e7ba842	0.055173048572968245
116	0xbf66dcb4c8284cc8	-0.0027907877822684647
117	0xbfa07f66327188e1	-0.03222197881474798
118	0xbf9c71d1624b841b	-0.027777930855226268
119	0xbfaf03bf104d92aa	-0.06057545732509102
120	0xbf1bb2a37632d45a	-0.00010565874758834814
121	0xbfbe249a1dd7b3af	-0.1177460024698138
122	0x3fb458ea2e40d9ad	0.07948173169356805
123	0xbfb3c016d28371e4	-0.07714979781616865
124	0x3fbbf4f438c8add1	0.1092064512856077
125	0xbf991720f905523d	-0.024502291869185056
126	0x3f70ea6146b19b61	0.0041297721719278655
127	0xbf94e9a76549b537	-0.02042256885254298
128	0x3fb289cb19020cb1	0.07241505966708207
129	0xbfabdc3c2a3d29e8	-0.05441463485347581
130	0xbfa5491d0c698f02	-0.04157343651311686
131	0xbf98bed1d5c6ec01	-0.02416541926661964
132	0xbfb4767b5e8eae9f	-0.0799328904965315
133	0x3face94608c0c235	0.056467236107327436
134	0xbf9faf337565777b	-0.03094177631407245
135	0xbfa31c0aa130c787	-0.037323314835147996
136	0x3f92e10744353a95	0.01843654016311776
137	0x3fa365c9d2e1e9ef	0.037885958664407464
138	0x3fa1dd676f753850	0.03489230380601838
139	0xbfb26033719652df	-0.0717804100334649
140	0xbfb63d894797d162	-0.0868764686382
141	0xbfa771b1411a817f	-0.04578927917214325
142	0x3fab707ca60657de	0.053592582003304065
143	0xbfb0c4ec9ba0b474	-0.06550482558732701
144	0xbfb44bbee9cc5420	-0.07928078849757059
145	0x3fb6644e2a357643	0.08746803789605288
146	0xbfa7a49b8a6c74e4	-0.04617773117772986
147	0xbf61daa429ac66de	-0.002179451590006972
148	0xbf9e3beb6c2b034b	-0.0295254502077598
149	0x3fa6731f28d2f041	0.04384705899562436
150	0x3fab0b1ea09bcfb0	0.05281921110682164
151	0x3fb44e0196ba3f19	0.0793152802455065
152	0x3f6d751042bd13a6	0.0035958592979192404
153	0x3fa4dd619fbae279	0.04075150561169933
154	0xbf9c99f99b219462	-0.027931118100600456
155	0x3f7fa09f20e3afb5	0.007721540065386214
156	0xbf56caaf71908c1d	-0.0013910973850748195
157	0xbfa4eb9d5d2ac190	-0.04086009752552677
158	0x3faff700ff687b6c	0.06243136518263878
159	0x3fb74806b7eba7a9	0.09094278326270334
160	0x3fb342fbfa749fa9	0.07524084915769315
161	0x3f9f8e155456987a	0.0308154423452369
162	0xbfb690bfeae8d25e	-0.08814620480627286
163	0x3f75daf7b1443c51	0.005335776852248023
164	0x3fb4c78481a9e09e	0.08116939702620349
165	0xbfb1d395207d3eb0	-0.06963474314874918
166	0xbf969a58da714d58	-0.022073162396123308
167	0x3f9f57e64441d4c5	0.03060874740227317
168	0x3f97d252ded36c41	0.023263258791171863
169	0x3f50edc1b579107c	0.0010332481086985637
170	0x3fb0c289296cdf45	0.06546838055953426
171	0xbfb17f43337ae920	-0.06834812170828686
172	0xbfba4539f10e648a	-0.10261881003533993
173	0xbf9f7fb84eda1e52	-0.030760650456185985
174	0xbfad64faa72789cc	-0.05741103449306059
175	0xbf6a391743a84f23	-0.0032010511761288037
176	0xbf9945ea0a73f990	-0.024680764091493723
177	0x3f7e766e4aa4d385	0.007437163187479783
178	0xbf9239701052f74e	-0.017797232624381203
179	0x3f9ecbc43e0d4084	0.030074182784404005
180	0xbfa47ade2f850ead	-0.03999990778041016
181	0x3fb6bf7b9991c1c7	0.08885929583789852
182	0xbfb0cd188f9053a1	-0.0656295156953335
183	0x3fac687980c55b4b	0.0554845781031675
184	0xbfc13bf3e233451e	-0.13464211029944634
185	0x3fb1ebf45dbcc722	0.07000663078795502
186	0x3fb0cfd0bce18985	0.06567101107933666
187	0x3fa4aade4049dc79	0.04036612067005136
188	0x3fb27d7a08651867	0.0722271223540659
189	0xbfaacb76ef0ae302	-0.052333561592098135
190	0xbfa9193579a2f949	-0.04902045354673363
191	0xbfa5eb17ba943fa9	-0.04280923988892422
192	0xbfb0b0a317e43032	-0.06519526799473921
193	0x3fb0c8d7ccb0fe55	0.06556462046955265
194	0xbfaa20ea0f061ce5	-0.05103236611744836
195	0x3faf364ca3f03cd9	0.060961146366133874
196	0xbf9bc897922e28f9	-0.027132385537279344
197	0xbfb4a16ade2af7b4	-0.08058803485889038
198	0x3fab7c554cde89d5	0.053682962068041164
199	0x3fadc4f26a6b23e1	0.058143210878888636
200	0x3f9b9f700c5f2b1d	0.02697539401541881
201	0x3faaebb96ff6dec9	0.05257968417884979
202	0x3fa4d26ac334bb09	0.040667854622702455
203	0x3f84bbd182770125	0.010123860162707896
204	0x3fa7b52876a40a3e	0.04630400131465649
205	0xbfb1f27fa3856dec	-0.0701064848157597
206	0x3fa6ef4345bb4daf	0.04479418016640168
207	0x3faf455d682d75b1	0.06107608696650447
208	0xbfa558073d03a1cd	-0.041687227437993
209	0xbfb69d047aa53e98	-0.08833339685701913
210	0x3f8a617ff29842a3	0.012881278601555584
211	0xbfb3b8bda2b26254	-0.07703767034616621
212	0xbf8cb5c0b4971fae	-0.014018540869883935
213	0xbf8d85b2ef96b020	-0.014415166794457035
214	0xbfb34b3545e4a40f	-0.07536633449912265
215	0x3fa3c67c81151c13	0.038623705632339654
216	0xbfa00c814f96b90a	-0.031345406499314235
217	0xbfb5075af9c9b995	-0.08214348409976531
218	0xbf9e96d8e518749f	-0.02987231157577652
219	0x3fa8feb20dc7e23d	0.048818172628618296
220	0xbf87f79532896a12	-0.011702695469627353
221	0xbfac544611ed359f	-0.05533045739012298
222	0x3fb1ca0c6f2f7059	0.06948926653370914
223	0x3fa3b12b5bc2cdaf	0.03846107001427456
224	0xbfa36841261c80e2	-0.0379047736189493
225	0xbfb614d63a6ee3a8	-0.08625544478026248
226	0xbf92b28ee5ed8503	-0.018259270461730825
227	0x3faec8bd4afdf254	0.06012527027539663
228	0xbfa6147bd8d7f635	-0.04312502882019623
229	0x3fb4dbaaded4183e	0.08147685947560121
230	0xbf9cf7eeab6d418b	-0.02828953667932547
231	0xbfae83d244005cdd	-0.05959946708770201
232	0x3fb037c98fd60ab7	0.06335124742148933
233	0xbf9d6646b6953666	-0.0287104653300986
234	0x3fa6f9eda8247668	0.04487555196304244
235	0x3fb1644d97ebc704	0.0679367538357632
236	0xbfa9c94e1845349b	-0.05036396070736623
237	0xbfad9ec03487210e	-0.05785179749688228
238	0xbf32d21123dd5c35	-0.00028717916926751806
239	0xbfb1ecba77493c43	-0.07001843845613202
240	0xbf9b4c87d8e4c0c4	-0.026659128773815835
241	0x3faa8f181fbf7f08	0.05187297236966343
242	0xbfaaa822931a5f0a	-0.052064018685255745
243	0xbf926fc9a198ee12	-0.018004560936089993
244	0x3fab8af3f8ce8884	0.05379450237457298
245	0x3f93fca576e871a4	0.0195184568238901
246	0xbf93c5704d22bffa	-0.01930785628127294
247	0x3f83683310729405	0.009476088466110264
248	0x3fafba835febd6b9	0.06196985765374791
249	0xbfb104749c314109	-0.06647423566142065
250	0x3f95c5287e47bfa0	0.021259911258254882
251	0xbfb2aa0f2318c7a7	-0.07290739638190634
252	0xbfb46ffc03d0239c	-0.07983374684421424
253	0x3fa478591c0ea8a6	0.03998068301673756
254	0xbfaacc3c94d14635	-0.0523394519483528
255	0xbfb24450f4f48c9f	-0.07135492306092538

fc3.bias f8 [50]
0	0x3fa20a41f4330535	0.03523450952480759
1	0xbfaa60eaaae272a2	-0.05152066551201996
2	0x3fa6155feff0719d	0.04313182643838618
3	0x3faa2bcb3abbe105	0.05111537067381459
4	0x3fbca658c2875a70	0.11191324948536319
5	0x3fc0d75fccf214fe	0.13157269961462953
6	0x3fbd0b8ec08d30c0	0.11345760537114113
7	0x3f6e29c18a2a444a	0.003682020194283574
8	0xbfb7723ad262ee40	-0.09158675800693405
9	0xbfada8900221e445	-0.05792665506391662
10	0xbf907365a8c095b7	-0.016065205025503206
11	0x3fb8b5e1c396e3f2	0.0965252974045965
12	0x3f9b7f94aa4a2845	0.026853869336754838
13	0xbfb1c7ad5c2a623d	-0.06945308208595065
14	0xbfc031b9b02e7644	-0.1265174970875923
15	0x3fb092180e19b405	0.06472921699760555
16	0xbfb2088ca60b7bef	-0.07044295362310014
17	0x3fad5a3742ab8241	0.05732891739694824
18	0x3fb1f8c2a035d6f0	0.07020203029045624
19	0xbfb1f37eb9ef3b35	-0.07012168921867785
20	0x3fb661ac030b7df5	0.08742785524690773
21	0xbfa575a2d54cc5de	-0.04191311696775889
22	0x3fb3176a6bf62975	0.07457604537754554
23	0x3fbd8612f74a5fed	0.11532705819479334
24	0x3fc57ebc5cdcb88a	0.16793016943251288
25	0x3fa8115eb9dabe7e	0.047007522761643536
26	0x3fc180a5492173ef	0.13673845358690026
27	0x3fb78faa3220aa7b	0.092035901296791
28	0xbfb59ebb85396235	-0.0844533157591137
29	0xbf91c8886c704bc1	-0.017366534823007877
30	0xbfb29dd179009c0c	-0.07272061542663283
31	0xbfb5a6e97a5b4422	-0.08457812535495227
32	0xbfa6e58b28feb45f	-0.04472002864290724
33	0xbf698f3d6e5b57db	-0.003120059950428617
34	0x3fc2fe8d72fd46ac	0.1483933268996699
35	0xbfb2848dbfe2a3ba	-0.07233510908794374
36	0xbfb642dc3e860de7	-0.08695770765739717
37	0x3fc6c9f369948912	0.17803805022510538
38	0xbf79f213e03130ea	-0.006334378852511183
39	0xbfa796fe22bc4f0e	-0.04607385801332785
40	0xbfa7ad51f8f77421	-0.04624420322554835
41	0xbf851742e47bcbfd	-0.010298273656621499
42	0xbf5e101280f32bba	-0.0018348866176889204
43	0x3fba8fa858c727eb	0.10375454108648767
44	0x3faa62b7359702ae	0.051534390727743115
45	0x3fc42692cdd37656	0.1574271683702359
46	0x3fc04a22e0788068	0.1272624584244142
47	0xbf99bbce7b98c276	-0.025130487722153615
48	0xbfb74c11400dd8b0	-0.09100444616146564
49	0xbf9c2a094e96b3ba	-0.027504105970070226
