weights/numq/gspc/correlation/high/numq_2.pt (torch, 526847 bytes, 8 tensors)

fc1.weight f8 [200, 200]
-0.13912032243768482 -0.08006402398224109 0.1567461089690767 -0.06962950017869127 0.022705176355963974 -0.03958217345177143 0.027807464472540424 -0.0513243466802112
-0.05660903160209399 -0.015462998629667766 0.09311580666545367 0.05601550378661004 -0.03541298445598229 -0.16658192124653723 0.09984270677565066 0.05264364056929044
-0.05692071367974776 -0.13107373958221658 0.1152641702525691 -0.02965939464669329 0.009347438278666548 -0.009872639002664716 -0.034267600107779066 0.002189288056339954
0.10691978698082188 0.06836920688588957 -0.08705586676188597 -0.004155132869297489 0.08530868893852904 0.0063849287671897525 0.013189160692220743 0.07182321608512471
-0.050489237601034964 0.036101490503121794 -0.034607188426812395 -0.017994787196999096 0.05022879612513129 -0.01308511599077868 0.031446858954016034 0.04842852483295572
0.007738393511940269 0.048877582610969014 -0.04443194777761767 0.02284816794428289 -0.18963068399220318 0.009304957204566571 -0.019312290501314704 -0.07141724090292936
0.09001163144865348 -0.03126686918895661 -0.00836590917859 -0.07751938356836867 0.003657933383204486 -0.019302842079639428 0.012327951811872772 0.13881263087049212
0.006923707686125736 0.16250863108328698 -0.13253602900197592 -0.034820110261176464 0.057300853395179575 -0.051232108137672996 -0.01914165214742966 -0.08858999591315408
0.003250485589692797 -0.09407197736770198 -0.036324126653850465 0.09042950113563687 0.028465137070873527 0.08392670184588383 0.0002816785781525466 -0.027728636734205763
0.003660531908992556 -0.09856886551334125 -0.05971185682978343 0.04828991189712992 -0.024546136889348813 0.04624435857804422 0.028482529040599575 -0.08655823432905439
0.09718868423781866 -0.018343565283383236 -0.10835551385206445 -0.009124698325047679 -0.0003261529459706344 0.10421561683711796 0.0017661302171918416 -2.146457296687471e-05
0.09129227313510105 -0.04397119117978809 -0.045028881558843124 -0.1281096280862811 0.074445863776508 -0.032715866288384104 -0.04972565900692687 0.03327769166261458
-0.018169459306186075 0.04250969678520613 -0.09481186780336448 0.01827538758502369 0.00450983043842721 -0.013451310031055475 -0.040501882297598615 0.027593841252761136
0.05079440235775671 -0.018313044413358685 0.1316920316790371 -0.07766362475422785 -0.0639919801653756 0.05331578255330308 -0.10291981300648799 -0.02954199751879141
-0.08540150233657717 -0.025826887203372284 -0.028705408010947616 0.023734323723823565 0.017860834660944225 0.03529286978724191 -0.05687298647478054 -0.037091692923595994
-0.08830949625081849 -0.04634152375725807 -0.014392025885749653 -0.11820128972123792 0.06323699609572431 0.047030294919507575 0.05030821640961575 0.04962101226055738
-0.061715128566275694 0.06464931086511412 0.16674449282217482 0.0026639810667455958 -0.06686256798059603 -0.05170486741298546 -0.014853038290069733 0.036399585849780904
0.008396982521282419 -0.027809619722317918 0.03983751969490602 0.0650123141763099 -0.04204270140568194 -0.08615947116898344 -0.008185588594688174 0.10934189459744055
0.06856761014512286 -0.006630453188699984 -0.10381952617752682 0.12728951701191993 -0.06214262021955104 -0.0938168140532755 0.06413851799588843 0.043715349749096466
-0.005582320610962944 -0.03420961279531645 -0.009852097817873473 -0.0492684522649252 0.07015244817360491 -0.04694463555253571 0.10768996472608613 0.01814891428746825
0.06605739824507922 -0.062452263034415 0.07988463197872155 -0.01247492958398583 -0.10924763045736423 0.11858399875007326 0.08764544770701524 -0.03747673347984406
0.031653946184103776 0.09016042340713162 0.15755394757139715 -0.03580815232881484 -0.024789994565498106 0.036541858369560476 0.06692926891750524 0.056221876286613716
0.11579931598899369 0.05760173255610518 -0.01712953070285824 -0.016613184919077702 0.023285413773924207 0.09836660586650355 0.06632048043960838 -0.016143359374793716
-0.018907014628584726 0.05554162119255074 -0.10220105085079875 -0.07703322876788088 0.05628599250980902 0.12354986355860612 -0.08859544954604363 -0.07152820347697791
-0.0302442533372464 -0.01003161132810197 0.07843882364272499 0.08313579786931356 -0.01974848585139414 0.02249569693909628 -0.07966216108311874 0.09597140257916836
-0.04966261167163541 -0.0010770220548804736 -0.12893214386620405 0.09876232659428484 -0.0024029506256512 -0.07399608688350591 -0.030018253330963002 0.05427165055510958
0.04122871352834103 0.010519108487940541 -0.034463998980612816 0.011648037221490569 0.13250209830590606 0.06669426744331992 0.038560559788244846 -0.0723110657717099
0.03110581076608138 -0.00656852969635708 0.004422431771344844 -0.03668985189045016 0.03848983006717127 -0.026379642960211468 0.09327382513814063 0.03031945910799016
0.00027172893776253494 0.012092993255455488 -0.15713842281084806 0.14726554106742198 -0.08895584859392823 0.0394729353696761 -0.06869669476658304 -0.048694452261979375
-0.006331780923837362 0.040991198290664874 0.04573579271574225 -0.017828153688835932 0.07286931796605411 0.057625859942054054 -0.035755993370415184 -0.003953853735329512
0.0283361949655144 -0.08525247446452756 0.05560229565724599 0.07833099574980927 0.025954148241820567 -0.012617188931521504 -0.016208686210035645 0.008165251979071324
0.012598803449011048 -0.03655453081522328 -0.01863027964348556 -0.10753632857587404 -0.025818426359693374 0.13504380744793543 0.08674292235077098 0.03165045204328751
00000000: 2517 8ad9 b1ce c1bf b702 976c 137f b4bf
00000010: 6812 e6a9 4110 c43f beb3 1a2a 3dd3 b1bf
00000020: 3059 9897 0640 973f 05bd f558 1d44 a4bf
00000030: d71a fa59 8f79 9c3f 2acc f54c 2f47 aabf
00000040: 6448 c7e6 dbfb acbf 1fd5 4c8b 10ab 8fbf
00000050: 8568 5e00 70d6 b73f 7337 aa69 10ae ac3f
00000060: e034 2f94 a621 a2bf b3ea ed6f 8e52 c5bf
00000070: 2075 58a8 4a8f b93f 58ca 2c75 1bf4 aa3f
00000080: d761 7037 b624 adbf 805d 6f38 06c7 c0bf
00000090: faa6 a2e1 f381 bd3f 9958 1b48 085f 9ebf
000000a0: b07f aaed bf24 833f 1f1e 222d 1b38 84bf
000000b0: 5ff6 8cdb 858b a1bf 97e6 4f13 45ef 613f
000000c0: 24bf 605c 185f bb3f cadb a0f3 a480 b13f
000000d0: d3cf aa14 4b49 b6bf 12f3 8bfc f804 71bf
000000e0: 0f3d 0e4d cad6 b53f eebe e043 1527 7a3f
000000f0: 779f ad2e eb02 8b3f e4dc 2d9c 0163 b23f
00000100: 30c4 97b0 b9d9 a9bf 5a74 1802 e57b a23f
00000110: 9bd4 ff8c 08b8 a1bf 20d2 09ba 396d 92bf
00000120: 3d8b 59b9 96b7 a93f 4a45 f589 5ecc 8abf
00000130: e5f1 897d cd19 a03f 46bf b3a4 9fcb a83f
00000140: 76f4 ea30 4bb2 7f3f 56af a485 7b06 a93f
00000150: 0974 34c5 c8bf a6bf bc78 6098 8265 973f
00000160: 9445 0879 d145 c8bf 3608 1337 7a0e 833f
00000170: ebbb 74e0 99c6 93bf 5a73 0c7a 6648 b2bf
00000180: e4e1 5495 000b b73f 61d1 3a09 3602 a0bf
00000190: ab38 9652 2522 81bf fb72 3b71 4fd8 b3bf
000001a0: a4d3 0e08 3ef7 6d3f eabf cecd 1fc4 93bf
000001b0: d387 deae 653f 893f 5424 eebe 9cc4 c13f
000001c0: 1b7a 43a1 085c 7c3f 6504 e933 15cd c43f
000001d0: 0077 0dcb f0f6 c0bf 3d36 a105 f1d3 a1bf
000001e0: c5f9 ba96 8956 ad3f a2b2 e949 183b aabf
000001f0: f8c4 db87 de99 93bf 2824 337f d5ad b6bf
00000200: 4c23 b929 c3a0 6a3f 46ab 43e2 1915 b8bf
00000210: f56e 1170 1399 a2bf a19d f845 6326 b73f
00000220: 07a7 2e03 f725 9d3f 5270 b067 387c b53f
00000230: f660 f947 c875 323f 3b8b be4f e564 9cbf
00000240: 5f09 b91a b1fc 6d3f 839b c825 cf3b b9bf
00000250: a2e2 8870 8d92 aebf 8c58 a690 74b9 a83f
00000260: 2048 bb5c 9f22 99bf 7234 6f2f 57ad a73f
00000270: 656d f22a 862a 9d3f 178e a431 ae28 b6bf
00000280: 4fbb 578c 5be1 b83f c7ca efd3 a7c8 92bf
00000290: 01fd 55dc 2fbd bbbf 75b4 2247 f8af 82bf
000002a0: 3832 873c f05f 35bf 6d42 0cea dfad ba3f
000002b0: ce03 7ee1 afef 5c3f a548 ff38 da81 f6be
000002c0: 6a25 7e2f ee5e b73f 4fad 2a58 6483 a6bf
000002d0: 8364 578b 060e a7bf 6376 7773 e565 c0bf
000002e0: 4219 3e56 e20e b33f b4af 894f 22c0 a0bf
000002f0: 86e1 693e a475 a9bf a92d c10a c609 a13f
00000300: c037 06c6 039b 92bf e321 e9ba d4c3 a53f
00000310: d0f5 7c2f 9745 b8bf 0563 ff7f c8b6 923f
00000320: e794 e563 e678 723f 3ab9 5f45 5c8c 8bbf
00000330: 9a0c caa7 a9bc a4bf eba9 0157 8f41 9c3f
00000340: 8592 e451 b901 aa3f 61dd 619b a7c0 92bf
00000350: f845 9ad4 48db c03f 6981 6868 c3e1 b3bf
00000360: dc3d 0446 c761 b0bf c5aa dacc 344c ab3f
00000370: 472a f9ee f358 babf 4790 cee4 4140 9ebf
00000380: 189b 9073 dfdc b5bf d077 950f 5d72 9abf
00000390: 6f5d 8052 f364 9dbf a2f9 be80 cf4d 983f
000003a0: 9df8 fd52 1c4a 923f 4350 0933 e811 a23f
000003b0: 9dbc dec1 741e adbf f9c7 1eb0 aefd a2bf
000003c0: e6d0 527e 739b b6bf 0eed f781 13ba a7bf
000003d0: 5614 0504 9179 8dbf f29e b291 7042 bebf
000003e0: d8df 20be 4c30 b03f 5b77 33d5 5a14 a83f
000003f0: 7816 66a0 ffc1 a93f 21ff b4e1 ec67 a93f
00000400: 2f9f b815 2099 afbf f5e5 df73 db8c b03f
00000410: e7cb ba2f e257 c53f 0bfb e1f1 c5d2 653f
00000420: eca0 cdbe e71d b1bf 4763 2a75 0f79 aabf
00000430: e1de 9d0d 456b 8ebf 3521 a06d f7a2 a23f
00000440: 090e 83ea 6f32 813f 8bde e2fc 1f7a 9cbf
00000450: f29b 7c58 9565 a43f ae7a 39a3 a5a4 b03f
00000460: c752 25f7 9e86 a5bf 0d54 e90e 8c0e b6bf
00000470: ec66 801a 9bc3 80bf 95f1 6095 d4fd bb3f
00000480: cc5f 239b a58d b13f c466 a6b9 8828 7bbf
00000490: b462 9e9d ea93 babf 684c 58dc 054b c03f
000004a0: 8aba 0f53 28d1 afbf aa79 2cf4 6004 b8bf
000004b0: b0cc 34c5 616b b03f 38da 02bb db61 a63f
000004c0: 5ba3 5bc7 7cdd 76bf 8454 5420 ec83 a1bf
000004d0: 53e8 652f 562d 84bf c69f 67ee b639 a9bf
000004e0: f2d4 a3c6 82f5 b13f 7270 d794 2009 a8bf
000004f0: 761e 9bcc 9191 bb3f 4553 4a05 a195 923f
00000500: 3418 1f3d 23e9 b03f 7387 9636 bef9 afbf
00000510: f935 cdb9 5173 b43f e13b aab4 748c 89bf
00000520: f3d8 fa17 a7f7 bbbf 55e1 755c 855b be3f
00000530: 227f 8b9b ee6f b63f 234d 5081 2630 a3bf
00000540: f0d5 4c2f f234 a03f 4259 ede5 c014 b73f
00000550: 7761 164e ba2a c43f 8f69 5d36 7255 a2bf
00000560: 7913 b55f 8c62 99bf 40c0 434d 9db5 a23f
00000570: 0558 25cd 4622 b13f f507 f11f 1dc9 ac3f
00000580: e567 1223 06a5 bd3f 48f6 0a6b f97d ad3f
00000590: f68d a858 678a 91bf dfac a3f7 0b03 91bf
000005a0: 3805 88aa 21d8 973f 5d14 37cb 8d2e b93f
000005b0: 490a 8b06 61fa b03f 3fcf 3f82 e287 90bf
000005c0: aca3 fa45 5c5c 93bf 987a 2d8d f36f ac3f
000005d0: 2661 051b d929 babf e869 431e 73b8 b3bf
000005e0: 4ee5 1a82 84d1 ac3f 62d3 68bf f6a0 bf3f
000005f0: bbea 5ffe 30ae b6bf 6cdd ac1e ac4f b2bf
00000600: 71d2 e67b 59f8 9ebf d79e a414 748b 84bf
00000610: 453f 4816 9114 b43f d7be f93c 6348 b53f
00000620: 8a4f 8273 f238 94bf 67d8 9daa 1c09 973f
00000630: 60a7 9448 bd64 b4bf 68c4 6df3 9491 b83f
00000640: dc5f edb9 606d a9bf 0796 2da0 5ba5 51bf
00000650: 5e7d a736 d980 c0bf 87a0 cce2 7c48 b93f
00000660: e400 3c4b 5aaf 63bf 8156 3255 68f1 b2bf
00000670: 88ad 5be1 1abd 9ebf a9e0 7768 7ec9 ab3f
00000680: 3350 8510 ee1b a53f 6c9f 82d7 0a8b 853f
00000690: 21b0 05e9 43a5 a1bf 4c5f 6e17 edda 873f
000006a0: fb07 7029 d4f5 c03f bdee 7f21 e012 b13f
000006b0: 2774 69ae 35be a33f c2de a05e fa82 b2bf
000006c0: 51d3 d29f 33da 9f3f c895 a843 9ae7 7abf
000006d0: 153c 3a7d 411d 723f c1db ed23 03c9 a2bf
000006e0: 48f4 bb62 f0b4 a33f c653 2ddf 4303 9bbf
000006f0: ef87 8a1c cbe0 b73f de74 3475 100c 9f3f
00000700: 2152 ace6 dace 313f a1eb 5714 36c4 883f
00000710: 5674 75a1 1c1d c4bf 612d 5be5 98d9 c23f
00000720: 97b4 7f7c cfc5 b6bf 9fd1 faec cb35 a43f
00000730: 01a3 5d49 1b96 b1bf 9775 ecaf 7aee a8bf
00000740: 8fa1 e47f 5aef 79bf 8e1d 2a60 ccfc a43f
00000750: e105 f18b ae6a a73f 5c9c 2a24 8b41 92bf
00000760: 78c8 8b49 90a7 b23f 61c2 b5ff 2281 ad3f
00000770: f8e7 520c 9c4e a2bf 6f53 c887 ea31 70bf
00000780: 180b aeda 2904 9d3f b16c ba2d 1bd3 b5bf
00000790: a65c dc72 e777 ac3f 0f30 0209 800d b43f
000007a0: 6e9d 9367 b993 9a3f b26f a06e 0ad7 89bf
000007b0: 75a0 bb84 0299 90bf e9ad b591 f1b8 803f
000007c0: 2304 42c6 66cd 893f dc77 be84 46b7 a2bf
000007d0: 6dec 22e7 d013 93bf 9983 5d36 8087 bbbf
000007e0: eb71 6543 2570 9abf f812 4290 1d49 c13f
000007f0: 81f1 a7be c834 b63f 2cec dbf0 7c34 a03f

fc1.bias f8 [200]
0.016708137543314457 0.273358803920548 0.02747812200303729 0.20227798259037558 0.20630237860433323 0.20123149161949955 -0.1835051152649471 0.12335985901206004
-0.08150476203539168 0.015874160262072855 0.08724056298986783 0.11873967305769705 0.2590082111178548 0.28019610920045596 0.2097230090669031 0.2964158746137729
0.2796755734775614 0.3387906359922854 0.29044632211469185 0.1257595798134253 0.15051729994955457 -0.04306732462358731 0.15551087082848744 0.13731307464739184
0.25574513218763734 0.10672113462942309 0.26889758450977674 0.24241763366044605 -0.02214686763525263 0.15948912011573566 0.04879584961050455 -0.11129032496603565
0.3281072061871789 0.19527516087730465 0.2682327123442192 -0.04156693744865023 0.34517500678817603 0.21900821652967845 0.1431593788990986 0.15590183448275405
-0.05653168062833729 0.12436013312630333 0.3134934177740697 0.25109452850452146 0.12393936201840007 0.3156281848030034 0.016004498516917126 -0.03148936631299724
0.23170897208689265 0.2659467434247809 0.07309302370671139 0.26395063814432473 0.3380025652149571 0.0049170232722892575 0.08904637149388382 0.11281724641400107
0.10437125244072215 0.223753777813956 0.046386369285364645 0.19970872291976147 -0.10362916178060026 0.36526355745224676 0.14752915588480248 0.24052286065304743
0.17672473205153458 0.12293649854894316 0.21269436464404456 0.12536183116395164 -0.10806809962797666 0.05055602995242675 0.1529488750899055 0.314110243104186
0.1967833557514598 0.20080128376924247 0.2909004577362334 0.17926929268370767 -0.02622106309566763 0.22487034363111527 0.15045978911021146 0.18018401478599277
0.08367682395543068 0.27610817778283686 0.1512408079754213 0.27715910311816294 0.14415933400575967 0.027568889433736164 0.27797454224381973 0.07087507736447597
0.34052263300791014 -0.13839269669625295 0.16208599643465527 0.20131411153368162 0.3221899437594743 0.0036930510300286472 0.2954772921661712 0.09463521840216323
0.3186538078051382 0.276601158588799 0.07590981941629445 0.2887842249370396 0.2334023650717936 0.34679804690008625 0.1939359137371826 0.17031850705234217
-0.011860907848440488 0.2843909904102873 0.027743907943031765 -0.09698535896461463 0.24681941256963202 -0.10020544682356643 0.07396710356650053 0.2593838609530883
-0.22137832077488634 0.02863093256662405 0.046874017059270745 -0.02325040717133648 0.16003296544567971 0.33024900539997326 0.367901603667957 0.22798680439495195
0.09261659175648665 0.3041174317680679 0.18592337007457505 0.06353570797184631 0.17719347071897554 0.3265291010942699 -0.10175426754624732 0.18458211986266218
0.28286506738786366 -0.042196116352713295 0.19571534935504448 -0.010780539603735971 0.0017634662672975426 0.20106542484475054 0.17901357820777983 0.2022258990060745
0.0364444266722397 0.1931906719708842 -0.19111078957643168 0.23242955252381087 0.17124210603235762 0.17793613123337973 -0.05079215840938864 -0.1753462925405536
0.3380902082971416 0.1347604487677056 -0.16967171697488337 0.11609109670426626 0.1114704905603459 0.05912677937949597 0.21675783970407997 0.35659849285555145
0.24865271501959957 0.2573454490297981 0.2694994578301639 0.12034779552055196 0.05822055010768503 0.10978723810011447 0.1248567922605193 0.10856151832357744
0.014276865575841121 0.2780508585542031 0.12390259469350703 0.181881005566172 0.2853690452243867 0.17688267764215712 0.07366363581566693 0.14964093360658962
-0.0923577363430274 0.3264857554483101 0.20109700136591016 0.14888684943269995 0.3057011446059998 0.1868143002913587 0.07022733104992325 0.2887053221064058
0.2541465538815286 0.20384405706220832 0.3047107980628721 0.04022941032697556 0.09270585888157659 0.23380415557996387 0.08725270008416347 0.22418289723192775
0.238586643279665 0.15973982699648984 0.09371977599432738 0.11551943310137838 0.02378764997296131 0.012915861079485145 0.10849457209810909 0.34636291264160507
0.16101100255252118 0.028042239070208367 -0.019927178658325967 0.06747909946971871 0.11486022523317703 0.2323609162789996 0.24119615691137572 0.09715466125455284
00000000: 7f6b 4d21 f01b 913f 4265 baec b57e d13f
00000010: f125 6f8d 3923 9c3f 3998 f6b3 3ee4 c93f
00000020: d1a7 98c8 1d68 ca3f 9a2c b719 f4c1 c93f
00000030: 9d17 5b7a 187d c7bf 6891 1800 8394 bf3f
00000040: 6f07 69ff 7edd b4bf b650 b5dc 5041 903f
00000050: 9115 edc4 6555 b63f 2f42 8524 b965 be3f
00000060: b762 092d 9793 d03f b1df 5ea9 bbee d13f
00000070: a09d 941c 34d8 ca3f 1dcf de49 7af8 d23f
00000080: fddf 6460 34e6 d13f 38c9 71eb beae d53f
00000090: 2578 ae2b ac96 d23f e38a 3ad1 e318 c03f
000000a0: d9fd 61a0 2644 c33f 00ad 919d eb0c a6bf
000000b0: 2bbf 30bc c7e7 c33f 983d 768e 7993 c13f
000000c0: b7da b6d4 205e d03f a67f 0687 1352 bb3f
000000d0: 4458 dc36 9e35 d13f 32cd 4580 8a07 cf3f
000000e0: dc1a cf20 abad 96bf db81 7bb5 236a c43f
000000f0: e2ea 8304 c5fb a83f 3920 17d2 857d bcbf
00000100: a6f9 095e b5ff d43f 7736 d8c6 c6fe c83f
00000110: 4c17 cf89 b92a d13f 3da8 dff9 4248 a5bf
00000120: 9850 63e9 5817 d63f c66e c613 7608 cc3f
00000130: e15f 3ee9 0b53 c23f dfb2 3e60 97f4 c33f
00000140: f726 f96e b8f1 acbf 4f24 b4d0 10d6 bf3f
00000150: 0e75 36b2 4610 d43f d569 08c9 ee11 d03f
00000160: b95e 8e72 7dba bf3f 012f db8e 4033 d43f
00000170: e84b e0b6 7b63 903f 6de0 f8cc 5f1f a0bf
00000180: 13c8 a6bc a3a8 cd3f 412d 5f7d 4505 d13f
00000190: 04d6 6272 39b6 b23f 26a5 a537 91e4 d03f
000001a0: 82fd e382 d5a1 d53f f5d5 5e62 df23 743f
000001b0: 5fc9 6435 becb b63f 4add c54f 97e1 bc3f
000001c0: 441e e00b 13b8 ba3f 48a0 08bb f6a3 cc3f
000001d0: ce23 1f46 f4bf a73f 5b49 d530 0e90 c93f
000001e0: 4373 c2d4 7087 babf a164 6b66 7a60 d73f
000001f0: c2a8 dd41 3ce2 c23f 71fc 38fe 73c9 ce3f
00000200: 4f21 4780 ea9e c63f 5fa1 c030 c478 bf3f
00000210: 1c47 18a6 9139 cb3f 3d07 8242 db0b c03f
00000220: 959d a4d9 59aa bbbf 18c5 85de 7ae2 a93f
00000230: 184e 3c28 d493 c33f 5026 5ed9 611a d43f
00000240: 71c1 ac6e 3230 c93f ad50 6441 dbb3 c93f
00000250: 5e96 17f4 1c9e d23f 3275 a0d2 4bf2 c63f
00000260: c056 d9c1 b1d9 9abf b132 de29 8dc8 cc3f
00000270: 7eb3 cb30 4442 c33f e847 6211 4510 c73f
00000280: 835c 5226 d86b b53f 6b11 6fa2 c1ab d13f
00000290: 419b 09da db5b c33f ce98 eb88 f9bc d13f
000002a0: 71e3 7b24 d073 c23f 260e 05da 043b 9c3f
000002b0: 9bb2 03bc 55ca d13f d1c3 617b de24 b23f
000002c0: 3146 1471 1fcb d53f 5767 2815 dab6 c1bf
000002d0: 08c8 e9e2 3bbf c43f b856 a12a a9c4 c93f
000002e0: 6602 e391 c29e d43f 7c92 afac e340 6e3f
000002f0: 2f1e a496 19e9 d23f bd4c 1680 033a b83f
00000300: 4836 d1f0 d264 d43f ab2c 8b58 d5b3 d13f
00000310: 9597 d66f d36e b33f 8423 6dd4 707b d23f
00000320: 916d 65f2 20e0 cd3f b129 706f f031 d63f
00000330: a2b2 825b e4d2 c83f dbbf d830 ffcc c53f
00000340: 30b8 7a1a 884a 88bf 01b6 c544 7633 d23f
00000350: cd3d 1d25 e668 9c3f 849f f150 08d4 b8bf
00000360: 7c93 804c c797 cf3f 3d00 fd6c 10a7 b9bf
00000370: 6b47 cc12 82ef b23f a4d6 f9c3 be99 d03f
00000380: a2c1 e2f3 1f56 ccbf 784b 1c5c 6d51 9d3f
00000390: 407a 9a04 dfff a73f d2a4 ad69 f4ce 97bf
000003a0: f57f 6fd0 f57b c43f b2ae 6eb9 cc22 d53f
000003b0: cc96 f92a b38b d73f fede 65ee ab2e cd3f
000003c0: 6a3d a990 b8b5 b73f 5b97 e5f5 a876 d33f
000003d0: d825 0445 56cc c73f 7b06 de4b e043 b03f
000003e0: f9bf e690 46ae c63f 4419 9950 dae5 d43f
000003f0: d3ed 5653 910c babf 2d45 1e0c 63a0 c73f
00000400: 4426 6715 761a d23f 3698 81b7 ba9a a5bf
00000410: 860e 6758 330d c93f 190f 4088 1b14 86bf
00000420: 9c66 857c 83e4 5c3f 2843 0808 83bc c93f
00000430: 039f f8bb eae9 c63f 2551 51cb 89e2 c93f
00000440: c383 5b09 d8a8 a23f 4eec 00d1 78ba c83f
00000450: 985e 927f 5176 c8bf ee59 5b67 40c0 cd3f
00000460: c6b6 8de6 42eb c53f e549 3674 9cc6 c63f
00000470: 3ced 8506 6e01 aabf 19e0 f74f bf71 c6bf
00000480: b1fa ee1c 45a3 d53f be33 2094 d43f c13f
00000490: 284d bb85 cdb7 c5bf dc9b b367 25b8 bd3f
000004a0: c3fe 6c7f 5489 bc3f 7267 817f dd45 ae3f
000004b0: 021f 578c b8be cb3f d884 277c 82d2 d63f
000004c0: 960f 8927 dad3 cf3f efdf d60b 5978 d03f
000004d0: f3e5 6aa7 7a3f d13f 270e e8f5 1ccf be3f
000004e0: 73d4 557d 15cf ad3f f77c 2835 041b bc3f
000004f0: e240 715f 9df6 bf3f 6aca cd0a b0ca bb3f
00000500: 5ea8 e675 303d 8d3f 8e5c 07d4 95cb d13f
00000510: be20 1998 14b8 bf3f 7bcc 5575 e047 c73f
00000520: 19e3 2187 7c43 d23f 53da d971 17a4 c63f
00000530: 1895 bbba 9edb b23f d1d9 fd21 6f27 c33f
00000540: 8b3a 20b1 c1a4 b7bf 81a9 9082 24e5 d43f
00000550: 295a 18ea 8bbd c93f 1518 8f6a b90e c33f
00000560: abae 9b88 9b90 d33f d897 16ef 87e9 c73f
00000570: ad10 251a 6bfa b13f c133 28e3 257a d23f
00000580: 30fc 53e8 ef43 d03f 5c77 48e3 8f17 ca3f
00000590: 15c2 1ab8 6180 d33f bd29 6203 f398 a43f
000005a0: 2241 0b38 92bb b73f 7642 f168 4bed cd3f
000005b0: c463 5965 3156 b63f 2082 f771 06b2 cc3f
000005c0: a604 13d3 018a ce3f 99c8 68ca 5a72 c43f
000005d0: 3253 e2ec 04fe b73f aa0e 397b ae92 bd3f
000005e0: 16f2 ba2a ca5b 983f 3211 7d87 a173 8a3f
000005f0: d873 f4de 4cc6 bb3f b1f3 9559 cf2a d63f
00000600: 232f 212f 029c c43f 3146 dace 1ab7 9c3f
00000610: 8865 8e52 ca67 94bf 1dcf 626d 4f46 b13f
00000620: 35d9 fcce 7a67 bd3f 0db9 24a4 00be cd3f
00000630: 9b78 ed02 84df ce3f ef04 bebc 20df b83f

fc2.weight f8 [100, 200]
0.027433304475079894 0.0660315733311109 -0.03472942732920223 -0.026426445409591288 -0.06252490759351086 0.027888483631821715 0.020377668642735425 -0.03472900252716241
-0.08445325955231626 0.019756967325620163 -0.017853268801912424 -0.04130632266622952 -0.037298293720762925 -0.015031610901353796 -0.09723832949917846 -0.09483005785339142
0.01830089501394216 0.037838899161669465 0.007322249712729958 0.025204780345672206 0.02992527573810055 -0.09339972818879924 -0.04882186296966096 0.01819426889905933
0.07928183677095013 -0.0006364251492658872 -0.01587161113017634 0.01684520308312419 -0.05304137173053906 0.014431511346318258 0.022090712212935754 -0.013180125288502575
-0.12788452827269586 -0.08948229301800398 0.012849015177417994 0.018404616494059264 -0.08122062474556165 -0.019049458853613654 -0.06521521899937646 -0.05476206232160446
-0.0026257883261066317 -0.05903697247385869 0.052670517234638274 -0.08529765263194683 0.004192168449624435 -0.05600085670470465 -0.007102998104418624 0.01562784746850749
0.02911446759749057 -0.10878505497675003 -0.08350049408296023 -0.042702181731395464 -0.10046497287640546 0.012531507696243142 -0.02309847656846435 0.04096774685114714
0.013797722414350917 -0.0227153015622752 -0.1031296179479171 -0.0447665182948059 0.04705082187139933 0.0628414355822401 0.00489020981337043 -0.05600011863510448
0.061996035883161424 0.06669586828676091 -0.03795867887765615 -0.027746837375806962 -0.028188165597482873 -0.06178523096916044 0.04297531585214396 -0.028603419048867738
0.04210830281382171 0.02999932198458507 -0.09738714540541112 0.002957749135232248 -0.06934389027355183 -0.02594133194234723 0.03647688512989196 0.017630731307665234
-0.0552458317594255 -0.026913310452008968 -0.01978063259804881 0.021750351953701733 0.019608093103454627 -0.09481150320095741 0.006957861966201335 0.057910572135901894
-0.02097618271142172 -0.04004251109767451 0.01779800650477265 -0.11426728641840285 -0.0687859073209777 -0.07874890540702091 0.024927508160709433 0.03797057039629842
-0.060855363574400384 0.010847467461976245 0.043856031582613815 -0.062044586824414875 -0.029501021611462227 -0.07374050336307501 -0.09999512902933153 0.06862837216619914
0.007048976942658001 -0.09316726654538787 0.05828893458632718 -0.09004388205538284 -0.12193701683937684 -0.07186635112111835 -0.08840160433053988 -0.10909249680597921
-0.03114452683716329 -0.006385182379792258 0.03685946936131565 -0.03669195196335839 -0.04286749024700332 0.05624498395488149 0.0678748996996027 0.007997288190051495
0.037008664380255844 -0.03093899302574177 0.01662131937220185 -0.007933491025159601 -0.04305894543019223 -0.08684922910614534 -0.04406849520387142 -0.08261474671539973
0.0148801112330067 -0.0714362320174604 -0.019734428064205136 -0.011614874761869983 -0.0187508829409752 -0.01624998321034109 -0.05212666118388895 0.04078982920531668
-0.08683282455347434 -0.06445206719956324 -0.09885690710610803 0.00789366071914271 0.0691650036793441 0.046241404608685095 -0.038250687563583304 0.003945179963506139
-0.03648477419628153 -0.05875308551545829 -0.12700607154499588 -0.0637115998583705 -0.003841610966156757 -0.0013014532372681658 -0.04991538344680574 0.07901585267452327
-0.018182051349609322 0.018835091909312502 -0.057417907999973046 -0.02842638224862549 -0.00023544343562479164 -0.00729086138108973 0.009673268359827299 0.002193542351616796
0.08597169654739023 0.09030520512616669 0.021403440945152834 -0.0029230270760697593 -0.013896405831148309 -0.0402827637559932 -0.04465098518157079 -0.09921012258118457
0.04372674731944411 0.011237629132717107 0.008223093883485659 -0.06484630240756462 -0.09581193172269063 -0.0364926977731951 -0.008030858794640817 -0.03653575185107192
0.0204701720470435 -0.034778596437540936 -0.03505474383464695 0.00761128737998727 0.004479061050259092 -0.05070072649241106 -0.029196293807124643 -0.045819985467785686
0.01078695863006147 0.0643952007560479 -0.02133269398414992 -0.040726208908977796 -0.04719367414940955 0.053242106854162974 -0.1289207562994591 0.01516068319692429
-0.024381602021437417 -0.03432784924813294 -0.0386066046317612 -0.044441255851995744 0.015871955477887403 0.02889318784988438 -0.005795563097512455 0.02829412481620841
-0.030262563037674432 0.05374925372988195 0.08991075599454997 0.10265024763023832 0.08863154846000044 -0.060906439384474674 0.0713252446401529 -0.03906552745407558
0.07588131208053063 -0.03810551778872769 0.06074295393042449 0.03945593209978821 0.01843929964816194 0.04292205335791608 -0.052706606136485444 0.02547222469922505
0.08873955482642443 -0.002864882091852357 0.029248533164544486 0.08158133759702094 -0.08567282904183836 -0.07639318625401573 0.061821833741692075 0.06822899656140748
-0.10321801830212964 0.06421865937708192 0.02741329642658982 0.022536762845181867 0.07972274227353018 -0.00520920192509954 0.07861762729370471 0.04090149730974754
0.017137206619010335 0.03071351676157306 0.09378771187652567 0.10990636300529978 -0.041810823241851626 -0.011788456372076922 0.012246525514362611 0.019125650968738993
0.05582952192547338 -0.11526950646360355 -0.07331623697359978 0.10527738037434432 -0.07035623024399881 -0.031388081987944065 0.07109900622897863 0.011627763487506307
-0.05687851196770084 -0.017290179856154397 -0.07355496659476239 0.004065402239953099 0.05119122601078598 0.05169481184230702 0.036460693936523514 0.011692301671693068
00000000: cbad 2ae6 7917 9c3f 6ae6 f5f7 71e7 b03f
00000010: 3ceb 2c35 0ec8 a1bf 8588 22bb 880f 9bbf
00000020: 63af 4ce1 a101 b0bf 1dea 8874 cc8e 9c3f
00000030: ad9d 8e31 e2dd 943f b55a 27f4 ffc7 a1bf
00000040: 355b d193 ba9e b5bf 8270 20a2 2b3b 943f
00000050: 860d 8696 2048 92bf 985f f031 1a26 a5bf
00000060: e75d 740f c318 a3bf 9ff1 d1a9 e4c8 8ebf
00000070: 5adc 1d75 9ce4 b8bf 8379 285d c846 b8bf
00000080: 1f26 4a46 78bd 923f 8cff d4c4 9e5f a33f
00000090: 5c04 ca70 effd 7d3f 236d 262d 48cf 993f
000000a0: 3fc7 7942 bba4 9e3f deb3 066a 0be9 b7bf
000000b0: 51a8 91e1 2dff a8bf 8d98 95b7 84a1 923f
000000c0: 3819 1980 d04b b43f 7fd8 e999 b8da 44bf
000000d0: e5ab f4ca a540 90bf 9c92 5871 de3f 913f
000000e0: 75d5 d519 3d28 abbf ff43 1daa 448e 8d3f
000000f0: 95e7 ff99 f29e 963f 5306 9278 2efe 8abf
00000100: 263d 4c2d 855e c0bf c45a 15c2 4fe8 b6bf
00000110: c354 c89f 9550 8a3f 8ce7 bfe7 a8d8 923f
00000120: e5f9 0af7 dfca b4bf 038e 218b b381 93bf
00000130: d2c5 cdd0 f1b1 b0bf 3732 77e5 c509 acbf
00000140: 403f 945f ad82 65bf 0766 0f14 183a aebf
00000150: 07ec f849 a1f7 aa3f dcd2 7a24 11d6 b5bf
00000160: f552 3fa6 ce2b 713f 0d7b 30f0 24ac acbf
00000170: 0e11 fe88 0818 7dbf 52ef 2217 bf00 903f
00000180: 3acb afd8 2ed0 9d3f 2630 6b5d 56d9 bbbf
00000190: 8041 49d3 4960 b5bf 7a25 0274 0fdd a5bf
000001a0: eace e58c 12b8 b9bf 8fab cc7d 1eaa 893f
000001b0: 8cc0 cb85 20a7 97bf 623d d579 b9f9 a43f
000001c0: 2a3c 3bf4 fa41 8c3f c2a3 5015 ae42 97bf
000001d0: d1d4 55e0 b366 babf 4b5f 1018 a3eb a6bf
000001e0: b30a 609a 0b17 a83f 39cf a856 6016 b03f
000001f0: 9d0a 81b3 c107 743f 0344 382c 0cac acbf
00000200: b61b 33c5 f1bd af3f 02e9 11fd fa12 b13f
00000210: 12ff c1e8 516f a3bf 7fd6 62bc aa69 9cbf
00000220: 6d6e 80c5 5bdd 9cbf e0d5 c654 50a2 afbf
00000230: 9d8e 3d50 dc00 a63f b984 79f5 364a 9dbf
00000240: 6f6b f32e 388f a53f 36ca 4d6b 24b8 9e3f
00000250: 5d29 912c 5dee b8bf b86e c779 d93a 683f
00000260: 49fe e66c 85c0 b1bf 556e 3a51 5d90 9abf
00000270: 3abb 6229 19ad a23f 9fe3 7b59 ca0d 923f
00000280: 394a 4b81 2e49 acbf 84b7 dfb0 298f 9bbf
00000290: 5447 69c8 5f41 94bf 1143 4569 b945 963f
000002a0: 100d 77da 2414 943f c65f 8811 9145 b8bf
000002b0: aec7 84d9 d87f 7c3f 802b d55a 74a6 ad3f
000002c0: 933f f6ca c77a 95bf 3c7c 3ab7 7380 a4bf
000002d0: f1eb 7cff a339 923f cd71 2bf2 9e40 bdbf
000002e0: 8a89 5e06 f49b b1bf dda6 5165 e328 b4bf
000002f0: 80b9 48c1 9886 993f d808 20ec e070 a33f
00000300: b42d ad28 6f28 afbf e6ea f26f 3237 863f
00000310: 0964 c23a 4c74 a63f e700 9cde 4ec4 afbf
00000320: 8f4b 140c 8435 9ebf 97c1 555a a8e0 b2bf
00000330: 22b6 f0e0 4799 b9bf 2313 0806 a191 b13f
00000340: cb09 0657 63df 7c3f 88c2 de5a cfd9 b7bf
00000350: caae 8817 0cd8 ad3f f1fb a1a8 1d0d b7bf
00000360: 7736 7fab 4337 bfbf 9d80 bf4b d565 b2bf
00000370: 577b 83cf 7ca1 b6bf 504a 0562 7ced bbbf
00000380: c02b dcd0 59e4 9fbf 12d5 0058 5927 7abf
00000390: ecd6 e88e 3edf a23f 9f05 6b9b 49c9 a2bf
000003a0: 114f 5849 baf2 a5bf faee 4c7d 24cc ac3f
000003b0: c8d7 6dda 3f60 b13f 3119 ddd9 e160 803f
000003c0: ff19 5db6 ccf2 a23f 41ef ddac 78ae 9fbf
000003d0: 91db 7adc 2d05 913f fa27 f823 6f3f 80bf
000003e0: 8889 d874 d20b a6bf b096 b146 c03b b6bf
000003f0: ba7e 5e53 2590 a6bf e259 4f73 3d26 b5bf
00000400: 4154 dab8 7679 8e3f afb3 4318 a549 b2bf
00000410: 0769 900c 4335 94bf 51b4 fe19 8ac9 87bf
00000420: edac 0274 6e33 93bf 3dbd cbe9 d5a3 90bf
00000430: cca6 1182 58b0 aabf 4c7c e48c 67e2 a43f
00000440: ab2d ad0d ad3a b6bf b31e c840 ee7f b0bf
00000450: 3e23 01af af4e b9bf 1d54 1335 8d2a 803f
00000460: d19b d434 ccb4 b13f 51e3 0711 f4ac a73f
00000470: 612c 4518 9895 a3bf cbb3 b82e d228 703f
00000480: c62f f3df 21ae a2bf 9bed a769 e214 aebf
00000490: d0ef d625 bc41 c0bf 787d c445 674f b0bf
000004a0: f7cb d52e 7178 6fbf 2684 d8c5 b052 55bf
000004b0: 3852 f156 828e a9bf 1046 1a07 623a b43f
000004c0: f1dc aecf 509e 92bf 3513 129f 8149 933f
000004d0: 0116 214a e165 adbf 42e0 6738 ce1b 9dbf
000004e0: 8354 4eb6 2bdc 2ebf a62d 10b3 05dd 7dbf
000004f0: 84d2 011a 94cf 833f 9ce5 3315 31f8 613f
00000500: 407c 0db9 3d02 b63f c8ea acee 3d1e b73f
00000510: 2e73 869b c8ea 953f 472b 4e36 08f2 67bf
00000520: 5b22 9d04 b875 8cbf 1656 d941 f19f a4bf
00000530: f894 2d72 7edc a6bf 4118 eba7 d565 b9bf
00000540: 8b1a 652b 5a63 a63f 4c74 e00c c103 873f
00000550: 4f7d 69fa 44d7 803f 6865 1b6c c499 b0bf
00000560: 4fc7 5079 2187 b8bf 3316 f5be 2baf a2bf
00000570: bae0 0d9f 7b72 80bf 8d95 ab66 d0b4 a2bf
00000580: c332 f1fd 21f6 943f 479c 990c 80ce a1bf
00000590: 86ce ad04 b2f2 a1bf 6e40 0a66 032d 7f3f
000005a0: 8d74 a4cb a258 723f 7c31 5614 72f5 a9bf
000005b0: 8497 431c a2e5 9dbf 25b7 2c96 b775 a7bf
000005c0: e5ba 5014 7917 863f 9a3e 4431 347c b03f
000005d0: 9a70 fddb 3cd8 95bf ac4f b5ce 10da a4bf
000005e0: af7e 19ee c429 a8bf 90e3 6aa7 8c42 ab3f
000005f0: 3477 0ab0 7980 c0bf 305f 2074 900c 8f3f
00000600: 5282 399d 7df7 98bf 42ba b97b 6b93 a1bf
00000610: fa24 9bb0 3ec4 a3bf 9d79 f418 01c1 a6bf
00000620: b4eb cde6 bc40 903f 42db 9103 2d96 9d3f
00000630: 4a97 739f 16bd 77bf a0aa 0493 22f9 9c3f
00000640: aee8 283a 26fd 9ebf 5393 e8ad 0585 ab3f
00000650: 6d23 8e2c 6404 b73f 6788 7f60 4947 ba3f
00000660: 0190 07a2 8eb0 b63f fb53 8bfa 202f afbf
00000670: e1d0 1b09 5f42 b23f d5ea a195 6500 a4bf
00000680: 6171 c329 f56c b33f 3b43 6601 9182 a3bf
00000690: 5eed 2f51 b319 af3f 39ea 0064 9133 a43f
000006a0: c2cc cc73 c0e1 923f ed19 e61e e1f9 a53f
000006b0: eb59 473b 5cfc aabf df7b 2810 6415 9a3f
000006c0: cc51 d7ad a2b7 b63f 5d5d 86dc 1778 67bf
000006d0: 093c 97d5 53f3 9d3f a271 f1b8 83e2 b43f
000006e0: 77f7 e38e a7ee b5bf e225 99fc 808e b3bf
000006f0: a6d9 3284 1ca7 af3f 99c1 de9c 7477 b13f
00000700: 0130 f7fc 7e6c babf af49 d151 a270 b03f
00000710: b7d2 822e 3b12 9c3f 93d4 828d e013 973f
00000720: 8aef cfaa b568 b43f f547 817e 3e56 75bf
00000730: 9196 1dea 4820 b43f 4c08 9b82 0af1 a43f
00000740: 89ce e477 6a8c 913f 7bf8 2438 5d73 9f3f
00000750: c7be 46b3 7802 b83f a9e5 baca d222 bc3f
00000760: 159b e26c 3a68 a5bf 7d07 b5d4 8b24 88bf
00000770: 5d2d 97d4 b414 893f c6a7 b3b5 ac95 933f
00000780: 5b77 a4e5 af95 ac3f 9fbb 7c68 4d82 bdbf
00000790: ef40 1158 dac4 b2bf 7163 b759 75f3 ba3f
000007a0: 1ec3 f7ab dd02 b2bf 6fa9 3e43 1912 a0bf
000007b0: 8c14 8862 8b33 b23f d556 3cff 4bd0 873f
000007c0: ba2a 7e29 2e1f adbf 73b8 1854 84b4 91bf
000007d0: d39d fb8f 7fd4 b2bf f5a3 a61a e2a6 703f
000007e0: d3ef 1d83 bc35 aa3f 3a9e 780c be77 aa3f
000007f0: a0fa 17e0 f9aa a23f 2aee 5b2a 22f2 873f

fc2.bias f8 [100]
-0.036512729730941475 -0.47996634491500556 0.46233031667724445 0.4410773069873252 0.5472889290683765 0.5136812544459406 -0.2581486939613601 0.426580937485353
0.4884395419590416 0.566038563191353 0.3594012967742879 0.4247847673005817 -0.4131971271872072 0.01854098391178315 -0.1093030540183261 -0.453628549100171
0.5170592788721659 0.5745130880354358 0.46889803622791804 0.27171965832149997 0.4818475679365041 0.4045783664244007 0.5089331079325946 -0.014697118148152393
-0.04092752370722423 -0.43061451644806653 0.44893311537666997 -0.3157002477355173 0.5248986343199796 0.15219569133951752 0.5435332661119151 0.47323479030546284
0.02155318193801628 0.525484712484906 0.4707302512642075 0.5654096901986885 0.09450698575092335 0.3912710866504829 0.3791976844197568 0.4076879461668523
0.4667123525878632 0.15481343656779595 -0.04096962807338323 0.43091157516086614 0.5245384678644406 0.4928840797920257 0.5112828597463889 0.40274161865129526
0.5052322220092471 -0.06564803020572317 0.5652343144593839 0.5035667006898663 0.5564215521909047 0.4217414956615416 0.3823165743858703 0.564298041556203
0.5538663066703976 0.37855514214173025 0.04877885468904287 -0.3811514775327906 -0.42971171292635246 0.06050045990666829 0.5437534731218864 0.4127525076305267
0.41764484876939834 -0.03504925877576756 0.5442219925699121 0.5555275870972258 0.4717805648768966 -0.03768212352260674 0.5014220772573029 0.0970618190122911
0.46735653950026196 0.5338378728125865 0.042527304309467884 0.08194818563891522 -0.08219824392854817 0.5119659264994048 0.4534140859082558 0.47842641481503956
-0.18816591020083773 0.39217560176975175 0.5097065437447575 0.01639304172548237 0.47583363483303365 0.5352478809422815 0.47527286937934576 0.44265497483234634
0.17909028243383918 -0.03317277813722178 0.42272934346403757 0.11572208244608066 -0.5244514648594205 0.46929304046864706 0.4339881752748886 0.3198191128225731
0.4477829511782308 0.5582923644541781 0.529088646421883 -0.022287549758461492
00000000: 7506 2ae8 cbb1 a2bf 78cc a5c2 c4b7 debf
00000010: 66ff 84e5 d196 dd3f 0f2c 2150 9c3a dc3f
00000020: 24f8 7912 6483 e13f f63b 8dab 1370 e03f
00000030: 066d 8419 8285 d0bf e22e e621 1a4d db3f
00000040: 2e63 b2ec 9742 df3f 69d0 a5e7 fc1c e23f
00000050: 9046 f24b 6e00 d73f 2a47 d972 ac2f db3f
00000060: 477e 045d d271 dabf 3da7 255e 68fc 923f
00000070: ea93 5cf2 48fb bbbf d3b2 ba09 4008 ddbf
00000080: 6f2d 9be6 bf8b e03f ab8e 8745 6962 e23f
00000090: 647b b0e8 6c02 de3f e7f3 8ad9 da63 d13f
000000a0: 6e71 7c2e 97d6 de3f dc8f 1da9 9ce4 d93f
000000b0: 1b82 cd15 2e49 e03f a387 55ce 8519 8ebf
000000c0: 8657 a8cf 73f4 a4bf 7bf2 5430 308f dbbf
000000d0: 9b96 28f6 51bb dc3f c43d d7cf 6e34 d4bf
000000e0: edd1 8338 f8cb e03f 719a 72fe 257b c33f
000000f0: c3a3 47e0 9f64 e13f 953f ec92 7a49 de3f
00000100: a8ae 318e 0912 963f d675 d550 c5d0 e03f
00000110: 83ba 9ac6 7120 de3f e2d5 0710 d617 e23f
00000120: 7333 0b1d 9c31 b83f 6f30 42e2 950a d93f
00000130: 6f50 535d c644 d83f 7ba4 f02e 8f17 da3f
00000140: 1143 c07c 9dde dd3f 7e20 853b edd0 c33f
00000150: 91af 6899 f8f9 a4bf 3929 b224 0e94 db3f
00000160: 5318 9fe5 04c9 e03f 6340 dbaa 698b df3f
00000170: 0db7 33df 6d5c e03f 4f1b 36c8 84c6 d93f
00000180: ba48 cdc3 dc2a e03f 5fc8 c72e 4fce b0bf
00000190: d6c2 e545 6616 e23f c029 dae9 371d e03f
000001a0: 3f62 2e92 34ce e13f 6ae0 ce0a d0fd da3f
000001b0: 2830 edef df77 d83f a1c8 35c4 ba0e e23f
000001c0: 672e 30d5 45b9 e13f a6ce ce58 3f3a d83f
000001d0: a165 40c3 8af9 a83f 97d3 b42a c964 d8bf
000001e0: 4a84 6e8e 6580 dbbf de5a 6291 eaf9 ae3f
000001f0: 29a3 04af 6d66 e13f d75d 677e 896a da3f
00000200: f6ac b375 b1ba da3f dcc5 61f8 f9f1 a1bf
00000210: 5a41 7b3d 446a e13f d277 53ca e1c6 e13f
00000220: 2738 421c a731 de3f 97cb 5840 124b a3bf
00000230: 0300 ea4f a60b e03f 8c1a 591a 0bd9 b83f
00000240: 416c 2e67 2be9 dd3f 9e14 a329 3315 e13f
00000250: e874 648a 23c6 a53f 2d22 4969 8efa b43f
00000260: eb34 76b1 f10a b5bf ac66 df5d 0662 e03f
00000270: 6c63 a183 bc04 dd3f 7a14 4bd3 899e de3f
00000280: 1870 440f d215 c8bf 18f9 f8b1 6719 d93f
00000290: 131c fe18 844f e03f d923 5f68 56c9 903f
000002a0: bc75 fcea 0e74 de3f 15d0 fc29 c020 e13f
000002b0: 8043 aae5 de6a de3f ad43 1488 7554 dc3f
000002c0: d8d8 0a2d 6eec c63f 8504 6fba 05fc a0bf
000002d0: b834 4f60 ff0d db3f 2beb 875f f69f bd3f
000002e0: da22 3d70 4ec8 e0bf 5868 43ad e508 de3f
000002f0: d701 ea56 76c6 db3f 1b5b 8d95 ea77 d43f
00000300: 5514 c1d2 79a8 dc3f 9bfd ddf2 87dd e13f
00000310: 0124 2250 4bee e03f 2442 4825 8cd2 96bf

fc3.weight f8 [50, 100]
0.04983050629819245 0.06634412431292969 0.07443027685531303 0.08716754858119122 -0.031670614102637544 -0.02691277535109463 0.039218622914340466 -0.0867161936989214
0.04153240079172028 0.07396198730163073 0.03431998868166771 -0.03857986067743751 0.05317562968534698 0.01199031545845121 0.0839181912107162 0.06065180795707039
0.06772704728836017 -0.06621732116041204 -0.09591293136526294 0.006778161257313045 -0.04704771680498526 0.06703324386588876 0.03559087805568011 0.01666040936889762
-0.044846048779562886 0.06323620473430513 0.033162670207702145 -0.053380500841568916 -0.07062729687772064 0.008287915021975248 -0.042980311555597735 -0.03777256785554864
0.013184472762753995 -0.011426870719763898 0.07071672373112675 -0.08057098841246327 -0.023751763729913077 -0.0027632230565821656 0.04266535732283243 0.006201584272011871
-0.09444559908339555 -0.023720930345929998 0.037674621604012276 0.05991866016140918 0.07100445789690504 0.03648177770143757 0.06727772054397035 0.02332326477025537
0.0136968568203871 -0.028975495429989794 -0.016765119907384274 -0.008162517007250812 -0.10241356536342675 0.07596959395293193 0.037189198248304106 -0.031629211191634324
-0.0985690212554993 0.0769485743226052 0.09798084532420799 0.08246218125211013 -0.10668517266474609 0.08053321969291001 -0.020590933907930035 -0.021663471053062332
0.01379554305098703 0.13766473975098234 -0.023015731464733857 -0.10905022420273727 -0.09877846889891051 0.058515906435917406 -0.011032063773583057 -0.006577140375665383
0.0343379949604677 -0.0809129972682238 -0.07551807752739242 0.12082430247074319 0.009092751466303964 -0.052765217671147516 -0.09287134033529697 -0.08779662987962655
0.0187351136451497 -0.007575310455128592 0.062339452258761786 -0.04994883574788814 0.0908501028328344 0.06135757975524358 -0.062293911631287925 -0.058123377574073376
0.0011267754430755645 -0.09925104253062773 -0.08882610713380258 0.018793835570261413 -0.04262127683750061 -0.014349547108703755 0.040554354302310074 -0.11161034661111133
-0.06926104504876633 0.06540421694547383 -0.0008497066876181633 -0.10375736904147405 -0.10830797004402815 -0.25942537262960946 0.045702798592328724 0.13268026554930612
0.11888506769347532 0.05972417551996637 0.02449852851916709 0.02474699035033353 0.023433505951414194 0.14454701071121542 0.020973877861212742 0.023537641623910106
-0.08928084019992133 0.000435612869734263 -0.07259861900047115 0.0013718913330121477 0.030188590814004775 0.07281767230136103 0.008833394443230638 0.08842900281796595
0.022516151878117396 0.0368295672530742 0.05422582780351607 0.10233542688993123 0.11137774685019149 0.013454860632067795 -0.020662363675939103 -0.04011560167698882
0.09797435724220095 0.15750538068623363 0.048033823241557666 -0.006832325940855236 -0.023935012425231775 0.09077774794023612 0.04317187166929758 0.06273321206912338
-0.011699568178428545 0.02290593315799791 -0.03387814391943296 -0.0605903123617345 -0.0030505468180031196 -0.009550531859901727 -0.03273311827439399 -0.02229991505063367
0.13688792962588134 -0.057194662421532476 0.045627079249968394 0.04317906321190733 0.011378269219920092 0.037193247704960616 0.004785915965584615 0.10978776962228684
0.1054279912814776 0.009582511736364837 0.19590292343477242 0.10865272636424607 0.0699378334694205 -0.05309340998107827 0.11811317213948234 -0.08169619711734681
-0.1467760020051009 -0.03800349167811846 0.12759131151079256 0.10216217369339956 -0.03983055281993429 -0.031018374516944672 0.13934985337516623 0.08736351425678524
-0.041437505730146415 0.0021318655000609798 0.03948057020952505 0.03464941995260962 0.028246398759463852 -0.019553146033725766 0.17487647707050663 -0.010721103763761754
0.01706501805433613 -0.01821935052063862 0.016492488731368472 0.02699933068046546 -0.10863447117919403 0.037435318836238365 0.1361288682019909 -0.01080948924979242
0.07092675317349438 0.12407509110222313 0.07118884429740226 0.08963242066914048 0.1191078607184985 0.017018193395417675 -0.0698697031919904 -0.053453970079760764
-0.013338488185069598 0.05498994899868585 0.06174913202133762 0.08971676363680235 -0.02737861884318404 0.1454049225279259 -0.04506219540506246 0.030025952204133146
-0.08274511906149455 -0.33697517348697625 0.10499811362908487 0.05007767574685848 0.08250245975668029 -0.03525548825583081 -0.0011997828749951026 -0.030684379755891413
0.09481090361483943 -0.05678645444974214 0.020768701845573705 0.04874214112770875 -0.17257419690670078 -0.04326924363151437 -0.1394704584320099 -0.2020564869844561
-0.04867881763206918 0.08567319403657574 -0.06435070604024999 -0.08297999393434602 0.02169733545251663 -0.06797721536737401 -0.032160434510098486 0.24479592326615895
-0.10225287365226035 -0.0598016708160146 -0.029630478613959944 -0.22125989601224888 0.007288572119357254 0.2235206685499178 0.12294177222790532 -0.055555676528755364
-0.052839943313808195 0.10468314018515613 0.01063246386422003 0.045919097062814655 -0.045714168033212106 0.03876438977541435 0.03248384100092331 -0.06238599661543477
-0.05964231882842362 0.09940274869138221 0.012996050192216746 -0.06141145969904972 -0.013405469369682742 -0.03924991474056106 0.13442685239711014 -0.02214962787098503
-0.020995263992381254 -0.04104363443403401 0.05638823897804149 0.025242404007423353 0.005376610561673831 -0.014627332825432398 0.21283231720005227 0.027257453036775944
00000000: d5a7 c955 6283 a93f c0ae 34b4 edfb b03f
00000010: ea00 edd4 dc0d b33f c6bf 6dca 9c50 b63f
00000020: 2750 a177 2137 a0bf e901 e9c7 058f 9bbf
00000030: f75b 9f9d 7614 a43f a370 f84f 0833 b6bf
00000040: 31e6 3f1e bc43 a53f 5890 9b3c 2cef b23f
00000050: cb44 f9b9 6392 a13f 27a4 c94f bdc0 a3bf
00000060: 05b3 e20c d639 ab3f c927 1ae6 608e 883f
00000070: b81c ca9e a97b b53f 23df 3cf7 c00d af3f
00000080: ad7c 284d 8f56 b13f 020d d04c 9ef3 b0bf
00000090: 2230 7af7 bf8d b8bf 2ab4 d5ce 6ac3 7b3f
000000a0: 88c9 0e6a a316 a8bf c316 2636 1729 b13f
000000b0: b7f4 91b2 f738 a23f cf71 8225 6d0f 913f
000000c0: d0e0 b9b1 0ff6 a6bf d0ca 4177 3f30 b03f
000000d0: 41f0 fa8f b2fa a03f 879f b762 b054 abbf
000000e0: 0171 4b6a a114 b2bf 0873 c51f 41f9 803f
000000f0: 39a1 01f1 8301 a6bf 7444 400f ed56 a3bf
00000100: acf3 a5fa 7500 8b3f c3c9 4ba0 f866 87bf
00000110: cc98 b4bf 7d1a b23f a2e8 3ce0 4ca0 b4bf
00000120: 26e9 c4e1 6152 98bf 023a 1b15 e6a2 66bf
00000130: 2658 bfd4 3bd8 a53f 645b 1b1a d566 793f
00000140: b776 5037 962d b8bf f50e 44b0 4c4a 98bf
00000150: 4458 5b87 164a a33f b974 a09b a8ad ae3f
00000160: 1a94 8920 592d b23f f056 4154 bdad a23f
00000170: 145c 7cd9 1c39 b13f 6060 b2cd 0de2 973f
00000180: 31fd cf00 190d 8c3f 6360 0795 c0ab 9dbf
00000190: 60e9 dc26 e02a 91bf 0c22 cb7c 82b7 80bf
000001a0: ca15 e781 c637 babf 82ab 8449 be72 b33f
000001b0: bc5a 7b6c 760a a33f 622b 5537 b431 a0bf
000001c0: d2eb b0c2 d13b b9bf 7b7d 30da e6b2 b33f
000001d0: d549 4dce 4515 b93f 9877 a2d3 3d1c b53f
000001e0: b82d 902f b84f bbbf fd97 d238 d39d b43f
000001f0: 0e25 ea2e ca15 95bf c352 c3ee f22e 96bf
00000200: 695b e071 d640 8c3f 237b 8589 ff9e c13f
00000210: b3fa bc97 6f91 97bf 4a7d 922a b7ea bbbf
00000220: 1843 78b5 8b49 b9bf 8e49 e000 ccf5 ad3f
00000230: 1a5e eb88 fa97 86bf 10f2 08ad a1f0 7abf
00000240: 8a18 bbea bf94 a13f ab9e 16d5 b6b6 b4bf
00000250: 4ca8 3c19 2755 b3bf b281 ac6b 57ee be3f
00000260: 886d 6d71 389f 823f e21d 87e8 0a04 abbf
00000270: 1fcd 7989 6ac6 b7bf f831 0806 d779 b6bf
00000280: 0530 9231 4c2f 933f f3d4 96ea 4907 7fbf
00000290: 0d64 67e9 f4ea af3f 645a 05d0 e492 a9bf
000002a0: c458 81cc f341 b73f cf2a d2bc 426a af3f
000002b0: dd80 64d2 fce4 afbf f09d a0eb 58c2 adbf
000002c0: 5a75 63eb 0976 523f c550 c32d 8468 b9bf
000002d0: 51b1 2bc9 4ebd b6bf eb0c 90f4 b03e 933f
000002e0: d0fb 42bc 74d2 a5bf ceb6 5a9c 4b63 8dbf
000002f0: d7ac e052 8ac3 a43f ce06 97e4 7e92 bcbf
00000300: 3309 5f83 17bb b1bf f021 cdac 54be b03f
00000310: 081b 9e37 dbd7 4bbf d98b c0ca d78f babf
00000320: 4039 3c35 12ba bbbf 2598 cce0 6c9a d0bf
00000330: 0f57 9472 5b66 a73f 4cef adbc aafb c03f
00000340: bae9 b975 406f be3f 5513 47c9 2a94 ae3f
00000350: 98e7 286b 2416 993f d69b ea68 4657 993f
00000360: 518d c4f6 f3fe 973f 279f de35 8480 c23f
00000370: 00d4 ef1d 2d7a 953f 75a7 ff63 401a 983f
00000380: a86c d1f0 1bdb b6bf 4f50 7b07 5f8c 3c3f
00000390: 687f 57b6 d295 b2bf 4949 2c1a 217a 563f
000003a0: 12ae 0809 c2e9 9e3f c7ed 1ad1 2da4 b23f
000003b0: 0e83 f821 3e17 823f 80fd 1e7b 48a3 b63f
000003c0: c00a cb5f 790e 973f 336d c135 53db a23f
000003d0: 757d 07da 7cc3 ab3f 6fe6 b68f a732 ba3f
000003e0: fd46 3984 4083 bc3f 3d83 18d3 388e 8b3f
000003f0: 4120 fcc0 8328 95bf c328 863a 088a a4bf
00000400: 01ae 33f4 d814 b93f 4fe6 7ee5 2229 c43f
00000410: 6c42 d9a7 e397 a83f 6a9d 8b87 36fc 7bbf
00000420: 8105 627e 6b82 98bf c39b 9be2 353d b73f
00000430: ef7d daa1 9f1a a63f 26bd 35a6 480f b03f
00000440: 411f a175 f1f5 87bf 381d 3127 a774 973f
00000450: 4ac5 5de0 7958 a1bf 2e9d 1884 b105 afbf
00000460: 3406 2fda 75fd 68bf bc41 fbaf 3a8f 83bf
00000470: 6520 f830 65c2 a0bf e15a 62f7 c9d5 96bf
00000480: 6feb 7a2e 8b85 c13f 5f65 3669 9e48 adbf
00000490: 3898 61ba 6e5c a73f 1eef bbf0 901b a63f
000004a0: a824 7a71 7d4d 873f e6b6 0c4d fe0a a33f
000004b0: 6181 db88 659a 733f 0e4c 0720 0d1b bc3f
000004c0: 270d a32e 54fd ba3f 0b77 2bf4 fe9f 833f
000004d0: ffeb abd4 5813 c93f 710d 5b42 aad0 bb3f
000004e0: df16 8123 72e7 b13f a2f2 0037 0f2f abbf
000004f0: 7fde 9033 aa3c be3f 5b9a d3be 0aea b4bf
00000500: 7d8a 3958 8ec9 c2bf 015c c893 3175 a3bf
00000510: 32a7 187f e954 c03f a2c3 e6da 4c27 ba3f
00000520: 1e87 7c93 ab64 a4bf a15d 80e0 47c3 9fbf
00000530: 1f70 794b 37d6 c13f b0b5 988c 745d b63f
00000540: 46a9 e0f7 4b37 a5bf 4a7d 4593 d876 613f
00000550: f732 c11b cc36 a43f 102d 0b9b 91bd a13f
00000560: f64f 9bbb 9fec 9c3f 10bc fe6a bd05 94bf
00000570: 36c3 ed36 5a62 c63f eeca 5630 f2f4 85bf
00000580: bfcc cbf9 7d79 913f 23e0 8fea 17a8 92bf
00000590: ca6a ec2e 68e3 903f 435d 2569 b6a5 9b3f
000005a0: 12d2 eefc 77cf bbbf 5ae4 3bdc b82a a33f
000005b0: ad09 7cb6 ab6c c13f 43bb 8316 4923 86bf
000005c0: c7a7 4a75 4128 b23f c742 889a 62c3 bf3f
000005d0: d1ed 189e 6e39 b23f 0a6e 6f7b 26f2 b63f
000005e0: 6d83 7b4e da7d be3f 8502 48a0 376d 913f
000005f0: f2d9 301a fbe2 b1bf 87f9 aa9a 515e abbf
00000600: 9a7e 4394 3551 8bbf 86ba 1d81 a427 ac3f
00000610: 7512 2d0d 959d af3f 5f18 b985 adf7 b63f
00000620: 9f1c 2a02 2409 9cbf 57a9 77e5 a09c c23f
00000630: f9f5 195f 6412 a7bf 97f6 fd8a 1fbf 9e3f
00000640: a3d2 45bc c82e b5bf fa30 6c51 0091 d5bf
00000650: 7ab9 2d08 28e1 ba3f 8c55 2ff7 c7a3 a93f
00000660: 6b97 7e96 e11e b53f 9169 20e2 010d a2bf
00000670: c945 770d 41a8 53bf d7c9 32de b96b 9fbf
00000680: 2e77 5402 8745 b83f cb53 6f39 1d13 adbf
00000690: ab15 d4fc 6344 953f a83a 29dc baf4 a83f
000006a0: e282 ec49 e916 c6bf 6ad8 a3e4 6227 a6bf
000006b0: 409f dc00 2bda c1bf 607d c5a9 fcdc c9bf
000006c0: e3b1 7913 6eec a8bf abec 87ae adee b53f
000006d0: a3d9 eab1 4979 b0bf 6c98 2b48 2d3e b5bf
000006e0: a331 b788 d337 963f d942 e06c f466 b1bf
000006f0: 195d e41c 5577 a0bf d0a6 4f0a 7955 cf3f
00000700: a22b 428c 3e2d babf 0d48 cd18 539e aebf
00000710: dd77 72c2 7357 9ebf f6fc a488 3e52 ccbf
00000720: 51e0 312e 9fda 7d3f 3073 b344 539c cc3f
00000730: 6df8 07ab 1c79 bf3f 4fa8 982b cb71 acbf
00000740: 171d e948 d60d abbf 29af 89a7 83cc ba3f
00000750: ccf1 9424 79c6 853f 3714 4b38 b582 a73f
00000760: c93e 55f1 d867 a7bf 176b ab14 edd8 a33f
00000770: 15af 7ed5 b8a1 a03f 2221 62ae 0ef1 afbf
00000780: 1ec0 a621 7089 aebf 0012 c362 7572 b93f
00000790: cd05 6c54 ac9d 8a3f d29a 03a6 5271 afbf
000007a0: e616 3ea4 5374 8bbf 51ed 5c98 9018 a4bf
000007b0: aff9 5f2b e634 c13f d53c 4c5d 64ae 96bf
000007c0: 5a66 df50 c87f 95bf ced0 34d7 ab03 a5bf
000007d0: 4456 9454 ebde ac3f d5b9 bc0e 25d9 993f
000007e0: 8a56 69e8 c805 763f c94c e760 eff4 8dbf
000007f0: d5fb f3e0 163e cb3f 3cf9 75b5 60e9 9b3f
