weights/numq/gspc/numq_^GSPC.pt (torch, 526847 bytes, 8 tensors)

fc1.weight f8 [200, 200]
000000 f8 c9 99 23 5c c1 9a bf ba ff 58 dd 8f 7a 78 bf
       -0.026128234551331148 -0.005976259204146512
000010 75 fe a8 3f 1c 32 a7 3f 66 f1 a9 4d 87 36 b0 3f
       0.04530418660260419 0.06333203931894146
000020 c2 82 9c c3 98 58 b0 bf 51 76 16 a3 d5 7a 8b bf
       -0.06385187888782709 -0.013417882003348288
000030 78 08 67 d1 bf 10 7d 3f 15 92 31 d0 de ba a0 3f
       0.0070960514917165415 0.03267570773531162
000040 09 c6 59 e5 7f 98 ad 3f 48 43 0a 5f 08 cd 60 bf
       0.05780410456362623 -0.0020508922101004946
000050 19 74 8d f0 a6 b7 7a 3f 33 56 32 6d 98 ab 98 bf
       0.006522800548592244 -0.024092084565003623
000060 13 93 c5 d5 d0 24 80 3f 48 2e e4 0f 4d 66 a4 bf
       0.007882720493122919 -0.03984299487100579
000070 72 6c ee f2 ac e9 76 bf 22 19 aa 81 7f a5 ac bf
       -0.00559394415077029 -0.0559501500875277
000080 99 63 b7 65 7f 85 a5 3f 2c 70 8a 4b ad 4f a2 bf
       0.04203413120894268 -0.03576413676384535
000090 3c 36 58 37 42 36 b6 3f 3f da 9c 94 8e aa 90 3f
       0.08676542140184379 0.016275623150443726
0000a0 7c f1 e6 6f f3 ee 90 3f ad 66 f0 25 0e 57 36 bf
       0.016536525444949643 -0.0003408822576048503
0000b0 ea 3e a2 39 92 a7 b4 3f 28 2c 7b cd 30 07 9d 3f
       0.08068193347048305 0.028347742597173348
0000c0 8c 31 15 55 50 22 81 3f 59 85 84 93 1d 25 95 3f
       0.008366229626198395 0.020649397019160663
0000d0 7e 71 e3 c2 30 e7 a0 bf 74 34 99 b2 45 89 79 bf
       -0.033013843336195045 -0.006234428650327851
0000e0 b5 cd 08 07 86 b0 9d 3f 83 c5 9f 81 4e 8e 50 3f
       0.028993696383805296 0.001010491052962998
0000f0 31 36 bd 04 6d 3e 86 bf 7d 8d 1c 55 ff 44 a8 bf
       -0.01086125536644564 -0.04740140832862048
000100 24 8e c4 eb c6 39 96 3f 13 dd 2d 3c d6 90 b1 bf
       0.021704776897548808 -0.06861628503053323
000110 b6 03 a5 b9 cd d2 a9 bf 09 9f ad 3b fb 97 90 bf
       -0.05043642893952642 -0.016204762952297922
000120 57 8c 92 b0 a0 ea 9a 3f 49 39 e8 47 10 0d 9c 3f
       0.02628565862381679 0.027393583668577724
000130 07 42 08 b0 74 13 a0 3f 0a 37 34 0d 9d db ac 3f
       0.03139843605834263 0.05636301790410243
000140 70 bd 31 bb 6a 5c 83 3f 12 9c 44 cc 44 00 58 bf
       0.009453615033833102 -0.0014649078230577523
000150 a6 8b 44 12 22 65 a6 bf 1a 77 85 99 97 73 9e 3f
       -0.04374033425326411 0.029737824197005748
000160 53 09 01 d5 eb 54 9b bf 13 7e ae 7e 2f 7f 78 3f
       -0.026691136241660484 0.005980668570287689
000170 b3 bb 68 76 6f 90 ab 3f c7 5a f5 e1 98 3b b0 3f
       0.053836329654920155 0.06340938107073689
000180 64 65 96 b6 80 04 8c 3f 4c e7 6f 2a e6 e5 b0 3f
       0.013680463382842852 0.06600798164427352
000190 2c 9f db b2 a8 59 9c bf f6 e2 16 59 12 9f a8 3f
       -0.027685771862621042 0.048088620543642976
0001a0 e8 56 08 c5 77 e9 58 bf 59 38 1e 64 11 e3 a3 3f
       -0.0015205068231173794 0.03884176585334904
0001b0 b4 37 a8 05 64 3c a4 bf 05 6a a8 f5 85 da b4 bf
       -0.03952324456268688 -0.08145940063005959
0001c0 44 4c 47 b1 36 55 b6 3f 68 dd 48 42 e4 4a a9 bf
       0.08723775699699937 -0.04939950284136324
0001d0 53 e3 ed f5 75 6d 99 3f 9f fa bd b6 fe bb a6 bf
       0.024831622252779195 -0.04440303784121124
0001e0 84 0f f3 89 96 5a 9d bf 49 a9 55 71 dd a6 b8 3f
       -0.028665878457800456 0.09629615799864157
0001f0 50 69 16 9b 54 50 95 bf 2c 68 b6 c0 40 e4 a5 3f
       -0.020814249006073482 0.04275705673644867
000200 0e 78 ee 8e 91 80 92 bf 27 3d c3 9a d4 b1 9a 3f
       -0.018068575238082522 0.026068994470560682
000210 95 95 c8 6a a6 8b ac bf 92 4e 79 f7 78 65 6c bf
       -0.0557529454565994 -0.003466354621005704
000220 be b0 3e 28 bb c4 b3 3f 99 63 60 ba b4 af ae bf
       0.07722062809506533 -0.05993428015808106
000230 57 5a cf 62 9c 58 9e bf ef b1 a1 5d c4 53 b3 3f
       -0.0296348986920186 0.07549693380287413
000240 30 c0 1b 74 b9 42 95 3f 3d 9e fe 38 48 4a 97 3f
       0.020762345992750564 0.022744301298784676
000250 44 d1 f3 f8 59 58 84 3f e9 8e 17 1e 7a dd a1 3f
       0.009934142026829414 0.03489286057791025
000260 ab 5c 68 4e 7d 14 75 bf fb 3b c8 bd 95 6e b5 3f
       -0.0051464934135971125 0.08371864207605022
000270 82 e7 b8 d9 65 8a a8 3f 28 73 32 d9 c4 9a 83 bf
       0.04793089182608325 -0.009572542074516813
000280 cb 95 dd b9 ca d1 b0 bf e8 19 d2 dc b5 45 9e 3f
       -0.0657011703275067 0.029562799074961094
000290 58 a8 c4 b9 c4 ff 9f 3f db 2c ff 57 c7 88 65 3f
       0.031249116743460398 0.0026286977226611503
0002a0 6f 89 e3 82 de b7 7f bf a1 f0 02 2a ca 7b a2 3f
       -0.0077437106940315545 0.03610069048724652
0002b0 a9 f5 b7 a6 53 ea 98 bf 31 00 31 aa a4 3e aa bf
       -0.024331385660834624 -0.05125917985469675
0002c0 ba ab d1 86 58 56 a1 bf ae 2e e2 f0 1d db b3 3f
       -0.033861891229057986 0.0775622094244521
0002d0 17 3c af 20 6e f5 95 bf cc 30 79 94 57 29 91 3f
       -0.02144405436029836 0.01675927013120386
0002e0 de 65 f2 df c2 6a a9 bf 96 73 26 d6 a5 d4 90 3f
       -0.04964264854170229 0.01643618697709178
0002f0 e6 62 2b d4 42 40 8a 3f 60 89 f7 8b 8c 4e a7 3f
       0.012817880725763908 0.045521156392868134
000300 11 0c fe 9e f5 9d 97 3f 4b 81 f6 92 fa d2 9a bf
       0.023063505009769673 -0.026195445270446965
000310 53 b3 f2 6e 74 9c a1 bf 2c 13 4c 7d 9d dc a4 3f
       -0.034396780532324776 0.04074566034799995
000320 5f dc e6 88 73 3e 89 3f 03 aa 41 62 7f 19 56 3f
       0.0123261476663698 0.0013488525373995814
000330 85 9d 95 40 8b 1e ae bf 1d 49 ae 84 78 51 99 3f
       -0.05882678187736715 0.024724848840898084
000340 7b 50 48 3c d0 9e 7a 3f a7 f5 14 96 93 2e 90 bf
       0.006499112529599778 -0.01580267528082904
000350 23 36 08 93 f0 c3 98 3f 1e 53 c0 ff 9e 8c b1 bf
       0.024184950803876625 -0.06855195754935692
000360 53 2c d8 fe a0 32 8e bf fa 1e b0 b6 c7 26 54 3f
       -0.01474500444148511 0.0012299490288131807
000370 7e b1 4b 08 1d 04 ab 3f f6 6a 30 c9 be a3 98 bf
       0.05276575781121816 -0.024062138585672486
000380 61 f8 12 98 3c 9d ab 3f 39 13 cf 7b 62 bb ae 3f
       0.05393399578450509 0.06002338181818918
000390 c9 c9 07 d6 68 46 a7 bf a1 e4 c4 3c bb eb af 3f
       -0.045459056975136365 0.062345362823586166
0003a0 f4 aa 43 60 79 2b 9a bf e6 53 98 92 52 ae 96 bf
       -0.02555646562624765 -0.022149362752390454
0003b0 71 27 48 7f 2c 78 9b bf d5 ea 72 cb ee f6 90 3f
       -0.0268256142317464 0.016566973845992223
0003c0 ef e8 7c c9 7c 91 9e 3f 25 5a 3c 3a 82 be 8d bf
       0.029851865575644728 -0.014523522760595384
0003d0 23 6d 54 d8 e1 db ab bf 36 e9 a9 59 4e de 83 3f
       -0.05441194310898314 0.009701358901328488
0003e0 60 b9 08 81 3b f2 a8 3f dc f4 6a 48 9d a5 aa 3f
       0.04872308683512716 0.052044787492812467
0003f0 fc e6 1c 77 8d 77 b9 3f 79 0a bd 56 d4 c6 5e 3f
       0.0994804778864839 0.0018784593221005382
000400 d3 db f3 3a 89 ae ad bf f9 9d 5f 28 1f 70 b4 bf
       -0.05797222942958737 -0.07983584151917701
000410 b1 37 88 4b 57 42 bb 3f 6f 91 c2 6e 82 1a a3 3f
       0.10648103326840787 0.03731162645388763
000420 04 72 36 10 f7 19 a6 3f 1b 27 e2 4e 82 d6 a0 bf
       0.04316684792431505 -0.03288657391483537
000430 2a 1d 2b c4 7c c0 a6 3f e2 c1 45 bc 00 76 a0 bf
       0.044437312074985094 -0.032150290472489976
000440 cf b4 da e2 5c bf 9c bf 81 12 ff 58 a5 e0 b1 3f
       -0.028073741289223627 0.06983407423747147
000450 a2 36 d9 f3 6e fe b4 3f 83 b1 12 90 e6 5b b1 bf
       0.08200734570820115 -0.06780854241760008
000460 fc 4c 07 fb 01 a9 72 3f b0 e9 75 27 84 4f a3 3f
       0.004555709587708675 0.03771603566834203
000470 94 de 12 f6 08 90 94 bf 15 ce 9f 33 74 5b 91 3f
       -0.02008069993891455 0.01695043149079652
000480 46 29 9a ea 70 cf 86 3f e5 7d 27 c5 95 45 9a 3f
       0.011137849959841472 0.0256560708602346
000490 3a 9b b4 69 d4 a8 52 bf cb ce c8 07 6a 84 82 bf
       -0.0011388849587292264 -0.00904162250763054
0004a0 dc b5 07 b2 a5 45 b0 3f ae 29 2c 56 30 52 b6 bf
       0.06356273266256757 -0.08719160178967542
0004b0 14 9c 88 38 2b 2b 86 bf b2 a6 09 93 92 5f 9b bf
       -0.010824525511521833 -0.02673176786848925
0004c0 41 f9 84 54 8b 2e 5b bf fc 03 ce f7 29 91 b6 3f
       -0.0016590462347064324 0.08815252590103734
0004d0 de 80 34 65 d4 7e 72 3f ed 24 b3 8c bd 88 b3 bf
       0.0045154854481383715 -0.0763052433495834
0004e0 48 b3 34 e6 52 c5 a9 bf 4a 1e aa 53 3b 9c ad 3f
       -0.05033358631258139 0.05783257862372844
0004f0 46 7f e1 71 b5 00 83 3f fb 99 2c 9e 91 69 b2 3f
       0.009278695619456944 0.07192335235286144
000500 13 38 88 00 08 c6 a2 bf 5d 29 a4 90 45 6d b1 bf
       -0.03666710859771185 -0.06807360440521877
000510 4d 01 20 06 ba 72 93 3f 66 65 c9 e2 82 4d 9a bf
       0.018992334960786384 -0.02568630704113186
000520 8d 5e 51 58 08 0c b3 3f 7c 6d ad e7 49 1b 91 bf
       0.07440235286900983 -0.016705660596341584
000530 67 9f 2d d2 32 0c a4 bf 40 bd bd 90 f9 00 94 bf
       -0.039155567318458755 -0.019534968814182152
000540 87 35 8a 0c e1 1b a1 3f dc 1b 94 79 62 91 b3 3f
       0.03341582563471506 0.07643714397646256
000550 f3 e7 0d 8a 5a 27 48 3f cf 84 42 db 4e 2d 8d bf
       0.0007371131979276843 -0.014246574465064303
000560 36 1b c1 48 54 7a 9a 3f ec 17 31 b2 89 fc a7 3f
       0.025857273998805407 0.04684858608429451
000570 4e 89 8d f8 53 12 a1 3f 13 fb 88 55 bd 36 b2 3f
       0.03334295662968377 0.07114775980242553
000580 80 b7 3f c9 da d6 40 bf bb 0e 0f f2 1c 94 a7 3f
       -0.0005138939181941055 0.046051888035007114
000590 f0 29 11 cb ef a3 a5 3f a4 3a e7 69 24 39 b2 3f
       0.04226636270375994 0.07118442140129361
0005a0 df cb 20 c4 ab 45 a0 bf b3 b8 8e b5 45 1c a1 bf
       -0.03178154725210169 -0.03341882554319522
0005b0 cc a7 d2 04 63 be 96 bf 63 66 17 59 65 d0 92 bf
       -0.02221064297615509 -0.018373092234332932
0005c0 32 68 7f 93 2a 92 b5 bf 6d 90 c6 ee 8c 9e 81 bf
       -0.08426157094018619 -0.008603192364553725
0005d0 23 11 50 9e c9 65 a2 bf 67 7b d5 d2 85 05 aa 3f
       -0.035932827544487254 0.05082338522583179
0005e0 b4 26 36 27 39 cc b8 3f 35 ab 72 c0 79 77 a8 3f
       0.09686619956314751 0.047786526434114775
0005f0 df 6f c8 9a 4f 40 97 bf 28 a0 45 85 03 a2 96 3f
       -0.02270626432628819 0.022102408417964764
000600 c1 ae 0b e6 41 75 a7 3f f8 96 da 8d d0 ab a3 3f
       0.04581647809194812 0.038420216861863865
000610 dc 90 6b f2 72 d4 a6 3f 7a 81 1e c4 30 60 ab bf
       0.04458960732680037 -0.053468250217750105
000620 83 2c c2 3a cd 3f a8 3f f1 06 4d 43 2f 4f 9b bf
       0.04736176817194695 -0.026669252855987705
000630 9d de ce 45 8c a0 91 3f b3 a3 2b 99 18 fc 9d bf
       0.01721400428843244 -0.029281982754500734
000640 08 a7 69 01 c9 f0 6b 3f c0 55 41 58 2a 1e b0 bf
       0.0034107137574225267 -0.06296028761547401
000650 02 9d 3c a2 9e c6 ad 3f d5 98 db cc d7 00 aa 3f
       0.058155972770970635 0.05078768134790016
000660 22 6e d1 87 91 72 73 3f e5 46 83 04 f5 73 88 3f
       0.004747932890576874 0.011939920616359465
000670 00 a6 ea 55 72 4a 8c 3f cc b0 87 52 5f 73 8e 3f
       0.013813870665518202 0.01486849279987048
000680 25 fb 24 56 63 1a b6 3f 32 18 95 e5 54 26 95 3f
       0.08634014943252717 0.02065403605708855
000690 d2 da 31 02 d0 b0 ac bf 67 95 39 4d 43 e4 98 bf
       -0.05603647257605861 -0.024308253849445374
0006a0 90 43 92 09 55 0a a6 bf 9b 7c 32 27 81 71 98 3f
       -0.04304757825696648 0.023870485322387763
0006b0 08 a7 c5 72 78 68 70 3f 3f 22 72 57 e8 f6 a3 3f
       0.004005880833895643 0.038993130373516476
0006c0 d4 50 0e 26 e3 02 a4 3f c3 4e b7 c6 ed a9 8a 3f
       0.03908452834653678 0.013019425989944882
0006d0 64 cf 58 cd 44 51 a0 3f 0b f2 71 43 44 57 af bf
       0.031870031420480754 -0.06121266673378408
0006e0 58 50 f7 38 8f 63 b7 bf 3a bf a9 d0 0b f1 74 3f
       -0.09136290684483706 0.0051126920248945554
0006f0 51 23 f8 d9 34 71 57 bf d4 11 46 b6 dd 0c 9e bf
       -0.0014307991149300101 -0.02934595513353762
000700 5c 90 95 d8 d8 9d 9a bf 54 e1 af dc 73 e2 ac 3f
       -0.025992763728382648 0.056415196122488936
000710 0b 15 bc 46 05 e5 9a 3f 7e 16 98 46 e0 e2 b1 3f
       0.0262642692969353 0.06986810420502285
000720 12 33 73 d4 74 72 9e 3f 51 54 4e ab c5 53 b4 bf
       0.029733491389197182 -0.07940326149248846
000730 93 af e7 a2 31 64 a3 bf ad 96 71 bc 13 ea 99 3f
       -0.037873793731562654 0.025306995751086237
000740 1e 8e 51 39 69 9b a3 bf 95 cd 28 a3 38 07 8b bf
       -0.03829506706895479 -0.01319736717150625
000750 67 ec d6 58 ec 53 94 bf 34 a0 f9 e4 27 36 99 3f
       -0.019851391718230717 0.024620650625735332
000760 53 a8 75 56 ed f7 aa bf c1 32 bb 3d 7c 6e 46 3f
       -0.052672783664846755 0.0006845575948886893
000770 67 c4 a8 fc 7a 63 a0 3f 77 30 59 af f1 c2 a5 3f
       0.032008975355332585 0.04250293031199786
000780 28 77 87 3a 1f 10 b1 3f 91 b0 e0 ae 83 54 b4 3f
       0.06665225199637048 0.07941458720660168
000790 ee dc fe 72 fd a2 a1 3f 08 0c 0e 30 87 ef 9a 3f
       0.03444664028887155 0.026304352100407186
0007a0 a4 32 60 77 10 55 9c bf 50 df 4b 19 6c 2e a4 3f
       -0.027668244634741726 0.03941667374414115
0007b0 84 dd 2e 96 fa e6 96 3f ce 68 39 99 d9 97 a9 bf
       0.022365489403197283 -0.04998664851582789
0007c0 4d c0 dd aa 82 06 93 3f ca 39 57 14 58 81 94 3f
       0.018579522780271685 0.02002465843343674
0007d0 48 d0 cb 1d f6 6c a7 bf 2d 5e c5 35 f5 39 68 bf
       -0.0457531844494104 -0.0029573239573144256
0007e0 9c f5 79 64 49 b8 79 bf bd 54 34 e8 6a 13 b6 3f
       -0.0062792651075346505 0.0862337891488378
0007f0 c4 77 5b 07 04 dc 9f 3f 7e eb 33 ed 34 5b 92 bf
       0.03111273093133328 -0.017926051118574808

fc1.bias f8 [200]
000000 fa e4 6a 27 80 d9 b7 3f f8 72 dd 63 38 cc c1 3f
       0.09316254579870878 0.13904480816099585
000010 12 ea 27 96 62 e1 b4 3f df 9b ee 33 ec b0 ba 3f
       0.08156410375514891 0.10426212566254332
000020 1d af 75 cb 6a 0b b1 3f b0 c7 b2 3f 47 5b c0 3f
       0.06658046214368736 0.12778559313079318
000030 e4 3f 36 d7 ad b8 b6 3f 14 64 67 19 a1 e4 b3 3f
       0.08875547889897423 0.07770735616885843
000040 0f 1b 80 54 81 82 c3 3f 26 71 37 0a 4c ec a8 3f
       0.1524202025031731 0.04867780327524178
000050 c9 15 b9 74 d6 dd a2 3f 66 a7 1f 94 5f cd b6 3f
       0.03684873747674151 0.08907124868679048
000060 b8 50 4b c3 b0 cf c0 3f 87 56 ce 12 85 9f a8 3f
       0.1313382104477847 0.048092039628653764
000070 c0 40 cd b8 ed 8c a8 3f b8 dc c5 4f 41 c3 bd 3f
       0.047950199898538326 0.11626060674267336
000080 5a 25 0b 0c ee 47 b6 3f 0b a4 2b 14 17 19 b8 3f
       0.08703506273299891 0.09413284532969628
000090 e2 ed 00 89 77 d6 af 3f 27 da 11 0f e1 36 bf 3f
       0.06218312785537329 0.12193113916314556
0000a0 fe 74 8b 5c 21 0e bb 3f 54 77 ff e8 8e 63 c4 3f
       0.10568436154740721 0.15928827645160004
0000b0 bf 76 84 bd d6 4c b3 3f 06 fe 28 b2 3c 28 ba 3f
       0.07539121748819876 0.10217646932232335
0000c0 53 50 43 a6 a8 32 be 3f a2 3f 62 08 83 f6 b4 3f
       0.11796049174455563 0.08188647226984228
0000d0 f4 d5 c6 70 ac 31 b8 3f e2 30 13 1a fd 4a b3 3f
       0.09450795892083602 0.07536298643680397
0000e0 0f 21 c9 99 df 66 a5 3f 83 98 c6 27 7b 2d c4 3f
       0.04180048706308714 0.15763797228027351
0000f0 d6 31 7e 2b f8 1e c4 3f 3c 02 0a 02 56 47 b8 3f
       0.15719511150054072 0.09483850049765236
000100 90 76 29 7a e7 a9 c0 3f de 0c f1 15 0c d7 bc 3f
       0.13018506493510928 0.11265636001285226
000110 c0 8c 34 e1 19 0f c4 3f ce d0 0e 36 a8 5e b2 3f
       0.15671084877349095 0.07175685233852677
000120 bd 7e 0c 3e 96 88 bd 3f 87 f0 c1 fd 34 a3 bf 3f
       0.11536540045608042 0.12358409114125567
000130 5d fb 95 69 fb 6a a6 3f cf 8e bb bd 3e db aa 3f
       0.04378495849504447 0.052453957234119046
000140 a1 d3 70 71 59 bb c0 3f 97 47 7d b7 0b 08 bc 3f
       0.130717449561101 0.1094977686855415
000150 d2 20 85 73 39 62 c0 3f ae b2 04 c1 82 11 c2 3f
       0.12799757137896123 0.1411593859169406
000160 92 0e ce 07 2a da be 3f ea 04 48 1a 1a 87 c2 3f
       0.12051642122792774 0.14474798472659894
000170 1c 2f 3b de 6e 68 af 3f da 1c 26 39 83 0c a6 3f
       0.06134363615782787 0.04306421349161278
000180 91 67 19 54 94 0a be 3f 26 ff 0e 5c b8 50 ba 3f
       0.11734892895893113 0.10279419181369728
000190 47 0d ec 33 1f 5b a2 3f 53 d4 e3 53 c1 83 93 3f
       0.03585145481886314 0.01905729364894555
0001a0 fa 3d c3 58 fa 40 c0 3f 3a eb ee 6a ab d3 c1 3f
       0.12698296865572428 0.1392721435675755
0001b0 96 ec 68 ae 04 25 be 3f ab f3 8d a4 df d9 bd 3f
       0.11775235422185157 0.1166057373756774
0001c0 5d f1 8b 51 63 0c bf 3f 23 c4 63 33 bc 31 8e 3f
       0.12128277531514216 0.014743299787797487
0001d0 28 3f 5e 6b bd 21 c4 3f 50 f1 0e 43 b6 30 b2 3f
       0.1572796606310416 0.07105578553359249
0001e0 fa ba 39 e4 65 d4 b7 3f 96 fd 6f 1b 40 16 bc 3f
       0.09308468648826454 0.10971451444492283
0001f0 3a cf 86 65 b4 0c ad 3f c7 7f f8 1f 11 c2 b4 3f
       0.05673755397165654 0.08108622580084478
000200 f5 67 50 84 f6 bd b5 3f c1 9f 36 a6 ab 6a b9 3f
       0.08492985468220111 0.09928391273444871
000210 26 c1 30 96 21 71 a6 3f 76 b2 ee 13 bc 5a bb 3f
       0.04383187254313929 0.10685325132971876
000220 a7 fb a6 ab eb 0e b1 3f c6 cd cb 5f f6 0c aa 3f
       0.06663392010430745 0.050880145257817186
000230 6b ec e1 63 be 46 a1 3f 53 1c a2 0a 5f 3f c1 3f
       0.03374285668629614 0.13474643725587274
000240 e0 6c 37 c9 fc 6f bd 3f 9b 3f 0d 97 c9 16 ae 3f
       0.11499004280578928 0.058767604531225724
000250 ed 14 18 30 10 f9 c4 3f 3d 50 37 42 2b 33 ba 3f
       0.16385080669730404 0.1023432766590426
000260 63 0b f8 94 98 6c b2 3f eb 0f cf 05 b2 49 b2 3f
       0.07196954380928626 0.07143700258080769
000270 6f 75 29 cd 6f 6e b6 3f cc c5 00 cd 8f d6 c0 3f
       0.08762263068043351 0.1315479041091251
000280 d2 1e dc 7f 7e 2b ba 3f 9c 4a 3a ea 0c 27 bc 3f
       0.10222616788461927 0.10997086256456118
000290 1c 99 4e b9 c2 f9 bf 3f 8d 92 5d 90 69 57 b0 3f
       0.12490479492280254 0.06383380674885526
0002a0 f4 69 49 f9 4f 6f bb 3f 48 89 59 44 e0 1e b3 3f
       0.10716724239447456 0.0746898810262212
0002b0 f6 71 ab 06 76 3e b2 3f 72 e8 59 f5 a7 5b bc 3f
       0.07126557982287082 0.11077356090564353
0002c0 d2 81 44 b9 7b 9b a0 3f 8f 3e dc a5 d4 e2 b7 3f
       0.0324362434059854 0.09330491113018467
0002d0 4a 6e 54 1e 34 dd b8 3f 47 d9 35 b3 f5 63 ba 3f
       0.09712529888604951 0.10308776498081783
0002e0 fe f2 1d c3 7f e2 bf 3f 58 cf 99 cd ba 34 9e 3f
       0.12454985154722562 0.029498022841337374
0002f0 02 b6 7c 28 c5 30 be 3f f2 8f e0 c4 fd fd bf 3f
       0.11793167341667046 0.12496934944698504
000300 fc ff ef 11 01 d8 b5 3f 93 0a 11 6f ab 7c c1 3f
       0.08532721221854439 0.13661711619541403
000310 6a 80 d1 a9 de 79 b4 3f c5 45 74 98 33 09 a7 3f
       0.07998458524662203 0.04499207721722657
000320 b8 17 57 b6 93 2c aa 3f e9 b0 62 75 38 66 ba 3f
       0.051121345527959716 0.10312226167542672
000330 d3 9e 5d 91 78 ba bd 3f d9 f7 03 32 16 ab a7 3f
       0.11612657116858864 0.04622716293850688
000340 aa 7c c6 e1 25 c1 ae 3f ca 0a 6b e7 e7 f9 b1 3f
       0.06006735211416843 0.07021951103073856
000350 41 90 df 08 89 70 b8 3f b9 c5 78 3f d2 83 ba 3f
       0.09546715227730919 0.1035739331207627
000360 62 dc 43 05 dc 6c 95 3f 47 c5 9c f0 5a 61 b7 3f
       0.020923078366618227 0.0913292729790288
000370 24 e7 47 a4 5d dd c3 3f 1e df e8 53 cb 9c ba 3f
       0.15519304772879494 0.10395499037337827
000380 92 15 7b d8 64 52 7d 3f fa 53 df f2 24 73 bd 3f
       0.007158655098185378 0.11503821305753084
000390 d6 fc 22 f5 5d 21 c1 3f b6 b7 a8 bf 15 74 b9 3f
       0.13383078069271076 0.099427565852891
0003a0 c4 67 ba 5c 6a 96 b2 3f 9b 09 ec c3 d8 b0 b0 3f
       0.07260765804167507 0.06519846709492187
0003b0 53 0e b2 01 7e f2 a3 3f 82 8e 82 80 26 c5 c1 3f
       0.038959443766569145 0.1388290526857539
0003c0 f3 46 2a cd af 65 ba 3f 10 49 c8 47 28 db bd 3f
       0.10311411627688098 0.11662532570361273
0003d0 64 0b 10 e6 d6 b9 87 3f 60 44 f2 ae c1 72 a9 3f
       0.011584929367023107 0.04970364819121964
0003e0 cd f1 d7 a3 f5 4c b1 3f bf ad e0 16 1f b6 c0 3f
       0.0675805592545153 0.13055790535996256
0003f0 03 81 8f ef 7a f7 ab 3f a9 0f 21 0a 79 3e bc 3f
       0.05462249922107001 0.11032825944226822
000400 07 ea 1f 13 57 30 b4 3f 99 b8 22 dc c8 3b be 3f
       0.07886261193190346 0.11809974073796282
000410 a5 e4 20 90 15 de bf 3f 40 94 bc cd 0c 1e b7 3f
       0.12448248642694411 0.09030227682940595
000420 fb c0 06 1b 0e 30 b4 3f a4 f2 81 91 0e dd b4 3f
       0.0788582626325968 0.08149806072646953
000430 ff 3a 67 12 cf bc b4 3f a8 57 f0 3a 6a d5 c2 3f
       0.08100599479005764 0.14713790777085234
000440 ab af e6 5e 70 79 ac 3f a5 88 fe 00 81 d7 bc 3f
       0.05561400564633286 0.11266332887911064
000450 18 78 74 cc 46 de b8 3f e2 ef f3 26 a7 5e be 3f
       0.09714167110038863 0.1186317892169764
000460 77 48 84 23 45 31 bc 3f 11 eb 80 60 77 87 b5 3f
       0.11012680165393528 0.08409830194515801
000470 f1 69 16 55 1b 21 9f 3f 4c c6 1e be e1 4f b5 3f
       0.030399729793865352 0.08325014964682359
000480 ea c2 4b 50 85 3c bd 3f fb dc cc 73 66 26 c3 3f
       0.1142047234568612 0.14960938123997622
000490 f2 91 bb 79 28 3e aa 3f b0 85 8f e3 cf 20 9c 3f
       0.051255478725383954 0.027468918098639328
0004a0 a7 dc 5e 57 4f e8 a2 3f a0 c0 c4 e4 98 29 be 3f
       0.036928634085989835 0.11782222352190042
0004b0 ec 78 4b 0a 7a 10 c1 3f 8d b9 5a f3 2f 2d ba 3f
       0.13331532957722148 0.10225200358647708
0004c0 ac c6 b9 ce 24 61 bd 3f a0 11 c8 e7 f1 d2 a6 3f
       0.11476354643834935 0.044578132194178055
0004d0 8e 2c 38 71 bf 1c b6 3f 32 38 86 08 9e 7e b2 3f
       0.08637615694185483 0.0722445269404666
0004e0 b4 ed 8e ca 82 ae c0 3f ec f9 c3 76 ee 65 c4 3f
       0.13032565012495712 0.15936070250604872
0004f0 58 8c 5c ad f6 b7 c0 3f 91 47 2a 26 88 35 b8 3f
       0.13061412300985142 0.09456683093801944
000500 b5 aa d8 76 83 f9 b0 3f 1e 80 ad a5 ff dc bb 3f
       0.06630727435610136 0.10884092135302167
000510 09 80 e1 cb c1 3b bd 3f 7d fc 5b 7c d8 fc a8 3f
       0.11419306972084099 0.04880405920084117
000520 04 fc 1e cd 07 3a be 3f d0 38 82 58 8b d8 c0 3f
       0.11807297475660056 0.13160840818131314
000530 f0 02 fe b7 0b 4c b6 3f 7d 2c 99 6b 41 63 bf 3f
       0.08709786645887241 0.12260826947128751
000540 4c 19 c1 6d 54 f6 be 3f e6 27 d6 c3 98 be ae 3f
       0.12094619445369864 0.06004788771231499
000550 68 95 99 5e 41 7f bd 3f 00 59 56 a2 ec c2 bf 3f
       0.11522301253861189 0.124068059571389
000560 4d 26 77 b6 d1 ea 85 3f ad 8e 12 f9 79 20 c3 3f
       0.010701788311865768 0.14942860280745177
000570 b5 7c 57 5c 9e 91 b1 3f 56 30 f2 d4 2b 05 be 3f
       0.06862821344792532 0.11726640652540374
000580 5f cf 7a 47 f3 db b5 3f ab 23 67 7e 13 42 be 3f
       0.0853874253760387 0.1181957419968415
000590 34 e7 fb d9 ad 28 c1 3f 59 d4 7e 18 f2 52 ba 3f
       0.13405392783880077 0.10282815073044684
0005a0 5d 02 82 c0 a7 7e c0 3f 4d 95 f3 9b 59 83 bb 3f
       0.12886521243855756 0.10747299249085991
0005b0 08 90 bb 14 ae f3 b7 3f 73 2c 50 a5 1e 1e b7 3f
       0.0935620117775785 0.09030334030119196
0005c0 fd 73 f7 90 f4 ea b9 3f 6c 48 10 d7 41 6b c2 3f
       0.10124138392662015 0.143898229609991
0005d0 9a e2 3e fb 55 e5 a5 3f 95 59 67 0b 0c 0c a7 3f
       0.042765318793901844 0.0450137866898103
0005e0 c4 23 c0 ce d0 8c ae 3f 40 d3 96 4d d8 e2 be 3f
       0.05966808818636296 0.12064887899653076
0005f0 be b4 ae 77 ad f4 bb 3f 25 93 6b 33 4d 7c b7 3f
       0.10920223400053694 0.09174044137359923
000600 88 9d 62 90 32 90 b0 3f e3 ce a5 af ed e3 b7 3f
       0.0647002794745416 0.09332166231416354
000610 c0 aa 21 89 67 c2 b9 3f ca f6 af bf fc bc be 3f
       0.100622626284955 0.12007121734492468
000620 40 c1 7b 52 9a cd a9 3f c6 4f 26 2a 30 e8 c2 3f
       0.05039675003888755 0.14771081979836093
000630 b7 e3 bc a3 d0 77 bc 3f 11 f6 c4 e9 ac b5 b1 3f
       0.1112032317877397 0.069178397247889

fc2.weight f8 [100, 200]
000000 09 4c a8 22 d0 d1 8b 3f 17 67 a8 5b a8 11 83 bf
       0.013583780343685363 -0.009311023041891837
000010 6d 2b d3 84 96 dc a0 bf 57 3c 8d 5c 69 9b 9c bf
       -0.032932952608084466 -0.027936598085315314
000020 7e 42 4a 77 55 15 a7 3f 1a c4 ee b9 96 a8 ad 3f
       0.04508463936975192 0.05792685527502091
000030 a5 76 c4 52 20 2b 8f 3f ce 4a 89 20 51 75 a3 bf
       0.015218975568639445 -0.03800443193599322
000040 4b 05 71 a3 9d 00 9d 3f 01 0f 3d 9c 5a f7 af bf
       0.02832266149585409 -0.06243403584679009
000050 90 79 ec 59 03 e8 9c 3f 1b d3 c2 04 90 1f 9f bf
       0.02822880970335856 -0.030393839159574925
000060 a1 4d 5e c1 84 14 aa bf dc 96 f9 07 1c 17 77 bf
       -0.050937794308221436 -0.005637273308456616
000070 fd 40 3f 64 22 21 5b 3f 2e d1 12 57 15 05 78 3f
       0.0016558490615246606 0.005864222869764553
000080 f7 e0 e3 72 c2 70 9a 3f 18 b6 bc 14 90 46 8d bf
       0.025820768606508584 -0.014294744141433433
000090 eb 03 69 17 fb b0 50 bf ff f4 72 04 1b e7 99 3f
       -0.0010187580170539733 0.025295660158680452
0000a0 e9 bf 24 7f ff 56 50 3f 72 f2 c3 cb bc 7f 9a 3f
       0.0009973044476048137 0.025877904831747185
0000b0 51 43 7f fe 30 49 74 bf df d9 0b c1 b4 61 76 bf
       -0.004952613242452512 -0.005464273520138423
0000c0 49 d3 de 81 e0 bd a1 bf 89 e2 0f 3f 50 0d 5b bf
       -0.03465177140552684 -0.0016511233955026924
0000d0 32 22 86 cf b8 f1 ae bf a1 98 72 59 09 77 b4 bf
       -0.06043794186831909 -0.0799413531663924
0000e0 97 6d 42 fa 71 a6 5b 3f 98 6d 36 47 84 9c 8b bf
       0.0016876328527704926 -0.013482125685917265
0000f0 72 93 44 c0 22 5d 98 bf 63 af 19 73 e9 e6 b1 bf
       -0.02379278467664698 -0.06992968616549215
000100 92 03 89 e8 c3 42 ac bf c3 1f 77 63 a2 fe a4 bf
       -0.055196878562589494 -0.04100520576645252
000110 23 71 00 d4 f8 a9 a5 3f 23 a2 cf a5 1a b6 64 bf
       0.0423124083319826 -0.0025282402480011497
000120 c4 3e f0 7b 4e 6d a9 3f f0 cd 39 db bc a6 ac bf
       0.04966206801338793 -0.055959607850038284
000130 d7 19 fc fb ee 18 77 bf 17 a1 80 21 99 54 a1 3f
       -0.005639012844545785 0.03384855779614975
000140 97 c8 88 04 f9 33 8f bf 28 de cb b5 b8 4a a2 3f
       -0.015235848856807883 0.03572632998651343
000150 8a 36 de 2d 79 f2 94 bf 82 f3 82 56 9e 31 a6 3f
       -0.020456212448655843 0.043347309170235895
000160 1d 5c b1 de 34 94 4d bf 4e 78 40 b8 ad 16 a0 bf
       -0.0009026773599413205 -0.03142302393119732
000170 28 66 c2 ea 4d 2b a8 3f af c8 2c c2 70 b2 8a 3f
       0.04720538607325536 0.013035660672901931
000180 87 9a dd e5 96 77 78 3f 63 1b 8a 9c 51 67 78 bf
       0.005973424382182408 -0.005957907481053268
000190 67 b5 ee f0 14 b6 94 3f e9 5a dc 6d f2 5b 96 bf
       0.0202258369496823 -0.02183512492691878
0001a0 8e e7 f4 f3 8b 5c 92 3f 13 9e 8e d0 81 4c a5 bf
       0.017931162609989885 -0.04159932776320487
0001b0 0c 58 df 70 a1 14 b2 bf 14 ae fe 29 ac fb ad bf
       -0.07062729840922105 -0.05856073391563768
0001c0 b9 67 32 4f 73 b8 ad bf 13 f3 c8 0c 2d fe ad bf
       -0.058047870080556625 -0.058579833803810065
0001d0 90 26 34 45 48 6b 9e bf 59 1e c5 d5 61 02 80 bf
       -0.029706124519214117 -0.007817043625109198
0001e0 64 ce ad bb 02 c1 6a bf 00 e8 77 61 1e 53 a1 bf
       -0.003265862787367445 -0.03383727016257865
0001f0 a9 c8 2b aa c5 5b 99 bf e2 39 8a 4b 27 66 7d 3f
       -0.02476414538518471 0.007177499290845964
000200 b3 b8 af 9c 95 e3 95 3f 1e b6 77 fd 97 ac 93 bf
       0.0213759781726643 -0.019213080258785202
000210 c3 a5 d5 e5 9c 90 66 bf 8e c3 66 2f 69 0b 74 3f
       -0.002754503670691051 0.004893694762743274
000220 eb 39 29 75 83 81 a3 3f b6 24 03 ba 55 6d a9 bf
       0.038097484638104216 -0.04966228385598852
000230 09 4e 32 1b 5f 86 a5 3f 12 cf 8e 1b 23 68 8e bf
       0.042040798253904006 -0.014847063330172303
000240 96 83 42 de 8d 49 82 bf 95 04 50 e1 0c e8 8a bf
       -0.008929355950671607 -0.013137913347238498
000250 8d 91 22 d7 e4 3b 91 bf a1 e0 e8 2a f3 63 8f 3f
       -0.01683003962593115 0.01532735800456947
000260 8d 28 26 cf 31 c0 62 3f b3 c8 6e 97 55 57 b2 3f
       0.0022889111361950655 0.07164511630142804
000270 c6 1d 15 ad 5e 65 a1 3f a5 39 9a 2a dd 75 ad 3f
       0.03397651541541395 0.05753985543298094
000280 e3 90 42 f3 14 49 ab bf df b0 79 16 73 b9 a1 3f
       -0.053291945166422904 0.03461799287183153
000290 df d6 bb aa de 75 a0 bf 01 38 2e 97 df 5c 7b bf
       -0.03214927515175047 -0.006680367851812364
0002a0 b3 51 ec a5 3a 85 7d 3f ec 83 74 49 3a e0 6a 3f
       0.0072071352904185424 0.003280748216312626
0002b0 8d 57 f1 f4 7c 01 af bf 8d c1 b6 a7 e9 93 9c 3f
       -0.06055822839759548 0.02790799223083833
0002c0 7e 7a 6f c7 d7 ad ad bf e4 50 2b aa 5f af 8e bf
       -0.057966940970563194 -0.01498293626847453
0002d0 1d 54 25 a5 97 e4 68 bf c8 0d f2 b4 c8 b0 7f 3f
       -0.0030386888330817944 0.007736953745851101
0002e0 88 de 7b cb 5e e2 a5 bf df 0a b8 06 a3 f8 a0 3f
       -0.04274269327100649 0.03314694840448395
0002f0 0a 58 37 58 d1 72 a4 bf 7e e5 e1 21 9f b1 5f 3f
       -0.03993848993165734 0.0019344381358038227
000300 8f 51 0c b0 1f 4c a6 3f e7 d9 85 8c 11 8e 84 3f
       0.043549528351067505 0.010036599255482904
000310 a3 8e e3 e4 c4 f2 ac bf 8c 53 2f 2f dd 15 ab bf
       -0.05653968137792489 -0.05290118409144559
000320 8d 2e 6c d9 64 5c 94 bf cd af a3 0f 9f c4 ad bf
       -0.019883704920217005 -0.058140726718050574
000330 ba 30 05 41 ad c0 9d 3f 31 46 4b 04 f7 d1 a5 3f
       0.02905531606056464 0.042617530130553034
000340 6c 90 93 f0 77 cb 82 3f 5a 14 95 28 4c e2 7b 3f
       0.009177147893247382 0.006807610983121293
000350 c1 cb 03 e0 4b ba b2 bf 1c f6 91 30 80 ba aa bf
       -0.0731551572714997 -0.05220413773438912
000360 52 9a b4 4a 66 ea ad bf 94 f7 77 37 c5 c5 a2 3f
       -0.05842895185405851 0.03666511823756405
000370 44 5d 3d bd 55 39 65 bf 18 65 70 d5 18 6d a5 bf
       -0.0025908159822553307 -0.041847969107218386
000380 31 9e 9a 0a c8 72 99 bf 8f 98 85 fb a8 5a 9e bf
       -0.024851918837752677 -0.029642715789485904
000390 a6 01 e9 45 70 f5 93 bf 67 ef c3 75 98 75 96 3f
       -0.01949096132943997 0.021932966411426415
0003a0 8d 54 0f 72 af 29 69 3f fa 06 0f 0c 77 58 80 bf
       0.0030716349287823242 -0.0079812336497329
0003b0 43 5e 5e 01 82 a8 92 bf f4 40 af de 02 b2 99 bf
       -0.018220931371244708 -0.025093121377552444
0003c0 d3 b9 5d 13 a9 5f 92 3f c4 11 a3 54 b2 76 ae bf
       0.01794304066373249 -0.05949933322111492
0003d0 77 e4 52 5a db 18 b6 bf 33 9f ed 14 6c 89 9a 3f
       -0.08631678538485398 0.025914849068981737
0003e0 29 cc 51 8a 0a 50 8c 3f 34 38 00 d8 b5 98 a5 bf
       0.013824541422058871 -0.042180712334911524
0003f0 9e 09 58 3b ee a0 ab 3f b0 50 7d 2c 84 5f a9 bf
       0.05396217798626711 -0.049556856566284835
000400 02 a7 86 13 7c 32 a6 bf 4a 22 78 0c a6 b9 a6 bf
       -0.0433539174876625 -0.04438513662541206
000410 43 a1 4f b3 77 71 a0 bf 85 d5 ee ce f2 fd a4 bf
       -0.03211568893294949 -0.040999973068589525
000420 c4 47 c3 83 45 85 94 3f ee a5 a5 8b 15 53 94 bf
       0.020039640586055688 -0.019848190925960844
000430 25 94 48 0d 17 01 5a bf ff d6 c8 4e 66 33 a4 bf
       -0.0015871739498234474 -0.03945464812970378
000440 90 73 aa 59 cf 1e 98 bf f1 48 ad 00 0a 84 8f bf
       -0.023555030677573863 -0.015388563295037435
000450 64 f0 f1 73 49 5f aa bf 03 5a e2 94 8c 61 8d 3f
       -0.05150823154778619 0.014346216481766488
000460 18 be 11 0a f8 c9 a7 bf 87 4f f4 cc 1e 3e 97 bf
       -0.046462775448954996 -0.022697907695217203
000470 76 3f 24 84 40 1a ac bf 8a 4f 39 78 58 61 a2 bf
       -0.05488778698975143 -0.035898937869801875
000480 cf b2 bf 03 88 30 94 bf fe 73 ba e0 bb 04 76 3f
       -0.019716382244882532 0.00537560834677908
000490 dc a6 e6 ca c2 da a2 bf 61 0b fe 1c 05 ef 84 3f
       -0.036825263279139014 0.010221519419933935
0004a0 38 ea 1a 60 e9 5f aa 3f f6 87 8f 2a 23 95 62 bf
       0.051512997609695466 -0.0022683798638221076
0004b0 bd c9 19 43 1d 84 ac bf 2b d9 12 02 28 55 76 bf
       -0.05569545215702785 -0.005452305108681703
0004c0 80 1f 77 f3 9b 95 b1 bf da 95 c0 78 8b b6 79 3f
       -0.06868910497644087 0.006277603923114461
0004d0 e5 e2 66 ac b4 6d 75 3f 97 50 62 c7 58 16 6f 3f
       0.005231576686519833 0.003794835468463441
0004e0 89 c6 42 df 46 51 86 bf ef ee bc 35 4a 75 ab bf
       -0.010897210777645288 -0.05362922578794193
0004f0 3a a0 0d 1b c4 eb 6a 3f 4a c2 b1 99 ee 2b a7 3f
       0.00328625013246511 0.04525704980995167
000500 7b 50 b0 a9 9c 43 a7 3f 5d 3c 70 60 57 c6 78 bf
       0.045437713350254115 -0.006048528018268132
000510 45 3f a9 01 d4 83 a1 bf f4 96 6d bf 2d 55 a5 3f
       -0.034208893969319955 0.04166548692482577
000520 c1 d2 19 4d 3f 8c 98 3f 60 2a 70 97 a5 cf aa 3f
       0.02397250087820413 0.05236546968088329
000530 68 16 df 3d 95 9a ae 3f bb 92 af 3a 10 43 7b bf
       0.05977312450663136 -0.006655753512835256
000540 7c 39 45 5e 4a 13 89 bf 50 b6 c3 17 dd b3 9e bf
       -0.012243824960617593 -0.02998300035044671
000550 73 8e 49 78 a6 f9 55 bf 30 47 d8 92 48 64 ae 3f
       -0.001341259544596432 0.05935885231532578
000560 a5 b6 7e eb fe 13 85 3f 98 56 60 08 88 00 64 bf
       0.010292045175300866 -0.0024416596306860543
000570 14 1d cd ad 47 5b 84 bf 29 26 88 ba 82 cb ae bf
       -0.009939727775089703 -0.060146413106917436
000580 f4 35 40 2b 2a 65 a2 3f b0 3c c7 ea 52 76 97 bf
       0.03592807558025504 -0.022912307338455562
000590 d0 b7 28 1e 2f 7d 8a bf 5a f7 9a b2 00 7f a4 bf
       -0.012934082134133634 -0.04003145389786651
0005a0 8e 91 86 89 f5 ec 90 3f 2b 3f 3e f8 aa 68 45 bf
       0.01652892734422689 -0.0006533465207087854
0005b0 4b 56 08 d7 4e 06 a8 bf d8 80 e2 48 c5 68 86 bf
       -0.0469231259814192 -0.01094202164341633
0005c0 c5 2f 33 6a f0 09 9a bf c1 2b d4 21 5b d3 8e 3f
       -0.02542853973572769 0.015051567048905203
0005d0 fb c7 29 cd 88 cd a1 bf b2 a6 77 93 51 b1 98 3f
       -0.03477122787889183 0.024113916993804003
0005e0 23 e8 04 fe b3 f0 2c bf 3e 00 42 cd a3 f1 93 bf
       -0.00022079655810519722 -0.019476470377867587
0005f0 24 4d 46 e0 65 83 1d 3f ad b3 c6 b8 0a af 14 bf
       0.00011258420278741473 -7.890227261127146e-05
000600 3c 7b 86 a1 0f eb b4 bf 2c ab e3 7e 8e 30 65 3f
       -0.08171174710740287 0.002586630164946332
000610 90 75 49 84 13 f6 a5 bf a6 23 35 18 83 f6 87 bf
       -0.04289303769904074 -0.011700653244263236
000620 96 a0 35 dd 3d e0 5b bf 5b 1f 75 7d da b1 a7 bf
       -0.0017014125959012075 -0.046278789343488135
000630 1d 9d 48 f4 aa 0b a8 3f 2a d9 53 27 8e 09 a6 bf
       0.04696401817300908 -0.043041651058887645
000640 8a 76 cc 70 1e ab a4 3f 05 f8 cf 39 42 d8 ab 3f
       0.04036803366601045 0.054384297902274205
000650 07 82 ca fd 50 36 70 bf 1a 1a 47 d3 72 cc a4 3f
       -0.00395805012945561 0.04062231854509353
000660 f7 fa 23 a8 fa a6 79 3f 90 3b d2 eb ff 65 a1 3f
       0.006262759330865056 0.03398132089306849
000670 60 2f 14 97 6b 1d 5d 3f e4 9e b6 72 53 03 8d bf
       0.001777033871181076 -0.01416650003268622
000680 3f 5d 13 45 7e fe 92 bf ed 39 2e d7 06 11 a3 3f
       -0.018548939672510697 0.037239278571281044
000690 3e 32 b0 e0 ab 1d 96 bf 53 61 54 47 ab 37 98 bf
       -0.02159756239784571 -0.023649860600103278
0006a0 3b a6 07 e6 6d d5 98 3f 73 c9 ae ca 7a 90 9a 3f
       0.024251668133649523 0.025941771145605096
0006b0 6e 1f 23 20 22 3e 78 bf 05 37 61 f8 6e 12 6e bf
       -0.005918629935145121 -0.003670899142014574
0006c0 bb cd 89 a8 c9 a1 a2 3f 7d aa f5 0e f7 c3 ab bf
       0.03639059240677108 -0.054229469848753965
0006d0 37 e2 3b 7f 47 eb 9f 3f 32 62 df fe 58 b2 8c bf
       0.03117095674585554 -0.014012046125501863
0006e0 6f 7a 0e 3f a8 55 81 bf 99 c3 98 c5 0d a7 89 bf
       -0.008464159416516652 -0.01252566108004931
0006f0 ff 31 99 71 98 de ad bf 72 cd d2 ff d5 8b a4 3f
       -0.05833889376353695 0.04012936351628128
000700 13 fb 67 69 ba cb 85 bf 01 7c a8 75 23 60 73 bf
       -0.010642486898175407 -0.004730356706686757
000710 c6 76 4c 1c 4d 15 a6 3f f9 c1 49 7c 34 be 87 3f
       0.043131265358380896 0.011593256037685672
000720 30 23 65 b3 6c 64 9b 3f c5 46 6d 32 08 55 85 bf
       0.026750276994138733 -0.010416091956048654
000730 3f 8e d7 10 56 77 67 3f ef 38 55 57 7a 43 94 bf
       0.0028645211193507876 -0.019788657741906353
000740 bd e3 c1 28 40 7e a5 bf 7b fa 55 8c 5d 4e 94 bf
       -0.04197884080435397 -0.01983019036333154
000750 98 93 2f 16 ce 6b b0 3f f7 6e 32 7c 24 b6 93 bf
       0.064144974152056 -0.019249506073363922
000760 0e 14 8d 7e a2 61 83 3f 09 27 f7 7f 9c c1 94 bf
       0.009463567244560902 -0.02026981860198077
000770 4e d3 8b 59 5b 30 89 3f 68 fa 90 21 b0 05 8c bf
       0.01229926459334654 -0.013682724022257634
000780 7d 2a 3e 24 61 3a 8f bf e9 18 a5 6d 44 48 84 3f
       -0.015248068731826376 0.009903463932130001
000790 0d a3 24 7b df 0c 31 bf cc f1 0c af 13 1e 8f bf
       -0.0002601667030313483 -0.015194085864657668
0007a0 a1 dd 0e 6d fa 50 a2 3f 3b 60 4c e0 b4 ad a2 bf
       0.03577406483912716 -0.03648152578369986
0007b0 b9 4c 2e de 96 1c 9d 3f 27 25 2c 28 72 8f 79 3f
       0.028429372130244632 0.0062403163199260875
0007c0 3e fe 33 5e 58 11 a2 bf ca aa 43 d9 54 98 a9 bf
       -0.03528858327808536 -0.04999032165672686
0007d0 59 21 8d 2d f2 a1 ad 3f 66 1c 21 ea 4b 9f a0 bf
       0.05787617498441717 -0.03246533616089024
0007e0 8b a5 d9 54 b5 02 80 3f 5d 3e 63 7e aa 3e 8e bf
       0.007817665721818986 -0.014767963392301181
0007f0 61 55 81 ae f1 68 97 3f 00 71 1b 33 48 a4 90 bf
       0.022861267353012752 -0.016251686209998617

fc2.bias f8 [100]
000000 42 b0 36 37 02 4b a4 bf 15 90 b2 33 08 67 bf bf
       -0.03963477062220068 -0.12266589414736047
000010 53 fb a9 8d 81 3b 6b bf ac 57 3a e5 c0 58 bd bf
       -0.0033242731417994303 -0.11463552090057644
000020 e2 af 7d 47 f9 97 c2 3f ff 65 9a fc 58 f6 a2 3f
       0.14526287070054794 0.03703573306593099
000030 f6 80 d8 a5 ed 4f b0 3f b9 99 8b 2d b8 b8 c4 3f
       0.06371960925071449 0.16188719009296706
000040 94 fa 5d cf 37 e0 be 3f 02 da 7e 48 83 1e be 3f
       0.12060879528687912 0.11765308875951777
000050 e9 7e 40 e1 eb 3e ba 3f 3f cc 6a 17 39 a6 9c 3f
       0.10252260445895058 0.027977840475341017
000060 a4 52 1c 06 84 2e c2 3f 4b c2 8b c8 cb af b9 3f
       0.14204454706545733 0.10033868452206567
000070 18 45 77 72 43 6b 9e bf 6e 7c a5 c7 3e c5 b6 3f
       -0.029706052648014042 0.08894722341709535
000080 c3 8d f1 9c e5 fa c1 3f 79 48 78 fd c4 66 ba 3f
       0.14046926654110167 0.10313063801030066
000090 2e 3d e5 4a 2e 9a c0 3f c8 fe 1e 5d 0d c0 a8 3f
       0.12970522553448788 0.04834024202091097
0000a0 1f a5 3f 52 c9 75 b6 3f a7 c0 25 18 75 5c bd 3f
       0.08773477800390993 0.11469203795945991
0000b0 70 53 7e c1 82 e9 bc 3f c9 e1 6e 28 a7 54 a2 3f
       0.11293809150659029 0.0358021008354999
0000c0 5d 98 0d 09 d4 25 ad 3f 30 71 5f 22 bf be aa 3f
       0.056929231743922705 0.05223653120603655
0000d0 c2 b1 dc 67 a3 ef bc 3f 8f 3b 75 72 9b 00 b2 3f
       0.11303159032531254 0.07032176536925604
0000e0 d4 b7 c2 99 1c 45 c4 3f d6 7d 58 ee df eb be 3f
       0.1583591223510995 0.1207866627596482
0000f0 7e 42 fd 0f 18 75 b1 3f 10 13 35 49 d5 79 ab bf
       0.06819296255458515 -0.053663888155403794
000100 c6 5a 31 f2 7a 6b bb 3f 25 6b 1a f4 0f 2c c1 3f
       0.1071087685862536 0.1341571752462524
000110 59 fb 9c 4b 77 7c b2 3f da 69 c4 67 50 b5 bb 3f
       0.07221170040155069 0.10823538335208785
000120 c4 8e 7e 6a f2 5f c2 bf 50 f0 c3 61 69 31 79 3f
       -0.14355306816024982 0.006150638244658849
000130 b3 88 d4 ae 61 a6 bb 3f a8 b6 28 f9 82 e1 c0 3f
       0.10800753134074874 0.13188206830948457
000140 e7 39 98 fd bc ac 9d bf a9 44 a6 2e 28 d5 c1 3f
       -0.02897925660914238 0.13931753423506635
000150 d7 b8 86 99 a1 49 b5 3f a7 4c a6 bb c7 9c be 3f
       0.08315477369498879 0.11957977610863911
000160 9b ce 2b 62 e0 48 c0 3f c6 ea 35 2b 32 c9 91 3f
       0.1272240142203501 0.017369064223639062
000170 c5 1d e5 ef dc 2f b9 3f ad c8 58 8d f9 97 be 3f
       0.09838658196269197 0.1195064516148558
000180 e9 47 13 52 7a 4f c4 3f 05 c8 35 d0 32 58 b9 bf
       0.1586754704244975 -0.09900205214742648
000190 f5 39 83 14 c0 11 7b 3f 33 5e e3 4e c7 0e b6 3f
       0.006608724892613872 0.08616300273876547
0001a0 9f 17 8f 14 fe e9 c0 3f 39 2b 48 58 fe 2d c0 3f
       0.13214088443617997 0.12640361128463853
0001b0 c0 5a 89 35 d3 91 be bf 56 6d 14 e8 a9 7f ad 3f
       -0.1194126134590574 0.0576146217155961
0001c0 b5 95 7e e4 38 7f c3 3f 8a 93 70 ad be de bf 3f
       0.15232001454311975 0.12449256643647125
0001d0 24 c6 42 55 74 a3 c0 3f 07 e1 55 bd ce 64 c0 3f
       0.1299882332146335 0.12807640309234378
0001e0 ef a6 e1 fb 3d 5e c0 3f 7d 8c 7c dd aa 37 be 3f
       0.12787604140185446 0.11803691775689802
0001f0 5b 57 d3 99 ad fd c1 3f 06 b7 b7 25 13 d5 bc 3f
       0.1405541421033217 0.11262626334038481
000200 6a 79 cd ee f4 a6 a8 3f d2 21 eb 9f f1 4a bb 3f
       0.048148779059135574 0.10661230234393962
000210 98 77 e1 b3 23 30 ab 3f 12 ef 15 48 c0 34 b7 3f
       0.05310164995965677 0.09064866790680196
000220 67 b2 bc bd c1 70 b5 3f b7 25 ba 22 f6 d4 b4 3f
       0.08375178224805212 0.08137453410940663
000230 01 41 5c f2 21 9d c4 3f 18 e9 bd ed 48 46 c4 3f
       0.1610453065300206 0.15839492424476798
000240 0c fa 9b 9f ec 91 b0 3f 5d f0 f2 29 9c b2 ba 3f
       0.06472662827216186 0.10428787254471801
000250 fb 45 e6 f4 fb 05 c0 3f 3d 85 d3 a2 7e 2b be 3f
       0.12518262346252115 0.11785117602587021
000260 f6 db ca 4a e1 41 c0 3f 88 a7 4a e9 f4 dd b6 bf
       0.12701049949620796 -0.08932429023357547
000270 69 8f f9 79 4c 0b b5 3f 38 78 22 72 ee e3 b7 3f
       0.08220365503217199 0.09332170759668734
000280 18 72 ad a4 b0 c4 b6 3f 45 6a ca ff 71 08 b4 bf
       0.08893875141570395 -0.07825386519326923
000290 fa 51 49 78 16 77 9d 3f 53 82 19 e2 98 2d b6 bf
       0.028774596301746037 -0.0866332580567442
0002a0 e7 67 8f ca 57 4c b8 3f 89 c1 85 db d1 f8 a7 3f
       0.09491490073506235 0.046820219084909694
0002b0 07 8f f1 51 26 d8 b9 3f 74 9b 9d fa fb d8 b5 3f
       0.10095443249297996 0.08534216755434249
0002c0 a5 89 ee e1 f7 8e c0 3f bb ea f1 d5 ce e3 99 3f
       0.1293630459959562 0.02528308087174012
0002d0 62 74 a5 8c f7 0a b0 3f 32 a8 90 68 16 ec c1 3f
       0.06266734298465473 0.14001731973377357
0002e0 b0 a4 dc e6 9e 2f c5 3f 27 af ee ba 9d c3 b8 3f
       0.16551576874306795 0.09673486531999896
0002f0 09 ba 71 65 1b d8 c0 bf 96 d9 cc 48 aa 4a c2 3f
       -0.13159506276447555 0.1429036002607062
000300 14 c1 31 df 77 d8 bd 3f ac 0e 0a 89 61 71 b1 3f
       0.116584293356713 0.06813630672155097
000310 ed c0 79 ec 2f 28 bc 3f e3 48 42 80 9f 9b 7f bf
       0.10998820803957061 -0.007716773081613423
