weights/numq/gspc/numq_^GSPC.pt (torch, 526847 bytes, 8 tensors)

fc1.weight f8 [200, 200]
00000000: 25c3 3756 84ce b0bf edf8 4b8c 1a0d ac3f
00000010: 2083 5979 5a73 753f 1557 59c9 a3ff 643f
00000020: 2762 8c89 9f4f 853f aebc 75b2 bf2e aabf
00000030: 97e3 cf28 f20a a23f ac64 bf54 078a a03f
00000040: 4be2 6768 9cbc a13f c2dc f18a 9c9b 903f
00000050: ad40 5555 c797 b0bf d7ec c5b4 6dc5 603f
00000060: 56b7 7b35 73dd ab3f 2776 503d 134c ae3f
00000070: ce2c ac2b e602 a33f 0e0c e744 734e 9cbf
00000080: 0874 db32 490d ac3f e871 b29c cd2a a2bf
00000090: 8019 38f0 9bdf 813f f92c 40a0 4bda 803f
000000a0: c296 9d7a e556 7dbf 8b31 669c 5c6c 803f
000000b0: cfb8 5f6b 9cc7 abbf 0766 11ce d8f9 863f
000000c0: afdd 1bf4 c7c5 833f d63d 956b 4dce 9cbf
000000d0: 604b 2077 fe33 a93f a5ab a540 9cd0 633f
000000e0: 9975 f576 da8e 933f ec9f 9f37 2ab4 a1bf
000000f0: 6061 52c1 6d6f 913f 4acf 30af cd3a 78bf
00000100: fa65 ab31 eab5 a4bf f3d3 46f3 46d4 933f
00000110: 8663 51de 490a 95bf 35c8 17c2 e6b7 69bf
00000120: 9b48 a026 92d5 a5bf 83ea cd1f 8f4a a9bf
00000130: 37f5 57d5 7d0e 563f 3582 3d7e 8234 48bf
00000140: d32b 44a5 4a26 aebf 254b cf5e 8c27 a2bf
00000150: 9714 1b07 c0bb a63f 6204 c6df c797 74bf
00000160: 55d8 73db 0be7 a8bf 5e75 7c1a e0d6 523f
00000170: ea24 0a3d ec3b 34bf 20bd f402 2a72 b13f
00000180: 073c 7366 866a 71bf 7cf7 0d90 ddd7 a23f
00000190: 29d7 fe2b c1a8 a3bf 2db7 6b25 5721 a23f
000001a0: e449 06a7 591b aa3f 25e5 4d15 b8e5 833f
000001b0: 9122 5141 8477 aa3f e13f a942 7909 a1bf
000001c0: b99a 14f5 82db 8e3f 86a5 a293 e49e 29bf
000001d0: 62e6 0ba9 c539 923f 7848 a093 678f a9bf
000001e0: 06c9 aa9b 7ce9 9a3f cab2 d8a8 c8f2 a33f
000001f0: 823d 4d35 071d adbf 1b51 4c18 200f a83f
00000200: 4f40 5cf4 3d25 99bf ba87 eee4 cb48 8d3f
00000210: 438f 4554 a5a0 41bf 65d2 f0cd 9ea8 aabf
00000220: be49 739e 59c9 87bf a056 5a21 5ca9 a03f
00000230: c2f4 139e 6e89 a23f e952 ac87 d698 88bf
00000240: 0033 2f4b 6f1e 6dbf 6039 9cc9 f9ef b23f
00000250: 5dbc bf25 3055 ab3f 1608 d098 fba8 953f
00000260: 7fd2 095e 54a8 8c3f 632c daa2 57af 9d3f
00000270: c311 3891 d129 933f a435 1f41 6f86 a33f
00000280: d581 8735 0676 35bf c9c9 ed7d 9e9d 98bf
00000290: d03c 4d62 8ddd 943f 33f8 eb34 3362 90bf
000002a0: 9239 7a69 72c6 813f 744c 910a d4d8 a2bf
000002b0: 3307 babb 5ad2 843f d1c1 8544 9099 70bf
000002c0: 221e c90f 80d3 7d3f f670 d11a 169c 6d3f
000002d0: 3f46 4d9a c5c1 98bf 388c a86e 520d 88bf
000002e0: 3123 798c a926 3fbf fbce 2026 bd95 963f
000002f0: ee81 159b a40f 6dbf 5016 ba24 0b07 90bf
00000300: 7d03 00f4 8090 733f 36b8 988e 5b80 933f
00000310: 6694 0716 9e25 a5bf cae3 fccd 7982 a1bf
00000320: e3a8 f1c4 c1f2 8dbf f918 bad8 67cf 983f
00000330: e67a fafe 27fa a6bf 55bd 0a56 6768 72bf
00000340: b47b 2810 a929 9d3f 68ae bea5 0cc6 ab3f
00000350: 3fb0 5b55 65d3 81bf 7be0 00e6 ff99 a0bf
00000360: 9c90 91ce 7c76 963f 586f 3480 b017 863f
00000370: 9621 1d35 dabc 5a3f 5cb6 8c8d b81b 9d3f
00000380: 0ea0 a0c3 65e3 b1bf 15e1 2a12 e3f0 93bf
00000390: 4fcf b486 7a6a 5a3f 6d46 651a 6d2b 963f
000003a0: fcf4 ed52 dee6 a03f 9225 a743 cf3a a23f
000003b0: e210 67af 7bd6 a9bf 8636 e2f8 4254 a3bf
000003c0: 1cf3 1a80 c1cb 50bf 8b72 b882 4741 763f
000003d0: 7fe7 f36d fbef 993f bc3c 7c7d 14eb 96bf
000003e0: 229d 918d 1244 a03f 7f97 be7e d501 8a3f
000003f0: b3d4 378c 17b5 753f 6520 459a faae 903f
00000400: 508e 91af 02d7 8ebf db68 616e 5535 9b3f
00000410: 3fa5 c65f 68e8 a23f fa28 71c0 0a5d a23f
00000420: 8fcd d997 2740 a23f 5eec d64a eef1 303f
00000430: 35b5 128b ca12 853f 02ff 4710 6acf a13f
00000440: 2b72 c7d7 9df3 9cbf ad4e f465 7125 9f3f
00000450: 877c e49f 4496 92bf 41e4 c7de f73d 933f
00000460: b796 009a 9664 85bf 7e36 59fb a9fb 93bf
00000470: 1e9d d822 34ac 88bf f67b 7f7f 86b7 5e3f
00000480: b8c2 9165 57db 93bf 3a40 f648 3391 a6bf
00000490: 71f9 aa25 ce0f 6f3f 4b15 ff81 a927 57bf
000004a0: e24f 76e7 1162 913f 1fd5 ab6e b2b3 8abf
000004b0: e3ce a6d5 758e a9bf 4f29 2395 5b90 77bf
000004c0: dc28 1149 e7e8 933f 58d1 b04e 13ae a23f
000004d0: 821a dcb0 bc39 9ebf ecd7 d6e9 469c a03f
000004e0: 867f d888 4f16 9bbf dfcf 5c84 ea07 a53f
000004f0: 0e76 462f c280 9a3f 44be bcbf 4280 7bbf
00000500: f5d5 fda1 1439 98bf c6f1 9fa3 9a6a 7c3f
00000510: 2386 e747 aa7c a63f 122b be27 3066 84bf
00000520: ac73 5d2e 8ba2 723f 11b4 00f7 689c 9abf
00000530: e9f3 dd35 c377 903f 9b1d c76a 697c 9b3f
00000540: 69ea 7cf0 bf20 9d3f 2d7b 09c1 e8df 9a3f
00000550: 0569 cfe2 786a 73bf 45e9 b848 0f42 53bf
00000560: 6d0a b61c b527 933f 1942 7d2a 666f 7abf
00000570: e09c 0d13 7d1c 993f 0fa9 56f7 6b70 90bf
00000580: d456 991c dfbf ab3f 10f4 5c2b db05 9abf
00000590: 8785 44ce 8990 a53f 9061 99b1 fec7 993f
000005a0: b3f8 c944 2cbf 773f 98b3 a27b 601b a33f
000005b0: 1126 34b3 9483 923f 7cdb bf2e a54a 9fbf
000005c0: 1d3e 9c30 18d2 99bf 8974 b270 7ce0 a23f
000005d0: 71c9 8c2d ecd8 973f 9f46 199f 7226 a1bf
000005e0: dd43 1d20 d3e4 9d3f c854 53ad 3b64 a2bf
000005f0: c0c3 afbe 35ea b13f 8dae e54f 7273 8bbf
00000600: 223d 831b 1b1f 9e3f 86bd ca90 9ef6 94bf
00000610: 1569 f19b af59 a03f 6ffd 0e99 5638 6abf
00000620: 0172 28d6 55d4 8fbf f882 d485 541f a43f
00000630: 01d0 c7c0 2404 9ebf afc1 e9a6 6294 81bf
00000640: 500c e7fa 0029 87bf c25a 525f a691 93bf
00000650: b3c9 c6bb 893e 9cbf 380e 98ac 2a93 9c3f
00000660: 344b ec32 a81e 9c3f b4de a79c 4bce 8cbf
00000670: 0561 ffd2 5e09 70bf 88fc c6dd af99 8d3f
00000680: 0bc5 2d1f 1eb3 863f 7923 85f0 8b91 903f
00000690: 5bf0 0f42 b284 a73f bae9 0799 a7fc 6f3f
000006a0: 470a a050 0879 98bf 9e28 2e3c 0205 a5bf
000006b0: 6494 32ae 157a b1bf 339f 35a9 07c5 7b3f
000006c0: 803c 0cef c404 93bf 5dbe 8557 8c13 a4bf
000006d0: e5ba d83d 82e3 95bf 5c9f 1f38 b05e 93bf
000006e0: 76a3 6fbd c786 6abf b6d4 b90a ce65 a6bf
000006f0: bdcb b517 cab2 803f 218e cada dba2 593f
00000700: 0721 a806 e900 953f a447 100a ed70 793f
00000710: 46cd 8427 9b7d b03f 0f17 f586 7940 a5bf
00000720: 77b1 21fc 8529 9b3f 512d 735a 5232 903f
00000730: 6b52 240f 0e66 a03f 7ef3 c9e1 33be 9b3f
00000740: 53eb 71fb 6675 a63f 77a8 f0fb cd71 7c3f
00000750: 2f3f 5361 369a 96bf 931f 32dd 7fae a83f
00000760: 3025 c6f3 71e0 933f 5964 e1b6 449e 50bf
00000770: 8a1e 3655 f2df 98bf 8034 9f7b 364c 64bf
00000780: d655 c72d ddd6 6f3f 9c28 963d 6c1e 7bbf
00000790: 444c caac e686 9abf 9e83 5c00 ad5b 903f
000007a0: b516 1090 b8af 883f 0ea4 6744 638e a2bf
000007b0: 6d06 ddad 41a3 883f bbce 1b59 1456 7dbf
000007c0: 511b 2520 f58e 923f e041 a9f1 574b 9abf
000007d0: bdff d81b cde8 8abf 957e edf5 0614 8dbf
000007e0: b470 e6a2 ecff 8d3f 451d dd38 86fa a93f
000007f0: c490 f75a d790 6bbf 86ca 25de 6f97 a13f
-0.06565119843413621 0.05478747332198162 0.005236962713383503 0.002563304801507802 0.010405775437491617 -0.05113791516748144 0.03523976085848018 0.03230307492749182
0.034642112488601905 0.01621861074496845 -0.06481595834088934 0.0020472662637850236 0.054423904684752486 0.059174157366424666 0.03713149340736664 -0.02764301403091101
0.054788863619002426 -0.03548281228833955 0.008727281826406807 0.008228865459406697 -0.007162948991980835 0.008019183657574277 -0.05425728617397995 0.011218732632346308
0.009654581200705474 -0.028130731288283993 0.04922480777908933 0.0024188091094194558 0.019099629889173995 -0.03457767418859689 0.01702662937586419 -0.005915454344222424
-0.040450399935888684 0.019364460562162077 -0.020547060198029786 -0.003139448833047199 -0.04264504167089563 -0.0493969656299287 0.0013462284890686912 -0.0007386815236537005
-0.05888589160357296 -0.035457979749159464 0.044401169650464194 -0.005027561910879804 -0.04863774350990072 0.0011498631010405584 -0.0003087474588388666 0.06814825603645547
-0.004251980782284732 0.03680317290762411 -0.03839687025121769 0.03541061717792924 0.05098991550325474 0.009715498113779983 0.05169308945966578 -0.033275403392167176
0.015067122558844447 -0.00019547024004866134 0.01779850811269624 -0.0499222152431153 0.026281306267898173 0.03896166859735713 -0.05686209226279983 0.04699039742095775
-0.024556129493305708 0.014299004482214762 -0.0005379493018548915 -0.05206772102284133 -0.011614513538380385 0.03254211337222768 0.03620477370893972 -0.012010265365043309
-0.003554551477895962 0.07397423908353096 0.05338430844118911 0.02115243072695002 0.013992938155959365 0.028989190401756192 0.018714212883439673 0.038135029506160906
-0.00032746936406449534 -0.02403876918419615 0.020376404881344012 -0.015999603371703763 0.008679288715282483 -0.036810518541323584 0.010166844228709592 -0.004052699609346581
0.007281780472630868 0.003614466832500547 -0.024176681082570758 -0.011744159700418519 -0.00047532691357736733 0.02205558343139467 -0.003547498222062232 -0.01565186893141962
0.004776481364388793 0.0190443330558809 -0.041302623929177426 -0.03419857635021335 -0.01462317831302013 0.024228689768755782 -0.04487729060678251 -0.0044940983358821756
0.028479234324659777 0.05424537204029606 -0.008703986804413087 -0.03242492373141289 0.021936369045207557 0.010787371551991207 0.0016319399769192159 0.028426059379106014
-0.06987606073437311 -0.019473598464828507 0.0016123005432974907 0.02165003274541848 0.03301138651202426 0.03560493183938286 -0.05046450153489147 -0.037752240067772155
-0.0010251416828587828 0.0054333489784111995 0.025329521738036483 -0.022381134184851645 0.031769351750705846 0.012698810511050372 0.005299655898388145 0.01629249159421455
-0.015058537466934002 0.02657063947877068 0.036929380122567405 0.03586610411783116 0.03564571121833204 0.0002585608261502277 0.010289747590230472 0.03478557060952704
-0.02827307347785017 0.030416271064565837 -0.018151352175774817 0.01879107758756882 -0.01044576318242761 -0.01951470944032118 -0.012047202409191157 0.0018748105485355527
-0.01939140851431162 -0.04407654061935813 0.0037917162238436043 -0.001413264784774287 0.01697566962464226 -0.013038057329576134 -0.049915010767475974 -0.005752904648213721
0.01944314368692167 0.03648434005336537 -0.02951712445703914 0.03244229893191161 -0.026452295997045926 0.04107601991418596 0.02588179982705268 -0.006714115846804317
-0.02365524519651348 0.006937603053298996 0.04391986968745367 -0.009960533345084541 0.0045495449793095215 -0.025987281871653837 0.01608185783651442 0.026841780798148567
0.028445242932529178 0.02624477079586567 -0.004740211687897626 -0.0011754178293715428 0.018706159474741236 -0.0064538946970320804 0.02452273777762748 -0.016053854914994278
0.0541982386027208 -0.025412964364694146 0.04211836474338342 0.02517698248843342 0.005797551083217711 0.03731824406836565 0.01808006614468211 -0.03055818651042895
-0.025215509383143087 0.036868942982644155 0.02328843143477272 -0.03349645797847 0.029193209490873662 -0.03592096796789118 0.0699800100844774 -0.013403790534275895
0.029415534548033702 -0.020472028338813363 0.031934249673854755 -0.0032006923069897645 -0.015541716192324808 0.039301530205426205 -0.02931268145216848 -0.00858380386236565
-0.011308677346170054 -0.01911029774472684 -0.02758231361958403 0.02790514639310812 0.027460697277159343 -0.014065352171186297 -0.003915186316554524 0.014453290896993445
0.011083827330113502 0.016180216365032394 0.04593426758216942 0.003904654826553525 -0.023899202271431965 -0.041053838583210864 -0.0682691145216992 0.006779699254685845
-0.01857288083106967 -0.03921164101018058 -0.0213756895301981 -0.018915894914158002 -0.0032380963489128623 -0.043745459374727444 0.0081535137639771 0.0015647074716661563
0.020511284858032244 0.00621121018868279 0.06441659655393037 -0.0415075280421161 0.02652558661832091 0.01581696202337685 0.032028617237448063 0.027092753082331715
0.043864458269090044 0.0069444700484756405 -0.02207264870668196 0.048206325293960316 0.019410877708229524 -0.0010142966307482763 -0.024291788531199766 -0.002477747356329163
0.0038866348170169913 -0.00662081033204678 -0.025905231758383232 0.01597471537309369 0.01205391111035268 -0.03624258241672616 0.012030137174977551 -0.007162169918718038
0.01812346466729348 -0.02567803776247668 -0.01313934556230822 -0.014198355083578288 0.014648293229406618 0.05073947376382163 -0.0033649641188607544 0.034358497493390636

fc1.bias f8 [200]
00000000: f5fe a66b 85db b03f 4dc7 8115 cd53 a33f
00000010: e0c7 1420 6bcd 30bf 2cba cbb8 8b4c 8b3f
00000020: eb93 a25b a3a8 7a3f 349b 4df7 6400 a73f
00000030: d557 d3e6 620e 9bbf 2d4a 491c d2c5 4ebf
00000040: aa3a 86fc fb14 92bf 6a6c afff 085b 2dbf
00000050: c39f f9d9 dcc9 aabf 6230 c473 3c43 ac3f
00000060: 3029 b90d b144 a43f d7f0 5b19 e749 803f
00000070: b6c5 a81b 99ab 983f 8cdb 9152 cfc1 a03f
00000080: eedd 2c68 ee20 a43f 3caf 71ef cf62 83bf
00000090: 9fea 8501 7645 96bf 067d ea46 31ed 9bbf
000000a0: 2d2e 496f 9c17 aa3f 0b56 89d5 2e62 b13f
000000b0: 92ad 3486 16e1 723f 68fd e9bf 96a8 a63f
000000c0: 2b2c 0c68 87d2 963f 23b4 61b1 a2d7 ae3f
000000d0: ca27 3fd2 ef67 97bf 3751 cf06 99f6 8b3f
000000e0: 2bca f355 cc5c a13f 0397 c118 429a 93bf
000000f0: 2871 5450 0f5f a43f 3cc3 8f5e 0c7c 7a3f
00000100: bbb5 ca9a f5a3 97bf 9acf 8743 52c2 ab3f
00000110: 4af2 e4f8 e61e 733f 5eea 3aa3 ffd8 973f
00000120: f85e 62b7 d24a b03f 4974 42e7 725c ec3e
00000130: 78fe bee2 5bdb 733f 220f 5a76 aa8f 9dbf
00000140: fab8 f74a 2625 ac3f 42d8 44f6 f416 6cbf
00000150: 641e 7b6a 1846 ae3f c016 4bff 9b45 723f
00000160: 2257 7d12 0607 b03f 52ea 480b bc1d 903f
00000170: eb2c 01b9 5a0c b23f da15 48bb c9e3 aa3f
00000180: 0332 2b50 1713 843f dde9 c50b c4d0 8dbf
00000190: 0e07 031c 7c3e ab3f c6c3 bab8 6ea2 81bf
000001a0: 5eee ce56 fbc1 60bf 8966 e250 f5fb 90bf
000001b0: 2184 5393 8bad 9c3f 5a48 45ef 4e80 9b3f
000001c0: 2de8 3614 0cc6 93bf a85e 2b4d e42c 7f3f
000001d0: 6c18 0346 0303 91bf bf3d b912 ffc7 2d3f
000001e0: cf44 ba0f eba3 a5bf e3bc da47 f7ac 913f
000001f0: 0c3d 3b77 70f4 653f 2699 616f 6046 7bbf
00000200: 9ea2 97bb 9046 a9bf 0ef0 0004 5725 973f
00000210: e807 6f37 8b9c a5bf 0232 5ee5 0ee6 a53f
00000220: 22c0 685d 0c3c a13f 8b9d 8a72 12fc 913f
00000230: a2d3 6ef8 03ba 903f e9f4 5105 6892 a33f
00000240: 29cd 11d9 a8f3 79bf b54d 771e 40b5 953f
00000250: 113e 76d4 8dbc aa3f afbf e3ab e9b1 a13f
00000260: 47c1 4b66 4055 a93f 939c 9be2 fd8f a0bf
00000270: e53f db7e 239a a83f d406 ebb9 79cd 993f
00000280: 9585 c373 6c20 87bf c00f 0ea4 d573 a0bf
00000290: cdbe 3403 ebf5 9c3f 82cf fded 003c 773f
000002a0: 1c65 5fdb 2912 77bf d435 69e8 b28e a23f
000002b0: d502 483b b79a a53f faa3 00b7 2da5 85bf
000002c0: e1d3 c1b2 9423 a6bf 5e43 5772 654c 933f
000002d0: 99cf 1a35 ed55 923f 752f f46d b5ce a1bf
000002e0: bdf2 7773 ff77 a53f 2716 71df 91e3 713f
000002f0: 13b9 1d70 1fc5 983f 5263 59ae b069 923f
00000300: 4592 1786 e8a7 9abf e4cc a4aa dfe4 5abf
00000310: 3327 5669 89a8 b33f b80d de95 3806 a13f
00000320: e5d1 8970 f90e 953f e77d c2b3 ea74 a43f
00000330: db37 f00c 437f 7c3f 1805 9070 d473 a93f
00000340: 0503 989a 26dc a93f 66c0 095a 5ec3 6a3f
00000350: 858e 0271 5345 843f 5192 608b 8f02 b23f
00000360: 5e70 4f3b d108 9e3f d4fe 2a74 935d 88bf
00000370: 0cf7 5783 9565 953f c65e 8c7c 357c a03f
00000380: caaa 9b84 952e 9a3f b66b fe09 3497 71bf
00000390: 42c1 f7eb 6c70 873f 0356 9db6 b535 a03f
000003a0: cc3d 23e2 db29 a83f 129b 602b 1cc4 713f
000003b0: 7995 bc90 1caf 9ebf be85 2e6e 95f0 7abf
000003c0: 88da 5ccc fa96 893f 0f81 27a7 06fc 91bf
000003d0: d6e1 b1e0 21e7 7d3f 4ab0 5af9 ac6c 983f
000003e0: 6d34 cd7a ad9f a1bf 0ab5 5381 80da 9b3f
000003f0: 1937 cdfc af43 a43f 2cfb 1633 c89f a4bf
00000400: 3bad 9fcf ce65 a13f 1bca e6a3 5fa7 913f
00000410: e739 39b7 1336 973f 62cd 2d13 cc75 72bf
00000420: 16da 9b19 8a5c ac3f 7b26 97cf 5a1c 83bf
00000430: 9584 c8a5 fa6c b33f 2057 6202 c072 ad3f
00000440: 93cf 60aa fbad 9c3f 8ba4 7dac 810b 86bf
00000450: 18cf cc53 af56 aa3f 4d16 4afc c07c a03f
00000460: a1f6 db33 33c5 ac3f 09cc 8aa1 a9a8 a03f
00000470: 8328 1f67 a2f9 9b3f 140b f432 cc33 753f
00000480: 3a22 387c 1a4b 953f dbbc a262 ec54 93bf
00000490: 5069 0dc6 35d7 a43f 26b4 74b8 a2f8 ab3f
000004a0: 0769 b854 7384 9f3f e53a cddf bf7c 983f
000004b0: c23f e647 3bbf ae3f a996 2d35 9879 9e3f
000004c0: 24cd d263 f30a 7d3f 1b0c d233 1278 983f
000004d0: fe36 7aae 8972 ad3f ce12 6e2c d779 9c3f
000004e0: 0e75 2699 537d 96bf e468 c570 f713 953f
000004f0: 5e97 fe63 2fd8 94bf f005 896c 0b37 a7bf
00000500: 833f 2ba0 2018 88bf c84e f84f e80f a03f
00000510: 1c13 d7df 5c5f a83f 415c a7c0 652f 61bf
00000520: dbd4 37e7 b3a6 a8bf 5e0d 4033 42c8 83bf
00000530: 64c9 2d29 64b1 5cbf d3b0 908f b514 813f
00000540: 37be 3a91 2cc8 a8bf 1393 f04a 7296 743f
00000550: 4c46 a795 3efd 9bbf fca2 c524 b3db a23f
00000560: 0e2b bf3c 309b a53f 1808 30d9 ef2b 803f
00000570: 2d9e cf83 b79d b03f 802f de3d a77e 9c3f
00000580: 26cf 44d7 69f1 a83f bfe0 e9b1 c538 943f
00000590: f2ff 1993 044b 86bf 3ade c5ae cabb 89bf
000005a0: e98b de64 81db a63f 23ae 7640 8e7f ad3f
000005b0: 415f 72e3 4f4a 96bf 8690 e3a5 e256 a93f
000005c0: 4a36 7949 6ec5 933f 75a7 b6ab 2587 a13f
000005d0: 52ad ab62 f979 ac3f 5e13 7f61 1978 8f3f
000005e0: 8029 ccfc 3de3 9d3f d73c 437d 017a 9d3f
000005f0: 8aa5 08f6 cb21 813f 257d 7a2b f800 83bf
00000600: ea16 ca9a 6ccb a7bf ef8c a50a 50c7 9f3f
00000610: 4fe9 78fb ad48 9f3f f42c 20ff f3fb 83bf
00000620: 0780 21cf 106a 9a3f 6704 e5a1 18a7 92bf
00000630: 7c98 dce2 b4c6 91bf 8f04 4771 7d10 4dbf
0.06584962728720341 0.037748726725921423 -0.0002563845192354846 0.013329593255062631 0.006508482090940663 0.0449248840221145 -0.026422067011331613 -0.0009391094141142968
-0.017658173835622883 -0.00022396550033829409 -0.052321340187347264 0.05520047104991545 0.03958657543678823 0.00795345827236142 0.02409209472006576 0.03272865183765025
0.03931374570532485 -0.0094658131549391 -0.021749347537005744 -0.02727200503670437 0.050961388191890535 0.06790440285961823 0.004609191880529011 0.044254980971340896
0.022287479138906868 0.060238918450388 -0.022857424933853378 0.013653941650695429 0.033911118976807174 -0.01914313579654615 0.039787748866930095 0.006465957944769948
-0.02308639294886004 0.05421692919108452 0.004668142543149909 0.023288721406723993 0.0636417100635035 1.3523639815377546e-05 0.004847868851299723 -0.02886835429536839
0.05497092881329198 -0.00342891544473914 0.05912853526893683 0.004460915912834984 0.06260717345625413 0.01573842829587086 0.07050101296151794 0.052519134627839484
0.009802038320594347 -0.014558345422064295 0.05321109620991936 -0.008610596668718783 -0.002045622727079351 -0.01658614450625476 0.028005772463874593 0.026856644967957123
-0.019310177549165686 0.007611171534072682 -0.016613055370520532 0.00022721279798297402 -0.04226622168528992 0.01726137519898153 0.002680034312880891 -0.006658913325827498
-0.049366495990232226 0.022603377932895845 -0.04220995952302059 0.04277082967664471 0.0336612571740036 0.017563141099029827 0.01633459285558881 0.03822636666243701
-0.006335887491434358 0.021199228152750844 0.05221980303315033 0.03456049178373576 0.04947854279260127 -0.03234856978615954 0.04805098460712979 0.025197889301813728
-0.011292311938123226 -0.03213374736426955 0.028281852789574558 0.005672458297215745 -0.00563255644188956 0.03624495589302126 0.042196012484060276 -0.010568959376614718
-0.043240210362377025 0.018846116164982767 0.017905908933883195 -0.034780187294102406 0.04193113598373575 0.004367418113422817 0.024189463823341372 0.017981300965718212
-0.026031144317942418 -0.0016414818042676466 0.07679041692440762 0.033250587744102444 0.020564935201450658 0.03995450443585096 0.006957303920911396 0.04971183656744865
0.050507742282212255 0.0032669871146069783 0.009897853742877114 0.07035157349361866 0.02933051037312883 -0.011897232039131657 0.02089532484205052 0.032197638944294435
0.025568329066042485 -0.004294589307302246 0.011444903327146098 0.03165977338964512 0.04719435821027282 0.0043374157303677375 -0.029964872678779984 -0.00657709475754714
0.012495002137808756 -0.017562965347566236 0.007300503096410135 0.023852064818740616 -0.03442136882822742 0.02720070638036013 0.03957891426999378 -0.040281540142578315
0.03397985729665228 0.01724004209399697 0.022667224939420107 -0.004506871383330365 0.055393519998620785 -0.009331426105649179 0.07588163897937002 0.05751609830001159
0.028007442735727372 -0.010764134480000706 0.05144260309171339 0.032201796338125456 0.056192016678307206 0.03253679367971791 0.027319467109727668 0.0051763512158256204
0.020794309455626193 -0.01887864448570729 0.04070442240363781 0.05463131429346672 0.03077869610397335 0.02391338160969782 0.06005273106268262 0.029760721441013747
0.007090521566328865 0.02389553490912642 0.057514479206572475 0.02780853470496219 -0.0219624578690985 0.020583978899005553 -0.020355930784396896 -0.045341832159930706
-0.011764769447296214 0.031371364366490406 0.04760256035254981 -0.002097796187836149 -0.04814684102522345 -0.009659306706459144 -0.001751277745566237 0.008340280956041479
-0.04840220711536996 0.005026289421071767 -0.02733323849117246 0.03683242629887748 0.042199618735670893 0.007896303000965374 0.06490656822244807 0.027826893950574583
0.04871683838646694 0.01974781893156385 -0.010885272731002236 -0.012565215548178011 0.04464344364466639 0.057613797539797916 -0.021767853028534793 0.049491007566559594
0.019307826265779128 0.03423421593772861 0.055618089003327 0.015365789687970807 0.02918717246488134 0.02878572775881313 0.00836524338326929 -0.009279192759378116
-0.04647387876052085 0.031033754968473323 0.030550688241626486 -0.009757906173055698 0.025795233385338203 -0.018215546494733916 -0.01735956797269765 -0.0008869755279691404

fc2.weight f8 [100, 200]
00000000: a117 12b9 b7a9 933f 6400 b776 a2c9 863f
00000010: e1db 57b3 d202 aa3f f1d7 fc6c fa3c a03f
00000020: 8ab5 aecc a5e4 a2bf bdd4 8b3e be92 9abf
00000030: 7645 3579 6be2 633f cabe 9d7e bc9d 923f
00000040: 8a52 61b6 03d5 953f 83a8 a0e1 d0a8 7abf
00000050: 7d05 032e adb5 a73f 9c49 c88f d672 863f
00000060: a825 dafb 21bc ab3f ecae 975e 6398 913f
00000070: e202 892c b8c3 a03f bc32 d05e 4206 a53f
00000080: ff72 1961 7f89 a3bf 765e a7af 51a8 a4bf
00000090: 1739 6e32 47e6 9cbf a36e d45a 6590 a03f
000000a0: d543 93d2 e9b4 ad3f 0490 d9e2 63f0 84bf
000000b0: 6902 5cbe 8a29 923f c1c4 f06d e307 85bf
000000c0: a2b6 e8ce e285 72bf 6644 c1e6 5693 9d3f
000000d0: fd31 4021 4c1e 96bf c506 3cd4 7a9c 71bf
000000e0: 0088 770d e3db 77bf b18f c0a9 e534 863f
000000f0: 6c44 80b6 5b22 92bf 2ed8 9f0c 5e6e a53f
00000100: ca06 6da5 a62a ae3f 03ea c93f 1733 6cbf
00000110: b502 3e0e fe83 99bf 37ea a240 defb 5a3f
00000120: f0d2 2267 3bbd a6bf d29c a9f2 ef93 923f
00000130: cebc 5109 af80 a23f 1e20 17c6 915e aa3f
00000140: 8665 7c3d 1e30 a23f 6082 f96a 3928 783f
00000150: 130c 7700 8841 913f 056a e3f2 5ab7 993f
00000160: 5068 185f f7e8 a7bf 6ffc 2349 3767 993f
00000170: d2f5 a139 dc4e 9fbf 20a2 152f 2f58 913f
00000180: 85ce 365b 912d 8d3f 0285 c13e 349e a6bf
00000190: fb39 d40a a554 a03f c13c 5786 8823 a53f
000001a0: f3db 9d3f c56c 993f ef42 e55b b57a a43f
000001b0: 0536 796f c121 a63f 30cf e7d8 f254 7f3f
000001c0: ac46 0ab6 0fee 94bf aa5a 493c 7ac9 863f
000001d0: 9d56 ab7e e9c2 833f 8e37 d4df e3a6 5fbf
000001e0: ee6b 8b40 c507 9f3f dd10 b601 bc40 a23f
000001f0: 2fee 5e29 021a 583f 5ace 24f0 152c 993f
00000200: c530 720a e632 953f e962 7c3f 96f8 803f
00000210: cc0f a4f5 9f70 a13f ef17 09b6 510b 9e3f
00000220: 9a21 1d9d 17d4 903f 4889 604d f7e5 a03f
00000230: 11b7 365c 4230 76bf 9afe 9ca8 90aa a33f
00000240: 7bc4 b711 a68b 8f3f e0d4 3ecb 446d ab3f
00000250: c9c7 80f9 2724 92bf 6c3b 57c6 6aae a03f
00000260: 5c07 88ce 4fc1 8c3f 94f7 9780 6939 693f
00000270: 1305 4890 7ffb b13f f4ab 2cda 80a7 a43f
00000280: b034 6121 f53b 913f 027e aba2 c95b 9d3f
00000290: 3c6b 0c30 969d 88bf 1596 135b 535f ac3f
000002a0: 40f0 328a 9e56 92bf bebd 3eaa 9815 943f
000002b0: b269 7594 608a 92bf 8fc0 d4eb 96b0 973f
000002c0: 4c57 70db b0ee 81bf 727e d70a 3dac 793f
000002d0: e381 e24b 7a28 abbf e542 bd21 ef75 783f
000002e0: 85d4 c278 eff8 a63f bb12 9d91 ce12 abbf
000002f0: ee01 7799 ff06 85bf 5e83 4475 21b7 a23f
00000300: fd5d 972b 4246 993f 9e18 3197 158a a43f
00000310: a121 891a 7c04 a93f 5fe3 b921 ad9b a5bf
00000320: 8036 c711 7c12 963f 7dd2 fe98 9d9e a4bf
00000330: b4ed e0a2 7591 a73f 6cc2 f795 3677 6ebf
00000340: a200 05b7 c64a 983f f974 30bc b819 a63f
00000350: dc43 6711 df72 9fbf 3b0e 079e d1bb 8fbf
00000360: 141e 200e d121 91bf 58e6 27e2 e96f a7bf
00000370: 2058 cff9 14df 54bf 1d66 6420 cfdf b03f
00000380: 4fd7 3fbf f887 a53f 01d0 6761 2587 a2bf
00000390: 3a76 7aa9 d059 a4bf 04e8 d016 87e4 7bbf
000003a0: 7e3f 3ee7 7641 903f 16f0 2144 ccaf a6bf
000003b0: 6d24 a82c eeb2 973f 3e9d e0d2 17b5 82bf
000003c0: a5c9 21ae 4bcf 723f 9e99 f760 505a a5bf
000003d0: a70e ed6e 637f 7ebf 921d 5491 127e 92bf
000003e0: 44a1 09df e590 8b3f 4dc8 c1aa 72ea 37bf
000003f0: fd9b 9fa4 c0ee 773f f628 113a cd40 a1bf
00000400: 4d52 da51 c551 7a3f 6c15 3537 8993 ab3f
00000410: a472 a2b7 4573 a7bf 72b1 e294 b9ff 91bf
00000420: df25 029c afec 913f 9208 2432 5aea 743f
00000430: 7b8d 144d f8ae ab3f 72b7 a64d 7123 a43f
00000440: 9768 a9d2 bef7 aa3f cf0d f2c3 54f5 18bf
00000450: b592 7e4a c765 923f b355 a087 588a 86bf
00000460: a16d 5b75 7eac 9ebf 0380 dfce 532e 5b3f
00000470: aec9 53bb 5709 9c3f 74ec 0c18 29b0 9cbf
00000480: 4012 5109 1572 72bf 93eb 24d7 9012 5bbf
00000490: 83fb 6209 b85e 97bf 0207 3c38 b57e 8d3f
000004a0: aea3 c77c 8448 aa3f 43a8 1ac4 ee4d a03f
000004b0: 3f32 7f2a 199f 9cbf e5b7 d7a2 2936 97bf
000004c0: 32c8 12e0 a9bd 9ebf 17e1 edcf 7f53 a23f
000004d0: c23a b9ce 69ea a3bf fd41 8239 0b16 96bf
000004e0: aa78 dcac 7a9e 973f 3d25 76d8 6678 913f
000004f0: da7e e15c dec1 a03f 62b6 18ba 43aa 9dbf
00000500: da99 bcf0 a5cd 8bbf 4f96 d03c 587e 923f
00000510: 6911 6bae 61b7 7abf bf97 ca4c 3fcf 98bf
00000520: 3c1c d7b0 6bfe 633f 16ba 9096 06f4 9fbf
00000530: 8f61 0d75 ec5c a73f a353 afd5 d991 8ebf
00000540: 67fc e3af d791 843f aa27 b33b 53d8 9b3f
00000550: d05d 74ff 375d 8b3f f8d8 5959 b373 973f
00000560: 2f60 0238 e6a3 9b3f a975 0473 e818 833f
00000570: a12c 96da 68fc 61bf 21e3 7c7a 3fd1 a1bf
00000580: 0fac 6fec e5b1 a5bf 32d2 4c48 838e b03f
00000590: 85a9 1b24 a180 883f b5d8 693a 5dcd 87bf
000005a0: cd00 04bb 2a0b 99bf a145 7f41 f505 973f
000005b0: 63a1 1cd4 62d6 933f b332 cb6e 36f9 aa3f
000005c0: 1b66 64be e65d a73f 38a8 55f9 f3df 94bf
000005d0: 33a5 f854 2291 873f dfb1 d6f3 e7c9 9ebf
000005e0: f2c3 3433 f124 9abf 8ae7 249f 2e94 523f
000005f0: 2288 147b 0621 8f3f 19ca 005a e804 96bf
00000600: ce9e 2964 a805 9d3f 1d50 b772 0a5b 8b3f
00000610: b8aa cba9 3c6a a83f b877 33cc 09bb a5bf
00000620: c3d2 3e7c 113c 74bf 49a7 44e9 4709 9b3f
00000630: bedc 21aa aca7 a63f ba16 5ff4 ee15 a03f
00000640: a0d1 9fe0 4795 9bbf ee0c c5a8 9dee 82bf
00000650: 0ff8 86f3 e7d6 98bf 9c75 4ae7 7e40 7e3f
00000660: 54ce be63 48eb 783f 6b1a 6524 d11e 83bf
00000670: a000 d2b2 0fa2 aebf b9b9 31da 9ef1 90bf
00000680: f6b0 b0ff b7a7 9bbf 3e71 b12b 4951 763f
00000690: 0c27 cfe8 c620 a43f d29d de50 f26b 70bf
000006a0: 9142 a0ca 96e7 81bf 1d54 9198 f4d5 913f
000006b0: 2bf2 5e3d 6b50 a2bf bfde 8cb1 08bb aabf
000006c0: 15da 9716 2029 7cbf 8d1d d6cb a454 7cbf
000006d0: 6af2 2019 432b a43f 242e 5eff 5855 a7bf
000006e0: 0840 c042 7ed5 a4bf e144 f2cb d357 973f
000006f0: 1595 1a8e 725e a83f 3750 4ed8 542c 88bf
00000700: a157 d1da ec1f a33f 0c4c f89d 44b8 9cbf
00000710: 7e04 2a24 b845 9bbf 37cf a3f2 75e9 87bf
00000720: 94e3 7295 e937 79bf c930 a9e8 1ac8 83bf
00000730: ac59 5254 cd3d 9e3f e814 3619 27bb ae3f
00000740: 0a87 a629 9344 a53f d394 a584 c57e a13f
00000750: 8ff9 e12e a0e2 a8bf e4ea 80cd 15fe a63f
00000760: 7674 b99a eab1 9a3f 67b9 42c8 5627 ad3f
00000770: 5731 d8d4 104d 8cbf 0f3e 8454 53d0 92bf
00000780: e3d3 a753 cf2f aa3f 2db9 b36d 7961 56bf
00000790: 5ce6 e75d b063 883f 270f 9490 8e5a 573f
000007a0: 4ddd 1f15 1e2d 983f 7bbc a5f4 43d6 71bf
000007b0: d36f 74ef f8b9 84bf 8ba6 d923 975c 7fbf
000007c0: e261 0a26 f6ba a5bf 430a b003 5070 92bf
000007d0: c44f 8131 8daa 98bf 2cdc d030 09b6 ae3f
000007e0: c94d d474 a44c 903f 2915 187b cd02 ac3f
000007f0: e90a 9f35 5abc 613f 3089 86cc 9bc0 773f
0.01920210902292008 0.011126775024308873 0.050802788155060126 0.0317152269403066 -0.03690069316449314 -0.025950405662076948 0.0024273013201898076 0.018179841259039965
0.02132039833698455 -0.006508651678851621 0.046307956568408117 0.010961223853006179 0.054169713967961386 0.017182877205342104 0.032743220745492754 0.04106337935818291
-0.03815839824958366 -0.04034667271815533 -0.02822219128898337 0.03235165342104309 0.05802088447092727 -0.010224132881553778 0.01773659502851147 -0.010268952171914926
-0.0045222148606122465 0.028882367929615425 -0.021599950341668606 -0.004299621392193924 -0.0058249348871601825 0.010843080752301977 -0.017709191335658778 0.041857661286414646
0.05891915101393648 -0.0034423307500308655 -0.024917573565746937 0.0016469641146118605 -0.04441247591004138 0.01814246100039158 0.03613802899132566 0.05150275748343368
0.035523362165075276 0.005897735870889237 0.01685154440725618 0.02511350734207875 -0.04669926677543457 0.024807800139566568 -0.030574265496843563 0.016937958954630017
0.01424706992734249 -0.04417575136245412 0.03189578778448162 0.04128672256376254 0.024828989036418347 0.039998691051215 0.043226284844973185 0.007649372694220877
-0.02043938206276745 0.011126475300597367 0.009649109056606259 -0.0019318795523903562 0.030303079666605663 0.03565013428581818 0.0014710446462079631 0.02458223608227992
0.02070197523839636 0.00828664189570945 0.03406238435312012 0.029340054259840483 0.016434067692246403 0.0330045015291654 -0.005417117328233593 0.038410683233903245
0.01540307752199709 0.05356802922271142 -0.017716049769837903 0.03258069678451289 0.014040587892853722 0.003079134043899987 0.0702438094376883 0.04034044898283887
0.01683028236611922 0.028670454553205722 -0.012019322720836827 0.055414776675928014 -0.017908551392551653 0.019613633528647638 -0.01810599237556127 0.023134573120103637
-0.008756047913304997 0.006267775007898645 -0.05304319549873406 0.005971845730372326 0.044867976657237775 -0.052877860331624636 -0.010267254706264741 0.03655342632760637
0.024682077322578867 0.04011599989512259 0.048862341155259566 -0.042203340880354594 0.02155488832959529 -0.040272641111561015 0.0460316430403184 -0.0037189546708236623
0.02372274868071201 0.04316499039871675 -0.030711636960237473 -0.015494954714888034 -0.016730562674665064 -0.045775708062092135 -0.0012738900033944026 0.06591505566429885
0.042053006502028915 -0.03618733228714178 -0.03974773472621647 -0.006809737865348001 0.01587472711940973 -0.044309981648410865 0.023143502689013596 -0.009134470103232869
0.004592223764222335 -0.041704665982069886 -0.00744570580610896 -0.018059053535606724 0.013459964627330685 -0.0003649263333108707 0.00584292651362883 -0.03369752248598161
0.0064256389429329765 0.05385998534124323 -0.04580133310921511 -0.017577075683833106 0.01750444783877991 0.0051063082958099516 0.054069289597715696 0.039332905510817265
0.05267139741472809 -9.52084528638632e-05 0.017966379091051993 -0.011006061209665718 -0.029954887307082626 0.001658994525762126 0.027379389580298223 -0.028015749066281306
-0.0045033284887421865 -0.001652375646314684 -0.022822261403003374 0.014401832369461246 0.05133451483909056 0.031844579161159924 -0.027950661867907064 -0.022667551578642437
-0.030020384122231465 0.03579329884718357 -0.03889780662995214 -0.02156846560007074 0.023065487671481456 0.017060858690034698 0.032729100072854414 -0.028969820245200124
-0.013575836571885814 0.01806009169754069 -0.006522542541180656 -0.024228085576986077 0.0024406531653969037 -0.031204321803835887 0.045630826271636164 -0.014926626046795571
0.010043797545675482 0.0271924023807412 0.013361394389490494 0.02290230019431136 0.026992413681540647 0.009324851999333488 -0.0021955535818896786 -0.03479956026280307
-0.04237288008865658 0.06467457308901528 0.011964091219358828 -0.011622169823777598 -0.024456660904434813 0.022483665583256877 0.019372505375174664 0.05268259146177936
0.04563828539012268 -0.020385562985588218 0.011507290094487565 -0.030067085511903954 -0.02553154826199839 0.0011339621820085377 0.015199709540471732 -0.021503096097328454
0.02834189521163815 0.013357240320068848 0.04768552372646212 -0.04244261377037567 -0.004940098096928028 0.02640259133583037 0.044248004692172924 0.031417338686464416
-0.02693664844987753 -0.009244186127608658 -0.024257301558229524 0.0073857266585525515 0.006083758136742629 -0.009336122439561131 -0.059830179766323655 -0.016546709125060597
-0.027006983738986322 0.005448613951639479 0.03931256858738949 -0.004009195848915197 -0.008742502268462434 0.017417737781517773 -0.03576979755550654 -0.05220820586549512
-0.006875157685036122 -0.006916660056396917 0.0393925636458093 -0.045573025868261646 -0.040691323898613574 0.02279597217836205 0.04759557709375365 -0.011803305483944466
0.03735294505229026 -0.02804667677089516 -0.02663314553001727 -0.0116757597611251 -0.006156837879807937 -0.009659013962981427 0.029532631179415667 0.06002161200289341
0.041538809618272124 0.034170315210568035 -0.048604016993510794 0.04490726598347353 0.026069322293882334 0.05694075769985112 -0.013818866248606438 -0.01837282374714105
0.05114601036249391 -0.0013660131287980923 0.011908891549853688 0.0014253990396477319 0.023609609641394958 -0.004354730083249265 -0.010120339210111162 -0.007656660452633478
-0.04244202818262345 -0.01800656340129537 -0.024088102480462018 0.05998257370850299 0.015917367582984263 0.05470888259518809 0.002165008726451635 0.005798920239984448

fc2.bias f8 [100]
00000000: bab0 0d93 89ad a63f 0792 a8ee 02f0 983f
00000010: 4ec9 d6eb d1f1 8dbf 4e97 c6c0 d482 9d3f
00000020: 7167 1b83 7fc6 a43f 52d9 bf7d 461a 88bf
00000030: 2058 4612 8ff5 613f b461 705b 5559 a6bf
00000040: 5b76 c5b1 52f0 843f 80be fbda ea8c 81bf
00000050: 17af 2573 8700 b23f 2b8b 66b5 c420 a73f
00000060: 19e2 6f0d ef95 aa3f 92f7 bd6b b2c1 733f
00000070: b901 4d0f bc3f a23f 4f91 a7d0 c671 9fbf
00000080: 9ede 4cae f211 92bf 976c 3f1d 576e 883f
00000090: 50e9 b7c6 fdd4 90bf ba64 7a60 e29b a53f
000000a0: 543f 010d de75 a1bf ed44 2a7c 854b 733f
000000b0: 9029 afcb c917 a83f d772 6d28 11d9 97bf
000000c0: 5ac6 ceff ffd7 5d3f 997e 24f7 9cdf 78bf
000000d0: 83dd edf6 3d13 833f 420a 4924 7813 96bf
000000e0: 7e00 3999 5eac 9ebf dd47 fc69 7297 96bf
000000f0: 7139 6346 0938 823f 5399 4e0c b6c7 7d3f
00000100: 595d d700 ee90 883f 73c7 dc10 9bc6 823f
00000110: 1c0c 0743 14ba 773f c215 f8b0 8174 89bf
00000120: 1402 31cc f5ce a33f 2a36 d17a 5335 ae3f
00000130: e552 564d 2737 63bf e576 ed30 e9e4 94bf
00000140: 4078 2be8 d473 84bf 2f6d d7cc 8fb0 8a3f
00000150: fef7 328c 0650 9abf 2b28 1723 1080 983f
00000160: 79ca a702 c1a8 9c3f 8a88 57f5 9b18 a53f
00000170: 6f89 5ff8 1a3f a3bf 670b 5b6c de6b 81bf
00000180: 9abf 436e a343 b43f 7d6b 4abe 6f1a 89bf
00000190: 4300 70ea 0bc9 a63f 2b9b bec7 03f4 893f
000001a0: 032a 62af 884e 853f b955 7c4a 6172 b03f
000001b0: 0976 5b5e c5ae aabf b0f0 b752 9347 82bf
000001c0: 932d 55fa a034 9c3f 31be a48e 3b35 84bf
000001d0: 837a b5f4 40a3 9b3f 1cd0 e4b8 7d72 8bbf
000001e0: 434d c082 d753 a3bf 901e de79 72ac 963f
000001f0: b76d b70e 2b25 9a3f afd5 c2cc ab4d a1bf
00000200: dd1c e064 246e 813f 84b1 aa3b 41b0 253f
00000210: d771 9452 f31d 923f 3a70 60a1 c1c0 81bf
00000220: c275 c417 fc5b 923f 7c4b c56f 58aa 803f
00000230: 5c97 c761 1908 a03f 3a5a ad26 f75f 7d3f
00000240: f3da 079c 4775 863f f734 7681 56aa 80bf
00000250: bdac 7956 618e a13f bd58 0aca a6a1 a83f
00000260: 4562 ae10 24c8 1a3f d0e7 c3b0 2a26 87bf
00000270: 15a7 67ca 7290 a23f a82a 7b8a 9e20 873f
00000280: 02c7 c5a2 2cb6 6dbf 2750 cc65 e842 9a3f
00000290: be2e 18e7 a9d5 8ebf 9edd eff8 64fc 903f
000002a0: 3d23 9717 8e5c 943f 1b55 6315 3fbf a03f
000002b0: 088a f467 fffc 883f 606b 05ea 4513 9b3f
000002c0: ba6d 569c 0f99 9d3f bad8 f3b0 dbe4 a03f
000002d0: 5489 5bab 3864 a03f be82 48a0 c3e4 90bf
000002e0: 39eb d1a3 c4e6 a93f 2e52 b67e 887f 70bf
000002f0: 8769 6c96 dd69 923f 3cfe 51d5 0ae8 5dbf
00000300: ce8c cd5f ec4a 993f 8c7e 5c5a 768a 9bbf
00000310: c88f 3aca 23c9 90bf 767a af0a b021 b43f
0.04429273529135132 0.02435307103782416 -0.014621391305671107 0.028819393411729614 0.040576920274999824 -0.011768866264884412 0.002192286907482646 -0.04365030995558375
0.010224004793310806 -0.008569559867708465 0.07032057343684205 0.04517187799799268 0.05192515410448468 0.00482339568759284 0.03564250647332607 -0.03070746086622594
-0.017646591080135658 0.011929207401342885 -0.01643749738102801 0.04220492770873237 -0.03410238178969274 0.004710694719180381 0.047056490052983624 -0.023288982479573086
0.0018215179436364055 -0.006072629114242689 0.009314045046024294 -0.02155864449947332 -0.029954412557572578 -0.022062099188651863 0.00889594312721151 0.007270537495889978
0.011995181465791193 0.009167872860050363 0.005792693279036445 -0.012429249966781412 0.03868835561343445 0.0590005958007221 -0.0023456351870641983 -0.02040447579508155
-0.009986556372890587 0.01303207725407293 -0.025695898348878636 0.023926021711112504 0.02798749521930197 0.0412033783902795 -0.03759083063029577 -0.00850652473616771
0.07915708009727354 -0.01225745486708773 0.04450261341844499 0.01267245248147971 0.010403697826650854 0.06424530094621773 -0.05211464669057981 -0.00892558189570311
0.027544513014885984 -0.00986715821326731 0.02698995107254599 -0.013401968197833063 -0.03774903746684768 0.02214220875569467 0.025532410405373542 -0.03379570841336076
0.00851086075637258 0.00016547008802570925 0.01769237700965384 -0.008668434846235685 0.017929018927238756 0.008137408171625664 0.0313117915973595 0.007171597894589038
0.010965880822352036 -0.008137393785342157 0.03428939991575806 0.04810830322564772 0.00010216446041367521 -0.011303266066977985 0.03625830384028298 0.011292685128315341
-0.0036269065660058395 0.025645858014357394 -0.01505596863264402 0.016587808317095935 0.01988431948646795 0.0327090943916721 0.01220130477901639 0.02644070854999414
0.028904193799105228 0.03299604926171314 0.032014628331824696 -0.016497666032708073 0.05058874606853298 -0.004027875121569253 0.017981970125313686 -0.0018253427308819866
0.024699872348162448 -0.02689537931939738 -0.01639228746229529 0.07863903294444605

fc3.weight f8 [50, 100]
00000000: b339 675d 4260 a03f c7b6 804f 0fe4 903f
00000010: 8f4d 7bd9 bfcc 9e3f 6d10 5063 56e1 aebf
00000020: 4cd6 02e0 7c3f b53f 7e9b 1e68 e31c b03f
00000030: 58fa 4d0b 2743 9abf 8ba6 7155 ec51 8cbf
00000040: 1128 c965 e2bb 803f d85a 9d3d f668 9bbf
00000050: ca12 23c9 70f1 663f bd63 233c bd6b ab3f
00000060: 8590 3434 94be aabf 672a 1fc6 c605 943f
00000070: b613 22d2 d807 983f ae14 fe36 642a a5bf
00000080: 8342 5287 5129 b13f 4359 cd29 19d6 6b3f
00000090: db36 39d7 d2e8 873f 9a3c 58ab fe97 a4bf
000000a0: de3b d413 9256 a43f 20b9 9a85 7f9e 77bf
000000b0: dc80 c598 e7bf 9dbf fb06 d169 fcf7 763f
000000c0: 288a 7e9e c5eb 93bf 7a74 cce2 1d35 963f
000000d0: c05a 4759 6296 8dbf 0fcc 21f0 31db a6bf
000000e0: 824f e969 4b1d b13f c121 fa44 2a9a a93f
000000f0: 3ebf 4d8a 6a21 ae3f fa80 af33 e87a 7f3f
00000100: 700b 334d ba59 a43f 686a da4f 6a90 b53f
00000110: cf25 e562 3b8b ad3f 095b 5622 038a 76bf
00000120: d817 5c68 6f91 b0bf d7da 4ed8 a29b a1bf
00000130: 2799 bf9e 3391 b33f 5e26 7ef7 3862 b2bf
00000140: 0a2f b453 03d7 913f e1a9 35ab fe36 a43f
00000150: e686 2c89 87eb b33f de65 c8ac 2415 b23f
00000160: 7bdb a613 4f44 9ebf 102a 4f05 6ee1 9e3f
00000170: 520a 5d88 f43b b33f 4654 5328 32ec 893f
00000180: aebc 115b cda5 a2bf a847 d7c2 c985 6bbf
00000190: d3bf 1519 8e62 a3bf 1609 e409 8656 b3bf
000001a0: 7b01 2fb1 aea2 973f c634 4f3d 9530 913f
000001b0: 77bd cd8c 532f b2bf 96ea 60de 3c90 a83f
000001c0: ecb9 c6c1 480f b13f 053a 3e33 ebba 9a3f
000001d0: f3ce a6ee 8d9d ab3f 2a8d e549 d816 b4bf
000001e0: 6564 670f 7faa b6bf d1d5 9a26 f22f 723f
000001f0: 2383 bdcb 8aed a53f 7690 7c4e 4854 b43f
00000200: f21f a451 d5ea 9dbf 1a01 c1f3 cbda a53f
00000210: 719f ea7d a19e 913f 09b8 09bf 146c a4bf
00000220: 228a 31b5 c051 a43f b825 e07b d4ff 923f
00000230: 943e 1d23 7a3b 993f bf5e 630a 2b56 a23f
00000240: f02c 2e70 588f b53f c35f 3ac1 3795 9d3f
00000250: 28ea 83c0 46c6 953f 8929 810f 4504 a43f
00000260: 714f be9e 16ff 99bf 76c0 e9e4 c64a 9a3f
00000270: d82c 6938 4976 80bf 86b8 75b7 5843 b0bf
00000280: cea5 8616 9d05 b4bf 1dcc ae35 0fb5 7cbf
00000290: d9af 77ee 71d6 b43f f08b a8f9 24d4 a5bf
000002a0: 4912 9686 35bd 9c3f eade 7ab4 a580 51bf
000002b0: b48b 0aa3 b69d 9ebf 5073 f95d 152d ae3f
000002c0: 4679 7d7f 8488 80bf 9ef2 f88e 52b4 893f
000002d0: 00be b8fc 9dfe 843f ccb3 6444 2666 aabf
000002e0: 08ec 0949 d12f 82bf 1b11 ec43 fd00 90bf
000002f0: 0129 1021 eafd a13f d5c7 47f5 ba76 a03f
00000300: 26cb 541d 5169 9cbf 5000 6070 c4eb a9bf
00000310: 8857 a3bb 7182 abbf 4533 bd35 d35f b43f
00000320: 8df6 8ad5 aa7c b33f 2d77 52d7 a8fe 883f
00000330: 9723 506c 620b a2bf e7b0 5204 8adc a33f
00000340: c04c beba ce26 b1bf faee 8f88 3d09 92bf
00000350: 39d5 5ef6 acd8 73bf 2551 8931 1693 933f
00000360: 3e64 a238 facf 743f 456b c8e7 bc43 ac3f
00000370: 23d9 f80d 70d3 aa3f 7ddd aa88 635c 903f
00000380: 5853 5e7e 34aa 513f bfa9 5a19 e994 693f
00000390: 1ce9 4ce2 6508 a93f 6708 7017 7a9a 9c3f
000003a0: 1d5b 9870 b186 6cbf 52a1 675e 0953 a1bf
000003b0: bbf5 be4a 918c b13f c92e 096f 4f43 ac3f
000003c0: 793a 0d3c c899 a33f e3ed c705 b698 8c3f
000003d0: 1fe6 78e5 004e 90bf ee10 d632 9109 b33f
000003e0: 0f3a 4789 07d0 b0bf 4aff f060 1553 a0bf
000003f0: 8404 05d4 07a4 a23f 05e1 cc99 e418 b83f
00000400: 97ba df76 34bb 773f 239a 5bcc b29b 9ebf
00000410: c6c6 c06f 3578 a8bf 7d7b 8944 140e 7dbf
00000420: 7b9e f282 5e00 b43f 13e0 a51e 90b8 7dbf
00000430: 44b5 6598 bf49 76bf ebb4 cbc4 d4dc 9d3f
00000440: 152d 3384 4c1d 823f 6e07 1e32 69c9 ac3f
00000450: 09e9 de06 07a6 af3f 3573 d671 496a 9abf
00000460: 9172 3fc4 1b29 9fbf b585 cef5 a388 b03f
00000470: 2c63 9e6d 8cd0 8c3f 96b7 74b4 0e7f 863f
00000480: 46d2 fc40 ca06 94bf deaa ed3a 7203 8b3f
00000490: d2e1 cdd8 7f9e 7d3f c86d d5f0 aae6 b23f
000004a0: 40c4 78dd c9bd 7fbf cd28 79f8 3678 a2bf
000004b0: 2c22 87c1 ec86 78bf 094b c2ea cde0 b6bf
000004c0: a92b c34e 6eb0 b03f a1d4 2653 feac 32bf
000004d0: 63b6 850e 5e5f adbf e88e 6a62 7708 b0bf
000004e0: af64 6951 b6ee a63f aeb5 71d1 6f6a adbf
000004f0: fd25 2a08 1c7a 9ebf bb60 6f74 9ab1 abbf
00000500: 1f7b aac6 c801 a5bf bdb4 cda0 0170 9bbf
00000510: 9316 cca8 4ca2 b13f 2dc0 0ccf 84d8 a83f
00000520: 47d4 2b8e 16c1 863f c9c3 e944 53cb 9fbf
00000530: fdc4 4c11 2a0a b13f ec5e 82cb bf62 a6bf
00000540: 864c fc4d 15ad 80bf 3862 b9ef a083 a73f
00000550: 46aa 12c9 efe8 ae3f a857 e2cc eaa9 883f
00000560: 2718 012f 17fb b23f 61aa c00d b672 ad3f
00000570: cc3f f330 d1ef 6cbf 548c 9953 99e5 893f
00000580: f26a c2a0 a1f8 8cbf d113 1da5 5ec0 9f3f
00000590: 46b2 8c35 357f a43f ebc6 6c86 794f a73f
000005a0: b9f2 f040 1a3f 9a3f 88b4 b84d 5829 96bf
000005b0: d3b2 d037 3feb 83bf 953e 44de dbec 96bf
000005c0: 606a 18e2 90c8 7b3f 202c f564 8c75 91bf
000005d0: 020d fd39 ca8e b83f 158d e5e7 5c2f a3bf
000005e0: b8eb 68b2 5900 aebf 04a7 5212 b8de 5cbf
000005f0: 7f55 32d2 03f9 963f d272 5f1b 8845 b23f
00000600: 3bd2 eca0 39d1 683f 9ccc b9cc 085c 6dbf
00000610: effe df4e 78b7 973f 1908 ec40 2e59 a93f
00000620: 4492 f16f 3ad1 aa3f a8ee 2eb0 7e78 4abf
00000630: 9cbe d249 0378 a93f c903 6491 368a b63f
00000640: d41b b887 3814 a43f 16f9 d578 18a3 65bf
00000650: 6cff 1b86 bfc0 a43f f56e b594 385f a53f
00000660: 3bba 4932 688d b43f 8c35 34e5 3579 98bf
00000670: f4b4 9e7e d640 aebf 11ef cf4e 7f48 6e3f
00000680: 7926 0f61 cf68 af3f ca62 2662 bb2c 903f
00000690: 6a52 758e 9102 9bbf 30bd 30e9 ef26 a5bf
000006a0: 350d c447 ed96 77bf 96cb 7615 31e5 a03f
000006b0: e4a9 3244 9b67 823f 66f9 ef3d 2de7 9bbf
000006c0: 7a05 07b4 c010 b63f 0461 284a 5d4d ab3f
000006d0: 424a dc1d d1ff 873f 93c3 6125 5e65 a3bf
000006e0: 47ff 5797 4af4 a9bf 3298 6752 b2bd 953f
000006f0: 367a c1f7 b893 b63f 26c7 1d54 17be b73f
00000700: 346f 8312 ec9d 903f 5178 3e2c 2008 a83f
00000710: 6273 3c81 1d18 813f 6dd8 9b23 0c8b 77bf
00000720: 22a1 b07d cd80 5a3f 791f e577 f5b0 9a3f
00000730: e5d5 deec 8a42 b93f 4a35 3041 30e2 afbf
00000740: 6373 f713 8bcf 953f bfc9 062a 4583 8dbf
00000750: 8dc7 baf4 951a a0bf c9ab 1cfb a11a 67bf
00000760: 454a a316 1a2a 7dbf 673a 8d12 c808 883f
00000770: 8436 fa8b 614c 97bf 05d1 5b34 fd87 91bf
00000780: 8534 f30f 839e 943f 3abe 6c5d 6e11 b03f
00000790: e217 03a5 ef30 aabf 2ac1 e7d0 78d3 85bf
000007a0: 040d 4685 53ec a33f 1ff5 4b96 029b 7e3f
000007b0: 1fa4 5d74 4239 b33f 440c a5d8 4737 96bf
000007c0: d758 0000 244f 84bf 1c71 82cd e683 b0bf
000007d0: 69c6 ba16 c661 adbf 6129 9b29 37fd 8abf
000007e0: d684 6ddf 0ea8 8bbf 0ea1 035e 3486 7d3f
000007f0: 00af 2e33 ec30 a6bf dafb 1057 14f2 afbf
0.03198439970184399 0.01649497912165179 0.03007793202307379 -0.06031293833078242 0.08299999684353415 0.06294080059033821 -0.025646791520097828 -0.013828131063024848
0.008170860987906566 -0.026767585287724355 0.0028006747098479933 0.05355635985478766 -0.052235251782151194 0.019553285448447612 0.02346743376303425 -0.04133904620452121
0.06703671983474106 0.003397988459634822 0.011674544518565913 -0.040222128311250674 0.03972298137716 -0.00576638997305981 -0.029052370738441677 0.00560759161914048
-0.019454086111759278 0.021686999290171795 -0.01444699130017335 -0.04464107567118713 0.06685324989058297 0.050004311485341464 0.05884869516637402 0.007685572661074719
0.039747068332437574 0.08423485230961492 0.05770288068977047 -0.0055027124812088235 -0.06471916482777773 -0.0343905343101391 0.07643435121244534 -0.07181125681213404
0.017421771987797853 0.03948207702599738 0.07781264399502738 0.07063512056665597 -0.02955745274968134 0.030156821321535132 0.0751335938375999 0.012657539230000247
-0.03642122017560588 -0.003359693588870411 -0.03786129051411504 -0.07553899518464777 0.02308152157252284 0.01678689181044459 -0.0710346430548635 0.04797544684011716
0.06663946848741603 0.02610366344702621 0.053936419851565186 -0.07847358516805927 -0.08853906751700576 0.0044402560248974635 0.04282792794288628 0.0794110480897546
-0.02921613035962873 0.0426849112559486 0.017206691084225626 -0.03988709289556886 0.03968622409663093 0.018554039059414967 0.024640949624255074 0.03581366063889168
0.08421852816370623 0.02888953320379507 0.02126417684574214 0.03909507574333577 -0.02538714736836262 0.025675876352068326 -0.008038112672826989 -0.06352762679100196
-0.07821065711927774 -0.007008609211811592 0.08139717170678241 -0.042634158588292226 0.028065525378695253 -0.0010682695591820953 -0.029898503972286952 0.05893770954273825
-0.008072886601152473 0.012550969112561202 0.010251268649056122 -0.051560588692474235 -0.008880267182794568 -0.015628773947370705 0.035140339408899386 0.032155840341047494
-0.027745501914249314 -0.050626887052204084 -0.053729585795436796 0.07958717405308587 0.07612102235267511 0.012204474516973452 -0.03524310657673551 0.038791955020629314
-0.06699840602077511 -0.017613374195192023 -0.004845309862436858 0.01911577870699079 0.005081155230208854 0.055204299253282 0.05239439173276341 0.01597743531848782
0.0010781777031969222 0.003122763892709573 0.048892196535648774 0.027933032684821415 -0.003482195436628101 -0.03383664395716103 0.06855114054538707 0.055201036743338934
0.03828263981869368 0.013963148166104616 -0.01592255974376233 0.07436473361127913 -0.065674277320092 -0.031883876880327636 0.0364077040017117 0.09412983660593362
0.005793766917106999 -0.02989081737805511 -0.047792119876601855 -0.0070935050685808606 0.07813063332525332 -0.007256091087008104 -0.0054414257232172115 0.02916271639962968
0.008844945702000598 0.05622414337905367 0.06181356390830401 -0.025796077321149375 -0.030430253842370695 0.06458496810093702 0.01406964978723265 0.010984530336454228
-0.019557152000930132 0.013190166877128314 0.0072312349337768245 0.07383221034745369 -0.007749355826988824 -0.036073415595255655 -0.005988049343109963 -0.08936774236125812
0.06519212172422208 -0.00028496941663586946 -0.05736822058939308 -0.06262918617954549 0.04478997939868045 -0.057452673260608975 -0.0297626857741644 -0.05408938094450507
-0.04102923798676827 -0.02679445785490907 0.06888274308229318 0.048526907229075135 0.011110473836632674 -0.031049061852573865 0.06656134531364795 -0.04372214659923465
-0.00814263004534711 0.04592612196274043 0.060370915694268265 0.012042841317718558 0.07414383790555289 0.05751580160025039 -0.00353232247980626 0.012644956458819724
-0.014146101683129218 0.03100726969502771 0.04003301886254866 0.04552821889809685 0.025631342138000977 -0.021642093414062674 -0.009726041689725495 -0.02238791984660667
0.006783071470204932 -0.017049974119157096 0.09592880168661469 -0.037470725352955515 -0.058596423176332235 -0.001762084729572456 0.022434291557677618 0.07137346905023925
0.0030294538077220413 -0.003583924471791967 0.023160819830080944 0.04950851957802644 0.05237753502368439 -0.0008078211397939032 0.04974375034487119 0.08804646539284912
0.0392167726204701 -0.002641246601967083 0.040533051605961073 0.04174210372249646 0.08028269984945606 -0.02389988147210924 -0.059088423687493036 0.003696678779759107
0.06134651241116002 0.01579563890990946 -0.026376985855068126 -0.04131269189417208 -0.005759169460591897 0.032998594160196834 0.00898667623399247 -0.027249056725844233
0.08619312663269865 0.05332461862798435 0.01171840069176711 -0.037882749617785504 -0.05069192025621177 0.02123144748647849 0.08819156693196181 0.09274431041356176
0.01622742522236749 0.04693699398124863 0.00834677744529139 -0.005747840326639869 0.0016176230190102022 0.026065669482050666 0.09867161066980364 -0.06227255626445556
0.02129952725759966 -0.014410534234092219 -0.03145283329412427 -0.0028203166665625484 -0.007120229633260926 0.011735499445106613 -0.02275230805258001 -0.017120319672316437
0.020135925148498508 0.0627659776771389 -0.05115460290248543 -0.010657256961139245 0.03891240121722642 0.007472047906728534 0.07509246197663842 -0.021695253942436446
-0.00991657376293313 -0.06451265828440395 -0.05738657977543655 -0.013178282696931278 -0.013504139131045905 0.007208065566580281 -0.04334200024399415 -0.06239379465886659
