weights/numq/gspc/numq_^GSPC.pt (torch, 526847 bytes, 8 tensors)

fc1.weight f8 [200, 200]
0	0xbfafd1f65c6b8820	-0.062148760587448004
1	0x3f95757f9318435b	0.02095603308959269
2	0xbf504943bd8fdbac	-0.0009940301445092543
3	0x3faf07ae9c0f863d	0.06060548453366408
4	0x3fa8c822d0b7015d	0.04840191648281931
5	0x3f5bc659d113c7c4	0.0016952397457399163
6	0xbfa33746ce8c3860	-0.037531101907106956
7	0x3fa33d12f64d8ec2	0.03757533318164753
8	0x3f8210d096012f0e	0.008821134164598312
9	0xbfa49989ecbfb1bb	-0.04023390784263677
10	0xbf9757b8f3051167	-0.02279557212138297
11	0xbfb2dff74961cf4c	-0.07372994939379146
12	0x3fb3da96694fa7d9	0.07755413123200529
13	0x3f9eb620b473ff4c	0.02999163724325564
14	0x3f823909bfbfe9a3	0.008897854007945244
15	0x3f9d1b62c901a2bc	0.028424781340080627
16	0xbfa9f5f36952b772	-0.0507045808857204
17	0xbfa18ef4408021c8	-0.03429377829894836
18	0xbfb2d1b57edc4111	-0.07351240489174794
19	0xbf992bcb7bc515f5	-0.024581126622498634
20	0xbfa1133950b064f0	-0.03334979162191043
21	0xbfb46d53c3982c49	-0.0797932007337049
22	0xbf7365abf89b1edd	-0.004735633623290628
23	0xbf90e810f51bfb0c	-0.01651026245144309
24	0x3fa9503152e4bb9c	0.049439946526369044
25	0x3f9350bdd6c5f6a8	0.01886269210216676
26	0xbf766ada4bd3cadc	-0.0054729964442567745
27	0x3f35d299e583490e	0.0003329873775445171
28	0xbfa35c9492b2ec2d	-0.03781570711858993
29	0x3fb56f66d6344290	0.08373110513299253
30	0xbfb008d8724ec66f	-0.06263497153011043
31	0x3fa5209719667044	0.04126426873264724
32	0x3fb244cea436ee3c	0.07136241444725838
33	0xbfb70c8c518b5bcb	-0.09003521910504657
34	0xbfa44f9a66c75383	-0.03966982369062235
35	0xbfbcbcb3981d0e5f	-0.11225435699184903
36	0x3fa98758953e7ba7	0.049860733240385806
37	0x3f58006d9ad4f6d1	0.0014649458274357716
38	0x3fab68b817af6904	0.05353331841588907
39	0x3f82089c57966947	0.008805486128768648
40	0x3faf50dba6090861	0.06116377260015394
41	0x3f888654d8d91d12	0.011974966876677349
42	0x3fae3759b8f2b6d5	0.059016040636704105
43	0x3f95def6cad2673b	0.0213583527844101
44	0xbfa88e7e7d0a65a8	-0.04796214367270163
45	0x3fb32f5218e5c970	0.07494080646373447
46	0xbfab26be47f43d75	-0.053029962809996535
47	0xbf89d5d64f8c2b5d	-0.012614893248174825
48	0xbf92e77f7b1ac6bc	-0.018461219681461513
49	0xbf523425dd4f7e1f	-0.001111065842671517
50	0x3fa178a5f3dd162b	0.034123598116405716
51	0x3fa3226a66d07b25	0.03737194542940462
52	0xbf8ad51f9b7874ba	-0.013101813251575545
53	0xbfb2a38ed8ca6a7a	-0.07280819695226085
54	0xbf96e52663eb50f0	-0.022358512734016622
55	0x3fb457b0ebafc2ff	0.07946305994097357
56	0xbf8f8eca98c5b040	-0.01540907171939676
57	0xbfb0265c93f351dd	-0.063085352059097
58	0x3faac4bf02822e2a	0.05228230386373085
59	0xbf96ab7a78e54785	-0.022138513211138928
60	0xbf7375eff6b743c8	-0.004751145704589406
61	0x3f218b5c47863020	0.0001338529725781754
62	0x3fb33bdd14157b91	0.07513219585733412
63	0xbfb9c7ffebaaae13	-0.10070800307828902
64	0x3fa10bd554e1d5d7	0.03329340611609737
65	0x3f90e0f1af8a687e	0.016483093585158752
66	0x3f7d4d3e86c3f3ae	0.007153743976457001
67	0x3fb08cea2cf4fe13	0.06465018842299512
68	0xbf99a2d9e2d61c16	-0.025035290212624593
69	0x3fa630590ca9a7bf	0.043337614818326646
70	0xbfb13e27d332304a	-0.06735466867593334
71	0x3fa45453d1b6670e	0.03970586714713252
72	0x3fa74347e2627b0f	0.045435186753129846
73	0x3f97e022ba0f1319	0.023315947157033088
74	0x3f9025be372f6d20	0.01576897823165979
75	0xbfb205c2ed0011ab	-0.07040041242732424
76	0x3f7f8002c6f6b60b	0.007690440033383715
77	0x3faa144e1e860b4c	0.05093616602518711
78	0x3fa2af8df250f750	0.0364956243797524
79	0x3fa6e40ce830d926	0.04470863661156192
80	0x3fa73ca193a0feec	0.045384454032044136
81	0xbf60233c296b83a7	-0.0019699263606160647
82	0xbf94abb77d96a3bf	-0.02018629745512945
83	0x3fb31f982847141a	0.07470084174481464
84	0xbf9aee602f28b1bb	-0.026299956205706226
85	0xbf7a8881da08e1de	-0.006477839692302171
86	0x3f90dfd308773584	0.016478822128012563
87	0x3fa0cfb5119bd556	0.032834680938246194
88	0x3fb7ddb0c65b46b1	0.09322647898377558
89	0xbf9c79a3ca43ecf7	-0.02780776903180723
90	0x3fb680e4c6961572	0.08790426109597663
91	0xbfb4c8d524368b84	-0.0811894620333487
92	0xbf7dbd7004bbd230	-0.00726073987219826
93	0x3fa123a51e6120d2	0.03347507472841617
94	0x3f97aa7e30e97bac	0.023111316428522308
95	0xbf9f69b2dac3293b	-0.030676645853227696
96	0xbf9127492a27f308	-0.016751425931931713
97	0x3faedffc58bb423b	0.060302625495414174
98	0x3fa4b83b06a5465e	0.040468067704421115
99	0xbf9c174ed711ab2e	-0.027432662846346982
100	0xbf86a534b720c10a	-0.011057292784329781
101	0xbfaf28e51d24aa73	-0.0608588789057948
102	0x3fb3bf290f9cb7f8	0.07713562613636771
103	0x3f940ad3fee88d85	0.01957255595529041
104	0xbf918349f21490be	-0.017102389717493997
105	0x3f868bc9a3dcc0a0	0.01100881129568193
106	0x3faf8cb5184872ea	0.061620387281640834
107	0x3f91d4cae19afaa2	0.017413301486835515
108	0x3fb9d4608685dccd	0.10089686664820192
109	0x3fa8f32b6dc9312b	0.04873023715171806
110	0xbf9efd33430fe612	-0.03026275727095224
111	0xbf82b2f460390d58	-0.009130391298760074
112	0x3fb6c1a965490f14	0.08889254305637123
113	0x3fa7a0d76eb24966	0.046148998511074166
114	0x3f992af52f543323	0.024577933324553613
115	0x3f65b5f07ac1a819	0.0026502320161414625
116	0x3fb1fc4c85bc21dc	0.07025602593433383
117	0x3f619d88bd1dc56a	0.002150313442080322
118	0x3fb293338c624972	0.07255861451475257
119	0xbfa457fb5454df30	-0.03973374752462033
120	0x3f8742a85fea1f15	0.011357608248786325
121	0xbfbd616b1a398790	-0.11476773634197301
122	0x3fb7384cfd90809d	0.09070283117807994
123	0x3f980b08a1558d5c	0.023479590270097148
124	0x3fb2d5b88cf88b78	0.07357362214729146
125	0x3fb286a6a66278ee	0.07236711084485467
126	0xbfb08828245b7bef	-0.0645775879633985
127	0xbf91c5ea3dad34d4	-0.017356548323097368
128	0xbf7bba9098595639	-0.006769718956623865
129	0x3fb2aa75f5ecb373	0.0729135251428497
130	0xbf9e857ed48656fb	-0.02980611965320799
131	0xbfa138f84c347f47	-0.03363777094113956
132	0xbfa94a3817126a2a	-0.04939437181129265
133	0x3f8824ac01f5e62c	0.011788696107703243
134	0xbfaa76014df9ae24	-0.051681557434531095
135	0x3f91128b59a379d6	0.016672303529839137
136	0xbf97d45946a56300	-0.023270983635799602
137	0x3fad55efa41bb8be	0.057296265394926035
138	0x3fa03005e3a04ab9	0.0316163864482823
139	0x3fb3ba5718346506	0.07706207600530854
140	0xbf9ccca9c10bfefa	-0.02812447777523539
141	0xbfb0d981cdaeb69b	-0.0658188941149213
142	0xbf9ebd1519f11d87	-0.030018167217603
143	0x3f932b83f0153b3c	0.018720685509204346
144	0xbf7f680df48c6942	-0.007667593491328896
145	0xbf810470f7099a1c	-0.008309252299295848
146	0x3f9f29a7507ad721	0.030432333266353532
147	0xbfb3aa64e775f511	-0.07681875849626275
148	0x3fabccc7b9c8b4ac	0.0542967237746351
149	0x3f77b7061bb8a8a3	0.00578977953004248
150	0x3f8e45bcdcae6faf	0.014781451687490092
151	0xbf8689ca4c820cfb	-0.01100500150665206
152	0x3fa1db8553cf7560	0.03487793586803423
153	0x3fa9664988999c0a	0.049608514714059096
154	0x3fbe18011ccd698f	0.11755377724822423
155	0xbfa6b7e770797028	-0.04437182662943001
156	0x3fb0c190b3428afc	0.06545357109511579
157	0xbfa0880158067817	-0.032287637706062515
158	0x3fa7b884f75c923f	0.04632964629698621
159	0x3f9268d5038c61f9	0.017978027669501604
160	0xbf8566aad7b3ab08	-0.010449728686997797
161	0x3fb6de6cd4494768	0.089331437900254
162	0xbfa9d9bd2f8e8656	-0.0504893417885454
163	0x3f930600fed41f57	0.018577590516570677
164	0xbf8872b748708d75	-0.0119375533086614
165	0xbfa0c6db137a3ef8	-0.03276714909327255
166	0x3f7e6ccf75425372	0.0074279884176079326
167	0xbf9707fc9be33290	-0.0224914045473264
168	0xbfa350d265891624	-0.03772599687048864
169	0xbf90e631617cd056	-0.016503116202514732
170	0xbf918ef6fa6e26ac	-0.017146929774333117
171	0xbfa3889416105f0a	-0.03815138596854524
172	0x3fab9038e530aca6	0.05383470342379697
173	0x3fab88eae297ca65	0.05377897277857783
174	0xbfa84313a59d04d4	-0.04738675495765113
175	0xbfb4e81634d29ce5	-0.08166636266342982
176	0x3fc03f33c79c4496	0.12692878004648794
177	0xbfa917c3196d2e1a	-0.04900941548711675
178	0x3fa0a8ccb0699dd5	0.03253783849214257
179	0xbf9fe3a341ddcfd3	-0.0311418065025036
180	0xbf9243ddd321aff9	-0.017837015162896794
181	0xbfa082e578cc6f8f	-0.03224866008369453
182	0x3fb9ed6e6fa7efcc	0.10127916551567678
183	0x3fb8a4b389ad34dc	0.09626314269299335
184	0x3f930164785aebcf	0.01855999931897739
185	0x3fb4e9ccaafe6e2e	0.08169249701170919
186	0x3fa03dd5dae95d5e	0.031721766445736974
187	0xbf98246f79e9ab3d	-0.023576490226712144
188	0x3fb3a8f61cb01c03	0.07679689598454335
189	0x3fc09d710086debf	0.12980473066067152
190	0xbf901a124d8466a1	-0.015724454861902108
191	0x3f881f5e5b216fae	0.011778580814443131
192	0x3f8fb249d92614f1	0.01547677701888481
193	0x3f9c74aa080c0777	0.027788788548611856
194	0xbfaf8e7add1d292e	-0.061633910647815746
195	0x3f8fd31bbcebffaa	0.015539375975549625
196	0x3fa20e822d887a82	0.03526694112610064
197	0x3fa79c37b452e2c5	0.04611372066705636
198	0x3fb1a0a3e0547be0	0.06885742403800021
199	0x3faad796bfdfcbef	0.05242606250967429
200	0x3faa9a1c331114fe	0.05195701716778876
201	0xbf7d5342b912d3c4	-0.0071594816555959374
202	0x3fa67b20ee9ae69e	0.0439081469789475
203	0xbf511dd90d8d6f97	-0.0010447139413462864
204	0xbf92e3cc23425f5e	-0.018447103168539918
205	0xbf9ac24243bda6fc	-0.02613166368920526
206	0x3f99ef2a6829ca71	0.025326407058353376
207	0xbf92f175c69771f5	-0.018499222036426805
208	0x3fad55c2a0f7e5ff	0.057294923924882106
209	0xbfb28f886947a0c8	-0.07250263757998987
210	0x3f6f1ee7a7c3d10d	0.0037989162939259303
211	0xbfa716669e268793	-0.04509277992771312
212	0x3f9f8c3ce451279d	0.03080840247665827
213	0xbf5947a3ca291194	-0.0015429591664012131
214	0xbfb14d0313e4e2cd	-0.0675813602036996
215	0x3faa0930982c47d9	0.05085136277752129
216	0x3fa1fd8acb2389bd	0.03513749818536691
217	0x3fa35060558abcc2	0.03772259754384201
218	0x3fb1dfc86b8fb08e	0.06982090593345644
219	0x3fb0198d775fde1f	0.06288990177551355
220	0x3f84e136947d0e32	0.010195185095319113
221	0x3fb27ce964affc7b	0.0722185011691056
222	0x3fa4aca588e2df92	0.04037968917822278
223	0x3fa7e736bb8d265a	0.04668589629598037
224	0xbfa0bbe6ce0e620a	-0.03268357529958983
225	0xbfa1bdb4c46e5135	-0.034650467852005574
226	0x3fb8857ab3225bf2	0.09578673241990979
227	0x3f9d50d12d863ce3	0.028628605273806406
228	0xbf87c6f51214caaf	-0.011609949697775816
229	0x3fa639ec6022f209	0.04341067002812699
230	0xbfa5d5b0b7f75385	-0.042645952660371335
231	0xbfaf3328802b2173	-0.060937181134764005
232	0xbfa3224fa03863c9	-0.037371147449625726
233	0x3fa7093d9bbfb430	0.044992375623998604
234	0x3fa118d98c19346d	0.033392713882314996
235	0x3f6a8db4ed052479	0.0032413991649816146
236	0x3fa73bf66379a5b4	0.04537935222908676
237	0x3f64df9c61b89704	0.002548032219936826
238	0x3f7081c43bcdd395	0.004030005013977785
239	0x3faac321f2d5ae76	0.05226999367991152
240	0xbf8c17245a7ebcc4	-0.013716014873209288
241	0x3fa95bb890b11b1c	0.049527900374007866
242	0x3fa131fc1e03bab6	0.03358447901142851
243	0xbf16da177577d3b0	-8.71731584693575e-05
244	0x3fab0bda1dce1edb	0.052824798715901365
245	0xbfad4d42f3a1062b	-0.05723008369433232
246	0x3f956b5266a1be85	0.02091721297659756
247	0xbfb97c40baa34eda	-0.09955219799604312
248	0x3f89d884bee52520	0.012620007587104853
249	0xbfa2caa62e14f77d	-0.036702340245468236
250	0x3fa7c9a274453b16	0.046460224812667913
251	0xbfa76e98ebc56db4	-0.04576566579882116
252	0xbfac84366ca6dc00	-0.05569620205226755
253	0x3fbb0a3546ab9aed	0.10562451339101715
254	0xbf911f683eebd0b7	-0.0167213714984917
255	0xbf680f8b712e92a8	-0.002937099788555681

fc1.bias f8 [200]
0	0x3fd3e0f09f00a8ea	0.31060424354167415
1	0x3fd5010d8b54d1fa	0.32818926436019036
2	0x3fce469b30f05219	0.23652973069751296
3	0x3fccdd1dc4c5feb4	0.22549793346478497
4	0x3fd34483d6b42250	0.30105682341721707
5	0x3fd2fd2edd1c23e5	0.29670306771055116
6	0x3fd146883d442357	0.26992994292281963
7	0x3fd1992bc30f0a97	0.2749738125677736
8	0x3fd21174e605c00e	0.2823154684365371
9	0x3fd027537ff60cc4	0.2524002790089066
10	0x3fcd28d191b3a6be	0.22780818571418665
11	0x3fd2a09a14ad0c5e	0.2910523607171792
12	0x3fcc1d9e65d2a71e	0.21965389224833926
13	0x3fcf798ecbd225a3	0.24589714958373773
14	0x3fcede684a691bd9	0.2411623347599903
15	0x3fcc7f67b0129b00	0.22263809296892845
16	0x3fcfab5e2d1a51fd	0.247417232535227
17	0x3fd1e6e9167668e2	0.2797186583862993
18	0x3fd1593c0b3c2f1e	0.2710714444844927
19	0x3fcbec6d22ca2b2a	0.21815265845028736
20	0x3fd2f9e346b008b8	0.29650194075669445
21	0x3fd19546c841fe9c	0.27473611408638887
22	0x3fcced7142e03e25	0.2259961678068844
23	0x3fd517b717c23982	0.3295724613207299
24	0x3fd3f7ca912f431e	0.31199897936044063
25	0x3fd2159c9737bac4	0.28256907241204154
26	0x3fced85a21bdb9cd	0.24097754142299124
27	0x3fd27bc1575c15eb	0.2888034203645861
28	0x3fd2d9e2e1049346	0.29454872106935104
29	0x3fd058442d5beb52	0.25538734845729494
30	0x3fcd42e54ef05a3f	0.22860399584233623
31	0x3fcfbac59c58a1ab	0.2478873265656721
32	0x3fd3d5ee6d8610f3	0.30993233390496683
33	0x3fd2815020e7c26c	0.2891426392880365
34	0x3fcece2fd3df0727	0.24066732259057597
35	0x3fcb6e23cea750ef	0.21429870214945576
36	0x3fd23946df7d1ec7	0.28474590134690597
37	0x3fd296e9ee168957	0.2904610467031907
38	0x3fcf2158549f828c	0.2432051099013005
39	0x3fcbf1a3189d99c4	0.21831167890486658
40	0x3fd0522e0672abe8	0.25501585607224664
41	0x3fca80495be206d9	0.2070399950644546
42	0x3fd1e88ad0f0a785	0.27981825260450705
43	0x3fd149716ab70633	0.2701076070917196
44	0x3fc5a819df6597a9	0.16919253738450138
45	0x3fccc94a0330bf29	0.22489285617620539
46	0x3fd2789618f3f9a3	0.2886100047761834
47	0x3fced16250b53d4f	0.24076489392107667
48	0x3fd054f3f94c2c37	0.2551851210161575
49	0x3fd445e3bf00bb13	0.3167657246839763
50	0x3fcb21bf049fd087	0.21196735120577534
51	0x3fd40d41c236f579	0.3133091351154103
52	0x3fc1f1ef90af674c	0.14019579472261012
53	0x3fd3912b71a2e710	0.30573545548723846
54	0x3fd19df3657623b1	0.2752655497393404
55	0x3fc91a59e570edbc	0.19611667349987083
56	0x3fd1fb26f2714cb2	0.2809541099170004
57	0x3fd4a7b444363977	0.32273584996519084
58	0x3fc62da9214674c5	0.17326845288054052
59	0x3fcf64d54ee3e39d	0.2452646861272826
60	0x3fcb0d2dc55dcac7	0.21133968483953522
61	0x3fd0f950935077e8	0.26521696458973887
62	0x3fd0393659d34fe2	0.25349196216597936
63	0x3fd0165fcc826190	0.25136561366664356
64	0x3fce39fcb713c5c7	0.23614462794607347
65	0x3fd133eebe40b7fb	0.2687947137773105
66	0x3fc9917878a5835f	0.19975191012329227
67	0x3fce5c23d6e16a09	0.2371868895741758
68	0x3fd526fa603d9b56	0.3305040302133667
69	0x3fccbacd220bab38	0.22445072328931714
70	0x3fcb256b6b407059	0.21207945572757828
71	0x3fc84f583efd98fb	0.1899214084216466
72	0x3fd3adaf304ef5b4	0.30747585027333035
73	0x3fcf2e6924261277	0.24360384240221197
74	0x3fc976e46c5fa948	0.19894080440219342
75	0x3fcf335f61874339	0.2437552667820684
76	0x3fc8b56b3ada041b	0.19303646443953046
77	0x3fced2baec27a2b8	0.24080597430226702
78	0x3fd1231ee484b2e3	0.2677685958504254
79	0x3fd0a93dacdeb3d3	0.2603296459372448
80	0x3fd228527010b35f	0.28371106094237136
81	0x3fcfaba3c1c3edd4	0.24742552720259303
82	0x3fcdff7638320a0b	0.2343585752860949
83	0x3fd126f310746a62	0.2680022869769002
84	0x3fd1f7b2f7a57b1b	0.28074335273952195
85	0x3fc7df3b3b674977	0.18649998093185235
86	0x3fd768ac3f8e8f49	0.36576372343755686
87	0x3fcf96ec42483486	0.24679330097606939
88	0x3fcad0f066466ceb	0.20950131410504666
89	0x3fd18c3495d5dca7	0.27418245918620204
90	0x3fceca198be277ac	0.24054259615234963
91	0x3fd20eb21c6a0171	0.2821469571572584
92	0x3fd10ac939788241	0.26628332722069464
93	0x3fd0e6c6ccc38278	0.26408548351722727
94	0x3fcf82bebb89b985	0.24617752225044512
95	0x3fcf13b56c23994b	0.24278896122195656
96	0x3fcabed5a0637d39	0.2089488061092
97	0x3fcee5128677abbe	0.24136573377412945
98	0x3fccd8c89fe0f910	0.22536571318227816
99	0x3fce5af61431a8b8	0.23715091692003454
100	0x3fcf820f00edec71	0.24615657372837377
101	0x3fcf7c80c8a63cd5	0.24598703191120444
102	0x3fcac07ef7e8e64e	0.20899951081246332
103	0x3fd1a77226de9cf1	0.275845087011887
104	0x3fd0eae766f82a7e	0.26433739715199767
105	0x3fd078c1d355f1a4	0.25737043035749196
106	0x3fc9fb26b072df2f	0.2029770242277151
107	0x3fd3e93fd5cd81bd	0.31111141089607114
108	0x3fd3b4e743c763d5	0.30791646594076144
109	0x3fd147586fade841	0.2699795809381876
110	0x3fd15c49daedc1bf	0.27125784282454996
111	0x3fca62aecd43a9f2	0.20613656065627556
112	0x3fc8858c85fb75d3	0.19157558958151685
113	0x3fca3e8a7b359546	0.20503359809951344
114	0x3fceab7219356515	0.23960710745704064
115	0x3fcbb8d338b15eea	0.21657791393476283
116	0x3fcdb0503966638c	0.23194315722210168
117	0x3fcede20698bbe58	0.2411537661896428
118	0x3fcc044ba8d11e51	0.21888108962069677
119	0x3fd3220927fb7d99	0.29895237831620985
120	0x3fcf96057496b90a	0.24676578705607027
121	0x3fd2ac2ae9522438	0.2917582777523111
122	0x3fcebdc4a23958d3	0.24016626282781903
123	0x3fcf6dbb6f4cbdee	0.2455362599807666
124	0x3fce8b40d8d1736a	0.23862467371773316
125	0x3fcc14aea0f772c3	0.21938116893479362
126	0x3fd0b307eb1846ed	0.26092718084792815
127	0x3fc8828669f81af7	0.19148330854678594
128	0x3fd212e7553f751b	0.28240378689754814
129	0x3fd3094a41fa5546	0.2974420208277774
130	0x3fc9bd3d00252350	0.20108759409984112
131	0x3fd0e3fc9bf6cec0	0.26391520720356354
132	0x3fd1bf1542094dde	0.2772877831350494
133	0x3fd3ba5a0a911fcf	0.30824900657580384
134	0x3fd46458e53ffdc0	0.3186247099656292
135	0x3fd106026e8c19ef	0.265991790729827
136	0x3fcec07e2e109d00	0.240249416821122
137	0x3fd4e5fe39c4e37b	0.3265376629020051
138	0x3fcb582f80761243	0.21362870953102417
139	0x3fccc199ab8ee492	0.22465821148742698
140	0x3fcf7d888dbd4af0	0.24601847573156688
141	0x3fd338748bfd41b6	0.3003207556803561
142	0x3fd053c75a6618df	0.2551134474564502
143	0x3fd022cc72c6fdbe	0.2521239395973359
144	0x3fcfc0848be30de6	0.248062675766149
145	0x3fd354ae6816d11e	0.3020435348983187
146	0x3fceae02facd60a7	0.2396854138012305
147	0x3fd28704cbf3c4d0	0.2894908897133748
148	0x3fd51f791ba78062	0.3300459642468977
149	0x3fcb251812f046ac	0.212069520232537
150	0x3fd024acf6fad7ee	0.25223850363852207
151	0x3fd26ec8c48071a4	0.28801173390982115
152	0x3fd1f5084873cf7d	0.28058058810642433
153	0x3fcea6cdf9405736	0.23946547193980344
154	0x3fd3c0f3608844cd	0.3086517756174317
155	0x3fcd1ac87f8fb028	0.2273798582895108
156	0x3fc98451c9a78109	0.19935057016756044
157	0x3fd023378ab292f6	0.25214947266276455
158	0x3fd1b2297b8a154b	0.2764991480292635
159	0x3fd047e726a2f1f2	0.2543886067685711
160	0x3fd2aa45c551c36e	0.2916426112124587
161	0x3fd437e8c6caa38e	0.3159124318431673
162	0x3fd5aaf5d408c13c	0.33855958658661556
163	0x3fd48be194f71296	0.3210376696336338
164	0x3fd31581ca20b853	0.2981876825241489
165	0x3fc63147201e37ad	0.17337884014380958
166	0x3fd1b9c8a5a2ec91	0.2769643418830095
167	0x3fcbec30db4918e7	0.21814547259618353
168	0x3fc361cc0f3a1d30	0.15142203086382144
169	0x3fcbffc9a5891e2d	0.21874352057260307
170	0x3fd239c501ec2194	0.28477597415669575
171	0x3fd137da1d0b596d	0.2690339358936374
172	0x3fcc18ddbcb124fd	0.21950885499453668
173	0x3fceb902bf6103ef	0.2400210794894799
174	0x3fce26822913cad0	0.23555018430450625
175	0x3fc9078016a48615	0.1955413923797528
176	0x3fcb1cc134f288af	0.21181502423593687
177	0x3fd1b5a2a94793d8	0.27671114474497704
178	0x3fd11819f012fc7e	0.2670960278009672
179	0x3fd061f62b1490aa	0.25597910124839507
180	0x3fceaa0f75d53dc5	0.23956483129084752
181	0x3fccf0795152942e	0.22608868094280993
182	0x3fcc0fc2a9702dc1	0.21923096917485732
183	0x3fd2b6e7bbb8ad46	0.2924136479584444
184	0x3fcb2cdde944c360	0.21230672731465017
185	0x3fd0444a80f313ec	0.254168153693455
186	0x3fcee460e9ee1cbb	0.24134456083650044
187	0x3fcf967e34c0234f	0.2467801816531172
188	0x3fc843c96365ea61	0.18956868508742544
189	0x3fc877225c60c87f	0.19113568792960575
190	0x3fcf50b44be02ceb	0.24465039925448848
191	0x3fce75b730ce2ef5	0.23796739466740005
192	0x3fd2ab800c8e1a71	0.29171754098971464
193	0x3fd08e8bf4feac20	0.258700360539196
194	0x3fcd21c482809ed1	0.2275930058688034
195	0x3fcd408cfd334367	0.22853243220609018
196	0x3fd08a0d565e456f	0.25842603144072646
197	0x3fcd517a097c74da	0.22904897177878675
198	0x3fd0e4d63b3ca9cf	0.2639670923696515
199	0x3fcde352747b959d	0.23349981963762625

fc2.weight f8 [100, 200]
0	0x3f9f069d3cf7acc9	0.0302986687146756
1	0x3fb47210c56ebe1f	0.07986550159579807
2	0x3f886f74aa83cf2e	0.01193133492822759
3	0x3f59fff698a0af87	0.001586905304530513
4	0x3f947c8b15372e06	0.020006344957250753
5	0x3fa3ffd6fa2a7cfe	0.03906127742561159
6	0x3fa4f5d6168b8f80	0.040938081981749086
7	0x3fa64deb8700db83	0.043563232641125736
8	0x3f996df927b1a0d0	0.02483357720157714
9	0x3fa5793e755c08f4	0.0419406431447146
10	0x3fb6687921b2051e	0.0875316340698373
11	0x3fb6e400c5f743d7	0.089416549998773
12	0x3fa29aee1d0f711e	0.03633827309360725
13	0x3f88cde658d63827	0.012111472688754855
14	0xbf6a929f22e92704	-0.0032437427646855328
15	0x3f92ab0468b7a384	0.018230503932418
16	0x3faa0c8a7b31a1a0	0.05087692979651881
17	0x3f9af56141afe5c2	0.026326675066206347
18	0x3fb1dfafc479b1a7	0.06981943651925936
19	0x3fa8f4e25df7564d	0.048743318529585446
20	0x3f66831c78c7e35e	0.0027480655755848645
21	0x3f9bd5775028bc88	0.027181495921635462
22	0x3fa9dc0504c3ed21	0.050506741363245185
23	0x3f8b66b25d77690a	0.01337947223412474
24	0x3f7a3d9043045138	0.006406367800327488
25	0x3fac041c408ba898	0.05471885955724182
26	0x3f8060e265325feb	0.007997292245178719
27	0x3f730024f733df00	0.004638809582722336
28	0x3f95b5808e4009fc	0.02120018833375957
29	0x3fb3069aa120a9cf	0.07431951936511115
30	0x3fb0928c394bd109	0.06473614119369499
31	0x3f78aa4f588a980a	0.006021795220169332
32	0x3fa564f194949e19	0.04178576410987151
33	0xbf565458ea65ef67	-0.001362883407266724
34	0x3fa77d6f0e91ec0d	0.045878859070363466
35	0x3facf0cda7407cf5	0.05652468363427402
36	0x3f81cec95298858d	0.008695195038913162
37	0x3f8cfdd251b733b8	0.014156001204264843
38	0x3f90268a34cb9c3a	0.01577201792943248
39	0xbf712e9d1a1c0bf8	-0.004194844894075615
40	0x3fad92a71788f17b	0.05775949632922824
41	0xbf7bc44b4335671b	-0.006778997415801925
42	0x3fb36222d326d7e2	0.07571618704864094
43	0xbf9b18252061c3d7	-0.02645929346221351
44	0xbf6960e864e0e677	-0.0030979670473499327
45	0x3f9b26ee94c35405	0.026515701131604192
46	0x3fb1d6260888b81e	0.06967389782286701
47	0x3f659c06fafac0fc	0.0026378761611668394
48	0x3f767c826ac770ff	0.00548983520681312
49	0x3f9fb86c425e655c	0.030976954985452707
50	0xbf5997e23189bfbd	-0.0015620907708146913
51	0x3f61aff8ba1c9c7d	0.002159105105323854
52	0x3fa42c453a554cf7	0.03940025651049866
53	0xbfa02909f1b5e1d4	-0.03156310153548572
54	0x3f9fcc72ffcd27ad	0.031053349364163974
55	0x3f9fee56eeff03bf	0.031182630860488333
56	0x3fa759a369f15733	0.045605761225188245
57	0x3f92b5ea657823cc	0.018272077983087873
58	0x3f817e26021bb6cb	0.00854139036115544
59	0x3fb467e972aa8715	0.07971056985345755
60	0x3fb3549479a0e8fd	0.07550933808753153
61	0x3f9e495c1b417810	0.02957672039371323
62	0x3f9e0a1f40410701	0.029335487648729067
63	0xbf8dd64507c3e4d5	-0.014568843173480431
64	0x3f72484e90a2e463	0.004463488478159669
65	0x3fa99a253544a34c	0.050004160644965795
66	0x3fa32acf61b17961	0.037435990024038863
67	0x3faa643a8ad57ea4	0.05154593415022404
68	0x3fb2d6b30cdcbbc2	0.0735885530855134
69	0x3f7140a30e76a7ff	0.0042120332140402885
70	0x3fb06a634bfbbb91	0.06412335019170558
71	0x3f8d8b0c807d27b2	0.014425370856446882
72	0x3f91fc1151f13cdc	0.01756312430034944
73	0x3f9d1ec4ba2dfa9e	0.028437684882642082
74	0xbf876cbb833586ed	-0.011437859479602486
75	0xbf6ddace75f8f475	-0.003644374126251788
76	0x3f95c5c1d91a6242	0.021262196422499942
77	0x3fb2096f397473b8	0.07045645859439176
78	0x3fb498ae5f1a2722	0.08045472928838796
79	0x3f966517be281c43	0.021870013219111206
80	0xbf8939251eed80fc	-0.012316026693668373
81	0x3fa975015bd6dae6	0.0497208046539777
82	0xbfa1347f1c5e69ea	-0.03360364171313164
83	0x3f97cb078e89b3e1	0.02323543364984804
84	0x3f9e4c48da8c1e4b	0.029587877596922756
85	0x3f9386ad05e5e217	0.01906843517778797
86	0x3faf3d25e6f3afd7	0.061013397638674575
87	0x3f9386320dbe0dd7	0.019066602791566325
88	0xbf94df70b93f0ab0	-0.02038360720303939
89	0x3fb5a8a9f6f30e13	0.0846048572448626
90	0x3fa691ce93593d79	0.044081168639077135
91	0x3f9d3bff6c6b1987	0.02854918574555534
92	0x3f9ede581e544d3a	0.030145050860551616
93	0x3fa05e4543ce2363	0.03196922733974963
94	0x3fa9415eb6419942	0.049326858280255084
95	0x3fa667150408e9a2	0.04375520395520317
96	0x3f6ec2bb58e101f7	0.0037549647450136853
97	0x3f5761de1d7e1dfa	0.0014271420568280333
98	0x3fb4db7045d4f74e	0.08147336678390824
99	0x3f945e609d7e9b20	0.019891271221832985
100	0xbf1edcfb23efacc8	-0.0001177337917252385
101	0xbf7136ac03ab6020	-0.004202529841414587
102	0x3fa621df9d1d8caa	0.043227184228066776
103	0x3fa03d32b97077f5	0.03171690477050496
104	0x3fb0bf4509f85358	0.06541854375275358
105	0x3f9eccda06431fa3	0.03007832205983586
106	0x3fa2417458a64863	0.03565562803409319
107	0xbf8703e90c53552e	-0.011237927139897321
108	0xbf89f1cfd87fd8c3	-0.012668250841653244
109	0x3f716b7f54e3504f	0.004252908124005541
110	0x3fa561289a58417d	0.04175688633052042
111	0x3fa52f81a0b043cb	0.04137806974916421
112	0xbf882d3496450985	-0.01180497249209079
113	0xbf9e576bed3ca561	-0.02963036189536206
114	0xbf8feed22877fa56	-0.015592233524327852
115	0x3fad616eed4ca561	0.05738398215027974
116	0x3fb2c4e5d517d822	0.0733169217345169
117	0x3fa40f17d886d3e7	0.03917765157840574
118	0x3f9a36019148e6e6	0.02559664201019176
119	0x3fb59e5cac8ede52	0.08444766247600313
120	0x3f93f8ea641245df	0.019504225118515236
121	0x3fb8d7b54cfd8ab5	0.09704144601486571
122	0x3faf491ed6b62b0e	0.06110473986617225
123	0x3fb1d433b1eee7cb	0.0696441945464407
124	0xbf9516be5195dc37	-0.020594571809365383
125	0x3f67f586a0e928ed	0.002924693056489783
126	0x3f9a6d1d2fbab212	0.02580686191383747
127	0x3f92c34ed6a7dab1	0.01832316575197507
128	0x3fb69688f4af44fe	0.08823448156114819
129	0x3fa03c54f8c96bbe	0.031710296029550986
130	0x3fa16fdf40d495f2	0.0340566412581146
131	0x3fa32fa3c9d3520a	0.03747283781709505
132	0x3fb1619ef565d378	0.06789582720905496
133	0x3f82de1277a8e68e	0.00921263148949272
134	0x3f6d6e54108ee11f	0.003592647732571077
135	0x3faa8034bda3cc5f	0.05175938429774684
136	0xbf79ab98dbf76aa8	-0.006267163378164277
137	0x3fa3c0bb4fa39054	0.03857980105547712
138	0x3fa177b75e919fcb	0.034116487783478165
139	0xbf97863786ab03bb	-0.022972934336170186
140	0x3f9004a526a651e8	0.015642719730367377
141	0xbf5ab20cd2aab051	-0.0016293645118521558
142	0xbf763ad84ed3172a	-0.005427212670104523
143	0x3f841df089607456	0.009822730247885197
144	0xbf8eb4818879ae23	-0.014992725350757635
145	0x3fb30cd42c9a34cb	0.07441450203824045
146	0xbf93f4837651cad1	-0.019487432572030287
147	0x3fb73cd2c412cce2	0.09077183997105778
148	0x3fa2b5d0f97798a0	0.03654339833501408
149	0x3faaba2393c30834	0.05220137766583868
150	0x3fb192d7fc562573	0.0686469069534235
151	0x3fb20f513d6ec7ab	0.07054622411558735
152	0xbfa167573454926a	-0.033991551530822076
153	0x3f909b41215270bd	0.01621724859124706
154	0x3fb23e6b571563f5	0.07126494289458647
155	0x3fb05e70900102e1	0.06394103542062225
156	0x3f9cf12ebe02270d	0.028263788554375547
157	0xbfa65237f0a465c0	-0.04359602749373037
158	0xbf6813aaaa4650c6	-0.0029390652945925104
159	0x3fb6576361178b0e	0.0872709381142551
160	0x3fb49dc82d52b3c6	0.08053256136436379
161	0x3fb02575974f4644	0.06307158416827813
162	0x3fb831a53fc573f6	0.09450753027836342
163	0x3fa9fd7b0cb53f3c	0.050762028981465396
164	0x3fb86580554e4ae1	0.09529878695165507
165	0x3f9345298851f344	0.018818520493812288
166	0x3f821d790e671f4c	0.00884527754978106
167	0x3fabc150bc5929db	0.054209254256949634
168	0xbf7f43c752911e1b	-0.007632998088474642
169	0xbf938d8e06b4acd8	-0.019094676169669395
170	0x3fa64054718b78bd	0.04345954786343629
171	0x3f62fd18aeba2aca	0.0023179514008167855
172	0xbf52d5183772c432	-0.0011494385233101864
173	0x3fa699eb9651b1a2	0.04414306840849071
174	0x3fa79628d026c144	0.046067500504593656
175	0xbf342e89aa467331	-0.0003079496475722364
176	0xbfa8101fe684a2a9	-0.04699802102033363
177	0x3fa621cd68ce92f9	0.04322664169675323
178	0x3fa9384062233049	0.04925728986708628
179	0x3f665bd43e55c4d4	0.002729334390715191
180	0xbf9553f236aa6111	-0.020828041636009213
181	0x3fa2ca0f8491916b	0.03669785016316748
182	0x3fa72e21e0ebe8f3	0.04527383680938781
183	0x3f9340fd4a60c2f0	0.018802602448149963
184	0x3f929bf2e9237d45	0.01817302272763512
185	0xbf85bdf552ea4642	-0.010616222946995827
186	0x3f71bcd0571859b6	0.004330457524267242
187	0x3fad1377a4a8ba3d	0.056789149141299046
188	0x3f9a0bc62a574b81	0.025435539564408586
189	0x3fa3990376bda1f4	0.038276775593491325
190	0xbf96ec21aa9d913d	-0.022385145224135917
191	0x3f714ac6af762734	0.004221702685194551
192	0x3f85159d67e0dcf4	0.010295133335701291
193	0x3f96de0af23862ec	0.022331400903655416
194	0x3fa80249d6162919	0.04689245928155312
195	0x3f759921379d2b20	0.0052729890392793355
196	0xbf9bc523d5831166	-0.02711921683000309
197	0x3fb6b558dc899054	0.08870463737690787
198	0x3fb08cdb46ac42fd	0.06464930034077195
199	0x3fb17d69451b1d71	0.06831987321048928
200	0x3f6e5142fba398f2	0.0037008579503093825
201	0xbfa02174818a21b4	-0.03150524216931974
202	0x3f9b9084c7d20ee3	0.026918482490613804
203	0xbfac4f8d6b06d10c	-0.055294436754964676
204	0xbfa06282a66225f7	-0.032001574335549
205	0x3f732756ba117599	0.004676188255954194
206	0xbf82773284e7ce67	-0.009016413384393475
207	0x3fabc6f3f460e086	0.054252265530920815
208	0xbf8313b44ebd7575	-0.009314926770168633
209	0xbfb2e062f852f570	-0.07373636782263815
210	0xbfa40b66f24ec303	-0.03914949138505188
211	0xbf54f8ca81193818	-0.0012800195294349111
212	0xbfa27ac064a5c71a	-0.03609276989563011
213	0xbf97b8479d4f40f0	-0.023163908935942723
214	0xbfa05160c2a98149	-0.03187086464163486
215	0x3fa49a89cf918300	0.0402415338401223
216	0xbfa6d6c9acd571e7	-0.0446074508169863
217	0x3f92961c4d5b899f	0.018150751325160305
218	0xbfac053941313da2	-0.05472735329442037
219	0xbf3ea99417cc9d94	-0.00046787133742262036
220	0xbf9d9cdab3106ecf	-0.02891866414948546
221	0xbfb1ed62d907c624	-0.07002847479432056
222	0xbf9e67c276116783	-0.02969268651609226
223	0x3f88c9f1220a910d	0.01210392365585069
224	0xbfb12eea74028f84	-0.06712212879443596
225	0x3f8e4a241e55e1ce	0.014789850402608187
226	0x3fa38ceab9b63be2	0.03818448559751865
227	0x3f9bacc8042a352a	0.027026295904353827
228	0x3f88a0e3309cfbc7	0.012025618477876322
229	0xbf963869aa2e2148	-0.021699572574591458
230	0xbf9206499fbbbdc2	-0.017602110266066402
231	0xbfa6da4979046e3d	-0.044634147665615555
232	0xbfa11c03951d9047	-0.033416854813169077
233	0xbf8fa2083d3f363a	-0.01544577061568041
234	0x3fae7c4ea9fb4548	0.05954213929147528
235	0xbf898e1cb9d97cc6	-0.012478088781050178
236	0xbf9e74743fe954f7	-0.029741112137647154
237	0xbf958ff6ad35dd5a	-0.021056989976810804
238	0x3f7f7c7e9970a19e	0.00768708660965736
239	0xbfa2f14b0286ae21	-0.03699716955028643
240	0x3f994e378335f854	0.024712436088059356
241	0x3f9aa8d9371e7368	0.026034730900949127
242	0xbfa25e0d07082770	-0.03587380133474383
243	0xbf9123e2f399252a	-0.016738458746009467
244	0xbfa2669e72eabf2f	-0.035939170387221935
245	0xbf826d4399bd94f3	-0.008997467164315575
246	0x3f8d599e6f4a4e44	0.01433109070902739
247	0xbfad107bf774db70	-0.05676638980587867
248	0xbfa655db0b611ca7	-0.043623776568489085
249	0x3fa562a689d6f33c	0.04176826889622595
250	0x3fade52c9ae226ff	0.05838908568064304
251	0x3ec34bcb8ea51ef8	2.3002713664155564e-06
252	0x3f8dc6e86a7189ab	0.01453954291190914
253	0xbfa4597b1c4aec5b	-0.0397451850926351
254	0x3fa14591065d09cd	0.03373387530020331
255	0x3fa7a2d106bff270	0.04616406638522086

fc2.bias f8 [100]
0	0x3fd6c938109baa5f	0.3560314333141487
1	0xbf35779b807b7a29	-0.00032756372864453876
2	0x3fd645df19e78608	0.3480146172497318
3	0x3fbb9fcdf9e73943	0.10790717459824344
4	0x3fd42c208152d86a	0.31519329671153307
5	0x3fd5706fd1b5894e	0.33498759726912375
6	0x3fda076678d1b238	0.4067016773103975
7	0x3fd6d9d131133ae8	0.3570445040940471
8	0x3fd22d08b0e837b0	0.2839986541374584
9	0x3fd556013f604b0b	0.3333743208797137
10	0x3f8a261e30ff89dd	0.012768016691500012
11	0x3fd21f019145942d	0.28314246355722866
12	0x3fd75691b34d73bc	0.36465876111997964
13	0xbfb7836cf959d75a	-0.09184914672536362
14	0x3fd151360b6b5300	0.27058173289451304
15	0x3fd6f7b74e8bc403	0.35886938734535095
16	0x3fd5d8c1cbae7f6b	0.3413547982290683
17	0x3fd1ae0c0433c9a0	0.2762479821241417
18	0x3fd34ef440f06a9d	0.30169397680007554
19	0x3fd3b11e5bf34e2b	0.307685460849117
20	0x3fd585fab7757738	0.33630245128539427
21	0x3fd602976bc30c84	0.34390817187904354
22	0x3fd5583d22d976ff	0.33351066973942517
23	0x3fd41a8ad9b6f869	0.31412001858905697
24	0x3fda4919ff2fec2e	0.4107117645323254
25	0x3fd8d7c0c690b99a	0.3881685198893138
26	0x3fd27f8bb3836790	0.2890347722110329
27	0x3fd67089c69cc60c	0.3506187858175458
28	0x3fd4087180ff4832	0.3130153426874386
29	0x3fd1017e47d46b37	0.2657161427938947
30	0x3fd80eb9d4ef7b62	0.3758987979362499
31	0x3fd926eaabc5e517	0.3930002858611074
32	0x3fd7f4ec66c6bba5	0.374323940627557
33	0x3fd71263d7ad40b9	0.3604974371164747
34	0x3fd57d6b1a8cd4e3	0.33577993004594314
35	0x3fd7fb361dd4e310	0.3747077266048544
36	0xbf997c5f7439d5e2	-0.024888507336489847
37	0x3fd68dd04cdb6ad5	0.35240561967445433
38	0x3fd493792b6906ed	0.3215010570457782
39	0x3fd3bf9fe149893a	0.308570833212929
40	0x3fd7562237c278a6	0.36463218159941346
41	0x3fd16d3696b34647	0.2722908469851046
42	0x3fd6aa1629a647df	0.3541312605603916
43	0x3fd104a901d1377a	0.2659094350573167
44	0x3fd32a88d03ee95e	0.29947109543322437
45	0x3fd4eb68ed662b68	0.3268682783461174
46	0x3fd793970f1c009e	0.36838318324590513
47	0x3fd7a948cd35f076	0.36970729866130314
48	0x3fd9f027d056a66f	0.4052829298549118
49	0x3fd4882bfe039741	0.3208112698178987
50	0x3fc74b54a80d3101	0.1819864101947886
51	0x3fd2d4e849af3294	0.29424483485926456
52	0x3fd5b34eb7153357	0.3390690601270782
53	0x3fd150d8d0245f11	0.27055950476049967
54	0x3fd72bd6d8a4023c	0.36205073505701413
55	0x3fd4f53b66592044	0.32746777529655824
56	0x3fd4908f78ec58f5	0.32132326897534763
57	0x3fd69755b36d284a	0.3529867412768267
58	0x3fd18baba677e781	0.2741498113315331
59	0x3fd6d5bff97404f4	0.3567962585512554
60	0x3fd3382aa8683400	0.30030313917160356
61	0x3fd6bb0d086ed928	0.35516668151412256
62	0x3fc0eb0a87c1f00c	0.13217288616931488
63	0x3fd2b3e109339c61	0.2922289457187102
64	0x3fd1c96b7ec62c44	0.2779186952618071
65	0x3fd217ad9b781c3a	0.2826951997998922
66	0x3fd7a80ae9193864	0.36963150752570173
67	0x3fd432146f3c7e98	0.31555662978096555
68	0x3fd9335b88c7a65c	0.3937596164456403
69	0x3fd54dc0bc46f0a5	0.3328706587451598
70	0x3fd636684419f4df	0.34707075739409093
71	0x3fd62e994bbe1e79	0.34659416577094465
72	0x3fd4c09a66ed774e	0.32425556231998065
73	0x3fd5a771ebcf2a24	0.338345032007654
74	0x3fd55d5844ac293d	0.3338223143224644
75	0x3fd49b5f78583548	0.3219832110633729
76	0x3fd4ad9772f323c6	0.32309519029200506
77	0x3fd68daed649a218	0.3523976414349206
78	0xbfbe19c8324be742	-0.11758090236608346
79	0xbfa2528947d84c34	-0.035785951633578256
80	0x3fd3d9ad9b79ae93	0.3101610201181099
81	0x3fd32d5e45f786fa	0.2996440585394421
82	0x3fd36a06fe93746e	0.303346394166346
83	0x3fd741bb499c8102	0.36338693798644794
84	0x3fd616d4be11f4a8	0.3451434951928811
85	0x3fd5e8aff75d15db	0.3423271098766613
86	0x3fd00f79a3a6c24a	0.25094452840406645
87	0x3fd33919213d7f22	0.3003599953280959
88	0xbf8159d7524b7784	-0.008472139548242337
89	0x3fd2a297a0f115e8	0.2911738464066205
90	0x3fd46916295f9ae2	0.3189139751470248
91	0x3fd154a105534ee5	0.2707903434759216
92	0x3fd470e35b7d86b5	0.319390143724472
93	0x3fd4abeb0faff1a5	0.32299305469475775
94	0x3fd2c2c90865ac3b	0.2931387502673634
95	0x3fd688bb17832486	0.35209538742180546
96	0x3fd39b001fad999e	0.3063354787213032
97	0x3fa316c532270809	0.03728309857571339
98	0x3fd4550fb3b7f332	0.3176917319358835
99	0x3fd94bb8150682e4	0.3952465253187667

fc3.weight f8 [50, 100]
0	0xbfb322d4f471f81a	-0.07475024192714877
1	0xbf8d2832037a7db2	-0.014236822825579452
2	0xbf9a795ad0abcf36	-0.02585355661990648
3	0xbf7cea69c992ab01	-0.0070594913787924716
4	0x3f6ddc81551a21ba	0.0036451841377280443
5	0x3f933ef5e0e2fe6e	0.018794862605089717
6	0x3fae55331af32ded	0.05924377159098158
7	0xbfae1471d62125cf	-0.058749730481007505
8	0x3fa28da7e7c8a070	0.0362369985999188
9	0x3f8d4587fc25229f	0.01429277647243171
10	0x3fb00b6145a4a04c	0.06267364454527174
11	0x3f60f1bf11c26e88	0.0020683986495678187
12	0x3fb07a958849be5c	0.06437048508973348
13	0x3fb1a49ff367d734	0.0689182252170582
14	0x3fa4343f0eafefc8	0.039461107771756654
15	0x3fb17cf051168e40	0.06831266383829249
16	0x3f739c5de05fdea2	0.004787794785435702
17	0xbfb53dcb96f7226a	-0.08297417102506591
18	0x3fb02ee5e4a346e3	0.0632156069944148
19	0x3fa5918aafd15fd8	0.04212602039541452
20	0x3f91122aa5a3199d	0.0166708625409001
21	0xbf95115ccf0b31e8	-0.020574045311876704
22	0x3f98460e8d4add72	0.023704745649152988
23	0x3f480a753b622a49	0.0007336685582840032
24	0xbfb013cc6020121d	-0.06280209872063165
25	0x3f439506ae32ebbd	0.0005975992793517609
26	0x3f966e525c67542a	0.02190521897303569
27	0x3fad5eabdd12aa89	0.0573629100193403
28	0xbfb3192e2ef5b98b	-0.07460297247391716
29	0x3fa5cec38a392cda	0.042593107817617784
30	0xbf9f4f5276c7212c	-0.030576027392983082
31	0x3f904c455e07a44b	0.01591595064556754
32	0x3fa57802fea57866	0.0419312415931337
33	0x3fa4f75ac0c3d9e5	0.040949665099038225
34	0x3f8eb8867c35fd94	0.015000391641250478
35	0x3face729b8015196	0.056451133452955535
36	0x3f7952fd56a4b787	0.006182660678218605
37	0x3fafcee8949855bb	0.06212546171097296
38	0x3fabd9e72a2a8ce8	0.05439684285854601
39	0xbf7f4ad66680f42b	-0.0076397299781634604
40	0x3f8ea6e4ac8ab4af	0.014966761127050835
41	0x3fa9466cd9684fda	0.04936542657756578
42	0x3fae73842830970b	0.05947506895635798
43	0xbf9e53a1b6366107	-0.029615904566157727
44	0xbfa4cc5a2d376aed	-0.04062158395728042
45	0x3fa69fbd8d05676c	0.04418747278641785
46	0x3f8083ab43e74233	0.00806363869642821
47	0x3f9b39cc702ad126	0.026587671610017648
48	0x3f97cde7f24eee9c	0.02324640671188992
49	0xbf8b0879760cdae6	-0.013199757495028174
50	0x3fa34a556ccdfa28	0.037676496059237785
51	0xbf9e9706a25d2391	-0.029872993144894947
52	0x3f96b3879ef92016	0.022169226720763012
53	0x3fb06bac56370085	0.06414296250204828
54	0x3fa13f0631e5d3fd	0.033683961478267556
55	0x3f6923feda67e5ef	0.0030689218140167378
56	0x3fa3a988cef8b47b	0.038402819886280214
57	0xbf925d2a71ba812c	-0.01793352431434518
58	0x3f9661591dac71fd	0.021855728565343558
59	0x3faa6bf627cea160	0.05160493122031329
60	0x3f8bf6c7845bf7f9	0.013654288031371907
61	0x3f9ef9f4f116b8c8	0.030250384535684544
62	0xbfc21d04a14abbef	-0.14151056171019102
63	0x3fa3a18aca60278e	0.03834184379964177
64	0xbf9c3070a4175695	-0.027528533950166596
65	0x3fad32c7f999d163	0.057028054446081076
66	0x3fa66f4681dacd54	0.04381771407261206
67	0x3fb018f02effa4cf	0.06288052699496237
68	0xbf9cf0f62a5fcd45	-0.02826294549590826
69	0x3fa00da5f6b086fd	0.03135412823054471
70	0x3f76adaf1759696e	0.005536731672317037
71	0xbf384ed57795ee87	-0.0003709098014821128
72	0xbf91c237449bf398	-0.017342437326977128
73	0xbf84e675c0daeda8	-0.010205192516301434
74	0xbfb195d98f3f3120	-0.0686927771304835
75	0xbfa3dcedd9079b47	-0.03879493021286478
76	0xbfacce5b4dfa2344	-0.05626187636250404
77	0x3f92da01a266ed86	0.01840975335811159
78	0x3fbba01b8012c2a0	0.10791179539479367
79	0xbfb1aa28e4b8d415	-0.06900268157990326
80	0x3f98143c6c364b03	0.023514694313756312
81	0xbf98fe66a9f1d799	-0.024407962915993762
82	0x3fa29f7045786124	0.036372669677975616
83	0x3fb8a1631d1e86b7	0.09621257267874737
84	0x3f95ae106f280c32	0.02117181471295399
85	0xbfb9a701f8c8def5	-0.10020458530277294
86	0xbfa7c8f062eb6ff4	-0.04645491797938908
87	0xbfaadd80d7aa3f10	-0.05247118599538514
88	0x3faa5a504c24064f	0.051470288557550085
89	0x3f5d8c455732dbbc	0.0018034627108087639
90	0x3fa78805bb23e8bd	0.045959643453856704
91	0xbf99f6f709f442e3	-0.025356159193566163
92	0x3fa65e43225e2ddb	0.043687913842486124
93	0x3fb6a0cc3d47bbc3	0.08839107986544463
94	0xbfa0be698d08e319	-0.03270273062338997
95	0xbfaecc67aac22417	-0.06015323600247074
96	0xbf818cf61c8d266e	-0.008569643732374756
97	0x3fa2462b1021740b	0.035691590994908116
98	0x3faea9dec768c092	0.05988975700563616
99	0x3f94f03bf6c65cdd	0.02044767087644749
100	0x3fb10fdd03882405	0.06664830528474404
101	0x3fa2a1751ab1dbda	0.036388072498929794
102	0x3f9dc654646de2c6	0.02907688010188527
103	0xbf93ea929b506f9e	-0.019449511270167023
104	0x3fa809f166bb17d3	0.046950858869919586
105	0x3f91383ea99fd135	0.01681611929230194
106	0xbf9e7584a0723e72	-0.02974517087255752
107	0x3facdd7e43f75976	0.05637735919633517
108	0x3f6b79a6d49c3ec4	0.0033539064796811197
109	0x3fb0e9f60cfb9094	0.06606996361694178
110	0x3f943c850f2c617f	0.01976211457358223
111	0x3fa6b5a3fe3c1981	0.04435455778552733
112	0x3f8484e16385519e	0.010019074296601368
113	0xbfa453f69fb6034b	-0.03970308971020716
114	0xbf847cba014c002b	-0.010003522076203883
115	0x3f9ab55d5cf25fb5	0.02608247642328339
116	0x3facbe82fb503e4e	0.05614098851958414
117	0x3fa155c7df248ee8	0.033857580174552926
118	0x3f913d192a8c0616	0.01683463403879245
119	0x3f82a2178b99e7e9	0.009098228404798863
120	0xbf880b002ccd7ba4	-0.011739732138890187
121	0x3f97a10ea332a7c2	0.02307532187538875
122	0x3fa4ca65329580c8	0.040606653618625865
123	0x3fb688f2e264bb74	0.08802717234787655
124	0x3f9aa7df49853f02	0.02603100668176151
125	0xbf765e0e109e5156	-0.00546079153163633
126	0x3f9a67f182ad5240	0.02578713760461171
127	0x3fa7b54237a11d88	0.04630476883954332
128	0x3f795992f6bb1225	0.006188940121948626
129	0x3fa28b59682ddd94	0.03621940037458696
130	0x3fb13fa20e10683a	0.06737721293794233
131	0x3faf1493579ac120	0.06070385403052314
132	0x3f6c9d95eb50c145	0.0034931114301103594
133	0x3fadd604c06a8551	0.05827345703915888
134	0x3fb75ff132b4a075	0.09130771148613966
135	0xbf93f0c73e3bf41b	-0.01947318379733441
136	0x3f807ba98f9484aa	0.00804836720868914
137	0xbf89b1adf0703035	-0.012545927906124724
138	0xbfa23250307e1a06	-0.035540109557633356
139	0x3fa19a291928b786	0.03437927658192934
140	0x3fae0dc983ecce1e	0.05869893775379985
141	0x3fa4a487d980decc	0.0403177693373756
142	0x3fa8b44e10b45cb2	0.04825061754143557
143	0x3f6ef6f9c1a93272	0.0037798765236288162
144	0xbfabd1ef6907f0a3	-0.05433605343930139
145	0x3fb2b0bf9a30c80d	0.07300946726243769
146	0xbfa08f0558ae3d7b	-0.03234116275336426
147	0x3fa7bdb3abd39b6c	0.046369185185361456
148	0xbfa4be867ee3fdfc	-0.04051609324414682
149	0xbf8e01f3164b82d7	-0.014652155988586752
150	0x3fb37b5aed63eef9	0.07610100074446881
151	0xbfaed3b7ccd2960e	-0.060209029915579845
152	0x3fb68359540cdc0f	0.08794172575004232
153	0x3fb57474287504b7	0.08380819308969732
154	0xbf9027fd02b4c71d	-0.01577754334466085
155	0x3fa9e9d5683176c0	0.05061213395013686
156	0xbf90c4ac1c78135b	-0.01637524532090438
157	0x3fa241f72ebebfc7	0.035659527260008476
158	0x3f980c2cfbb63b74	0.023483946669837732
159	0xbfa2da74d8abbe07	-0.03682294030101834
160	0x3fb52fbf70e176a3	0.08275982385517948
161	0xbf9b3f6e3cb1ea0a	-0.026609156088378362
162	0xbf648ac8580b3e2e	-0.0025075829474656896
163	0x3fa04463e33b612e	0.031771775711322156
164	0x3fafa2d494e01770	0.06178917233778136
165	0x3fa778fce99b78fd	0.04584493972446244
166	0x3fb23f9e05d675b4	0.07128322260401526
167	0x3fb4f6d153de4b46	0.08189113900725173
168	0xbfac3dab6d275e46	-0.055158001970707235
169	0x3fa1fab178e9f046	0.035115762720096685
170	0xbfb13f4eeb3947f6	-0.0673722576405281
171	0x3f96284eee3547f7	0.02163813904673614
172	0xbfa41f55a1deb6c3	-0.03930156327201708
173	0x3f9579005f2dc863	0.020969396409278206
174	0x3f854bb98c8b7e04	0.010398339845266065
175	0xbf80f0c1844fb1b9	-0.008271705484696011
176	0xbfa414d29ebe4528	-0.03922136485847211
177	0x3f9a21fe9230feaa	0.02552030341416748
178	0x3f66c91292a29da8	0.0027814257383231462
179	0x3fa41a81a82ef7fe	0.03926472833653348
180	0x3f908e0266945b27	0.016166722784954814
181	0x3fbb3d956ac34310	0.10640844208252198
182	0xbfa23fe742895089	-0.035643793937794994
183	0x3fb037f61916ae5e	0.0633539019824467
184	0xbf8c0f2fe6fbdb5e	-0.013700842129294063
185	0x3fb0af28df845c94	0.06517272431334425
186	0x3fa34cb35c271468	0.0376945543280634
187	0xbf80878326636e1e	-0.00807096920873734
188	0xbf8ec15b454b1124	-0.015017235805665559
189	0x3fb136938b79493b	0.06723901896592548
190	0x3faa020a1c9942c4	0.05079681014161033
191	0x3fa09eb2f1a202bc	0.032460777279089
192	0x3fbaeeadcd7f36eb	0.10520445124640403
193	0x3f89ee84f5574a72	0.012661970841610446
194	0x3f72faabf7dd6c81	0.004633590460652149
195	0x3fb8529f1e9704b2	0.09501070496391398
196	0x3f95287b3717b126	0.020662236440260127
197	0x3f8302e862d44497	0.009282889858271566
198	0x3fb6a2358ea2520e	0.08841261608387915
199	0x3fa849b7ced49911	0.047437423704012834
200	0x3f9d62b706de594f	0.028696880144331968
201	0xbf704a25c6264ca1	-0.003976962618611386
202	0xbf6679531004e20d	-0.0027433988872440696
203	0xbf00f5be8a8552b4	-3.2348515847024055e-05
204	0x3fa35f1de6160335	0.03783505853335215
205	0x3fa66cf1aaa7ce65	0.04379992683598458
206	0x3fa9d2a2c64e6273	0.0504351489136682
207	0xbf779e017a1dc620	-0.0057659204193085956
208	0x3fa35feac2c88bb7	0.03784116389967756
209	0x3fb282ef2a0f49d3	0.07231039788101805
210	0xbfb23374254e5515	-0.07109762106695812
211	0xbfa729259d1a95fd	-0.045235801151004985
212	0xbf9fae5ea28b5264	-0.030938604994690158
213	0xbf8b468fd3e2298a	-0.013318179753942134
214	0x3f4c4d1feb1e08b2	0.0008636861659712307
215	0x3f8b3781b83922b8	0.013289464411302063
216	0x3f90d75e7cb13d8a	0.016446567879311348
217	0xbfb15b35d6fc3fc0	-0.06779800890603749
218	0xbf9d6ea0da48adc2	-0.028742326090805077
219	0x3f9284d0d21f735c	0.018084776711350656
220	0x3facacee62013338	0.05600686022135054
221	0xbf94398801efafce	-0.019750714414769104
222	0x3faf5d54595adb79	0.06125892248876758
223	0x3f9dd22fb819ac43	0.02912210999640431
224	0x3fb09a3a4952fac6	0.06485332765712845
225	0xbfa0751db216a263	-0.03214352415972568
226	0x3fab20c5137c3239	0.052984388950879376
227	0x3fa9f98e9eabeb1c	0.05073209463986059
228	0x3fadabb88aaa1134	0.05795075123481511
229	0xbfa012239a0ad132	-0.03138839011572471
230	0x3f90619f7b790ce0	0.01599740210646139
231	0xbf828f0dd228716b	-0.009061916328442185
232	0xbf5fd7f76b5c29e0	-0.0019435802655062215
233	0xbf937bbfd1ab0fcc	-0.01902675358975596
234	0x3fa24b4ff799852f	0.035730837797709795
235	0xbfb430b53acc66e9	-0.07886822400578421
236	0xbf9314bba0109528	-0.018633777279451952
237	0x3fbd39b302d25666	0.11416167086493942
238	0x3f9cc21a17bd3b54	0.02808419008152481
239	0x3fa5905e0a178422	0.042117060405651566
240	0x3f84244a55a77699	0.009834843386609381
241	0xbf9630f139aeb575	-0.021671075006158575
242	0x3fb864987bef62a0	0.09528496766814465
243	0x3fb089a8ccb1d661	0.06460051534107826
244	0xbfa46dd663f8c19b	-0.03990049333913533
245	0x3faabad070900943	0.052206529369885256
246	0x3f9ec05197809402	0.030030512687648787
247	0x3f6b56be0d8db3aa	0.0033372604342986794
248	0x3faa9443c1982f36	0.05191241968358755
249	0xbfa51b229555c135	-0.04122264931618461
250	0xbfa74b1a37190d2f	-0.04549486086446063
251	0xbfb5de290bc77c53	-0.085421147704879
252	0xbf63b95b60d0a0a8	-0.002407721016897641
253	0x3fa36eb5229f8bce	0.03795400664946379
254	0xbfa9aad82c5bcf35	-0.050131564535972485
255	0x3f8ed5853b1d96ee	0.015055695406498395

fc3.bias f8 [50]
0	0x3fd3c5ce97c31518	0.3089481813479593
1	0x3fd478ef71ed8eb5	0.31988130689408517
2	0x3fd30c508ca345f1	0.29762662634047304
3	0x3fa3d28a351730c7	0.038715666752609894
4	0x3fd4b96584db09da	0.32381570791417646
5	0x3fd3131cdb8a56dc	0.2980415481518841
6	0x3fd7c991e873212c	0.371677853585896
7	0x3fd33734ad0bf5d8	0.3002444925221801
8	0x3f930d2ff36451f0	0.01860499308630098
9	0x3fd096eff53217b2	0.2592124838341717
10	0x3fd240acfe6a9b96	0.2851974949393762
11	0xbf999a66b52f6982	-0.02500305634371492
12	0x3fd562facd88aeb5	0.33416624137565104
13	0x3fa521bd98ae21cb	0.04127304543277751
14	0x3fa93a00f4fa1ece	0.049270658401892584
15	0xbfabdff3e0a2b513	-0.05444299809583177
16	0x3fd890a492745671	0.3838282995433025
17	0xbf8fe830d08a0e77	-0.015579587329973095
18	0x3f7519847c19b518	0.005151288527128338
19	0xbfb9e27f6f1e6052	-0.10111233198983996
20	0x3fdac417f27b5094	0.41821860008099887
21	0x3fd75e29bd6b0900	0.3651222562586014
22	0xbf6b75f2801c8a40	-0.003352140077269611
23	0x3fd910da627f3d9c	0.3916536294827553
24	0x3fd25ff773bdb74f	0.28710733702506713
25	0xbf9c001399abab2a	-0.027344042066867726
26	0xbf8a9c0b6da9dfab	-0.01299294403473524
27	0x3fd4503d28f8de2b	0.3173973941916041
28	0xbfdc09d6d1e65564	-0.43810053346654443
29	0x3fd7b75a7aa8cd04	0.37056600550131713
30	0x3fd726b29bd4f2f7	0.3617369195742834
31	0x3f9d1ca09ebf1285	0.02842951744948376
32	0x3fd670eb061a0901	0.3506419715487397
33	0x3fd5d7ee7125a3fe	0.3413044075919628
34	0x3fdc0ac3f272e28f	0.43815706898343704
35	0x3fd53e9cacb6581e	0.33194653383668704
36	0x3fd5760134457dd4	0.33532743553766164
37	0xbfafa649448d65d4	-0.061815538042263946
38	0xbfaa2aaadf1c2af9	-0.051106776938544436
39	0x3f9b400c97c83f09	0.026611515773821846
40	0x3fd47cfd99488707	0.32012882203171994
41	0x3fd6b048ba16e420	0.3545095269469716
42	0xbfbde654be573de9	-0.11679582259170442
43	0x3fa048527eabaa8f	0.03180177494308111
44	0x3f98c6c0ed874c76	0.024195684907521962
45	0x3fd76a50a64bbb17	0.36586395492388263
46	0xbfac518a70690536	-0.055309606763794525
47	0xbfb2656473f4f583	-0.071859625158103
48	0x3fd816f75cf50254	0.37640174939955284
49	0x3fd11fae4465d866	0.2675586383769598
