weights/mininet_nasdaq.pt (torch, 8343 bytes, 4 tensors)

fc1.weight f8 [5, 75]
00000000: 9d3d 40bb 81d0 a63f 4994 4702 b607 a73f
00000010: 3a3f 867c 42f2 c03f a562 a973 9104 afbf
00000020: a376 73fb 6615 b73f 4a1e fdd0 2b41 b83f
00000030: 1d27 57ef 9256 a83f 7e52 0645 c6d1 45bf
00000040: 8c3b 75a4 808b 523f 5f35 6b3d 63b1 0a3f
00000050: a1d1 1390 4a55 5abf ef6d 688b 958d b43f
00000060: 24ca 8844 81ec 5c3f 563f daa4 ca28 bf3f
00000070: d5e3 6bc8 7eb4 a03f 4d93 5bb9 9440 c23f
00000080: 2657 65b0 465b 98bf 5bbe 5855 ec6c a63f
00000090: f10e a210 23cf b53f 02e7 668a 6b97 b73f
000000a0: e0b1 ca1c 9096 54bf b673 26ba 6480 b03f
000000b0: fdde 63a5 227d b53f 3e53 c31d c6bc a73f
000000c0: 0e6a 4dce b6aa 173f d812 42d2 740b 543f
000000d0: 3918 0217 a477 5e3f b502 e2f6 f50a 493f
000000e0: 9f65 ac46 a2b3 b63f 3f35 36fc cfa8 6d3f
000000f0: 9f4f f2a4 39fd bd3f c95d 59b2 3394 693f
00000100: 703e f603 48be bc3f 7c30 94d8 da1b a5bf
00000110: e7a8 555f ff85 933f 3356 6c1c 438b 993f
00000120: 0a3f 3ad8 05dc 92bf cc7d 14ad 75fe 9d3f
00000130: 28e0 743a e6c5 b73f dcc7 037f ee44 b23f
00000140: d984 92fe 1245 ac3f cafb 22b4 8183 b53f
00000150: 7fb6 a527 fe70 653f b60f 1cd6 9c9d 613f
00000160: a444 5255 e63c 5b3f 9628 1c3f d19e a1bf
00000170: 1849 fb9a 0873 513f 7bdb c3d0 d1f7 c53f
00000180: e64d b51b 17dd aa3f 770e 8beb eb81 a83f
00000190: 0cd1 88ea d790 ad3f 4126 3475 0aea 7f3f
000001a0: 3449 fb6d f692 5d3f f3ba 2ec5 9557 9c3f
000001b0: dbb3 4ffe 4346 6c3f 0501 6eb8 0342 b13f
000001c0: ad21 6c46 523a 363f 727e 7a1d 766b 9f3f
000001d0: 6cf7 2fd4 dfa5 623f d34a 6e0f a291 c33f
000001e0: 7d3a 03a3 297d 663f 90b8 c6d8 1e65 5f3f
000001f0: 6cc0 5110 1954 be3f 0672 350a 4237 aebf
00000200: 0159 8efc af84 723f b2c4 39e4 8347 c03f
00000210: 9646 cd62 28e0 58bf 70ce 00ec c115 5ebf
00000220: 25e4 0397 83e1 be3f 191f 7fb6 3bfc 563f
00000230: e941 dc1e e28b 683f b845 63f2 f068 5cbf
00000240: d2c0 c0cc 5986 733f 4885 2518 b1e5 b93f
00000250: 2c37 418a 37e4 a33f c033 a494 66e0 b63f
00000260: e01b 058a d54a 903f 0bc3 c986 4aa4 a83f
00000270: 23cd 805c 94bb b2bf 5bb5 6be0 d338 b3bf
00000280: 1d13 c9b0 0e74 b83f accc 0b04 5560 b83f
00000290: e6fe 998c 822a b4bf 79b0 1d2f ee28 bfbf
000002a0: e702 d666 e70c b13f 1130 9baf 532e afbf
000002b0: 48f0 9ede 22f1 98bf a426 e4ac ce92 aa3f
000002c0: e28f 956c ae66 83bf afbd 4dbe f15f bb3f
000002d0: f8f4 415c a2e0 a9bf 41a2 b909 d756 b4bf
000002e0: 68a8 aeca c80f af3f 5cb4 6a5f 889d b2bf
000002f0: 3e1b 650e bb61 aa3f e152 7c9e 33ec b53f
00000300: b6e3 8b47 7849 b1bf e8ec d9af 6e67 a4bf
00000310: 536f 66f1 9f45 ae3f 85f0 d9a0 1b56 6bbf
00000320: 34f4 69d9 0bf5 593f 97d5 20ca d550 b0bf
00000330: 2ae8 b977 5a98 ab3f 1383 b75d 8db7 a53f
00000340: 38f5 2470 0397 bdbf fa3f 0967 0014 74bf
00000350: 2b01 968e d875 b1bf 2b73 537e 13ba 973f
00000360: 43e4 5ce0 bed1 a7bf f073 f380 c8df 953f
00000370: bd3b c836 3f36 b73f dc0d 9b97 7fa0 a73f
00000380: 0b8a 28aa b509 b23f b7cb c591 fc18 ab3f
00000390: cbf8 8d2a fcfa 843f d60a 2a49 cee3 683f
000003a0: 5c05 beb8 f42c b0bf 4d39 ac18 b903 bdbf
000003b0: 128e 940a edb9 b83f b844 57b0 70fd b53f
000003c0: 9335 3875 0cdc 663f 2ac3 2d1e 9585 7abf
000003d0: d6d9 eb30 b25e 85bf bfaa 6f20 fd59 9b3f
000003e0: 5afa 2efa 7e2b 963f 4a3a fe48 22b1 b3bf
000003f0: dd34 e9f3 6746 713f 0f4e 5131 3ef0 bdbf
00000400: 8037 20d1 c3b6 70bf f088 3fb4 cec8 b5bf
00000410: 707b e1b9 2c71 b83f 9ad3 57e5 160d b1bf
00000420: 1450 e263 07b6 bfbf c8e1 4d77 e903 8bbf
00000430: 0bd1 92e1 bc41 b8bf 16ce 5b74 a559 b4bf
00000440: 1a87 8bd9 c412 923f 2306 af0f dd34 bbbf
00000450: 03d8 6649 edcc a1bf cbe9 dcc4 2d45 a43f
00000460: f632 0a1c a726 86bf a345 bfcf 80b6 b9bf
00000470: 31be 73db 56dc abbf 00b6 0fc5 5b51 b3bf
00000480: aa03 5cd7 0031 bcbf ef9e 77e7 8a2b a93f
00000490: 899d fb54 9c8e bcbf 1d94 6b70 f3df aebf
000004a0: 4694 932b 6c57 bbbf 25ad c84d 671e b43f
000004b0: 29ac cb39 6abc b13f c4b8 9726 ea61 a8bf
000004c0: b946 f5db 04dd b73f b804 a694 bfbf 88bf
000004d0: f84e 5bb0 e3f8 bbbf a352 70b7 b178 b13f
000004e0: 58e5 a4ac 7db1 b9bf 861d 68bf 4dae b2bf
000004f0: 4a51 848c e90d a13f a8d8 f90f 01c1 893f
00000500: b0ac 4fa0 49a1 b3bf 80da 8038 27f2 b2bf
00000510: 2691 f41a 3dbe bcbf c6ce 71e2 4f09 a33f
00000520: abf1 dc61 8e62 b2bf 0397 4b2a 9e3b b73f
00000530: a3e6 97b0 cdd1 afbf fe16 bfce d560 a3bf
00000540: 6ff0 ccb6 f648 bc3f 8f8d 5985 2ab9 b9bf
00000550: 3522 e0f9 a827 afbf d8d9 f205 a625 9cbf
00000560: ee14 5000 d2bf a93f 0888 c62e c0f1 babf
00000570: b48e c20e d526 9a3f 3e6e a2e3 0429 a4bf
00000580: e2fb 3413 4e21 ab3f 16b0 d06b 9c03 acbf
00000590: f2de ed64 1992 ac3f 0012 f056 5970 b3bf
000005a0: 5b83 c005 7b58 bd3f 3048 1101 5608 b2bf
000005b0: b8d4 92d2 2895 b3bf f641 8720 436e af3f
000005c0: de60 0b77 3479 a33f 83df 7201 ab4a b1bf
000005d0: d733 d2da e8d2 b5bf 4810 3bc7 d012 a6bf
000005e0: 9e34 078a 6894 aebf 5f54 72a1 2bc7 b43f
000005f0: 1e64 b99e 431d a5bf f939 13ef dd7a bbbf
00000600: 083a fc76 5bbb 89bf 6085 cc37 cc8a 74bf
00000610: 88c9 c69d 9b79 843f 0e32 5c6e b243 b3bf
00000620: 7e5c c76e a373 b8bf e207 695d 3d19 b2bf
00000630: a3a1 e423 09d8 b23f 7cde cc8f 7714 99bf
00000640: 0c40 1265 f30a 93bf 4a08 85ff 7933 b8bf
00000650: 7cba bef9 240f 9d3f b2d5 f2fb 8eb4 a03f
00000660: d689 b929 2416 b3bf 6c7b 54ac d9a3 96bf
00000670: 6e07 a7d2 84ed a3bf 0841 a08f 55d1 acbf
00000680: c532 493c 37bd b5bf 8752 d6ea cee6 b83f
00000690: e018 a1f9 80d9 79bf 77da e090 b2a2 bc3f
000006a0: d22d e319 e2de b2bf 17df 85e0 e333 bc3f
000006b0: f478 44fc fbe8 943f 81b6 f748 3da0 b13f
000006c0: 36d0 7d88 88ee a8bf dd12 d771 a616 b73f
000006d0: f00b 5ec0 6d37 97bf 9bdf 1932 1d36 b13f
000006e0: 5835 af59 edfe 8cbf 12d8 3c70 9f68 a2bf
000006f0: 7b94 2d2e 5eb6 bb3f 0876 637a e9d2 9abf
00000700: d033 4b9c 496e a7bf e598 fb80 3009 713f
00000710: 6333 39e2 89d6 b23f ddee 7e1c 48a3 9c3f
00000720: 7b12 0388 7447 a53f cb9e 5df6 d182 a4bf
00000730: 3121 fe2d fd1b ac3f 87b2 379f 39cd 68bf
00000740: aeab 6caa bcc3 a3bf 1fc0 739a 765e 9bbf
00000750: 4a03 6f56 27ce a93f 151b 9b82 30a8 ba3f
00000760: 9903 9037 b5cb 943f 2c3a 34f9 804f 86bf
00000770: a903 502d 4659 b93f 953e a8da a31e a93f
00000780: 9258 4304 94a7 bc3f ea17 fe83 f2ea bfbf
00000790: daff e3cc 9034 78bf 1e48 9c54 f6d9 babf
000007a0: 5ed2 9f0e 851e 943f d371 3c16 0ba9 a83f
000007b0: 8151 e06b 950a a6bf fe74 1ced ed55 9f3f
000007c0: 3026 6ac1 a1a9 a43f ef7e e57e 7917 b13f
000007d0: 2401 0ce2 9782 ac3f 02e8 6f63 5f05 afbf
000007e0: b6cd 8a11 98f1 683f 4687 264c 21b1 a73f
000007f0: 6949 96d8 02b7 b6bf 3986 3405 7ea7 a13f
0.04455953036096647 0.04498070504977442 0.1323931797055538 -0.060581727379660756 0.09017032278958452 0.09474443294777149 0.04753550693165052 -0.0006658762086311912
0.0011318928025791678 5.0912705480502965e-05 -0.0016072490837447456 0.08028540280832151 0.0017653715496065503 0.12171618008346505 0.03262706944037289 0.14259585428876634
-0.02378569080004591 0.04379976789311676 0.08519190937118616 0.09215423706964646 -0.0012566001270598523 0.06445912880594915 0.08394066369862326 0.0463621054965757
9.028187521435018e-05 0.0012234345277032845 0.0018595793190186018 0.0007642460821131932 0.08867849564958029 0.0036205351077060184 0.11714515950217085 0.003122426004477073
0.11227846237874828 -0.041228140771722516 0.01906584758163712 0.024945305452169286 -0.01841744549034189 0.029290999115912972 0.09286345412408592 0.07136431313463681
0.05521449430058007 0.08403788230769674 0.002617355724558845 0.0021503508768336522 0.0016624688480855543 -0.034414805368286824 0.001065023807246995 0.1716253537522013
0.0524680348704825 0.047866222861128564 0.057745692615215644 0.007791558123480481 0.0018050581492628616 0.02767786041266169 0.0034514739986577342 0.0674135518329458
0.0003391695849335418 0.03068337016031681 0.002276360669838098 0.15288186791857203 0.002745229074299359 0.0019161988485439131 0.11847073219701237 -0.05901533484095371
0.004521071860742022 0.12718247073965966 -0.0015182871240608012 -0.0018362420814924917 0.12062857090849428 0.0014029105313841438 0.0029963890473327826 -0.0017340043064460863
0.004766798763782458 0.101161068339498 0.03885053217582732 0.08936158303204333 0.015910469578809372 0.0481284417663855 -0.07317473657967759 -0.07508587101957202
0.09552089515734648 0.09521991108686007 -0.07877365048079418 -0.1217182984379991 0.06660314808506095 -0.06090032118444822 -0.024357361638735392 0.051901301007160755
-0.009473192871787665 0.10693274398885565 -0.050541948091430144 -0.07945007312231046 0.06066729997776649 -0.0727162583304603 0.05152687597961013 0.08563540095594703
-0.06752731081714 -0.03985162636396372 0.059124944894590435 -0.0033369578948719302 0.0015843024936253005 -0.06373344597598983 0.053896739115728856 0.042416017236751945
-0.11558553207301692 -0.00490188748570119 -0.06820443612196374 0.023170761666608513 -0.04652210701755923 0.021361477728408518 0.09067149245696178 0.04614638066916729
0.07046065716034648 0.05292500762416046 0.01024434094301476 0.0030383137721526716 -0.06318597326573666 -0.11333805897104306 0.09658700474079066 0.0858984404105908
0.002790474254431083 -0.006475050441495248 -0.010434524648627635 0.02671046743845795 0.021650299091329074 -0.07692159921700994 0.004217535081420834 -0.116947066345624
-0.004080548200375733 -0.08509532833662425 0.09547690904717654 -0.06660597895809275 -0.12387129009795245 -0.013191055253387499 -0.09475307948270399 -0.07949289408480129
0.017649722841162598 -0.10627538330938839 -0.03476659317986732 0.03959029224502649 -0.010815911811073314 -0.10044102737381037 -0.054415430344189615 -0.07546018181866287
-0.11012273080633742 0.04916032863166985 -0.11155106615807688 -0.06030236003224607 -0.10680271209601341 0.0785889210607605 0.06928123389268194 -0.04762202950574726
0.09321623201438002 -0.012084480976002218 -0.10926650100310187 0.06824789741979002 -0.10036454644150206 -0.07297216341986798 0.03330926742833869 0.012575157451675104
-0.07667980350349768 -0.07400746468997887 -0.11227781208123541 0.037180420295866365 -0.07181634797320295 0.09075344593619765 -0.06214754849129391 -0.03784816883812246
0.110488338116683 -0.10048166041956662 -0.06084945726621919 -0.027487367737842522 0.05029159787958713 -0.10525132314663221 0.02553875830257253 -0.039375450885213756
0.0529884718366629 -0.054715049897225906 0.05580214840932553 -0.07593305943016304 0.11463135614805024 -0.0704396965604992 -0.07649474278408064 0.06138810894083584
0.038034095317643 -0.0675455931221887 -0.08524947492897127 -0.0431123011781272 -0.05972601590074443 0.08116409961287861 -0.04123889267493318 -0.10734355055613055
-0.012564386910097106 -0.005015180326865959 0.009997573616463709 -0.07525172418917966 -0.09551450209197473 -0.07069762735866861 0.07360894323631455 -0.024492138053771914
-0.01859646133794972 -0.0945354698970117 0.02837808393786155 0.03262755227607829 -0.07455659884138952 -0.022109414237202626 -0.038921499933635015 -0.05628459337470032
-0.08491845342468725 0.09727185471849441 -0.006310943421402565 0.11185756718701066 -0.07371342784897841 0.11016678077237106 0.020420014640984044 0.06885130912243122
-0.04869486490397927 0.09018936423587882 -0.022672381273434128 0.06723196480913744 -0.014158109950495643 -0.03595445866669435 0.10825146319764826 -0.026195190520288875
-0.045763302162960096 0.004159154384728779 0.07358609936745845 0.027966620196578574 0.04156078491499656 -0.040060578655184274 0.054901038994162106 -0.003027546446665422
-0.038602729610225026 -0.026727536370288015 0.050400952626211096 0.10412886799450079 0.020308333889264316 -0.010893828969099927 0.09901846510184832 0.049061890069535576
0.11193204025343764 -0.12467876169657158 -0.005909505487807077 -0.1048883396690887 0.019647673623654043 0.04816469808995163 -0.04304949704979589 0.030601232144467076
0.040356688366113835 0.06676444385584167 0.05568384775506477 -0.06058786476928903 0.00304488850482595 0.046273270173755196 -0.08873002803583109 0.0344809895853015

fc1.bias f8 [5]
00000000: 8e22 0d95 cc0d adbf 5407 4a8d 0a64 a5bf
00000010: 8950 1f89 6f87 babf b878 97ec 3e2b c0bf
00000020: 1daa 44e6 95c2 a33f
-0.05674590415452939 -0.041778878924573576 -0.1036290845652862 -0.1263197570069161 0.03859394489184729

out.weight f8 [75, 5]
00000000: 138b a9d5 2bba bc3f 88a3 cc69 af71 d73f
00000010: 542b 85e5 ddf4 c43f bc87 2864 bb7d cdbf
00000020: d1f4 9dae 0d48 c43f 1831 7c4e 6b6d c13f
00000030: 9307 4a40 57ab d83f 4483 1cd1 5b8c c43f
00000040: 8a8f 2b07 bad8 c93f f3c7 c52f 4559 b93f
00000050: 6ca5 785c c8fd da3f d41c 10cd 4c58 dc3f
00000060: 5a09 0bd6 d224 d4bf 50e0 078e 6b2a cabf
00000070: 1d30 d081 6f25 b53f e33a f79e 5998 d1bf
00000080: bd46 6642 b879 b9bf 1040 8256 2e8e b23f
00000090: 03a6 96a9 18a9 b43f 0d9a 9038 aa6a dd3f
000000a0: 00a7 2af7 448c ce3f 9b18 7f69 c923 d33f
000000b0: dc25 7637 8a45 cabf 9769 2d11 7949 d1bf
000000c0: b778 32be 5fee cf3f 20d2 0853 7ed6 d33f
000000d0: 0f68 3808 2e2d c6bf cc51 3c1f a815 bdbf
000000e0: f44d e5f2 4e41 9ebf 0088 aea4 cbe3 9e3f
000000f0: 808d 8f8e c425 c13f 90cc fc71 94b2 cb3f
00000100: 36d1 40da cb84 d73f db44 8ecb feb4 b6bf
00000110: c207 b45a cd8a a53f 483a 820f 8bfc d0bf
00000120: e0f4 42af ba44 a23f 3011 1d7b 0063 d93f
00000130: aaf9 3bad 0e84 d4bf 486a 95ac 13f8 c5bf
00000140: 68f2 e9e7 3953 c5bf 84d8 4ba1 1537 c23f
00000150: f2b9 1f30 48d6 d8bf ee72 d2af 0261 d3bf
00000160: d459 043f 580e c7bf 3866 c70b aec5 b53f
00000170: e17c 0c68 6b1f d7bf b048 596b 18dc c73f
00000180: 206c 5232 ddbe c8bf 4e34 bb23 ba79 d4bf
00000190: 5096 7ceb 4fd4 a23f 2cdb 3670 53ae da3f
000001a0: c2bb 16a6 bfda d93f 40ca 03a7 b373 a83f
000001b0: 90e0 bc9b 96dc 903f 37a9 803c bd1e cc3f
000001c0: 563a b3ff 9de7 dbbf 8c7d ec37 4c0d d2bf
000001d0: 23cb 07b4 b01e d1bf c9da 8273 dbea d13f
000001e0: ccb8 257c 1ea1 d2bf f655 45d9 1873 d3bf
000001f0: a043 8ed7 8750 83bf b8d6 f584 8763 d0bf
00000200: b084 1fec 34db c33f 6e4b ef70 46e8 d93f
00000210: 451d cc1a 9104 d5bf d058 b8c5 9212 d33f
00000220: 2da7 5a06 2e37 d23f 7b62 3764 30ef 98bf
00000230: 9b66 6e99 9b76 a23f 94c4 5a0d 65bd d33f
00000240: a5b7 1ea6 d8bf d1bf 63db 2794 8c0f d13f
00000250: 6547 bf74 b133 d83f 7b02 17d6 1ec3 df3f
00000260: 0b21 39e1 edf1 cfbf 38b8 d85a 34a0 d73f
00000270: 515d 66af 4762 df3f 3cad ea29 1331 c0bf
00000280: cf37 d999 3ccd c3bf a2e5 34b2 b83e c0bf
00000290: 96d3 710d d43f c2bf e53a 0779 8f31 dabf
000002a0: 7943 3211 10f5 d63f e307 d727 8be4 be3f
000002b0: 1f27 a3d1 9271 dabf 0a1c d1d4 8b1b d03f
000002c0: 36e2 74e4 dc89 c53f 44c9 0310 44f2 be3f
000002d0: 90ee 584a b8fa ce3f 4f9f 5d94 5d1c db3f
000002e0: 34f6 cd62 e251 d03f 9caf 330e eecd cf3f
000002f0: e6ed 39de 214c c13f 291f 688c 69d4 d53f
00000300: f667 d995 4079 d7bf 94e4 6a0f e086 cf3f
00000310: a60e 781c 86ed c93f d803 1cf1 815e d1bf
00000320: 248a 8912 50b4 d0bf a0c6 95cd c849 ae3f
00000330: 5057 3971 8f66 ac3f 483e 1a6d 6973 c73f
00000340: b08f 285d 36c4 bdbf fb05 6c82 2093 c43f
00000350: e285 108f 1ab0 d2bf 90a3 1ed5 2850 b0bf
00000360: bf58 5e5a dff1 d8bf ee07 27c0 0771 d03f
00000370: 1545 fe73 0013 d23f 4efc e1d8 6070 d53f
00000380: c0d0 a37b 0e09 b13f fa08 f5d4 cddf bc3f
00000390: b7f7 7675 59d1 8ebf f4ba 2c93 5759 c13f
000003a0: 7f1e cc12 41a3 cdbf 06b8 b11d 822d cabf
000003b0: c56d 5395 aad7 d2bf 081d 444f b6ac b63f
000003c0: 8abf 0c8c 544d c3bf 84f4 af0c 1c66 c23f
000003d0: 1c89 d1b9 ade1 c13f 7ceb d79c 7496 c8bf
000003e0: ecdf 60b2 3ed5 c43f f2c5 46cd a0cf c7bf
000003f0: ead7 124a 50c7 d8bf 8816 1d17 9c76 d93f
00000400: 8265 2a67 26eb d3bf 4cc3 9218 0f96 d4bf
00000410: c2fa 6ec5 d205 bbbf cd15 84d7 ec93 d7bf
00000420: dc58 933a 8b50 ca3f 73bb 75fc 2abc 9fbf
00000430: 7571 9827 aac8 bbbf b875 489c a00e b93f
00000440: d087 233f 1080 a2bf 1cc6 5e4d 0504 d1bf
00000450: 00cc 6444 00ea d53f f078 edae bac5 dabf
00000460: f9a5 c0b2 3e33 d23f a460 b922 d001 c4bf
00000470: 22a7 c677 8761 c5bf b484 ee4a 1c78 db3f
00000480: 8a21 98ee ce6e b23f 0555 4f8d 4c26 d5bf
00000490: 06fd 84bf 77b6 c6bf bed8 4bfb 0b69 c2bf
000004a0: 5591 41e7 fd4a d5bf f6a3 3803 df5c d13f
000004b0: 301d e8a7 d8a8 d83f 1927 420c 57b7 d73f
000004c0: 82d0 9829 03d9 c0bf 7cda 1644 d2af db3f
000004d0: 9cbf c447 1d1c 853f 1052 7862 7c24 9cbf
000004e0: 4cf1 950e 6599 c23f 0418 7f7f 3c62 c8bf
000004f0: 71aa ae23 67d5 d0bf e015 552f 4063 b63f
00000500: e038 eb80 f275 da3f 333c c59d 2a43 cbbf
00000510: da06 4157 b70e dbbf 286f 41e5 a184 d8bf
00000520: 81a3 8338 19d3 d4bf eea1 f061 8152 ccbf
00000530: e967 5c5c 12c9 c3bf 4243 06ac 01be d93f
00000540: 89da 2527 d6a6 cdbf 6a1e 785a 846f db3f
00000550: 5085 8181 29a6 a5bf 465e 104c 4ca7 c7bf
00000560: 7c09 f347 a9b9 d13f ad55 9b2a fe72 d4bf
00000570: b4b4 8022 f5a9 e23f 5d7f 0f6d 2830 a83f
00000580: 864f 87c1 dea4 c1bf 587d 4478 de44 bfbf
00000590: a6e1 d87e 89e0 c83f f0ac 89cd 8b14 c93f
000005a0: d069 52ef 7180 b9bf c084 e35e efd0 c1bf
000005b0: 6203 c701 45ae d23f 427d 14a3 1884 c53f
000005c0: c965 c002 c416 d03f ff23 bdf8 cab8 b83f
000005d0: bb90 9f1c 3c3c dcbf f1c0 8ede 2d04 cebf
000005e0: 320d 92f8 2642 b7bf 38a1 09dc 96e6 9fbf
000005f0: 7082 3d51 cf2d d73f 897c e68a b475 ba3f
00000600: 6aab 9768 2cf9 c8bf 859f d5c6 2885 613f
00000610: c0b9 6442 e978 d1bf 0e09 fb71 9e3c d23f
00000620: 38d7 be21 dba7 d2bf 9c64 2931 5a13 cd3f
00000630: 2cb8 1b8f 00d8 de3f 8544 1767 1737 d0bf
00000640: c47b bf60 1085 ba3f f8c5 5356 7b14 a0bf
00000650: 203d 54af 8349 ca3f befa 3f19 6c64 c7bf
00000660: ceda c956 30b3 d83f d006 0367 1e4d d23f
00000670: 154b 0c1f f33c bf3f 5c00 49a5 8ad1 d73f
00000680: 4fe2 3bfe 4e53 c43f 8099 b5fa 04cb b5bf
00000690: 6fcf fda8 bba9 b5bf ff8f 23e2 dfe3 d2bf
000006a0: 006b c571 e1ba 7bbf 813b 161a 5ebf b23f
000006b0: 0462 8ac3 48b2 733f d140 bdc5 a3af d5bf
000006c0: 94ad 7fe7 8762 d93f d8fe 8ee8 2c48 c9bf
000006d0: d9b2 5f53 ea86 d23f 41e0 7577 3fed c2bf
000006e0: 1fba 522f 5d6c a6bf fa7c 0848 dcb9 c73f
000006f0: f00c 0ec6 56ff da3f 0b86 5d30 8b6f cc3f
00000700: 19a5 61fb 65da ce3f 948b 7c9b 5d62 c7bf
00000710: 5c6c a165 d312 d6bf b05c 755e a65e abbf
00000720: 9a5e 2069 f524 c0bf c962 ec0b 6de4 d23f
00000730: f049 116d 80be 9b3f e0b2 6f57 6440 d7bf
00000740: c0ff d389 e730 783f 6025 b688 80cf 873f
00000750: c0bc db2f 174c 953f f17c 59b4 97ac e13f
00000760: bc73 e2eb a1dd 86bf 26e4 0df1 ce39 d2bf
00000770: 30e4 d076 2d37 bb3f e797 be44 1928 9b3f
00000780: 90ad 0ceb 7edb c43f 2dc6 7e4e 73f8 c9bf
00000790: e4ac 3b27 c5f5 d8bf 5410 d06f ca25 b03f
000007a0: 0ddd 5764 d71b a23f 6734 dab0 2e70 bc3f
000007b0: e4ec 40d1 f059 d9bf 30e0 e585 c243 bdbf
000007c0: 806c 9242 45f5 ccbf 7506 c333 c592 cc3f
000007d0: 6e52 2e2a 0493 bf3f 11cd 5af7 6480 d7bf
000007e0: aadf 09a0 92c5 d53f 9c78 d5e6 7ab3 c1bf
000007f0: 39aa 1ac1 c5b5 dd3f 98c0 0722 d67e bd3f
0.11221574751247614 0.3663137944409347 0.16372274119415897 -0.23039953604262375 0.158448896658149 0.13615170795709086 0.3854578140090947 0.16053340635792257
0.2019264731417219 0.09901840606997307 0.4217396643676554 0.44288940454175685 -0.31474753286979296 -0.2044195598134615 0.08260247153538143 -0.2749237110519244
-0.09951354619104343 0.07248201000243193 0.08070520534842988 0.4596353104010696 0.23865568226511158 0.2990592508543927 -0.20524718959886357 -0.2701094310520146
0.2494620970437091 0.3099666415103304 -0.17325377847083742 -0.113611705423245 -0.029546006751230494 0.030165845800759428 0.13396508179640065 0.21638732496066782
0.3674802428606826 -0.08869926900503648 0.042074601480649246 -0.2654140140010992 0.03568061246321874 0.3966675951271723 -0.3205601398221015 -0.17163320471702748
-0.1666023619071837 0.14230604530138546 -0.3880787343940987 -0.30279605074046756 -0.1801252658558058 0.0850476053959931 -0.361292697534692 0.1864042781986135
-0.1933247085297305 -0.31992963303929833 0.03677606343834994 0.41689001043725926 0.4039763566933595 0.0477577344298834 0.01646647763774972 0.21968808607318532
-0.4360117909499527 -0.28206162892635045 -0.2674981840238379 0.2799595478094657 -0.29108392833485364 -0.30389996736388925 -0.009430943742502695 -0.2560747908058647
0.15512715844582692 0.4048019507292143 -0.3284037362759203 0.29800862606624623 0.2846179067661179 -0.02434993373558079 0.036061155776406305 0.30843473724514436
-0.27733436796813243 0.2665740439255641 0.37815510178653816 0.4962842074128628 -0.24957059380745536 0.3691531073735663 0.4903735363854667 -0.12649764582361367
-0.15470082771429225 -0.12691410733695557 -0.1425728860519057 -0.40927492922939585 0.3587074439938572 0.12067479822783826 -0.4131819770087634 0.25168128760236697
0.16826974063020977 0.12088418379770355 0.24202636366122876 0.42360629547919343 0.2549978222740237 0.24847198193981235 0.13513587332623372 0.3410896178397587
-0.3667756522532949 0.2463035655289657 0.20256115331732366 -0.2713932852348626 -0.26100541887550066 0.05915668019850995 0.055469973155296004 0.1832095892645944
-0.116275212997208 0.16073995941410132 -0.29199851962229506 -0.06372313693158405 -0.38976272416165253 0.2568988205422319 0.2824097759958744 0.33498402767140056
0.06654444235374779 0.112789978496071 -0.015047739884604156 0.13553900419488907 -0.2315446225913895 -0.20451380205071262 -0.29441322882277304 0.08857287821966875
-0.15079743231171633 0.1437411367368534 0.13969966481369844 -0.19209153803225465 0.16275771818050033 -0.18602380774750277 -0.3871651385665006 0.39786436326208063
-0.31122741770521867 -0.32165887260184856 -0.10555760688928742 -0.3684036354682945 0.20558300361762505 -0.0309912411298074 -0.1085306498211532 0.09787944617752131
-0.03613329668748089 -0.26587040477451906 0.34240729025913197 -0.4183184345510105 0.2843777413969231 -0.15630532928003504 -0.167038854107255 0.42920596425581015
0.07200330090575427 -0.33046258735460327 -0.17744347430741686 -0.14383077402425742 -0.33270213683706135 0.2712934047181642 0.38530556103838176 0.37056518742666494
-0.13162269145107436 0.4326062836584368 0.010307530167295735 -0.027482932577259034 0.1453062363833716 -0.19049793458378883 -0.263025078626618 0.08745194583487814
0.4134489306424154 -0.2129872579921269 -0.42277320404910557 -0.3830952395271532 -0.32538443106619047 -0.22126786501145496 -0.1545737219792607 0.4022220783163456
-0.23165394698635947 0.4286814578522128 -0.04228334146388113 -0.18479303087291238 0.2769568636541846 -0.31951860581224417 0.5832467721826533 0.04724241572671304
-0.13784393739353734 -0.12214460788935833 0.1943523282404957 0.1959395173647418 -0.09961616604633794 -0.13918869145621748 0.29188656972478644 0.16809375727550885
0.25138950604158744 0.09656971523976664 -0.44117644114727356 -0.234502538367003 -0.0908531529294592 -0.031153065853147782 0.3621710103380229 0.10335853949662711
-0.19510417086652448 0.002138690607058127 -0.27300483211265814 0.28494988566321033 -0.2914951161904926 0.2271530857131311 0.48193372702997084 -0.25336251323194175
0.10359289514552389 -0.03140626362609206 0.20536848126401086 -0.18275214417368163 0.38593681788863143 0.285956955525859 0.12202376850136105 0.3721644033539684
0.15879237569585533 -0.0851290809710914 -0.08462117076652274 -0.2951583584201671 -0.0067700201437570495 0.0732325376213634 0.004808696969711427 -0.33884519873118985
0.39663884742068345 -0.19751511912726616 0.289484578532933 -0.14786523182897507 -0.04379550173449708 0.18535951153987879 0.42183465329453806 0.2221540437849828
0.2410399892280928 -0.1826893815242242 -0.34489903378352493 -0.053456496267864195 -0.12612788804175495 0.2951920143546372 0.027093893677667624 -0.36330517328933176
0.00590601391490958 0.011626247570137138 0.0207980750046175 0.5523184320881268 -0.011164917956472446 -0.2847783426328213 0.10631069327145393 0.026520151921111703
0.16294847943332202 -0.20289460499547954 -0.3900006182800111 0.06307664136699148 0.03536866283314497 0.11108676736530897 -0.39611454424784953 -0.11431518334382029
-0.22623506308159236 0.22322907473976597 0.12333704023178324 -0.36721157222491835 0.34018388394133103 -0.138289797508098 0.46421951158359637 0.11521662073914951

out.bias f8 [75]
00000000: 28de 3ff8 af08 c13f 7aa8 bec3 fddb c63f
00000010: 6de6 348b a717 c8bf 11f1 1b38 c967 d23f
00000020: efc6 5825 5b1f c3bf e450 ace5 554e a33f
00000030: ced5 831f e678 d03f 703f 4864 f394 d6bf
00000040: 607b c0ad d92d 9bbf 15ed dea6 8d15 d6bf
00000050: e925 0c32 f8f7 cabf 6c61 7b90 78e9 c3bf
00000060: 5e1a a181 ba99 d8bf 709e 282a 2d1d a8bf
00000070: 234c 51e1 55c5 b0bf 4348 da0d d9ed 97bf
00000080: e98b fc44 e7f8 cf3f d964 1a15 db89 c33f
00000090: b590 b049 827a 8cbf 5af4 d039 c93d d83f
000000a0: 9c97 aa7d db46 bdbf 63f2 db09 1b25 a4bf
000000b0: f9c6 f1a4 ed64 c03f 48da 7561 54f0 ca3f
000000c0: 387c 96d2 a71a c0bf 103b 4aab da99 dabf
000000d0: aa60 490a 4961 ba3f 1b1a 8d51 285b a73f
000000e0: 542d 9cea 0146 5b3f 9343 beda 2dee d4bf
000000f0: efe1 353c 06c8 b1bf 2843 9c95 47c7 c3bf
00000100: cd62 fc34 3443 d73f f6f7 0ced 17de cf3f
00000110: 4be2 920d 0cbc c8bf c762 4826 7b7f c63f
00000120: f0fa 0378 b2ca d23f 5067 24b5 c462 da3f
00000130: 9d69 35e4 3687 d73f 573c 1960 2b90 db3f
00000140: 4757 88e8 c5c8 c1bf 2a97 b26c 023f cb3f
00000150: 8016 3eff 4745 6dbf e128 ddf6 ef4b cbbf
00000160: d7cc c7d2 257f d03f 2e07 11e4 71a0 d73f
00000170: 0726 c9d1 b5ce d5bf 1fc8 02f5 2f84 d3bf
00000180: 19ca 834b bb7c cb3f b659 bece 33ef b03f
00000190: 736f d585 47d3 d0bf 4c95 e1da 8352 bdbf
000001a0: ec36 4a9c 9c11 d7bf e942 dcb5 ccd9 d53f
000001b0: 986f 2e3b 2d79 b7bf 0553 5fa1 3539 a0bf
000001c0: c001 34c1 80d4 8b3f 7264 197e aad8 b53f
000001d0: 402a b963 5480 aebf 09dc 7278 08f2 b2bf
000001e0: 9cfe 2c02 bd07 c63f abb1 43a4 c6a1 b4bf
000001f0: 5841 b78a 95b8 cd3f e7dc 865f 957d dc3f
00000200: a1c0 fe24 f2e5 ccbf 19b6 134b 07f2 9a3f
00000210: 1615 7274 6a99 d5bf ff57 d9d2 119d d8bf
00000220: 15dc 2219 822e c9bf e804 7f59 87b5 dc3f
00000230: 3508 c6fc 014c b93f 6707 c3f4 2c4f d2bf
00000240: 42d2 6e8b 29de 8b3f 5a69 5786 5e00 ccbf
00000250: 4f67 41bc ed0a d73f
0.1330776178508455 0.17858860071038746 -0.18822187707137364 0.2875845954838648 -0.14939441035817633 0.03770702770830939 0.25737908437380674 -0.3528412322348151
-0.026542092542622853 -0.34506551071145114 -0.2106924290058452 -0.1555624680975244 -0.3843828454886643 -0.04709759845382855 -0.0655111003009528 -0.023368255110263424
0.24978342884523322 0.15264452486443394 -0.013905542253333495 0.3787711205112082 -0.11436244791056399 -0.03934559340811885 0.12808008722236489 0.21045927771383988
-0.12581346304520635 -0.41564051368270416 0.10304695607317407 0.045617351489046075 0.0016646403041161344 -0.3270372997440571 -0.06945837945921317 -0.15451903157420444
0.36347680258181186 0.2489652545427245 -0.1932387415197517 0.17576541299128776 0.293621651842769 0.4122783440558253 0.36762783323288223 0.4306744039976755
-0.13893960813646286 0.21286039645672733 -0.0035730749313554466 -0.21325492433454143 0.25776048263578616 0.36916777870293316 -0.3407415913285096 -0.3049430744823684
0.21474400698896615 0.06614993855905635 -0.2628954703302419 -0.11454032987383761 -0.3604499365109024 0.3414184356670789 -0.09169275946481859 -0.03168647379758308
0.013588910957424427 0.08533731058686714 -0.05957282750440074 -0.07400563183442456 0.17211115461576731 -0.08059350500452094 0.23219556115374007 0.4451650078658091
-0.22576739126589465 0.02631389041646601 -0.33748875972408265 -0.3845867690155273 -0.1967318175063332 0.4485796331392309 0.09881603642682608 -0.28608249571344974
0.013607334678320208 -0.21876126823083092 0.3600420320923278
