weights/numq_gspc_30.pt (torch, 264831 bytes, 8 tensors)

fc1.weight f4 [200, 200]
00000000: 672d 03bd 1728 c63d 8f5e aebc 914c 82bd
00000010: 73af 983d a566 593c a454 893d f206 803c
00000020: 222e 863d 2d92 36bc f0c0 a43d 1cf7 853d
00000030: 0871 09bd 71a6 123e 77b6 e53d 0b3a 303e
00000040: 0e34 193e 2ade 7fbd 1dc7 a4bd 800c 1dbd
00000050: 368f 90bd 3b78 8dbc b018 223e 6685 2a3b
00000060: 9100 5dbd 86a0 e0bc 5ba1 87bd b097 f13c
00000070: b9d0 e53d e9a0 a83d b882 0cbd 8c9a b83b
00000080: a890 1bbe febd 9fbc fa29 9bbc 127a b03c
00000090: b54b 7dbd d790 043c 24c7 0fbd 7e77 28bd
000000a0: 2c44 8abd 623c 833d b828 473c 0750 25be
000000b0: d9f5 5abd 9cd7 a1bd a28a 3b3c ff2f e43d
000000c0: 7d2d 46bc b248 173d bc63 42bc 7a99 fe3c
000000d0: 7580 72bd 1cfe 6f3d 6cc5 733d c6eb 2a3d
000000e0: bea0 8a3d 2d15 b3bd 8949 0d3d 4e5a 483c
000000f0: eeb7 2fbd 6787 0a3d 9d85 ae3b 6397 9ebb
00000100: a178 eebd 179e a6bd b038 15be 248a a7bd
00000110: 7f37 883d 83eb b33c 4ced 56bd 3437 a03d
00000120: c0ce 80bd cb54 233d 4f31 023d c0db 03bd
00000130: 4399 ebbb 24ed d7bd 125b 033e 6c43 7d3a
00000140: 0eeb c63d 6e6b a73d 12c8 d23d 7f66 953d
00000150: 1cde 21bc 30c4 a23d 0d1e 29bc d8d5 fc3d
00000160: adc5 db3c 7325 64bb fa8c 083e d252 debd
00000170: c022 7e3b 72a7 e63c b7e2 a8bd 896c a63d
00000180: 8b54 d13d 1583 093d 8242 553d b25f 943d
00000190: 3f2d 783d 32a3 a7bd fc3b 63bd 97ec 0dbd
000001a0: b2ed ecbc e47d 85bc 6239 393d 8e50 a9bd
000001b0: 90b9 87bc e247 233d 1a59 92bd a9d6 803d
000001c0: 4b7e 933b 570c 793c 20e2 3fba 2d5b 183d
000001d0: 6baa 123d bf9c 3cbd 102c 1cbd 5d63 ac3d
000001e0: 8c72 c23d 1f42 0f3d 9886 7e3c 3b8c 2cbb
000001f0: 6966 dc3c 90ca 4d3d 409e e2bd 7f22 b2bc
00000200: b205 21bc ea89 9bbd 93af a53d 8127 a7bd
00000210: 713f 8f3d bf3e afbd 3e6c d9bc 2f28 383d
00000220: 0d69 103d 15bb 663c 2613 97bd 589e 053e
00000230: f69f 25bd 5c67 11bd 1580 993d 9826 9b3d
00000240: ccb7 013e e9c7 f83d 3d5f 0c3e ffdc 3ebb
00000250: 2464 133a f7f3 8ebc a283 00be 8998 dd3b
00000260: 071a bc3d be66 3d3c d071 213d d181 ca3d
00000270: 96f9 553c b004 b03d e1b9 e33c eb7f 333d
00000280: 3fb8 203d aa5a a7bd 22a4 8bbd 6806 5cbd
00000290: 1b14 a2bd db30 9f3c 4b6a 2f3d 42b8 2c3d
000002a0: 2990 043d 65ab 06bd 45a9 1d3d 2d44 f1bb
000002b0: 7035 2abd f689 a43c 34a5 043c a681 6fbd
000002c0: cff8 283e 7493 6f3c 29ec 0a3e aa8b a7bb
000002d0: 925f b0bc 2455 ae3c 70e2 6ebd 166a 683c
000002e0: d393 f2bd 737d 153d c254 293d 3d4e 0dbe
000002f0: 8ba3 4b3d 8bf0 6e3c be17 ae3b 5efe 44be
00000300: a58c 86bd ca17 18be be67 f1bd 80fa 81bd
00000310: de46 09bd 3a0f c2bd 8f56 d2bd cdf1 89bd
00000320: e1e5 2b3e 9f96 1abd 3a79 0a3d 9054 fbbd
00000330: 146c 13bc 14d8 b03c 8936 97bc 83ed 653d
00000340: 6d3c 8c3d cb70 2c3e dc62 043e 7077 78bc
00000350: 6167 4e3d a7ea 903c ae72 eebd 2a1f ed3d
00000360: c3bd 94bd 3ec8 73bd 03e7 2c3c d88f 81bd
00000370: 64f0 9c3d 5b4a a1bc 368f 21bc 24d1 05bd
00000380: 7292 9abd 63c4 d5bc c947 9d3d 7633 00be
00000390: 85a5 1cbc cb94 f5bd 8359 f33c 0f40 f63b
000003a0: 45bb 223b 1506 ea3d a17e 55bd 3a63 9b3c
000003b0: 4259 72bc 9b34 43bd 9133 d63b dd85 bc3d
000003c0: 696d 803d 1133 413e 0cde ebbc 0233 a0bd
000003d0: 11a0 03bd 0a4e 23be 3cd4 dd3d 2a46 fdbc
000003e0: 9827 67bd e5dd ca3c aec5 2f3d 10ab 09bd
000003f0: 3de0 f33c 5897 93bd 6661 593d bfae 1fbd
-0.03202572 0.09675615 -0.021285323 -0.0636226 0.07455339 0.013269101 0.06705597 0.015628312
0.06551768 -0.011143249 0.080446124 0.06541273 -0.03355506 0.14321305 0.11216443 0.17209642
0.14961264 -0.06246773 -0.0804579 -0.038342 -0.07058565 -0.017269244 0.1582973 0.0026019453
-0.05395562 -0.027420294 -0.06622573 0.029491276 0.11221451 0.08233816 -0.03430435 0.005633658
-0.151919 -0.019499775 -0.018940914 0.021542583 -0.061839778 0.008091173 -0.035102025 -0.04112958
-0.06751284 0.064080015 0.012155704 -0.1614381 -0.053457115 -0.07902452 0.011446627 0.11141967
-0.012095806 0.036934562 -0.011864599 0.031079043 -0.059204537 0.058591947 0.059514448 0.041728757
0.067689404 -0.08744273 0.034493957 0.012228562 -0.04290002 0.033820536 0.0053259865 -0.004839824
-0.11644102 -0.08135622 -0.14572406 -0.08180645 0.0665121 0.021962887 -0.052472398 0.07823029
-0.062894344 0.039875787 0.031785306 -0.03219199 -0.007189901 -0.10543278 0.1282771 0.0009661231
0.09712802 0.081747875 0.10292067 0.0729494 -0.009879615 0.07947576 -0.010322106 0.12345475
0.026827658 -0.003481236 0.13335028 -0.108556405 0.0038778037 0.028156016 -0.082463674 0.0812617
0.102212034 0.033572275 0.05206538 0.07244815 0.060590025 -0.08185424 -0.055477127 -0.034649458
-0.028921936 -0.01629538 0.04522074 -0.08267318 -0.016567975 0.039863475 -0.07145901 0.06290943
0.0045011393 0.015200696 -0.0007319767 0.037196327 0.035807054 -0.046047922 -0.03812796 0.084173895
0.09494504 0.034975167 0.015535019 -0.00263287 0.026904302 0.050242007 -0.1106534 -0.021744965
-0.009828018 -0.075946644 0.08090129 -0.08161832 0.06994522 -0.0855689 -0.026540872 0.044960197
0.035256434 0.01408269 -0.07376699 0.13048685 -0.040435754 -0.03549896 0.07495133 0.075757205
0.12667769 0.12147505 0.13708206 -0.0029123423 0.0005622527 -0.017450316 -0.12550214 0.0067625684
0.09184652 0.01156014 0.03941518 0.09888042 0.013059994 0.08594644 0.027798595 0.043823164
0.03923821 -0.0817159 -0.06818415 -0.053717047 -0.07913991 0.019432476 0.04282598 0.04216791
0.032364044 -0.0328783 0.038491506 -0.0073628635 -0.04155487 0.020085316 0.008096028 -0.05847325
0.16501163 0.014622558 0.1356665 -0.005113085 -0.021529946 0.021280833 -0.058321416 0.014185449
-0.118446015 0.03649659 0.041340597 -0.13799377 0.049716514 0.014583717 0.005312889 -0.19237658
-0.065697946 -0.14852825 -0.117873654 -0.06346607 -0.03351485 -0.094755605 -0.10270416 -0.06735573
0.1678691 -0.0377413 0.033807017 -0.122719884 -0.008997936 0.02158741 -0.018458622 0.056134712
0.06847463 0.16839902 0.12928337 -0.015165195 0.05039156 0.017690016 -0.11642967 0.1157821
-0.07262757 -0.059517138 0.010553124 -0.06326264 0.076630384 -0.019688776 -0.009860804 -0.032670155
-0.075474635 -0.026094621 0.076797076 -0.12519631 -0.009560947 -0.11991271 0.029705768 0.0075149606
0.002483086 0.11426941 -0.052122716 0.018968213 -0.0147917885 -0.04765759 0.006536909 0.0920522
0.06270868 0.18867137 -0.028792404 -0.07822229 -0.032135073 -0.15947738 0.10831496 -0.030917246
-0.056434244 0.02476401 0.04291313 -0.033610404 0.029770011 -0.07206601 0.053071402 -0.03898501

fc1.bias f4 [200]
00000000: f1c6 003e 3d70 1f3e 2d1a a9bd 905a 813e
00000010: c387 0fbe e4ba 63be a57a 893e 70f9 aabd
00000020: 2929 24be 6b27 eebb 6daa 04be 3d27 843e
00000030: 1d17 25be 27d0 81be 5575 103d 9ef2 113d
00000040: fcce 363e c813 e9bd 81e8 123e d83d 583e
00000050: f07a 69bd 6409 e13c 88dc 0c3e b913 113e
00000060: f6b5 1abe bf9a b5bd 04da 5b3e a034 483e
00000070: 5bb2 663e 4a75 363e c8dc 613e 18f8 08be
00000080: 33ea fd3d 4531 823e a178 5bbe c09b 14bd
00000090: ee1e 623e 3731 503e de03 613e eba5 2f3e
000000a0: f74f 2a3e 12b6 02be 8641 373e 372b 673e
000000b0: c709 39be 500d 0c3e 1fe8 dbbd 794d 03bd
000000c0: 276e de3d d5ec 623e 735d 53be db27 613e
000000d0: 7cf9 5c3e b16d 183e 4abd 1abb 1407 ed3d
000000e0: 1ec8 2cbe 967e 2d3e f15f 433e 59e6 883e
000000f0: 06e0 003e e922 163e e5b3 2c3e 035f 813e
00000100: 5b5b 453d d814 9bbd 7e75 693e ac2b 56bd
00000110: 6a74 efbd 46fa a13b a84b 623e 84e2 393e
00000120: ca89 583e 0c34 6c3e 6cec 783e 321f 4f3e
00000130: 6baf aa3d e9df 78bd 9d99 f9bc e86b 793e
00000140: 0651 13be 893c 5e3e 7376 10be 4fef 3a3e
00000150: ce7c cfbd 8e66 213e 1455 3f3e 5e73 93bb
00000160: d14d 2a3e 0128 a2bd 06dd e7bd 265d bf3d
00000170: 04d9 203e 76ac 8d3e 2c9a 0c3e 195a ed3d
00000180: 1ebd 82bd 0818 dab9 1ae4 eebd 0b2e 3c3e
00000190: 2c2b 303e 81ec a53c 7c7c e8bc 6e71 6bbe
000001a0: 299c f73d e8c0 3e3d 9852 c93d ba85 eabd
000001b0: dc2b 803e 864e a4bd c38c 013e 4456 3b3e
000001c0: f487 873e 9ecb 503e d1c5 3a3e 09ca 16be
000001d0: 7716 693e 6765 453e 3002 443e bac5 0cbe
000001e0: 1e1f 6a3e d852 90bd e3d0 88be a140 1f3e
000001f0: a911 f33d e25f 823e bca1 4c3e 315e babd
00000200: d1ce e63d 84e7 253e 718b 4d3e c8a0 1f3e
00000210: 3d06 6f3e ded0 423e 5ec3 6ebd 03c1 d2bd
00000220: 7885 d1bc c52f 593e d2ca 213e ccec 373e
00000230: b1a5 013e c3a5 883e 7b63 343d 9ec0 cc3d
00000240: fcac 6a3e 4b1a ebbb 8b9a 5ebe 7746 ec3d
00000250: 367d f53d c306 0f3e 17d5 78bc 941e 803e
00000260: ba26 e93d dfb0 0dbd c2f3 6d3e 44ec 633e
00000270: 5473 acbd f425 233e 5521 653d feb0 1f3e
00000280: 1b6d dd3d 8f5e 6f3e 7d69 1c3e 35f6 8a3e
00000290: c867 4f3e c5d5 46be 336a 83bd 293c 773e
000002a0: 896e 3cbd e1e4 e73c 7e1d 453e f030 143e
000002b0: a75b 663e 6762 033e 8aa5 313e 6ea0 81bd
000002c0: 01ab a03d f14e 69be 1348 3b3e 3297 423e
000002d0: 2fa6 eb3d f51e 7d3e 0064 5f3e 79b6 5a3d
000002e0: 90c9 2d3e 267f 813e b4ff 233e cd88 8cbd
000002f0: 6c85 d53d 7fb8 cf3d c272 a7bd e8f6 5d3e
00000300: 5009 fa3d cdeb 7b3e ec18 213e 24f1 653e
00000310: 4ad3 7c3e f6f5 22be 1b2c 2b3e cbcd 1c3e
0.1257589 0.1557016 -0.08256946 0.25264406 -0.14016633 -0.22239262 0.26851383 -0.08348358
-0.16031326 -0.0072678826 -0.12955637 0.25811186 -0.16122098 -0.2535412 0.035268147 0.03563177
0.17852396 -0.11380726 0.14346506 0.21117342 -0.057002008 0.027470298 0.13756001 0.1416768
-0.15108475 -0.08867406 0.21469885 0.19551325 0.22528975 0.1781818 0.22056878 -0.1337589
0.123981856 0.25428215 -0.21432735 -0.036281347 0.22082111 0.20331274 0.21974131 0.17153136
0.16632067 -0.12764767 0.17896089 0.22575079 -0.18070136 0.13676953 -0.10737633 -0.032056306
0.10860854 0.22160657 -0.20641117 0.2198786 0.21579546 0.14885594 -0.002361136 0.11573616
-0.16873214 0.1694282 0.19079567 0.2673824 0.12585458 0.14661755 0.168655 0.252678
0.048182826 -0.07572335 0.22798726 -0.052287742 -0.11692126 0.004943165 0.22099173 0.18152815
0.21146312 0.2306673 0.24308938 0.20226744 0.083342396 -0.060760412 -0.030468756 0.24357569
-0.14386377 0.2170278 -0.14107685 0.18255351 -0.101312265 0.15761778 0.18684798 -0.004499837
0.16631247 -0.079177864 -0.11321454 0.093439385 0.15707785 0.2767064 0.13730687 0.115894504
-0.063837275 -0.00041598105 -0.11664601 0.18376939 0.17203969 0.020254375 -0.028379671 -0.22992489
0.12090332 0.04657069 0.09830207 -0.114512876 0.25033462 -0.0802279 0.12651353 0.18294626
0.26470912 0.20390174 0.18239523 -0.14725508 0.22762476 0.19276963 0.1914146 -0.13747302
0.22863433 -0.07047051 -0.26721868 0.15551998 0.11868603 0.25463778 0.19983572 -0.09099997
0.11269916 0.16201597 0.20072724 0.15588677 0.23342223 0.19024989 -0.058291785 -0.1029072
-0.025576338 0.21209629 0.15800026 0.17961425 0.12660863 0.26688966 0.044040184 0.09997676
0.22917551 -0.007174765 -0.21738641 0.115368776 0.11986773 0.13967423 -0.015187523 0.2502333
0.1138434 -0.034592506 0.23237517 0.22258097 -0.084204346 0.15932447 0.05593999 0.15594861
0.10811826 0.23375915 0.15274616 0.27140966 0.20254433 -0.19417484 -0.0641674 0.24144043
-0.046003852 0.02830738 0.19249532 0.14471793 0.224959 0.12830506 0.17348304 -0.06329428
0.078451164 -0.2278402 0.18289213 0.19002989 0.115063064 0.2471884 0.2181549 0.053396676
0.16971421 0.2529232 0.16015512 -0.0686203 0.10425839 0.10142612 -0.08176185 0.21676219
0.122088075 0.2460167 0.15732163 0.22455269 0.24689975 -0.15914139 0.16716044 0.15312879

fc2.weight f4 [100, 200]
00000000: d5fd a63c dbbe 8f3c 8e3f 28bc b9ad 8d3d
00000010: dcf7 73bc e028 1f3d f776 823d ef1c cebc
00000020: 7c44 533d f8df 933d cc94 903b 8f8d 5cbd
00000030: 010f f93c b3ce f9bd aeb7 8bbd 26a0 78bd
00000040: 11af 563c 4c2f e1bc 4c0f 593d 4c69 823d
00000050: 9e89 84bc 3beb 5a3d 5d4e b83c 84f3 26bd
00000060: 979b 533d 1ddc 24bd 86ab bdbc b0a9 873d
00000070: e9e1 4e3d d6d8 7abd cf8c d33c e948 c1bc
00000080: 3b99 3a3d e6f6 f1bc a37f 4d3b ef0f c43c
00000090: 99a6 b9bb e75e 893b 96b5 a23c fdd8 5d3d
000000a0: 8b1c 943b 3acd afbc ae07 87bc c781 2ebd
000000b0: 51c1 07be e0e7 523d a59c 80bd 5e0f 833b
000000c0: 6dc6 31bb 169c afbd 26bc 00bd 5526 bd3c
000000d0: 5284 edbc 4a35 1e3c a030 fd3c d177 c03c
000000e0: e99b 433d 414e 743c 09f9 823a a596 4f3d
000000f0: 4be6 48bd e55a 00bd e90f 67bd 60e7 0c3d
00000100: 2ae4 1f3d 3663 bbbd f6a9 79bc 600b 0fbd
00000110: 26d3 2abd 912d 0cbc ab57 20bd 5df2 11bd
00000120: b16e 4a3d c8d2 78bc 87dc 7abd 9de3 f5bc
00000130: d1b8 48bc 0cd4 b7bd ae60 f13c accf 17bd
00000140: d5b3 e1bd 96f9 2c3d 4ef4 2a3d f36b a9bd
00000150: e737 be3c 4334 2a3d bdaf 123d 65e2 c53c
00000160: cb65 5b3c 661f ec3c 41db 033d 40d3 acbd
00000170: d961 3e3d d794 b5bc 6599 863a 3c0d e4bc
00000180: f33e a23c 0e5a 903d f77f 2fbd b38d 483d
00000190: 67a3 0b3d a6ae 81bd 6681 fd3c a99b 92bd
000001a0: 6f7d d9bc 8bf1 0ebd 228c 3bbd 6cf5 423c
000001b0: bc00 c1bc ccb9 963c 03d3 1bbb b246 a63c
000001c0: 319c cfbb ba85 af3d 63e6 1abd 05a0 99bc
000001d0: 6265 613d 69c8 4abd b8ab 803d 1c09 2bbd
000001e0: fcc7 3bbd d83e 02bb 14f2 17bd 48b2 1f3d
000001f0: eaf7 c13c ac42 2f3d ae2c 01bd 2070 97bd
00000200: 1961 dabd a036 223d 0196 9bbc ba93 21bc
00000210: edf0 5b3d 02e5 da3c 9c4b ac3a 6737 5e3d
00000220: 408b b03d 4a6f 0f3d 915d abbd b188 8d3d
00000230: b649 843d 8e9f 4c3d 4922 51bb 96fe cf3c
00000240: c4ca 1bbd a51d f8bd 886d 92bd 6133 8fbd
00000250: f1ae 0a3d e129 753c f245 72bd 50a8 033d
00000260: beb3 933c 2375 a6bd 20a1 da3c 6461 153d
00000270: c0a4 983c 642b 2ebd 1ad2 633d 9668 92bc
00000280: 6ee9 82bd e679 09bd 37bc c6bc fea9 543c
00000290: f4d5 a5bb c0f9 16bc 41df 693c 3f3a 513c
000002a0: 731b f1bc 9c40 04bd 55a8 c63b a582 9a3d
000002b0: 70b4 92bc 05fd f03c 8bcf 64bd 823f 80bd
000002c0: da3f e53c 9921 e83c 5cd7 2a3d 43af f5bc
000002d0: bdb7 2dbd f32a c4bc 446f 80bd 687b 8ebd
000002e0: cf66 a43d 11b2 c13c 17f4 2bbd 897a 82bc
000002f0: 4953 833d 9c46 913c 3746 7abd 394b 32bd
00000300: fbc5 383b 6853 c2bc dc22 d03c e113 a9bb
00000310: 3354 1fbd f25a 6d3d f34c 49bd ff5c 73bd
00000320: dedd b8bb f728 763b c86e a23c 6fa9 ce3c
00000330: 09bc 523d 69ca 6f3d 6c65 cf3d 92a9 983c
00000340: 9c11 be3c 428f 1e3d c17d 07bb c8a5 b73d
00000350: fec9 01bc 072a 22bd 9f2b 843b 5517 353d
00000360: df9c b03d 01f6 90bd 90d0 c23c 6e80 873c
00000370: 9409 1abd 0562 db3c 8ca6 74bd ac32 1c3b
00000380: ffea 4ebc 1c74 79bd de5c 3dbd 1f16 1f3d
00000390: 01a6 fabb 4aa2 823d e52a e33c 6808 f8bb
000003a0: 9ea2 3bbd 84cf 183d ca49 8e3c 7fc8 5dbd
000003b0: 0723 553d 0e49 3d3d dd7d 193d ad6b 44bd
000003c0: d758 a23d e2c1 be3b cade 583b 2f4f 713d
000003d0: c703 99bd 38d1 4fbd d682 2d3b da1d 3abd
000003e0: 5079 80bd f588 b03d 4a5c 09bd 21d5 8c3c
000003f0: b7ae 6dbc 0de8 453d 5824 9abd ffa7 653d
0.020384708 0.017547062 -0.010269059 0.069179006 -0.014890637 0.03885734 0.06370347 -0.025160281
0.051578984 0.07220453 0.004412269 -0.05384594 0.030402662 -0.12197628 -0.068221435 -0.060699604
0.0131032625 -0.027488373 0.052993104 0.0636774 -0.016178902 0.05344699 0.022498304 -0.04075958
0.051662054 -0.04024898 -0.023153078 0.06624162 0.050508413 -0.061241947 0.025823979 -0.023594337
0.04555629 -0.029536676 0.0031356595 0.023933379 -0.005665612 0.0041922214 0.019861978 0.054162014
0.004520004 -0.021460164 -0.016483154 -0.042604234 -0.13257338 0.051490664 -0.062798776 0.0039996346
-0.0027126328 -0.08574693 -0.031429432 0.023089567 -0.02899376 0.00965626 0.030906975 0.023494633
0.04775611 0.014911235 0.0009992431 0.050680775 -0.04904775 -0.031336684 -0.056411657 0.034400344
0.039035954 -0.09149782 -0.015238276 -0.034922957 -0.041705273 -0.008555786 -0.039146107 -0.035631526
0.04942197 -0.015186973 -0.061245468 -0.030015761 -0.012251095 -0.089759916 0.029465046 -0.037063286
-0.11020628 0.04223021 0.041736893 -0.08272543 0.023220016 0.041553747 0.03581213 0.024155805
0.013390969 0.028823566 0.03219152 -0.0843873 0.046480034 -0.022165699 0.0010269104 -0.027838342
0.019805407 0.070484266 -0.042846646 0.04896326 0.03409138 -0.0633214 0.030945491 -0.07158596
-0.02654907 -0.034898322 -0.045787938 0.011899333 -0.02355992 0.018399142 -0.0023776896 0.020297382
-0.006335758 0.08570428 -0.03781737 -0.018753061 0.055028327 -0.049507532 0.06282753 -0.041756734
-0.045845017 -0.0019873884 -0.037096098 0.03898838 0.023677785 0.042788193 -0.03153675 -0.07394433
-0.10663051 0.039602876 -0.018992426 -0.009861881 0.05369656 0.026720528 0.0013145092 0.054252055
0.0862031 0.035018243 -0.08367456 0.069108374 0.06459372 0.04995685 -0.0031911305 0.02538995
-0.03803517 -0.12115029 -0.07149798 -0.069922216 0.033858243 0.014963598 -0.059148736 0.032142937
0.018030044 -0.08127811 0.026688159 0.036469832 0.018633246 -0.04252185 0.05562029 -0.017872136
-0.063921794 -0.033563517 -0.02425967 0.012979982 -0.0050609056 -0.0092148185 0.014274419 0.012770235
-0.029432034 -0.03228818 0.006062547 0.0754445 -0.017908305 0.029417524 -0.05586199 -0.06262113
0.027984548 0.028336333 0.04170929 -0.029990798 -0.042411555 -0.023946261 -0.06271222 -0.069571316
0.08027422 0.023644479 -0.04198083 -0.01592757 0.0641237 0.017733864 -0.06110212 -0.04352877
0.0028194177 -0.023721412 0.025407247 -0.0051598405 -0.038898658 0.05794806 -0.04914565 -0.05941486
-0.005641683 0.0037561038 0.019828215 0.025227277 0.051448856 0.058542643 0.101267666 0.018635545
0.023201756 0.03871084 -0.002067432 0.08967167 -0.007921694 -0.03959086 0.0040335204 0.044211704
0.08623671 -0.070781715 0.023781091 0.016540732 -0.03760679 0.026780138 -0.059729144 0.0023833914
-0.01262927 -0.060901746 -0.046231143 0.038839456 -0.0076491837 0.063786104 0.027730415 -0.0075693615
-0.04580938 0.037307277 0.01736917 -0.054146286 0.052035358 0.04621225 0.03747355 -0.04795425
0.07927101 0.0058214525 0.0033091777 0.058913406 -0.074714236 -0.050736636 0.002647569 -0.045438625
-0.062731385 0.086198725 -0.03353528 0.017191472 -0.014506987 0.048317004 -0.07526463 0.056068417

fc2.bias f4 [100]
00000000: 58a8 653d c1be d73d a7ee 4e3e 423e 133e
00000010: e4f4 473e e992 3e3e a338 5f3e c1ed 013e
00000020: d987 6d3e fb7f d43d e5be 4fbe 20d6 073e
00000030: a9dc 87bd d1ef 64be fffd 603e 5256 563e
00000040: 38b2 f13d 7771 ea3d 93cf 5d3e fcd2 983d
00000050: 1c34 91bd 4ce0 2e3e 20bc ddbd d177 32be
00000060: 3db6 a93d 07a8 a63d 3db8 213e 3322 453e
00000070: 5ff6 103e 186a d9bd 9b66 523e c06e 25bd
00000080: 6150 3b3e be85 bf3d b4fc 633e c02b 2f3e
00000090: 2b1d fabd e7bd 003e e14a e73d 140e 3f3e
000000a0: 5358 11be b3b9 003e 0952 1c3e 69ea 5e3e
000000b0: 44a7 5c3e 8634 643e 53ba 0f3e 32b8 383e
000000c0: 9019 3e3e f5bc 313e 7bd1 9ebd 06c6 6b3e
000000d0: 8c69 4e3e 33fc 4a3e 26e3 483e 092e 463e
000000e0: 7a36 033e 2644 183e f0a1 ea3d e009 c5bd
000000f0: d693 3a3e ab4d 3d3c 7ddc 623e babf 423e
00000100: 115d 2f3e 5f4f e93c ecf3 2ebe b5d4 bbbc
00000110: f8dc 143e 66de 153e e9c9 a2bd 95e6 d9bd
00000120: b8f5 653e 01b9 17bd 4f1a 373e d022 16be
00000130: 8f13 08be 61d1 273e 0bed 173e 45e3 93bc
00000140: c035 193e 6f29 14be 3232 4c3e ba7b 8fbc
00000150: a42f 753e 7d20 bc3d ff6f 3bbd 6004 3e3e
00000160: 4f09 fb3c e4c4 cfbd ca6f 613e 094a c83d
00000170: 4164 363e 625e 053e 0e60 403e 7832 18be
00000180: ef75 193e 84d4 31be 7d8e 203e cf62 293e
0.05606875 0.1053443 0.20208226 0.14379218 0.19527012 0.1861073 0.21798949 0.12688352
0.23196353 0.10375973 -0.20287664 0.13265276 -0.066338845 -0.22357108 0.21971892 0.20931366
0.11801571 0.11447423 0.21661215 0.07462117 -0.07090017 0.1707775 -0.108268976 -0.17428519
0.08286712 0.081375174 0.15792938 0.19251327 0.14156483 -0.10615939 0.20546953 -0.040388823
0.18292381 0.09351681 0.22264367 0.17106533 -0.122125946 0.12572442 0.11293579 0.18657714
-0.1419385 0.12570839 0.15265669 0.21769108 0.21548182 0.22285661 0.14035921 0.18039015
0.18564439 0.17357238 -0.07754799 0.23024759 0.2015745 0.19822769 0.196179 0.19353499
0.1281375 0.14869747 0.114566684 -0.09621024 0.18220457 0.011554162 0.22154422 0.1901845
0.17125346 0.02848023 -0.17085236 -0.022928575 0.14537418 0.1463562 -0.079486676 -0.10639683
0.22457016 -0.037041668 0.1788113 -0.14661717 -0.13288711 0.16388465 0.14836518 -0.018052706
0.1496191 -0.1446893 0.19941023 -0.017515052 0.23943955 0.09185884 -0.045761105 0.18556356
0.030644087 -0.10144976 0.220153 0.09779746 0.17811681 0.13024285 0.18786642 -0.14863002
0.14986394 -0.17366225 0.15679355 0.16541599

fc3.weight f4 [50, 100]
00000000: dce2 2bbd 8429 89bd f3bc 7bbd 99b3 c33c
00000010: 9c6d 1d3d cc00 333d 447c 98bc 5d00 abbb
00000020: 6fe2 fb3d f263 e33d 07ea 0d3d e213 22bd
00000030: 4a49 bfbd cc5c 9b3b d5a5 a13d 52c2 93bd
00000040: b2be 86bd 48c5 6abd 8b58 683d d8ab 0e3d
00000050: bfa6 4e3d 8c85 9fbd d24c 78bc 3786 553c
00000060: cfe8 a4bb 4adb a2ba 6fc0 773d 6be5 0e3d
00000070: 2555 733d 5b22 59bc b849 263d 1484 13bd
00000080: 0c09 a93d 1c4f 29bc 5c41 0fbc c542 3cbd
00000090: b7a9 bebb 0b59 b4bc b804 7a3d 99cc 0bbd
000000a0: 0dc8 25bd a36e 26bd 84f8 013d eba5 b83d
000000b0: 1f07 67bd 4531 0fbc 1881 77bd 33dd 39bd
000000c0: ec00 bc3d 07f3 963d a9e1 363d afee 843d
000000d0: f9c7 7d3d a86c 563d b976 60bd a5ac fabc
000000e0: 27ad 28bd 74f7 dc3c 3fa2 f0bd 9b73 c5bb
000000f0: 495f c33d 6931 72bd 6eaf cf3d d1de ad3d
00000100: 0937 9a3d a5a4 0fbd 4c42 7ebd 730e 573d
00000110: ef24 83bd 7bee 13bd d510 55bc 2ef2 013d
00000120: 8a72 b83d f92e c2bc 6344 14bd aefe c73c
00000130: e2dc 7f3c 0c26 4c3c 51d4 d43c d16d c33d
00000140: 38cd 07bd 5a32 a1bd 85d7 29bd 8975 4ebd
00000150: 1371 45bd 3226 e93d c0be 16bd bf7b ccbb
00000160: 89f3 543d 9a30 833d 8903 cf3d 2bb7 43bd
00000170: 864f 0a3d e0e3 c13c 0b38 22bb a389 9c3c
00000180: 547f e53c ac2a fa3c bd2a 2c3d a7cf 99bc
00000190: 9160 4c3e fe12 94bd c848 c4bc e6ac f63d
000001a0: c572 a03c 644b cf3c f1f8 b33d 1671 eabc
000001b0: 2b18 d3bc aad4 ef3c 7414 e03c dae2 e03c
000001c0: 069b 383d df2e c8bd e942 38bd 48da b9bc
000001d0: f831 8b3d 21e8 313c 96bc c23d 94ab 683d
000001e0: ad38 17be 2fd6 bdbc 5cdc 11be 6121 20be
000001f0: d875 803c 62bc dcbc 794c 123e b248 463c
00000200: 4b8e 503d 347f 933c 8a1d b23d b9d2 9e3d
00000210: 55c1 593d 6d68 d23c b69d 693d 0c2d 813d
00000220: df28 fabd faa2 2a3e 08d6 993d 3ed5 ef3d
00000230: ad72 e6bd 8fda 97bd 91bb e23d d9a5 56bc
00000240: f28b 953d b94d 233e 1f6a 7ebd 6572 903d
00000250: 7ed3 593d f536 563e 1572 acbc 507f e23d
00000260: cb9b 9c3d e4ca 4c3d 02ec e43d 7a46 2b3e
00000270: d528 0a3d c2e7 163e 6a82 223e 0544 a23d
00000280: ca79 d63c a1cf 013c d181 a33d 6251 933b
00000290: 94b1 14bd 7f20 1ebe 2afe 65bd a7f2 2abd
000002a0: 1d3c 953d 3fbe 2f3c 7e35 d0bd dee5 acbd
000002b0: 9dc1 ba3d 1d9a 683d f23f 7abd b940 c8bd
000002c0: 0320 01be c941 3a3d d8b7 093e c4d2 5a3d
000002d0: 4407 2e3d 004f cebd 154d 023e 64de afbd
000002e0: 5b60 923d d488 4b3d 3998 143a 1e83 a93c
000002f0: a098 8aba 0fae c3bd 07e9 0fbd ca13 2a3e
00000300: 69d0 203e 8279 56bd 88e8 b6bc eb3f bdbd
00000310: 6667 d53d e91f 2ebe 0737 453e 83aa 5fbb
00000320: f983 45bd 7f05 5f3d 2811 5e3d 2e22 da3d
00000330: f853 a73c 7ccb 81bd 5826 d2bc 0906 fc3c
00000340: abd6 b8bd d712 b83d f6d7 f53d 9fc1 283d
00000350: eb3d 9abc c34f 9b3b 9e1f 8a3d fe7a 563d
00000360: 2b5a 1a3d a693 ce3c 0219 cf3d 6d54 573d
00000370: 7127 db3d e14f 8f3d 2dff 09bd a935 62bc
00000380: 1cf9 ab3d a4f9 1a3d 971c 303d 796d 663d
00000390: 994e 9fbd a213 463d ceda ab3d a129 7b3d
000003a0: 6aeb e2bd 851c 46bb a200 b83d 381a 5fbd
000003b0: b5a2 fdbc cffd 17bd aabf 6c3b e031 d83d
000003c0: 0c94 023e 23ed e83d ae29 d93d 4d26 86bd
000003d0: e80d 1abd 0f01 6f3c 0caf 32bd b825 d6bc
000003e0: 91d4 e8bc 27d7 04bc d96a 763d d746 c53d
000003f0: 44bc 7ebd 696a 633d e2ac e9bd eebb f53d
-0.041964397 -0.066973716 -0.061459493 0.02388935 0.03843461 0.04370193 -0.018613942 -0.005218549
0.12299048 0.111030474 0.034647014 -0.039569743 -0.09340151 0.004741287 0.07892958 -0.07214798
-0.06579341 -0.05731705 0.056725066 0.03483185 0.05045199 -0.07789144 -0.015155034 0.013032488
-0.0050326358 -0.0012424972 0.060486253 0.03488676 0.059407372 -0.01325282 0.040597647 -0.03601463
0.08253679 -0.010333803 -0.00874361 -0.045962114 -0.0058185714 -0.022015115 0.061039656 -0.034130666
-0.040473986 -0.040632855 0.031731144 0.09016021 -0.056403276 -0.008739774 -0.060425848 -0.045376968
0.09179863 0.073705725 0.0446488 0.06490838 0.061958287 0.052349716 -0.054800723 -0.030599901
-0.041180756 0.026973464 -0.11749696 -0.006025744 0.095396586 -0.059129152 0.101408824 0.084897645
0.075300284 -0.035069127 -0.062074944 0.052504014 -0.06403529 -0.036116105 -0.013004501 0.0317251
0.090062216 -0.023704039 -0.03619803 0.024413433 0.015616627 0.012460243 0.025980147 0.0954243
-0.033154696 -0.07870932 -0.0414653 -0.05040506 -0.04820354 0.11384238 -0.036803007 -0.0062403376
0.051990066 0.064057544 0.10108096 -0.047782104 0.033767246 0.02366823 -0.0024752642 0.019108599
0.028014816 0.030537926 0.042032946 -0.018775774 0.19958712 -0.07230185 -0.023960486 0.120446965
0.019585976 0.025304504 0.08787716 -0.028618377 -0.02576836 0.02927621 0.027353503 0.027451921
0.045069717 -0.09774565 -0.044985685 -0.022687092 0.0679664 0.0108585665 0.09508626 0.056804255
-0.14767714 -0.02317342 -0.14244217 -0.15637733 0.015681192 -0.026945297 0.14286985 0.012102293
0.05091695 0.018004991 0.086970404 0.07755036 0.05316289 0.02568456 0.05703517 0.0630742
-0.12214827 0.16663733 0.07511526 0.117105946 -0.112523414 -0.074147336 0.11070932 -0.013101065
0.07302083 0.15947618 -0.062112924 0.07053069 0.05318021 0.20919402 -0.021050492 0.11059439
0.07646903 0.04999818 0.111778274 0.16726103 0.033730347 0.14736846 0.15870062 0.0792313
0.02618112 0.007923038 0.07983745 0.0044957856 -0.036302164 -0.15442084 -0.056150593 -0.041735318
0.07286856 0.010726511 -0.10166453 -0.08442281 0.0911896 0.0567876 -0.06109614 -0.0977797
-0.12609868 0.045472894 0.13449037 0.053423658 0.042487398 -0.10073662 0.12724717 -0.085873395
0.071472846 0.049691036 0.0005668435 0.020692404 -0.001057405 -0.095546834 -0.03513434 0.16609111
0.15704502 -0.052361973 -0.022327676 -0.09240707 0.10420112 -0.1700436 0.19259273 -0.0034128733
-0.048221562 0.0544486 0.05421558 0.106510505 0.020425782 -0.0633764 -0.02565305 0.030764597
-0.0902532 0.089879684 0.12004082 0.041200276 -0.018828353 0.004739733 0.06744312 0.05236339
0.037683647 0.025216889 0.10112192 0.05257075 0.10700882 0.069976576 -0.03369062 -0.013806739
0.08397123 0.037835732 0.042996015 0.056256745 -0.07778663 0.048358567 0.08391343 0.061318997
-0.11080058 -0.0030229401 0.08984496 -0.054468364 -0.030961374 -0.037107285 0.0036124983 0.10556388
0.12751788 0.11373355 0.10603653 -0.06550274 -0.03761092 0.014587655 -0.04362397 -0.026141033
-0.028421672 -0.008107937 0.06016049 0.09632652 -0.062191263 0.055521403 -0.11409928 0.11998735

fc3.bias f4 [50]
00000000: bc9f de3d 07c3 7a3e 7383 863a 864f 5f3e
00000010: 9258 b1bd 0d0e 283e e7fa 6b3e 0e3c 4f3e
00000020: 21b9 473d ac12 693e 3536 ecbd ff0e 3d3e
00000030: 3506 37bc 4848 7abd d446 283e 48f1 993d
00000040: 2a7c 733e 67c6 ffbd 7c57 c83d 3a85 fabc
00000050: 69cc 813d c57d b73d f7d7 563e 17f1 ddbd
00000060: 21e1 a9bc 996b 5a3e 0346 f43d 28c8 11bc
00000070: bdfe a63d f3cf 51be b204 823e 622b 1d3e
00000080: ba2e 9e3d 74a1 24be 2ebd 9e3c 9e3a 97bd
00000090: c1b5 463e 0957 913d edf9 71bd bfd5 803e
000000a0: 19de 043e 8735 f33d 0665 133e 9fc6 6abd
000000b0: a554 79bd 9894 723e e896 f2bd 9bda d4bd
000000c0: 1ebd 57be 43c4 8c3d
0.10870311 0.2448846 0.0010262564 0.2180768 -0.086594716 0.1641161 0.2304493 0.20237753
0.048760537 0.22761029 -0.11533777 0.18462752 -0.011170913 -0.06110409 0.16433269 0.07516724
0.23777834 -0.12489014 0.09782311 -0.030581106 0.06337816 0.089595355 0.20980822 -0.10837
-0.020737233 0.21330108 0.11927416 -0.008897819 0.08154056 -0.20489483 0.25394207 0.1534858
0.07723756 -0.16077214 0.019377317 -0.07384227 0.19405271 0.07096679 -0.05907624 0.25163075
0.12975349 0.11875444 0.14394006 -0.057318326 -0.06087174 0.23689497 -0.11845189 -0.10393258
-0.21068236 0.068733715

fc_q.weight f4 [3, 50]
00000000: f6ed 963c 4f46 83bd 99be fa3d eefc ee3c
00000010: cffe c4bd 8c01 b53c fcb0 c7bd d950 aa3d
00000020: 4ac5 b63c b698 e23b e34e debc 39ff 01be
00000030: 9967 093e ab40 643c faeb 123e be52 053e
00000040: 7aec 57bd caa8 0ebe 362c b8bd 372c fd3d
00000050: 23e0 24bd 65cf c73c 2dfb cebd 565c a93d
00000060: b627 273d 28bf 173e 544a 0d3e ddc6 bbbd
00000070: e25c 0a3e 4057 24be 260e 0b3d b2bb 893c
00000080: 3d3d 58bc 4d62 7cbc 6d88 bc3d 4a27 133e
00000090: 120b a43c 273e 923d 71d3 fdbc 09c4 9d3d
000000a0: 51a9 8fbd 9d74 be3c 6c8f 92bd be07 c9bd
000000b0: 1c3c 32bc 4165 423d 3bf0 03be ada4 22be
000000c0: 808e 12be c81c ecbd 0911 8cbb ec1f a63e
000000d0: 1714 1a3e d541 1a3e 0f49 e9bd acf6 043e
000000e0: 9bfd af3d f5ac 8a3d e53d 5b3c 1d17 753e
000000f0: 30d3 fd3d 8c21 c53d 5f12 1a3e 48e2 063e
00000100: 055b ba3d 0cd0 4d3e e7d1 713d b787 0d3d
00000110: a0b8 ad3d 5978 303d c2ea ff3d d654 ce3d
00000120: 983b e53d cd37 54bd 345f 403e 81e4 663e
00000130: aaf1 413e 9481 f7bd da0e 4d3e ad20 5b3e
00000140: c596 d53d 380c 823e 62d5 183e 24a5 3bbd
00000150: 5086 433e 823b b53d 98db 333e 5c7a 9abb
00000160: ca76 02bd b6df 213d 9055 253e f5b1 c23c
00000170: ad7e a73d 5501 d83d b0ec ad3c 2d20 213e
00000180: f16c 1abd 635f 263e 8d91 183e edfd aa3d
00000190: 4d42 013d fbd9 243e 161f b2bd c15a 093e
000001a0: ca90 ec3d 7bc3 273e 8444 1f3e be9c 753d
000001b0: 22b8 093d 9e49 8a3d 7786 4bbe 6cf7 223e
000001c0: 47ad bfbd 8bab cabd c904 6e3d bce8 373e
000001d0: 7991 393e 49ff 0bbe 4df8 cd3d d178 3cbe
000001e0: 8758 d93d 0892 8b3d e327 993d 7908 87bd
000001f0: e1da 24be 79a7 e33d 9d12 993d c56f a0bd
00000200: 4c93 183e 92db 12be 895b c33d a42f c63d
00000210: ae91 d83d 7466 29be 2789 31bd bf81 42be
00000220: dcfb 243e 15a7 7d3d 7b7a 8abd 7daf c83d
00000230: 5faf 7c3d 5e77 123e 12ea 253e e683 90bd
00000240: 7607 7bbd de41 333e 2dce d0bd c6bf e8bd
00000250: bd9c e1bd ad2a d63d
0.018424015 -0.06409895 0.12243385 0.02917334 -0.096189134 0.022095464 -0.09750554 0.08316202
0.022310872 0.006915177 -0.027137225 -0.12695016 0.13418426 0.013931434 0.1434783 0.13019845
-0.052715756 -0.13931575 -0.089928076 0.12361949 -0.040252816 0.024390886 -0.10106502 0.08269565
0.040809356 0.14819014 0.13797885 -0.091687895 0.13511994 -0.16048908 0.03394904 0.016813133
-0.013198194 -0.015404296 0.09205709 0.14370456 0.02002481 0.07140761 -0.030984612 0.07703406
-0.070147164 0.023248965 -0.07156262 -0.0981593 -0.010878589 0.047459844 -0.1288461 -0.15883131
-0.14312172 -0.11528927 -0.0042744917 0.3244623 0.15046726 0.15064175 -0.11390888 0.12984723
0.08593293 0.0677127 0.013381456 0.23934598 0.123937964 0.09625539 0.1504607 0.13172257
0.09099392 0.20098895 0.05903807 0.034553256 0.0848248 0.043083522 0.124959484 0.10074775
0.11193007 -0.05181103 0.18786317 0.22548105 0.18939844 -0.12085262 0.20025197 0.21399184
0.10429148 0.25399947 0.14925149 -0.045811787 0.19094205 0.08849241 0.17564237 -0.0047142934
-0.031851567 0.039519988 0.16145921 0.023766497 0.08178458 0.10547129 0.021231025 0.1573493
-0.03770155 0.16247325 0.14899273 0.08349214 0.03155737 0.16098778 -0.086973354 0.13413526
0.11551054 0.16383164 0.1555348 0.059963934 0.03362287 0.067523226 -0.19875513 0.15914696
-0.09359222 -0.098960005 0.058110032 0.17959875 0.181219 -0.13671602 0.10057125 -0.18405463
0.106125884 0.068149626 0.07478311 -0.06593413 -0.1609912 0.11115927 0.07474253 -0.07833818
0.1489994 -0.14341572 0.09538943 0.096770555 0.10574661 -0.16542989 -0.04334369 -0.18994807
0.16111702 0.06192692 -0.067616425 0.09799097 0.061690684 0.14303347 0.16202572 -0.07056408
-0.061286412 0.17505595 -0.10195575 -0.11364703 -0.110162236 0.104573585

fc_q.bias f4 [3]
00000000: 0166 0bbd 64cf 8a3d 2ab2 453d
-0.034032825 0.06777838 0.048265614
