weights/numq_test.pt (torch, 526847 bytes, 8 tensors)

fc1.weight f8 [200, 200]
00000000: c900 32d4 1f15 babf 1867 dd91 02d3 9bbf
00000010: 6c71 f2dc c39c 9dbf 2d38 97aa 56f9 a6bf
00000020: d1f5 c47c 4faa 8e3f fd73 33ea 456a b13f
00000030: 6323 4171 6612 34bf 79b1 86f7 50b7 aa3f
00000040: dc4a 3a6d f2c6 91bf abf7 0d6c 9fae b5bf
00000050: 9fc3 7604 3c09 ac3f 3086 2be3 3f80 623f
00000060: 88ea 2e72 55c0 aebf 66c3 8c31 7487 b03f
00000070: ce64 0dd6 7e19 b13f bab0 08a8 d305 4bbf
00000080: 2c92 3141 47fa ae3f 5277 6de1 b22d 8b3f
00000090: fb52 6fb9 7ff7 b33f a434 91ad 898e abbf
000000a0: a763 cfed cb49 523f 1ada a24f a69b 7bbf
000000b0: 7f85 1a16 1051 a13f f763 116f 46a6 b43f
000000c0: cd82 9f32 2d79 95bf f13c 8a4b 0789 ae3f
000000d0: cb9c a47a ba68 b3bf 427c e866 1e24 adbf
000000e0: b8a1 cf8e f150 b1bf 0e50 d3ae b926 b63f
000000f0: 2d31 fd8b b968 8f3f 7b1a ff32 eacb 9b3f
00000100: eafb 8019 755c acbf de4a 8ed5 3a5b 9cbf
00000110: 9123 2dfd e75d 92bf 2bf9 90d4 e4c1 6e3f
00000120: 5625 f318 e38b 7ebf 79e4 1698 e029 a03f
00000130: 2c41 3a7f a612 b23f aaa6 c597 9e1b aa3f
00000140: f289 2176 669c b23f 22db 93ac 95bb aa3f
00000150: e8ca d021 cf02 8d3f a01b 0066 ce93 643f
00000160: f490 bbf4 3ce0 a9bf cebb 463b 6ec9 903f
00000170: 6a58 b274 6d9a 40bf c972 0643 ebcf b0bf
00000180: 2aec ae27 488c a0bf 5c8a 4063 5b54 85bf
00000190: c97f 4ea5 6f53 b83f 65b4 eea3 a4dd 7bbf
000001a0: e9c1 ad9f 7dd0 95bf 22e9 afa1 bd9a a83f
000001b0: 76b9 153a 9015 63bf 24e6 f7c0 ed22 a6bf
000001c0: a0e0 36fb 745f b23f a26d b23c b145 95bf
000001d0: c429 7f53 90ed a4bf 7938 201c dce8 97bf
000001e0: af4e 5575 76ba a9bf 3a95 5472 fd2b 93bf
000001f0: 0e1f 479b a8d4 9ebf 64dc d3c1 7702 ae3f
00000200: 7367 e421 bd49 9d3f 96c1 3b77 2f9e af3f
00000210: b438 ab71 b52a a4bf 227b 12ff 131d 963f
00000220: fb1a 49ca e023 a8bf 61dc 8edf 79fe aa3f
00000230: 66c4 bb6a 5790 a3bf 1abc 6962 f7cc a33f
00000240: 5d14 8c8e 310f 91bf e2e1 e9f6 c2e7 9cbf
00000250: 275e 5930 f730 a8bf 7bbf af26 541b 7e3f
00000260: dde2 eb11 f948 b13f 2311 57f7 c3f3 b93f
00000270: 950d ccf9 39f0 b03f bee5 a28c a031 92bf
00000280: ad6b 4b83 9ecc a83f eaeb ced5 8bb8 a73f
00000290: 28fb 76ff 293a a83f f39a 0e45 8a85 b33f
000002a0: f7d7 5437 af60 b43f 529e 06b9 2e03 b53f
000002b0: 93f9 9fdb 2aa4 7abf f422 8f70 5907 b03f
000002c0: ecbb 7547 4fb8 aabf 5971 6e9d 921d 99bf
000002d0: f212 a649 3cd4 88bf 1706 d9d6 f71d 743f
000002e0: fd81 9035 2a83 933f 6f27 dd96 a5ad 66bf
000002f0: ebb1 62d9 dade 5cbf dd81 f736 83d8 973f
00000300: 553a 9825 9b59 99bf 2956 444d 6574 8f3f
00000310: 8a93 d455 6057 a6bf 579a c3c2 ef7e 943f
00000320: 318a c684 e243 99bf 38dc aa17 0d4c 913f
00000330: 0377 a426 a9b1 ad3f abee ea39 3546 403f
00000340: f38e ccf3 2370 ba3f 9799 b9cc 6362 ab3f
00000350: 2c4f 2de9 e527 a23f c1b7 c2f6 23fa 90bf
00000360: fe81 7bd0 f2d5 aa3f d239 d7fc 0cc6 a0bf
00000370: a33f fe52 f523 9ebf f2c4 a58f f355 a9bf
00000380: 5e39 9cd5 8e9d 8bbf 7e60 46b1 1ade 873f
00000390: 82c3 a239 702c 943f 1293 b828 12eb 913f
000003a0: e2aa e7b5 318e b43f 9c0f 1421 5733 b53f
000003b0: c9d0 108a 5c9b b23f f216 1cf1 998d a8bf
000003c0: 837e c447 b569 b3bf 4260 a0e8 4576 a33f
000003d0: 7898 fcaa 4a59 ad3f 53c4 2ee5 d0f3 b23f
000003e0: 9eb0 c25b 20f1 a13f b246 727b 6604 b43f
000003f0: ec4f 1eca f668 9a3f 8591 3f66 c30d 8a3f
00000400: 05c9 af5d dc75 a5bf 66f7 3f33 a3e6 a0bf
00000410: 6f3d d99a 5c37 89bf 728c 989c 15b7 b13f
00000420: b752 91fc 2274 73bf 098f 1267 b041 a1bf
00000430: 711a 6a36 67fb 9dbf 310f bb33 82bf a6bf
00000440: 7ade 566f 60ab a1bf 8793 28d3 7e3b 833f
00000450: 923c 5604 39b9 a53f 3f35 2a3e 9d8c 9b3f
00000460: 0441 82a7 1f41 afbf 366a 9a1f 1249 a73f
00000470: 2a3f 0e16 a39e 913f 6deb 15a0 4c8f 9d3f
00000480: 1b8c accd 3e9b b83f 3e08 ec76 e6ce a53f
00000490: e6db 7eef e6e8 823f 8e19 9d69 300f 96bf
000004a0: ca4a a914 33c1 a3bf 7285 3c75 ceee 8f3f
000004b0: cd86 b22a 9819 bc3f f682 dce3 8f58 963f
000004c0: 35ff 00a1 ce5e b43f ee0c 2f9f ec22 913f
000004d0: 09c8 07dc bab6 75bf 0f50 fafa 5a33 b0bf
000004e0: 70b9 670f f935 aebf ca48 7561 dac3 a13f
000004f0: c535 691b 39ff 9ebf 179a 1daa ce90 96bf
00000500: 7384 6cc1 31c4 8c3f 0b69 e92c de1d 90bf
00000510: 086b 4867 f206 b53f 1dde 1e06 1824 b03f
00000520: 4407 5e2e b84f 9ebf 3d98 8d6c ead0 b83f
00000530: 9a29 d23a 0c1b a13f bbf7 5022 4441 b43f
00000540: 70aa fa58 ab74 a03f a15d a236 8e69 82bf
00000550: 016f 4b3e bc84 b33f 6cf5 7414 aa73 80bf
00000560: affd bb6e 03ae 903f 6070 5bdb 198a 9b3f
00000570: eea1 d30f 611d aa3f f40b 3974 1a57 60bf
00000580: bcaa cd83 0afe 7d3f e7a4 def4 fdb6 8c3f
00000590: d6c6 f640 9cf6 7d3f d1a5 634b 812b b03f
000005a0: 1f2c 8c10 c00a 9b3f cfb1 f252 df49 b5bf
000005b0: aa8f acd8 4720 b23f f2c2 e5cf 9946 923f
000005c0: cf2e 717e 8648 9b3f 77b1 7c46 77ed a73f
000005d0: 86ba 03b0 8008 ac3f 5a5b 8b7a 3afd 85bf
000005e0: e20e e8d2 8c08 b0bf 10ac 610a d438 aabf
000005f0: 710a 4621 6b4f 6abf 22b6 b929 8d94 ae3f
00000600: b349 ec71 c569 93bf 7bdf 0376 6bf0 96bf
00000610: 7329 bd2f cf26 993f f82d 4ecc 7082 713f
00000620: 0956 e8c3 7223 8cbf 132b 8df0 551b b33f
00000630: 4f6e 99ec 4b67 b1bf 6699 f4ef d4a4 acbf
00000640: f393 0035 b330 9cbf bfd2 e5a9 b1fa b2bf
00000650: bdfd d146 f5ad b33f 873e 1b4b 5a52 a83f
00000660: c814 7d0d 6826 863f 6470 1717 555f afbf
00000670: ce75 bb3a 8731 a53f 1863 a3a9 a669 abbf
00000680: 8a14 0445 94f8 b7bf 57e0 d061 c497 b3bf
00000690: 97ec 1ab4 668b a53f 093a 3ead 2c3b 82bf
000006a0: eeba 59d6 e181 a13f a17d 7481 4906 96bf
000006b0: a37b 7b90 c977 aebf 1a67 7a80 7150 ac3f
000006c0: 3405 3cfc 15ce abbf d76c d059 cf81 9c3f
000006d0: 1218 8c11 e3a7 803f da6a 7e3b dd7e a73f
000006e0: 435c 3ad1 e8c3 b5bf 934a 24d3 b66b a6bf
000006f0: 7989 c01a 4768 8c3f 2c82 0311 8f8e 9d3f
00000700: 18af aff8 3371 b63f f299 27f0 af03 843f
00000710: b989 70d5 4724 b0bf 3444 ec1c b90f 95bf
00000720: 709a 12c5 da9e b2bf 0bdb f37f ac15 90bf
00000730: d204 da68 a656 abbf bd0b 1d9e c427 a8bf
00000740: 0bd3 ae59 3802 be3f f020 f3a6 c298 a2bf
00000750: 5c0e 0153 6130 b13f bca8 0a15 8830 b3bf
00000760: 939c aad6 b16f b23f 0991 3092 bf9e b33f
00000770: 225e bbda e839 a83f 31c5 979e 87ff b73f
00000780: 3baa aff6 517e 9fbf 8d70 0373 6b65 95bf
00000790: ca9e d976 c92e 97bf 13fb 50b7 9534 b13f
000007a0: 4690 991b 841a 91bf e233 1a9d b798 ae3f
000007b0: 126d c12b d491 b53f 3326 1612 edaf 8b3f
000007c0: 5683 51ec bdcc a13f ddba 94d7 e195 ac3f
000007d0: c414 e39c a83c abbf cd9b c258 0ca5 adbf
000007e0: a1b2 77ff a76f 883f cf95 7b7c 924f b83f
000007f0: 2510 e877 545e aabf b0ba 0359 f008 b2bf
-0.10188483171987452 -0.027172126915821243 -0.02891832386068087 -0.04487105209737794 0.014973278994712043 0.06802784889028142 -0.0003062725165859285 0.05217984220084566
-0.017360484997491862 -0.08469578159380713 0.05475795320979348 0.0022584197807738113 -0.06006114024008463 0.06456686219895644 0.0667952797497435 -0.0008246692160063442
0.06050322218724022 0.013270757202629522 0.07799528386324177 -0.053821852147487165 0.001116227292405217 -0.006740235951090879 0.0338215853673871 0.08066215716952728
-0.020970064368045983 0.05963919446105049 -0.07581677908148092 -0.05691618925288157 -0.06764135109518221 0.08652840154837824 0.015336465439439973 0.027145060885028088
-0.055392894137632556 -0.02769176414910645 -0.01793634875074052 0.0037545651762506313 -0.007457625483945426 0.0315694986015353 0.07059708219663169 0.050991970087875885
0.07269897827203645 0.05221240741405199 0.014165514201612564 0.0025118857593073446 -0.05053892600497703 0.016393396728456903 -0.0005066904499411277 -0.06567259203297761
-0.032320265621330016 -0.010414804426607187 0.09502313409620834 -0.0068031722320657005 -0.02130314147092519 0.0480555782196055 -0.0023296181613467427 -0.04323523502894158
0.07176905759013374 -0.02077366764988898 -0.040874967758628894 -0.023349227158228267 -0.0502507227162402 -0.01872249613110919 -0.03010810325375162 0.05861257782992693
0.02860160369264215 0.06175373392568699 -0.03938834202345856 0.02159529918992143 -0.047148728077948086 0.052722748317528774 -0.03821061303995847 0.03867314411478891
-0.016659521413221124 -0.028227850265894257 -0.04724857773970497 0.007350281443890934 0.06751972854170725 0.1013758162362746 0.06616556500016764 -0.017767437537917756
0.04843612053601674 0.04632985100712246 0.04731875651804379 0.07625641046488933 0.07960028744568591 0.08207981126053568 -0.006504218496046116 0.06261214254403652
-0.052187421296245734 -0.024526873453951967 -0.012123557088452117 0.004911392328325734 0.019055041808430307 -0.0027683481374979817 -0.0017621171187257544 0.023286867360981723
-0.024755882424921733 0.015358725948810452 -0.043635378339138844 0.020015474569755245 -0.02467302260778065 0.01689167458490834 0.05799606892308697 0.0004966506856684724
0.10327362730145832 0.053485029927105625 0.035460648263919786 -0.01657921022040632 0.05241354746772585 -0.03276100717959064 -0.029434045019626997 -0.04948388222227064
-0.013484111684672836 0.011654099020958816 0.019700768964586064 0.017498286948597182 0.08029471102751587 0.08281464154793955 0.07268312807792933 -0.04795533245309781
-0.07583172800195297 0.03801172699621748 0.05732186639060982 0.07403283686905242 0.035042773438676664 0.07819214357211982 0.025791030966118386 0.012721563871260564
-0.04191483157764434 -0.03300962448700666 -0.01231262538490682 0.06919989655630035 -0.004749428430916572 -0.033704292852489166 -0.029279339500613625 -0.044429844679625304
-0.03451062544939716 0.009390822238012365 0.0424287622255345 0.026903588217966897 -0.06104372901711666 0.045479360921678966 0.01720671484105122 0.0288669560154448
0.09611885567987637 0.04259414865192966 0.009233287986587468 -0.02154231686224644 -0.03858337046826461 0.015592205956240977 0.10976553957382436 0.021822212488703273
0.07957164221533904 0.01673478814678913 -0.005301217956445122 -0.0632836210955363 -0.059005530481828994 0.034697365185495224 -0.030270473764451262 -0.022036770947488984
0.014046086039856775 -0.015738936892696603 0.08213725110583081 0.06305074834278242 -0.029600980596576024 0.09693780088636657 0.03340948312787191 0.0791208823947888
0.03214011632129121 -0.008990393678955768 0.07624413033357415 -0.008033112286848186 0.016288808473289226 0.02689400101995465 0.05100539510914702 -0.0019946591071699996
0.0073223505722618785 0.014020904574709237 0.007315264097472704 0.06316383448179087 0.026408196458799545 -0.08315845275018961 0.07080506362814157 0.017847445787483936
0.02664384981862505 0.046733596186046826 0.05475237034430784 -0.010736901154286538 -0.06263046406825937 -0.05121481539466555 -0.0032116978056262947 0.05972710737556165
-0.01895817287283714 -0.02240150363738234 0.02456210831523138 0.004274788491680941 -0.01373948726999698 0.07463585970723967 -0.06798243070937214 -0.05594506672996395
-0.027529525861741132 -0.07413778684515203 0.07687314013491338 0.04750330130411578 0.010815442000998834 -0.06127420336608294 0.04139349548288927 -0.05354042835978684
-0.09363676724395212 -0.07653453243335782 0.04207917164372892 -0.008901928936919228 0.03419404737075192 -0.021508358503636086 -0.05950765503597857 0.055301234181753325
-0.054306685486162826 0.027838935715504966 0.008132719014167154 0.04588977195017714 -0.08502059085945839 -0.04379054381765459 0.013870769027623396 0.028864131368097443
0.0876648409027293 0.009772657886924361 -0.06305359803130885 -0.020567791357340506 -0.07273642836899241 -0.015707679090122755 -0.05339546232154081 -0.04717840604873611
0.11722137631916156 -0.03632171905479875 0.06714447285144715 -0.07495928300582738 0.07201682558899085 0.07664105719647209 0.04731681509082032 0.09374282476325814
-0.030755310708551625 -0.020894698042738958 -0.022639415625603822 0.06720863080498089 -0.016702713188706995 0.05975889008286807 0.08425642078639253 0.013519146074730681
0.03476518163439006 0.05583101040462222 -0.053197163726090874 -0.05789984305857097 0.011931717380286701 0.0949641755974746 -0.05150093043997143 -0.07044889615256511

fc1.bias f8 [200]
00000000: 3f55 c8dc 8114 e13f 919c b938 83fb d83f
00000010: ce71 3233 0f7e d73f 5296 f5cf 3cd5 dd3f
00000020: 7436 5d66 9534 d63f b793 759e b053 d83f
00000030: 3fb1 a671 e4f6 e23f cd33 a7ee 1ec2 e23f
00000040: 6155 8bd2 4cfb e13f e0ab 0c75 3cb1 e13f
00000050: eca2 3b89 aa8f cc3f c862 8c5b 7df9 c2bf
00000060: 5ca5 a306 a94a df3f 7c38 0629 c910 df3f
00000070: c8d5 0d7c adcf e03f 61a8 1428 e1fc e03f
00000080: b756 2338 cebd db3f cdc7 e760 467e e13f
00000090: 5758 767a 615d c63f 78d0 6896 1de6 e03f
000000a0: 3bec 3c88 237d de3f bde2 39dd bfd7 dc3f
000000b0: 6779 cc60 eef1 df3f 28b4 b564 3ca7 dc3f
000000c0: 18be 3f3e 289c df3f dad4 cc63 6703 b83f
000000d0: c2de 2859 d17a d83f 6897 4df3 1dfd d93f
000000e0: a400 c57a 8fe4 df3f 39e9 2575 da07 dd3f
000000f0: 988a d489 6566 cebf 5ab3 40ad 1ede dc3f
00000100: beec e5ee 8d62 e03f c1b7 fe44 6479 db3f
00000110: 07ea 09b5 8468 d93f 891d e762 810b d23f
00000120: 8059 4e6a 469b dc3f d4f4 1db8 6b81 debf
00000130: f661 aa8a b1c6 e03f 9131 ce3f 4bfa e13f
00000140: 18d2 8e12 9d4a e03f 43c0 7647 b4b7 db3f
00000150: 74a5 6535 44a2 e03f fde7 4440 2bab cdbf
00000160: efa4 5103 c2ed de3f e604 1c2d 0657 da3f
00000170: 90be b63d aedd ba3f f457 2cfd 95a6 e13f
00000180: c908 721c 9deb dd3f 7829 3b1e 1fd3 e03f
00000190: b4c7 3ce2 577e df3f 6ff2 10f6 c3d7 d93f
000001a0: 96e3 b039 2298 dabf 0604 fc06 65a1 e13f
000001b0: 889e 4f58 4e71 c23f 603f 31fb c8f4 dd3f
000001c0: fb9f a0d4 7b9f e03f 1b79 1c94 f8c8 db3f
000001d0: 7ed1 5987 5c43 debf f169 9040 9548 df3f
000001e0: 050d a5a0 1f8e db3f 2a1a f2d6 a843 e03f
000001f0: e925 9829 6a05 dc3f 7865 4ac4 5a1a dc3f
00000200: 2a6a 77c2 06d2 e13f cecd a7d1 fa17 dd3f
00000210: fa2b 7462 ab3b dd3f e720 f915 98f9 dd3f
00000220: 7bee 94c0 4667 e23f b4c5 4304 05df de3f
00000230: ec71 6845 b9bb dc3f d133 6457 9f6b d53f
00000240: f223 89d4 0ae5 dd3f c084 d87f ed26 dc3f
00000250: 5a9b 35b9 4df3 dc3f 6c88 20fe 800d e03f
00000260: 5abb bd5b fa73 d63f 58b6 d0ca b87c dc3f
00000270: ce14 7276 cc20 e13f 63f0 6584 03e3 e13f
00000280: 6a5c 5934 268f e13f 0d2d 7ef5 e72a dd3f
00000290: 4dbd 7c51 d7ba c33f 4f50 1909 ceda d3bf
000002a0: faf1 6b10 2c9d dc3f 2f4b 277a 7267 e03f
000002b0: 7dab cb9c 40cf dc3f d8d3 b876 79f4 d3bf
000002c0: fb57 16b9 76c1 d83f 7f82 b19c 53ad e13f
000002d0: 39c9 783f 1a13 e13f 933d 72bb 5fae dc3f
000002e0: 50fb b362 2eca da3f e611 7c5b 495a e13f
000002f0: d7b7 fd88 09da de3f 4599 441a 6da2 e13f
00000300: ac24 007c e98e e13f 40ac 4fb9 7fe1 db3f
00000310: 068c 57d7 be9a de3f c7f7 e8c0 2bcd e13f
00000320: e977 7d8b 5e7a dc3f 4b04 69bb 723a dcbf
00000330: bcef d6bc e8ed dc3f dfe5 629c 1fd0 e13f
00000340: 2de6 6c25 e29b e13f 9e1c 79d1 9c9e dc3f
00000350: c58c 93a0 b54f dd3f 2452 e5c7 5ea8 e23f
00000360: 4082 be83 4d20 e13f 0af3 39f3 fe29 dd3f
00000370: 6118 f53a 05fa df3f d21f 4e8a 88a2 e03f
00000380: 9fe9 6311 3356 d73f 52f4 9be5 4fc6 dd3f
00000390: 771a dbdd 8618 e23f 0fbd c2a8 f06a d53f
000003a0: 3029 a037 1817 d93f c3a1 784b a398 dd3f
000003b0: d024 c57b b6fd dc3f 972f da51 35f0 dd3f
000003c0: e07a 2626 5a9e e03f 68c8 6959 173f db3f
000003d0: 5bf2 537a 61c8 d9bf 22e3 6a3a b4c1 de3f
000003e0: 37da a4f9 a0d3 db3f 5cbf c1e8 232a e23f
000003f0: 40b7 1fbe be1e e03f 3a17 6daa 9648 e13f
00000400: 1724 0221 f43e de3f 4f95 b913 5e08 d93f
00000410: 619d be10 cbe7 d93f fff1 a041 0033 d6bf
00000420: d7b6 3602 3848 e03f ae33 2d80 e882 e23f
00000430: 634a d65f 6c8d dc3f 3692 622d 06ce db3f
00000440: f417 539c 5a3b dc3f 1f43 8fe8 51a6 e13f
00000450: 68f9 8862 6bd7 dc3f cd12 1c83 4ed9 bcbf
00000460: 8500 c5ef eda5 c73f f682 dd52 7e7d d0bf
00000470: ee24 3a29 742b e03f be5a 4e87 7fd0 d13f
00000480: 3271 7c8c 1539 da3f 3629 61b8 e452 db3f
00000490: ca65 9d36 3f23 e13f 9f0a de61 f221 d83f
000004a0: 5b64 035c a97b 823f ee09 c8af dd38 e13f
000004b0: 9609 eda6 6dba dd3f 14f3 470f c863 bf3f
000004c0: 386e be1b 6072 de3f 1002 e95c 2fd7 cdbf
000004d0: 37f9 5963 360b d93f 75f5 591f 1719 db3f
000004e0: 998c dd8b 21ab e03f c0aa c2d5 f178 da3f
000004f0: 37af 4f6d 8a58 d73f 1e6b 45ed 894c de3f
00000500: f7e6 e6d2 03b2 cc3f 5923 4b68 3798 dd3f
00000510: 0a2a 323a 5734 e23f 973d 2121 afa2 e03f
00000520: 3376 b193 cd96 e13f 72a8 7402 18fd d93f
00000530: 55f1 aa3a a633 dc3f 79d9 4c90 0bf6 dc3f
00000540: 5c69 cff8 53d4 d63f a7f7 8e8d 51a2 da3f
00000550: db3a 8254 4e62 c13f 0a4f 443e 8a4f dc3f
00000560: 11e9 6ed9 daf7 d93f d7d2 7118 89dc e23f
00000570: 55ed b203 e925 e23f abfe df3c dedd d63f
00000580: 8eb6 e836 af6a e23f 7f4a 2c15 e410 d73f
00000590: 0919 c810 9daa d23f d914 5075 e168 e33f
000005a0: 7fdd 3d0d 6fed e03f 32dd 406c 72c3 dc3f
000005b0: 6421 7db7 a67e e13f 359f 8b99 5d1b e13f
000005c0: c8c6 6d33 5f64 d93f ba07 f133 a552 df3f
000005d0: 2fc7 9cf9 e09e e23f 5522 3d26 3f75 df3f
000005e0: 26c6 7888 baf9 d73f 3269 3461 ae25 e13f
000005f0: b274 2146 1f80 da3f ccc9 eb52 282f db3f
00000600: 923f 0047 1d25 e33f f477 aef2 90b3 df3f
00000610: 12ef 50e5 0f91 ca3f e350 8959 bd9d dd3f
00000620: e7ab 93f2 6a94 c13f 1314 edaa f1ec de3f
00000630: 536a 1b1d 1b7e dd3f 01ba 2871 d080 e13f
0.5337533294829554 0.3903511098819275 0.36706905364715403 0.46613998707321 0.3469594478272946 0.38010802721538134 0.5926382274388188 0.5861963902658488
0.5619262802307895 0.5528852735636711 0.223134343155173 -0.1482388207448564 0.48893190048564406 0.48539952284125554 0.5253512785845311 0.5308690817667064
0.43345981104117065 0.5466644184764334 0.17472475509265692 0.5280902803119849 0.47638786606302447 0.4506683025752343 0.49914130642891624 0.4477072700017879
0.49390607909205775 0.0938019388821262 0.3824962015819261 0.40607403526370556 0.49832522381985656 0.4536043304466549 -0.2374998972892015 0.45105711859905784
0.5120305696467751 0.42928416002075315 0.39700429610789495 0.28195223482585924 0.44697723752451424 -0.4766492174165482 0.5242545803367296 0.5618034597587657
0.5091081011256078 0.4330874154939048 0.5198079150115249 -0.23178616178648773 0.48326158832658356 0.4115615311166735 0.10494507795987773 0.5515851921834369
0.46750571992755546 0.5257716741992189 0.4920863828039004 0.403794279383681 -0.41553550371059467 0.5509514938750051 0.14408282577572984 0.4680654957819481
0.5194682267074308 0.43414129699694265 -0.4728614160333321 0.4888051157483054 0.4305495327755156 0.5082592199476654 0.43783048688837184 0.43910855454449615
0.5568879888699645 0.4545886084954106 0.45676693548801917 0.4683590139943718 0.5751069795000626 0.4823620359084899 0.44895774629711016 0.3346937516624254
0.46710463290634074 0.43987596020640396 0.4523500736890377 0.5016484225673259 0.3508287330541201 0.4451124172800056 0.5352537454024515 0.5589616380598382
0.5487242720072463 0.4557437798873288 0.15413943747396744 -0.3102297867637888 0.4470930252425941 0.5126278291521426 0.45014968216008083 -0.3117965373415337
0.3868080909245461 0.5524080334108276 0.5335818519290917 0.4481429415254407 0.41859016074152056 0.5422713076409849 0.4820579374126032 0.5510774148031393
0.5486953184019021 0.43563836190032035 0.47819491414537685 0.5562952773832358 0.4449688303192248 -0.4410673933198878 0.4520208210121799 0.5566556982441248
0.5502787333454698 0.44718094307286005 0.45799008065496266 0.5830530075277847 0.5351932118538301 0.455688226247546 0.4996350360637561 0.5198404980919753
0.3646361989809978 0.4652290098454773 0.5654939969179641 0.3346521041921315 0.39203458244505196 0.4624412762664429 0.4529854019825281 0.4677861499155766
0.5193300957797327 0.4257257817436142 -0.4028552717789233 0.4805727549060511 0.4347917974404569 0.5676440759689103 0.5037530625683999 0.5401109055171454
0.47259238456223457 0.39113571096671235 0.4047725356599213 -0.34686285409023293 0.508815769504248 0.5784800055931691 0.4461317954930221 0.4344497149670902
0.4411226774794834 0.5515527288608587 0.4506481611496356 -0.11269083691520194 0.1847512646436408 -0.2576595124465223 0.5053044133393578 0.27835071767314534
0.40973414153428955 0.4269344139653585 0.5355526034065232 0.37707194859846455 0.009024928207894847 0.5381916459303377 0.46450368214950666 0.12261629460403994
0.47573092183458554 -0.2331294253981615 0.39130935385027804 0.4234063917318374 0.5208900195833791 0.41363187670746626 0.3647790973179669 0.47342155619632986
0.22418258474299765 0.4624155539027491 0.568889249481175 0.5198588988368326 0.5496585735924725 0.4060726188641929 0.4406524250914761 0.4525174054318977
0.3567094735896228 0.4161571390540026 0.1358125603332699 0.4423547370981714 0.4057528613444826 0.589420840972333 0.5671277115101626 0.35729175515005335
0.5755230019037343 0.36040594165493894 0.29166342390853167 0.6065528193727473 0.5289836176515762 0.44942913600557965 0.5467103561177677 0.5345905302938038
0.3967512132868305 0.48941927025236576 0.5818943858377902 0.49153116926439583 0.37461722686120635 0.5358497522859464 0.414069956290244 0.4247532663131579
0.5982805620897003 0.49533485125891663 0.2075519437511209 0.4627526640299619 0.1373418507058368 0.4832119149398874 0.4608218940972268 0.546974392904133

fc2.weight f8 [100, 200]
00000000: c215 fe61 cfdd af3f f9fa 3090 e05d b03f
00000010: 5739 0f31 46d8 84bf 60c6 289c a262 a1bf
00000020: d4e3 0147 3a61 ac3f be46 96f9 0f03 a53f
00000030: 7fbe e8b2 a86c a33f 134b e47f 984c a5bf
00000040: fd3a 23de 89ef af3f 04bc bb16 353d a13f
00000050: 70b2 56a7 4ae8 773f f946 6780 e48f 94bf
00000060: 6040 3ac9 debf a5bf a30f a9d8 029d aa3f
00000070: 4e30 efcf f6ef 753f c5b4 b127 c13f a03f
00000080: 179b 2705 4d8b a33f d635 1e8c e093 b5bf
00000090: 539e fa67 ee5b 76bf ffdd b283 cfc2 a73f
000000a0: 2c36 2a0d 56b1 75bf e90c ee96 9098 b23f
000000b0: a264 0501 6194 a3bf dd81 7c49 9e69 9e3f
000000c0: e6ce abd7 35e0 90bf 91fe 283f f816 b2bf
000000d0: ab1a e0a9 306e a2bf ac04 7047 e7a5 8bbf
000000e0: b8cb 4357 3821 a93f 8e10 ff92 0a48 a9bf
000000f0: 75fe aa6b 3f78 903f 8079 f70f a9c7 83bf
00000100: 3a31 649d ce99 633f 2bb3 a5d3 e2ae a7bf
00000110: 9eb0 e15c 6cbd b03f b346 2407 517a 483f
00000120: 2439 7535 a8d2 8cbf 567e 8089 82f2 6abf
00000130: 36b8 2cec 44ba 8cbf 770c cd3d ddde ad3f
00000140: f5d0 ad8f c31c a63f e5dc 975f 4682 b63f
00000150: 9b8c a498 f64d 6b3f e3ce eb85 abcc 603f
00000160: d7ce 7708 1e94 aa3f 6f21 67ac edcd 95bf
00000170: 58e0 cb81 6767 ad3f 3130 083e 28bc 773f
00000180: cd60 40fc 2a7f ac3f 2a82 8a28 33b2 a23f
00000190: 921b f3b0 27f2 a43f 5693 01b4 4205 453f
000001a0: 70fd 3b29 f860 b6bf ce27 94b5 6d26 b23f
000001b0: 9ebf 3108 8c38 a0bf 4085 4d2e c826 a8bf
000001c0: 11db 84a0 5cf6 923f 9bc5 ea3f f34b b33f
000001d0: 16f3 a385 2db2 b2bf 4386 bc69 0582 a6bf
000001e0: 6e28 0757 59bb 9e3f f20e ab70 7b27 a6bf
000001f0: e798 670c 0793 a2bf 6443 2d8d 827f a93f
00000200: bf42 17a2 b441 a03f c554 7fa2 6725 abbf
00000210: 6dc3 4754 151b 9d3f 40de 887f de8a b73f
00000220: 7cf8 3b93 58c4 873f e958 1016 272b aebf
00000230: 5d41 e87b 156d 90bf d2d1 b8d6 97b8 b23f
00000240: a409 ee51 efd1 98bf 16c8 7e96 15d4 a13f
00000250: a41d cd99 7396 a03f f99b 8c27 f000 9ebf
00000260: c8db 2b09 2f33 a6bf 95c4 6b5f a8fd a43f
00000270: 4ab6 63f1 fde2 91bf c10e 0582 c3fe 82bf
00000280: 6e39 8ac8 590c 9c3f 30af 3a0b 47ab b43f
00000290: 7c84 5714 27df a4bf 9c5c 9aeb 6ac0 863f
000002a0: 9731 ff89 7eb3 b43f 3502 66bb a9a4 923f
000002b0: 78e7 5c8c 606e a03f 4b0f 86c8 d899 823f
000002c0: d6d6 fbc7 4602 a13f 0ee5 81b3 26fd 9c3f
000002d0: d420 166d daa3 99bf 879c ef55 7810 bd3f
000002e0: ec64 ed9a b4b8 a13f b8cd 54a6 b091 873f
000002f0: 148d 3b57 1f2a 85bf 3d29 de07 e192 7e3f
00000300: e53d f1c2 4cfb a43f 320c 65a4 6ef5 a0bf
00000310: cffc f76d 01ab 62bf 74a9 a254 f595 b83f
00000320: 4ef4 a030 b653 99bf 6460 8f28 1bf0 a2bf
00000330: 4448 ef6f 99b0 723f bfa0 9f41 4856 a53f
00000340: 427b 135a fdcf 91bf ca07 9566 ad49 70bf
00000350: 25ea 7de0 d318 923f e55d 25a1 83da a5bf
00000360: 98d3 47fc 47ca b73f bc1f f885 c07f a83f
00000370: 5bce f7c3 2623 9bbf 0c91 cda1 3df3 9dbf
00000380: cec7 b91b a51f 73bf f21c 086c f816 a23f
00000390: 5ac5 1e98 3218 ab3f 06ef caa1 2483 aa3f
000003a0: f3d3 4075 1edd 62bf 7d19 9534 73ec b13f
000003b0: 3b3c 7682 1fe7 87bf 209a 3e09 c62f b8bf
000003c0: 42ca 08e4 0b98 ac3f 3b33 f62b 1e06 85bf
000003d0: 8682 17b2 5d7f 9cbf c6d8 79b0 35ae a83f
000003e0: 9818 2661 449f 9b3f 9a0e ff09 3c56 813f
000003f0: 4869 3e73 d175 97bf b544 fb74 75c5 a2bf
00000400: 74b5 e720 d58a 9a3f a201 29b0 6d39 8a3f
00000410: 4e79 2bad 2973 823f 0a63 de58 cae2 55bf
00000420: 60c3 b3d2 b45e a43f 51d2 a53e 90fb aabf
00000430: c5a2 d3cb 6f3c a8bf 4c4b 952c 7536 8f3f
00000440: 68f0 f59f 3509 99bf 277e 9930 0876 a4bf
00000450: 02cc 717a 87f4 a7bf e868 a661 3c15 8fbf
00000460: fa50 c729 b522 933f aecd ddc4 1917 8b3f
00000470: 8c17 fabb 291f b6bf e032 2bcb 7324 513f
00000480: 515d 3e2b 06a3 9ebf be95 9ac2 74cd 8a3f
00000490: 8138 e033 03b0 6e3f 4282 2ba7 2026 893f
000004a0: 31fc 449c 949f a13f 87f0 719d ff4d 85bf
000004b0: 43e9 94b8 6e66 833f 8c5e d948 91c2 acbf
000004c0: 20cd 997d 10c3 7dbf 9fea 6c32 9de9 513f
000004d0: b666 71f0 cbc9 b03f 7655 e864 fb84 95bf
000004e0: d036 5ef7 7e20 97bf 6e91 a087 c435 b13f
000004f0: 8bcd 0d72 c63e abbf 9dc0 dcff c79e b33f
00000500: f126 f1c5 957d 97bf 756b b253 4d52 b23f
00000510: 1df0 1426 798b aebf 0d51 9901 49a1 943f
00000520: d4fe 75b5 83e9 b33f d156 4b21 8401 63bf
00000530: 9a20 a103 a5e1 3dbf 62ee 92f9 3a3d 733f
00000540: 104a 4a2f 288c ad3f 8c4f 254c 1866 653f
00000550: 41b8 bf2a 5e8a ac3f fef8 53dd 6765 a43f
00000560: 8558 8f2a 7c24 a23f 79c5 c448 d385 b33f
00000570: b263 1cf8 a954 9f3f 9e92 7c79 29ee 823f
00000580: b460 fe8c bb8c a33f 9f6e cdd8 b8ea 863f
00000590: 7b85 7c8a c2e4 913f fb38 6040 bd72 7abf
000005a0: fe04 302f 824c a53f 3ab3 6949 164a 8b3f
000005b0: 9db3 7357 05cf 86bf 2e49 6645 469e 943f
000005c0: e404 02da b2ab adbf 0b5a d9cd 8241 833f
000005d0: eff4 9429 c23b b33f 663b 3d4d 3b26 963f
000005e0: 86cc fb3b 8bcb 94bf c6f7 381a 24bc 933f
000005f0: 5cf5 ca6a 0558 ae3f e6f9 8f46 4165 ad3f
00000600: ec31 e35b 5c4e aa3f 62ed 87fd 8377 933f
00000610: 224a 0258 49dd 9bbf 25a7 697a 8805 a63f
00000620: 56dc 1937 db68 833f 71be 3c38 f2f1 a93f
00000630: 58b6 5732 0e6d 6f3f 8a89 7ae5 c6c5 9abf
00000640: eb0e 9d5f a126 b03f 7981 1d04 73c3 acbf
00000650: 288b ed43 9f2c 9cbf d2a8 4924 ba4f b53f
00000660: b8a6 e185 84dc 743f 15fd 0fc5 40cc acbf
00000670: 5abb d5de 8fd9 993f 0a3f 4e25 3d25 acbf
00000680: 7db1 91d9 4b9d 9a3f 1394 a169 138c 973f
00000690: ddee 9af2 fcce a5bf c708 4729 d1c3 83bf
000006a0: 8292 177f 0286 94bf dc5f f648 6d2c 80bf
000006b0: 2b55 c99b 4cad aabf 523f e98f b1e0 ab3f
000006c0: 47ca b0f7 28c5 a0bf 4ad6 4bf1 5875 a7bf
000006d0: 9f6b 0e90 bc17 783f c274 745b 8915 94bf
000006e0: 6d5d 0b22 84a7 a9bf 7829 a0c0 d2a7 a13f
000006f0: a5e7 b56b 0e84 8a3f 9c41 cafa 26f1 a8bf
00000700: 1fcf c868 e274 b3bf 5275 f56f fdea 93bf
00000710: e594 8992 e5bf a5bf ef7c fa09 8068 b13f
00000720: 88a7 5f65 c72e 953f e58b 927c 234c b23f
00000730: 278a 28b7 53c5 963f 1e33 8592 07c0 a43f
00000740: 716e 6230 713e 9cbf c153 ecd2 67c8 9dbf
00000750: 2783 2b42 b009 9ebf 67fc efff 2125 a7bf
00000760: 6f5b 5abd a103 aebf 7175 e3c7 e079 aa3f
00000770: c339 a825 00f2 95bf 5a20 131b ec17 9e3f
00000780: 89a1 aef5 64df a93f 2f0f 0a6b 757f a6bf
00000790: 60ba 96cc 628f b13f 9ad8 1d3c 0eb5 a8bf
000007a0: ab53 fb69 253f b03f caf8 b422 f470 a23f
000007b0: baf6 c3d8 de6c b0bf f8cc 3be9 3e60 b7bf
000007c0: d804 1daf 92d0 ac3f 87a5 191b 2493 93bf
000007d0: 7133 9e30 245c a83f 815d 1718 8bb1 89bf
000007e0: c8a7 47fb 32f0 adbf 1824 27b3 fd25 a8bf
000007f0: caca 9288 1659 b23f ca5f acd4 a204 81bf
0.0622391516799712 0.06393245239540225 -0.010178135273147744 -0.03395565181962179 0.05542928807057704 0.041038989274182466 0.03793837722730319 -0.041600003825939556
0.06237440907135825 0.033670100236001616 0.005836764922986334 -0.020080156647799694 -0.042479478897008205 0.05197914976864062 0.0053558007338772706 0.03173640832469852
0.03817215621875485 -0.0842876760563834 -0.005458766244977281 0.046408161951543285 -0.005296074045543924 0.07264045414744981 -0.038241416334764425 0.029699776873828177
-0.01648029450275503 -0.07066299001689404 -0.03599693368601228 -0.013500029437638915 0.04908157410854791 -0.049377756542100845 0.016083708712129458 -0.00965816574074263
0.0023926768727788013 -0.046256149612281604 0.06539037006013124 0.0007470031398801507 -0.014073671466260658 -0.0032894658616127543 -0.01402715535877173 0.05834094409376516
0.043188201226174096 0.0879253371602889 0.0033330742200106795 0.0020507192669983894 0.05191129544610156 -0.021293367049822928 0.057429537386213425 0.005794675060780506
0.05565771416894592 0.0365158068646035 0.04090999636678484 0.0006414962481470037 -0.08741713530252126 0.07089887316774865 -0.03168141937282985 -0.04717088284702209
0.018517920777607225 0.07537765799022227 -0.07303127777772675 -0.04396073261001423 0.03001155465771215 -0.043269975188676826 -0.03627798105644491 0.04980094884252287
0.031751293932420925 -0.05301975115404781 0.028423627156317566 0.09196272481573775 0.011604969018204729 -0.058922978823987844 -0.016041122138689235 0.07312916748271128
-0.024238337874984986 0.034821200009347006 0.032397854351582184 -0.029300453580756145 -0.043359250897928414 0.04099775471503012 -0.017467468126531473 -0.00927498570002372
0.02739086424349451 0.08073848747397672 -0.040765019639146666 0.011109195055992331 0.08086386555732471 0.018206264555830926 0.0320921107617797 0.009082502002236167
0.03322049323280189 0.02830944510103444 -0.02503911295710355 0.11353256319090309 0.03461231604769374 0.011508350444819779 -0.010334248399380054 0.007464293505004269
0.04097976569812171 -0.03312249905368282 -0.002278807441825493 0.0960381824139967 -0.024733397214948653 -0.036988114072017436 0.004562949527967378 0.041673906336485704
-0.017394980070885475 -0.003976514193086042 0.017672834946532618 -0.042682755871904544 0.09293031605905211 0.047849670747438705 -0.026501279555260698 -0.029248202324553538
-0.004668850855169949 0.0353315002321838 0.05291898829399129 0.05178179240235008 -0.002302703369446929 0.0700141909956979 -0.011671301049117946 -0.09447896695801505
0.0558475223409869 -0.010265575138669205 -0.027829612727034568 0.048204114716030186 0.02697474329900071 0.008465260558188793 -0.02291037813083932 -0.036662741212816576
0.02592022908532017 0.012804848612291423 0.009008718106482985 -0.001335809330589468 0.0397850520329317 -0.05270052685492444 -0.04733609545821119 0.015240588591643033
-0.02444919384787206 -0.039963012631002486 -0.04678748483356544 -0.015177222948115035 0.018687086749040717 0.013227654762636511 -0.08641301001816099 0.0010462885663173258
-0.029918762578373507 0.013087188900793186 0.003746038680225772 0.012279753781912043 0.034420627666343136 -0.010402676575033588 0.009472718246446582 -0.05617193235656001
-0.007266106049075988 0.0010932955862716154 0.06557917232694419 -0.021015098604114844 -0.02258489975752448 0.06722667990886119 -0.053213311598393785 0.07664155956877257
-0.02294000645296185 0.07156832974798795 -0.059657846354156364 0.020146504137600597 0.07778189830969079 -0.0023200588860657696 -0.0004559543482440892 0.004697065706917055
0.0577099378325735 0.0026121592101535137 0.055743162840244505 0.039836164252834635 0.035434608645730704 0.07626076246812898 0.030596404808509177 0.009243320484139613
0.03818307968248416 0.011189884296690265 0.017474212362804203 -0.006457080138728917 0.04159933877964227 0.013324903598197591 -0.011137048465082173 0.020135019288838034
-0.0579505816576871 0.009402295977605687 0.07513059153730571 0.021630217160516628 -0.02030770829783226 0.019272388554092655 0.05926529816268086 0.05741313921315676
0.05137909528420778 0.019010603284170265 -0.027211328503265027 0.04301096433921562 0.009477341288613921 0.05067402779093023 0.0038361813810670435 -0.026145084148660604
0.06308945259393865 -0.056178659679747285 -0.02751396991824176 0.08324778924876178 0.005093114536160286 -0.05624582677409699 0.025243995643389062 -0.05497160988227108
0.025990662721981906 0.022995284387793257 -0.04259481870164248 -0.009650835106075907 -0.020042456633648793 -0.00789723757661414 -0.052103418366338104 0.054448651139522256
-0.0327542116505311 -0.04581716485510563 0.005882011960148952 -0.019613405425037873 -0.050106171756563046 0.034483514798995196 0.012947189962449654 -0.04871484576608795
-0.07600226457799096 -0.019451103170799407 -0.042479681146497396 0.06800079578032457 0.020686259806019375 0.07147428313560018 0.022237117818926812 0.0405275694234659
-0.02758194787803209 -0.029084799050071334 -0.029333833731359917 -0.04520517586933508 -0.058621458401083675 0.051711105728581404 -0.021430971430214784 0.0293881312871068
0.05053248881387435 -0.04394118243820199 0.06859414572566314 -0.04825634464116142 0.06346353375859219 0.03601801799458 -0.06416123191953718 -0.09131234354190443
0.0562787855874462 -0.019115986017288058 0.047577982840357864 -0.012545668289859037 -0.058473199056450265 -0.047164848441362206 0.07167187532722177 -0.008309623828196683

fc2.bias f8 [100]
00000000: bfd9 d10f 2b9d e33f 3aea 75f0 afaa d5bf
00000010: e94f b02e 64c6 dc3f 23f8 6251 6ab7 e33f
00000020: 55b8 c747 2cbd e23f 98fb e6dd 8d85 b23f
00000030: 316b b702 3b4b e1bf 2591 9b00 b06d e23f
00000040: dbfc 1b9a 6d2c de3f b707 0d8a 1574 debf
00000050: b3f6 91d3 6735 e03f e02e 24fe 504d de3f
00000060: c583 5615 2870 db3f bbd1 17db 8bff e13f
00000070: 7e00 0663 b1c1 e23f 75dd 9f06 2be3 d8bf
00000080: 2dd2 d533 767b de3f bbfd ff7e ee32 873f
00000090: f06c 0fdf 882b 5dbf d454 89ed a0e8 e13f
000000a0: 8727 35e7 d3ff e0bf 169d ed41 769f b8bf
000000b0: 2fff db6b 807b e13f b81f ad32 fb07 bdbf
000000c0: 1b32 7091 c489 e43f 3a2c 54a7 640d d5bf
000000d0: e73d b3a0 0424 d6bf c49c bdd7 b7a7 d3bf
000000e0: 5b39 d905 2811 ddbf d2a1 1125 3518 df3f
000000f0: 2cdc 95c0 8ba6 c4bf 46b1 193d c7e2 e13f
00000100: ba87 5000 d55d e33f 5da6 646c 0917 e33f
00000110: 2fab 3fda d0b8 e33f d06f 3a59 1a01 d1bf
00000120: 4671 1377 04ed e03f c67f 3475 c24c e13f
00000130: ae9e 2ae2 1d09 dc3f 0387 fab2 aef5 a0bf
00000140: 6f14 ad9b 7921 983f 5f29 3afe 4e15 e43f
00000150: b46b 00e5 6b63 e23f 81c7 e1a0 8e73 e23f
00000160: 8c73 6109 4215 abbf 0259 9663 8dc5 dc3f
00000170: 6532 5be5 b9dd e13f 3013 a33e 0935 e23f
00000180: 817a 2fe3 bcc3 e13f 9b68 706a eb54 dcbf
00000190: 5d49 8ab2 1c78 e23f 506a 94a3 8923 e03f
000001a0: 80f1 931b c54d e43f 7b89 4cb8 d71f d23f
000001b0: b417 7fb1 a728 e33f 050f bc6c d534 dcbf
000001c0: 4b3c a170 300e e03f b213 9a9f 80af e13f
000001d0: 4ad0 5371 fe48 d2bf 7c7d 7683 67f5 e43f
000001e0: 321e eef6 098a b83f f0e2 c633 53b6 df3f
000001f0: cffb 3bc6 e2fb e13f 030a f707 67a1 d23f
00000200: bdc6 385d 2371 e33f 48dd 5099 582f e33f
00000210: 05b2 a8ad cd00 c43f 0514 29c9 5f78 e13f
00000220: 33bd c865 8415 e03f afe9 c41f d12c e33f
00000230: d571 4995 66ac e13f 37ba 803c 4b03 dc3f
00000240: de3e 1ce2 9851 c1bf 3e37 23c7 0927 e03f
00000250: 8963 3ba9 bfbc dd3f 6998 f514 7b77 e03f
00000260: 9e52 38f7 7999 e23f f878 4512 40c1 d5bf
00000270: 4db4 6b9b c36f e13f 65ba 89f4 d98a ccbf
00000280: 41cb 36f1 2e94 e23f 403c ecd4 9acb c33f
00000290: cf31 02b1 30bc e03f 35ee 1615 efa5 e23f
000002a0: abe7 9bad 4fcb df3f 3841 0e84 c385 de3f
000002b0: 59a6 693e 7e17 d1bf 6e75 e19e 0c1e d6bf
000002c0: 5344 d563 dfc6 e1bf 0690 3dfb 8c63 e0bf
000002d0: 6c16 1217 c63c 5fbf 9255 8600 7abc e03f
000002e0: e589 ef8d 8164 ddbf ebc5 e6d7 0cf6 e13f
000002f0: cc76 2d7d 9120 e03f 0b89 1802 06b7 e13f
00000300: d8c7 c16a 9922 e23f f0f8 efd4 4b7e 48bf
00000310: c809 89f6 3b1a d9bf c183 5347 f90c bbbf
0.6129355725268438 -0.33854292376023276 0.44960884627766845 0.6161395635206229 0.5855924035984211 0.0723503748658757 -0.5404334118896711 0.5758895885342424
0.4714616780256173 -0.4758352134850798 0.5065192348699469 0.47346901720514545 0.42872049411567686 0.5624446181450858 0.5861441549350415 -0.38886523863717254
0.47628550588641155 0.011327613116008153 -0.001780399001509999 0.55964704889143 -0.5312289729856595 -0.09618319615912116 0.5463258844974684 -0.11340303408826358
0.6418173637953858 -0.32894245472624883 -0.34594836896300624 -0.3071117026178849 -0.4541721398462834 0.4858525144577729 -0.16133257773955856 0.5589328950277739
0.6052041059631315 0.596562110619924 0.6163105261487994 -0.2656923171396075 0.5289327932073682 0.5406200684701552 0.4380564411789959 -0.03312440810010566
0.023565197111811317 0.6276011433958891 0.574636409062228 0.5766060964799494 -0.05289656033048748 0.4495576355487999 0.5583161811460512 0.5689741347674495
0.5551437794891428 -0.44268308062022194 0.5771621214974335 0.5043380923191965 0.6344934023505147 0.28319352148005067 0.5987127749183316 -0.44072471254934015
0.5017320823479933 0.552673637125386 -0.28570519511345494 0.654956585658439 0.09585630682533333 0.4955032354005615 0.5619977828754318 0.2911012246878785
0.6075608082521381 0.5995295519304955 0.15627451877061574 0.5459441117205875 0.5026266086551118 0.5992208118907935 0.5522950092086442 0.43770104320984465
-0.13530264893096605 0.5047654046445371 0.46464530493317874 0.5145850571978033 0.5812349155917962 -0.33992006096185845 0.5448930774269997 -0.22298740806896258
0.5805887900554368 0.15465102573986833 0.5229724366377527 0.5827556049257 0.49678413347248335 0.47691429039061317 -0.26705890746106814 -0.34558406367963
-0.5555264425148699 -0.5121521861115077 -0.0019065794442964202 0.5230073938607112 -0.45925940380962366 0.5612854210687009 0.5039756245493776 0.5535917321142575
0.5667235455605306 -0.0007474775574108066 -0.39222621036256244 -0.10566671363223092

fc3.weight f8 [50, 100]
00000000: 35fb 4731 d6af b33f bbe8 182c 3736 a4bf
00000010: 157d 795d a5a0 a7bf 6f8e 6ab3 f99b abbf
00000020: 9da1 d361 98dc af3f 65ab f66f 16f3 b83f
00000030: 4d00 3854 b97f b93f 4503 41a3 371d b0bf
00000040: f162 c307 e273 a7bf 6091 c300 cd96 af3f
00000050: c7c4 0bc8 429a 97bf d2ad cf33 c643 83bf
00000060: 0d96 93a1 5efa ad3f 7018 f147 b540 a9bf
00000070: 93f7 16b0 dd1b acbf d317 2022 4193 9f3f
00000080: 914e 7280 c2c4 b33f 17bc 2021 3b3f a03f
00000090: 6d83 1cb4 0291 b03f 7d16 0ac9 f9c3 9e3f
000000a0: 665f 424f 68a5 bb3f d3f1 bc02 ee38 94bf
000000b0: 6ee4 0918 dc63 983f 80ed 692b dc0b 8bbf
000000c0: b97f 3d2a ccfb bcbf 36e8 34b5 e83d b93f
000000d0: f876 d676 27cd b73f 7d86 f546 6e7e b73f
000000e0: 67a5 e509 bb7f 57bf bb12 d87d 003e 74bf
000000f0: c5ba fbad 719d 84bf 1a1c 7585 85cd 4abf
00000100: 8b53 1672 c39e 68bf a053 ba43 c311 933f
00000110: 3eb6 7bde 3dfe 9bbf e6cb 0630 90be a93f
00000120: a43f 9588 d817 56bf f099 5e9e 7ae4 b1bf
00000130: 0d7b be72 39eb a33f 5338 9f23 98f8 6a3f
00000140: 7160 d508 64df 9d3f 288a 7e04 b342 b13f
00000150: f1bd 007d 5b37 703f 7452 6df9 8310 b13f
00000160: fa2e 7458 b963 b1bf bcae 2681 387f 993f
00000170: 22ec 9a88 7667 a0bf 22cc 2060 2187 a4bf
00000180: 668e e824 20e6 ab3f 210a f552 dc67 9a3f
00000190: 2cb6 0a64 7830 abbf 8c33 0c51 a8fc bebf
000001a0: 1589 d918 3a12 6fbf 0b83 f363 46c1 a03f
000001b0: 0ab3 13a6 141b aebf 647b ff80 d567 63bf
000001c0: 089d 4f75 f703 ae3f e8a0 a551 d53a a1bf
000001d0: ffb5 2658 8adc aa3f 3b39 27e5 eb22 bfbf
000001e0: 29ff fc9a 58d9 b13f 6218 4396 d4a3 88bf
000001f0: f609 66f6 6daa c1bf 7d94 0f61 c996 a8bf
00000200: 3cf4 17b2 149a b9bf d777 f7d0 5a91 a9bf
00000210: 93cc bd02 659b 82bf f75e b30e acec b43f
00000220: 4fc7 8e8f 2a73 b3bf 2c6c 732f 87f2 4f3f
00000230: 2b05 dfab 7f0b abbf c86b a105 3a14 b5bf
00000240: cbb8 3205 4df8 af3f 968b 49d7 3ad2 a03f
00000250: 7a19 6c8f 24ac a83f 4061 1e48 da27 b0bf
00000260: 7ea0 56df f9b5 ad3f 5f43 67bd ffcc ae3f
00000270: d536 41cc e567 adbf 1ec1 9dd2 607e b53f
00000280: 9405 8008 15b6 a73f dcb8 a128 e533 b23f
00000290: 233c e3d9 df2e b2bf 7282 6383 9bda a13f
000002a0: 8880 edd1 82e2 9d3f 777c 12a9 3b41 683f
000002b0: 5f7a 13e0 91aa 733f 24f9 1050 8770 b93f
000002c0: 1b32 5896 3f48 b43f 8053 436f 2cbe 9cbf
000002d0: ba35 5de8 a1b6 b3bf 6643 a3ad b3b4 b8bf
000002e0: 3107 e31a 1328 bb3f d8da 574e 3ce2 b53f
000002f0: a57e f6e7 fd47 9b3f d093 eb67 2d7e 883f
00000300: 14f6 0303 3965 aabf ff2f 5f78 8b00 87bf
00000310: 64b6 f8f4 160b 82bf 1488 e135 8546 603f
00000320: 3b01 bd1c 5407 babf ef44 7b26 0b44 bf3f
00000330: d6be 8095 fd69 a63f 3504 091f 5451 b8bf
00000340: 82f1 d1ba 95b3 ac3f a62c 5d23 f4d7 7abf
00000350: 5d8c d3d6 7d7d b63f a72e 0261 992a b93f
00000360: d947 5449 c781 933f 4f5f 6f88 2db4 c63f
00000370: 6472 e39c 39e2 6a3f f53e a1f0 d361 7f3f
00000380: 12c8 b87a 3a6f 9fbf 9445 25ba f000 97bf
00000390: 2f8b 6c6f 8279 b73f 6bc0 403c beab 793f
000003a0: 7ff9 72ee c060 b4bf 20b1 ad22 b6fd a13f
000003b0: 81c0 f290 8652 bb3f c49f dd42 7f6b 74bf
000003c0: d816 75d5 c778 b83f 82d2 0ec0 4b38 a9bf
000003d0: db69 e531 12f0 aa3f 925d 53e3 b425 85bf
000003e0: a0c6 75c6 96e1 953f 96a2 2d80 0dba b33f
000003f0: 8b7c e83c 72a0 a8bf 36e8 9bf2 c6e1 b33f
00000400: 6325 9b04 21d3 69bf 7094 e1e7 6fa4 a9bf
00000410: a5bc 5271 cdb4 abbf 2a9b bb77 7ee6 b2bf
00000420: 03d7 c766 73a3 923f a429 d68d e0b8 b5bf
00000430: 6774 f056 45c6 9f3f 5e1a 3f0e 5a62 b0bf
00000440: deb4 3d3b 0d4f 9fbf 7e26 20a2 bb45 bc3f
00000450: 8a18 3882 046c a6bf de72 1279 5bde a23f
00000460: b7ba 4f0a 6199 ab3f ae15 9626 57b9 bbbf
00000470: fa6c 1928 2bfc 8a3f e7be 9fa9 dbe1 833f
00000480: 0d18 012c a47a c1bf 5f18 f8b1 191a 7b3f
00000490: c22d b4fa d93e a13f 41dc 96f4 bc46 833f
000004a0: 2e4a ae09 494b 9fbf c9a2 905c 2964 b63f
000004b0: 3896 20b2 d494 bfbf 123a dfda ad20 a63f
000004c0: 0ff8 4e20 5c6e 983f f5e5 b06d 29bb 8b3f
000004d0: efff bf64 9823 c4bf bd2a d106 8355 af3f
000004e0: e2bc 9992 9d8e af3f a1e7 9503 e46e ad3f
000004f0: e20e ee56 258f 9f3f c290 9316 c53f b9bf
00000500: 4cd3 eaae 3090 af3f 9efb b4ec 930a b6bf
00000510: ed70 b36b 1777 c2bf 8343 3b28 1fc6 b6bf
00000520: 194b abae 920c b53f d8a7 9ff4 452a 87bf
00000530: cf1c ba4f 751a a6bf 5652 fc67 ceab b03f
00000540: 0d50 1777 d04b a5bf 1102 7ed8 f685 5ebf
00000550: 0f42 2b20 ca57 ba3f 78b9 8c4b e680 a8bf
00000560: 7cf4 fd6b bd89 973f 82fc 40cb 1ff5 a23f
00000570: 93fb 57a4 bb0a 9b3f 94af f134 3c52 b03f
00000580: 51cf 4124 0d79 adbf 902c d518 e187 8a3f
00000590: f0a7 016a d2bd 95bf 3b36 f61b e6de ba3f
000005a0: 12fa ae3e a22b b5bf c188 0acf 2c0a 9d3f
000005b0: a8e5 0837 c9f6 a6bf 0429 c5cb c4de acbf
000005c0: c4ed f64a a42e babf adcb 07ea 9a34 a5bf
000005d0: c588 50c4 ee17 b0bf 6ff1 cd29 13b8 b33f
000005e0: 5285 fbe3 526f ac3f f35f 0794 582e c03f
000005f0: fc14 2960 805f 9f3f b5fd 857d 695e a9bf
00000600: 7dab 7753 04d8 bf3f d3d5 9be6 dfce ad3f
00000610: a8de 1b2e 3781 b53f f729 2bab 3494 a5bf
00000620: 8453 df5d 3895 af3f 5b1c c9d3 c1ea 983f
00000630: b637 9670 6300 993f 55af 98fe 9009 4ebf
00000640: 0f5b 8913 4433 8dbf 1d9d 5ed9 b9c1 ad3f
00000650: 2e67 1867 65a3 a5bf bdd8 b50c 775b a1bf
00000660: 871d 395d 1122 9dbf 7357 0c15 eb11 983f
00000670: e838 364b 039f ae3f 9008 61c9 372d b43f
00000680: eca3 832a fe98 b7bf 4891 858b 8ce6 b53f
00000690: 98e6 fd15 24d2 acbf 9032 4ba4 f7e7 9b3f
000006a0: 5284 9ce8 d7b0 97bf 39d2 dd69 688f b83f
000006b0: 92b7 49a8 13bd adbf 6bbb ecac 7cd2 9d3f
000006c0: 5975 932a 0545 99bf 530a f829 646f b0bf
000006d0: 2d58 2a08 7913 b53f 45be 7e91 1f54 b63f
000006e0: 0255 551b 7405 b7bf b5f6 a75d d190 ae3f
000006f0: 7bac 75dd 4880 b53f ecf2 60e9 7de4 a53f
00000700: 6429 5e82 ef94 a9bf 5536 007b 2f99 9abf
00000710: b9a2 0db0 5d0e b03f 3409 4274 31e8 a8bf
00000720: c472 f856 675e 983f 866f 358a f94d 93bf
00000730: 0a85 80f6 067e 9f3f 3933 1ac3 ca91 adbf
00000740: 2eaf 04c2 2c6f 9abf b15e fe9e eed6 acbf
00000750: b480 c4bd 7661 aabf 328a 0923 96d9 b4bf
00000760: f97d a58e 2cd3 9fbf 86fd 673d ef13 ac3f
00000770: 68a8 09eb 1fec 653f 2ffa 243c 46e9 ab3f
00000780: e9f0 dcbc 973c b73f c593 0d93 2330 073f
00000790: 1a0e 0b9b 24c3 8dbf 9f2d f04f ac41 abbf
000007a0: 33d5 7079 ff96 9fbf 64e0 3519 fd0c 863f
000007b0: a1ad b7e3 7b10 b4bf b72c 4779 8eab aebf
000007c0: 9b3d df6d 09e5 b4bf d3fe 9b21 895f a9bf
000007d0: f6cd 4e92 0def b23f f3d4 1f9f b6b6 b7bf
000007e0: bd9e afa9 e532 b7bf 6596 76d3 17e4 acbf
000007f0: cdf7 6ead 5335 b23f d2a6 ab4d 2489 aa3f
0.07690180495408756 -0.03947613156602033 -0.04614750639006552 -0.053924372817417125 0.06222988313840292 0.09745922311291862 0.09960516267892779 -0.06294582114879883
-0.04580599159971211 0.06169739374471095 -0.02304939599975311 -0.009406612831262349 0.05855079386109816 -0.049321808845477544 -0.054900100465132294 0.030835168559882064
0.07722106586362033 0.031732414049081274 0.06471268555880068 0.030044463057967697 0.10799266753235556 -0.01974841968261549 0.023818434683992633 -0.01320621497619956
-0.11321712523704165 0.0986009066008656 0.09297415400802922 0.09177293045424935 -0.0014342619466226282 -0.0049419421388889285 -0.010065925714540023 -0.0008179571113168277
-0.0030053918168939145 0.018622447022227484 -0.027337042526531123 0.050282007086387456 -0.0013484587273815208 -0.06989256254619369 0.038903994805187116 0.0032923671214808796
0.029172480620531297 0.06742400035594953 0.003959042907851083 0.0666582569077237 -0.06792791757123587 0.024899371035344883 -0.032039360213694815 -0.04009346292914297
0.05449009371320983 0.025786821902565763 -0.05310417386258978 -0.12104274729445147 -0.0037928709705720245 0.032724570942951635 -0.058800359032693164 -0.0023688478467955177
0.05862401301402015 -0.03365198728244129 0.05246383977951651 -0.12162660927353823 0.06972268852132103 -0.0120312317234374 -0.1380135968320954 -0.04802541074585862
-0.10000733707416115 -0.04993709374296856 -0.00908545412651155 0.08173632964041731 -0.07597604756190644 0.0009749565205327041 -0.05282210324322486 -0.08233988416161175
0.06244126022771609 0.03285392644899969 0.04818834543952995 -0.06310810337743522 0.05802899218844092 0.06015776812603834 -0.057433301146927164 0.08395962850568536
0.046311051642997786 0.07110435716615221 -0.07102774686357853 0.03487096766344146 0.0291843834523893 0.0029607930415092537 0.004801339936618547 0.09937329964393321
0.07922742290993094 -0.02806920460791984 -0.07700550005866705 -0.09650729169085323 0.10608024031082831 0.08548333084750526 0.026641814501657497 0.011959414228337822
-0.05155351793107968 -0.011231507883984191 -0.008810214377344035 0.0019867517249148123 -0.10167432500475553 0.12213201226701974 0.04377739381777494 -0.09499097593017398
0.05605762391585058 -0.006553605713473553 0.08785234923156922 0.0983062612378328 0.01904975304666565 0.1773735920130499 0.003281700635041228 0.007661655321569806
-0.030697740307182704 -0.022464524613786077 0.09169783802330465 0.006267302615057794 -0.07960134336005885 0.03513878987618768 0.10672799147391922 -0.004985329736747649
0.09559296571122944 -0.04925762862641127 0.05261284693797893 -0.010325825869968584 0.021368366110840697 0.07705768946983435 -0.048099107680394125 0.07766383574554045
-0.00315243195368413 -0.05008268075543121 -0.05411378868427023 -0.07382955954709006 0.01820164027045391 -0.08485225165183025 0.031029780799248032 -0.06400072906317564
-0.030574995747362325 0.11043904026169035 -0.04379285897816583 0.03685270169191822 0.05390456438896279 -0.10829682056472364 0.013176285897478202 0.009708133806241871
-0.13655521534582285 0.006616688129275599 0.03368264375066189 0.009412265981934566 -0.03056062814318688 0.08746584424865057 -0.12336472843943447 0.04321807190682504
0.0238584894866492 0.013540576610568936 -0.15733628196176094 0.061199278432999084 0.06163494505460122 0.05748665374535667 0.03081949561193554 -0.09862930108244242
0.061646958687026826 -0.08609890488604185 -0.1442593837626939 -0.08896059734548882 0.0822230984152096 -0.011311098602124689 -0.043170610410976466 0.06512155569755271
-0.041594042336925076 -0.001862994251467968 0.10290206227660569 -0.047858425829292395 0.022986373630818666 0.037026399194012974 0.026408130555860842 0.063754809308817
-0.05756417338935072 0.012954481668791012 -0.021231925697442422 0.10496366675052908 -0.08269704847678153 0.028359127175129787 -0.04485157772837606 -0.056387090563093906
-0.1022741969126662 -0.041416970318003045 -0.06286518376194568 0.07702750940911128 0.055536833124061005 0.12641436794251568 0.030637746686143594 -0.04954843194263551
0.12438990628986164 0.058218953037719644 0.08400292278008215 -0.04214634503803787 0.061685334643391904 0.02433302741181041 0.024415544268371746 -0.0009166677456895292
-0.014257938238342342 0.05811863687932315 -0.042262238345030276 -0.03390094785838602 -0.028450270953070535 0.023505852851563213 0.05980692189324249 0.07881497065048593
-0.09217823541588616 0.08554914861958196 -0.05629074829535091 0.02725207271832858 -0.023135541508171827 0.09593823036795691 -0.058083166401828326 0.029123256735313612
-0.02467735359538401 -0.0641996958220628 0.08232838105536251 0.08722111990095367 -0.08992696444814288 0.059698622400885006 0.08398871809701973 0.04275887941228071
-0.04996441332248727 -0.025974981195807285 0.06271920726943393 -0.048646493379254 0.02379762142492116 -0.018852137623397457 0.03075419311074249 -0.05775292998905574
-0.025814723340928207 -0.05632730189171065 -0.05152484003542793 -0.08144510608102776 -0.031079002577255797 0.054839588399768366 0.0026760695839600952 0.05451411709008302
0.09076832161821681 4.4227681775400474e-05 -0.014532361966650465 -0.05323542095001276 -0.030849448954730362 0.010766961414205585 -0.07837652501591787 -0.059902622513243235
-0.08161982471869182 -0.04955700431127998 0.07396015951126586 -0.09263173470374735 -0.09062037842488287 -0.056427712024100164 0.07112620338645499 0.05182755897642512
