weights/numdreg_ad/djia/mse/high/numdreg_ad_pretrain.pt (torch, 263419 bytes, 14 tensors)

fc1.weight f8 [100, 200]
0	0x3f95c54cbc6cf19d	0.021260451317390062
1	0xbf5b1e5c9d1f3b75	-0.0016551880294064212
2	0x3fafec4e0364a090	0.06234973708552716
3	0x3fa5761695ba14b8	0.04191656663628279
4	0x3fb06da32ae7b8e3	0.06417293355454805
5	0xbfae9389ed3aa6da	-0.05971938153136387
6	0x3f9ad58c68ff17b8	0.026205247791743352
7	0x3f9e6323830c645d	0.029675059197959864
8	0xbfb0620719cbb6e5	-0.06399578456668172
9	0xbf5b56627bbd1c63	-0.0016685449363238673
10	0x3f9714d95ea3c716	0.022540470506050424
11	0xbfaab892d0a4a378	-0.05218943402207449
12	0x3fab739736527756	0.05361626184570294
13	0xbf9154cbb51152c0	-0.016925032545560326
14	0xbf9f1dd5c2abd21a	-0.030387248999391138
15	0xbf8ac3ed26019f2b	-0.013069012377129837
16	0xbf9495b8a72aebb3	-0.020102391436676203
17	0xbf8beed59d15faad	-0.013639134270076647
18	0x3f95fe2745ec2803	0.021477330820779638
19	0x3f32de4ae1edd77d	0.00028790786921405865
20	0x3fa942e727bc7ee6	0.04933855400144953
21	0xbf823452c6e50279	-0.008888861365109012
22	0x3f91a3381c104836	0.01722419425284035
23	0xbf76df0b7758d4cd	-0.005583805837479261
24	0xbf94e8f304012e63	-0.020419880980894322
25	0xbfa454ded395f5c0	-0.03971000988802187
26	0x3fac44e3043fe0f6	0.05521306445001699
27	0xbfa99709f9104630	-0.04998046078993601
28	0x3f9f230f722c3257	0.03040718206743728
29	0x3fa003b112564ef8	0.031278165329380714
30	0xbf9e7ba576b24ef2	-0.02976854836431548
31	0x3fa2464e9b1d4d01	0.03569265025603308
32	0xbf9eb622a506ed44	-0.029991666147663368
33	0x3fb0452e7b2891ae	0.06355562693403868
34	0xbf941099995cbb53	-0.019594573960769534
35	0xbfa2cc9a85d954f3	-0.03671725162409158
36	0x3fa1dc8550f6b1f7	0.03488556493116229
37	0x3fa86a454ff25d25	0.04768578148758199
38	0x3faa47ee30319053	0.05133003557492146
39	0x3f88fc076e84eefd	0.012199457226067073
40	0xbfb042a759429998	-0.0635170548363021
41	0xbfa265042fc6de96	-0.035926943618901294
42	0x3f933df9056cd659	0.018791094738125434
43	0x3f9d1e1a96107d60	0.02843514958305826
44	0x3f533ae5bbb60837	0.001173710202096346
45	0xbf97fc8a242080a6	-0.023424299674048264
46	0x3fa84e3c75b6be4a	0.047471894616475455
47	0xbf816daf9999067b	-0.008509990572864048
48	0xbf72869798456e4f	-0.004522888343071309
49	0xbfa2861a85cbffec	-0.036179379303575704
50	0x3f9f2837934604c6	0.030426853526937213
51	0xbfa70e939bcc16be	-0.04503308560201223
52	0xbfaaf59c468413db	-0.05265510903158318
53	0xbf835ef7d2638802	-0.009458480938011608
54	0xbf75c1da99809bf7	-0.00531182661510509
55	0xbfaa824c02ef53d5	-0.05177533660722814
56	0x3f81f6076d071a9c	0.008770044340861198
57	0x3fa3fbc6cd679caa	0.03903027779943476
58	0xbf9ad160e1f57a73	-0.026189340392529247
59	0xbf878ae2e35be458	-0.01149537330955945
60	0x3fa404522a2d53c6	0.03909546627861675
61	0xbfa02144031d212c	-0.03150379693994618
62	0xbf9af9039055aa79	-0.02634053772400555
63	0xbf56466cb945dc46	-0.0013595639948940238
64	0xbf7c318e6aa1aa85	-0.006883198084418955
65	0x3f81dbfb7dc5ee4d	0.008720364356796706
66	0xbfb0826db47f9a5a	-0.06449018150997557
67	0xbfa8e0ba133aaa00	-0.04858952984553255
68	0xbfa4800987b0c4bd	-0.04003934651735495
69	0x3f8b83d5edc70d6a	0.013435050314803038
70	0x3fa4d38278bef075	0.040676190604671904
71	0x3fae0358ae534205	0.05861928108209117
72	0xbf6bbb89cff48f5d	-0.0033853236815434688
73	0x3fa2b60668b06012	0.036544990806021485
74	0xbf756043f22528a4	-0.005218758977500713
75	0xbf9764c777a7b305	-0.02284537952248213
76	0xbf8a71e132a65323	-0.012912520750242578
77	0x3fa5820299c11c4c	0.04200752379306802
78	0x3fa042c6f591dcd9	0.03175946948697978
79	0xbfa41312ed748948	-0.039208022581322555
80	0x3f61391e3c758f0b	0.002102431349770733
81	0x3fa488ca826b2e9e	0.04010613290810493
82	0xbf9dbe0ee0481032	-0.029045326651626797
83	0xbfb02d050f902dbf	-0.06318694715462579
84	0x3fa74ed6095720ee	0.04552334655778788
85	0x3fadcb544cd5221b	0.058191904429410544
86	0x3fa268fa5172fc8d	0.03595716709377781
87	0x3f9a6cc56debe536	0.02580555423171412
88	0x3fafd05021c406fd	0.06213617717913953
89	0xbfa00827d22d12ab	-0.031312221914537496
90	0x3f98ccbd46cb9ccc	0.02421851868248552
91	0x3fa9c0bf112b366c	0.05029866299228733
92	0xbfabab2fda6fab8d	-0.05404042760331782
93	0xbf85b78c847bc6e8	-0.01060399798686569
94	0xbf857afd9fa9ed6e	-0.010488492426921705
95	0xbf73445d336d22c9	-0.004703868928864715
96	0xbf9b87fad21fe6f1	-0.02688590915202033
97	0x3f6e29d60e48b72d	0.00368205840847837
98	0x3f78e83c9ef4b6ec	0.006080853271937175
99	0x3fa43debf8a54cf7	0.0395349255583372
100	0x3f932f4ed6861936	0.018735153048987395
101	0x3fa05e44762ffe65	0.03196920340269286
102	0xbfa9e3a6eb7a7947	-0.050564972157405345
103	0xbf939d95b60ce1f8	-0.01915582584044448
104	0x3f964efb420bd7cb	0.0217856654225768
105	0x3f95326de11dd4a9	0.0207001846933578
106	0xbfabb813ccaf6a23	-0.05413877366637034
107	0x3f8a8bd61cbe44ed	0.01296202922074704
108	0xbfa35cd66d7f8e7d	-0.03781766974114207
109	0xbf7bd6bbf1657659	-0.006796583320775784
110	0xbfafefa4ea7ae770	-0.06237521517091593
111	0x3f90c96f9ed7d177	0.01639341742516495
112	0x3f75d7bfd9973b44	0.00533270779983647
113	0xbfa6b0a9575d2079	-0.044316570200465706
114	0x3fa3fc7973b1b10e	0.039035601971450715
115	0x3fa59080fac80b47	0.042118101704565584
116	0x3fabda7597cfdf07	0.054401087552774334
117	0x3f9a70a0afd1bda2	0.0258202655135712
118	0xbfa6d146613f1999	-0.04456539094057916
119	0x3f887a1b7534068e	0.011951651109942032
120	0x3f960b9a9fc3d72c	0.02152864074829279
121	0xbf9f00c7f93c8da8	-0.03027641733855338
122	0x3f8d805ace5c2f72	0.014404973433123056
123	0xbf788c727577dc46	-0.005993315796778259
124	0xbfa74cb7ed5c2062	-0.0455071904416975
125	0x3f9cdb9d5264850d	0.028181512979363044
126	0x3fa105f36c90c2e2	0.03324852657568102
127	0x3fad69f4130f5132	0.057448985411300404
128	0xbfae81bc9a89fa7f	-0.059583562721845056
129	0x3fa82168c4d837b1	0.047129892376787004
130	0xbf9b45b76d03fb14	-0.026633134869366762
131	0xbf8bb1057342d7cc	-0.013521235065450464
132	0xbf971e15dfa30f94	-0.02257570435973795
133	0x3f891dc3c8b40df0	0.012263803064803874
134	0x3f9c7639a64a2add	0.027794743322867233
135	0xbfac0d9ab8f96b5b	-0.05479129322039596
136	0xbfae1e6e1093a3b0	-0.058825912021183924
137	0x3fa637dc147a5cdc	0.04339492559409461
138	0xbfa95efa7c4e59a7	-0.04955275313766388
139	0x3f7ae23af69dc4e7	0.006563406301084407
140	0x3fac375ec136cc77	0.055109940610599865
141	0x3f9684712b6d934c	0.02198960139812138
142	0xbfb0966fc2a51bdf	-0.06479547979425558
143	0xbf3b8f0efb40c12f	-0.0004205142570326168
144	0xbfacc5135523be75	-0.05619106687833845
145	0xbf9c88e3c691de08	-0.02786594294999925
146	0x3f474e22306a09ef	0.0007112185420086718
147	0x3f9cb26e24bd0b10	0.028024407379471816
148	0x3f92a815e4851710	0.01821932036661794
149	0xbfa58e93178de0a8	-0.04210338270689934
150	0xbfa8c46d8b6ba540	-0.0483736260119465
151	0x3faf4dbea60f5b8a	0.06114002015208715
152	0xbf819c351d252ffb	-0.00859872336572919
153	0x3f6a082f8d3e0fdf	0.0031777313942615705
154	0x3f87471aec66d587	0.011366091098220078
155	0x3f9394a2f87c465a	0.01912169114718263
156	0xbf9ddbb31ec7fa75	-0.029158400300725213
157	0x3f9a56a70a5247ec	0.025721178059548253
158	0xbfa9b5378555d7b6	-0.05021070006016208
159	0xbfaf3d43b1e826f8	-0.0610142855330888
160	0x3fa48ba305f3c994	0.040127844311331234
161	0x3f9eb3cab69f98c7	0.029982726475190426
162	0x3fa670a2ca518663	0.04382809371669507
163	0x3fab09b188385e69	0.0528083304199612
164	0x3fab18fedeedc8f4	0.05292507621097001
165	0xbf9029d2d8c83958	-0.015784544450121757
166	0x3f98a873ab60ebbf	0.024080092749709566
167	0xbf75da8f01d7d75d	-0.005335386869310313
168	0xbf865557dab8b56f	-0.010904966699934985
169	0xbfa769681226db30	-0.04572606298045512
170	0x3f627d4f282101a0	0.0022570177107185813
171	0x3fa04b936336cb8c	0.03182659708126953
172	0x3f9e7b7a26101bec	0.029767902920891418
173	0x3fa1eff1f5f426b8	0.035033761285445164
174	0x3f90bc9f98d87a0a	0.016344541267352887
175	0xbf9dfc5d7a99d9d2	-0.029283009155244795
176	0xbfb1455e49dfb0fb	-0.06746472648200445
177	0x3fa284e63d7586c8	0.03617019176705366
178	0x3fab15a58b3ddf81	0.052899525878216565
179	0xbf8bd133ea2fc9df	-0.013582616409597513
180	0x3f9d8616926f35e0	0.028831818282744837
181	0x3fa64c5d21d442af	0.04355135953858757
182	0x3face5e5ff38269d	0.05644148579092454
183	0xbfaa66a71a27982b	-0.051564428274830064
184	0x3fa6027eeeb4055c	0.04298779167039399
185	0x3f9360ed151446c4	0.018924431239674147
186	0xbf6526b73b2c8015	-0.0025819376691203024
187	0xbfb091addbb52757	-0.06472288717227791
188	0x3f99bd342ec5b5fd	0.02513581786609186
189	0xbfb027bbe5b38fbe	-0.06310629232353812
190	0x3fb08029712d3e7c	0.06445559514144777
191	0x3fa9dc8b95728801	0.05051075171765263
192	0xbfaeea8f9a76ce5c	-0.06038330803440026
193	0xbfa6f914f82553cc	-0.04486909417270332
194	0xbf8bb5aa039622e5	-0.013530090555620553
195	0x3f888e9fa8684e59	0.011990783049476027
196	0xbfa18768539d38fb	-0.034236202437215334
197	0x3fa81253d4a245a6	0.0470148274481617
198	0xbfa8d4d9d2e721d4	-0.04849892329690744
199	0x3f88cf6b995caec7	0.012114372842538924
200	0x3fa3c52f848efa37	0.03861378186364955
201	0x3faa666c532ee2da	0.05156267657679843
202	0x3faafe29032ce575	0.05272033847581784
203	0xbf77a5dc26fae3ed	-0.005773410768306936
204	0xbf9a97ef4110deac	-0.025970209451968415
205	0x3fa7685eb1961dba	0.045718154123331314
206	0xbfa16028ab6cb30c	-0.033936758924346305
207	0x3fae5f91d74f85af	0.05932288888267167
208	0x3f9e471cd5c0e5f1	0.029568148180464552
209	0x3f8aa4119bce7e90	0.013008248870220812
210	0xbf8c7d4078ca3148	-0.013910773931706047
211	0xbf78e630d60f5981	-0.006078902021690148
212	0x3fad3e39505595a7	0.057115355545458706
213	0x3f93ab2c8e55a42b	0.019207664668474827
214	0x3f86604649bd5a56	0.010925816655498338
215	0xbfa608d7ce1394f2	-0.04303621664602443
216	0xbfab8756d920c47b	-0.05376693153846986
217	0xbf96fe7d57e550ac	-0.022455175866824703
218	0x3fa00fe2a830d814	0.03137119582281414
219	0x3fa0dc393bb5506e	0.03293017248020723
220	0xbf85b79e5f3ed712	-0.01060413101354699
221	0xbfaa7267089e1f54	-0.05165407161899674
222	0x3f9a4c96cd02f45b	0.025682789099608843
223	0x3f9fd34c69aec1c0	0.031079477262837107
224	0x3f7cc24dbbd81338	0.007021239898226388
225	0x3fb03485b4742f6d	0.06330142646419086
226	0x3f81c6c297039edf	0.00867988608702269
227	0x3f9f709aff6d98e7	0.03070299324044692
228	0x3fa495fb7aa80553	0.04020677444715184
229	0xbfa06c5d9fbbe433	-0.032076764820836344
230	0x3fa65490cded9c82	0.04361393464824294
231	0x3faaa84e0d5b1f0a	0.05206531441723257
232	0xbfacfebedc1839a5	-0.0566310542745783
233	0xbf89bf199aa1696e	-0.012571525603722402
234	0x3f9e90ca41878579	0.02984920525512311
235	0xbfae2bdac8e99f82	-0.05892833426042811
236	0xbfa1a304351ca7b5	-0.03444684170092619
237	0x3f8f7dabfda190cf	0.01537641876002063
238	0xbfa3c499e8a060d0	-0.03860932316473653
239	0x3fa05c02270f0be1	0.03195196844855964
240	0x3fa7d98f063207e0	0.04658171606662598
241	0x3faef67e7ee02034	0.06047435091755951
242	0x3f95316375b0b803	0.020696214731451345
243	0xbf65c17e027a1317	-0.0026557408453434894
244	0xbfa97d220ca6b876	-0.04978281406816702
245	0x3f9575eb277f36ee	0.0209576361519827
246	0x3f88f6b95ebd3c66	0.012189338878356003
247	0xbf79379b113a1104	-0.006156545383081861
248	0xbfabe2b337098921	-0.054463959186948914
249	0xbf97d95facc72779	-0.023290152473954138
250	0xbfa63f401467d183	-0.043451311579619144
251	0x3f257feccf401445	0.00016402974836196758
252	0xbfa927c3c2d4df7d	-0.04913150552096022
253	0xbf9219d6e57c736f	-0.01767669463798732
254	0x3fa828dbc2ecf6b4	0.04718672518218395
255	0xbf95fb176aeb1bd3	-0.021465650463848917

fc1.bias f8 [100]
0	0xbfb11f01bdc5f549	-0.06687937625061581
1	0x3fa32cb40e17275b	0.03745043441774839
2	0xbf9ef36e03687a6d	-0.03022548576165678
3	0xbf85e32ea39bbd37	-0.010687221877985749
4	0xbf98b5a949a20da6	-0.02413048278732579
5	0xbfa9bab2f5f3f29f	-0.050252525828885945
6	0x3fa33175d257c6e8	0.03748672669088454
7	0xbfa8953a8d74ed51	-0.048013524787587365
8	0x3f71ed69f25ae4a0	0.004376806120199778
9	0x3fa7aab1bb96cc35	0.04622416891961515
10	0xbfa4ee6e1e059baf	-0.04088157764891009
11	0x3fa0ca429dd1e435	0.03279312302124319
12	0xbfa74b619e304407	-0.04549698883068492
13	0xbfaf81f7d2b117af	-0.061538452595910946
14	0x3f9502331c7e88b4	0.02051620351233714
15	0x3faebf279196bc74	0.0600521435948104
16	0x3fa85a80a5d026b8	0.047565479508262454
17	0xbf76ace911e88caa	-0.005535993985662882
18	0xbf851ae08308c4ba	-0.010305170058105485
19	0x3f48eb3146d1de6d	0.0007604590042679778
20	0xbfafa4e55a282ece	-0.06180493093060378
21	0x3fa4b513da9e80bf	0.040444012104900555
22	0xbfa009a361f86d55	-0.03132353373458822
23	0xbf885e29d83f17fd	-0.011898352538889151
24	0x3fa3916343bec77f	0.03821859552353057
25	0xbf8781f0f38bf0b2	-0.011478311951116236
26	0xbf9beb32e40861ba	-0.027264399688734044
27	0xbface73f8d98f322	-0.05645178416714304
28	0xbf976d3fb50cd149	-0.02287768881360933
29	0x3faa115a121464f2	0.0509136340207962
30	0x3f7191df4145e61c	0.0042895050904632435
31	0x3f95aad17a3924d9	0.021159432492173422
32	0x3f90fca8c3a7090a	0.016588818494491377
33	0xbf64017bb4193fe8	-0.002442113502901567
34	0xbfa0d21025a7671a	-0.032852654072213563
35	0xbf571037ff8e3248	-0.0014076754434625572
36	0xbfae76f97ebc77f1	-0.05950145408699815
37	0x3f87abdca30070f0	0.01155826923791678
38	0xbf905a84d98204f6	-0.01597030236780924
39	0xbf93d43cb0080226	-0.01936430763635335
40	0x3fa08456ec738704	0.032259670604402074
41	0x3fa4003e1f16ac8b	0.03906435136317395
42	0x3f9f0c6418457bc2	0.03032070539608945
43	0x3f7f48abd18947b0	0.007637663999576036
44	0xbfab9b8431acbfc5	-0.05392087084180689
45	0x3fa8fef9167b6df5	0.04882028960647836
46	0xbfa87b310c3da9c5	-0.04781487726616577
47	0x3fa324d36ce9ec5f	0.03739033417237957
48	0xbfa56cb768b5dd44	-0.041845065624267735
49	0x3fa3261a827a127e	0.03740008204207344
50	0xbf7eed0ec21781d6	-0.007550294541460242
51	0x3fa0f70a5225fdb4	0.033134768035775336
52	0xbfaa23d7dee84809	-0.051054712257737896
53	0xbf91a0c20471430d	-0.01721480514635503
54	0x3f96515d66b70b4a	0.021794757265307475
55	0xbf9b9a8fcbaa337e	-0.026956793599811395
56	0x3fa3df9d2eb51a71	0.03881541438254466
57	0x3f95cfccda53f4c0	0.021300507379227396
58	0xbfa3422871742e40	-0.03761412033972222
59	0xbf9c72588bf9e482	-0.027779944938150176
60	0xbf9006589ebe3256	-0.01564920872583494
61	0xbfa0407323beeac5	-0.03174171267842988
62	0x3f91b78e9dc6d9d2	0.017301777248315116
63	0xbfab0e0f5936c2b8	-0.052841643944139205
64	0xbf84e78162b420e6	-0.010207186531730316
65	0xbfa1aeee51df5bf3	-0.03453774213237883
66	0x3f9e1ce7a6f064ec	0.02940713840880431
67	0xbfa0eb99fd61faaf	-0.033047496967801286
68	0x3fa4679f66f4c291	0.03985307819164519
69	0xbfaedf89c2e87842	-0.060299210588923305
70	0xbfa603a59996447d	-0.04299657344666572
71	0xbfa0d0d66dcbabe0	-0.03284330454138007
72	0x3f92917b5a9d79d3	0.01813309422083782
73	0xbf9c03d3f5f285aa	-0.027358352552828848
74	0xbfa2f7b9613f170a	-0.0370462351998367
75	0xbf865efb9278ce7b	-0.010923352630107566
76	0x3fa50705ca53e3cd	0.04106920332737438
77	0xbfada0e294d1d080	-0.057868080774739816
78	0xbfa9c2e27842efc5	-0.05031497686419998
79	0xbfade386a9fbe903	-0.05837651085853859
80	0x3fa2172a08f45d91	0.03533297881420617
81	0x3fa583b939dff451	0.04202059585075147
82	0xbfa7bb411626cbaf	-0.046350511507078244
83	0xbf819cc81719efd6	-0.008599818425174915
84	0xbf9ad5cc5f39e9f9	-0.026206200897357566
85	0xbf96e16b85f645af	-0.022344284106628084
86	0xbfa205fb0c29645e	-0.03520187877138235
87	0xbf9f87cb13a091f5	-0.030791447709036707
88	0xbfa0d34a1f69a033	-0.03286201127485846
89	0xbf73473b6be42f62	-0.004706604113618203
90	0xbfaaa552c5ae7cab	-0.052042566901257935
91	0x3f75a4ffc50aff15	0.0052843085292691066
92	0x3fac1d4914ce2374	0.05491093043298792
93	0xbfa87bf7406598d6	-0.04782078419775508
94	0x3fa0860344b0b3a5	0.032272436270751194
95	0xbf9f7a32e54916e7	-0.03073958897063891
96	0x3fa48fac11e57a7d	0.04015863150083463
97	0x3faaa7d8b2117f94	0.05206181691823911
98	0xbf9341c79b45c547	-0.018805617191394643
99	0xbf5d6786426b4674	-0.001794701683753533

fc2_act.weight f8 [50, 100]
0	0x3f821526f6fc22c3	0.008829407131558558
1	0x3fb10757289fc3d4	0.06651825658606408
2	0x3f947d2c1f3e5564	0.020008744627906153
3	0xbfa98f40f049c614	-0.049921063739827215
4	0xbfb3075c3055de7a	-0.07433105640472518
5	0xbfb2fef0739fb033	-0.07420256445738076
6	0xbf86e12934692296	-0.011171647941538947
7	0xbfb164227acc1206	-0.06793418405511184
8	0xbfa71abf52501b00	-0.04512594108387269
9	0xbfb2f94000fe16c8	-0.07411575340492071
10	0x3f1c89ad58e5f3fd	0.00010886307265951796
11	0xbf9ed011a90b1d4f	-0.03009059519061213
12	0x3fa3889e0656f677	0.03815168216122527
13	0x3fac0d841ba0a49c	0.054790619251727096
14	0x3f702e4b9586ca83	0.003950400591224426
15	0xbf98fe6090c50a42	-0.024407872043648256
16	0x3f9411f5a1f07051	0.019599760064110964
17	0xbfb11e35614e89d5	-0.0668671953740508
18	0xbfb1d0ec07c8bd0a	-0.06959414663355204
19	0xbf97eda2946ad44a	-0.023367443379090504
20	0x3fa54e63bf613152	0.041613690482878454
21	0xbfa0080de2b1f3ae	-0.031311448977226916
22	0xbfa96ef98f179d57	-0.04967479583484174
23	0xbf9fd96f0f7a3596	-0.031102881736435238
24	0x3fb127843f519436	0.06700922532907402
25	0x3fac56a41a36a981	0.055348518562214906
26	0xbfb0e512fa1678b6	-0.0659953938070171
27	0xbfab115637ce7bd1	-0.05286664420349719
28	0x3fb2024a46710755	0.07034744472278238
29	0xbfb45c790e2e0b4d	-0.07953602405727374
30	0x3f9635550f5f2a89	0.021687821448532794
31	0xbfb09dc99db65314	-0.0649076471366466
32	0xbfb46fb5c1b49aba	-0.07982955912721482
33	0xbfb1a7a4adc31b33	-0.06896428339233011
34	0x3f8d65e66d7c51a9	0.014354515281902307
35	0xbfa53bf031c41778	-0.041472917628239736
36	0x3f95c1b18178237b	0.021246694113901548
37	0xbf840d80bd803f71	-0.009791379721747014
38	0x3fb0b0617c3199b2	0.0651913574416543
39	0x3fab045720861973	0.05276748916644438
40	0xbf7174fc139cd5d5	-0.00426195590425978
41	0x3f91c0bb360f5154	0.017336774038839778
42	0xbfb360268b8e7cd6	-0.07568589121955269
43	0xbf89ee06d68fc649	-0.012661031172657948
44	0xbfb1df448fb93453	-0.06981304654000668
45	0x3fa4c6904d9b1360	0.040577420686111365
46	0x3faa31fccef1e034	0.05116262460882162
47	0x3fa4d3d45b196996	0.04067863094379047
48	0x3f885c5a53f47a45	0.011894899069884288
49	0xbfabb4013f7ea62a	-0.054107703209705996
50	0xbf9fc1f281879885	-0.031013287692893705
51	0x3fac33d6ef2f63f1	0.05508300466289729
52	0x3f9fa8bbd2280f7b	0.030917105390485738
53	0xbf95b2e83756ab16	-0.021190288903805664
54	0xbf939b40fa026c10	-0.019146933802954236
55	0x3fa8ba3ae4a153bc	0.04829582253356743
56	0x3fa4bcf7e6f9396c	0.04050421423436287
57	0x3fb1b118c42353b1	0.06910853184247291
58	0x3fa37e862deb7265	0.038074677567895766
59	0xbf8b41c68e11f41c	-0.01330905076087601
60	0xbfadef4c721be72c	-0.058466328553505725
61	0x3f9b0728a3de5299	0.026394495965706175
62	0xbfb71385379518fe	-0.09014160735123153
63	0x3fb58a569a4b434e	0.08414212481444602
64	0xbf6d38185be38ba8	-0.0035667873154223324
65	0x3f8f61739102198c	0.015322592604445594
66	0x3f9dfdead1756456	0.029288929972015453
67	0x3f9845c74bf7dce9	0.023703683864337775
68	0x3fa701183f720b71	0.04493022703629535
69	0x3fb7b2951b574735	0.09256870191100293
70	0x3fae7f7d89d3a061	0.05956642444090288
71	0x3fb189658b3fe2fa	0.06850275659224883
72	0x3fac9c47bacf730f	0.05587982325935147
73	0xbf87ced56440b65b	-0.011624972459766505
74	0xbf8fa5d2c808625c	-0.015453001718058683
75	0x3f7387d9de2bd783	0.004768229528726911
76	0xbfaeace8e22c42da	-0.059912946328159314
77	0xbfb4671e255a6f13	-0.07969845210976371
78	0x3fb6f280cc939987	0.08963780397934872
79	0x3f9463ec04aceb85	0.019912421975486722
80	0x3fa819ab873e821f	0.04707084680490347
81	0xbfac38479c7396fe	-0.05511688027199389
82	0x3fb036c1b0666035	0.06333551937712019
83	0xbfb2027dbdce90db	-0.07035051235158411
84	0x3fab040c2b350ba5	0.052765255235974785
85	0xbfb1f59c113bb48b	-0.07015395565732001
86	0x3f9f1c844270bc13	0.030382219844053603
87	0x3f8ca2064ac1052d	0.013980912357626519
88	0xbf919ee9c74def95	-0.017207768239572003
89	0x3fa6a34098b2adfb	0.04421426643360956
90	0x3faf8f5ae1a7ea29	0.06164058689678981
91	0xbfa7c7bedc04a56c	-0.04644581256645605
92	0x3f9241b2aaeb9acd	0.01782874267783079
93	0xbfa2be7facda857f	-0.03660963997868815
94	0x3fb0c476ed192bfd	0.06549781120808969
95	0x3fadb71decbf0bb8	0.058037696027461505
96	0x3fb508be60d56ad6	0.08216466774085104
97	0xbf994bb71f71bbfc	-0.024702893537718026
98	0xbf9b6a9f8d531e11	-0.02677392292096498
99	0xbfa07b178a3c1388	-0.032189117073392615
100	0xbfabecb73b1f31fe	-0.05454037281706191
101	0xbfa41d1f0febd27b	-0.03928467816686961
102	0xbf7eacb5b84ae915	-0.007488927691776466
103	0xbf94d6865060b482	-0.020349596649044795
104	0x3fae6289e0b71f77	0.05934553974253636
105	0xbfa75d64e45f1cd0	-0.045634415509590576
106	0x3f6ed781ca9cbd62	0.003764871119436173
107	0xbfb41933456dd436	-0.0785095257286493
108	0xbf900b0ef09229a1	-0.01566718428925074
109	0x3fb31d4a50c73922	0.0746656844341698
110	0x3fa0d8651d9b1877	0.03290096269988479
111	0x3fa30c495533f4ee	0.037203113222838854
112	0x3f9c804c4a80c857	0.027833168074899408
113	0xbfacac1489545774	-0.05600036789307597
114	0xbf8287979154725f	-0.009047683832755725
115	0xbfb7863463c83495	-0.09189155040822279
116	0x3fac7a505054bf64	0.05562067967036802
117	0xbf8443b780cf96ed	-0.009894784563538173
118	0xbfb0a4cc9b94fde2	-0.06501463697804113
119	0x3f63168bad473ed2	0.002330086523421795
120	0x3f76758b074689a5	0.005483191566244027
121	0x3fb29355b3de535c	0.0725606502658826
122	0x3f874cf5defe7fc2	0.01137725912832355
123	0x3f70630534957971	0.004000683148971938
124	0x3faa27fa1aa4cb9a	0.051086250069054276
125	0xbf92f4ad480171a7	-0.01851149322497894
126	0xbfa892800ec77e77	-0.047992708019362
127	0xbf6090ba21e9f3c6	-0.002022136249534931
128	0x3fb05059be05ff2d	0.06372605218166134
129	0xbf9368e4ab0355cb	-0.018954823434645534
130	0xbfa09164cdef4f36	-0.03235926641323632
131	0xbfa1f0eefc5aeceb	-0.035041302018237484
132	0x3fa1e86944410c32	0.03497628172092283
133	0xbf821955f28c6f34	-0.008837386574263563
134	0x3fa4d3bf4f052826	0.04067800368882528
135	0xbfa1c4d57755cff0	-0.03470484811523977
136	0x3fb13c4d90a0af0e	0.06732640057515146
137	0x3fa3eeb00331a34f	0.038930416478996414
138	0x3fab1c64b728e9a7	0.05295099960172261
139	0xbfa2c770378dfb08	-0.03667784383923417
140	0x3fb27b562447b089	0.07219446550124266
141	0x3f7d1c12ea1441e7	0.007106851467384412
142	0xbfad1db988bc7176	-0.05686740678922579
143	0x3fa28c5f2e13fc91	0.03622720181919548
144	0xbfb64adb389d08b6	-0.08707971698916847
145	0x3fa2d4b97b2c51b5	0.03677920940950533
146	0xbf825e636701862b	-0.008969093876831277
147	0xbfac53cdd1f3d469	-0.05532687366386641
148	0x3f9a8b559ca71e3d	0.025922143637016715
149	0xbf93f462e278bfe3	-0.019486947128996134
150	0x3f92e59c955bab77	0.018454023948759137
151	0x3fb55993c4d1e9d1	0.08339808993506571
152	0x3fad9bb32af29def	0.05782852076782407
153	0x3fa5c636abd4f152	0.04252787444645158
154	0x3fa5e7408617785b	0.04277993809567767
155	0x3fa72a10823e2201	0.04524280156971728
156	0xbf97bc099927a61b	-0.02317824361117547
157	0xbfb108b8d8212415	-0.06653933788869922
158	0xbfa30ee508e29776	-0.03722301228962881
159	0xbf88cb0b0a3278d2	-0.012106024025623805
160	0xbf86de9b3f4c6e61	-0.011166775578707435
161	0x3fb05df4c50018c5	0.0639336567838625
162	0xbfb1a290164e0b22	-0.06888676209022696
163	0x3fb13ec54e341a2b	0.06736405524507265
164	0xbfb0280c86077dda	-0.06311109802435713
165	0x3fa8718fe52a8c99	0.04774140999259053
166	0x3fb041f05f7334cf	0.06350614862749925
167	0xbfa928544b856c6d	-0.049135812968153704
168	0xbfb0ac88d05a327d	-0.06513266646124723
169	0x3faededaf6c7572d	0.060294001221036765
170	0xbfa9cc0489873f1f	-0.05038465670406666
171	0xbf86cc1c07c5932f	-0.011131495463538947
172	0x3fa68dfad79ac7f8	0.044051970309183675
173	0x3f8038b4ea575259	0.007920659448168598
174	0x3fae1c42a1d717e9	0.058809358840832555
175	0x3f8e5eac13183ac2	0.014829010327074402
176	0x3f9bbf54926a3971	0.02709705489774578
177	0xbf9626a01bdc43b5	-0.021631719303573955
178	0x3fb3193f81b78fdf	0.07460400502128504
179	0xbfa5693c68633686	-0.04181851171743482
180	0xbfacb36edee79b7c	-0.056056465826080676
181	0xbfa201923bf4f4b5	-0.03516823751349688
182	0x3fa780cd49d70d78	0.04590455557220258
183	0x3f8aafcc4b2450a1	0.013030620616099777
184	0xbf9b1c1a8f3d0c83	-0.026474394791204958
185	0xbf83c20b5df9977e	-0.009647454076183722
186	0x3fa79635d0ffd1c7	0.0460678880334942
187	0x3f9ccc41d8d6943d	0.028122929439309486
188	0x3faf53c5496116e9	0.06118599434607381
189	0xbfb092a9758d5977	-0.06473788375783394
190	0xbfafffd65c6811a4	-0.062498759059994385
191	0xbfa4ddec019a4053	-0.04075562972605042
192	0x3fb078acc10f55d1	0.0643413516366629
193	0x3f97b0ca34c57ad4	0.023135337325011232
194	0xbfa7e48e77a4c9ff	-0.04666562281126473
195	0x3faead0eb9ba8e80	0.059914074108090354
196	0x3f99d2ffd1330ec4	0.025218960898895984
197	0xbf72f64eb18c23a5	-0.004629428288134206
198	0xbfb121fedd2297f7	-0.0669249811058704
199	0x3f8b491a08ce95d9	0.01332302417160751
200	0xbfb26db75c268d72	-0.07198663711328893
201	0x3fa754440999de58	0.045564771816256566
202	0x3fb94fab720a76bc	0.09887191328240424
203	0xbfb3657b225c7333	-0.07576722706694454
204	0xbfb5f1b8da941f4e	-0.08571963631049792
205	0xbf82adce52aea443	-0.009120571039448083
206	0x3fb443b76ec0001e	0.0791582723031756
207	0x3fb3de3f703bc886	0.07760998239590053
208	0x3f92535a809bd864	0.01789609346357003
209	0xbfb666f756719b4c	-0.0875086389583945
210	0x3f97eaf53cf62916	0.023357230993078813
211	0x3fad87769615d3d0	0.05767412740798472
212	0xbfb5143cb48a1141	-0.08234004409502395
213	0xbf9deb1401b15184	-0.029217064479170954
214	0xbf938843b44bd7d7	-0.019074495200548682
215	0xbfae9ae3bfe6695b	-0.059775464225100015
216	0x3fb2e01af3cd4c87	0.07373207523532886
217	0xbfa2f04e1411c324	-0.03698963160503002
218	0x3f9162df921927e5	0.016978734295015747
219	0x3f80ac1084b80ebd	0.008140687036763844
220	0x3fb0a1f35f85ca6e	0.06497117120833604
221	0x3fb15aa3736ee311	0.06778928344909853
222	0x3f5273f5e1c342dd	0.0011262799444475204
223	0x3fa5694fd78f4460	0.0418190909036944
224	0xbfa569e1abfd963d	-0.04182343697065647
225	0xbf9d454d3e5354aa	-0.02858467762856224
226	0xbf82a47e6ba67692	-0.009102809581970992
227	0xbfb08ffc54345c26	-0.06469704681181607
228	0x3fa48f47a0ebe48d	0.040155638116581384
229	0x3fa8d307ca90f372	0.04848503444416154
230	0x3f7435dece37346f	0.0049341872540483575
231	0xbf96f87cea768b6b	-0.022432281313409613
232	0x3faf44b24a323944	0.06107098727908292
233	0x3fab3a74ef20340c	0.05318036479011576
234	0xbfacb4dfc55985cc	-0.05606745990804604
235	0xbf822150d9f43730	-0.008852607394625872
236	0x3fb88df8ecc14e43	0.09591632633355922
237	0x3fb37b565b4b4d10	0.07610072831021264
238	0x3fa7b4cbed9273e7	0.04630124354409997
239	0x3f9ec91d87588173	0.030064069162223327
240	0xbfac4a8c5cf057e4	-0.055256258339951875
241	0xbfb04e8ad13a6ede	-0.0636984597026031
242	0x3f9ef67b61c0ac74	0.030237129060122617
243	0xbfb3cce5d258596b	-0.07734524140719194
244	0x3fa4d66ce5de7004	0.04069843584076696
245	0xbfb24b2bfdd34aab	-0.07145953127773434
246	0xbf9f29eeb8ceabd9	-0.030433397321455977
247	0x3fb51c5b6dfbe3b2	0.08246394572405683
248	0xbf926af911845634	-0.017986194318913643
249	0xbfb29b1acea27e03	-0.07267921013635008
250	0x3f963da07bd3b914	0.02171946292667666
251	0x3fb5f8dfd7cfac07	0.08582877177074986
252	0x3fb21456b51dcd85	0.07062284395015268
253	0xbfb7554f02b46259	-0.09114545646696949
254	0x3fa23aadbf816202	0.035603932978748545
255	0xbfa03aa57a85fd05	-0.03169743652960658

fc2_act.bias f8 [50]
0	0xbfad97b65c96225f	-0.05779809837537608
1	0xbf88b98b53e0924a	-0.01207264756892203
2	0x3fb3d53fa2c58623	0.07747266506114463
3	0xbfa343608c10b9dc	-0.037623421762294135
4	0x3fb4640bca9bbd1e	0.0796515817307761
5	0x3fb6eaedefcf795a	0.08952223877665713
6	0x3f9e8a92dba37e04	0.029825491576842125
7	0x3fb00235c9972ba0	0.06253372356074616
8	0xbfb5816c15833d64	-0.08400607609950367
9	0xbf8ae2975b8efcaf	-0.013127500993390077
10	0x3fac8c993e4ce2b2	0.05576018224241376
11	0x3fa955643b858dfe	0.049479610696632634
12	0x3fadfc85f3706f89	0.0585672244708056
13	0xbfad1bc4d53587f6	-0.05685248472833841
14	0x3fb34cfd0d7441e4	0.07539350107641202
15	0x3f92ab88916bdaee	0.018232473254978503
16	0x3fb775d16d57c331	0.09164151114943021
17	0xbfa7211d7987012d	-0.045174523434527415
18	0xbfac8bbe27af7ff8	-0.05575365290110307
19	0xbfb0d17df5b412b9	-0.06569659470194268
20	0x3fa0e604ef5d7d0b	0.03300490781725259
21	0x3f9f721d65c80ceb	0.030708751046415832
22	0x3fb246eefe1a9c03	0.07139486030301616
23	0xbfb5392b3269f8bf	-0.08290357571420069
24	0x3fa1365be27bd744	0.033617850682203826
25	0xbf927c5081e923a3	-0.018052347115630984
26	0xbfa848e4ef901084	-0.04743113922452927
27	0xbfade7b62b0ba475	-0.058408444170546504
28	0x3fa319e3f4c625cf	0.03730690348590892
29	0x3f8cb06f3d168ac8	0.014008397151717658
30	0xbfaa7b2407d59de2	-0.0517207393229986
31	0xbf9cb10366dbe545	-0.028019002106679087
32	0xbf9992106f5d7b8d	-0.0249712532016662
33	0xbfaff59c9966eb39	-0.06242074368079504
34	0x3fa3342d1ddfb1e9	0.03750744809790147
35	0x3f940c1384a27413	0.019577317209599054
36	0xbf81d00cf2e00d7b	-0.008697606241190972
37	0x3f9ded34655609c5	0.02922517651087177
38	0x3fb09eb87900cd86	0.06492188409975172
39	0x3fb0ec8544275d2b	0.06610901750479019
40	0xbf9b0cd3bf6fe951	-0.02641611915530834
41	0x3f550db4181fda48	0.001285005448605896
42	0xbf96ad9c66f919d9	-0.02214664820191978
43	0xbfa9c38a74877639	-0.05031998321986148
44	0x3fb00fd2f713f62f	0.06274145633866433
45	0xbfb19bc3ae9d3f61	-0.06878302586596653
46	0x3fb791dc6ecf480b	0.09206941323580524
47	0x3fa8a5dba5ab012d	0.04814039609255114
48	0x3fa51d96056935e3	0.04124134841968521
49	0xbf75c1af378693bc	-0.005311665001873796

fc3_act.weight f8 [20, 50]
0	0x3fb272d1e5a08029	0.07206451278807492
1	0x3fc1895e975768db	0.13700468435019428
2	0x3fb63107062a2d61	0.08668559933191979
3	0xbfc0f24582b08ece	-0.13239354020435318
4	0xbf95c365ce94c0b1	-0.02125319550867805
5	0xbfa8772617c985a8	-0.04778403320666352
6	0xbfb061b8ee4ffa7c	-0.06399112528013434
7	0xbf90d917f231e19c	-0.016453146130943716
8	0x3f752c0b0bf7a8a1	0.005168955947263993
9	0x3f7e3c3518b7e933	0.007381637009070285
10	0xbfbfe10b8269baf4	-0.12452766355429984
11	0x3faefea8548c8ad6	0.06053663284389692
12	0xbfb3a7b0035b70f3	-0.0767774589725752
13	0xbfad39421f5ca773	-0.05707747109256802
14	0x3f88d76a9f9e20e1	0.012129624363084126
15	0x3fb5882caecbd28c	0.08410910861477755
16	0xbfaa977e883b908e	-0.05193705952641024
17	0x3fa0de24d74f346f	0.03294482353485583
18	0x3fbc5a0a5c715d24	0.11074890858559577
19	0xbf991b6d9c307981	-0.02451869264415896
20	0x3fc0a5386cf3f53b	0.13004212684601577
21	0x3fb48086e623af03	0.08008616560590202
22	0x3fb7b663d0bef150	0.09262679907164295
23	0xbf9d8e134f4e19c4	-0.028862287249944676
24	0x3fb772a76bc0164f	0.0915932310163836
25	0xbf3a7cc13e80555b	-0.00040416448473597704
26	0x3fb17da98a755f8a	0.06832370405515867
27	0x3fb98eac6b9b0ecb	0.09983327509967947
28	0x3f94e5b76959caf0	0.020407548718547497
29	0xbfb7c84ef493de27	-0.0929002139199545
30	0x3facab49222c02d0	0.05599430601251287
31	0xbfb640269be09219	-0.08691636376949709
32	0x3f762860009bc9a2	0.005409598359380404
33	0x3fb59a503e656c40	0.08438588641495048
34	0x3fb9ed2505bd0423	0.1012747897157316
35	0x3fb36384c37fd9d8	0.07573728344855313
36	0xbfa6dab66038b793	-0.0446373932321499
37	0x3fae26566f346742	0.05888624293784385
38	0x3fb6aeb9459c8cb7	0.08860357236385395
39	0x3fa4da68d5b66616	0.04072883232874973
40	0x3fa051f3def70bb2	0.031875248877916276
41	0xbf8ed50b216e1bfe	-0.015054785688120017
42	0xbfa3ec81ae7d5bc7	-0.03891377692223546
43	0xbf5a1d91dbeedf11	-0.0015939640431791894
44	0x3fb5a64845cead43	0.0845685167720847
45	0xbf9170d24786b5bc	-0.017031942000974118
46	0x3fb28900b8cb67b4	0.07240299712739678
47	0x3fb5ca735923ffe3	0.08512040067944286
48	0xbfb04ddeb153d62c	-0.06368820027622552
49	0x3fa7992efa0659c7	0.0460905723768295
50	0x3fbb93f40e3c074b	0.1077263388397373
51	0xbfb479384c78898d	-0.07997466914142688
52	0x3fa4c2ecb4a9e75a	0.04054965691916719
53	0x3fb25439cf318992	0.07159768398699942
54	0x3fbbfa1885bbb9d2	0.10928490891431089
55	0xbfbb714be965b0cc	-0.1071975178544477
56	0xbfb5526b43507eee	-0.08328886407297961
57	0x3fbe907271c36dc1	0.11939158704210852
58	0xbfa4714f6ff14aae	-0.03992698899732737
59	0xbfb2e1371f7ee1a9	-0.07374901312767314
60	0x3f986889527e58c2	0.023836274776464668
61	0x3fb33a8d4306b54f	0.07511217962629256
62	0xbf99205c870558f9	-0.02453751157857995
63	0xbfba04085b2e9259	-0.10162403322335346
64	0xbfb6d9d85a2b636a	-0.08926155282405338
65	0xbf9d17296317abbd	-0.028408667252658882
66	0x3f9c3e48679f50a7	0.02758134014568783
67	0xbfab9e7ef79cc182	-0.053943603254427167
68	0xbfba84bfd2083045	-0.10358809354528471
69	0xbfa07d7267e55333	-0.03220708387622153
70	0xbfbcfa37b90d274c	-0.11319301860671976
71	0xbfbfeddabd325c0e	-0.12472312087116696
72	0xbf974a0b093fad1e	-0.02274338954877663
73	0xbfb0edd482ce71ab	-0.0661289996482483
74	0x3fb9447d13e86736	0.0987013028719986
75	0xbfa2664904261029	-0.035936624294692195
76	0x3fb1d9f10a62747e	0.06973177436380415
77	0xbfb4e27474f6f37d	-0.08158042769987435
78	0xbfa3347255bafa58	-0.03750951096070726
79	0xbfbaf2c3dcd52b74	-0.10526680127547455
80	0xbfa24d0b5e5975cc	-0.03574405218817453
81	0x3fa8fdb3a35f2010	0.04881059045106906
82	0x3fa4922e10f9cadd	0.04017776448462993
83	0xbfb606e4ae9b1044	-0.08604268324694525
84	0xbfaac5cf9cc81511	-0.0522904280551676
85	0xbfa9aa88bf57f6a4	-0.05012919746148484
86	0xbfc1b7adb01d098e	-0.13841792201317243
87	0x3fb16b75fe8221cf	0.06804597343046413
88	0x3fa98472d03920d1	0.04983862678324303
89	0x3fa016716c87cb9d	0.03142122697672465
90	0xbfbf5fe52176fb02	-0.12255699221621444
91	0xbfb76a3c3833841d	-0.09146477100468116
92	0x3fb3fb21da98e8e5	0.078050723904116
93	0xbf88c25022cdf858	-0.012089372694159703
94	0x3fbc41a8ce4d9f02	0.11037688290309336
95	0xbfc1137eb2b8fd25	-0.1334074375790603
96	0x3fa51fd7815dda40	0.041258558790037814
97	0xbf9b72a48a84d03f	-0.026804514841572532
98	0x3fb8da92df5684af	0.09708517029368367
99	0xbfb8490b60e9716e	-0.09486456981671207
100	0xbf9fad320661b1c7	-0.030934125556471927
101	0xbfbaa98d383771b5	-0.10414965269541805
102	0xbfa4d06c234e010d	-0.040652636823326295
103	0x3fb67c4e05ebde58	0.08783424038471688
104	0xbf8266115d46165d	-0.008983741435041265
105	0xbfa56a971ce6c9bc	-0.041828844335572296
106	0x3fa49ce4bce89dc1	0.04025950246824151
107	0xbfb2721520337353	-0.07205326114803982
108	0x3fbe4b977c6bb0a0	0.11834093844999183
109	0xbfae30875e4ccb1d	-0.05896399522898419
110	0x3f5560bde479f04c	0.001304803316002373
111	0x3fa14a6dccef77d1	0.033770972506075865
112	0x3fb78f852b14fde9	0.09203369428450227
113	0xbfbc8086a9c58345	-0.1113361515504155
114	0xbf4b4da7273e3a23	-0.0008332315614881274
115	0xbfb76e11350ec785	-0.09152324242930206
116	0xbfa18182aea6b72c	-0.03419121152852109
117	0xbf9f44b5a9aff5e3	-0.030535543901342065
118	0x3fbb9fef2bd36d77	0.10790915317504877
119	0xbfa8b1defc2a144d	-0.04823204830339787
120	0x3f8262add6c33068	0.00897727786686904
121	0xbfb5265b11702980	-0.08261651206718135
122	0xbfb9a21a5a0e903a	-0.10012974451689241
123	0xbfa6710fea878f9d	-0.043831345919698374
124	0xbfac50fcc4eea96f	-0.05530538467367562
125	0xbfb372b8c7bc4a70	-0.07596926571231122
126	0xbfb40f4eaf1d15fb	-0.07835857177004606
127	0xbfb81ec78ce07eb8	-0.09421965779665242
128	0x3fb3659c0874927c	0.07576918798856441
129	0xbf9e24a8672e949e	-0.029436713502623328
130	0xbfb4e53ef01d7f6c	-0.08162301408947109
131	0x3fb3523b48249849	0.07547350417425593
132	0x3fa7afcc9f80ad76	0.0462631172852878
133	0x3fa02fb6adeeec22	0.03161402581414331
134	0x3faff45c2be71ab9	0.062411194190237614
135	0x3fa4f717af44529b	0.04094766630638454
136	0x3fbe42d20bdc57f7	0.11820709981506626
137	0xbfb0f5766f7c4765	-0.06624546262562843
138	0x3fbc7500c2d3bb22	0.11116032368202558
139	0xbfc073e0825b9903	-0.12853628506781697
140	0xbfb07a09ff4da305	-0.06436216814985236
141	0xbfa4e0a5d577bb9c	-0.040776426609105715
142	0xbfa12ddbb4591e03	-0.03355299545779291
143	0xbfb09e6f5559773f	-0.06491752465941845
144	0xbf9c03762ec26e98	-0.02735695515057887
145	0x3facfaf8519c3c3d	0.05660224910945331
146	0xbfaaf8237177b031	-0.05267439613439285
147	0x3fbda2235ba7718e	0.11575528133056975
148	0x3f963782a28ad75d	0.02169612996177449
149	0xbfa2c42d955717d8	-0.03665296981812077
150	0xbfb50cb4b60f5714	-0.0822251266939385
151	0xbfa568fcf624c3fa	-0.0418166208713799
152	0xbfb53ef8261a4798	-0.08299208574524497
153	0xbf8bba4b210852fe	-0.01353892035062065
154	0xbfaa695d7d897263	-0.05158512265618211
155	0xbfb62b16d0610f73	-0.08659498774892231
156	0x3fa0b58415609061	0.0326348568053454
157	0xbfa4b2d5dc6f3536	-0.04042690578317336
158	0x3fbf16b99b9f3e4f	0.12144050645223924
159	0x3fb5450caee4432c	0.08308486242118523
160	0x3fb9f93f1145f9b3	0.10145944759094654
161	0x3fa682171d95bcd6	0.043961260186614545
162	0x3fa32495138add14	0.03738847602419973
163	0xbfac9a5b7cc737c7	-0.05586515329524349
164	0x3fbbf408f0859032	0.10919242736923776
165	0x3fb95eed78eb2231	0.09910473062621673
166	0xbf990a8ce88315ee	-0.02445430916920615
167	0x3fa964a4517291ec	0.04959596151573806
168	0xbf8288c5452d99b1	-0.009049931691788556
169	0xbf854abd4b43f6d2	-0.010396460399074856
170	0x3f7cdebbd634619e	0.007048352944615392
171	0xbfb558ca1ea9417a	-0.08338607071460116
172	0xbfb2ae5723b841d0	-0.07297272321762382
173	0xbf8288ad2842f3a3	-0.009049752036270514
174	0x3fbc0bc2e282f144	0.10955446271959085
175	0x3fac51a4e7f4b46f	0.05531039554112104
176	0x3f394c18d154a2e4	0.00038600545788595856
177	0x3fa30dc7d10f1f45	0.03721451212874042
178	0xbfa88b7b63690bb6	-0.04793916309838357
179	0x3fa48d6f700a7823	0.04014156572996821
180	0x3fb9ee8520629168	0.10129577675485779
181	0xbfa338000c40cd3b	-0.037536622520202255
182	0xbfb02b05a451b2d4	-0.06315646421144133
183	0x3f668c1efd11c12d	0.0027523617978248067
184	0x3f93f5f9a1fc4272	0.01949300814800598
185	0x3fba6bf29203debf	0.10320964875051696
186	0x3fb71c614b011175	0.090276795207563
187	0x3fb04e1585593d49	0.06369146829205365
188	0x3fbdd72d09d585c5	0.1165645741471258
189	0x3f9104ae31a94032	0.016619416981768782
190	0xbf7cc060123b62b2	-0.007019400861928803
191	0x3fa2b1289afdaac4	0.03650786296824074
192	0xbfb03e2c63020d9a	-0.06344869057834615
193	0xbfb8a389aa43b06b	-0.09624538809629406
194	0xbfad7eac02717682	-0.05760705499481579
195	0x3f7cc2567336d6f3	0.007021272368936004
196	0xbfbf2223cac68722	-0.1216146822030422
197	0x3fad69dd86254c94	0.05744831335564374
198	0x3f899b533aee09d7	0.012503290401359486
199	0xbfa31098ce5fe273	-0.03723599929066248
200	0xbfbe83f2c7496cec	-0.11920087209130131
201	0x3fbee8c4fe71346c	0.1207392808148186
202	0x3facd041bb0ea731	0.056276372989783836
203	0x3f80218b1a56e7db	0.00787647890216541
204	0xbfb8eebcacb0996a	-0.09739283767757959
205	0x3fa5b8d95fc4c59f	0.04242591184664523
206	0xbfbd144452c79aed	-0.11359049817074736
207	0x3fb693fffeb56c5f	0.08819580048059227
208	0xbfade86b889ac9d9	-0.0584138492826189
209	0x3fa75e330ff7c771	0.045640559863285975
210	0xbfbf819f0213fd22	-0.12307161141142278
211	0x3f93eaa4434055fc	0.019449774365133607
212	0xbfa5fc3c288c6ec0	-0.042940025281692495
213	0xbf7223c09932b64d	-0.004428627336137203
214	0x3f9a930aa184b6b9	0.025951543911267836
215	0x3faf6fdf0714c974	0.06140038453522126
216	0xbfab0a419cf94597	-0.05281262437041361
217	0x3fbbe4af22e7433b	0.1089581928456597
218	0xbfb5cc253772f5aa	-0.08514626125084726
219	0x3fb5bde5cfd0af68	0.08492885898220737
220	0x3f9a76f32767e63b	0.025844382553236605
221	0x3fb6094c86441cc3	0.0860793903158195
222	0x3fb435be059e1cd4	0.07894504201077562
223	0x3fac6ff2e858f49d	0.05554160200379352
224	0xbfac6ecab0a92bda	-0.055532774033586654
225	0x3fbcec817564d9f6	0.11298379055083516
226	0xbfb0c843d5beaac1	-0.06555580109003768
227	0x3fa0b0103318305b	0.03259325622283945
228	0x3fc03a6ddcf06679	0.1267831162265798
229	0xbfb86d86f5b1af55	-0.09542125223532356
230	0x3f9fd59a2db2df01	0.0310882654564173
231	0xbfa467800b95faea	-0.03985214368275598
232	0xbfb175da5d2d2c00	-0.06820454382720698
233	0x3fbef5d9615f5c5e	0.12093886019953135
234	0xbf9119fb437a9e84	-0.01670067405089394
235	0xbfb18344640d14bc	-0.06840922777799369
236	0xbf88c46f4cd8acbe	-0.012093419583001693
237	0xbfb5f715af97a1b6	-0.08580146347924864
238	0x3fc0691c306e5a3d	0.12820770611570423
239	0x3f9c0e7196e265c7	0.02739884837555964
240	0x3fb834e6292ccf62	0.09455717568635927
241	0xbf9b4f98928f4c83	-0.026670822091386725
242	0x3fa1af7e54cede62	0.03454203400854962
243	0x3f72898aea19bc03	0.00452570212801984
244	0xbfb7fc8d2e9a13a4	-0.0936973799490049
245	0x3fbc850fb4445b86	0.11140535498667078
246	0xbfa7ea0a128f0260	-0.04670745350404526
247	0x3faed2d59ba0d7b0	0.060202288863748676
248	0x3fb379ac14ed0ebf	0.07607532034767937
249	0x3fb2663023d3848d	0.07187176584877104
250	0xbfb190b036301067	-0.06861401865904924
251	0xbfab5b6f6dac5dce	-0.05343197072778204
252	0x3fa671ec4f10ea92	0.04383791413461781
253	0xbfba037061733a04	-0.10161497477677278
254	0xbfaaaae9c0e549dd	-0.052085213467438975
255	0x3fbbd7f7584b7518	0.10876413255342177

fc3_act.bias f8 [20]
0	0x3f8b5d5627259caa	0.013361619062108272
1	0x3fb379cb14d203a4	0.0760771680670716
2	0x3fbd04f0d18494a0	0.11335663905318194
3	0x3fa4904edfbef2a4	0.04016348344109602
4	0xbfb3f3fefdab00e9	-0.07794183438364012
5	0xbf97790bcb177367	-0.022922691603401015
6	0xbf9bae01b138a15d	-0.02703097004101217
7	0x3fb5ee41ea6aa12c	0.08566677067813505
8	0xbfac976b50b40ffc	-0.0558427368178229
9	0x3f985d9f597cf1b0	0.023794641339223765
10	0xbfbcda8f867e571a	-0.11270997079403991
11	0x3facb64737cafb57	0.05607817226472516
12	0xbf9e2abc12127fc6	-0.0294598947554048
13	0xbfa12df7c31fe459	-0.03355383164302656
14	0x3fbf32da07e30f6a	0.1218696851020106
15	0x3fb671a8856263de	0.08767178780034565
16	0xbfa50e6d82518a6c	-0.04112570014765002
17	0xbfb25eea9e6cd860	-0.07176081054498828
18	0xbfbc1083ca2ac9fc	-0.10962699590417196
19	0x3fad8bcdaf783e9f	0.05770724074329547

fc_q.weight f8 [3, 20]
0	0x3fc2b11ccd14b76e	0.14603004468647945
1	0x3fc0af378f0ae68d	0.13034719929219243
2	0xbfb50d23787f3f78	-0.08223172847578819
3	0xbfc47a93b1dff2da	-0.15999075112622202
4	0x3fa28137e738e0dc	0.0361421079400672
5	0xbfc16443759a7461	-0.1358722995982218
6	0xbfb7e35866167489	-0.09331276409507629
7	0x3f92756396cd60fd	0.0180259285728832
8	0xbfacf79e4dfd21ec	-0.056576678295247124
9	0x3fa4973959d2e7c0	0.040216247763467106
10	0x3fa129f1336eab8c	0.033523118522985035
11	0xbfc50917b317aa70	-0.16433998341320288
12	0x3f581c09d0cc41c6	0.0014715286117202727
13	0xbf9f0d12d59b1962	-0.030323309218851853
14	0x3f6814f20a1569bc	0.0029396750766583473
15	0xbfab45516948726e	-0.05326322946732352
16	0xbfb15e2203da3682	-0.06784260362675279
17	0x3f544c0f9e6e4c5f	0.001238837483218423
18	0xbfc5f1bbdf30e40e	-0.17143963239666998
19	0x3fa507958f4117a9	0.041073487984746145
20	0x3fc3ab5459ca2aa2	0.15366606125129062
21	0xbf89cbb95871a85b	-0.012595603953929826
22	0xbfa47bad65218f97	-0.040006083102326055
23	0x3fbaacf3f04fdd84	0.10420155159942196
24	0x3fba143d637b0665	0.10187133482670559
25	0xbfb87045d110f63f	-0.09546314577252078
26	0x3fb0b08f5ebe2bb3	0.06519409239824263
27	0xbfc0b5e5a4668701	-0.13055105712287943
28	0x3fc309f0ede3dd70	0.14874087920882628
29	0xbfb4fbff466c0903	-0.08197017163550772
30	0xbfa69f7081e4cb80	-0.04418517671219657
31	0xbf9c5431d3400609	-0.027664927023584727
32	0x3f9dbf9373bc8c54	0.029051116885181763
33	0x3f9080190bba96b0	0.016113654461739457
34	0xbfc6c0aa450f42e8	-0.1777546727376127
35	0xbfa340f184cd018a	-0.03760485406974386
36	0x3fbf11a322e27fec	0.12136287309340305
37	0xbfc25bfabb5bf055	-0.14343198917765912
38	0x3f755f362e2a7aa8	0.00521775402253747
39	0xbfb39172e9f3108f	-0.0764381238141729
40	0xbfc0ea5fcec21ad7	-0.13215253444305716
41	0xbfa50b0272d9d63a	-0.04109962131489593
42	0x3fa1a3883fdb58d7	0.03445077685835123
43	0x3f79aafe48b77f56	0.006266587540693388
44	0xbf87aca664e90de4	-0.011559772448101087
45	0x3fc2965eef07e30f	0.14521395369936171
46	0xbfc5e02b2213b32d	-0.17090357936776837
47	0xbfc7e5d522dc77c4	-0.18670143320281174
48	0xbfc68fd8c89dcced	-0.17626485629771285
49	0x3fc8c229617b6248	0.19342534313070048
50	0xbfc53ec2d7da658f	-0.16597781696036093
51	0x3fbac1ec2c8cdcd7	0.10452152335789165
52	0xbfa79500b80c37f2	-0.04605867621113181
53	0xbfbceae5ec77e281	-0.11295926116134504
54	0x3fb196e543c37ad6	0.06870873360046956
55	0x3fbf9b10a3a2196e	0.12345985407782731
56	0xbfa81ba66dc0602f	-0.047085953614612534
57	0x3fb6ce0026f32784	0.08908081961558706
58	0xbfc6e287704fdb6f	-0.17878811820966287
59	0x3fc2e1a64de0805b	0.1475112800844752

fc_q.bias f8 [3]
0	0x3fc5c086e0386cac	0.16993795345556373
1	0x3fa26fef59bef31a	0.036010245995816884
2	0x3fc1b1dd8e3266ce	0.13824052279669846
